output/synthetic_data/models/model_hidden64_lr0.01_clip5.0.pth (torch, 141402 bytes, 9 tensors)

encoder.weight_ih_l0 f4 [256, 1]
0	0xbea27a56	-0.3173396
1	0x3caadf2a	0.020858366
2	0x3e1881ae	0.14893219
3	0xbd41a238	-0.047273844
4	0xbeaabe82	-0.3334847
5	0x3dc62dec	0.09676728
6	0x3d8e54d2	0.06949772
7	0xbe78eb3e	-0.24308488
8	0xbe4a74ba	-0.1977109
9	0x3ce302f2	0.027711365
10	0xbeb16fd8	-0.34655643
11	0xbec1e21b	-0.37867817
12	0x3d1fbaad	0.038996387
13	0x3e198edf	0.14995907
14	0x3c573846	0.013135975
15	0x3d5f5643	0.054525625
16	0x3e0c54a1	0.13704158
17	0xbe9b9129	-0.30384186
18	0xbd884ba1	-0.0665505
19	0x3ce77a97	0.028256698
20	0xbd9012fa	-0.070348695
21	0x3e07cc26	0.1326147
22	0x3e439060	0.19098043
23	0xbe6b0459	-0.22950877
24	0xbe97d302	-0.29653174
25	0xbd8b3654	-0.06797472
26	0x3aee8170	0.0018196534
27	0x3cff3c9d	0.031156832
28	0x3e6459a9	0.22299828
29	0xbe260509	-0.16212858
30	0xbdce29bb	-0.10066553
31	0xbe23a004	-0.1597901
32	0xbdcde41a	-0.100532725
33	0xbdfe3c22	-0.12413813
34	0x3d908dd6	0.07058303
35	0xbdb0ba6f	-0.086293094
36	0xbe6c8aa7	-0.23099767
37	0xbdc3dba0	-0.095633745
38	0x3ddae04f	0.10687315
39	0x3e5fd372	0.21858004
40	0xbdd2768e	-0.10276519
41	0x3db85793	0.090010785
42	0xbd7ef543	-0.06224562
43	0xbd509da4	-0.050931588
44	0x3d996022	0.07489039
45	0xbeb39351	-0.3507333
46	0x3c6470b5	0.013942887
47	0xbcbf1c69	-0.023328977
48	0x3da6b8e9	0.081407376
49	0xbe42b800	-0.19015503
50	0x3d89c93f	0.06727838
51	0xbe788e3f	-0.24273013
52	0xbe3b6244	-0.18299204
53	0xbe710a18	-0.23539007
54	0xbce6bdf2	-0.028166745
55	0x3d63befe	0.055602066
56	0xbc80d0b1	-0.015724512
57	0xbe052581	-0.13002588
58	0xbdec635c	-0.11542389
59	0x3e154c7c	0.14579958
60	0x3d776c98	0.060406297
61	0xbd83f674	-0.064434916
62	0xbdf59a64	-0.11992338
63	0x3da57985	0.08079819
64	0xbd48c335	-0.04901429
65	0x3dd864a7	0.10566073
66	0x3ebefa1f	0.37300202
67	0xbd944dd4	-0.07241407
68	0xbed6b1ae	-0.41932434
69	0x3dd1bb89	0.102408476
70	0x3e59c637	0.21267019
71	0xbe67416a	-0.22583547
72	0xbd910b9e	-0.07082294
73	0x3ca24994	0.019810475
74	0xbe9b9ccf	-0.30393073
75	0xbcff0f82	-0.031135324
76	0x3e38c0d0	0.18042302
77	0x3ed0e3d6	0.40798825
78	0x3e4657ab	0.1936938
79	0x3cd21f94	0.025649823
80	0x3e155c25	0.14585932
81	0xbb8884a2	-0.0041662017
82	0xbe82aca8	-0.2552235
83	0x3ec5d6d2	0.38640457
84	0x3d50b835	0.050956924
85	0x3dc65388	0.09683901
86	0x3c90064a	0.017581124
87	0xbe1fceb4	-0.15606195
88	0xbe3bc144	-0.18335444
89	0xbd82d519	-0.063883014
90	0x3d8de316	0.06928079
91	0x3eb5976e	0.35467094
92	0x3ec6bef1	0.38817552
93	0xbe581a6d	-0.2110383
94	0x3b3a888e	0.002846274
95	0x3dc55022	0.09634425
96	0x3e0b4053	0.13598756
97	0xbca9155c	-0.020640068
98	0x3e87519b	0.26429448
99	0x3e1eeee1	0.15520813
100	0xbe4fafb3	-0.20281868
101	0x3b11076e	0.0022129673
102	0x3d556f42	0.052108057
103	0x3d02518f	0.03181606
104	0xbd79d8c3	-0.060997736
105	0xbce6852d	-0.028139675
106	0xbdb261a9	-0.087100334
107	0x3dfee60b	0.12446221
108	0xbdfb5a88	-0.12273127
109	0xbcd00d57	-0.025396986
110	0x3d8db6d5	0.06919638
111	0x3e1ed428	0.15510619
112	0xbe19ab47	-0.15006743
113	0xbd98405e	-0.07434152
114	0x3df52891	0.11970628
115	0xbe804f04	-0.25060284
116	0x3ab82232	0.0014048277
117	0x3b9103bc	0.004425494
118	0x3ec1b4d3	0.3783327
119	0x3e2d7210	0.16938043
120	0x3df1b901	0.11802865
121	0xbe22063f	-0.15822695
122	0xbdf3cd56	-0.11904399
123	0x3e502190	0.20325303
124	0x3e9cac86	0.30600375
125	0x3b1aa5dc	0.0023597395
126	0x3ddbe179	0.10736365
127	0x3e6d9f66	0.23205337
128	0x3ecd7f4e	0.40136188
129	0x3e3a2468	0.1817795
130	0xbe836c95	-0.2566878
131	0xbcea8917	-0.028629823
132	0x3e97de5e	0.2966184
133	0x3e276ae5	0.16349371
134	0xbcb47d7f	-0.022032497
135	0x3e04100d	0.12896748
136	0xbe62a384	-0.22132689
137	0x3cb5c409	0.022188203
138	0x3e56b2fc	0.20966715
139	0xbe788701	-0.2427025
140	0xbd9921ad	-0.07477126
141	0x3cf2721d	0.02959543
142	0x3e2a425a	0.16626874
143	0x3d6f2f84	0.058394924
144	0x3e6928e0	0.22769499
145	0x3d663e86	0.05621197
146	0xbdd44e51	-0.103665
147	0xbd9728e9	-0.0738085
148	0x3e2ff9b9	0.17185105
149	0xbe11ae06	-0.14226541
150	0xba639ac0	-0.00086824223
151	0xbd9b91d5	-0.07596175
152	0xbe45e7e3	-0.19326739
153	0xbe5c40d8	-0.21509111
154	0xbe55c5e4	-0.2087627
155	0xbd995f47	-0.07488876
156	0x3e6de0aa	0.23230234
157	0x3bfb6800	0.00767231
158	0x3e677556	0.22603354
159	0xbe7d324f	-0.24726222
160	0xbdf8a75f	-0.121412985
161	0x3d0026aa	0.031286873
162	0xbea02463	-0.3127776
163	0x3e22b979	0.15891065
164	0xbdab7aeb	-0.08373054
165	0xbd0ea099	-0.034821127
166	0xbe59e151	-0.21277358
167	0x3e8e23c9	0.27761677
168	0x3c23a116	0.009987136
169	0x3d96a252	0.07355179
170	0xbe8692f8	-0.26284003
171	0xbd72e3c4	-0.059299245
172	0xbb4d5024	-0.0031328285
173	0xbe3a8af5	-0.1821707
174	0xbe9bda22	-0.3043986
175	0x3e4c4728	0.19949019
176	0x3e72d95f	0.23715733
177	0xbe91a932	-0.28449398
178	0x3d2f086b	0.042732637
179	0xbe26383a	-0.16232386
180	0x3e5ee0a6	0.21765384
181	0xbdc7ca4b	-0.09755381
182	0x3e625f33	0.22106628
183	0x3e80b596	0.2513854
184	0xbd97159c	-0.073771685
185	0xbe614960	-0.22000647
186	0xbd61bbe1	-0.055110816
187	0xbd19840f	-0.037479457
188	0x3e953847	0.291445
189	0x3e554721	0.20827915
190	0x3d961c13	0.073295735
191	0xbe5ad915	-0.21371873
192	0xbe62e6fb	-0.22158425
193	0xbcd5aa6c	-0.02608224
194	0x3e0337d8	0.12814271
195	0x3dcd8f26	0.10037069
196	0xbee26e18	-0.4422462
197	0x3dce9d41	0.100885876
198	0x3d720bd2	0.059093304
199	0xbd76b4d1	-0.060231034
200	0xbece4386	-0.4028589
201	0x3c42cfa7	0.0118903285
202	0xbf259848	-0.6468549
203	0xbe8d3b05	-0.2758409
204	0x3d454813	0.04816444
205	0x3d9b1c97	0.075738125
206	0x3ea78592	0.32719094
207	0x3d8b072a	0.06788476
208	0x3e978541	0.29593852
209	0xbca541a6	-0.020172905
210	0xbe953bb3	-0.2914711
211	0xbd1bb53a	-0.038014628
212	0xbe97585f	-0.2955961
213	0xbc0e40c5	-0.008682434
214	0x3c0ecb1e	0.008715419
215	0xbe6989ed	-0.22806521
216	0xbe9f372f	-0.3109679
217	0xbe56e535	-0.20985873
218	0xbd9dbcd5	-0.077020325
219	0x3d207846	0.0391772
220	0x3e5bf015	0.21478303
221	0xbec32243	-0.38112077
222	0x3c94821f	0.018128453
223	0x3d95d682	0.07316305
224	0xbdfab6dc	-0.12241909
225	0xbcfbf54b	-0.030756613
226	0x3e817ef0	0.25292158
227	0xbe0815b5	-0.1328953
228	0xbe2b3f30	-0.16723323
229	0xbdb88a60	-0.09010768
230	0x3d9dba4e	0.077015504
231	0xbc343c51	-0.011000709
232	0xbcdcab05	-0.026937017
233	0xbd9ac927	-0.07557898
234	0xbe5cce4d	-0.21563073
235	0xbd3b4f6b	-0.045730036
236	0xbc6c7583	-0.014432314
237	0xbed14cf2	-0.40879017
238	0xbde0e36a	-0.10980876
239	0xbd7bc647	-0.06146839
240	0xbd7ec541	-0.062199835
241	0xbe74cf7c	-0.23907274
242	0x3c356557	0.011071525
243	0xbea20f80	-0.3165245
244	0x3cbbaf7e	0.02291083
245	0xbe254ff7	-0.16143785
246	0xbe7f20c2	-0.2491484
247	0x3cfff93d	0.031246776
248	0xbd991b72	-0.07475938
249	0xbe95df58	-0.2927196
250	0xbe97b7fd	-0.2963256
251	0x3d75684b	0.059913915
252	0x3d9c1ee7	0.07623082
253	0xbe354b9d	-0.17704625
254	0xbe303e51	-0.17211272
255	0x3c320996	0.010866543

encoder.weight_hh_l0 f4 [256, 64]
0	0xbc217656	-0.009854874
1	0x3e31a8b3	0.1734951
2	0xbbee9337	-0.007280733
3	0x3da95601	0.08268357
4	0xbccbec0f	-0.024892835
5	0x3db5c3ca	0.088752344
6	0x3eab5d3b	0.33469567
7	0xbe654eeb	-0.22393386
8	0x3ee48a52	0.4463678
9	0xbe98cf84	-0.29845822
10	0xbe93223a	-0.2873705
11	0x3db0ed04	0.08638957
12	0x3e2f3572	0.17110232
13	0xbee30588	-0.44340158
14	0x3ec7a867	0.38995668
15	0xbd9b8399	-0.0759346
16	0xbd325791	-0.04354054
17	0xbe13710f	-0.14398597
18	0x3e889684	0.26677334
19	0x3ebc0116	0.36719579
20	0x3e8826ae	0.2659201
21	0x3ef01385	0.46889892
22	0x3e85117e	0.25989908
23	0xbe561713	-0.2090724
24	0x3e9bb5ea	0.30412227
25	0x3e3cf825	0.18454035
26	0x3e80850e	0.25101513
27	0x3eb41860	0.35174847
28	0xbd9ea78b	-0.077468
29	0x3d4dca54	0.050241783
30	0xbdf9c836	-0.1219639
31	0x3ed4c26d	0.41554585
32	0x3e44e30f	0.19227241
33	0xbc047cfe	-0.008086441
34	0x3c9c4abe	0.019078609
35	0xbe4bfb0f	-0.1991999
36	0x3e52524d	0.20539208
37	0x3c97da1e	0.018536624
38	0xbe26a605	-0.16274269
39	0xbebc5177	-0.36780903
40	0x3d8caa8f	0.06868469
41	0x3df8bb4f	0.12145101
42	0xbe4bc4dc	-0.19899315
43	0xbe61c97c	-0.22049516
44	0x3d88ed90	0.066859365
45	0x3dba1e4e	0.090878114
46	0x3e940455	0.28909555
47	0xbe8497dc	-0.2589711
48	0xbef5fdf2	-0.48045307
49	0xbcbfd2c5	-0.023415932
50	0x3e07f5a0	0.13277292
51	0x3d28875b	0.04114471
52	0x3e906139	0.28199175
53	0xbda871a6	-0.08224802
54	0x3ee20c01	0.44149783
55	0xbe721c00	-0.23643494
56	0x3d8c405b	0.06848212
57	0xbe103585	-0.14082916
58	0xbdc1f010	-0.094696164
59	0xbd0f1db9	-0.034940455
60	0xbf0bceaf	-0.5461225
61	0xbc52bdf9	-0.012862676
62	0xbe02f3bd	-0.12788291
63	0x3d2c8c1a	0.0421258
64	0xbe1609de	-0.14652202
65	0x3e317c97	0.17332684
66	0xbde98368	-0.11402017
67	0x3daacb74	0.08339587
68	0x3dc53819	0.096298404
69	0xbe792ab0	-0.2433269
70	0x3e1e1344	0.15437037
71	0xbe011da2	-0.1260896
72	0x3ce77218	0.028252646
73	0xbea48f45	-0.32140556
74	0xbdef92f7	-0.11697953
75	0x3e8647f3	0.26226768
76	0x3f0e6227	0.5561852
77	0xbf022412	-0.5083629
78	0x3ebbcb54	0.36678565
79	0xbe3bbafa	-0.18333045
80	0x3dadebd0	0.08492243
81	0x3e99198a	0.29902297
82	0x3d5bbb86	0.053645633
83	0x3e108a70	0.1411531
84	0x3e533a09	0.20627607
85	0x3e3cd5b3	0.18440895
86	0xbe4a8038	-0.19775474
87	0x3e17d5ec	0.14827698
88	0x3e8296cb	0.2550567
89	0x3e8ce4bf	0.2751827
90	0x3e531705	0.2061425
91	0x3f192c1d	0.59832937
92	0xbec7ec91	-0.39047673
93	0x3c398e67	0.011325455
94	0xbe657c84	-0.2241078
95	0x3eba14cd	0.36343995
96	0xbcdccca1	-0.026953043
97	0xbd9165e8	-0.07099515
98	0xbdeb7b7c	-0.11498162
99	0xbe8bab79	-0.2727926
100	0x3e002191	0.12512805
101	0x3e787eb3	0.24267082
102	0xbea31a47	-0.31855986
103	0xbd76a8ee	-0.060219698
104	0x3dec1c60	0.115288496
105	0xbe9ee784	-0.31036007
106	0xbe1d0a73	-0.15336017
107	0x3e404ddb	0.187797
108	0x3d85e68a	0.065381125
109	0xbc59c04d	-0.013290477
110	0x3d712c05	0.05887987
111	0xbdef77ac	-0.116927475
112	0xbe538ced	-0.20659228
113	0xbd0e4e90	-0.03474289
114	0xbeba73e4	-0.36416543
115	0x3dd30b96	0.10304944
116	0x3e2c24d7	0.16810928
117	0xbe14b81d	-0.14523359
118	0x3e4453a3	0.1917253
119	0xbe1d2dfe	-0.15349576
120	0x3ec93cba	0.39304143
121	0xbda15676	-0.07877819
122	0xbdb2d4ba	-0.087319806
123	0xbe8cda1c	-0.27510154
124	0xbec8c862	-0.3921538
125	0x3ea9ef11	0.33190206
126	0x3e84c9ec	0.25935304
127	0x3e8750ed	0.2642893
128	0x3dc93ae0	0.09825683
129	0x3ea7d13b	0.32776818
130	0xbdd54cd8	-0.104150474
131	0x3e0b2efd	0.13592143
132	0x3d0ea523	0.034825455
133	0x3d8c9c69	0.0686577
134	0x3ecbd86d	0.39813557
135	0xbe1685ba	-0.1469945
136	0x3da11a34	0.07866326
137	0xbe1cb86c	-0.15304726
138	0xbdfd278a	-0.12361057
139	0x3d378a3d	0.04480957
140	0x3e23fc7f	0.16014288
141	0xbee3fe69	-0.44530037
142	0x3f1ec2dc	0.6201608
143	0xbe141d01	-0.14464189
144	0x3e12114e	0.14264414
145	0x3e18fec9	0.14940943
146	0xbad67926	-0.0016363009
147	0x3a00ed1d	0.0004918145
148	0x3d0f29df	0.03495204
149	0x3d802665	0.06257323
150	0xbdd2d4e9	-0.10294516
151	0x3d56f88b	0.052483123
152	0x3d7ec7bc	0.0622022
153	0x3e2cc6e4	0.16872746
154	0x3de669a6	0.112506196
155	0x3f2faad6	0.6862005
156	0xbee1939f	-0.44057938
157	0x3e0b9e08	0.13634503
158	0x3cbb9994	0.02290038
159	0x3a4e9903	0.0007881077
160	0xbc4e5686	-0.012593871
161	0x3dac6af7	0.084188394
162	0xbdc1986a	-0.09452899
163	0xbe819c8e	-0.25314754
164	0xbe10175c	-0.14071411
165	0x3d5b3685	0.05351879
166	0xbe599102	-0.21246722
167	0xbe467250	-0.19379544
168	0x3c95f6b4	0.018306114
169	0xbdde34f5	-0.108499445
170	0xbd4f2c5f	-0.050579425
171	0xbdb2f311	-0.087377675
172	0xbcd7ca31	-0.02634153
173	0xbe6a6316	-0.22889361
174	0x3e032d60	0.12810278
175	0x3daab533	0.08335342
176	0xbe2ef5b1	-0.17085911
177	0xbe29acbb	-0.16569798
178	0xbdfab117	-0.122408085
179	0x3c873ef1	0.016509505
180	0x3d996ba0	0.07491231
181	0x3df53d91	0.119746335
182	0x3de5bfae	0.112182006
183	0x3b09c467	0.0021021606
184	0x3ddfca10	0.10927212
185	0x3d96fd38	0.073725164
186	0xbe66ffac	-0.22558469
187	0xbe4f9744	-0.20272547
188	0xbe217cec	-0.1577031
189	0x3e55953d	0.20857711
190	0x3d9f0806	0.07765202
191	0xbd47f87d	-0.04882096
192	0xbdc99ec0	-0.09844732
193	0x3d9c5500	0.076334
194	0xbe30ecd5	-0.17277844
195	0x3d734327	0.059390213
196	0xbdb5480f	-0.08851635
197	0x3d0967da	0.033546306
198	0xbe0a5902	-0.13510516
199	0xbe3397b2	-0.17538336
200	0x3dc4cd83	0.09609511
201	0xbcefff0a	-0.029296417
202	0xbd63a1de	-0.05557429
203	0x3e269367	0.16267167
204	0xbcbafa51	-0.022824438
205	0xbdebe24b	-0.11517771
206	0x3d9b9fce	0.0759884
207	0xbe37e4df	-0.17958401
208	0xbd8a4bb3	-0.0675272
209	0x3d9def28	0.07711631
210	0xbde2e781	-0.11079312
211	0xbdf7db1a	-0.12102337
212	0x3db82756	0.08991878
213	0x3e0c0758	0.13674676
214	0xbe1d0620	-0.15334368
215	0xbe2d4567	-0.16921006
216	0xbd5e4784	-0.05426742
217	0x3d07c52e	0.03314703
218	0x3d2bb356	0.041919075
219	0x3e1597e2	0.1460872
220	0x3d9a1918	0.075243175
221	0x3dab84f5	0.08374969
222	0x3d50ca38	0.0509741
223	0x3e81cdc2	0.25352293
224	0xbd88bbf4	-0.06676474
225	0x3cf42e66	0.02980728
226	0x3d1144c2	0.035465963
227	0xbce2405c	-0.02761858
228	0x3dbd8e01	0.09255601
229	0xbd4c16f3	-0.049826574
230	0xbe428111	-0.18994547
231	0x3da6ffb1	0.08154238
232	0xbe0d812d	-0.13818808
233	0x3ca78a4a	0.020451684
234	0xbd5e8ed0	-0.054335415
235	0x3e292b02	0.16520312
236	0x3cc0d91f	0.023541031
237	0xbe0bd237	-0.1365441
238	0x3e5c79f7	0.21530901
239	0xbcbe3ae3	-0.023221439
240	0x3c982690	0.018573076
241	0xbdfbf8de	-0.12303327
242	0x3d7dd840	0.06197381
243	0x3de9c68c	0.11414823
244	0xbdde7206	-0.10861592
245	0xbdb9ac40	-0.09066057
246	0x3cad21f3	0.021134352
247	0xbd31dc8e	-0.043423228
248	0xbccd06c4	-0.02502764
249	0xbd447319	-0.04796133
250	0x3bbbdd22	0.005733148
251	0x3dd48453	0.10376801
252	0xbd704c7c	-0.05866669
253	0x3da6b37b	0.08139702
254	0xbda932f7	-0.08261674
255	0xbc6600ba	-0.014038259

encoder.bias_ih_l0 f4 [256]
0	0xbe00e0fa	-0.12585822
1	0xbe0467cb	-0.12930219
2	0xbd221550	-0.039571106
3	0xbdb87363	-0.09006383
4	0xbe07c4e1	-0.13258697
5	0x3da0d0d1	0.078523286
6	0xbda1bce9	-0.0789736
7	0xbe84ad9c	-0.25913703
8	0xbe6f009b	-0.23340075
9	0xbe141c42	-0.14463905
10	0x3d992014	0.074768215
11	0xbdd3b2e8	-0.10336858
12	0xbd6f9585	-0.058492202
13	0xbdae3a73	-0.08507242
14	0xbed3ebc1	-0.41390803
15	0xbc862a39	-0.016377555
16	0xbdb890dc	-0.09012005
17	0xbd6d894c	-0.057992265
18	0x3d3b2712	0.045691557
19	0xbc1a6ced	-0.009425384
20	0xbcb91e10	-0.022597343
21	0xbdd349aa	-0.10316785
22	0xbd932989	-0.071856566
23	0x3d06510e	0.032792144
24	0xbdfece1d	-0.12441657
25	0xbe317f42	-0.17333701
26	0xbcf8fc2b	-0.03039368
27	0x3d073300	0.03300762
28	0x3d9a4cf2	0.075342074
29	0xbda6271a	-0.08112927
30	0xbe819933	-0.25312194
31	0x3e2519d8	0.1612314
32	0xbd59c572	-0.053166814
33	0xbbf464c6	-0.007458302
34	0x3dcb2bea	0.09920485
35	0xbd36f84a	-0.04467038
36	0xbe392f4a	-0.18084446
37	0x3dff4c13	0.12465682
38	0xbd53b6b2	-0.051687904
39	0xbe44856f	-0.19191526
40	0xbdb3635f	-0.08759188
41	0xbd4a1404	-0.049335495
42	0xbdfef4dd	-0.12449048
43	0xbe0bfa19	-0.13669623
44	0xbde11025	-0.109894074
45	0x3d0c11f1	0.034196798
46	0xbe29bc41	-0.1657572
47	0xbe5d8d6f	-0.21635984
48	0xbbe34490	-0.0069356635
49	0x3caac1ef	0.020844428
50	0xbd4c2963	-0.049844157
51	0xbe0a00e5	-0.13476904
52	0x3cd711b1	0.026253553
53	0x3ce33988	0.027737394
54	0xbe598427	-0.21241818
55	0x3d97058d	0.073741056
56	0xbd7b9399	-0.061420057
57	0xbc18f4bf	-0.009335696
58	0xbded857a	-0.11597724
59	0xbd232f61	-0.039840106
60	0x3b3acd37	0.0028503665
61	0x3c1b45a5	0.009477054
62	0xbd137a1c	-0.036005124
63	0xbca34825	-0.019931862
64	0xbd08d7a6	-0.033408783
65	0x3da4ec1b	0.08052846
66	0x3ca9c760	0.020724952
67	0xbdf93a53	-0.121693276
68	0xbdd5d834	-0.10441628
69	0xbd209fad	-0.03921478
70	0x3e24ec86	0.16105852
71	0xbc9f07b5	-0.019412855
72	0xbccce069	-0.02500935
73	0x3d191e6b	0.037382524
74	0x3e249321	0.1607175
75	0x3e273338	0.16328132
76	0x3e28902f	0.16461252
77	0x3de1d36f	0.11026656
78	0x3d451f03	0.04812528
79	0x3d70c1f6	0.058778726
80	0x3bc14d68	0.00589912
81	0x3d57b0d9	0.05265889
82	0x3dbffd85	0.09374527
83	0x3e87736c	0.26455247
84	0x3dbcaaa1	0.092122324
85	0x3ddad5ae	0.106852874
86	0xbd83f345	-0.06442884
87	0x3e0458bb	0.12924473
88	0xbde70f97	-0.112822704
89	0x3dad4a1f	0.08461403
90	0xbd7978e2	-0.0609063
91	0x3d6a7ee1	0.057249907
92	0x3e65bc18	0.22435033
93	0xbe3e9c21	-0.18614246
94	0x3d500e9d	0.050795186
95	0x3dffde6b	0.12493595
96	0xbba6f820	-0.005095497
97	0x3d0bf55d	0.034169544
98	0x3db6772d	0.0890945
99	0x3ccb6fd5	0.0248336
100	0xbe11ddde	-0.14244792
101	0x3e468059	0.19384898
102	0x3dc70c2c	0.097191185
103	0x3d9fd43d	0.07804153
104	0xbda8c424	-0.08240536
105	0x3d0c7cda	0.034298755
106	0xbcc51042	-0.024055604
107	0xbe417f77	-0.1889628
108	0xbd20b647	-0.039236333
109	0x3d6c5328	0.05769649
110	0x3d23e76f	0.040015634
111	0xbd25c1e6	-0.04046812
112	0x3d876596	0.06611173
113	0xbd1db256	-0.038500153
114	0xbce35af4	-0.02775333
115	0xbd8ed30f	-0.0697385
116	0x3ddb74fb	0.10715672
117	0xbda408a8	-0.080094635
118	0x3e8d6cb7	0.27622005
119	0x3e18122d	0.14850684
120	0x3d623052	0.055221863
121	0x3d8e1c42	0.069389835
122	0x3d05e778	0.03269145
123	0x3e50e43a	0.20399562
124	0xbc5205bf	-0.012818753
125	0x3e10f770	0.1415689
126	0x3d23fe90	0.04003769
127	0x3d238cd0	0.03992921
128	0x3d6e17b6	0.05812808
129	0x3d7fb633	0.062429618
130	0x3d1d682e	0.03842943
131	0xbda67a2a	-0.0812877
132	0xbd314baf	-0.043285068
133	0x3bca25aa	0.0061690407
134	0x3c1e4ff3	0.009662616
135	0x3c5fffe5	0.01367185
136	0x3e03f338	0.1288575
137	0x3bbfdb94	0.005855033
138	0xbdc772ca	-0.09738691
139	0xbd62e664	-0.0553955
140	0xbd732e29	-0.059370194
141	0x3ca82d77	0.020529492
142	0xbc887b4a	-0.016660351
143	0x3e171e96	0.14757761
144	0x3d8cc310	0.06873143
145	0xbd76c7ba	-0.060249068
146	0x3e120622	0.14260152
147	0xbdfa74eb	-0.122293316
148	0xbc064f66	-0.008197641
149	0xbb14f86a	-0.0022731074
150	0x3e24ee81	0.16106607
151	0x3d94e62a	0.07270463
152	0x3d4e51c5	0.05037095
153	0x3da0872c	0.07838282
154	0x3d3cea62	0.046121962
155	0x3d5cfc21	0.053951386
156	0x3c63bd22	0.013900073
157	0x3cbd63c2	0.023118857
158	0xbe0038cf	-0.12521671
159	0x3d195e1c	0.037443265
160	0xbe171b99	-0.14756621
161	0x3a707626	0.0009172879
162	0x3d668436	0.05627843
163	0x3cd0581e	0.025432643
164	0xbdad8136	-0.08471911
165	0xbd114004	-0.03546144
166	0x3d4a94a1	0.04945815
167	0xbd94e9f3	-0.07271185
168	0x3d94ccef	0.072656505
169	0xbd6337d8	-0.05547318
170	0x3d931a13	0.07182708
171	0xbe334d02	-0.17509845
172	0x3def9879	0.11699004
173	0xbc315a66	-0.010824775
174	0x3d5d09d8	0.053964466
175	0x3d1a6b8c	0.03770022
176	0x3b146c53	0.0022647574
177	0x3df0473f	0.11732339
178	0x3d6bccec	0.057568476
179	0x3df019e0	0.11723685
180	0x3dbc3f2f	0.09191739
181	0x3de7513e	0.112947926
182	0x3dc32c88	0.09529978
183	0x3d88af97	0.06674116
184	0xbda6c486	-0.081429526
185	0x3cc15116	0.023598235
186	0x3d4a13b2	0.04933519
187	0xbd72ce88	-0.059278995
188	0xbdc9fa69	-0.09862215
189	0xbe601538	-0.21883094
190	0xbdaf3fd4	-0.08557096
191	0xbdd6eec9	-0.104947634
192	0x3d8ac4ff	0.06775855
193	0xbe0f2635	-0.13979419
194	0x3df38dde	0.118922934
195	0xbd7172e9	-0.058947477
196	0xbd2f2f6a	-0.042769827
197	0xbcd4e123	-0.02598626
198	0xbdbdfbb2	-0.09276523
199	0xbe703e72	-0.23461321
200	0xbe49185f	-0.19638203
201	0xbe03ef0c	-0.12884158
202	0x3a13cb0e	0.00056378625
203	0xbe2f3267	-0.1710907
204	0xbe1a9cad	-0.1509883
205	0xbe374b1f	-0.1789975
206	0xbe501a42	-0.20322517
207	0x3c3629a8	0.01111833
208	0x3dc0e9bd	0.09419582
209	0xbe4aa6ce	-0.19790193
210	0x3d516a41	0.051126722
211	0x3e2072ff	0.15668868
212	0xbe25629c	-0.16150898
213	0x3ce87133	0.02837429
214	0x3db9b518	0.09067744
215	0x3ba6f5af	0.0050952057
216	0xbda12e5e	-0.07870172
217	0xbd69e6aa	-0.057104744
218	0x3d444164	0.047913924
219	0xbe2cd101	-0.16876604
220	0x3dda3866	0.106552884
221	0xbe2d2574	-0.16908818
222	0xbe94b3ef	-0.29043528
223	0x3dcebbc8	0.1009441
224	0xbdaf56c0	-0.08561468
225	0x3d1e1cdb	0.038601737
226	0xbca69844	-0.020336278
227	0x3daf96c8	0.08573681
228	0xbdecd7a3	-0.11564567
229	0x3dbc2e93	0.09188571
230	0xbd046daa	-0.032331146
231	0xbe200365	-0.15626295
232	0xbd545261	-0.051836375
233	0xbe33c56b	-0.17555778
234	0xbdbf5a71	-0.09343422
235	0xbd9f66ec	-0.07783303
236	0xbd06ccdb	-0.03291021
237	0x3db0498f	0.0860778
238	0xbe3b0b74	-0.18266088
239	0xbe1d853b	-0.15382855
240	0xbdf2146f	-0.11820304
241	0x3d0f4485	0.034977455
242	0x3c174b82	0.009234311
243	0xbdd8226a	-0.10553439
244	0x3ddda531	0.108225234
245	0xbd99b467	-0.07505112
246	0xbe494016	-0.19653353
247	0x3c8e9c5f	0.017408548
248	0xbdd8730e	-0.1056882
249	0xbd855e55	-0.06512133
250	0xbdec416e	-0.11535917
251	0xbe33509f	-0.17511223
252	0xbcc96fcf	-0.024589447
253	0x3e415032	0.18878248
254	0xbd653599	-0.055959318
255	0x3d46f203	0.048570644

encoder.bias_hh_l0 f4 [256]
0	0xbde25856	-0.11052005
1	0xbc4a6a24	-0.012354407
2	0xbc96490e	-0.018345382
3	0x3bb85914	0.0056258533
4	0xbe1676f8	-0.1469382
5	0x3d9774b8	0.07395309
6	0x3d253048	0.040329248
7	0xbd47c2e8	-0.04876986
8	0xbe100e17	-0.14067875
9	0xbbb12f8e	-0.0054072803
10	0x3d92b32c	0.071630806
11	0xbe33bdd4	-0.17552882
12	0xbdfdcdba	-0.12392755
13	0xbe00cfa1	-0.12579204
14	0xbecd1aca	-0.400595
15	0x3dee5bc4	0.11638597
16	0xbde5b221	-0.11215616
17	0xbe6cf054	-0.23138553
18	0xbdea99fa	-0.1145515
19	0xbd87787f	-0.0661478
20	0x3c6e9ce4	0.014563773
21	0xbd0dd267	-0.034624483
22	0x3ddd6414	0.10810104
23	0xbdc4a3a3	-0.09601524
24	0xbe103894	-0.14084083
25	0xbdcd705f	-0.10031199
26	0x3ce390da	0.027779032
27	0xbca5aa47	-0.020222796
28	0xbde9db07	-0.11418729
29	0xbe181e3c	-0.14855283
30	0xbe080aca	-0.13285366
31	0x3e145f7b	0.14489548
32	0xbe3a0a87	-0.18168078
33	0xbe0f3e0b	-0.13988511
34	0xbcfc2e23	-0.030783718
35	0xbdddf8cf	-0.10838472
36	0xbeaa30db	-0.332404
37	0xbdb2159f	-0.0869553
38	0x3d888c78	0.06667417
39	0xbe25e622	-0.1620107
40	0xbe201aad	-0.15635176
41	0xbc1d6faf	-0.009609147
42	0xbe298fe0	-0.1655879
43	0xbd0e295f	-0.034707423
44	0xbdf3ad20	-0.11898255
45	0xbd5be105	-0.053681392
46	0x3cfdadbc	0.030966632
47	0x3caac7c4	0.020847209
48	0xbc2b5807	-0.010457999
49	0x3de4c835	0.11170999
50	0xbdee402c	-0.116333336
51	0xbe0061bc	-0.12537283
52	0x3d60713c	0.05479549
53	0xbd6c4ebd	-0.05769228
54	0xbdc97f8f	-0.09838783
55	0xbdec80ca	-0.11548002
56	0x3d2ab8ac	0.041680023
57	0xbcaebbcb	-0.021329781
58	0xbdfe5654	-0.124188095
59	0xbda3ac91	-0.07991899
60	0x3c47ed00	0.012202501
61	0xbb1abcd0	-0.0023611076
62	0x3c6bbc89	0.014388212
63	0x3de0635c	0.10956451
64	0x3d1c4128	0.038148075
65	0x3e1df3e0	0.15425062
66	0x3dd90ffa	0.105987504
67	0xbb6539eb	-0.0034977149
68	0xbe0b5dd0	-0.13610005
69	0xbd9bf56e	-0.076151714
70	0x3d89b9a7	0.067248635
71	0xbd2f7983	-0.042840492
72	0xbd65571f	-0.05599129
73	0xbdc50d0a	-0.09621628
74	0x3e14628d	0.14490719
75	0x3d06c8a3	0.032906186
76	0xbd3e4b14	-0.04645832
77	0x3d60ec83	0.054913055
78	0xbd8cbd46	-0.068720385
79	0xbd541f9d	-0.05178796
80	0xbc2a1d1a	-0.010382915
81	0x3ce71f35	0.028213123
82	0xbde3ba19	-0.1111948
83	0x3ea90aae	0.3301596
84	0x3e1af8ec	0.15134019
85	0xbc816303	-0.015794283
86	0x3ddc0999	0.10744018
87	0x3e146088	0.14489949
88	0xbbd5bfe5	-0.0065231198
89	0x3e1df219	0.15424384
90	0x3da22455	0.07917086
91	0x3de8bd96	0.11364286
92	0x3e71ee3d	0.23626037
93	0xbddd2039	-0.107971616
94	0xbd85e452	-0.06537689
95	0x3e2fd77a	0.17172042
96	0xbcaf952a	-0.021433432
97	0xbce40c8c	-0.027838014
98	0x3e20a9bb	0.15689747
99	0xbd0c10c5	-0.03419568
100	0xbe1ea70b	-0.1549341
101	0x3da0d0f7	0.07852357
102	0x3dcf1e5a	0.10113211
103	0xbd9b84ba	-0.07593675
104	0xbe5f31e4	-0.21796376
105	0x3d93bbd3	0.07213559
106	0xbdafe65e	-0.08588861
107	0xbcb8b66f	-0.022547929
108	0xbe11e4c8	-0.1424743
109	0x3e15f178	0.14642894
110	0x3d8382be	0.064214215
111	0x3cdbc422	0.026826922
112	0x3df04576	0.117319986
113	0x3e1c0e97	0.1523994
114	0xbd051219	-0.032487962
115	0x3d62ef40	0.055403948
116	0xbcb6bffa	-0.022308338
117	0xbd0351a5	-0.032060284
118	0x3ecf3bfc	0.40475452
119	0x3c75884f	0.014986112
120	0x3e0291ef	0.12750982
121	0x3d8d72bf	0.06906652
122	0xbe211713	-0.15731458
123	0x3bda7fba	0.006668058
124	0x3e0cebf7	0.13761888
125	0x3debea9d	0.11519358
126	0x3d1ce363	0.03830279
127	0xbddadf89	-0.10687167
128	0xbe0a1e5f	-0.13488148
129	0x3dd34e10	0.103176236
130	0x3e18eed2	0.14934853
131	0xbc9bc62b	-0.019015392
132	0xbd893225	-0.066990174
133	0x3da2a326	0.07941274
134	0x3e0df9a1	0.13864757
135	0xbd241065	-0.040054698
136	0xbcc3e0a9	-0.023910837
137	0xbcbf8a15	-0.023381272
138	0xbe110837	-0.1416329
139	0x3d9b9b4a	0.075979784
140	0x3d8dc26e	0.0692185
141	0xbddc487e	-0.10756014
142	0x3d45ba20	0.048273206
143	0x3dc7ebd6	0.09761779
144	0xbd01cb5a	-0.03168807
145	0xbcb02ac2	-0.021504764
146	0x3d9c7d2e	0.07641064
147	0xbc5d2c7d	-0.013499376
148	0xbd7d1b60	-0.061793685
149	0xb8fc7759	-0.000120385266
150	0x3da32252	0.079655305
151	0xbd099167	-0.033585932
152	0x3da9f5f5	0.08298866
153	0xbcfad296	-0.030617993
154	0xbdc6e4c9	-0.09711606
155	0xbd8219a7	-0.06352549
156	0x3cc225d9	0.023699688
157	0x3ddf14c3	0.10892632
158	0x3c1efb58	0.00970348
159	0x3d93ae20	0.07210946
160	0x3d0d383d	0.03447746
161	0x3e0a8c7f	0.13530158
162	0xbdf739a5	-0.12071542
163	0xbc45c857	-0.0120716905
164	0x3d8f11dd	0.06985829
165	0xbc211942	-0.009832682
166	0x3db3d8a2	0.08781554
167	0x3da01de7	0.078182034
168	0x3d931b9f	0.07183003
169	0x3ba5a9f0	0.0050556585
170	0x3d7c17dd	0.061546195
171	0xbbc0328b	-0.0058654
172	0x3db094b4	0.08622113
173	0x3cd52c3a	0.026022065
174	0xbdebf315	-0.115209736
175	0x3d0c420e	0.034242682
176	0xbca93ebc	-0.020659797
177	0x3dc491e2	0.095981374
178	0xbcedf79b	-0.029048732
179	0x3d94792a	0.07249673
180	0xbd87d736	-0.06632845
181	0x3dacd186	0.08438401
182	0xbda3efdf	-0.08004736
183	0xbde16558	-0.11005658
184	0x3db0cb2a	0.086325005
185	0x3cf9cf81	0.030494453
186	0xbda014e1	-0.07816482
187	0xbccf8cae	-0.025335636
188	0x3d60a851	0.05484802
189	0xbe386e84	-0.18010908
190	0xbdc4f76a	-0.09617503
191	0xbe13222d	-0.14368506
192	0xbdb98e44	-0.09060338
193	0xbc8b84fd	-0.017031187
194	0xbca3a805	-0.019977579
195	0xbe0b8b11	-0.13627268
196	0xbdd7268a	-0.105053976
197	0xbd193b82	-0.037410267
198	0xbe3e7e6e	-0.18602917
199	0xbdb4de86	-0.088315055
200	0xbe39e926	-0.18155345
201	0xbb65ce76	-0.0035065687
202	0xbe21d7a7	-0.15804921
203	0x3d12a8e9	0.035805617
204	0xbe3f67aa	-0.18691888
205	0x3d54bc1b	0.051937204
206	0xbe509165	-0.20367964
207	0xbe080740	-0.13284016
208	0x3d659c04	0.05605699
209	0xbe1c8327	-0.15284406
210	0x3c27cd4f	0.0102418205
211	0x3dc2798f	0.09495842
212	0xbda3d078	-0.07998747
213	0xbe1cc961	-0.15311195
214	0x3c1709b2	0.00921862
215	0xbc099781	-0.008397938
216	0xbd86dd11	-0.06585134
217	0xbe52d451	-0.20588805
218	0x3c80e670	0.015734881
219	0x3d3b52d4	0.045733288
220	0x3e264b11	0.16239573
221	0xbe8666bf	-0.26250264
222	0xbe84194b	-0.25800547
223	0x3de12ddf	0.10995077
224	0xbd0fb306	-0.03508284
225	0xbe389852	-0.18026856
226	0xbd6abe9f	-0.057310697
227	0x3d7646af	0.060126003
228	0xbe986cca	-0.297705
229	0x3db8e7e2	0.09028603
230	0xbcc55e7a	-0.024092901
231	0xbe0118df	-0.12607144
232	0xbe29e99c	-0.16593021
233	0x3d207415	0.039173204
234	0xbd65a41b	-0.056064706
235	0xbde30b2d	-0.11086116
236	0xbe308e0e	-0.1724169
237	0xbe02bd25	-0.12767465
238	0x3b981f45	0.0046423995
239	0xbc684062	-0.014175506
240	0xb9d5b515	-0.00040761443
241	0x3d325d7e	0.043546192
242	0xbd406c65	-0.046978373
243	0xbcb4659c	-0.022021107
244	0x3dadad3c	0.084803075
245	0xbb5faaa9	-0.003412882
246	0xbe2321ba	-0.15930834
247	0xbd0d1c1c	-0.034450635
248	0x3d5d53ff	0.054035183
249	0xbd96fb5e	-0.07372163
250	0xbcebcaff	-0.02878332
251	0xbcccafc7	-0.02498616
252	0xbe32483b	-0.17410366
253	0x3dc1b6f6	0.09458725
254	0x3be06711	0.006848224
255	0xbdcbff39	-0.09960789

decoder.weight_ih_l0 f4 [256, 64]
0	0xbcf20d64	-0.0295474
1	0x3bd4b334	0.0064910892
2	0xbd3ab376	-0.045581304
3	0x3e32bce7	0.17454873
4	0x3e9af59e	0.30265516
5	0xbdf59240	-0.119907856
6	0x3e14f80c	0.14547747
7	0x39ffb74a	0.0004877395
8	0xbe00d519	-0.1258129
9	0x3d62e7c4	0.05539681
10	0x3c8ceeed	0.017203772
11	0xbe5f39e4	-0.21799427
12	0x3d9a65bb	0.07538935
13	0xbdb1bd83	-0.086787246
14	0xbd4af663	-0.04955138
15	0xbe2e4c4a	-0.1702129
16	0xbddc2182	-0.107485786
17	0xbcaef31f	-0.021356164
18	0x3d0bee3d	0.03416275
19	0xbd8026ee	-0.06257425
20	0x3e86fc6c	0.26364458
21	0x3d58beea	0.052916445
22	0xbe37c35a	-0.17945614
23	0xbd8030fa	-0.062593415
24	0x3cd05c79	0.02543472
25	0x3df09b8e	0.1174842
26	0x3e4f99cf	0.20273517
27	0x3d0566d6	0.032568775
28	0xbcae38ec	-0.021267377
29	0xbcbb4476	-0.022859793
30	0xbd61c777	-0.055121865
31	0x3dc8c2ec	0.098028034
32	0xbd3391d2	-0.043840237
33	0xbc6decdb	-0.014521803
34	0x3dae30af	0.085053794
35	0xbd8ea5ef	-0.06965243
36	0xbd558653	-0.052130055
37	0x3cbe22d9	0.023209976
38	0xbd9d649c	-0.07685205
39	0xbd99b970	-0.075060725
40	0x3cc82acf	0.024434475
41	0xbe6395db	-0.22225134
42	0x3d9b60e0	0.07586837
43	0x3e0e7f2d	0.13915701
44	0xbe64d4a4	-0.22346741
45	0xbd6416b4	-0.055685714
46	0xbd44933d	-0.04799198
47	0x3c797c5e	0.015227405
48	0xbe712935	-0.23550875
49	0xbd74dec9	-0.059782777
50	0x3c19803f	0.009368955
51	0x3d8ab1f3	0.06772222
52	0x3df8f16b	0.12155422
53	0xbe032a17	-0.12809025
54	0x3c1b68d1	0.009485439
55	0xbe2e06b9	-0.16994752
56	0x3dfe2a78	0.12410444
57	0xbe2b50da	-0.16730061
58	0xbe426cd4	-0.18986827
59	0xbc044a50	-0.008074358
60	0xbdbe5f80	-0.09295559
61	0x3cd81d9f	0.026381312
62	0x3e66c8bf	0.22537516
63	0x3e12994c	0.1431629
64	0xbe32266a	-0.17397466
65	0x3e14e4ee	0.14540455
66	0xbc62febf	-0.0138546815
67	0x3e689f35	0.22716983
68	0x3dcf4241	0.10120059
69	0xbe007907	-0.12546168
70	0x3c85aba6	0.0163172
71	0x3e24bc48	0.16087449
72	0x3dff3e44	0.12463048
73	0x3e272094	0.16321021
74	0x3e0b5a33	0.13608627
75	0x3b3013a9	0.0026867187
76	0x3cd268af	0.025684683
77	0x3d2d502a	0.04231278
78	0x3e14d173	0.14533024
79	0xbdb3bf91	-0.08776773
80	0xbc6e8ee2	-0.014560433
81	0x3c877e3b	0.016539684
82	0x3cb6db58	0.022321388
83	0x3d50d9a3	0.050988805
84	0x3d5c79a3	0.05382694
85	0xbd24793e	-0.040154688
86	0xbd8a9652	-0.067669526
87	0x3e18ab89	0.14909185
88	0x3baa6eab	0.005201181
89	0x3e703954	0.23459369
90	0x3d5ae211	0.05343825
91	0x3e24c5cc	0.16091079
92	0x3c0676d3	0.008207041
93	0x3df1ee62	0.11813046
94	0xbe355248	-0.17707169
95	0x3d6849f9	0.05671117
96	0x3e5a441e	0.21315047
97	0xbe1f8cd6	-0.15581068
98	0xbcf9cd9d	-0.030493552
99	0xbe4ca4a3	-0.19984679
100	0xbdf8aa0f	-0.12141811
101	0x3e4632cc	0.19355315
102	0xbd1e0e31	-0.038587753
103	0xbd0520e2	-0.032502063
104	0xbcfac5b2	-0.030611847
105	0xbe40efc5	-0.18841465
106	0xbd3b5847	-0.045738485
107	0x3d92a697	0.07160681
108	0xbe643e56	-0.22289404
109	0x3e118365	0.1421028
110	0x3e735ee7	0.23766671
111	0xbe0e3688	-0.1388799
112	0xbe102519	-0.14076652
113	0xbe40f6b4	-0.1884411
114	0xbe18eb5f	-0.14933537
115	0x3d052ab2	0.03251142
116	0x3c570651	0.013124065
117	0xbcc5a5e6	-0.024126958
118	0x3c907c40	0.017637372
119	0xbc04d215	-0.008106728
120	0x3d365dd6	0.044523083
121	0xbde90b8a	-0.11379154
122	0xbe5468f0	-0.20743155
123	0x3d7faff8	0.062423676
124	0xbd9f5652	-0.07780136
125	0x3e2c3da2	0.16820386
126	0x3d8ea676	0.06965344
127	0x3832c1c0	4.261895e-05
128	0xbf1294d8	-0.5725837
129	0xbe343f45	-0.1760226
130	0x3f22ed16	0.63643014
131	0xbdfde77a	-0.12397666
132	0xbf037221	-0.5134602
133	0xbe04ddd4	-0.12975246
134	0x3e756781	0.23965265
135	0x3e8f4dce	0.27989048
136	0x3f2c886b	0.6739566
137	0x3cb69578	0.02228807
138	0xbe61cb52	-0.22050217
139	0x3f89d374	1.0767655
140	0xbc9fb81b	-0.019496968
141	0xbe33ec49	-0.17570604
142	0x3edb6b94	0.42855513
143	0x3e765d5e	0.24059054
144	0xbf2f5c4d	-0.68500215
145	0x3ef91a02	0.48652655
146	0x3e803eca	0.25047904
147	0xbf2cf77c	-0.6756513
148	0xbed4833a	-0.41506368
149	0x3e1d9b2a	0.15391222
150	0x3d4e4c9c	0.05036603
151	0x3f36c338	0.7139163
152	0x3f39ffe5	0.7265609
153	0xbe3590fa	-0.17731085
154	0x3d0b34bf	0.03398585
155	0xbd80cae7	-0.062887006
156	0x3eaeaab5	0.34114614
157	0x3e3c1f57	0.1837133
158	0x3d612ef3	0.054976415
159	0x3f19c746	0.6006969
160	0x3bce22d0	0.006290771
161	0xbf0faa3c	-0.5611913
162	0x3f579491	0.8421107
163	0xbe57a95b	-0.21060698
164	0xbc0ec698	-0.008714341
165	0xbda5c5b4	-0.080943495
166	0x3e7843b2	0.24244574
167	0x3dbfceb3	0.093655966
168	0x3e2979a1	0.16550304
169	0xbdb4a074	-0.088196665
170	0x3efc1071	0.49231294
171	0x3dd79167	0.1052578
172	0xbe93d74d	-0.288752
173	0x3f23b02f	0.6394071
174	0x3d48f90e	0.049065642
175	0xbf2bb367	-0.6707062
176	0xbf227c73	-0.63471144
177	0x3f056fae	0.52123535
178	0x3cbebb73	0.023282742
179	0x3eded64f	0.4352288
180	0xbec8f0c5	-0.39246193
181	0xbeb14009	-0.34619167
182	0xbe150015	-0.14550813
183	0xbd9a74dc	-0.075418204
184	0x3d81cd76	0.06338017
185	0x3f879e7a	1.0595238
186	0x3e8712aa	0.26381427
187	0x3e098d54	0.13432819
188	0x3d17bf8e	0.037047915
189	0xbeb00a1a	-0.34382707
190	0x3e6ae08b	0.22937219
191	0xbd38f83c	-0.04515861
192	0xbf1f5855	-0.6224416
193	0x3ebbf486	0.36709994
194	0xbd49b987	-0.0492492
195	0xbf5c1fb8	-0.859859
196	0xbf68cb26	-0.9093498
197	0x3f3a88c6	0.7286495
198	0x3e796eb5	0.24358638
199	0x3f09b7ab	0.5379588
200	0xbe822bc3	-0.25424013
201	0x3f625ced	0.88423043
202	0xbe9a1d99	-0.30100706
203	0x3e6670b2	0.22503927
204	0xbf8ce25c	-1.1006579
205	0x3f7c96ec	0.9866779
206	0xbe7d0256	-0.24707922
207	0x3f39d7d9	0.7259498
208	0xbe81046a	-0.2519868
209	0xbf2b0d5c	-0.6681726
210	0x3f6ea396	0.9321836
211	0xbf712987	-0.9420399
212	0xbe98ab38	-0.2981813
213	0xbf2884b9	-0.6582752
214	0x3f8128ff	1.0090636
215	0x3e226545	0.15858944
216	0x3bb640f1	0.005561941
217	0xbfa1be30	-1.2636166
218	0xbf4b6e2b	-0.7946498
219	0xbf36a678	-0.7134776
220	0x3f77864b	0.9668929
221	0x3f0e2079	0.555183
222	0x3f16164c	0.5862777
223	0x3d72fa7c	0.05932091
224	0xbf159665	-0.5843261
225	0x3eced823	0.40399274
226	0x3e560c49	0.20903124
227	0x3ef2ce17	0.4742286
228	0xbf422264	-0.75833726
229	0xbf16af76	-0.5886148
230	0x3f406a9c	0.75162673
231	0x3f1f25d9	0.62167126
232	0x3e380376	0.1797007
233	0x3f74fdce	0.95699775
234	0x3f293979	0.6610332
235	0xbf8c8ed7	-1.0981091
236	0x3f17db1e	0.5931872
237	0x3f289bd6	0.65862787
238	0xbf2d636a	-0.6772982
239	0x3f4c6c4e	0.7985276
240	0x3f22d5a9	0.6360727
241	0x3f5ef65f	0.8709468
242	0x3ed6b870	0.4193759
243	0x3f1517f8	0.582397
244	0xbf888126	-1.0664413
245	0x3ef41cb8	0.4767816
246	0x3f5e9d2c	0.86958575
247	0x3f5b1aae	0.85587585
248	0xbf566b03	-0.83757037
249	0x3e38fca4	0.18065125
250	0x3f322c1e	0.6959857
251	0x3f867ac3	1.0506214
252	0x3f5a7ab7	0.853435
253	0xbf7b4d08	-0.98164415
254	0xbeafdaec	-0.34346712
255	0xbf741ce3	-0.9535658

decoder.weight_hh_l0 f4 [256, 1]
0	0xbec40da6	-0.38291663
1	0xbc915b40	-0.017743707
2	0x3dc5b0e5	0.096528806
3	0x3f37c8c5	0.71790725
4	0x3df3bb11	0.119009145
5	0xbf0c7ab3	-0.54874724
6	0xbe58e8ab	-0.21182506
7	0x3d404dc9	0.04694918
8	0x3dba2aab	0.090901695
9	0xbdaacc5c	-0.0833976
10	0x3d0464e6	0.032322787
11	0xbe80d456	-0.25162
12	0x3bbd1ed5	0.0057714977
13	0xbe435800	-0.19076538
14	0xbde728d5	-0.11287085
15	0xbe3c40e8	-0.18384135
16	0xbe0cd9ca	-0.13754955
17	0xbef77760	-0.48333263
18	0xbe8aeb53	-0.27132663
19	0x3e0b64de	0.13612697
20	0xbf09426a	-0.53616965
21	0xbd08c43f	-0.03339028
22	0xbcb200c0	-0.021728873
23	0xbd9c1512	-0.07621206
24	0xbca993db	-0.020700386
25	0x3dd3847b	0.10328003
26	0x3d4a4349	0.049380574
27	0xbe14c228	-0.1452719
28	0x3e00a96c	0.1256463
29	0x3df7f99a	0.121081546
30	0xbf8547ad	-1.0412499
31	0x3bdf1036	0.0068073524
32	0xbdef27d6	-0.1167752
33	0xbda56767	-0.08076363
34	0x3e6ecd10	0.23320413
35	0xbb908683	-0.0044105663
36	0x3dd80edc	0.10549709
37	0xbd57fb3d	-0.052729834
38	0xbe7f2b70	-0.24918914
39	0x3e0c748e	0.13716337
40	0xbeac2a47	-0.33626005
41	0xbd34a699	-0.044104192
42	0x3d8ecb46	0.06972365
43	0x3d878091	0.06616319
44	0xbd4963f8	-0.049167603
45	0x3d3fa216	0.046785437
46	0xbdb9a1ea	-0.09064086
47	0xbf0f60c9	-0.5600706
48	0x3dc8f197	0.098117046
49	0x3c0cac9e	0.008586077
50	0x3d201bf1	0.039089147
51	0x3e133fa9	0.14379753
52	0xbd59e77b	-0.053199273
53	0xbd5cd007	-0.053909328
54	0xbe286238	-0.16443717
55	0xbe390149	-0.18066896
56	0x3c097f89	0.008392223
57	0xbe14cf9b	-0.1453232
58	0xbe021397	-0.12702785
59	0xbdb3fd02	-0.08788492
60	0xbddf3a73	-0.1089982
61	0xbd2d447a	-0.042301632
62	0x3d88881b	0.06666585
63	0x3d28b2b4	0.04118605
64	0xbe35d687	-0.17757617
65	0xbdb3e13c	-0.087831944
66	0x3f4670eb	0.7751605
67	0x3f9d49fa	1.2288201
68	0xbd8e1b19	-0.06938762
69	0xbea99c70	-0.33127165
70	0xbecfb387	-0.40566656
71	0xbdcf210e	-0.101137266
72	0xbdaefdf3	-0.08544531
73	0xbe0963c1	-0.1341696
74	0x3de10655	0.10987536
75	0xbe8e1880	-0.27753067
76	0x3d28ad53	0.04118092
77	0xbe141a6e	-0.14463207
78	0xbe1c0983	-0.15238003
79	0xbe1d23d0	-0.15345693
80	0xbdf779ac	-0.12083754
81	0xbed8bc63	-0.42331228
82	0xbdda1b0f	-0.10649692
83	0xbd19915b	-0.037492137
84	0xbef10ab3	-0.47078475
85	0x3d529119	0.051407907
86	0xbdbbd845	-0.091721095
87	0x3cb93a48	0.022610798
88	0xbdf6459d	-0.120249964
89	0x3c9e11f0	0.019295663
90	0x3e3ae0ff	0.18249892
91	0xbdb289d6	-0.08717696
92	0x3d50526f	0.050859865
93	0x3cbc381f	0.02297598
94	0x3f2c8508	0.6739049
95	0xbbe398ac	-0.00694569
96	0xbd8909ff	-0.0669136
97	0xbc851962	-0.016247455
98	0xbd25e995	-0.040505964
99	0xbc6e3d32	-0.014540957
100	0x3e3f76a9	0.18697609
101	0xbd4606cb	-0.048346322
102	0x3ac4cb00	0.0015014112
103	0xbdc4915b	-0.09598037
104	0xbded8398	-0.11597365
105	0xbdefbbbf	-0.117057316
106	0xbd093dc4	-0.03350617
107	0xbde7c3d1	-0.11316646
108	0xbd06fa0f	-0.03295332
109	0xbdf57b7a	-0.11986442
110	0x3df3d861	0.119065054
111	0xbf253970	-0.6454077
112	0xbd262a20	-0.040567517
113	0xbdaae03e	-0.08343552
114	0x3dab72af	0.083714835
115	0xbdff6930	-0.12471235
116	0xbd89bc9e	-0.06725429
117	0xbe0f0a7f	-0.13968848
118	0xbd0df2c6	-0.034655355
119	0xbe161370	-0.14655852
120	0xbde9bf9c	-0.114135
121	0xbe332677	-0.17495142
122	0xbd6f3bf6	-0.058406793
123	0x3b1f2890	0.0024285652
124	0xbd796659	-0.060888622
125	0xbd852f82	-0.06503202
126	0x3c9ab466	0.018884849
127	0x3f49f141	0.7888375
128	0xbd910f2c	-0.07082972
129	0x3ca6bf95	0.020355025
130	0x3f3196b0	0.69370556
131	0x3f48c89e	0.7843112
132	0xbe4bd388	-0.19904912
133	0x3f04b141	0.5183297
134	0x3e1f79f4	0.15573865
135	0x3c39f036	0.011348775
136	0xbc8dba11	-0.017300637
137	0xbdc0da85	-0.09416679
138	0xbde76bcf	-0.1129986
139	0xbdd422b6	-0.10358183
140	0x3e386aa8	0.18009436
141	0xbdd9edc5	-0.10641054
142	0x3b2191e8	0.0024653617
143	0x3c3f1672	0.011663066
144	0x3ac23b3c	0.0014818679
145	0xbe27b679	-0.16378202
146	0xbda46b06	-0.080282256
147	0xbdf4f9dc	-0.119617194
148	0xbe29447e	-0.16530034
149	0xbdc58280	-0.096440315
150	0x3ecad0c6	0.39612406
151	0xbe1e4ec0	-0.15459728
152	0x3d1d054c	0.03833513
153	0xbe24d228	-0.16095793
154	0xbe0451ee	-0.12921879
155	0xbcb66a43	-0.022267466
156	0xbdaf714b	-0.08566531
157	0xbd9762b0	-0.0739187
158	0xbe1dbfb0	-0.15405154
159	0x3dc6cf5c	0.097075194
160	0xbe060626	-0.13088283
161	0xbdf33492	-0.11875261
162	0x3e34760e	0.1762316
163	0xbdba109f	-0.090852015
164	0xbe1a67e8	-0.150787
165	0x3db4d482	0.08829595
166	0xbde930f5	-0.11386291
167	0x3e45c7ea	0.19314542
168	0xbf5d86be	-0.86533725
169	0xbd635dd1	-0.055509392
170	0xbdf0fdec	-0.11767182
171	0xbdbb487c	-0.09144685
172	0x3dc0c48f	0.094124906
173	0xbe01c1fb	-0.12671654
174	0x3daad02b	0.08340486
175	0xbe67308c	-0.22577113
176	0x3e20ac0f	0.15690635
177	0x3da6c4e0	0.0814302
178	0x3d5cd27b	0.053911667
179	0xbdabe94f	-0.083941095
180	0x3cac5aee	0.021039452
181	0xbd8d564d	-0.06901226
182	0xbde13e80	-0.10998249
183	0x3e1a1816	0.1504825
184	0xbe04328c	-0.12909907
185	0xbd1371ef	-0.035997327
186	0xbc47dbc3	-0.012198391
187	0x3d865882	0.0655985
188	0x3cde21d1	0.027115734
189	0x3df04374	0.11731616
190	0xbe18d2a3	-0.14924102
191	0x3ea6368f	0.324635
192	0xbec25525	-0.37955585
193	0xbe394171	-0.1809137
194	0xbed842a7	-0.42238352
195	0x3ee4e963	0.4470931
196	0x3dab8634	0.083752066
197	0xbec892fa	-0.39174634
198	0xbecc40de	-0.3989324
199	0xbe1bc94e	-0.1521351
200	0xbe07ac18	-0.13249242
201	0x3dba67fa	0.09101863
202	0xbe4e51f6	-0.20148453
203	0xbe636fcd	-0.22210617
204	0x3d9b6bf7	0.07588952
205	0xbe1276e0	-0.1430316
206	0xbd403776	-0.04692789
207	0xbddd084d	-0.10792599
208	0xbda7618f	-0.08172905
209	0xbf2a3f24	-0.66502595
210	0xbe4e300e	-0.20135519
211	0xbcba8a5b	-0.022771051
212	0xbf3e42d5	-0.7432073
213	0xbe90a915	-0.28254
214	0xbe3f88e5	-0.18704565
215	0xbd0517f9	-0.032493565
216	0xbd09cdaf	-0.03364342
217	0x3deac677	0.114636354
218	0xbe4f4675	-0.20241721
219	0xbde879ba	-0.113513425
220	0xbd947221	-0.07248331
221	0x3d4bd88d	0.049767066
222	0xbe886c00	-0.26644897
223	0xbdc9998e	-0.09843741
224	0xbe14c57f	-0.14528464
225	0xbcc57079	-0.024101483
226	0x3bb6531c	0.0055641066
227	0x3d631928	0.055443913
228	0x3d4c265c	0.04984127
229	0xbe8a1cd6	-0.26975125
230	0xbe9029ad	-0.28156796
231	0x3e7f5d3f	0.24937914
232	0xbd51e18d	-0.051240493
233	0x3c30562e	0.010762734
234	0xbcab3bbe	-0.02090251
235	0x3d1c31a2	0.03813327
236	0x3a150a15	0.0005685401
237	0x3dc973ee	0.09836565
238	0xbe536120	-0.20642519
239	0xbf32c5d1	-0.69833094
240	0xbda82ae2	-0.08211304
241	0xbe44cdfe	-0.19219205
242	0xbdae4f75	-0.08511249
243	0x3e084286	0.13306627
244	0xbd81a270	-0.063298106
245	0xbd1876e1	-0.037222747
246	0xbd507065	-0.050888438
247	0xbee6cee6	-0.45079726
248	0x3ddd67e5	0.10810832
249	0xbd5d8d7a	-0.05409
250	0xbe2cec18	-0.16886938
251	0xbe511066	-0.20416412
252	0xbe48b6c4	-0.1960097
253	0x3cbc4944	0.022984155
254	0x3c1b754f	0.009488418
255	0x3eb47e66	0.35252684

decoder.bias_ih_l0 f4 [256]
0	0xbe0c096d	-0.1367547
1	0xbe280e94	-0.16411811
2	0x3dfb20de	0.12262128
3	0x3f3cc73d	0.73741513
4	0x3da12541	0.07868434
5	0x3e99c8f5	0.3003613
6	0x3c84d17c	0.016213171
7	0x3da21e90	0.079159856
8	0x3cd25eec	0.025680028
9	0xbd4386d7	-0.047736015
10	0x3c10d681	0.008840204
11	0xbccc0505	-0.024904737
12	0x3cf24cba	0.029577602
13	0xbd319c96	-0.043362223
14	0xbde631b0	-0.11239946
15	0x3cab8834	0.02093897
16	0xbe39f43c	-0.18159574
17	0xbe03b13f	-0.12860583
18	0x3d494712	0.049140044
19	0xbc3f1577	-0.011662832
20	0x3d872a1d	0.06599829
21	0xbdcfa3c2	-0.10138656
22	0x3ebe117c	0.37122715
23	0x3e1ff235	0.15619738
24	0xbd537afb	-0.051630955
25	0x3de1ddd8	0.110286415
26	0xbda457e0	-0.08024573
27	0xbe157146	-0.14593992
28	0x3ce6496c	0.028111182
29	0xbd77ab4b	-0.060466092
30	0xbe6b7cd8	-0.22996843
31	0xbc932769	-0.017963128
32	0xbd005ffa	-0.03134153
33	0xbd45ba60	-0.048273444
34	0xbc166cf9	-0.009181255
35	0xbc03b755	-0.008039315
36	0xbdbc8cf8	-0.09206575
37	0x3ca3e522	0.02000672
38	0xbe064085	-0.1311055
39	0x3d429718	0.047507375
40	0x3f315dc4	0.692837
41	0xbd25bddc	-0.040464267
42	0xbe0018cf	-0.12509464
43	0x3d0cee43	0.03440691
44	0x3dc0d717	0.09416025
45	0xbe26e0ef	-0.16296743
46	0x3df6e067	0.1205452
47	0xbd2e2039	-0.0425112
48	0x3d0816b3	0.033224773
49	0xbe1917c5	-0.14950474
50	0xbba39121	-0.004991666
51	0xbdc0279a	-0.093825534
52	0x3cd23e2e	0.025664415
53	0x3dcdf67d	0.100567795
54	0x3d90b4d8	0.07065743
55	0xbde8fede	-0.11376737
56	0xbcbf2ce0	-0.023336828
57	0x3d0f5abb	0.034998637
58	0xbc27a842	-0.010232987
59	0xbde520b6	-0.1118788
60	0xbc731f2f	-0.014838978
61	0x3df6a12a	0.12042458
62	0x3df4ccd7	0.119531326
63	0xbe418b54	-0.18900806
64	0xbd19bbf1	-0.03753275
65	0xbd8356e0	-0.064130545
66	0x3f6ec893	0.932748
67	0x3ebb614c	0.3659767
68	0xbe686013	-0.226929
69	0xbf526b1b	-0.8219468
70	0x3c9fe6b6	0.019519191
71	0xbe932036	-0.28735512
72	0xbe853c15	-0.260224
73	0xbd9855a8	-0.07438213
74	0xbdd2eeac	-0.10299429
75	0x3d12afd9	0.035812233
76	0xbeb04139	-0.3442476
77	0xbe3c82f2	-0.18409327
78	0xbdb8f36f	-0.09030806
79	0xbe88b403	-0.26699838
80	0xbda14f86	-0.07876496
81	0xbce24f83	-0.027625805
82	0xbdc504f0	-0.096200824
83	0xbebb888d	-0.36627617
84	0x3db3887d	0.087662674
85	0xbe009694	-0.12557441
86	0xbf1719fd	-0.5902403
87	0xbea9157c	-0.33024204
88	0xbe9ccaec	-0.30623567
89	0xbeb4a02a	-0.35278445
90	0xbda4a539	-0.08039326
91	0xbda4bdda	-0.08044024
92	0xbe97f4cd	-0.29678956
93	0xbe50c141	-0.2038622
94	0x3f654bbd	0.8956869
95	0xbe862a60	-0.26204205
96	0xbd59d07b	-0.053177338
97	0xbe417ba2	-0.18894818
98	0xbe862fa1	-0.26208213
99	0xbe352863	-0.17691188
100	0xbdaac94c	-0.083391756
101	0x3d14e028	0.036346585
102	0xbdbb6dce	-0.09151803
103	0xbe22d607	-0.15901957
104	0xbf34d2c2	-0.7063409
105	0x3c3b5782	0.011434438
106	0xbe879c36	-0.26486367
107	0xbc6e7d2c	-0.0145562105
108	0xbee8e4c3	-0.4548703
109	0xbc818c58	-0.015813991
110	0xbe363a17	-0.17795597
111	0xbd83eaaa	-0.06441243
112	0xbeacb15c	-0.33729064
113	0x3ca918f0	0.020641774
114	0xbe962b33	-0.29329833
115	0xbe2eac73	-0.17057972
116	0xbe082fb2	-0.13299444
117	0xbeb1ea40	-0.3474903
118	0xbeaf1855	-0.3419825
119	0xbd7a574c	-0.06111841
120	0xbeddc20a	-0.43312103
121	0xbe0cf0cc	-0.13763732
122	0xbdc0eb92	-0.094199315
123	0xbe5a0d74	-0.21294194
124	0xbde95974	-0.11394015
125	0xbe993f46	-0.29931086
126	0xbead5aca	-0.3385833
127	0x3f2dd71c	0.67906356
128	0xbd274c82	-0.040844448
129	0x3d1775fd	0.036977757
130	0xbd941398	-0.072303
131	0xbbc3dc0a	-0.0059771584
132	0x3e27e02f	0.16394113
133	0xbe99c38d	-0.30032006
134	0xbdc97a6f	-0.098378055
135	0x3e446e8b	0.19182794
136	0x3e10ab24	0.14127785
137	0xbc0388fd	-0.008028266
138	0xbdf61b4f	-0.120169275
139	0xbdf98578	-0.1218366
140	0x3d651f01	0.05593777
141	0x3bee1a06	0.007266286
142	0xbd747195	-0.059678633
143	0x3d6001f6	0.05468937
144	0x3d595066	0.05305519
145	0xbc5cd04c	-0.013477396
146	0xbd96749a	-0.07346459
147	0x3d0ed13e	0.034867518
148	0x3e134a20	0.14383745
149	0xbcc31889	-0.02381541
150	0xbe1e5766	-0.15463027
151	0x3e62a6e8	0.22133982
152	0xbe3569d9	-0.17716159
153	0x3e3b1327	0.18269025
154	0xbd4be8d9	-0.049782608
155	0xbd5ea808	-0.054359466
156	0x3d27d7e4	0.040977374
157	0x3dec4873	0.11537256
158	0xbe212a50	-0.15738797
159	0x3dc1d0f7	0.09463685
160	0xbe148ad8	-0.1450609
161	0x3e180586	0.14845857
162	0xbd0f2734	-0.034949496
163	0x3e1572b5	0.14594539
164	0x3dece44b	0.11566981
165	0x3d85e6f7	0.06538194
166	0xbdcf3a06	-0.10118489
167	0xbd579753	-0.05263455
168	0x3e5d8c5d	0.21635576
169	0x3cfde841	0.030994536
170	0x3d62c414	0.055362776
171	0xbd25de6a	-0.040495314
172	0xbdabb1a0	-0.08383489
173	0x3e0101de	0.12598369
174	0x3dc3bd06	0.09557538
175	0xbc6c6ba4	-0.01442996
176	0xbe27b558	-0.16377771
177	0xbe1e4a2d	-0.15457983
178	0xbdde9549	-0.10868318
179	0xbd1588ce	-0.03650742
180	0xbb955650	-0.0045574084
181	0x3d98bd3f	0.07457971
182	0xbdfe11ca	-0.12405737
183	0x3bf24a22	0.007394091
184	0x3c1d4850	0.00959976
185	0xbd32542f	-0.043537315
186	0x3c9635df	0.018336235
187	0xbd58fdd0	-0.05297643
188	0xbd496e99	-0.04917774
189	0xbe5230dd	-0.20526452
190	0x3e1785a5	0.14797075
191	0xbcb5a7a2	-0.02217466
192	0xbdd9185f	-0.106003515
193	0xbe5c36e0	-0.21505308
194	0x3f17b831	0.5926543
195	0x3f6b989d	0.92029744
196	0x3e0d8fb2	0.13824347
197	0x3e86d804	0.26336682
198	0x3ac48435	0.0014993014
199	0x3d273c64	0.040829077
200	0xbcac89d4	-0.021061815
201	0x3d6f2a96	0.058390222
202	0xbcd109cf	-0.025517372
203	0xbdb1785a	-0.08665533
204	0xbe11d7a0	-0.1424241
205	0xbc62d71b	-0.01384523
206	0x3bf9b7e6	0.0076207994
207	0xbd04d841	-0.0324328
208	0xbe670e7b	-0.22564118
209	0x3daf248e	0.08551894
210	0xbc5da137	-0.013527206
211	0xbd3a84a2	-0.045536645
212	0x3ce1b06d	0.027549947
213	0x3d9cb4ed	0.07651696
214	0x3ebfa985	0.3743402
215	0x3d1ae860	0.037819266
216	0xbdd1f054	-0.10250917
217	0x3da6c8f5	0.08143798
218	0xbded371c	-0.11582777
219	0xbdc13550	-0.09433997
220	0x3cf14eba	0.029456485
221	0x3d011b30	0.03152007
222	0xbcb55a08	-0.022137657
223	0x3c38e39c	0.011284735
224	0x3b85ed6a	0.00408714
225	0x3d224539	0.039616797
226	0x3d8af287	0.0678454
227	0xbcd3cedf	-0.02585548
228	0xbd055f90	-0.03256184
229	0xbdd61b2a	-0.104544
230	0xbe3f07c5	-0.18655308
231	0xbe11a2a8	-0.14222205
232	0x3ef8e696	0.48613423
233	0xbe2eb8c2	-0.17062667
234	0xbe1e3d14	-0.15452987
235	0xbca9167c	-0.020640604
236	0x3cf6f719	0.030147122
237	0xbdffdb6e	-0.12493025
238	0xbde8d206	-0.11368184
239	0xbcf007af	-0.029300539
240	0x3e299e1b	0.16564219
241	0x3c6280ad	0.013824624
242	0xbdd1c093	-0.10241809
243	0xbda68153	-0.081301354
244	0xbe0a62cc	-0.1351425
245	0xbc1adfa4	-0.009452734
246	0xbccd29f0	-0.025044411
247	0xbd258a85	-0.040415306
248	0xbc928c13	-0.017889058
249	0xbe2c39e1	-0.16818954
250	0xbe23c6ce	-0.15993807
251	0xbe2a6b83	-0.16642575
252	0xbdb84795	-0.08998028
253	0x3dc3e743	0.09565594
254	0xbc3d17da	-0.011541331
255	0x3da199e8	0.078906834
