output/synthetic_data/models/model_hidden32_lr0.01_clip1.0.pth (torch, 39898 bytes, 9 tensors)

encoder.weight_ih_l0 f4 [128, 1]
-0.12889017 0.113000065 -0.1617526 0.095983624 -0.03212231 -0.119499184 0.13313907 -0.05547683
0.15709755 -0.04121767 -0.05873561 0.061686832 -0.017800359 -0.4303388 0.08850077 0.04833488
-0.025822403 -0.031709116 -0.07246881 0.126763 -0.03748711 0.13257372 -0.16201252 -0.24765152
0.12720455 0.04306628 -0.031848382 0.030030845 -0.025599224 -0.2376065 0.054211497 0.039516278
-0.056544922 0.1972851 -0.2379976 0.3680933 0.16054769 0.06690358 0.053129587 -0.030983226
-0.03000244 -0.0050928583 0.16829163 0.09901174 -0.14729209 -0.38104826 -0.08940517 -0.0012282999
-0.22933045 0.12444527 0.07455747 -0.14947347 0.02842209 -0.06973161 0.09526102 0.039238364
-0.13668181 -0.12432871 -0.13116473 0.30598596 0.22212774 -0.059151594 -0.03638447 0.10167637
0.04973368 -0.0782865 0.1612222 -0.33642507 -0.053117033 -0.18101376 0.02833344 0.10421818
0.1793269 0.23149426 0.123867884 0.21893127 -0.2717738 0.1492402 -0.13574699 -0.15499036
-0.084463894 0.18944319 0.048876613 0.092960045 -0.15604334 -0.024993833 0.03241179 0.19622025
-0.09654025 -0.1077411 0.13373433 0.09964793 0.3061696 0.09911166 -0.07651689 0.16111082
-0.2081894 0.04443851 -0.14721404 0.06042378 -0.106015384 0.053653635 0.18518019 0.15181433
0.26281047 -0.0513263 0.0557895 0.058865283 -0.0628245 -0.10389183 -0.105333075 -0.2770514
-0.09204292 -0.04823255 -0.14649463 -0.05911578 0.08975569 0.08994919 -0.06918601 -0.094382964
-0.15875131 -0.13265811 -0.0111246575 -0.07400399 0.17371702 -0.12365007 0.03766226 0.14627646
00000000: c9fb 03be 946c e73d 79a2 25be 1093 c43d
00000010: af92 03bd fdbb f4bd 9c55 083e ac3b 63bd
00000020: 2ede 203e dcd3 28bd c094 70bd 55ab 7c3d
00000030: 0fd2 91bc 5e55 dcbe e43f b53d ccfa 453d
00000040: 8189 d3bc 6be1 01bd 876a 94bd 29ce 013e
00000050: 158c 19bd 68c1 073e 9ce6 25be 5c98 7dbe
00000060: e941 023e 4566 303d 7373 02bd 3f03 f63c
00000070: 77b5 d1bc 1e4f 73be e00c 5e3d d2db 213d
00000080: a69b 67bd 1b05 4a3e a5b5 73be ba76 bc3e
00000090: 9d66 243e bf04 893d 699e 593d 89d0 fdbc
000000a0: adc7 f5bc fee1 a6bb a454 2c3e abc6 ca3d
000000b0: bdd3 16be c218 c3be 0f1a b7bd e8fe a0ba
000000c0: 9ad5 6abe 29dd fe3d 96b1 983d 930f 19be
000000d0: 71d5 e83c 72cf 8ebd 3618 c33d 68b8 203d
000000e0: 51f6 0bbe 0da0 febd 0c50 06be 31aa 9c3e
000000f0: 7475 633e f148 72bd e207 15bd b33b d03d
00000100: 8bb5 4b3d ac54 a0bd 6f17 253e e83f acbe
00000110: 3f91 59bd ac5b 39be 881b e83c 5770 d53d
00000120: 79a1 373e d50c 6d3e 72ae fd3d 852f 603e
00000130: ef25 8bbe 6cd2 183e 4201 0bbe cbb5 1ebe
00000140: 68fb acbd 65fd 413e d832 483d d661 be3d
00000150: d3c9 1fbe debf ccbc 3ac2 043d f6ed 483e
00000160: e5b6 c5bd 5ea7 dcbd a7f1 083e 3714 cc3d
00000170: 43c2 9c3e 0efb ca3d e3b4 9cbd 3cfa 243e
00000180: 9a2f 55be 2805 363d 47bf 16be ed7e 773d
00000190: 981e d9bd eac3 5b3d e09f 3d3e 3775 1b3e
000001a0: 188f 863e 873b 52bd 8883 643d b91c 713d
000001b0: 22aa 80bd 3dc5 d4bd deb8 d7bd aed9 8dbe
000001c0: 0081 bcbd 7f8f 45bd b002 16be 6323 72bd
000001d0: d5d1 b73d 4837 b83d 65b1 8dbd db4b c1bd
000001e0: b48f 22be 87d7 07be 3244 36bc 678f 97bd
000001f0: e0e2 313e 3f3c fdbd be43 1a3d 7fc9 153e

encoder.weight_hh_l0 f4 [128, 32]
-0.04428703 -0.09669347 0.1140583 0.06621305 0.17979458 -0.03547357 -0.20200805 0.035077617
-0.09700279 0.08694903 0.16267985 -0.20001136 -0.10875317 -0.10222857 0.032154806 0.0123097235
-0.12919055 -0.11250982 0.08146966 0.08552985 0.07310278 0.07426287 0.18004486 -0.09017671
-0.07869947 -0.13906252 -0.15893802 -0.14117187 -0.17297766 -0.09440103 0.14139096 0.011629489
-0.03735178 -0.04266705 0.018743647 -0.12034714 -0.055394903 -0.25243512 0.02791956 -0.26313654
-0.085520744 -0.115910925 0.20650616 -0.2918384 0.3254583 -0.31533787 -0.022280846 -0.15456505
-0.26971695 0.1583419 0.034520715 -0.21592672 -0.0033820511 -0.083414644 0.16065216 0.2469221
0.05924724 0.019142421 0.000314444 0.09992896 0.3720155 -0.1263356 0.11973994 0.14307918
0.18444 0.044903286 0.054818064 -0.28811097 -0.004962809 -0.06328422 -0.1529925 -0.14551064
-0.26769486 -0.10365655 0.18800056 -0.18822217 0.14408691 -0.019974124 0.04497931 -0.12302257
-0.2899598 -0.2793104 -0.11411554 -0.033298973 -0.009912173 0.13601048 0.33242387 0.38008752
0.10736676 -0.02520953 -0.3458125 0.047340125 -0.04452084 -0.049146354 0.3114321 -0.01994381
-0.031224016 -0.0024047485 -0.14942665 0.05284006 -0.1078768 0.03696752 -0.16666909 0.02767404
0.08841222 0.009465753 -0.08087424 -0.06748589 -0.12226599 -0.25781196 0.054208394 0.26355934
-0.3645364 0.11686942 0.09448595 -0.22198065 0.5918101 -0.23588765 0.034741707 0.22860615
0.08968525 0.19240712 -0.20885119 -0.18375468 -0.36558673 -0.20510778 0.017295456 -0.011490827
-0.11311109 0.06920695 -0.1579833 -0.19457795 0.026524581 0.054362953 -0.0050007002 0.13697025
-0.0008249088 0.12634997 0.10097257 -0.16905367 0.21851736 0.062674895 -0.110837705 0.08612923
-0.08120115 0.3093165 0.06856185 -0.14659435 -0.0977612 0.029013555 -0.0550798 0.009556408
0.023632595 -0.17849678 0.07008717 0.026495494 0.22924091 -0.037478857 -0.006982626 -0.031798605
0.05390087 -0.07919234 0.038708705 0.019695118 -0.07317052 -0.12530299 0.02528506 0.093950994
0.12596639 0.11334211 -0.019585092 -0.061269287 0.044831615 0.037031047 0.16625427 -0.015538529
-0.031169552 -0.10900769 0.3154846 -0.16616021 0.3881512 -0.22481225 -0.04732415 0.29402167
0.17578107 -0.15198421 -0.109722145 -0.06785372 -0.3694046 -0.18093269 0.15153813 -0.025381202
0.011584758 -0.051874157 -0.17017072 -0.23856436 0.09807295 0.1218857 0.027515626 -0.09634257
-0.019859066 -0.14104189 0.12693228 0.0015202869 0.120721705 -0.009975634 0.085214816 -0.00060859777
0.16853555 0.1515773 -0.060868345 0.0015230507 -0.0297739 0.13476108 -0.11601413 -0.02432334
-0.0833446 -0.18553382 -0.07814583 -0.067543425 0.10269173 0.120887734 0.0009406248 0.068069346
-0.16336484 -0.19920509 -0.19641447 -0.11239549 -0.14245765 0.0681016 -0.1397027 -0.0013028486
0.08715083 -0.04614956 0.09674645 -0.13678879 0.022903102 -0.15526424 0.018112294 0.093386844
0.16680121 0.19669375 0.09490372 0.08774324 0.07749501 0.038851336 0.11549573 0.00031374453
0.14273164 0.03764293 -0.12656817 0.17338836 0.1834325 -0.061438426 0.0506437 0.038744166
00000000: 5166 35bd 3a07 c6bd 6697 e93d b59a 873d
00000010: 121c 383e bc4c 11bd 33db 4ebe 8cad 0f3d
00000020: 66a9 c6bd 5512 b23d 8c95 263e c7cf 4cbe
00000030: fbb9 debd 365d d1bd c2b4 033d b9ae 493c
00000040: 874a 04be 8c6b e6bd 91d9 a63d 462a af3d
00000050: e9b6 953d 2217 983d ae5d 383e 91ae b8bd
00000060: 302d a1bd 6866 0ebe a6c0 22be 5c8f 10be
00000070: 0e21 31be 5455 c1bd cbc8 103e 9d89 3e3c
00000080: 2efe 18bd a5c3 2ebd 478c 993c 9078 f6bd
00000090: c4e5 62bd 2d3f 81be 90b7 e43c d5b9 86be
000000a0: 8025 afbd b562 edbd 5a76 533e d86b 95be
000000b0: 78a2 a63e f773 a1be 5286 b6bc 4d46 1ebe
000000c0: 5718 8abe 6124 223e 9865 0d3d e51b 5dbe
000000d0: 67a5 5dbb 4cd5 aabd 0082 243e 26d9 7c3e
000000e0: 3cad 723d 91d0 9c3c f6db a439 8ea7 cc3d
000000f0: d178 be3e 1f5e 01be 373a f53d 5983 123e
00000100: d7dd 3c3e 82ec 373d e888 603d 4883 93be
00000110: 0f9f a2bb 289b 81bd 11aa 1cbe be00 15be
00000120: 4d0f 89be e349 d4bd 3883 403e 50bd 40be
00000130: 858b 133e c6a0 a3bc 3a3c 383d 42f3 fbbd
00000140: 9c75 94be c601 8fbe 69b5 e9bd 8164 08bd
00000150: ab66 22bc 5546 0b3e 7633 aa3e d59a c23e
00000160: 1be3 db3d 3784 cebc 560e b1be b8e7 413d
00000170: 7c5b 36bd b04d 49bd 0774 9f3e 3361 a3bc
00000180: 82c9 ffbc fc98 1dbb 4d03 19be d26e 583d
00000190: 83ee dcbd 416b 173d 4dab 2abe abb4 e23c
000001a0: 7711 b53d 3f16 1b3c 65a1 a5bd 0b36 8abd
000001b0: 9766 fabd eeff 83be 9f09 5e3d 40f1 863e
000001c0: 84a4 babe 3c59 ef3d da81 c13d e54e 63be
000001d0: de80 173f 888c 71be 524d 0e3d bb17 6a3e
000001e0: e6ac b73d 5f06 453e 16dd 55be 302a 3cbe
000001f0: 2f2e bbbe c607 52be 33af 8d3c 0644 3cbc
00000200: caa6 e7bd 60bc 8d3d 60c6 21be 713f 47be
00000210: 144a d93c b0ab 5e3d eadc a3bb ee41 0c3e
00000220: b13e 58ba e361 013e b5ca ce3d 681c 2dbe
00000230: 04c3 5f3e b25b 803d e1fe e2bd 8664 b03d
00000240: ca4c a6bd bb5e 9e3e 286a 8c3d d41c 16be
00000250: 0637 c8bd d6ad ed3c 5b9b 61bd 7b92 1c3c
00000260: 2599 c13c dcc7 36be dd89 8f3d 140d d93c
00000270: 21be 6a3e 6e83 19bd 83ce e4bb 413f 02bd
00000280: 29c7 5c3d 982f a2bd 058d 1e3d a857 a13c
00000290: 6dda 95bd 6d4f 00be 9d22 cf3c 6169 c03d
000002a0: 55fd 003e e81f e83d ea70 a0bc 81f5 7abd
000002b0: 5ba1 373d dead 173d 8f3e 2a3e 5095 7ebc
000002c0: 4a57 ffbc 6c3f dfbd 3387 a13e e725 2abe
000002d0: c1bb c63e 2f35 66be f8d6 41bd 028a 963e
000002e0: f4ff 333e c0a1 1bbe 01b6 e0bd e4f6 8abd
000002f0: 9a22 bdbe 6b46 39be d02c 1b3e 3dec cfbc
00000300: ffcd 3d3c ff79 54bd 3c41 2ebe 374a 74be
00000310: 79da c83d 369f f93d 7368 e13c 414f c5bd
00000320: 7baf a2bc 496d 10be 89fa 013e 5d44 c73a
00000330: f13c f73d d770 23bc 1b85 ae3d 4e8a 1fba
00000340: 9594 2c3e 1437 1b3e 1651 79bd 1aa1 c73a
00000350: 65e8 f3bc cffe 093e d198 edbd be41 c7bc
00000360: 93b0 aabd 94fc 3dbe ec0a a0bd 3554 8abd
00000370: 0b50 d23d fd93 f73d 4394 763a f167 8b3d
00000380: 1d49 27be 6bfc 4bbe e020 49be 9b2f e6bd
00000390: 6be0 11be da78 8b3d 390e 0fbe 58c4 aaba
000003a0: 227c b23d 5207 3dbd 0123 c63d 5c12 0cbe
000003b0: 499f bb3c 97fd 1ebe 3c60 943c 9a41 bf3d
000003c0: f0cd 2a3e 166a 493e e25c c23d bab2 b33d
000003d0: b4b5 9e3d 9422 1f3d 0689 ec3d 147e a439
000003e0: 3e28 123e 792f 1a3d 169b 01be b88c 313e
000003f0: bbd5 3b3e dca6 7bbd c56f 4f3d 34b2 1e3d

encoder.bias_ih_l0 f4 [128]
-0.10090503 -0.0677847 -0.24966687 -0.09645478 0.0804227 -0.12498006 0.14636913 -0.07351089
0.11451656 0.077420354 -0.066401824 0.15000165 -0.033565838 0.34070235 -0.009185097 0.11228222
-0.22019897 -0.058151115 0.07381292 -0.039044503 -0.06150426 -0.09792373 -0.08578048 0.17571859
-0.010919443 -0.19474158 -0.008310413 0.03184479 0.007884912 -0.0078176055 -0.07249971 -0.10414598
-0.15481046 0.23374787 -0.21753897 0.14865084 -0.007726624 0.12918316 -0.0016966971 -0.108812444
-0.099349536 -0.076595575 -0.14204355 0.03754175 -0.026318496 0.18642996 0.031147517 -0.18383604
-0.020390948 0.031298626 0.29376972 0.006473345 -0.100204214 0.0070354873 0.0025035315 0.064153545
0.15584688 -0.109508835 0.14546052 0.04298538 0.29850513 -0.03140558 0.09888748 0.009827038
-0.10961968 0.1543876 0.19279402 -0.0320111 -0.16758344 0.16997223 0.1194163 0.22005701
0.102285564 0.08066356 -0.22876725 0.13315386 0.129057 -0.24653094 -0.00419916 0.14822152
0.08253125 0.07956692 -0.04336809 -0.03829479 0.105844714 -0.036267255 -0.23201756 -0.08612205
-0.026246011 -0.0033264072 0.110073194 0.043048885 -0.08341109 -0.104833305 -0.22237663 -0.05480341
-0.014701972 0.09120537 -0.36958334 0.17182739 -0.165272 0.059571706 -0.102110334 -0.02791289
-0.085242204 -0.04831771 0.01915918 -0.082738146 -0.11476292 0.25197053 -0.067708254 -0.015682852
-0.17381051 0.052931372 0.15313679 -0.12548418 0.024560679 0.05450773 0.10673711 0.077559665
-0.16202146 0.0017209775 -0.1448368 -0.1103107 -0.078444615 -0.1475257 -0.0038182065 -0.12798163
00000000: 4ca7 cebd b4d2 8abd aca8 7fbe 158a c5bd
00000010: a8b4 a43d 8cf5 ffbd cae1 153e e18c 96bd
00000020: a987 ea3d 908e 9e3d aefd 87bd 089a 193e
00000030: 557c 09bd 8a70 ae3e 177d 16bc 38f4 e53d
00000040: d77b 61be dd2f 6ebd 3a2b 973d 21ed 1fbd
00000050: e4eb 7bbd 3d8c c8bd adad afbd 93ef 333e
00000060: 77e7 32bc 566a 47be 6628 08bc af6f 023d
00000070: b82f 013c 6a15 00bc ba7a 94bd 7d4a d5bd
00000080: a286 1ebe 9a5b 6f3e 89c2 5ebe ed37 183e
00000090: 9f2f fdbb 9748 043e b563 deba 0fd9 debd
000000a0: c577 cbbd 24de 9cbd dd73 11be 61c5 193d
000000b0: e399 d7bc 7fe7 3e3e 1429 ff3c 843f 3cbe
000000c0: eb0a a7bc fd32 003d fc68 963e 5b1e d43b
000000d0: de37 cdbd f289 e63b 4a12 243b ef62 833d
000000e0: 5396 1f3e 2b46 e0bd 9af3 143e 7011 303d
000000f0: aad5 983e 23a3 00bd 8585 ca3d 9601 213c
00000100: 4880 e0bd c817 1e3e cc6b 453e 121e 03bd
00000110: fe9a 2bbe 330d 2e3e 8890 f43d a056 613e
00000120: 187b d13d f032 a53d f641 6abe 7c59 083e
00000130: 8527 043e 9b72 7cbe 1b99 89bb 62c7 173e
00000140: 2506 a93d fbf3 a23d bda2 31bd ffda 1cbd
00000150: 1dc5 d83d f98c 14bd 0396 6dbe c260 b0bd
00000160: e001 d7bc daff 59bb 0e6e e13d 0754 303d
00000170: 6fd3 aabd d8b2 d6bd b3b6 63be 8a79 60bd
00000180: 8ae0 70bc e2c9 ba3d 073a bdbe 85f3 2f3e
00000190: 103d 29be 7601 743d 391f d1bd 93a9 e4bc
000001a0: 7793 aebd cbe8 45bd b6f3 9c3c 9e72 a9bd
000001b0: d208 ebbd 4802 813e a0aa 8abd 5379 80bc
000001c0: 62fb 31be 91ce 583d e4cf 1c3e ed7e 00be
000001d0: 7a33 c93c 7f43 5f3d fc98 da3d 9ad7 9e3d
000001e0: f4e8 25be 6c92 e13a 1950 14be 94ea e1bd
000001f0: 92a7 a0bd fa10 17be e03a 7abb 9e0d 03be

encoder.bias_hh_l0 f4 [128]
-0.07054845 -0.20942505 -0.3391171 0.15266031 -0.12250236 0.1754663 -0.039282307 0.17462265
0.1724037 0.10684598 -0.10779965 0.11974176 -0.09206996 0.092012875 0.075375445 -0.20342308
-0.113241404 -0.19724919 -0.03035813 -0.013436516 -0.081439525 -0.17285167 0.2006318 -0.0208685
-0.06781291 -0.27407104 0.07863864 -0.14890137 -0.093174204 -0.031227883 0.12140184 -0.17721431
0.0092768045 0.25590113 -0.33633506 0.24221608 -0.0055048075 0.16405302 -0.035635013 -0.014131061
0.004417344 0.07713537 0.17311095 0.09310877 0.061743874 0.1021209 0.22437243 0.077055156
0.15817106 0.004481981 0.16162102 0.06555777 0.09613725 -0.1477402 0.12409733 0.40831497
-0.113213114 -0.0697169 0.19971974 0.17722692 0.10994759 -0.1736954 -0.08978731 -0.09675379
0.01401692 -0.07896086 -0.084956855 0.085051216 -0.059393894 0.12633441 0.18799809 0.21373579
0.1812434 0.083600365 0.019079968 0.17990859 -0.058713313 -0.020672219 -0.19482757 0.14568159
0.06421565 0.08689643 0.10614257 0.012260144 -0.07152549 -0.18299213 -0.04239837 -0.0062327893
-0.07181574 -0.0119643435 0.08075957 0.038070306 0.028274002 -0.0011214357 0.1025622 -0.046212953
0.1395002 -0.13854207 -0.34286693 0.098528944 0.13954477 0.036352202 -0.0025006658 0.050091807
0.23240599 -0.09324827 0.08279974 0.10215361 -0.05519989 0.12003289 0.07482613 0.09576566
-0.010029493 -0.016299447 0.13667858 0.025815232 -0.0999678 0.07809681 0.08086411 0.024243133
-0.049861345 -0.08018732 -0.06640914 -0.07098359 -0.15771995 -0.31712103 -0.10918682 0.06727945
00000000: b57b 90bd 8573 56be c2a0 adbe fc52 1c3e
00000010: 84e2 fabd 70ad 333e 7ce6 20bd 48d0 323e
00000020: 988a 303e 11d2 da3d 10c6 dcbd 2b3b f53d
00000030: 2d8f bcbd 3f71 bc3d 715e 9a3d 244e 50be
00000040: 1ceb e7bd b1fb 49be 9db1 f8bc d524 5cbc
00000050: c4c9 a6bd 0700 31be 6c72 4d3e 6bf4 aabc
00000060: 7fe1 8abd 0a53 8cbe 4c0d a13d 9a79 18be
00000070: 1ed2 bebd 9ed1 ffbc 87a1 f83d ab77 35be
00000080: bdfd 173c 7905 833e 1c34 acbe 7e07 783e
00000090: ac61 b4bb 84fd 273e 05f6 11bd f785 67bc
000000a0: 5ebf 903b 26f9 9d3d ff43 313e d0af be3d
000000b0: 25e7 7c3d c324 d13d e3c1 653e 18cf 9d3d
000000c0: 98f7 213e 95dd 923b fb7f 253e 2743 863d
000000d0: 9be3 c43d 3549 17be be26 fe3d a90e d13e
000000e0: 47dc e7bd bcc7 8ebd 5583 4c3e f97a 353e
000000f0: 342c e13d 35dd 31be 69e2 b7bd da26 c6bd
00000100: 39a7 653c 3bb6 a1bd dcfd adbd 552f ae3d
00000110: 0347 73bd cf5d 013e 9282 403e 8edd 5a3e
00000120: df97 393e ab36 ab3d 984d 9c3c f539 383e
00000130: 5f7d 70bd c958 a9bc e180 47be 8e2d 153e
00000140: 7f83 833d c1f6 b13d 4761 d93d c5de 483c
00000150: f57b 92bd 4a62 3bbe eaa9 2dbd 6d3c ccbb
00000160: 2114 93bd 1806 44bc 4665 a53d 9cef 1b3d
00000170: e19e e73c 23fd 92ba 210c d23d cb49 3dbd
00000180: 24d9 0e3e f9dd 0dbe 418c afbe 8bc9 c93d
00000190: d3e4 0e3e 0ce6 143d 36e2 23bb 112d 4d3d
000001a0: d6fb 6d3e f3f8 bebd e992 a93d e935 d13d
000001b0: 4819 62bd ced3 f53d 713e 993d c920 c43d
000001c0: be52 24bc 6b86 85bc 78f5 0b3e 777a d33c
000001d0: ebbb ccbd 38f1 9f3d 159c a53d 8999 c63c
000001e0: 693b 4cbd 4039 a4bd 8401 88bd d85f 91bd
000001f0: 5781 21be b05d a2be 579d dfbd cfc9 893d

decoder.weight_ih_l0 f4 [128, 32]
-0.048512664 0.019445222 0.018054502 0.04415799 -0.022851935 -0.12317686 0.12930909 0.18732077
0.16537403 0.04564592 -0.15335822 0.010701993 0.11578393 -0.30289793 -0.028442048 -0.043068122
0.09144039 0.14789632 0.54093766 0.042624373 0.15456583 -0.17306727 -0.20582752 -0.07878485
0.11489918 0.036936596 -0.062661745 -0.09587584 0.092803106 0.0019036788 0.041641656 0.102656655
0.55495536 0.19634175 0.5430947 -1.650603 0.13717459 -0.48361945 -0.20869055 -0.33170187
-0.23919594 0.10404612 0.42771232 0.11226957 -0.79333764 0.2997409 0.09806115 -0.2607923
-0.2826315 0.030909298 0.46888202 -0.10287637 -0.28472266 -0.06352589 0.33840466 1.0299498
0.20003131 -0.061018083 -0.4717336 -0.011376908 0.12783477 -0.028049659 0.14802274 0.18625207
0.10593183 -0.04086681 0.057335272 -0.04209627 0.23818442 0.0097022485 -0.28576383 -0.17085782
-0.1103633 -0.06357131 0.018960062 0.02821041 0.057105996 -0.12264551 0.04555431 -0.2400106
-0.16759494 -0.1404667 0.18677357 0.16283204 0.03533495 -0.079599805 0.25924337 0.22940502
0.21875392 0.11932169 -0.15625983 -0.1800344 0.20710364 0.057235725 0.26819497 0.22181378
0.043214086 -0.16230917 -0.019692276 -0.16750547 0.1416875 -0.12774047 -0.0009838495 0.09783561
-0.042923864 -0.18508914 0.084723584 -0.119354874 0.01415604 -0.25457752 0.14248638 0.08307133
-0.024028167 -0.035051975 0.045400184 0.0043143327 0.16618833 0.07652719 0.021079013 0.1745263
0.15048864 0.14439946 0.0964718 0.10279722 -0.2445414 0.051264927 0.13745302 -0.050717738
-0.13169782 0.07682412 0.084659524 0.059667863 -0.1319471 0.13704348 0.05476252 -0.08008568
-0.11194076 0.06535179 0.17558388 0.026703062 -0.09408791 -0.31025997 0.07766431 0.2118154
0.09933314 -0.14342599 0.012384724 -0.06580284 0.08221611 0.02474266 -0.07754583 0.14990795
0.17579365 0.095642895 -0.12366557 0.14352536 -0.16485736 0.13978148 -0.10404107 -0.034021392
-0.20871675 0.003231309 -0.24075715 0.123051085 0.11660323 0.12887298 0.047844768 -0.03592085
0.18912596 0.15438673 -0.1313868 0.13678594 0.14739418 -0.16892233 0.15704653 0.026009653
-0.12643053 -0.12314283 0.40243885 -0.011859382 0.1281598 0.19784251 0.16139205 0.097532056
0.032366805 -0.02764261 0.06239146 -0.020947285 -0.12959565 -0.03856441 0.13073677 -0.17756751
0.093257874 0.046016987 0.08892447 -0.07444931 -0.036993306 -0.15979405 -0.0036942824 0.14625326
-0.028366927 -0.06485115 -0.026952175 -0.121375166 0.2251184 -0.3095703 0.023318248 0.07914263
0.02564162 -0.04610248 0.19770543 0.13427323 0.05623874 0.0935188 0.19132376 0.056289658
0.03140123 0.080454856 -0.12511873 0.080331296 -0.14038517 -0.06980035 0.06542132 -0.05042343
-0.10913557 -0.13621818 -0.2059294 -0.039557092 -0.023290476 -0.029287789 0.06252907 0.13704674
0.19625883 -0.1633728 -0.14721152 0.08019154 0.030468196 -0.10159485 -0.06550608 0.084788606
-0.10059045 0.0117383255 0.34997448 -0.008821365 0.11543696 -0.11568086 -0.05263754 0.061391868
0.17970148 -0.08978692 0.1466607 -0.0059532784 -0.13660881 -0.12471907 0.17643335 -0.13103186
00000000: 37b5 46bd 964b 9f3c 09e7 933c 02df 343d
00000010: fb33 bbbc 2644 fcbd 9a69 043e 04d1 3f3e
00000020: cf57 293e 37f7 3a3d f009 1dbe 6957 2f3c
00000030: 2020 ed3d 7015 9bbe 4cff e8bc 3368 30bd
00000040: 1945 bb3d 2272 173e e47a 0a3f e596 2e3d
00000050: 8146 1e3e 8c38 31be 73c4 52be f459 a1bd
00000060: 4350 eb3d d44a 173d cd54 80bd 8d5a c4bd
00000070: 8e0f be3d dc84 f93a 7190 2a3d a73d d23d
00000080: 8e11 0e3f d00d 493e 4108 0b3f f646 d3bf
00000090: 7f77 0c3e f89c f7be fab2 55be d4d4 a9be
000000a0: c8ef 74be 2216 d53d 1cfd da3e 97ed e53d
000000b0: 2d18 4bbf a477 993e 49d4 c83d 9186 85be
000000c0: 13b5 90be 7f35 fd3c 4e11 f03e d9b0 d2bd
000000d0: 2bc7 91be dd19 82bd 6043 ad3e 65d5 833f
000000e0: 02d5 4c3e 19ee 79bd 1187 f1be 3666 3abc
000000f0: 1ee7 023e 66c8 e5bc 4693 173e ddb8 3e3e
00000100: caf2 d83d f563 27bd 64d8 6a3d 236d 2cbd
00000110: 9ee6 733e 2ef6 1e3c a34f 92be 5af5 2ebe
00000120: 2706 e2bd ad31 82bd 2252 9b3c 8519 e73c
00000130: fae7 693d 922d fbbd 2897 3a3d 57c5 75be
00000140: 029e 2bbe 81d6 0fbe 9241 3f3e 71bd 263e
00000150: 61bb 103d 3905 a3bd 8cbb 843e 26e9 6a3e
00000160: 0701 603e ee5e f43d 9402 20be f05a 38be
00000170: fa12 543e 0270 6a3d da50 893e 2723 633e
00000180: 4101 313d 6034 26be b251 a1bc 8e86 2bbe
00000190: 8716 113e 66ce 02be 83f4 80ba 095e c83d
000001a0: efd0 2fbd 0288 3dbe 8f83 ad3d 5470 f4bd
000001b0: bcee 673c fc57 82be f3e7 113e 4d21 aa3d
000001c0: b8d6 c4bc a992 0fbd 8bf5 393d 3f5f 8d3b
000001d0: 462d 2a3e 4aba 9c3d e5ad ac3c 06b7 323e
000001e0: b219 1a3e 74dd 133e 0293 c53d 5987 d23d
000001f0: 1069 7abe 2cfb 513d 7cc0 0c3e 67bd 4fbd
00000200: cbdb 06be f755 9d3d f961 ad3d 4a66 743d
00000210: 241d 07be 2055 0c3e aa4e 603d f603 a4bd
00000220: 3241 e5bd 29d7 853d 43cc 333e 61c0 da3c
00000230: 2ab1 c0bd 65da 9ebe 770e 9f3d 23e6 583e
00000240: 2c6f cb3d 43de 12be 4ce9 4a3c a4c3 86bd
00000250: eb60 a83d 1eb1 ca3c 59d0 9ebd 7881 193e
00000260: 4003 343e 6ce0 c33d 6044 fdbd 50f8 123e
00000270: 5ed0 28be e022 0f3e 7c13 d5bd 045a 0bbd
00000280: d8b9 55be 5ec4 533b 0b89 76be 3502 fc3d
00000290: adcd ee3d 47f7 033e e0f8 433d be21 13bd
000002a0: 3caa 413e 8e17 1e3e 438a 06be 9d11 0c3e
000002b0: 80ee 163e faf9 2cbe ced0 203e 3212 d53c
000002c0: 0177 01be 4f32 fcbd 770c ce3e da4d 42bc
000002d0: 533c 033e 3a97 4a3e f543 253e e3be c73d
000002e0: 0e93 043d c172 e2bc 308e 7f3d a499 abbc
000002f0: b9b4 04be b7f5 1dbd dcdf 053e 42d4 35be
00000300: fcfd be3d 4f7c 3c3d 081e b63d e178 98bd
00000310: 4b86 17bd 0da1 23be c61b 72bb 6ac3 153e
00000320: c261 e8bc aed0 84bd cfca dcbc 8b93 f8bd
00000330: 7085 663e 0080 9ebe e905 bf3c 8815 a23d
00000340: 600e d23c f4d5 3cbd 4b73 4a3e ec7e 093e
00000350: 985a 663d c986 bf3d 60ea 433e fc8f 663d
00000360: 939e 003d 84c5 a43d 201f 00be bc84 a43d
00000370: 21c1 0fbe 7cf3 8ebd 9dfb 853d cc88 4ebd
00000380: 7882 dfbd c77c 0bbe 28df 52be 9e06 22bd
00000390: abcb bebc f2ec efbc 3e0f 803d fb55 0c3e
000003a0: 13f8 483e 334b 27be 9ebe 16be 763b a43d
000003b0: 7098 f93c f610 d0bd 0d28 86bd a6a5 ad3d
000003c0: 5e02 cebd 1b52 403c db2f b33e 7d87 10bc
000003d0: 366a ec3d 16ea ecbd 769a 57bd 0a76 7b3d
000003e0: aa03 383e 34e2 b7bd 392e 163e b813 c3bb
000003f0: 2ee3 0bbe b66c ffbd f2aa 343e 372d 06be

decoder.weight_hh_l0 f4 [128, 1]
-0.1760567 -1.9127642 -0.21011025 0.13562414 0.15763795 0.16675976 0.16787866 -0.08651098
-0.18310885 -0.17689583 -0.22532329 -0.20723099 -0.27411208 -0.20544794 0.25407746 -0.24390244
0.031808242 -0.012031933 0.06774877 0.12437432 -0.16753155 -0.23190196 -0.27244338 -0.049024615
-0.3375242 -0.12789527 0.048344363 -0.34357488 -0.1506669 -0.06158438 0.046600714 0.26869085
0.15056999 2.2739494 -0.12141194 -0.045682974 0.07343714 0.202602 0.37258136 -0.15710755
0.063027374 -0.06391287 -0.0410596 -0.26995698 -0.11139156 0.013019597 0.11865814 0.010645193
0.4206376 0.0073726964 -0.012618649 0.2527532 -0.13507818 -0.21582653 -0.29347575 -0.14411414
-0.2689757 -0.18218441 -0.08297953 -0.2798332 -0.20427811 -0.0017531993 0.33123153 0.38910002
0.012210847 -0.68427783 -0.09283568 -0.055129 0.045842145 -0.12655003 0.07154772 -0.2028589
0.14328556 0.20762926 0.14436114 0.09970901 -0.19088778 0.16930772 0.32587495 -0.18268074
-0.051063884 -0.20970082 0.2558642 0.04064661 -0.23512597 0.004282958 -0.08950372 0.10550667
-0.21752489 -0.33586982 -0.14395896 -0.23326014 0.13921225 0.075801454 0.22411378 -0.24610867
-0.08526368 1.0988029 -0.09095582 -0.291493 -0.07652745 0.07845039 -0.06346308 -0.07796519
-0.18047534 -0.18479717 -0.027366655 -0.17419516 -0.019396594 -0.3005065 0.44711623 -0.08441665
-0.016109006 -0.18544139 -0.30467048 -0.057019167 -0.054414663 -0.32499942 -0.03957885 -0.011847766
-0.6506063 -0.23199193 0.09380077 -0.39157477 -0.38459182 0.004189043 0.042580847 0.23783776
00000000: 3548 34be 75d5 f4bf 2427 57be 0ee1 0a3e
00000010: d86b 213e 12c3 2a3e 62e8 2b3e ab2c b1bd
00000020: e380 3bbe 2e24 35be 26bb 66be 5c34 54be
00000030: 6b58 8cbe f260 52be 7116 823e 90c1 79be
00000040: 5c49 023d 9621 45bc debf 8a3d f7b7 fe3d
00000050: 648d 2bbe b577 6dbe b37d 8bbe 09ce 48bd
00000060: f9cf acbe faf6 02be bd04 463d 0ce9 afbe
00000070: 6d48 1abe e73f 7cbd 64e0 3e3d d991 893e
00000080: 052f 1a3e 6388 1140 d3a6 f8bd 121e 3bbd
00000090: 3666 963d e676 4f3e fcc2 be3e cde0 20be
000000a0: 7f14 813d c0e4 82bd 1c2e 28bd cd37 8abe
000000b0: 4221 e4bd 2650 553c 0a03 f33d 2d69 2e3c
000000c0: d05d d73e a996 f13b 73be 4ebc de68 813e
000000d0: ef51 0abe a101 5dbe 7442 96be a892 13be
000000e0: 2fb7 89be 8d8e 3abe 2cf1 a9bd 4c46 8fbe
000000f0: 482e 51be 9bcb e5ba 2e97 a93e 1e38 c73e
00000100: 0110 483c d52c 2fbf a220 bebd f2ce 61bd
00000110: f9c4 3b3d 5596 01be 9c87 923d 3eba 4fbe
00000120: 73b9 123e c49c 543e 68d3 133e 3d34 cc3d
00000130: 1678 43be 015f 2d3e 15d9 a63e a910 3bbe
00000140: 5d28 51bd d0bb 56be a200 833e 0f7d 263d
00000150: ddc4 70be 0e58 8c3b ba4d b7bd e213 d83d
00000160: d8be 5ebe 21f7 abbe fa69 13be bfdb 6ebe
00000170: a88d 0e3e cb3d 9b3d 157e 653e e903 7cbe
00000180: b99e aebd 93a5 8c3f 0c47 babd 923e 95be
00000190: 6cba 9cbd 99aa a03d eef8 81bd 37ac 9fbd
000001a0: 87ce 38be 783b 3dbe 0930 e0bc 3760 32be
000001b0: 9be5 9ebc fddb 99be 6bec e43e a3e2 acbd
000001c0: 09f7 83bc 59e4 3dbe c5fd 9bbe ee8c 69bd
000001d0: e9e1 5ebd 5366 a6be 6f1d 22bd 221d 42bc
000001e0: 228e 26bf 4b8f 6dbe 9e1a c03d 7d7c c8be
000001f0: 38e9 c4be 3d44 893b 4169 2e3d be8b 733e

decoder.bias_ih_l0 f4 [128]
0.0714493 -0.22099435 -0.00257167 -0.01941144 0.16394055 0.22791478 0.057948947 -0.0844742
-0.08073848 -0.15060787 -0.04794801 -0.15667787 -0.1348993 0.08141658 -0.066523984 0.04053609
-0.023917036 -0.018171431 0.26789337 -0.09479462 -0.09490053 0.18633562 -0.2094322 0.069719374
-0.20283036 0.3224638 -0.13441306 0.22999318 -0.0036690678 -0.15673551 -0.04257841 -0.11849058
0.06867697 1.0621305 -0.09967883 0.06451761 0.16200285 -0.18043068 -0.08811899 -0.18620929
-0.21499997 -0.2670464 -0.27896345 -0.22840151 -0.033392634 -0.3029509 0.16484982 -0.061669096
-0.19646308 -0.26084456 -0.02986673 0.019293664 -0.06860462 -0.10950112 -0.036897052 -0.28596446
-0.17547172 -0.51883024 -0.0032466187 -0.46365088 -0.09416289 -0.21556686 0.118297525 0.0904991
0.2306101 -0.04682485 -0.0018803689 -0.11071634 -0.258611 0.08371694 0.01137548 0.05911706
-0.18278503 -0.04069677 -0.041839957 -0.095888495 -0.052230366 -0.059430245 -0.04474268 -0.08864652
0.17404158 0.018394982 -0.28010148 -0.15497269 0.16011035 -0.2848623 0.084539846 -0.012211997
-0.03569522 0.17307784 -0.0679333 -0.05570392 -0.31670266 0.062186573 0.10956499 -0.072980516
0.09154496 0.3068105 -0.19550134 0.012456353 -0.092242 -0.05336386 0.04657184 0.023659803
-0.01881754 -0.10702699 -0.15866837 -0.13974164 0.058656704 -0.086935736 -0.030270277 -0.08696568
0.13555643 -0.105198294 -0.069866054 -0.07134794 -0.16122352 0.17401719 0.09369485 -0.16965677
-0.0069813756 0.124220654 -0.043881275 0.29862043 0.23212253 -0.21324456 0.2271211 0.028478103
00000000: 0354 923d 584c 62be 7789 28bb bd04 9fbc
00000010: 08e0 273e 7e62 693e e05b 6d3d cf00 adbd
00000020: 375a a5bd f338 1abe 2265 44bd 2a70 20be
00000030: 0b23 0abe bcbd a63d ba3d 88bd 2c09 263d
00000040: a9ed c3bc 41dc 94bc 5229 893e af23 c2bd
00000050: 365b c2bd c4ce 3e3e 6575 56be 08c9 8e3d
00000060: c3b2 4fbe fa19 a53e 94a3 09be 5583 6b3e
00000070: be74 70bb 467f 20be b366 2ebd 30ab f2bd
00000080: 83a6 8c3d e4f3 873f 6a24 ccbd cf21 843d
00000090: 13e4 253e d2c2 38be bb77 b4bd a6ad 3ebe
000000a0: f428 5cbe 4eba 88be 4cd4 8ebe 16e2 69be
000000b0: b7c6 08bd 611c 9bbe 64ce 283e bc98 7cbd
000000c0: 9e2d 49be 6b8d 85be 13ab f4bc bf0d 9e3c
000000d0: 9480 8cbd 2042 e0bd 5d21 17bd ef69 92be
000000e0: dcae 33be 0fd2 04bf 39c5 54bb a663 edbe
000000f0: 79d8 c0bd 8fbd 5cbe f945 f23d 9857 b93d
00000100: 0e25 6c3e 6acb 3fbd b676 f6ba 40bf e2bd
00000110: a968 84be c973 ab3d 3960 3a3c bb24 723d
00000120: 002c 3bbe a8b1 26bd 6060 2bbd 3061 c4bd
00000130: 82ef 55bd 216d 73bd 1a44 37bd 4f8c b5bd
00000140: f537 323e 13b1 963c 7669 8fbe 29b1 1ebe
00000150: f8f3 233e 79d9 91be 3a23 ad3d d414 48bc
00000160: 2735 12bd 513b 313e 9d20 8bbd cb29 64bd
00000170: da26 a2be 59b7 7e3d 9c63 e03d cf76 95bd
00000180: ed7b bb3d 4416 9d3e 8131 48be bb15 4c3c
00000190: 60e9 bcbd 1094 5abd 1dc2 3e3d 34d2 c13c
000001a0: 3e27 9abc f730 dbbd f679 22be 6f18 0fbe
000001b0: 0342 703d 5d0b b2bd 5ff9 f7bc 101b b2bd
000001c0: 4ecf 0a3e 3472 d7bd ef15 8fbd de1e 92bd
000001d0: c717 25be 9031 323e 16e3 bf3d 81ba 2dbe
000001e0: 06c4 e4bb 6667 fe3d dabc 33bd c7e4 983e
000001f0: 87b1 6d3e c85c 5abe 6f92 683e e94a e93c

decoder.bias_hh_l0 f4 [128]
-0.013436842 -0.13642582 0.065953866 -0.108284995 -0.10744711 0.10369754 0.17696026 -0.021003425
-0.10292411 -0.2079896 -0.23064387 -0.03728734 -0.09693845 -0.1952103 0.20769808 0.018031752
0.0465247 -0.24840282 0.28270453 0.14059243 0.18491079 -0.06373602 -0.24955478 -0.061566863
-0.13428986 0.12093683 0.021922365 0.19637848 0.09263567 -0.020610213 0.08537895 0.19989161
-0.100329995 1.0824726 0.07417664 -0.1375588 0.11769977 0.13538128 0.07218243 -0.33703855
-0.09728405 -0.24779363 -0.155697 -0.066174984 0.010310244 -0.18189201 -0.059821606 -0.18737885
-0.07936583 -0.18719317 -0.1946183 -0.1559763 -0.043135982 -0.18374293 -0.168066 -0.122242115
-0.18221216 -0.2603105 -0.002475108 -0.47448158 -0.40945616 0.018780354 -0.16041014 0.07318526
0.14886704 -0.01735092 0.06921298 -0.20452559 -0.11764664 0.24835075 -0.24152595 0.07023285
-0.10774311 0.031006483 0.1312804 -0.032285426 -0.032713953 0.04852329 0.1786026 0.20643368
0.23451556 -0.06407919 -0.11982317 -0.18557179 -0.018602693 -0.18496627 -0.032253373 -0.022274017
0.18597025 -0.023354132 -0.009515803 0.24979116 -0.23655736 -0.08371975 0.17447318 -0.12195341
-0.10021785 0.49935257 -0.19115579 0.14053315 0.023767253 0.23517619 0.20283094 0.17577894
-0.005858278 0.030677702 -0.25436774 0.06959005 -0.13314201 -0.16529381 0.17262883 0.113676086
-0.07147145 0.05700964 0.21079046 0.1983341 -0.16101849 0.17989032 -0.016027702 -0.26609242
0.00810845 -0.016770573 -0.2644077 0.15329616 0.23226368 0.0038892939 0.28489256 0.16745749
00000000: 3326 5cbc 36b3 0bbe d212 873d 86c4 ddbd
00000010: 3b0d dcbd 605f d43d 1235 353e 600f acbc
00000020: e0c9 d2bd 3afb 54be e82d 6cbe 9cba 18bd
00000030: ab87 c6bd 35e5 47be ceae 543e 53b7 933c
00000040: af90 3e3d 4f5d 7ebe a6be 903e 76f7 0f3e
00000050: 4159 3d3e 0888 82bd 4a8b 7fbe 892d 7cbd
00000060: 4883 09be bbad f73d 8896 b33c 7117 493e
00000070: c5b7 bd3d c0d6 a8bc 29db ae3d 63b0 4c3e
00000080: d079 cdbd 768e 8a3f ece9 973d 37dc 0cbe
00000090: 940c f13d 64a1 0a3e 62d4 933d 5190 acbe
000000a0: dc3c c7bd 9dbd 7dbe 096f 1fbe c086 87bd
000000b0: 4cec 283c e641 3abe 8007 75bd 3ee0 3fbe
000000c0: 8d8a a2bd 91af 3fbe 054a 47be 40b8 1fbe
000000d0: 5baf 30bd 1b27 3cbe 7e19 2cbe 135a fabd
000000e0: d395 3abe 6b47 85be 6c35 22bb 40ef f2be
000000f0: 3da4 d1be 42d9 993c 8e42 24be 27e2 953d
00000100: 9a70 183e 8423 8ebc 89bf 8d3d 286f 51be
00000110: b9f0 f0bd a94f 7e3e 9452 77be 3ed6 8f3d
00000120: 6ba8 dcbd 4f01 fe3c 5f6e 063e b93d 04bd
00000130: 11ff 05bd 5bc0 463d 9ae3 363e 5a63 533e
00000140: d924 703e f33b 83bd da65 f5bd 8806 3ebe
00000150: ad64 98bc cc67 3dbe 1d1c 04bd 0078 b6bc
00000160: fc6e 3e3e 2a51 bfbc 2ce8 1bbc 41c9 7f3e
00000170: 183c 72be 4375 abbd 19a9 323e b6c2 f9bd
00000180: 043f cdbd 24ab ff3e 58be 43be ece7 0f3e
00000190: 8bb3 c23c 07d2 703e eab2 4f3e 65ff 333e
000001a0: ccf6 bfbb ce4f fb3c 7d3c 82be 3a85 8e3d
000001b0: 6156 08be c842 29be 9dc5 303e 02cf e83d
000001c0: a05f 92bd f182 693d 74d9 573e 1818 4b3e
000001d0: 08e2 24be 2b35 383e 874c 83bc 443d 88be
000001e0: 4ed9 043c 7162 89bc 7260 87be abf9 1c3e
000001f0: 88d6 6d3e 86e3 7e3b 70dd 913e fa79 2b3e

decoder.weight_hr_l0 f4 [1, 32]
0.20169161 0.5998063 -0.013463225 -0.16041607 -0.11639256 0.19766305 -0.112769164 0.18993038
-0.0810633 -0.09421248 -0.020067355 -0.107456736 -0.068896584 -0.09476284 0.17080364 0.02683279
0.15312992 0.037128832 -0.24223584 -0.15481319 0.1269729 -0.13041171 0.049828626 0.07403567
0.14924519 0.27914897 -0.015626887 0.32887015 -0.1217449 -0.03618481 0.25446728 -0.22560051
00000000: 3f88 4e3e e88c 193f dc94 5cbc 1c44 24be
00000010: 395f eebd 2f68 4a3e 85f3 e6bd 1c7d 423e
00000020: 8404 a6bd 79f2 c0bd 4b64 a4bc 4712 dcbd
00000030: a719 8dbd 0513 c2bd 26e7 2e3e 70d0 db3c
00000040: 17ce 1c3e 6714 183d ac0c 78be 5987 1ebe
00000050: 2f05 023e a68a 05be 1a19 4c3d 03a0 973d
00000060: bbd3 183e 9dec 8e3e f503 80bc ab61 a83e
00000070: 6455 f9bd 8636 14bd 8949 823e d203 67be
