output/synthetic_data/models/model_hidden32_lr0.005_clip0.5.pth (torch, 39911 bytes, 9 tensors)

encoder.weight_ih_l0 f4 [128, 1]
0	0xbb8a53f5	-0.0042214342
1	0xbd9f38f7	-0.07774537
2	0x3d82e6ee	0.063917026
3	0x3d36db03	0.04464246
4	0x3e1fbf6e	0.15600368
5	0x3bdccfd9	0.0067386446
6	0xbca2a17d	-0.019852394
7	0x3e2096fe	0.15682599
8	0x3dd03915	0.101671375
9	0xbd952253	-0.072819375
10	0x3e74c536	0.23903355
11	0x3dcd45c9	0.10023076
12	0xbe3e2aca	-0.1857101
13	0xbd9623b7	-0.07331031
14	0x3d89f347	0.067358546
15	0x3e8d6016	0.2761237
16	0x3d6b3c94	0.05743082
17	0x3afa1271	0.0019078982
18	0xbdc54bb5	-0.096335806
19	0x3cc1abe3	0.023641532
20	0x3e15a4ce	0.14613649
21	0x3d98d45a	0.07462378
22	0x3e4a3649	0.1974727
23	0xbe8410df	-0.25794122
24	0x3e1ec3a8	0.15504324
25	0x3d68f88d	0.05687766
26	0x3e26b68f	0.16280578
27	0xbe903214	-0.28163207
28	0xbcb6f19c	-0.022332005
29	0x3e02e521	0.12782718
30	0x3e5986a4	0.21242768
31	0x3d3b14e7	0.04567423
32	0xbdb95875	-0.09050075
33	0x3e70fc8a	0.23533836
34	0xbd23bbfa	-0.03997419
35	0xbcc30f04	-0.023810871
36	0xbc684a09	-0.014177808
37	0x3e714b17	0.23563801
38	0xbd8b9c50	-0.068169236
39	0x3e6f50b7	0.23370634
40	0xbdcbc9f0	-0.09950626
41	0x3b0703a4	0.0020601535
42	0x3e814674	0.25249064
43	0xbe1fa89d	-0.15591665
44	0xbd5780b9	-0.052612994
45	0x3da69969	0.081347294
46	0xbd5bd4af	-0.053669628
47	0xbce5a7c5	-0.0280341
48	0xbd9c5572	-0.07633485
49	0xbd382e64	-0.044966117
50	0x3e4ff557	0.20308433
51	0x3e45ac34	0.19303972
52	0x3e280c15	0.16410859
53	0xbd84da5b	-0.064869605
54	0xbd2bd0c8	-0.041947156
55	0xbe99630d	-0.29958382
56	0x3e91450f	0.28373
57	0xbd9269db	-0.071490966
58	0x3b9f3cd2	0.0048595453
59	0xbe9926f3	-0.29912528
60	0x3e5c4cb7	0.2151364
61	0x3d5b7719	0.053580377
62	0xbcae503d	-0.021278495
63	0xbd54aebf	-0.051924463
64	0x3d6a44db	0.057194572
65	0xbe012ffb	-0.1261596
66	0xbe514edd	-0.2044024
67	0x3e4ad12c	0.19806355
68	0x3e83ebd7	0.2576587
69	0xbe83eb2a	-0.25765353
70	0x3e18eda7	0.14934407
71	0x3e5df5ed	0.21675844
72	0xbcf6a456	-0.030107658
73	0xba2d4454	-0.0006609608
74	0x3e134f6a	0.14385763
75	0x3d596639	0.053076003
76	0x3e17f524	0.14839607
77	0xbdebe95b	-0.115191184
78	0xbdf4109b	-0.1191723
79	0x3d9dc92c	0.07704386
80	0x3dc74ce1	0.0973146
81	0x3e69e8fb	0.22842781
82	0xbe30fad3	-0.17283182
83	0xbd6215cf	-0.05519658
84	0xbe446fb0	-0.1918323
85	0xbe1550d9	-0.14581622
86	0xbe14edcb	-0.14543836
87	0x3e05b06f	0.13055585
88	0xbde5bacd	-0.1121727
89	0xbe101818	-0.14071691
90	0x3c974af4	0.018468358
91	0x3e67bc9f	0.22630547
92	0xbde35c46	-0.11101584
93	0xbe4de771	-0.20107819
94	0xbe84775f	-0.25872323
95	0xbe1eeefe	-0.15520856
96	0x3cc76d01	0.02434397
97	0x3d22d3d4	0.039752796
98	0x3dad93cc	0.08475456
99	0xbdcd5dd0	-0.10027659
100	0x3e73e102	0.23816302
101	0x3e408f55	0.18804677
102	0x3d4a8cd7	0.04945072
103	0x3d3b2734	0.045691684
104	0xbe0a2a4d	-0.13492699
105	0xbe439523	-0.1909986
106	0x3e5ffeed	0.2187459
107	0xbe72065f	-0.23635243
108	0xbe00722a	-0.1254355
109	0xbe842e5d	-0.25816622
110	0x3e822ef7	0.25426456
111	0x3d3cdc2d	0.046108413
112	0x3d04a262	0.032381423
113	0xbcbc8398	-0.023011968
114	0x3dec06ea	0.11524756
115	0xbd2463a3	-0.040134083
116	0x3dc0a0de	0.09405683
117	0x3d8f0588	0.06983477
118	0x3e27b5b7	0.16377912
119	0xbe75b072	-0.2399309
120	0x3b5ba8d9	0.003351739
121	0xbe0b94f1	-0.13631035
122	0x3de9f269	0.11423189
123	0xbe59a7b9	-0.21255387
124	0x3da77a80	0.08177662
125	0xbbdcfcb3	-0.0067439913
126	0xbd71a86f	-0.05899852
127	0xbdf07af3	-0.11742201

encoder.weight_hh_l0 f4 [128, 32]
0	0xbd3463fb	-0.04404066
1	0x3bbd0b83	0.0057691946
2	0xbd8af108	-0.06784254
3	0x3e1027a8	0.14077628
4	0x3a3daa12	0.000723512
5	0x3dbcddee	0.09222017
6	0x3dbae5de	0.09125875
7	0xbe1766f5	-0.14785369
8	0x3e2dfc26	0.16990718
9	0xbde9686f	-0.11396872
10	0x3e757a20	0.23972368
11	0xbdba7f45	-0.09106306
12	0x3d8bf1bd	0.06833217
13	0x3a89824d	0.0010491103
14	0xbcfb7e2d	-0.030699814
15	0x3d8eac76	0.06966488
16	0xbe0e73b2	-0.13911322
17	0xbde37442	-0.11106159
18	0x3d2b0873	0.041756105
19	0xbc987814	-0.018611945
20	0xbc876cd8	-0.016531393
21	0x3df9e0be	0.12201069
22	0x3e1b18f0	0.15146232
23	0xbd80e8cf	-0.06294405
24	0x3d235032	0.039871402
25	0x3da23f97	0.07922285
26	0x3df35991	0.11882318
27	0x3e17bc04	0.14817816
28	0xbe28a53c	-0.16469282
29	0xbe21ec83	-0.15812878
30	0x3e14d75f	0.14535283
31	0x3e0bfccf	0.13670658
32	0xbe0c4442	-0.13697913
33	0xbece0fbe	-0.40246385
34	0x3e599609	0.2124864
35	0xbdac273e	-0.08405922
36	0xbe6999b5	-0.22812541
37	0xbda701b0	-0.08154619
38	0xbe321df8	-0.17394245
39	0xbdcf3dfc	-0.101192445
40	0x3c824534	0.01590214
41	0xbd21fe77	-0.039549317
42	0x3d0c78b5	0.034294803
43	0xbcefe8eb	-0.029285869
44	0x3e0b3636	0.13594899
45	0xbd7aa9f0	-0.06119722
46	0x3d0e7735	0.034781653
47	0x3d45fe54	0.04833825
48	0x3e126ed5	0.14300092
49	0xbc3451d1	-0.011005835
50	0x3e21d03f	0.15802096
51	0x3e460832	0.19339064
52	0x3e4026ba	0.18764773
53	0x3d893d44	0.067011386
54	0x3e5d3604	0.21602637
55	0xbe3bc464	-0.18336636
56	0x3dc2af8d	0.0950614
57	0xbd5db4dd	-0.054127563
58	0x3d13534f	0.03596812
59	0xbdbe389b	-0.092881404
60	0x3b571ad7	0.0032822394
61	0xbc97dd10	-0.018538028
62	0x3e5d02dc	0.21583122
63	0x3dd069a8	0.10176402
64	0xbc318677	-0.010835282
65	0xbd9cbf96	-0.076537296
66	0xbe44538f	-0.191725
67	0xbe82a39c	-0.2551545
68	0x3e2fe03a	0.1717538
69	0xbd6f338d	-0.058398772
70	0xbea37b33	-0.3192993
71	0x3d45b1c5	0.048265237
72	0xbe823a22	-0.25434977
73	0xbe4c2a53	-0.1993802
74	0x3c985f66	0.018600177
75	0x3e79127e	0.2432346
76	0xbea88e67	-0.32921144
77	0xbe75cacb	-0.2400314
78	0xbe9a19d6	-0.30097836
79	0xbc0b5646	-0.008504456
80	0xbdfa6e40	-0.1222806
81	0x3e5bfc41	0.21482946
82	0xbe92409c	-0.28564918
83	0x3dc3c4fb	0.095590554
84	0xbdd2ae0e	-0.102871045
85	0xbd52b500	-0.051442146
86	0xbc870d55	-0.01648585
87	0xbe6523b1	-0.22376896
88	0xbe5264bd	-0.20546241
89	0xbdf703a8	-0.12061244
90	0xbdb9be8d	-0.09069548
91	0xbb8bd2ef	-0.0042670886
92	0xbe3bb864	-0.18332058
93	0xbe73b1d6	-0.23798308
94	0xbe335455	-0.17512639
95	0x3e5ee3e3	0.2176662
96	0x3dd634ed	0.104593135
97	0xbc7f4200	-0.0155797005
98	0x3e05fc30	0.13084483
99	0xbdf569db	-0.11983081
100	0x3df160e8	0.117860615
101	0xbb07f4b8	-0.002074523
102	0x3e37879d	0.17922826
103	0x3d46b634	0.048513606
104	0xbd6507f4	-0.055915788
105	0x3c552e0d	0.013011468
106	0x3e3ed7e2	0.1863704
107	0x3e745954	0.23862201
108	0xbc6d3011	-0.014476792
109	0xbeacb28a	-0.33729964
110	0x3e12eb02	0.14347461
111	0x3dae776f	0.08518874
112	0x3cc7841d	0.024354989
113	0xbdd1c1fd	-0.102420785
114	0x3da2496d	0.07924161
115	0xba068690	-0.0005131746
116	0x3df9dad0	0.12199938
117	0xbdcf9ed8	-0.10137719
118	0xbd02e0da	-0.031952716
119	0xbcba5a9e	-0.022748288
120	0x3c65cd3e	0.014025984
121	0x3e85cadf	0.2613134
122	0x3d5cd229	0.05391136
123	0x3d2c1b9e	0.042018525
124	0xbd818098	-0.063233554
125	0x3d46b4b2	0.04851217
126	0x3cfd96f9	0.030955778
127	0x3ca219c3	0.019787675
128	0x3d2c9976	0.04213854
129	0x3dd92752	0.10603203
130	0x3d48a8c8	0.048989087
131	0x3df236f9	0.118268915
132	0xbdc7d2ae	-0.09756981
133	0xbe5b822d	-0.21436377
134	0x3e0a86e6	0.13528022
135	0xbc6ed03f	-0.014576017
136	0xbe02d85e	-0.1277785
137	0xbe152c3a	-0.14567652
138	0x3e445328	0.19172347
139	0x3d804460	0.062630415
140	0xbdb14585	-0.08655838
141	0x3e0b8061	0.13623191
142	0x3de429aa	0.11140759
143	0x3e1e3f7a	0.15453902
144	0x3dd970bd	0.10617206
145	0x3d540676	0.051763974
146	0xbdcd9f18	-0.1004011
147	0x3ce6d7f3	0.028179144
148	0xbe7da240	-0.24768925
149	0xbe1e05aa	-0.15431848
150	0xbe1a2cad	-0.15056105
151	0x3c53652c	0.012902539
152	0x3e20c0c3	0.15698533
153	0xbe6141db	-0.21997778
154	0x3c4ae75c	0.012384262
155	0xbda124e3	-0.07868364
156	0x3daf3bb8	0.08556312
157	0xbd4ba772	-0.049720235
158	0xbd12e1d9	-0.035859916
159	0x3e64925d	0.22321458
160	0x3d3d1f4a	0.046172418
161	0x3d3a0d98	0.04542312
162	0xbe49f53b	-0.19722454
163	0x3c3d3388	0.011547931
164	0x3e34e9cc	0.17667311
165	0xbcb8f5c1	-0.022578122
166	0x3d97ac4f	0.07405912
167	0x3e055fe8	0.13024867
168	0x3c978680	0.018496752
169	0x3da1ea99	0.07906074
170	0x3e6f67cd	0.2337944
171	0xbc54fc2d	-0.0129995765
172	0xbd56db8e	-0.052455477
173	0xbcf245bf	-0.029574273
174	0xbdfb1e00	-0.122615814
175	0x3e28a678	0.16469753
176	0xbc3ddc9d	-0.011588243
177	0xbd925d89	-0.07146747
178	0xbd59dc43	-0.053188574
179	0xbdcbbe84	-0.09948447
180	0xbde28781	-0.110610016
181	0xbd89eb5c	-0.06734344
182	0xbdf32fbb	-0.11874338
183	0xbdf427ef	-0.11921679
184	0xbe05dc6c	-0.13072366
185	0xbe2c569d	-0.16829915
186	0x3e18dd0c	0.14928073
187	0x3da66b9d	0.08125994
188	0xbb8fd148	-0.004388962
189	0xbe55ba43	-0.20871834
190	0xbd50422c	-0.050844356
191	0xbdf748c8	-0.12074429
192	0xbdbcf667	-0.09226685
193	0xbe9c52c2	-0.3053189
194	0x3e4d68c1	0.20059492
195	0xbca04b48	-0.019567147
196	0xbcaf2599	-0.021380233
197	0xbe14ac17	-0.14518772
198	0xbe7ee400	-0.24891663
199	0xbe3f18cd	-0.18661804
200	0x3b1388c3	0.0022511936
201	0x3d4a9804	0.04946138
202	0x3e990759	0.29888418
203	0x3c73a03a	0.014869744
204	0xbdc20f35	-0.09475557
205	0x3b9e9b4e	0.004840291
206	0x3db78d4a	0.089624956
207	0x3e7a3744	0.24435145
208	0xbe07c438	-0.13258445
209	0xbdada981	-0.08479596
210	0xbd92e7e6	-0.07173137
211	0xbc8c4c65	-0.017126272
212	0x3c236dcc	0.009974908
213	0x3e46886e	0.19387981
214	0x3e27d6c4	0.1639052
215	0xbe4bed14	-0.19914657
216	0xbca0fe7b	-0.019652596
217	0xbdbe567d	-0.0929384
218	0x3d55a801	0.052162174
219	0x3debae9a	0.11507912
220	0x3ca8cfe0	0.020606935
221	0x3e39e492	0.18153599
222	0x3e679369	0.22614826
223	0x3e1bbab8	0.15207946
224	0xbe19bd80	-0.15013695
225	0x3c3b6dbc	0.011439737
226	0x3dbb5007	0.091461234
227	0x3d2db8a9	0.042412434
228	0x3c6f6559	0.0146115655
229	0x3dc79c0c	0.097465605
230	0x3e14af02	0.14519885
231	0x3d3f5af3	0.046717595
232	0xbe1d4100	-0.15356827
233	0xbd971086	-0.073761985
234	0x3de8a594	0.113597065
235	0x3dd68107	0.10473829
236	0xbda72309	-0.08160979
237	0xbd998955	-0.07496897
238	0x3d1ab202	0.037767418
239	0xbba83068	-0.0051327236
240	0xba81baf1	-0.0009897632
241	0x3d516dd9	0.05113015
242	0xbe3f7f07	-0.18700801
243	0xbe2621fb	-0.162239
244	0x3daa9cc1	0.0833068
245	0xbdbf362a	-0.09336503
246	0x3e1557f2	0.1458433
247	0x3e727a48	0.23679459
248	0xbe34d638	-0.17659843
249	0xbd8a0ce2	-0.067407385
250	0xbe2d6493	-0.16932897
251	0x3cb13376	0.021630984
252	0x3d27a73d	0.040930975
253	0x3c8379d4	0.016049303
254	0xbe43ef72	-0.1913431
255	0x3e43a177	0.19104563

encoder.bias_ih_l0 f4 [128]
0	0xbcfd0fe2	-0.030891363
1	0xbdc6c62e	-0.097057685
2	0x3e9a835e	0.3017835
3	0x3e25c74f	0.16189311
4	0x3e086384	0.13319212
5	0xbcc0edfa	-0.023550976
6	0x3df595a6	0.11991434
7	0x3c8e1b3f	0.017346976
8	0xbb2a0dfc	-0.0025948277
9	0xbcfb36b0	-0.030665725
10	0x3d93b185	0.072115935
11	0xbdd5b7a6	-0.10435419
12	0xbe400aaf	-0.18754075
13	0xbc305f4e	-0.01076491
14	0xb9b89bda	-0.00035211333
15	0x3e40105a	0.18756238
16	0x3c821ef2	0.015883896
17	0x3e3414d8	0.17586076
18	0x3e1fa861	0.15591575
19	0x3bec8486	0.0072179465
20	0xbddd9fa1	-0.108214624
21	0x3c91d08a	0.017799634
22	0xbd546d80	-0.05186224
23	0xbc805c9f	-0.015669165
24	0xbdf6e7ae	-0.12055908
25	0x3da54edb	0.08071681
26	0x3e03367b	0.12813751
27	0xbd695a60	-0.056970954
28	0xbd53c0d9	-0.051697586
29	0x3da2e25a	0.079533294
30	0x3e14175f	0.1446204
31	0x3d65ec8d	0.056133796
32	0x3d120ef1	0.03565878
33	0x3d8ffa52	0.07030167
34	0x3e1c1ba8	0.15244925
35	0x3dbf983b	0.093552075
36	0x3dc0bccc	0.0941101
37	0xbdbe6105	-0.09295849
38	0x3d9bf39b	0.076148234
39	0xbd8ae4ea	-0.06781943
40	0x3d6a72ab	0.057238262
41	0x3b6941e7	0.003559226
42	0xbd3df1f7	-0.046373334
43	0x3dd99c59	0.10625524
44	0x3d30ebdc	0.043193683
45	0x3df670b1	0.12033213
46	0x3e14e4c0	0.14540386
47	0xbcb4fa6e	-0.02209207
48	0xbd134893	-0.035957884
49	0xbd00ea0d	-0.03147321
50	0x3dbc4cda	0.09194346
51	0x3e48699a	0.19571534
52	0x3e18106a	0.14850011
53	0xbdc727b6	-0.09724371
54	0x3b87c342	0.0041431496
55	0xbe0a629d	-0.1351418
56	0x3d9734f0	0.07383144
57	0x3da1f8a7	0.07908755
58	0xbe090020	-0.13378954
59	0x3a0547d4	0.00050842506
60	0xbde3fc87	-0.1113215
61	0x3e015ad8	0.1263231
62	0x3c2fd10e	0.010730995
63	0x3cde89b6	0.027165275
64	0x3e0a2811	0.13491847
65	0x3db47c82	0.088128105
66	0xbe533fee	-0.20629856
67	0xbe10fb5e	-0.14158389
68	0xbbb59a05	-0.005542042
69	0xbdb7c82f	-0.08973729
70	0xbe01586d	-0.12631388
71	0xbd0df4c7	-0.034657266
72	0xbe3098ba	-0.1724576
73	0xbd001141	-0.031266455
74	0xbd9f899a	-0.07789917
75	0x3d28b47f	0.04118776
76	0xbd97660a	-0.07392509
77	0x3d70c872	0.05878491
78	0x3c615ced	0.013755065
79	0x3c2db9d5	0.010603388
80	0xbdf8a7c7	-0.12141376
81	0x3e54939c	0.20759434
82	0xbe56a3ba	-0.20960894
83	0x3da3be1e	0.07995246
84	0xbdad71fb	-0.08469006
85	0xbe3a1616	-0.18172488
86	0xbe09332f	-0.13398431
87	0x3d95f985	0.07322983
88	0xbe069b10	-0.13145089
89	0xbd1aab5c	-0.037761077
90	0xbdcf0ece	-0.10110246
91	0xbe236d1e	-0.15959594
92	0xbe37fd83	-0.17967801
93	0xbde66572	-0.11249818
94	0xbe11d4f5	-0.14241393
95	0xbdc73ddb	-0.09728595
96	0xbd87da81	-0.06633473
97	0x3d11fbb7	0.035640445
98	0x3e3aab2f	0.18229364
99	0x3d0c82bd	0.03430437
100	0x3d977b69	0.073965855
101	0xbc8e63f0	-0.017381638
102	0x3d32ef82	0.043685444
103	0x3d35f054	0.044418648
104	0x3db61900	0.08891487
105	0x3dd223f1	0.102607615
106	0x3e6d0f7d	0.2315044
107	0x3e071525	0.1319166
108	0xbdb8e2b0	-0.09027612
109	0xbc5ca58a	-0.013467202
110	0x3e4cfba0	0.20017862
111	0xbcead39a	-0.028665353
112	0xbd4ed9c7	-0.050500657
113	0x3e049c01	0.12950136
114	0x3d53ec2c	0.051738903
115	0x3d8839da	0.06651659
116	0xbc9ec73d	-0.019382114
117	0xbdb1046a	-0.0864342
118	0xbdb85963	-0.09001424
119	0xbe4826f4	-0.1954611
120	0xbe098072	-0.13427904
121	0x3d9616ed	0.073285915
122	0x3da4d85d	0.080490805
123	0xbda1222a	-0.078678444
124	0xbda77f62	-0.08178593
125	0xbcbfbaef	-0.023404567
126	0x3ddbb8e1	0.10728622
127	0x3e08874e	0.13332865

encoder.bias_hh_l0 f4 [128]
0	0x3e459f3b	0.19299023
1	0x3d2950e9	0.041336928
2	0x3e4b178f	0.19833206
3	0xbdc4912a	-0.09598
4	0x3e2bdfd2	0.167846
5	0xbb587516	-0.0033028773
6	0x3daab0f6	0.08334534
7	0xbe20c980	-0.15701866
8	0x3d163fcb	0.03668193
9	0xbe2d500c	-0.16925067
10	0xbe112edd	-0.14178033
11	0xbd1f32c9	-0.038866792
12	0x3d82a0b0	0.06378305
13	0xbe38eab6	-0.18058285
14	0x3dc332a5	0.09531144
15	0xbd561fad	-0.052276302
16	0x3e40e69d	0.18837972
17	0x3e19b672	0.15011004
18	0xbcf706f2	-0.030154679
19	0x3e2d014c	0.16895026
20	0x3db28750	0.08717215
21	0x3d7baa87	0.061441924
22	0x3e357477	0.17720209
23	0x3d27e989	0.0409942
24	0x3b18f7b8	0.0023341011
25	0x3d4c7432	0.0499155
26	0x3c081a9a	0.008307124
27	0xbde1903b	-0.11013838
28	0xbd108b7c	-0.035289273
29	0xbce8b3c9	-0.02840604
30	0x3e184511	0.14870097
31	0xbe0b3b98	-0.13596952
32	0xbd1ca9d1	-0.038247887
33	0x3e06791f	0.13132142
34	0x3e829087	0.2550089
35	0x3e3129a0	0.17301035
36	0xbd920432	-0.071297064
37	0xbdcb5caa	-0.09929784
38	0x3d9b1c4b	0.07573756
39	0xbe0cdcf6	-0.13756165
40	0x3da6b664	0.08140257
41	0x3c61d670	0.013784036
42	0x3e2a9f33	0.16662292
43	0xbe48cce8	-0.19609416
44	0xbe076154	-0.13220721
45	0x3d5c7438	0.053821772
46	0x3e3ca365	0.18421705
47	0xbe1a1fce	-0.15051195
48	0x3e447928	0.19186842
49	0x3cff78c7	0.03118552
50	0x3e652a26	0.2237936
51	0x3e8eb414	0.27871764
52	0x3d0bfa1f	0.03417408
53	0xbd9c63d4	-0.07636228
54	0x3e55bc0a	0.20872512
55	0xbcabfbca	-0.020994086
56	0xbc04e9f2	-0.0081124175
57	0xbcd378d2	-0.025814448
58	0xbdff64c7	-0.12470394
59	0x3e0a7518	0.1352123
60	0xbda3aa06	-0.07991414
61	0x3d944847	0.07240348
62	0x3d93ef17	0.07223337
63	0x3ddb1bfe	0.106986985
64	0xbd137904	-0.03600408
65	0x3e23fcad	0.16014357
66	0xbe2c016f	-0.16797422
67	0xbdf85051	-0.12124694
68	0x3e0b4fca	0.13604656
69	0xbe1eb401	-0.15498354
70	0x3db2cc71	0.087304
71	0x3e025708	0.12728512
72	0xbc8c202c	-0.017105184
73	0xbd26d8ce	-0.040734105
74	0xbd182d19	-0.037152383
75	0x3cd0d923	0.025494164
76	0xbe1fc746	-0.1560336
77	0x3d9ea1e1	0.0774572
78	0xbe19afc5	-0.15008457
79	0xbceea4e0	-0.029131353
80	0xbe540270	-0.20704055
81	0x39e1caa2	0.00043066317
82	0xbe1394f3	-0.14412288
83	0xbd93b137	-0.072115354
84	0xbe0a23c6	-0.13490209
85	0x3d39b6e5	0.045340437
86	0xbe04871f	-0.1294217
87	0xbd98c9c9	-0.074603625
88	0x3da75b6f	0.081717364
89	0xbdb723ad	-0.089423515
90	0x3df9c454	0.1219565
91	0x3d0a3be4	0.033748522
92	0xbe00471a	-0.12527123
93	0xbda2648b	-0.07929333
94	0xbdababbf	-0.08382367
95	0x3d868dd1	0.06570018
96	0x3e03a5e7	0.12856255
97	0x3c96e402	0.01841927
98	0x3e8740bf	0.26416585
99	0x3e4831c2	0.19550231
100	0xbdc49f65	-0.096007146
101	0xbc9a7879	-0.018856274
102	0x3dc704c9	0.097177096
103	0x3de93f03	0.11388972
104	0xbdf6ea81	-0.12056447
105	0xbdec3b14	-0.11534706
106	0x3d6d22ea	0.057894625
107	0xbd93a2e4	-0.07208803
108	0xbd15555a	-0.03645835
109	0xbce2c79f	-0.027683077
110	0x3e51dccf	0.20494388
111	0x3dc277e6	0.09495525
112	0xbd5f13d5	-0.054462273
113	0x3df49714	0.11942878
114	0x3e676bf3	0.22599773
115	0x3e62b52c	0.22139424
116	0x3df70561	0.12061573
117	0x3e04e5a6	0.12978229
118	0x3e43737a	0.1908702
119	0x3d5288af	0.051399883
120	0x3ddd7d02	0.10814859
121	0x3b9fa71f	0.0048722173
122	0xbc430f07	-0.011905438
123	0x3e0532cc	0.13007659
124	0xbdd95df6	-0.10613625
125	0xbcbf500a	-0.023353595
126	0x3e3d4c0c	0.18486041
127	0xbc4b534a	-0.012409994

decoder.weight_ih_l0 f4 [128, 32]
0	0xbd74e25b	-0.059786182
1	0xbd8b3d43	-0.06798794
2	0x3e488d69	0.19585194
3	0x3e18088d	0.14847012
4	0xbbba1b77	-0.0056795436
5	0x3d084f82	0.03327895
6	0xbded0616	-0.115734264
7	0xbd44c54f	-0.04803973
8	0x3da9a9e0	0.08284354
9	0xbcb69867	-0.022289468
10	0xbd24fb9d	-0.04027902
11	0xbde2701c	-0.110565394
12	0x3d87e40c	0.06635293
13	0x3e2b6f73	0.16741733
14	0x3e2cf85a	0.16891614
15	0x3e443ece	0.19164583
16	0xbd437df9	-0.04772756
17	0xbe58684b	-0.21133535
18	0x3e0dcfb1	0.13848759
19	0xbd8eb677	-0.06968396
20	0xbda53c71	-0.08068169
21	0x3da643f8	0.08118433
22	0x3dc752f9	0.09732623
23	0xbe0a1c88	-0.13487446
24	0x3e1ba364	0.15199047
25	0xbe2c9509	-0.16853727
26	0x3da9cb80	0.08290768
27	0x3e742e83	0.23845868
28	0xbc1d3a4d	-0.0095964195
29	0x3e1c986e	0.15292522
30	0xbc58d1a0	-0.013233572
31	0x3dcf8042	0.10131885
32	0x3d5cdd12	0.053921767
33	0xbd4a378f	-0.04936939
34	0xbda36f06	-0.079801604
35	0xbe00b52c	-0.12569112
36	0xbe2de45d	-0.16981645
37	0xbc84b190	-0.01619795
38	0xbda4ca6e	-0.08046423
39	0xbc400590	-0.011720076
40	0xbd9f48f8	-0.077775896
41	0xbcfa0823	-0.030521458
42	0x3de68732	0.11256255
43	0xbe1b477b	-0.15163986
44	0x3cd307f7	0.025760634
45	0xbbba53a7	-0.0056862417
46	0xbe0a81d3	-0.13526087
47	0x3de9cd9d	0.11416171
48	0x3d862ca2	0.06551482
49	0xbdce4df5	-0.10073463
50	0x3e274dae	0.16338226
51	0x3d1bb163	0.038010966
52	0xbcb75e13	-0.022383725
53	0x3e2809d6	0.16410002
54	0x3d8f00a5	0.06982545
55	0xbdda521b	-0.106601916
56	0xbd3c253f	-0.04593396
57	0x3ca56119	0.020187901
58	0x3e0c16c5	0.13680561
59	0x3e21bde2	0.15795091
60	0xbd4e32d0	-0.050341427
61	0x3de833c4	0.113379985
62	0x3df6ec83	0.1205683
63	0x3e204c43	0.15654092
64	0x3d8b985d	0.0681617
65	0x3e192e3c	0.14959043
66	0xbd10812c	-0.035279438
67	0xbe04200a	-0.12902847
68	0x3e6e7477	0.23286615
69	0xbe46cdce	-0.19414446
70	0x3d4f26dd	0.050574172
71	0x3e555b2f	0.20835565
72	0x3d98b620	0.074566126
73	0xbe0e56ef	-0.1390035
74	0x3ca8679b	0.020557215
75	0x3e843427	0.2582104
76	0xbe5396a8	-0.2066294
77	0xbdfb777c	-0.12278649
78	0xbe05edc1	-0.13078977
79	0xbd8a7978	-0.067614496
80	0xbddf610e	-0.109071836
81	0x3d98e976	0.07466404
82	0xbd25ca6c	-0.040476248
83	0x3b1f2259	0.0024281947
84	0xbbef1c65	-0.007297086
85	0xbc647a94	-0.0139452405
86	0x3cc484bd	0.023989076
87	0xbdb26421	-0.08710504
88	0xbe186725	-0.14883097
89	0xbd49353b	-0.04912303
90	0x3d09060e	0.03345304
91	0xbe374ba7	-0.17899953
92	0xbe15b5ce	-0.14620134
93	0xbe62b910	-0.22140908
94	0x3dbb7671	0.0915345
95	0x3e725361	0.23664619
96	0x3e11ccf7	0.14238344
97	0x3e3625a3	0.17787795
98	0x3e12d513	0.14339094
99	0xbcff9215	-0.031197587
100	0xbd0f331e	-0.03496086
101	0xbd770b55	-0.06031354
102	0x3d0ee9dd	0.034891
103	0xbd1876b3	-0.037222575
104	0x3cdfef65	0.027335832
105	0xbd8fc6c5	-0.07020334
106	0x3eb8c1d8	0.3608539
107	0xbdac4dfd	-0.084133126
108	0xbd1eeedd	-0.038802017
109	0x3e1b68d3	0.15176706
110	0x3e1c2055	0.15246709
111	0x3dade8fe	0.08491705
112	0xbd995e37	-0.07488673
113	0xbd8321b3	-0.06402912
114	0xbc606c0b	-0.013697634
115	0xbdb859f0	-0.09001529
116	0xbd2cd602	-0.04219628
117	0xbe3e3800	-0.1857605
118	0xbe4f6d1b	-0.20256464
119	0xbe3c1aa9	-0.18369545
120	0xbda613d0	-0.08109248
121	0xbe114b2a	-0.14188829
122	0x3d9dc872	0.077042475
123	0x3dbb9db5	0.091609396
124	0x3e4d6458	0.2005781
125	0xbe267483	-0.16255383
126	0x3be58769	0.0070046675
127	0x3e80d113	0.2515951
128	0x3c88e975	0.016712883
129	0x3e24d1e9	0.160957
130	0x3e461ecc	0.19347686
131	0xbe5a4716	-0.2131618
132	0x3e42a2cd	0.19007416
133	0x3d11cebc	0.035597548
134	0xbca2615b	-0.019821813
135	0xbbefdc9d	-0.0073200003
136	0xbe7d998a	-0.24765602
137	0x3db4bd09	0.08825118
138	0x3d5753c9	0.052570138
139	0x3e0ddfe7	0.13854943
140	0xbdc8486b	-0.09779438
141	0xbdf317ce	-0.11869775
142	0xbd226778	-0.039649457
143	0x3e0780c9	0.13232721
144	0xbda7e520	-0.08197999
145	0x3db0d45b	0.086342536
146	0xbe2410bf	-0.16022013
147	0xbd600da2	-0.0547005
148	0xbe501ca5	-0.20323427
149	0x3d5e22e6	0.0542325
150	0xbe30f5ef	-0.17281316
151	0x3daf2db5	0.0855364
152	0xbb7d2897	-0.003862893
153	0xbe11fcb5	-0.14256556
154	0x3b81fca0	0.003966883
155	0xbb430daa	-0.0029762783
156	0xbdee01a4	-0.11621407
157	0xbe83346b	-0.2562593
158	0xbe30bc9f	-0.17259453
159	0x3e9818ea	0.29706508
160	0x3de2bc3f	0.11071061
161	0xbddb8555	-0.107187904
162	0x3dd39655	0.10331408
163	0x3d747258	0.05967936
164	0xbd4f6830	-0.05063647
165	0xbe4fb9b3	-0.20285682
166	0xbcae8333	-0.021302795
167	0x3e55ace8	0.2086674
168	0xbe14e82c	-0.14541692
169	0x3d20696d	0.03916304
170	0xbd354e62	-0.044264205
171	0x3d98adf8	0.07455057
172	0xbd134e2a	-0.035963215
173	0x3b060f01	0.002045572
174	0xbe53532b	-0.20637195
175	0x3da50413	0.08057418
176	0xbe23245a	-0.15931836
177	0xbdb439ed	-0.08800111
178	0xbd551097	-0.052017774
179	0xbd161f96	-0.036651216
180	0xbe258682	-0.16164592
181	0x3b4d169e	0.0031293998
182	0xbe24c972	-0.1609247
183	0xbdaed6d8	-0.08537072
184	0xbdc083e4	-0.09400156
185	0x3dbf1579	0.093302675
186	0x3e3d1d03	0.18468098
187	0xbd583290	-0.052782595
188	0x3de0ec09	0.1098252
189	0xbd9b46bc	-0.07581851
190	0x3d86bfba	0.06579538
191	0xbd79c9f7	-0.060983624
192	0x3e1e76ce	0.15475008
193	0xbdd278e1	-0.10276962
194	0x3ccdb249	0.025109427
195	0x3e2a7abb	0.1664838
196	0xbe179e4b	-0.14806478
197	0x3df34354	0.11878076
198	0xbf0c5a94	-0.5482571
199	0xbd93b3cd	-0.07212029
200	0xbdd13b9e	-0.10216449
201	0xbecab3ce	-0.39590305
202	0x3e33af83	0.17547421
203	0x3e3f2353	0.18665819
204	0x3c931b45	0.017957339
205	0xbd805194	-0.0626556
206	0x3e9b838b	0.30373797
207	0x3e0b1fc5	0.13586338
208	0xba082c5a	-0.0005194597
209	0xbd4db34e	-0.050219826
210	0xbde28d68	-0.11062127
211	0xbd9c9510	-0.07645619
212	0xbdf91986	-0.12163071
213	0xbd6e1310	-0.05812365
214	0xbda3891d	-0.07985137
215	0xbdd9f5a5	-0.10642556
216	0x3e3cfe41	0.18456365
217	0xbeb5bdcd	-0.3549637
218	0xbdf6de76	-0.1205415
219	0x3dca351d	0.09873412
220	0x3d7410f9	0.0595865
221	0x3daee96a	0.08540614
222	0x3d9fbf6a	0.07800181
223	0x3eb1db8e	0.3473782
224	0x3dfa682c	0.122269005
225	0x3e345c27	0.17613278
226	0x3e0dd9ae	0.1385257
227	0xbd091951	-0.03347141
228	0x3e467029	0.19378723
229	0xbe26d7d1	-0.16293265
230	0x3d0dacad	0.034588505
231	0xbc5dfafe	-0.013548611
232	0xbd95f866	-0.07322769
233	0x3df64610	0.12025082
234	0x3d2441db	0.040101867
235	0xbdc7cf4a	-0.09756334
236	0xbe25481a	-0.16140786
237	0xbe6afe68	-0.22948611
238	0x3d2211fc	0.039567932
239	0xbe09c948	-0.13455689
240	0x3d127d63	0.03576411
241	0x3df111f1	0.11771
242	0xbdaafe8d	-0.08349333
243	0xbe3bb83a	-0.18331996
244	0xbe02a804	-0.12759405
245	0xbdf5aaef	-0.119954936
246	0x3db3fbbb	0.08788248
247	0x3c1649ff	0.0091729155
248	0xbd5058bc	-0.050865874
249	0x3e451282	0.19245341
250	0x3dbd5d30	0.0924629
251	0x3dd66208	0.10467917
252	0xbda71b6e	-0.08159529
253	0xbe2438eb	-0.16037337
254	0xbc036dc9	-0.00802178
255	0x3e35af75	0.17742713

decoder.weight_hh_l0 f4 [128, 1]
0	0x3deb9cc6	0.115045115
1	0xbec71dc2	-0.3888989
2	0xbd8845a9	-0.066539116
3	0x3ecc5b4f	0.39913413
4	0x3dc58409	0.09644324
5	0x3d751044	0.059829965
6	0xbf1f548b	-0.6223838
7	0x3dd407a5	0.103530206
8	0x3d9cb95c	0.07652542
9	0x3e62e5b0	0.22157931
10	0x3e663b73	0.22483616
11	0x3e888e80	0.2667122
12	0xbcd9c320	-0.0265823
13	0x3cebf2b6	0.028802257
14	0xbec4ebf0	-0.38461256
15	0x3e24c058	0.16088998
16	0x3e6b8935	0.23001559
17	0x3de7623c	0.112980336
18	0xbd469b38	-0.048487872
19	0x3d321ca4	0.043484345
20	0x3e8393a2	0.25698572
21	0x3e45546d	0.19270487
22	0x3e353762	0.17696908
23	0x3edcd670	0.43132353
24	0x3c332b7d	0.010935661
25	0x3eb37212	0.35047966
26	0x3eb68210	0.35646105
27	0x3e6f2025	0.23352106
28	0x3e032721	0.12807895
29	0x3df97a33	0.12181511
30	0x3e155507	0.14583217
31	0x3f129737	0.57261986
32	0x3db59a9c	0.0886738
33	0xbefad1a7	-0.48988077
34	0x3dd0206e	0.101624355
35	0x3d80b09b	0.06283685
36	0xbe0830f6	-0.13299927
37	0x3ebd4197	0.36964104
38	0x3f807232	1.003485
39	0xbd5d240c	-0.053989455
40	0x3c6793dc	0.0141343735
41	0x3f0a79a0	0.54091835
42	0xbe880597	-0.26566765
43	0x3f8f3e81	1.119095
44	0x3f762770	0.96153927
45	0xbdb4baa9	-0.08824665
46	0xbe06b560	-0.13155127
47	0x3d6da7dd	0.058021415
48	0x3e74d495	0.23909219
49	0xbc3c909a	-0.011509085
50	0x3ebaaf44	0.36461842
51	0x3e7de3bc	0.24793905
52	0x3e43efc9	0.1913444
53	0xbe0b12e2	-0.13581422
54	0x3e2a2225	0.16614588
55	0x3f3b27f8	0.7310786
56	0x3e232d3a	0.15935221
57	0xbda301cc	-0.07959327
58	0xbdea382c	-0.11436495
59	0xbe1c6a79	-0.15274991
60	0x3dd41a80	0.10356617
61	0x3e03accf	0.1285889
62	0xbd9b20cd	-0.07574616
63	0x3f2e54ed	0.68098336
64	0xbe1c970d	-0.15291996
65	0x3d36f1d9	0.044664238
66	0x3e84a044	0.25903523
67	0x3e6d6b2e	0.23185417
68	0xbdfa6aba	-0.12227388
69	0xbe70d4cf	-0.2351868
70	0xbf04d67e	-0.5188979
71	0x3e0f2d30	0.13982081
72	0xbe0b5820	-0.13607836
73	0x3eedd81b	0.46453938
74	0xbe875a11	-0.26435903
75	0x3f188884	0.59583306
76	0xbf0d339e	-0.55156887
77	0x3deb1f0a	0.114805296
78	0xbed21a30	-0.41035604
79	0xbde57aa0	-0.112050295
80	0x3d70bb0a	0.058772124
81	0x3d2e2aec	0.042521402
82	0x3ee97c97	0.45602867
83	0xbde70f3b	-0.11282202
84	0xbd9898a5	-0.0745099
85	0xbe2545f9	-0.16139974
86	0x3d485b63	0.04891528
87	0xbd0097ad	-0.03139465
88	0xbd240fb0	-0.040054023
89	0x3e79f910	0.24411416
90	0xbd191e2d	-0.037382293
91	0x3e87c888	0.2652018
92	0x3b22404f	0.002475757
93	0xbdbac200	-0.09119034
94	0xbd516984	-0.05112602
95	0xbde56d00	-0.11202431
96	0x3e0b41ad	0.13599272
97	0xbf00268a	-0.50058806
98	0x3e9a83c1	0.30178645
99	0x3ea005db	0.31254467
100	0x3c3beef8	0.011470549
101	0x3e897e83	0.26854333
102	0x3d6c80ab	0.057739895
103	0x3daced1f	0.08443665
104	0x3d414882	0.04718829
105	0xbd97a369	-0.07404215
106	0x3e44aaec	0.19205827
107	0x3d94a0ec	0.07257256
108	0x3f7516b4	0.9573777
109	0x3d1ba6e2	0.03800095
110	0xbe85ea9f	-0.26155564
111	0x3d2a69dd	0.041604865
112	0x3eaf56f4	0.34246027
113	0xbe32c546	-0.17458066
114	0xbd9df349	-0.077124186
115	0x3d6d94aa	0.058003105
116	0x3cf59196	0.029976647
117	0x3e5da780	0.21645927
118	0x3e11205b	0.14172499
119	0x3f0d878c	0.55284953
120	0x3e91548e	0.28384823
121	0x3dcc08bd	0.09962604
122	0x3e33192b	0.1749007
123	0x3ec530c7	0.38513777
124	0x3cbad2fa	0.02280568
125	0xbd29b708	-0.041434318
126	0xbd26776c	-0.040641233
127	0x3f2c7306	0.6736301

decoder.bias_ih_l0 f4 [128]
0	0xbdc34031	-0.09533728
1	0x3c2e074f	0.01062186
2	0xbda76ca3	-0.08175018
3	0xbd8878b9	-0.06663651
4	0x3e4bbfa8	0.1989733
5	0xbd41887c	-0.047249302
6	0xbd5d7775	-0.054069
7	0x3b6942b7	0.0035592744
8	0xbd16d0d2	-0.03682024
9	0x3e8ed8ec	0.27899873
10	0x3e007800	0.12545776
11	0x3de74f40	0.112944126
12	0xbd43bde1	-0.047788505
13	0xbe263b7f	-0.16233633
14	0x3d6a1763	0.05715121
15	0x3d0dc117	0.034607973
16	0xbd6cc841	-0.057808165
17	0xbe375135	-0.17902072
18	0x3cb9d5c4	0.02268494
19	0x3e49c60a	0.19704452
20	0xbd848fe4	-0.064727575
21	0x3dbce59e	0.092234835
22	0xbd99244a	-0.07477625
23	0xbe594b93	-0.21220236
24	0x3db3a5ec	0.087718815
25	0xbd7b76f0	-0.061392725
26	0x3d058dd7	0.032605972
27	0x3e6fe14b	0.23425786
28	0xbcbdb0d4	-0.023155607
29	0xbd232098	-0.039826006
30	0xbdd0b4ff	-0.10190772
31	0xbcaa965f	-0.020823656
32	0xbdf76600	-0.12080002
33	0x3e06451c	0.131123
34	0xbdc47996	-0.09593503
35	0xbee480cb	-0.4462951
36	0xbe618812	-0.22024563
37	0xbe451de8	-0.1924969
38	0x3f0ef290	0.5583887
39	0xbe2b4a80	-0.16727638
40	0xbca329b1	-0.019917341
41	0x3d01eb71	0.031718675
42	0xbda9af34	-0.082853705
43	0x3e09f34a	0.13471714
44	0x3f1c9a70	0.6117315
45	0xbd6020ee	-0.054718904
46	0xbda5b31f	-0.08090805
47	0xbed24a8e	-0.41072506
48	0xbce6d870	-0.028179377
49	0xbc15bce2	-0.009139271
50	0x3d5238e0	0.05132377
51	0xbe8fd1b2	-0.28089672
52	0xbd84d9df	-0.06486868
53	0xbecde45f	-0.40213296
54	0xbe1118c7	-0.14169608
55	0x3ea05a2c	0.31318796
56	0xbd4fe530	-0.05075568
57	0xbe100a04	-0.1406632
58	0xbec7b9d9	-0.39008978
59	0xbedb1319	-0.42788008
60	0xbe7b612c	-0.24548787
61	0x3d00634d	0.0313447
62	0xbe40fc64	-0.1884628
63	0x3e0c6653	0.13710909
64	0x3d358f6a	0.044326223
65	0xbc8649d7	-0.016392631
66	0x3d828c01	0.0637436
67	0xbdace10b	-0.08441361
68	0xbe67e3b9	-0.22645463
69	0x3cc533f4	0.024072625
70	0xbe19077f	-0.14944266
71	0x3d211797	0.039329138
72	0x3d2ca8dc	0.042153224
73	0x3d3e4a56	0.04645761
74	0x3da1909f	0.078889124
75	0x3d9b44f7	0.075815134
76	0xbb2725db	-0.0025504741
77	0xbdc34702	-0.09535028
78	0x3cb86376	0.022508364
79	0x3dfb7ba5	0.12279443
80	0x3e0adf81	0.13561822
81	0x3d833437	0.064064436
82	0x3e02251c	0.12709469
83	0xbe85de5b	-0.26146206
84	0xbe1c2c5c	-0.15251297
85	0x3e2903ef	0.16505407
86	0x3dfc244e	0.12311612
87	0xbe08c473	-0.1335619
88	0xbe0a0781	-0.13479425
89	0xbe4183a8	-0.18897879
90	0x3e77bbe8	0.24192774
91	0x3c796419	0.015221619
92	0x3d6eecd3	0.058331322
93	0x3de246fe	0.11048697
94	0x3e2966b9	0.16543092
95	0xbdfe7d60	-0.12426257
96	0xbe1b3a67	-0.15158997
97	0x3cb905b0	0.02258572
98	0x3e00b7ff	0.12570189
99	0x3d3003d8	0.042972416
100	0x3e7517dc	0.23934883
101	0xbc54e687	-0.012994415
102	0x3da70827	0.08155852
103	0xbd71e150	-0.059052765
104	0x3c938ab2	0.018010471
105	0x3dfe2a99	0.124104686
106	0xbe1100a2	-0.14160398
107	0x3eb7ce06	0.3589937
108	0x3ebf2768	0.37334752
109	0x3e0a12ef	0.13483785
110	0x3d1b42aa	0.037905373
111	0x3e2140d5	0.15747388
112	0x3df83a06	0.12120442
113	0x3db783a6	0.08960657
114	0xbdd67803	-0.10472109
115	0xbdb2c7ef	-0.087295406
116	0x3cf6e5e5	0.03013892
117	0x3d4ea743	0.050452482
118	0x3c0d0cdc	0.008609023
119	0xbded2d33	-0.11580887
120	0x3e363cf5	0.17796691
121	0x3b3614b4	0.0027783336
122	0x3db12f76	0.086516306
123	0xbd6ab5da	-0.057302333
124	0xbddd4cbc	-0.108056515
125	0xbdcc9b61	-0.09990574
126	0x3dc45bc1	0.09587813
127	0x3dae1db8	0.08501762

decoder.bias_hh_l0 f4 [128]
0	0xbcbd5740	-0.023112893
1	0x3dbbd343	0.09171154
2	0x3cd0ae83	0.025473839
3	0x3bf80f7e	0.007570206
4	0x3e3a8377	0.18214212
5	0xbdb7608f	-0.08953964
6	0xbe57258a	-0.21010414
7	0x3caa542e	0.020792093
8	0xbbd0db2a	-0.0063737826
9	0x3e861eea	0.2619546
10	0xbaae8d02	-0.001331717
11	0x3e3a857f	0.18214987
12	0xbd96bd4f	-0.073603265
13	0x3d5d7d83	0.054074775
14	0xbdeb38de	-0.11485456
15	0xbd8ec222	-0.06970622
16	0xbc83ebd6	-0.016103666
17	0xbe176615	-0.14785035
18	0xbd232885	-0.039833564
19	0x3d9044c9	0.0704437
20	0x3e2a7351	0.16645552
21	0x3de492e4	0.1116083
22	0x3c0cda8b	0.008597027
23	0xbde32143	-0.110903285
24	0xbda77ae7	-0.08177739
25	0x3e8722c0	0.263937
26	0x3e5becef	0.21477102
27	0x3e372eff	0.17889021
28	0x3dce2802	0.10066225
29	0xbd2c0e76	-0.04200598
30	0x3c928c2e	0.017889109
31	0xbd842c6e	-0.06453787
32	0xbe0c19e2	-0.13681749
33	0x3db38b85	0.087668456
34	0xbe818b9a	-0.2530182
35	0xbee318c1	-0.44354823
36	0xbe90c220	-0.28273106
37	0xbe849b45	-0.2589971
38	0x3f4ad805	0.7923587
39	0xbe8a8587	-0.27054998
40	0x3e0048a4	0.1252771
41	0xbac76a37	-0.001521415
42	0xbd9aad2c	-0.07552561
43	0xbe36fe38	-0.17870414
44	0x3f5393f9	0.82647663
45	0xbd2230cd	-0.03959732
46	0x3cf5454b	0.029940268
47	0xbec06e7f	-0.37584302
48	0xbe4ac2fc	-0.19800943
49	0xbe4cdc6f	-0.20005964
50	0x3db7034b	0.08936175
51	0xbdef69cc	-0.11690101
52	0xbe85ef4b	-0.2615913
53	0xbea2aef5	-0.31774107
54	0xbce71f0f	-0.028213052
55	0x3d7e12f9	0.062029812
56	0xbe3326f0	-0.17495322
57	0xbe2ca5ab	-0.16860072
58	0xbea2b0a6	-0.31775397
59	0xbeacb584	-0.33732235
60	0xbe58e702	-0.21181872
61	0xbe537e94	-0.20653754
62	0xbe36218f	-0.17786239
63	0x3e8fb8e4	0.28070748
64	0x3dd09d38	0.10186237
65	0x3db837de	0.08995031
66	0x3e32735c	0.17426819
67	0xbdcd8221	-0.10034586
68	0xbe88746d	-0.26651326
69	0xbe7c6c95	-0.24650796
70	0x3de64397	0.112433605
71	0x3e6fe472	0.23426989
72	0x3d32e767	0.043677714
73	0x3c0f9d6f	0.008765562
74	0x3d67a524	0.056553975
75	0xbdbd0ec6	-0.092313334
76	0xbc89563a	-0.016764749
77	0x3cefb693	0.029261863
78	0xbe47e858	-0.19522226
79	0x3e056a6d	0.1302888
80	0xbd973514	-0.07383171
81	0x3d0c8626	0.03430762
82	0x3dce51ee	0.100742206
83	0xbe2d02ca	-0.16895595
84	0xbe4071cc	-0.1879341
85	0x3e1aa4f5	0.15101989
86	0x3c5cd79b	0.013479139
87	0x3cd43afe	0.025907036
88	0xbe2fe352	-0.1717656
89	0xbc3030b8	-0.010753803
90	0x3d8c108a	0.06839092
91	0xbdcad722	-0.099043146
92	0xbe44f320	-0.1923337
93	0xbd9619b5	-0.07329122
94	0xbdb2c8c7	-0.087297015
95	0xbd84c412	-0.0648271
96	0xb8d19b77	-9.994854e-05
97	0xbd93d955	-0.07219187
98	0x3e2f54f7	0.17122255
99	0x3ceaa5dd	0.028643543
100	0x3db74d2a	0.08950265
101	0xbb24cbd0	-0.0025145896
102	0x3e370f7c	0.17877
103	0x3d7fe9c0	0.06247878
104	0xbdd97843	-0.10618641
105	0x3e44face	0.192363
106	0x3d71dffa	0.05905149
107	0x3e912b54	0.2835337
108	0x3f0d9a3e	0.5531348
109	0x3d012325	0.031527657
110	0x3d903e65	0.07043151
111	0x3d4a2e3f	0.04936051
112	0x3d163265	0.036669154
113	0x3d08c5e7	0.03339186
114	0xbdc3e9ca	-0.09566076
115	0xbd8b4443	-0.06800129
116	0x3da0e322	0.07855822
117	0x3e3c190a	0.18368927
118	0xbc3f3042	-0.01166922
119	0xbd6d5990	-0.05794674
120	0x3db141fb	0.08655163
121	0xbd0edfb7	-0.03488132
122	0x3e83ada2	0.2571841
123	0x3db385c1	0.08765746
124	0xbd365b9e	-0.044520967
125	0x3bd98877	0.0066385823
126	0xbd5e6d0d	-0.054303218
127	0x3d87d567	0.066325

decoder.weight_hr_l0 f4 [1, 32]
0	0x3d085f33	0.033293914
1	0x3e1b68a9	0.15176643
2	0x3e29e42d	0.16590948
3	0xbe3c6868	-0.18399203
4	0xbe39d475	-0.18147452
5	0xbe40582e	-0.18783638
6	0xbf30746e	-0.6892766
7	0x3e3e3ef1	0.18578698
8	0x3d827f4a	0.06371935
9	0x3e4f6429	0.20253052
10	0x3d3d3a6f	0.046198305
11	0x3ee2931f	0.4425287
12	0x3f611cb3	0.87934417
13	0xbd48c48c	-0.049015567
14	0xbe3e6fc6	-0.18597326
15	0x3da57747	0.08079391
16	0x3e202236	0.1563805
17	0x3d0e05ae	0.034673385
18	0x3d808713	0.06275763
19	0xbe08d26f	-0.13361524
20	0xbe3eb8f7	-0.18625246
21	0x3dcab21a	0.098972514
22	0xbd635d2a	-0.05550877
23	0x3e51ef85	0.20501526
24	0xbd853edb	-0.06506129
25	0xbe5c09bc	-0.21488088
26	0x3e228646	0.15871534
27	0xbe2435f7	-0.16036211
28	0xbd7395d1	-0.059469048
29	0xba9b851d	-0.0011865232
30	0xbae246f0	-0.0017263573
31	0x3e309381	0.17243768
