output/synthetic_data/models/model_hidden16_lr0.01_clip1.0.pth (torch, 13722 bytes, 9 tensors)

encoder.weight_ih_l0 f4 [64, 1]
0	0xbe82b873	-0.2553135
1	0x3e961843	0.29315385
2	0xbe3fa560	-0.1871543
3	0xbec202bf	-0.3789272
4	0xbe53cb53	-0.20683031
5	0xbe9f4ebe	-0.31114763
6	0xbe6bbbd3	-0.23020868
7	0xbbc953ea	-0.0061440365
8	0x3e203613	0.15645628
9	0xbc9b71cf	-0.018975167
10	0xbd4941cf	-0.049135026
11	0xbdd24820	-0.10267663
12	0xbe2c568b	-0.16829889
13	0x3e94d8c2	0.29071623
14	0xbe4e6706	-0.20156488
15	0x3e9fe1ad	0.31226864
16	0x3e813297	0.2523391
17	0x3e1fcde4	0.15605885
18	0x3eb0f7de	0.34564108
19	0x3dc122ca	0.094304636
20	0x3e08d4c5	0.13362415
21	0xbe5e7eff	-0.21728133
22	0x3d885ec4	0.066587
23	0x3f112fa6	0.5671333
24	0x3e3de485	0.18544205
25	0x3e7185af	0.23586152
26	0x3ec8faad	0.3925375
27	0x3ea756dd	0.3268346
28	0x3d9ddfaa	0.07708676
29	0x3e9fa2c1	0.3117886
30	0xbec1661f	-0.37773225
31	0xbd8f5f77	-0.0700063
32	0xbdbae09b	-0.09124871
33	0xbe9740d9	-0.29541662
34	0xbe7fa0a7	-0.24963628
35	0x3d4a4576	0.04938265
36	0xbeedd862	-0.4645415
37	0x3dc7410c	0.097292036
38	0x3e8848aa	0.26617938
39	0xbecf00ec	-0.4043039
40	0xbd45f86d	-0.04833262
41	0x3c737d4f	0.014861419
42	0xbded342a	-0.11582215
43	0x3d394d07	0.045239475
44	0x3d437968	0.047723204
45	0x3ea6de2f	0.32591388
46	0x3e92392b	0.2855924
47	0x3d1c5af3	0.038172673
48	0x3f1b4f16	0.6066755
49	0x3e395d1a	0.18101922
50	0x3dc84b36	0.0977997
51	0xbd8f6f96	-0.07003705
52	0x3e58d511	0.21175028
53	0xbe59565b	-0.21224348
54	0xbe2e2e35	-0.17009814
55	0x3ead29a0	0.3382082
56	0x3e9b0d64	0.30283654
57	0x3d027b68	0.03185597
58	0xbcc1ac7d	-0.02364182
59	0x3e929679	0.28630427
60	0xba523303	-0.00080184656
61	0x3cbe5350	0.023233086
62	0xbe939ed3	-0.2883211
63	0x3e3a7b63	0.18211131

encoder.weight_hh_l0 f4 [64, 16]
0	0xbdc8505d	-0.09780953
1	0xbe780eb1	-0.24224354
2	0xbe22ab0c	-0.15885562
3	0xbd1ffc31	-0.039058868
4	0xbe1015f5	-0.14070876
5	0xbdbfe88b	-0.09370526
6	0xbeb29ac2	-0.34883696
7	0x3e4aeef6	0.19817719
8	0x3e44d075	0.19220145
9	0xbdae5690	-0.08512604
10	0x3ec0dba4	0.37667572
11	0x3f2c23f7	0.6724238
12	0x3c06495b	0.0081962
13	0xbebbb94b	-0.36664805
14	0xbe906e57	-0.28209183
15	0xbd99b78a	-0.075057104
16	0x3db1d836	0.08683817
17	0x3ebda961	0.37043288
18	0xbcd30762	-0.025760356
19	0x3daa2991	0.083087094
20	0xbd487e27	-0.048948433
21	0xbdaa9aec	-0.0833033
22	0x3e2f2c12	0.17106655
23	0x3d8837ac	0.066512436
24	0x3d87ca53	0.06630387
25	0x3e910c02	0.28329474
26	0xbd92ad7f	-0.07161998
27	0x3e25424d	0.16138573
28	0xbd0e42cf	-0.034731682
29	0xbc096c52	-0.008387642
30	0x3e3839b9	0.1799077
31	0x3e8c698f	0.27424285
32	0x3e9d8f92	0.30773598
33	0x3ee7ca75	0.4527165
34	0x3e85a3cb	0.26101527
35	0x3d54def2	0.05197043
36	0x3e7997bf	0.24374293
37	0x3e96daf8	0.29463935
38	0x3dcb37ea	0.09922774
39	0x3e8bff00	0.27342987
40	0x3daaf58c	0.083476156
41	0xbcafa0bd	-0.02143895
42	0xbe23eda2	-0.16008618
43	0xbe834602	-0.2563935
44	0xbdb21b3a	-0.08696599
45	0xbd7a924b	-0.061174672
46	0xbed14e39	-0.40879992
47	0xbdc0bfdc	-0.09411594
48	0x3e72f2f8	0.23725498
49	0x3c4e8979	0.012606018
50	0xbe50a703	-0.2037621
51	0x3e66ef3c	0.22552198
52	0xbe32a477	-0.17445551
53	0x3d530bd8	0.051524967
54	0x3e0bd046	0.13653669
55	0x3cd72f8b	0.026267787
56	0xbde8e85c	-0.11372444
57	0xbe1f50d9	-0.15558185
58	0xbc87347f	-0.016504524
59	0x3e61c544	0.22047907
60	0x3da9827a	0.082768396
61	0x3e4a1e8d	0.19738217
62	0x3ca0b106	0.019615661
63	0x3dd7ce24	0.10537365
64	0x3db3f994	0.087878376
65	0xbe55add6	-0.20867094
66	0xbd3c13f0	-0.04591745
67	0x3cd65db8	0.026167735
68	0xbe025ad5	-0.12729962
69	0xbd12409b	-0.035706144
70	0xbeac9c7d	-0.3371314
71	0xbeb3a631	-0.3508773
72	0x3c7e4724	0.015519891
73	0xbe61f965	-0.22067793
74	0x3e06206d	0.13098307
75	0x3e56b6a4	0.2096811
76	0x3e3a6ad0	0.18204808
77	0xbe71b106	-0.23602685
78	0xbe246742	-0.16055015
79	0xbf0b79b2	-0.5448257
80	0x3e4e215c	0.20129913
81	0x3e7b5fc3	0.24548249
82	0xbc099d95	-0.008399387
83	0xbdd2a5b4	-0.102855116
84	0xbe2fb026	-0.17157039
85	0xbe0abc3e	-0.13548371
86	0xbcf37ea1	-0.029723467
87	0xbd66662b	-0.05624978
88	0x3df3e5c4	0.11909059
89	0x3e5de750	0.2167027
90	0xbd10acd3	-0.035321068
91	0xbda42cb6	-0.080163404
92	0xbe5dc442	-0.21656898
93	0xbe573436	-0.2101601
94	0x3d8a2ff3	0.06747427
95	0xbe53d7d6	-0.20687804
96	0x3de1258b	0.10993489
97	0x3d3197a0	0.04335749
98	0x3e517029	0.20452942
99	0xbe115e59	-0.14196147
100	0x3cee4b2a	0.029088575
101	0x3d387a60	0.04503858
102	0x3de4d846	0.111740634
103	0xbe6df3b6	-0.232375
104	0xbe483340	-0.195508
105	0xbc82c3d1	-0.015962513
106	0x3cf4aa0c	0.02986624
107	0xbd9911f0	-0.074741244
108	0xbe48e293	-0.19617681
109	0xbe3c7262	-0.18403009
110	0xbc82ae0e	-0.015952136
111	0x3deda9f7	0.11604684
112	0xbdf75065	-0.12075881
113	0xbf5446b7	-0.829204
114	0xbecebbdb	-0.40377697
115	0x3ec9d9b9	0.39423922
116	0xbeeb439c	-0.4595002
117	0xbe2f3eb1	-0.17113759
118	0xbeaa49f6	-0.33259553
119	0xbe672430	-0.22572398
120	0x3de5eb0b	0.112264715
121	0xbe466236	-0.19373402
122	0x3e064068	0.13110507
123	0x3f3d050f	0.73835844
124	0x3f0bd6c1	0.54624563
125	0x3d005160	0.031327605
126	0x3f3c13c4	0.7346766
127	0xbde3cf18	-0.111234844
128	0x3dda8800	0.10670471
129	0x3cc1bda8	0.023650005
130	0x3ea65f21	0.32494453
131	0xbe87ac25	-0.26498523
132	0xbd8e1beb	-0.06938919
133	0x3e0df985	0.13864715
134	0x3cf11ddf	0.029433189
135	0xbe6cb85c	-0.23117203
136	0xbdad0f4e	-0.08450185
137	0xbe1afc52	-0.15135315
138	0xbe1ebd62	-0.15501931
139	0xbda60336	-0.08106081
140	0xbe4d1978	-0.20029247
141	0x3eb000f3	0.34375724
142	0xbd51325a	-0.05107341
143	0xbde90c26	-0.1137927
144	0x3f1f6602	0.62265027
145	0xbe1b4235	-0.15161975
146	0x3dbbc142	0.091677204
147	0xbba34559	-0.004982632
148	0xbe857baf	-0.26070926
149	0xbe05c0d4	-0.1306184
150	0xbd8cca13	-0.0687448
151	0xbe38e946	-0.18057737
152	0xbe01102c	-0.12603825
153	0xbe3cb9c4	-0.18430239
154	0xbe13ac9d	-0.14421315
155	0x3e8fbfab	0.2807592
156	0x3d6ca2d4	0.057772473
157	0xbe29b599	-0.1657318
158	0x3dfc5325	0.12320546
159	0xbe1114a0	-0.14168024
160	0x3eb474db	0.35245404
161	0x3dae2836	0.085037634
162	0xbd02e3e4	-0.031955615
163	0x3d8a257c	0.06745431
164	0x3d7b243b	0.06131385
165	0x3e65664f	0.22402309
166	0xbd899afd	-0.06719015
167	0xbea2755f	-0.31730172
168	0x3e085ee2	0.13317445
169	0x3c1f08e4	0.0097067095
170	0x3dce8490	0.10083878
171	0x3d1b1d5c	0.037869796
172	0xbe9523f2	-0.29128987
173	0x3e14ec9a	0.14543381
174	0xbb989c6e	-0.0046573197
175	0x3e6ac3cc	0.22926253
176	0xbe798744	-0.24368006
177	0x3e89263b	0.2678698
178	0x3d9da96c	0.0769833
179	0xbd20f279	-0.03929374
180	0x3e5bce13	0.2146533
181	0x3ca91560	0.020640075
182	0x3da27281	0.07931996
183	0xbf04b2ce	-0.51835334
184	0x3e655582	0.223959
185	0xbdbe9e17	-0.09307497
186	0x3d9dc6e1	0.07703949
187	0xbe5421ba	-0.2071599
188	0x3d9d5504	0.07682231
189	0x3d01715e	0.031602256
190	0xbdfd6e39	-0.12374539
191	0xbd46ce12	-0.048536368
192	0xbf0a16d0	-0.5394106
193	0xbda84759	-0.082167335
194	0xbd4de3b2	-0.050265975
195	0xbd05abb8	-0.032634467
196	0x3ee3e7d7	0.44512817
197	0xbd9f368e	-0.07774077
198	0xbe754553	-0.23952226
199	0x3ed7b81a	0.42132646
200	0xbd490c9b	-0.049084287
201	0xbe7820bd	-0.24231239
202	0x3e6ef0a8	0.2333399
203	0xbe49d84e	-0.1971142
204	0x3db455d1	0.08805431
205	0x3d8da64a	0.06916483
206	0x3ce7d9f1	0.028302165
207	0xbea213b1	-0.31655648
208	0x3e4e4be2	0.20146134
209	0x3def1c9b	0.11675378
210	0x3d9e76c4	0.077374965
211	0xbe3a2de4	-0.18181568
212	0xbdcd0793	-0.1001121
213	0xbe3c7ad9	-0.18406238
214	0xbd45ef62	-0.048323996
215	0xbe4d2fe6	-0.20037803
216	0xbea7f3c2	-0.3280316
217	0xbdfcdb1d	-0.1234648
218	0xbe04b423	-0.12959342
219	0x3c39c216	0.011337778
220	0xbda4cfef	-0.08047473
221	0xbe149b5e	-0.14512393
222	0x3e7eff64	0.24902111
223	0x3e27f9fa	0.16403952
224	0x3e88d404	0.26724255
225	0x3f1ebb93	0.62004966
226	0x3c923443	0.017847186
227	0x3d6d1b3d	0.057887305
228	0x3f3b95b6	0.73275316
229	0x3db0f3fb	0.086402856
230	0xbe91ae7b	-0.2845343
231	0x3d8419ed	0.064502575
232	0xbdf3224e	-0.118717775
233	0xbddd1745	-0.10795454
234	0xbe6013d1	-0.2188256
235	0xbeb08e43	-0.34483537
236	0xbc0264aa	-0.0079585705
237	0xbe00283f	-0.12515353
238	0xbf361d87	-0.71138805
239	0x3df8731e	0.12131332
240	0xbe7d60d1	-0.24743964
241	0x3e9220bb	0.28540596
242	0xbdd9f980	-0.106432915
243	0xbe0207a7	-0.12698232
244	0x3d9107c4	0.07081559
245	0x3e29ca90	0.16581178
246	0x3df51ea1	0.119687326
247	0xbd9c613a	-0.07635732
248	0xbd9e5521	-0.07731081
249	0xbd4002ba	-0.0468776
250	0xbe265716	-0.16244158
251	0xbe1ed629	-0.15511383
252	0xbdb34a89	-0.08754451
253	0x3e5cf889	0.21579184
254	0xbe5b4b68	-0.21415484
255	0x3e3278bd	0.1742887

encoder.bias_ih_l0 f4 [64]
0	0xbedf360e	-0.43595928
1	0x3e9b60b6	0.30347222
2	0x3e3c2f2b	0.18377368
3	0xbe29734a	-0.16547886
4	0xbe5c343f	-0.21504305
5	0x3e77de95	0.24206002
6	0xbd27994b	-0.040917676
7	0xbde9e94b	-0.1142145
8	0xbac1f0f6	-0.0014796543
9	0xbd210c10	-0.039318144
10	0x3de1181b	0.10990926
11	0xbe0e5e06	-0.13903055
12	0x3d559be4	0.052150622
13	0x3e2c400d	0.16821308
14	0xbe66b72d	-0.22530814
15	0x3e8d5407	0.2760317
16	0x3e9e8be1	0.30966094
17	0xbda38d6c	-0.079859585
18	0x3daa0637	0.08301967
19	0xbe128515	-0.1430858
20	0x3e5c5e9a	0.21520463
21	0x3e29d08d	0.16583462
22	0xbe892b52	-0.26790863
23	0x3eee16d8	0.46501803
24	0x3dd09c64	0.10186079
25	0xbcc43bb2	-0.023954246
26	0x3e8edb70	0.27901793
27	0xbdb1bc76	-0.08678524
28	0x3e93af27	0.28844568
29	0xbd463413	-0.048389506
30	0xbe05791e	-0.13034484
31	0x3e14dafa	0.14536658
32	0x3d9bd41f	0.07608818
33	0x3e208bc0	0.1567831
34	0x3d621adc	0.055201396
35	0xbe237f52	-0.15966538
36	0xbd0d430f	-0.03448778
37	0x3e8a8c48	0.2706015
38	0x3e01d596	0.12679133
39	0xbe7a19ab	-0.24423854
40	0xbeaac1c7	-0.33350965
41	0xbd1c3e54	-0.03814538
42	0xbd60ebf5	-0.054912526
43	0xbdb91302	-0.090368286
44	0xbe5ec873	-0.21756153
45	0x3da213d3	0.079139374
46	0x3ddba59c	0.10724947
47	0xbcb5b353	-0.022180235
48	0x3e904845	0.28180137
49	0x3c65ec3e	0.014033375
50	0x3e32b12f	0.17450403
51	0xbdd43847	-0.103622966
52	0xbd3cfdff	-0.046140667
53	0xbd875581	-0.066081055
54	0x3c5f05fe	0.0136122685
55	0x3ce7f4da	0.028314997
56	0x3ebabff2	0.36474568
57	0x3d356879	0.044289086
58	0x3dd77de6	0.1052206
59	0x3d8616ef	0.06547343
60	0xbdf261ea	-0.11835082
61	0x3ceb64eb	0.028734645
62	0x3e94d4f7	0.2906873
63	0x3d69f4ce	0.05711823

encoder.bias_hh_l0 f4 [64]
0	0xbe5666f3	-0.2093771
1	0x3e2b9748	0.16756928
2	0xbd2e81cc	-0.042604253
3	0xbe511ec6	-0.20421895
4	0xbd978bc0	-0.07399702
5	0x3e3279fb	0.17429344
6	0x3e462167	0.1934868
7	0xbd295dd9	-0.041349266
8	0x3e863b26	0.26217002
9	0xbdd6042e	-0.10450016
10	0x3ddce9ad	0.107867576
11	0x3bfe08a6	0.007752496
12	0x3e8dbeab	0.2768453
13	0x3e25337a	0.16132918
14	0xbd42ccb8	-0.047558516
15	0xbdcdf901	-0.10057259
16	0x3dac1901	0.084032066
17	0x3db4d98e	0.08830558
18	0xbcfef6ad	-0.031123484
19	0xbd86d997	-0.06584471
20	0xbd8b2893	-0.06794848
21	0xbd9f1fd5	-0.07769743
22	0xbe2e7957	-0.17038475
23	0x3e4403c6	0.19142064
24	0x3d5d765e	0.054067962
25	0xbe19680d	-0.14981098
26	0x3e5f2aa7	0.21793614
27	0x3e95f6ae	0.29289764
28	0x3e8c6631	0.27421716
29	0x3ea7eee6	0.32799453
30	0x3e6a6456	0.22889838
31	0x3e652011	0.22375514
32	0x3d2ddad6	0.042445026
33	0xbde71448	-0.11283165
34	0x3ea3d739	0.3200014
35	0xbda5d156	-0.08096568
36	0xbdaaf6db	-0.08347865
37	0xbc887f88	-0.016662374
38	0x3e68eb4f	0.22746013
39	0xbc4857b1	-0.0122279385
40	0xbea79e4e	-0.32737964
41	0x3e9cfd34	0.3066193
42	0xbe8a1732	-0.26970822
43	0xbe727ec7	-0.23681174
44	0xbe0e2e8f	-0.13884948
45	0x3e7865d4	0.24257594
46	0xbe4901b3	-0.19629554
47	0xbd5fb37e	-0.054614536
48	0xbd885315	-0.06656472
49	0xbcdaeb42	-0.026723508
50	0x3e838134	0.25684512
51	0x3d03729a	0.032091714
52	0x3eb0d20b	0.3453525
53	0xbd499010	-0.049209654
54	0x3e173b84	0.14768797
55	0x3d9ac316	0.07556741
56	0x3e8b9afe	0.27266687
57	0x3e47f27a	0.19526091
58	0x3df1476f	0.11781203
59	0x3e2a53f3	0.16633587
60	0xbd6cace6	-0.057782076
61	0xbd02cf03	-0.031935703
62	0x3e44241b	0.19154398
63	0xbd27bdd6	-0.040952526

decoder.weight_ih_l0 f4 [64, 16]
0	0xbd9f1a2d	-0.077686645
1	0x3d6ff80a	0.058586158
2	0x3ea17582	0.31534964
3	0x3d2087ca	0.039192
4	0xbf049b99	-0.51799923
5	0x3eb98b39	0.3623903
6	0x3dea3c6b	0.11437305
7	0xbe28950e	-0.1646311
8	0xbe7468a2	-0.23868039
9	0x3e2faf7b	0.17156784
10	0xbc5b0e5e	-0.013370125
11	0xbe1b4030	-0.15161204
12	0xbd95f581	-0.07322217
13	0x3e88a77d	0.26690283
14	0xbed2b9c0	-0.4115734
15	0xbd8941f3	-0.06702032
16	0xbe5495fe	-0.20760342
17	0xbe13fe29	-0.14452423
18	0x3dcccd78	0.100001276
19	0x3c521798	0.012823008
20	0xbd56f120	-0.05247605
21	0x3d8b1b86	0.06792359
22	0xbe1b62d3	-0.15174417
23	0x3e1093fa	0.14118949
24	0xbd6ecf9f	-0.05830347
25	0xbe5480da	-0.20752278
26	0x3d63c96c	0.055612013
27	0x3e2351c9	0.15949167
28	0x3c28dbdf	0.010306328
29	0x3e27c8bc	0.16385168
30	0xbe3772c0	-0.17914867
31	0xbe9ada0e	-0.30244488
32	0xbdffc221	-0.12488199
33	0x3e9fd92c	0.31220376
34	0xbe311e37	-0.17296682
35	0x3e1c6ad7	0.15275131
36	0x3d499a6f	0.049219545
37	0xbd95ecaa	-0.07320531
38	0x3e42388b	0.18966882
39	0x3d22e2dd	0.039767135
40	0xbe8ed6ec	-0.27898347
41	0x3e540d86	0.20708284
42	0xbe692078	-0.22766292
43	0xbe920dcf	-0.2852616
44	0xbd130a81	-0.03589869
45	0x3de17684	0.11008933
46	0xbd765eb0	-0.060148895
47	0x3e806872	0.25079685
48	0xbea87105	-0.32898727
49	0xbc029052	-0.007968979
50	0x3e80597e	0.25068277
51	0xbe66d946	-0.2254382
52	0xbe9388e3	-0.28815374
53	0x3e846aea	0.2586282
54	0x3e28b560	0.16475439
55	0xbeef02ea	-0.4668191
56	0x3d17f212	0.03709609
57	0x3d58fa17	0.05297288
58	0xbe74ab88	-0.23893559
59	0xbe952559	-0.29130057
60	0xbe539125	-0.20660837
61	0x3e0daee3	0.13836245
62	0xbeada13c	-0.33912075
63	0x3e1209be	0.14261529
64	0xbe227e61	-0.15868522
65	0x3e479e36	0.19493946
66	0x3e8c8f06	0.27452868
67	0xbe983486	-0.29727572
68	0xbe300a94	-0.17191535
69	0x3e676441	0.22596838
70	0xbe1b9bca	-0.15196148
71	0xbe42a4f7	-0.19008242
72	0xbd26ee5a	-0.040754654
73	0x3d99867d	0.07496355
74	0x3d0e643e	0.034763567
75	0xbeaab5a7	-0.33341715
76	0xbd2b9a46	-0.041895173
77	0xbdea16ec	-0.11430153
78	0xbe7d7be4	-0.24754292
79	0xbe8c9910	-0.27460527
80	0xbe4b9700	-0.1988182
81	0x3da0633a	0.07831426
82	0x3e0f13da	0.13972417
83	0x3d90b61b	0.07065984
84	0xbf7ac480	-0.97956085
85	0xbe0102ee	-0.12598774
86	0xbe5ac2c5	-0.21363361
87	0xbcbb15c7	-0.022837533
88	0xbe1057a1	-0.14095928
89	0x3d9cc4c4	0.076547176
90	0xbda80282	-0.08203603
91	0x3e39114e	0.18073007
92	0xbec957b5	-0.39324728
93	0xbcd6c083	-0.026214844
94	0xbe0b82e7	-0.13624154
95	0xbd093889	-0.03350118
96	0xbd8ebf1b	-0.06970044
97	0x3d0e3d05	0.03472616
98	0xbe5a6ae6	-0.21329841
99	0x3e513e66	0.2043396
100	0xbe207507	-0.15669642
101	0xbe7c8d6a	-0.2466332
102	0xbd545da4	-0.051847115
103	0xbe403041	-0.18768407
104	0xbde1086c	-0.109879345
105	0x3d6c9c02	0.05776597
106	0x3e1f212d	0.1554
107	0xbd3f90a6	-0.046768807
108	0x3de7a6cd	0.113111116
109	0x3e6efd7f	0.23338889
110	0xbe99553a	-0.29947835
111	0xbe01807f	-0.12646674
112	0xbf7d46a8	-0.9893594
113	0x3e8bbd0e	0.27292675
114	0x3e4d2fce	0.20037767
115	0x3d3df250	0.046373665
116	0x3dbba4de	0.09162305
117	0x3e5478c0	0.20749187
118	0x3e6f2e6c	0.23357552
119	0xbf149a1f	-0.5804767
120	0x3e16dfb0	0.14733768
121	0x3c996418	0.018724486
122	0xbda1d8e5	-0.079026975
123	0x3dc6a3ff	0.096992485
124	0x3e1f9814	0.15585357
125	0x3e4cf0a3	0.2001367
126	0xbe0291b2	-0.12750891
127	0x3d300b57	0.042979565
128	0xbe5c3531	-0.21504666
129	0x3e5c3a63	0.21506648
130	0xbe108086	-0.14111528
131	0x3d91186b	0.070847355
132	0x3e780472	0.24220446
133	0xbda2b619	-0.079448886
134	0xbe9a4f32	-0.30138546
135	0xbdc7c845	-0.09754995
136	0x3e248286	0.16065416
137	0xbe9b3457	-0.3031337
138	0xbdb90543	-0.09034207
139	0x3e4d47ef	0.20046972
140	0x3db07caf	0.086175315
141	0x3db85c2e	0.09001957
142	0xbe6cd18c	-0.23126811
143	0x3e918f39	0.28429583
144	0x3edc4463	0.43020925
145	0xbd8aab71	-0.06770981
146	0x3e2d69de	0.16934916
147	0x3e66e44a	0.22548023
148	0xbfb23e6e	-1.3925302
149	0xbe2df6f8	-0.16988742
150	0x3dba674b	0.09101733
151	0x3ef0ac6c	0.47006547
152	0xbcb00c83	-0.021490341
153	0xbecab9e9	-0.39594963
154	0x3e6c7fff	0.23095702
155	0x3ee05d41	0.43821147
156	0x3e3881ce	0.18018267
157	0x3c357a5a	0.011076534
158	0xbd96758a	-0.073466375
159	0x3e39bf61	0.18139412
160	0x3ddcc89f	0.10780453
161	0x3dabc462	0.083870664
162	0xbe65e8aa	-0.22452036
163	0x3ed12b60	0.40853405
164	0x3f633ad2	0.8876163
165	0xbea321e1	-0.31861785
166	0xbe56cbdc	-0.20976204
167	0x3f03480c	0.5128181
168	0x3f045919	0.5169845
169	0xbed7d146	-0.4215185
170	0x3ef2fb22	0.47457224
171	0x3eb8eb66	0.36117095
172	0x3f1dd90e	0.61659324
173	0xbf12809b	-0.57227486
174	0x3c54fbee	0.012999518
175	0x3da59bf8	0.08086389
176	0xbf1253a7	-0.57158893
177	0xbd6bf6ad	-0.057608295
178	0x3ead7eab	0.33885702
179	0x3d622204	0.05520822
180	0xbe54665b	-0.2074217
181	0x3e43c431	0.1911781
182	0x3e8e066d	0.27739277
183	0xbed85038	-0.42248702
184	0xbe1e433a	-0.15455332
185	0xbcee8933	-0.029118156
186	0xbe17b0e7	-0.14813577
187	0xbe2351a6	-0.15949115
188	0xbdd28101	-0.10278512
189	0xbd2282f9	-0.039675687
190	0xbe01c4e6	-0.12672767
191	0x3db5ff57	0.08886593
192	0xbeda784b	-0.426699
193	0xbe980960	-0.29694653
194	0x3c930d5a	0.017950702
195	0xbe03db8f	-0.12876724
196	0xbc07d19f	-0.008289724
197	0xbe418824	-0.1889959
198	0x3e2431b9	0.16034593
199	0xbe3a8e85	-0.1821843
200	0x3d9759b8	0.07390159
201	0x3e693d90	0.2277739
202	0x3e549928	0.2076155
203	0x3e549c31	0.20762707
204	0xbe0b2ab2	-0.13590506
205	0xbe56ce15	-0.20977052
206	0x3e8c4d50	0.27402735
207	0xbe96d78c	-0.29461324
208	0xbee19108	-0.44055963
209	0x3eb32bdd	0.34994403
210	0x3dfdb2b1	0.12387598
211	0xbe247ef3	-0.16064052
212	0x3e8dad44	0.27671254
213	0xbd30e230	-0.04318446
214	0xbe48d3c7	-0.19612037
215	0xbda5cfe8	-0.080962956
216	0x3d8ad1f0	0.06778324
217	0xbde2a5b6	-0.11066763
218	0xbdda3cd7	-0.106561355
219	0xbe92ed39	-0.28696612
220	0xbee5f3f2	-0.44912678
221	0xbe391f2a	-0.18078294
222	0xbe2e6d40	-0.17033863
223	0x3e67cb81	0.22636224
224	0xbef28b5f	-0.47371957
225	0x3dc7b7bd	0.09751842
226	0xbdbf47d5	-0.09339873
227	0x3e1cbac3	0.15305619
228	0x3eac024e	0.33595508
229	0xbd9004e3	-0.07032182
230	0xbdc03125	-0.093843736
231	0xbf06bb6b	-0.5262973
232	0xbec6aea8	-0.38805127
233	0x3e907182	0.282116
234	0xbe9f3cb9	-0.31101015
235	0xbeefdb02	-0.46846777
236	0xbc9060f5	-0.017624358
237	0x3e508997	0.20364986
238	0xbe865780	-0.26238632
239	0xbd5e268b	-0.054235976
240	0xbe509f98	-0.2037338
241	0xbc9789d3	-0.018498337
242	0x3e543bfc	0.20726007
243	0x3c9a85be	0.018862601
244	0x3e811bfd	0.25216666
245	0xbdd72f5d	-0.10507081
246	0xbe38ccd5	-0.18046887
247	0x3d3aa0c7	0.045563485
248	0x3e34556f	0.17610715
249	0xbdfc3b97	-0.12316053
250	0x3db79d36	0.089655325
251	0xbe318f4a	-0.17339817
252	0xbe064e95	-0.13115914
253	0x3db79f4b	0.089659296
254	0x3e107d75	0.14110358
255	0x3d3ed6d4	0.046591595

decoder.weight_hh_l0 f4 [64, 1]
0	0x3e68135a	0.22663632
1	0x3e64609c	0.22302479
2	0x3e30e05b	0.17273085
3	0x3e015972	0.12631777
4	0x3ec01f4d	0.3752388
5	0x3ddb6f89	0.10714633
6	0x3eafde4c	0.34349287
7	0xbfb3d9ac	-1.4050803
8	0x3de14361	0.1099918
9	0xbfc76621	-1.5578042
10	0x3cf5c400	0.030000687
11	0x3e987ef9	0.29784372
12	0x3e6ced0d	0.23137303
13	0xbebb135a	-0.36538202
14	0x3ea7aef5	0.3275067
15	0x3ec03281	0.3753853
16	0x3e7aea8d	0.24503537
17	0x3f0c4800	0.54797363
18	0x3eb943a2	0.36184412
19	0xbe4c1685	-0.19930466
20	0x3ec020b7	0.3752496
21	0xbf000000	-0.5
22	0xbe44281d	-0.19155927
23	0xbf312a63	-0.692053
24	0xbe237871	-0.15963914
25	0x3fdc5361	1.7212945
26	0x3f83e09a	1.0302918
27	0x3ecb2df8	0.3968351
28	0x3f09803f	0.53711313
29	0xbf111f63	-0.5668852
30	0x3f42256f	0.7583837
31	0x3d96adb5	0.07357351
32	0xbbc2d5b8	-0.0059458874
33	0xbe9357da	-0.28777963
34	0xbe601bfc	-0.21885675
35	0xbd0890e2	-0.033341296
36	0x3e088e08	0.1333543
37	0xbd83d9b1	-0.06438006
38	0x3e9942cb	0.29933771
39	0x3cc53260	0.024071872
40	0xbe39dd21	-0.1815076
41	0x3e4dd4fa	0.20100775
42	0xbdc21825	-0.094772615
43	0x3e8ac117	0.2710044
44	0x3d5ef355	0.05443128
45	0xbe4784a2	-0.19484189
46	0xbf10ee5f	-0.56613725
47	0x3ebbf522	0.3671046
48	0x3e162128	0.14661086
49	0x3eab6dc3	0.3348218
50	0x3e332aa7	0.1749674
51	0x3e92cea7	0.28673288
52	0x3e394ffa	0.18096915
53	0xbe7859f9	-0.24253072
54	0x3e5f1483	0.21785168
55	0xbf947a79	-1.1599876
56	0xbc71b68c	-0.014752995
57	0x3f346e68	0.70480967
58	0x3f58c6c7	0.8467831
59	0x3e7950c6	0.24347219
60	0x3e030549	0.12794985
61	0xbf85d8af	-1.0456752
62	0x3e3fc171	0.18726136
63	0x3cee48d3	0.02908746

decoder.bias_ih_l0 f4 [64]
0	0x3e8b213f	0.27173802
1	0x3d80a0dc	0.062806815
2	0x3e9e619f	0.30933854
3	0x3e978755	0.29595438
4	0x3d4d134d	0.050067235
5	0x3dbbe52f	0.09174573
6	0xbe1003f2	-0.14064005
7	0xbe7c8432	-0.24659804
8	0xbdf861aa	-0.12128003
9	0xbe85dcfa	-0.26145154
10	0xbe8fb690	-0.28068972
11	0x3ebb93c7	0.36636183
12	0xbdd718ca	-0.10502775
13	0xbce7f4ac	-0.02831491
14	0x3eb45284	0.35219204
15	0x3dadb8cf	0.08482515
16	0xbe830d7d	-0.25596228
17	0x3c78b8c2	0.015180768
18	0x3e547307	0.20747004
19	0xbe36cfd1	-0.17852713
20	0xbe55980d	-0.20858784
21	0xbe09c457	-0.13453804
22	0xbeeb9680	-0.4601326
23	0xbe6929a6	-0.22769794
24	0xbe8f6737	-0.28008434
25	0x3eef70fe	0.46765894
26	0x3e867c31	0.26266626
27	0xbeb3c1f7	-0.3510892
28	0xbda6829e	-0.08130382
29	0xbcb9d6ac	-0.022685371
30	0xbe479403	-0.19490056
31	0x3de3b37b	0.111182176
32	0xbe45a434	-0.1930092
33	0xbe12d257	-0.14338051
34	0x3e110afd	0.14164348
35	0xbec4578c	-0.38348043
36	0x3e405fdc	0.18786567
37	0x3b16570a	0.0022940063
38	0x3e58735e	0.21137759
39	0x3d10fadb	0.035395484
40	0xbdb37908	-0.08763319
41	0x3e50fad5	0.20408185
42	0xbdc9ba2d	-0.09849963
43	0x3e89e436	0.26931924
44	0xbdb55768	-0.08854562
45	0xbdd088fa	-0.10182376
46	0xbd4f2861	-0.050575618
47	0x3dab4b99	0.083640285
48	0x3e3beee1	0.18352844
49	0x3eaed111	0.3414388
50	0xbe0bf1e3	-0.13666491
51	0x3e96cb77	0.29452106
52	0x3db43a27	0.08800154
53	0x3dde3c1b	0.10851308
54	0x3e2ea1f9	0.17053975
55	0x377e6b1f	1.5164521e-05
56	0xbd18fa97	-0.037348356
57	0x3ec994c6	0.39371318
58	0x3e394319	0.18092002
59	0x3d9581da	0.07300158
60	0x3e908aa8	0.28230786
61	0xbd95465b	-0.0728881
62	0x3ec28b8d	0.37997094
63	0xbe2d0d7c	-0.16899675

decoder.bias_hh_l0 f4 [64]
0	0x3e723390	0.23652482
1	0xbd87bb23	-0.0662749
2	0xbd310628	-0.04321876
3	0xbcdc30b1	-0.026878687
4	0x3d9a3b9e	0.07530902
5	0x3da06144	0.07831052
6	0x3db13472	0.08652581
7	0xbc80fee5	-0.015746543
8	0xbd91146a	-0.07083972
9	0xbed6d8b2	-0.419622
10	0xbddf89a0	-0.10914922
11	0x3e84cce5	0.25937572
12	0x3e6fdaf8	0.23423374
13	0x3e6ef640	0.23336124
14	0x3cbde829	0.023181992
15	0x3dfcd3fa	0.12345119
16	0xbee0bce1	-0.43894103
17	0xbe81a88e	-0.2532391
18	0xbbf899b0	-0.0075866804
19	0xbd071d12	-0.032986708
20	0x3deba510	0.115060925
21	0xbefaa1dd	-0.48951617
22	0xbe80341e	-0.25039762
23	0xbe7749fe	-0.2414932
24	0xbebf9d58	-0.3742473
25	0x3f61e2d6	0.8823675
26	0x3ef97b37	0.48726818
27	0xbeca64a7	-0.39529917
28	0x3cd0b7f9	0.02547835
29	0xbe6dc52a	-0.23219743
30	0xbe295e58	-0.16539896
31	0xbd110f04	-0.03541471
32	0xbe5f35fb	-0.21797936
33	0xbcdcfbdd	-0.026975567
34	0x3bcb7c05	0.0062098526
35	0xbe12e4a1	-0.14345028
36	0x3ea07d96	0.31345814
37	0x3e2f5668	0.17122805
38	0xbcf18526	-0.029482435
39	0xbdd8a74b	-0.105787836
40	0x3de05318	0.10953349
41	0x3e92d969	0.28681496
42	0xbc9f252d	-0.019426906
43	0x3e80ef54	0.25182593
44	0xbe440b9b	-0.19145052
45	0x3dfa5210	0.122226834
46	0xbe0cb3c6	-0.13740453
47	0x3e3b6494	0.18300086
48	0x3df767d9	0.12080354
49	0x3def3c84	0.11681464
50	0x3e8e7f7c	0.27831638
51	0xbe0bc02a	-0.13647524
52	0x3caa80af	0.020813314
53	0xbd07d63d	-0.033163298
54	0x3e3191ac	0.17340726
55	0x3bf4a0ad	0.007465443
56	0xbe4f2048	-0.20227158
57	0x3e99a4b6	0.30008477
58	0xbe237859	-0.15963878
59	0x3e0a3d4d	0.13499947
60	0x3ddb5cf7	0.10711091
61	0xbe56a749	-0.20962252
62	0xbd74efe7	-0.0597991
63	0xbdff0a32	-0.124531165

decoder.weight_hr_l0 f4 [1, 16]
0	0xbe9c2e32	-0.30503994
1	0xbe420fb8	-0.18951309
2	0xbdfd0970	-0.12355316
3	0xbe6d3c8f	-0.23167633
4	0x3ea565b0	0.32304144
5	0x3e827617	0.2548072
6	0x3e1b69b0	0.15177035
7	0x3ea2240a	0.3166812
8	0xbdeac138	-0.11462635
9	0xbf4c1660	-0.7972164
10	0x3f17ba52	0.5926868
11	0x3e67154d	0.2256672
12	0xbebb9e00	-0.36643982
13	0xbe3c7429	-0.18403687
14	0xbe98ea2e	-0.29866165
15	0x3e00f443	0.12593178
