output/synthetic_data/models/model_hidden64_lr0.01_clip0.5.pth (torch, 141402 bytes, 9 tensors)

encoder.weight_ih_l0 f4 [256, 1]
000000 a2 c5 96 3e aa 18 8d bd dd 59 d3 3d 14 85 8d 3d
       0.29447657 -0.0688947 0.103198744 0.06910148
000010 e6 42 70 3d 69 e6 3b be 36 37 78 be b7 1d 9c bd
       0.05865755 -0.18349613 -0.24239811 -0.07622855
000020 c9 da b2 be 5a de 37 be ce 6f 5f be c8 82 80 3e
       -0.34932545 -0.17955914 -0.21819994 0.25099778
000030 02 b5 ee bd 96 a4 c0 3d 4e 4b a5 be 8d 1d a4 3e
       -0.11655618 0.09406392 -0.32284015 0.32053795
000040 17 80 f4 bd ae ad a1 3a 77 fb 4d bd 8d d6 93 bc
       -0.11938494 0.0012335086 -0.050288644 -0.018046642
000050 4b ec 65 be a1 44 76 be 7c b7 2c 3e 45 21 92 3e
       -0.2245342 -0.24049617 0.16866869 0.28541008
000060 78 8f d6 bd be 1e c3 3c d5 b7 9f 3d 0b da dc bd
       -0.10476583 0.02381837 0.07798735 -0.10783776
000070 1e 35 18 3e cc 46 32 be 73 bf 98 3c f5 67 81 be
       0.14864013 -0.1740982 0.018645978 -0.25274625
000080 d8 3f 1b be ae 99 a4 be 58 98 8b be 02 8e bb 3d
       -0.15161073 -0.32148498 -0.27264667 0.09157945
000090 21 68 ce be b8 4e 95 3d 23 aa a7 bc 19 33 8b bc
       -0.4031382 0.07290405 -0.02046687 -0.016992139
0000a0 62 cb f6 3d d5 a0 a8 3d f3 79 ab 3e 65 81 d4 bd
       0.12050511 0.08233801 0.33491477 -0.103762425
0000b0 e0 4b 41 be ff 9b 32 3e 3c bf 46 be aa 0a b3 be
       -0.188766 0.1744232 -0.19408888 -0.34969074
0000c0 09 34 85 3e 50 94 21 3e 89 fe 05 bf 2b 13 47 3e
       0.26016262 0.15779233 -0.52341515 0.19440906
0000d0 4b af a2 bd 47 33 d6 3d f6 7c 93 be ee 54 dd 3c
       -0.07943591 0.10458999 -0.28806275 0.027018037
0000e0 89 ad 93 bd 1e 39 ef 3d fc 25 d3 3d ff e4 a9 be
       -0.072108336 0.11680816 0.10309979 -0.33182523
0000f0 e7 62 81 bd c5 77 0e bf 11 35 1d be 48 94 36 be
       -0.06317692 -0.55651504 -0.15352274 -0.17830002
000100 fd 76 de 3d 89 4b 2d bd 6e 1f d2 bd db 08 c8 3c
       0.10862539 -0.042308364 -0.10259901 0.024418285
000110 7e 6e ef 3c f5 d0 a3 3c b6 d1 4a be 13 d0 47 be
       0.029227491 0.0199971 -0.19806561 -0.19512968
000120 2f 1a 8f bd 5c 05 06 3e de 35 4e bc 7a 37 f9 3d
       -0.06987416 0.13087982 -0.012586085 0.121687844
000130 35 6d 34 3e af 38 09 be 9a 1d 0d be 75 12 17 3f
       0.17619784 -0.1340053 -0.13780823 0.5901254
000140 40 4e 98 3d 48 a4 01 be 04 f9 f9 3d 82 97 06 3d
       0.074368 -0.12660325 0.12205699 0.032859333
000150 3a 39 4f be 19 11 ae bd e8 ab 12 3f 45 3e b9 3d
       -0.20236674 -0.08499355 0.5729356 0.0904508
000160 f2 14 42 3e 1c 7a 33 bb 64 f9 08 3e 58 cd 22 3d
       0.18953303 -0.0027386015 0.13376385 0.039746612
000170 73 49 c8 3d e6 3c d2 bc da bf 9e 3d d0 94 36 be
       0.09779634 -0.025663804 0.077514365 -0.17830205
000180 64 e3 cf bd 62 81 58 bd 8d a6 37 bd 52 9e c2 3d
       -0.10150793 -0.052857764 -0.04483657 0.095028535
000190 64 98 2f be e1 d0 3c bd 1b f2 c3 bd e7 96 86 3d
       -0.17147976 -0.04609764 -0.09567662 0.06571751
0001a0 d6 70 f3 3d 85 1c 23 bd ac 2b b0 3e 1d 14 0d 3c
       0.11886756 -0.03982212 0.3440832 0.008610752
0001b0 5f fa 27 be 9d 47 c0 3d 3d ce ff 3b 13 b0 82 be
       -0.16404103 0.09388659 0.007806568 -0.2552496
0001c0 ec da f7 3e 86 0e 3d 3e 29 d2 e5 be 89 ad f0 3e
       0.48409212 0.18462572 -0.44886902 0.47007397
0001d0 f2 b4 88 3d b3 02 04 3e e1 cc 82 be c4 d9 66 3e
       0.066751376 0.12891655 -0.25546935 0.22544008
0001e0 ae db 4f bc 29 b3 10 3e ef 6e d7 3e 06 43 79 be
       -0.012686653 0.14130844 0.42076823 -0.24341974
0001f0 9e 5e 06 bc 10 80 f5 be 9c c2 a9 3c b8 bf 0d be
       -0.008201269 -0.47949266 0.02072268 -0.13842666
000200 5e 63 64 be 5f fb ce 3c 47 1e 7e 3b fb 35 26 3d
       -0.2230353 0.025266347 0.003877537 0.040578824
000210 31 44 1a bd d3 2f 2d be 3f 12 8b bd cb 67 04 be
       -0.03766269 -0.16912775 -0.067905895 -0.12930219
000220 8a 32 12 be 50 af 21 be 7e e0 24 3e 11 43 60 3e
       -0.14277092 -0.15789533 0.16101262 0.21900584
000230 71 d4 95 be a8 75 50 3d e9 4b f7 ba 26 78 9f 3e
       -0.29263642 0.050893456 -0.0018867227 0.31146353
000240 94 c4 dc bc 5e 50 d7 3c c6 4e a5 be 7b cc b0 bc
       -0.026949205 0.02628344 -0.32286662 -0.021581879
000250 6c a9 e8 3d 95 bf 3e bd 9c 63 f6 bd 37 43 3e 3e
       0.1136044 -0.046569426 -0.12030718 0.18580328
000260 3c 9c db 3c ab 0b a7 bd 6b 92 c9 bd 57 aa ac 3d
       0.026807897 -0.08156522 -0.0984238 0.08430927
000270 2c ea e4 bc 48 c2 53 bc ac f3 55 3d 65 5d 72 3d
       -0.027943693 -0.012924738 0.052234337 0.0591711
000280 93 4d d6 3d fb 4e 1a bc db 85 97 be f1 b7 02 bd
       0.10464015 -0.0094182445 -0.2959431 -0.0319137
000290 12 21 63 3d cd 01 e9 bd 6b 8a fa 3d ba c2 a5 bd
       0.05545146 -0.113772966 0.122334324 -0.08093782
0002a0 48 64 a6 bd 43 95 a9 bd 28 b4 6a 3e 25 25 f9 bd
       -0.08124596 -0.082804225 0.22920287 -0.12165288
0002b0 f2 37 8a 3d 1c c4 ff bd 38 a7 25 bd 6d 1a 8b bd
       0.06748952 -0.12488577 -0.040442675 -0.0679215
0002c0 99 90 47 be 6f 09 9d 3b a4 ce 88 3d 4f 8f 3e 3e
       -0.19488753 0.0047923843 0.066800386 0.18609355
0002d0 78 1b ba bc cc 51 7f 3d 7f 48 72 3c 7a cc 82 be
       -0.022718176 0.062333867 0.014787792 -0.25546628
0002e0 bd da 60 3d 01 ae 58 3e c7 3c a3 be c2 66 73 3d
       0.054896105 0.21160127 -0.31882307 0.05942417
0002f0 e3 29 0f be ae 77 cc 3d 32 31 07 3e 98 a3 cc bd
       -0.13980822 0.099837646 0.1320236 -0.099921405
000300 46 cb fe 3d 07 3b d4 bd 2c c8 da 3c 34 7f 40 3d
       0.12441115 -0.10362821 0.026706778 0.04699631
000310 30 7f 18 3c 40 00 37 be 54 c9 3a be 99 a7 2d be
       0.009307668 -0.17871189 -0.18240863 -0.16958465
000320 37 a4 5e be 39 e5 dd 3b 85 ef d5 bd 6c 7c 60 3e
       -0.2174233 0.0067717102 -0.10446075 0.21922463
000330 ac 61 78 be 1c 9b 0f 3d b4 40 8b be 3a 0b 6f 3e
       -0.24256009 0.035060033 -0.27197802 0.23344126
000340 be fb 87 bd 5e 4f 53 3d 7c d5 fd 3c d9 b2 62 bb
       -0.06639813 0.051589362 0.030985586 -0.0034591465
000350 20 2f 39 be 8a 5a 70 bd ae a2 f3 3d 53 87 0c 3e
       -0.18084383 -0.058680095 0.11896263 0.13723497
000360 96 e8 d8 3d 75 b9 00 bb 28 3b 65 bc c1 d8 3b be
       0.10591237 -0.001964179 -0.013991155 -0.18344404
000370 b0 86 d6 bc 19 05 84 be 83 04 e2 bd ea d7 98 be
       -0.02618727 -0.2578514 -0.11036017 -0.2985223
000380 3d e2 35 be f5 3e c6 bd e6 69 a0 3d e3 72 a2 bd
       -0.17762084 -0.09679977 0.078326985 -0.07932069
000390 1c e0 e5 bd 7c b5 91 bd d6 e7 df 3d 12 5e 04 bd
       -0.11224386 -0.071146935 0.10932891 -0.032316275
0003a0 c1 ce 38 3e b2 1b aa 3c 7b 18 57 3e 73 12 7e be
       0.1804762 0.02076516 0.21005432 -0.24811725
0003b0 31 ff 0c 3c 5b 19 9f 3e a6 d1 bc bd 52 9c b1 be
       0.008605764 0.31074032 -0.09219675 -0.34689575
0003c0 34 78 42 3e 55 de c0 3d f6 44 e6 be 18 4e 25 3e
       0.18991166 0.094174065 -0.44974488 0.16143072
0003d0 b1 e4 64 3d c7 98 b6 bd 64 4b 7c be b4 30 28 3e
       0.05588216 -0.08915859 -0.24638134 0.16424829
0003e0 b9 d4 29 be d2 f7 21 3e 7c aa 53 3e d0 fc a5 be
       -0.16585054 0.15817192 0.20670503 -0.32419443
0003f0 e1 2d b7 bd 1b 49 a4 be 66 ea 3d be 03 91 0f be
       -0.089442976 -0.32087025 -0.18546447 -0.14020161

encoder.weight_hh_l0 f4 [256, 64]
000000 c6 2d 8c bd c8 fe 1f bd ec 6d af bb 32 36 90 3d
       -0.06844668 -0.039061338 -0.00535368 0.07041587
000010 fd 04 02 3d df 97 76 bd 22 44 5d 3d f3 fa cb be
       0.03174304 -0.06020343 0.054020055 -0.39839897
000020 9d 8a 92 ba e1 e8 15 be 61 3b e0 3d 23 4d 7d 3e
       -0.0011180226 -0.14639618 0.10948826 0.24736457
000030 e0 65 bb 3c 33 7e 5a 3e b0 36 70 bd 9e 38 ce 3d
       0.022875726 0.21337204 -0.058645904 0.100693926
000040 a5 56 bc 3d d9 b7 23 3f f8 8e cb be ec 30 60 bc
       0.09196214 0.63952404 -0.39757514 -0.013683539
000050 05 66 00 be 74 ae f7 bc 37 be 0b be da e2 04 3e
       -0.12538917 -0.030234553 -0.1364678 0.12977162
000060 a0 e2 92 bc 4b cf 89 bd 5d da 66 3d 70 b3 61 be
       -0.017930329 -0.06728991 0.05636059 -0.22041106
000070 9b d4 48 be 1a ba 2c 3e 7b 50 27 3e 5a 16 ee bd
       -0.19612353 0.16867867 0.16339295 -0.11625357
000080 51 8e c3 3d d6 92 95 bd 09 0c 52 bd cc 35 5f be
       0.09548629 -0.07303397 -0.05128101 -0.21797866
000090 4f 05 d9 3d 86 67 5b bd 69 80 50 3c b4 2d ad 3d
       0.10596716 -0.053565525 0.012725928 0.08455983
0000a0 34 0a aa 3c f6 12 71 3c 20 f6 41 bd 54 ad 0c bc
       0.020756818 0.014713993 -0.047353864 -0.0085862465
0000b0 50 55 7c be 58 ea 36 bd 7a fc 25 be cb 87 36 be
       -0.24641919 -0.04465708 -0.16209593 -0.17825238
0000c0 59 e0 eb bd 11 34 74 bd e3 7b e1 bd c7 9e cc 39
       -0.115174 -0.059619967 -0.11009958 0.0003902821
0000d0 65 43 0b be 24 10 d3 bd fd 0f a9 bc 05 3e 77 3e
       -0.13599928 -0.10305813 -0.020637507 0.24144752
0000e0 1e da 4a be db c8 0c 3e 86 7b 8c bd 02 bd ab 3d
       -0.19809768 0.13748495 -0.06859498 0.0838566
0000f0 70 8c 6f bd 9b 90 77 3e 68 82 57 bd 1c 91 c0 bd
       -0.05848354 0.24176256 -0.0526146 -0.094026774
000100 61 35 67 3e 20 2f b1 3d 17 22 2f be d8 ea c8 bd
       0.22578956 0.086515665 -0.17102848 -0.09810418
000110 a8 8e 99 3d 51 6d 74 3e 6c c3 cd bc 4d 28 90 bd
       0.07497913 0.23869826 -0.025117598 -0.07038937
000120 6c ae 46 bb ad b1 36 3e 86 a7 39 be e8 a4 ad bd
       -0.0030316366 0.17841215 -0.18130311 -0.08478719
000130 3e e6 ab 3e f1 92 e6 bb 3d 1a c5 3e ae 1f ef bd
       0.33574098 -0.0070365597 0.3849658 -0.11675964
000140 d5 e6 26 3e 41 87 ba 3d 71 9e 01 ba 10 43 20 3c
       0.16298993 0.09107829 -0.0004944569 0.009781614
000150 10 7b 89 be d4 5b d8 bd 42 c9 d3 3d cc 0b 8a bd
       -0.26851702 -0.1056439 0.10341121 -0.06740531
000160 d1 5b 13 bd 03 72 88 be 60 5d 63 3d 89 04 d5 3b
       -0.035976235 -0.26649484 0.05550897 0.006500785
000170 1b 5c 0b bf 54 4f 40 3e d7 63 55 3e 2f 92 41 be
       -0.54437417 0.18780261 0.20838867 -0.18903421
000180 a3 d8 24 be 6d 36 3d 3d 7e 4f 12 3e 68 7e 1b be
       -0.16098265 0.046194483 0.14288136 -0.15184939
000190 2a ea 6e 3e dd 50 9d 3b fa 8e 2b be 0a f4 a3 3e
       0.23331514 0.0048008994 -0.1675376 0.32022125
0001a0 0f ab 1b 3e b9 48 43 bb 36 f6 5d be 1b 90 aa 3e
       0.15201972 -0.0029797985 -0.21675953 0.3331307
0001b0 fd 80 63 bd b5 18 05 3d 87 c9 fc bd a7 26 d3 be
       -0.055542935 0.032494266 -0.12343126 -0.41240427
0001c0 e0 95 64 3e 05 f0 f8 3d 95 cb 98 3c 25 ec 90 be
       0.22322798 0.12155155 0.018651763 -0.28305164
0001d0 eb 92 6b be e1 22 68 be 4c 7c 6d 3d 46 54 4e 3e
       -0.23005264 -0.22669555 0.057979867 0.20149335
0001e0 70 7f 14 be 62 19 c9 be 86 c0 34 3e 5b ef 0f bd
       -0.14501739 -0.39277178 0.17651567 -0.035140377
0001f0 6e 55 e1 3c cf 25 51 3e b3 3f 0a be 52 ce 04 3d
       0.027506556 0.20424579 -0.13500862 0.032423325
000200 2f 69 88 3d 6d 04 ff 3c c2 6a c5 3b 8d 5c e7 3d
       0.06660687 0.03113004 0.0060246894 0.112969495
000210 45 1a 4b be 39 d3 2d be ae 5d 97 3d 27 74 14 3d
       -0.1983424 -0.16975106 0.07390915 0.036243584
000220 4e aa 49 be 1e d3 69 3d 3c 81 49 bd fd cb 31 bd
       -0.19693872 0.057086103 -0.049195513 -0.04340743
000230 ff 74 28 bd 13 76 88 3e ea 19 16 3d 0a 69 40 3e
       -0.0411272 0.26652583 0.036645807 0.18790069
000240 90 8b b9 bd 2b 01 b0 3d e9 71 b1 bd f6 d0 c3 bd
       -0.090598226 0.08593973 -0.08664305 -0.095613405
000250 1a 71 68 3d ff 10 36 3d e4 80 19 be 16 c6 a1 bd
       0.056748487 0.044449802 -0.14990574 -0.0789911
000260 3d 28 58 3e 5b b7 25 3e 68 31 c3 bc 0b cf 89 bd
       0.211091 0.16183226 -0.02382727 -0.067289434
000270 49 d0 fd 3d fc 54 33 3c 1a f5 7d 3d 36 d6 e3 bd
       0.12393243 0.010945555 0.062001325 -0.11124842
000280 aa fd 04 bd 7f e6 c4 bd 92 f8 45 bc 8e 04 f5 3d
       -0.032468475 -0.09614276 -0.01208319 0.11963759
000290 5a 80 35 be a1 9b 0e 3e 46 d6 0d be 33 1f 9d 3c
       -0.17724743 0.13926555 -0.1385127 0.019179916
0002a0 d5 f7 12 3d 63 d3 bc 3d 05 da 88 3d 10 e3 07 bd
       0.035880882 0.09220006 0.06682209 -0.033175528
0002b0 6c a8 e6 3d 2f d5 ed bc 37 9f ff bd 90 9d bb bd
       0.11262593 -0.029032318 -0.1248154 -0.09160912
0002c0 f1 7f 64 bd 49 72 e1 bc 16 15 1a 3e 9f 91 37 3e
       -0.055786077 -0.027520316 0.15047106 0.17926644
0002d0 58 4d fa bd 2f bd f5 bd fa c8 42 bc c8 19 1a 3e
       -0.122217834 -0.119989745 -0.011888737 0.15048897
0002e0 3a da b7 bc cf 4d 13 3d 4b a9 ed bd eb 06 e3 3d
       -0.022442926 0.035962876 -0.11604556 0.11085304
0002f0 cf 41 87 3d c4 51 8f bd 3b 89 09 be d1 ca 96 3d
       0.06604349 -0.069980174 -0.13431256 0.07362903
000300 b5 95 d9 3d d0 df 00 be 15 5f 66 be 78 c2 e9 3c
       0.106242575 -0.12585378 -0.22497208 0.028535113
000310 1e d5 19 be bd 50 51 3e 64 fb 3f 3d 9b 02 be bd
       -0.15022704 0.20440955 0.046870604 -0.09277841
000320 42 34 b2 bc fd 11 be bb 77 71 11 be 48 23 c8 bd
       -0.021753434 -0.005800484 -0.1420344 -0.09772354
000330 fd 4d cf 3e 24 5d 87 bd d3 d5 73 3e c0 76 fe bd
       0.40489188 -0.06609562 0.23812036 -0.124249935
000340 62 d7 b7 3e 05 c3 b6 3d 4d 6c 15 be d8 ab 45 3d
       0.35906512 0.08923916 -0.14592095 0.048259586
000350 de f9 63 be 83 a1 95 3d b1 e7 0e 3e 44 79 68 be
       -0.22263286 0.073061965 0.13955571 -0.22702509
000360 d6 ef 5f be 4a 8f 97 be ad e5 f6 3d c9 7d 4b be
       -0.21868834 -0.29601508 0.12055526 -0.19872202
000370 eb 81 b9 be 88 7f fc 3d 5f 3e 27 3d 2b 94 82 bd
       -0.36231932 0.12329012 0.040830966 -0.06375917
000380 6e ec ae 3d 23 d8 a2 3b 3c cd 0f 3e 46 76 02 be
       0.08541189 0.004969613 0.14043134 -0.1274043
000390 87 2f ee 3d 6d e5 c4 3d fe cd 6b be 2a cf a1 3e
       0.11630159 0.09614072 -0.23027799 0.31603366
0003a0 b5 01 87 3e 48 19 00 3e 7c 03 4f be da b2 7a 3e
       0.2636849 0.12509644 -0.20216173 0.24482289
0003b0 e4 8b c3 bc 55 2a 32 be ec 5e be bc eb 81 e4 be
       -0.023870416 -0.17398961 -0.023238622 -0.4463037
0003c0 74 bd 1c 3e f7 2e 59 3e 0d 31 b1 bd a5 88 49 be
       0.15306646 0.21209322 -0.08651934 -0.19681032
0003d0 51 31 b3 bd d7 1c b6 bd 73 44 5c bd 3f 1b 98 3d
       -0.08749641 -0.088922195 -0.053776216 0.07427072
0003e0 9e 5f 30 be b1 18 d5 be 21 e1 05 3e 66 67 5b bd
       -0.17223975 -0.416204 0.13074161 -0.053565405
0003f0 5b 20 b5 3d 40 4d b5 3e 5e f1 e6 bd 7d 51 7d bd
       0.08844062 0.354105 -0.11276506 -0.06184529

encoder.bias_ih_l0 f4 [256]
000000 98 6c ca bd 03 28 3c be 5a e2 88 3c d6 49 5e be
       -0.09883994 -0.18374638 0.016709495 -0.21707854
000010 99 f9 07 be e2 4d 1a be 43 40 65 be 78 63 3a 3c
       -0.13278808 -0.15068772 -0.22387795 0.011376254
000020 b6 7f c8 bd 98 31 be bd 40 6c b8 bd 0a 23 2d be
       -0.09789984 -0.09286803 -0.09005022 -0.16907898
000030 81 f3 90 be ae 8d 37 be b1 9b 36 3e 21 05 5a be
       -0.2831078 -0.1792514 0.17832829 -0.21291019
000040 a9 4a aa bd 03 e9 d3 bd e3 76 ea bd fe 43 38 be
       -0.083150215 -0.10347178 -0.11448457 -0.17994687
000050 f7 92 b1 bd b7 6d cb bd 9c bd 99 bc 5e 0e 03 bd
       -0.086706094 -0.09933036 -0.01876717 -0.031996123
000060 ee da 1a be ae 50 6f bd 07 ce ab 3d 9d f1 80 be
       -0.15122578 -0.05842655 0.08388906 -0.25184336
000070 8b 44 25 3e 77 a5 f8 bd 06 e4 db bd 9e 37 4c be
       0.16139428 -0.12140935 -0.107368514 -0.19943091
000080 ac 89 1a be e2 db 8c bd d7 16 81 bd 6e 06 b1 3c
       -0.1509158 -0.06877877 -0.063031845 0.021609511
000090 c4 f4 0a bc 26 da 36 be e0 4e 58 3d f5 a3 41 be
       -0.008481208 -0.17856655 0.052809596 -0.18910201
0000a0 08 fd 81 bc e8 d9 38 be 24 03 ef 3d bc ef a6 bd
       -0.015867725 -0.18051875 0.11670521 -0.081511945
0000b0 21 b5 ea bd 98 72 1c be bf 92 1a be 77 69 fa 3d
       -0.11460329 -0.15278089 -0.15095042 0.12227147
0000c0 e5 57 40 3e 8d 8d d1 bc 1e ac 5d bd 92 fd be bc
       0.18783529 -0.025580192 -0.054119222 -0.023314271
0000d0 46 55 0f 3e d6 33 e9 bd d8 57 fd bd 29 93 b8 bd
       0.13997373 -0.1138684 -0.123702705 -0.090124436
0000e0 3c 76 97 bd e1 aa d2 bd b2 32 1e bd c4 3f 0f bd
       -0.07395598 -0.10286499 -0.038622566 -0.03497292
0000f0 2b 2e 27 be 07 0b ce bd 6a fc 76 bc 91 76 ac bd
       -0.16326205 -0.10060697 -0.015074829 -0.08421052
000100 21 e9 5c be c9 f2 39 be 47 eb 82 bc ac 49 67 bc
       -0.21573307 -0.18159021 -0.01598133 -0.014116686
000110 89 df 51 be 15 48 b1 bd e4 a0 50 bd 8f 25 ca bd
       -0.20495428 -0.08656327 -0.050934687 -0.09870445
000120 45 06 cf bd 8d 74 2a 3e 05 33 26 bd 2f bd 71 bd
       -0.10108618 0.16646023 -0.040576 -0.05901831
000130 9a b7 8a 3e 67 6a f4 bd b5 dd 87 3a 38 bc f6 3c
       0.27093202 -0.11934357 0.0010365756 0.030119047
000140 84 c6 0a 3d 24 a8 9a bd e0 b0 9b 3d 7c 2d 75 bd
       0.033880726 -0.075516015 0.076020956 -0.05985783
000150 7c 53 ac bd 16 15 2d 3d fb 6e 3d 3e d3 90 e4 3d
       -0.08414361 0.042256437 0.18499367 0.111604355
000160 1b 4f 1a bd c6 54 c9 3d d8 db 8b bd bc 8c 78 bd
       -0.037673097 0.098306224 -0.06829041 -0.06068109
000170 0a 85 b3 3d 4d f7 3f bd fd 95 37 3d fd fe b6 3d
       0.087656096 -0.046866704 0.044820774 0.08935354
000180 f2 00 ca bd 53 58 46 3e 92 1f 32 3e c3 6d 74 3d
       -0.098634616 0.1936963 0.17394856 0.05967499
000190 0a ef a1 3d 27 e8 8d bd 86 b9 e7 3b f8 59 b2 3c
       0.07906921 -0.06929045 0.0070716767 0.021771416
0001a0 3e 24 ee bd 72 00 02 be e7 f0 73 3d bf 38 60 bd
       -0.116280064 -0.12695482 0.059555914 -0.054741617
0001b0 e3 9f 86 bd 0b 00 90 3d c1 35 88 bd 79 77 70 3e
       -0.06573465 0.07031258 -0.06650878 0.23483075
0001c0 b4 02 b3 3d 4c f4 b1 bc 38 08 48 bd e2 e1 63 3d
       0.0874075 -0.021722935 -0.048835963 0.05563534
0001d0 2b 8c 6a bc 93 31 8e 3d 51 7d d0 bd 88 ee dc 3d
       -0.014315645 0.06943049 -0.10180152 0.10787684
0001e0 c9 f4 81 bb c0 5b 08 3e 0d 1d b9 3d e5 50 09 3c
       -0.0039659482 0.1331625 0.09038744 0.008381103
0001f0 fb 32 66 bc 4e dd 73 3d 19 c3 00 bd b8 25 e6 3c
       -0.014050241 0.059537224 -0.03143606 0.028094158
000200 b8 c8 a5 bd 04 c7 a2 3c 05 9d 56 3e 6c 08 91 3d
       -0.08094925 0.019870289 0.20958336 0.070816845
000210 5c 22 c5 bd 5d 49 63 bd 59 74 c2 3d 5f 70 6e 3d
       -0.09625694 -0.055489887 0.09494848 0.058212634
000220 17 69 87 bd 7d c2 20 bd ac 59 10 3d a8 78 4e 3d
       -0.06611841 -0.03924798 0.035241768 0.050408036
000230 5f 14 4d 3e cb 27 07 3e f2 e7 08 be ca 53 84 3b
       0.20027302 0.13198774 -0.1336973 0.0040383087
000240 ea 10 2b be 7b 45 cd bd 03 2e 9a 3d 71 9f 8c bd
       -0.16705671 -0.10023018 0.07528307 -0.068663485
000250 1e 47 57 bd af 8a 9f 3c 12 06 1d bd cf 34 f9 3d
       -0.052558057 0.01947531 -0.038335867 0.121682756
000260 90 68 46 3c 59 a9 0d 3e ed d4 04 be c9 72 0c be
       0.012109891 0.13834132 -0.1297185 -0.13715662
000270 d3 cc 7b 3d 5d a8 9d 3d 23 9b c3 bd b9 23 ac bd
       0.061474632 0.07698128 -0.09551074 -0.08405251
000280 9c 5f 81 bd 82 61 a1 bd 8f e7 a7 3d 00 ba a0 3d
       -0.06317064 -0.07879926 0.08198463 0.07847977
000290 f5 f8 79 be 13 a6 10 3e 27 41 0f 3d e4 81 d9 3d
       -0.24411376 0.14125852 0.034974243 0.10620478
0002a0 d2 38 05 be 67 c5 24 3e 39 fb 3a 3e 28 59 bf bd
       -0.13009956 0.16090928 0.18259896 -0.09343177
0002b0 ea a1 c4 3d 5b c0 da bd b6 c6 52 3d 35 ba 32 3e
       0.09601195 -0.1068122 0.051459037 0.17453845
0002c0 c1 a2 54 be d1 cc 17 bd a3 cd a8 bc 7c ec 3f 3e
       -0.2076521 -0.037060563 -0.020605868 0.18742555
0002d0 d6 05 98 3d 8e c8 54 3d 13 ec 5f bd e8 49 46 bd
       0.07422988 0.051949076 -0.054668497 -0.048410326
0002e0 c4 e6 53 3d 36 78 ae 3d 55 06 27 be bc 71 6b 3b
       0.051733747 0.08519022 -0.16311009 0.0035925945
0002f0 41 7c 35 bd 32 28 59 be a2 14 c2 bd 07 94 3a 3e
       -0.04430795 -0.2120674 -0.09476592 0.1822053
000300 1e 60 54 be 80 0a 43 bd a5 f9 da bc fe ab 38 be
       -0.20739791 -0.047617435 -0.026730368 -0.1803436
000310 1a 74 b7 bd 92 4a 55 bd 99 5d 58 be fe 1c d3 bd
       -0.089576915 -0.05207307 -0.21129455 -0.10308264
000320 28 81 1d be 70 8c 5c 3e 45 b1 49 3d f0 4d ca bd
       -0.153813 0.21537948 0.049241323 -0.09878147
000330 ca 09 8c 3d 8b d5 1d be 1d 8c 97 3c 33 3b ff ba
       0.068378046 -0.15413491 0.018499428 -0.0019472599
000340 df c3 c0 3b fd aa 79 3d e2 72 8a bd 1e ab 78 be
       0.0058827247 0.060954083 -0.067601934 -0.24284026
000350 2f f3 1a be 1e 1d 3e be f3 2d 0a 3e f6 0b 81 3d
       -0.1513183 -0.18565795 0.1349409 0.063011095
000360 b1 63 76 3c 70 ee 23 bc 69 94 39 3d 7a bb ca bd
       0.015038417 -0.010005578 0.04530755 -0.098990396
000370 8f 14 d6 3d d4 2f 0f be a0 60 56 3d 1c b8 a2 bd
       0.1045314 -0.13983089 0.052338243 -0.07945272
000380 4e d3 8c bd be 07 79 3d ce e8 87 bd 48 c6 9f bd
       -0.06876241 0.0607984 -0.06636201 -0.07801491
000390 77 ae 45 be 91 01 17 3d 72 a4 af bd d2 d0 62 be
       -0.19304834 0.03686673 -0.08576287 -0.22149971
0003a0 73 34 20 be 6f df a2 bd 39 df 63 3c c4 9a 82 3c
       -0.15645008 -0.07952773 0.013908201 0.015942939
0003b0 6d ac 5c bc 2b 8a 33 be 59 52 38 be d9 81 19 3e
       -0.013468844 -0.17533176 -0.18000163 0.14990939
0003c0 22 08 79 3e 6b 0a 7d 3c cd 8d ce bd 03 b8 70 bc
       0.24319509 0.015444378 -0.1008564 -0.014692309
0003d0 93 7d ba bd 4d 50 0c 3d e9 ae 1f be ee 20 01 be
       -0.09105983 0.03425627 -0.15594067 -0.12610218
0003e0 75 10 50 3d 77 da 77 bd 78 77 36 3d 53 81 04 bd
       0.050796945 -0.06051108 0.044547528 -0.032349896
0003f0 bb 25 39 bd 71 6d 9b 3d 22 9a a5 bd 04 29 d0 bd
       -0.045202 0.07589234 -0.08086039 -0.10164073

encoder.bias_hh_l0 f4 [256]
000000 4e 00 c6 bd 0e eb 84 bd 06 27 da 3c ef de 50 be
       -0.09668027 -0.064901456 0.026629936 -0.20397542
000010 07 bf 68 be 8b 4f 9a 3d a3 7b 2f be 6a 4f 01 bd
       -0.22729121 0.07534703 -0.17137007 -0.031569876
000020 9d 9b e1 bb fb ee 83 bd 61 92 e6 3c a2 16 24 be
       -0.0068850056 -0.06442066 0.02814597 -0.16024259
000030 f1 b3 b9 bd b7 01 8b be f7 f0 b9 3d 33 b3 7b bd
       -0.09067524 -0.27149746 0.090791635 -0.061450195
000040 bc b3 15 3d c3 8b 37 3d d1 46 5e be 74 68 5e be
       0.03654836 0.04481102 -0.21706702 -0.21719533
000050 36 9f fc bc dc fa 78 be b2 cd 82 bd a8 e6 ae 3d
       -0.030837636 -0.24314445 -0.063868895 0.08540088
000060 85 ea 53 3b 38 bb 46 3c 8e 42 9a bd 77 63 50 bd
       0.003233583 0.012129597 -0.075322255 -0.050876107
000070 7f e5 46 bd fc 1b b0 bd 37 0d ac bc 4d b5 40 be
       -0.04855871 -0.085990876 -0.021002395 -0.18819161
000080 65 9b 61 bd 6e 77 27 be 4c 3d 12 3a 6f 16 ba 3d
       -0.055079836 -0.16354153 0.0005578592 0.0908631
000090 8b cd 20 b9 06 64 4c 3d 60 53 b4 3c b9 a5 c3 bd
       -0.0001533536 0.049900077 0.022012413 -0.095530935
0000a0 d5 73 b9 bd 92 81 2f be 68 87 4b 3d 97 f6 24 be
       -0.09055296 -0.17139271 0.04968968 -0.16109692
0000b0 6a 98 72 ba 28 29 b4 bd 91 53 80 bd 72 54 7f 3c
       -0.0009254279 -0.087969124 -0.06265939 0.015584098
0000c0 86 db ac 3d 6f 42 11 be 30 d8 7e be 9c 45 93 3d
       0.08440308 -0.14185499 -0.24887156 0.07191011
0000d0 c8 96 9c 3d e1 11 65 bd 0e 85 55 be 76 32 2e bc
       0.07645947 -0.055925254 -0.20851538 -0.010632148
0000e0 d2 71 6d bd 3b e9 81 bc be 8e 33 3d f0 c6 fc bb
       -0.057969876 -0.015858283 0.0438373 -0.007714145
0000f0 0c 50 bf bc 1d 5d 51 bd a0 95 fd bc b8 f0 6c 3c
       -0.023353599 -0.05111419 -0.030955136 0.014461689
000100 d9 d9 43 bc 65 84 b1 bd 17 05 27 bc 45 68 99 bd
       -0.011953794 -0.086678304 -0.010194085 -0.07490591
000110 92 b3 90 be 86 f3 7e bd 62 df 47 3c 42 2e 77 bd
       -0.28262 -0.06224396 0.012199255 -0.06034685
000120 6a 30 da bd 4b 6a 43 3e 29 d4 13 3e 3b f1 6e 3d
       -0.106537655 0.19083516 0.14436401 0.058335524
000130 5f e6 80 3e cf e3 3d be 47 12 ba 3d ec e5 7f 3d
       0.2517576 -0.18543933 0.090855174 0.06247513
000140 76 9c 42 3e 2d 32 fb bd 9b d1 d2 bc f2 43 51 be
       0.19004998 -0.1226543 -0.025734713 -0.20436075
000150 13 d5 8c bd 8e f4 ea bd 18 f5 69 3e 81 c8 f2 3d
       -0.06876578 -0.11472426 0.22847402 0.11854649
000160 64 75 ae 3d 36 7d 89 3e e1 82 5b 3d 23 df c7 3d
       0.08518484 0.2685334 0.053591613 0.09759357
000170 a9 c4 84 3e 1b 18 ba bb 18 a1 c1 3d fc 7c 8d bd
       0.2593129 -0.005679143 0.09454554 -0.069086045
000180 b3 e2 81 bd 5d ca 19 3e 79 b1 14 3e de ac 4f 3d
       -0.063420676 0.15018602 0.14520825 0.05070197
000190 a6 e9 41 bd aa 95 3a bd 4d 2c d2 bd 92 31 3f 3d
       -0.047341965 -0.045552887 -0.10262356 0.046678133
0001a0 32 81 e8 bd b5 d3 49 3b 13 83 63 3e 32 b3 a5 3b
       -0.11352767 0.0030796353 0.2221797 0.005056762
0001b0 f7 67 96 bc 12 a6 18 3d af 86 b1 bd 37 99 05 3e
       -0.018360121 0.037267752 -0.08668267 0.13046728
0001c0 15 76 70 3d 8a 8a e2 3c e2 b2 96 3c fd 99 02 3e
       0.05870636 0.027653951 0.018395845 0.12754054
0001d0 49 dd 91 3d d4 eb 2b 3d 00 5e de bd 81 e2 43 bd
       0.07122285 0.04197295 -0.10857773 -0.047823433
0001e0 a6 86 eb bd bd e5 6c 3c 89 e4 20 3e 6d 89 ad bd
       -0.115002915 0.014459071 0.15712179 -0.084734775
0001f0 30 06 81 bd 0b d6 f3 3d e8 bc f8 3b 40 a8 30 bd
       -0.06300008 0.1190606 0.0075908788 -0.043129206
000200 44 4d e9 3d d1 29 ac bd 1b 84 4c 3e ae 0a b7 3d
       0.113916904 -0.08406413 0.19972269 0.08937584
000210 fa 6e b2 3d d0 92 a7 bc 70 83 24 3d 7f 07 ca 3d
       0.08712573 -0.020455748 0.04016441 0.09864711
000220 d3 55 4f 3a de 9d 42 be f9 b7 55 3c 4a 73 40 3b
       0.0007909212 -0.19005534 0.013044351 0.0029365593
000230 94 37 93 3c bf b2 a0 bb 7e c6 3a be 01 cc 2b 3e
       0.017970838 -0.0049041207 -0.18239781 0.1677704
000240 05 89 d5 bc 5c 51 f8 bd c6 8b 8e bd 8f 6a a8 3d
       -0.026066313 -0.12124893 -0.069602534 0.082234494
000250 70 55 6c bd 2c 92 7e bc 84 94 ee bd 46 9c 82 3d
       -0.057698667 -0.01553778 -0.11649421 0.06377463
000260 f1 48 8a 3d 9f d2 38 3e a9 0c 27 be d6 b9 bc bc
       0.06752194 0.18049096 -0.16313423 -0.023037832
000270 09 74 49 3e 6b ac af 3d ee 2d c4 bc 04 29 50 bd
       0.1967317 0.08577808 -0.023947682 -0.050820366
000280 2e a4 02 3e 7d c1 03 be 83 ad 82 3d c2 07 17 3e
       0.12757942 -0.12866779 0.06380751 0.14749053
000290 29 d2 65 bd a7 7b 9f bd 04 ba 36 3d 0a f9 66 bd
       -0.056108627 -0.07787257 0.044610992 -0.056389846
0002a0 85 16 19 be 67 3f 56 3d d8 59 19 3e b3 5d a5 3d
       -0.14949997 0.05230656 0.14975679 0.08074512
0002b0 21 f0 ae 3d fe 3e 1f 3c 1c 8a a5 bc 23 c3 d4 3c
       0.08541895 0.009719608 -0.020207457 0.025971955
0002c0 2b 69 23 be ab 45 e5 bd 36 6e b9 3c 6b 2b d4 3d
       -0.15958087 -0.11194929 0.02263556 0.10359844
0002d0 59 5e fd 3d 8d 91 1d 3e 3f d1 26 be d2 11 7b bd
       0.12371511 0.15387554 -0.16290759 -0.06129629
0002e0 f1 12 13 3e 12 65 56 bd 54 13 0a be 53 dc b6 3d
       0.14362694 -0.052342482 -0.13483936 0.08928742
0002f0 82 5e 97 3d bf b7 c2 bd 21 92 73 3c fd 64 b4 3d
       0.07391073 -0.09507703 0.014866383 0.088083245
000300 51 0c ef bd 47 20 5f be 9a 6b a2 bd 9b 2b 4a be
       -0.11672271 -0.21789657 -0.079306796 -0.19743197
000310 f9 38 80 be 4a 24 b8 bc 50 c8 e8 bd 57 ab ef bd
       -0.25043467 -0.022478241 -0.113663316 -0.11702602
000320 9a e2 12 be 15 bd c1 3d 2c b7 18 bc 33 58 d2 bc
       -0.14344254 0.09459893 -0.009321015 -0.025676822
000330 63 f3 46 3e b3 2e cf bd e6 34 11 3e ac c7 3e 3e
       0.19428782 -0.10116329 0.14180335 0.18630856
000340 12 f3 8c 3d 80 04 97 bd a5 5c fa bd 75 b8 0b be
       0.068822995 -0.07373905 -0.12224702 -0.13644584
000350 49 13 31 be 20 f7 38 be e6 60 f8 3c cb 95 f8 bc
       -0.17292513 -0.1806302 0.030319642 -0.030344864
000360 a9 14 a2 bd 9b 12 24 3a 00 e1 fa 3c d8 ba c1 bd
       -0.07914097 0.0006258876 0.030624866 -0.09459466
000370 01 ce 17 3d 37 24 6a be 15 8f 97 3d 4b b0 49 bd
       0.037061695 -0.22865377 0.074003376 -0.04924039
000380 ce a9 72 bd 87 2a e4 3c f1 e1 7a bd 08 70 6c bd
       -0.05924397 0.02785231 -0.06125063 -0.05772403
000390 d5 da bd bd 4e 1a 98 bd 8c 25 dc bd 8c bc d2 bc
       -0.092702545 -0.07426892 -0.10749349 -0.025724672
0003a0 c9 fb 14 be c3 d7 1c be 9d 77 3e 3e 07 5c 6d 39
       -0.14549173 -0.15316682 0.18600316 0.00022636364
0003b0 51 18 d2 bd 0d bf 11 be 92 43 da bd 1f e9 92 3d
       -0.10258544 -0.14233036 -0.10657419 0.071733706
0003c0 ce c6 61 3e 6b 9e 52 3d 55 bb 84 be c5 df b2 3c
       0.22048494 0.05142061 -0.25924173 0.021835217
0003d0 0d bd cd bc fe 45 d7 3c e6 23 c0 bd 95 fe c1 bd
       -0.02511456 0.026278492 -0.09381847 -0.09472386
0003e0 dc a5 68 3d 81 79 bd 3d 26 c5 08 3d 0f 50 52 3c
       0.0567988 0.09251691 0.03339114 0.01283647
0003f0 9f ad 6a bd a8 4e 82 bd 09 d0 1a be a1 51 cf bd
       -0.057294484 -0.06362659 -0.15118422 -0.10122991

decoder.weight_ih_l0 f4 [256, 64]
000000 ef 68 cd 3c 9e 0a db 3d 36 b5 51 bc 5a 8a 85 bd
       0.02507445 0.106953844 -0.012799552 -0.06520529
000010 24 92 7d 3a 03 97 0a 3e 42 36 24 be 72 2f 22 be
       0.0009672961 0.13534169 -0.16036323 -0.15838411
000020 5c be 94 3d d4 a2 0c 3e 39 ae fb bd 1c b2 16 3d
       0.07262871 0.13733989 -0.1228909 0.036790952
000030 ec 21 a8 3d 72 ad 00 bd ac d8 36 3e 51 7e 02 be
       0.08209595 -0.03141541 0.17856091 -0.12743498
000040 47 92 35 bc 2f c4 0d 3e e9 85 01 bd e8 56 fe 3d
       -0.0110822385 0.1384437 -0.031621847 0.1241892
000050 b0 8f 58 3b 8d c0 7b bd 1d fd dc 3d 14 85 8e bc
       0.0033044629 -0.061462928 0.10790465 -0.017397441
000060 46 5b d0 3c 85 89 18 3c 7e 99 42 3e 31 b5 16 be
       0.025434148 0.009310131 0.19003865 -0.14717557
000070 a7 ae 15 bd 1c 47 97 3c 6f ca 69 bc 08 92 13 3d
       -0.036543515 0.018466525 -0.014269455 0.036027938
000080 0b 79 b3 bb c5 86 89 3d 3e 2b 0a bd 41 39 2b be
       -0.005477076 0.067151584 -0.033732645 -0.1672106
000090 fa 35 c8 3d 82 40 98 3d 94 ea 1a be f7 f0 28 ba
       0.0977592 0.07434179 -0.15128547 -0.0006444598
0000a0 29 69 34 3e 0f c2 25 be 36 fd be bd d0 fd 21 3a
       0.1761824 -0.16187309 -0.0932564 0.00061794836
0000b0 c4 5c 2b be 07 12 1b be ff 40 28 3e 90 a3 c0 bd
       -0.16734606 -0.15143596 0.16431044 -0.09406197
0000c0 83 ae 89 3d 78 43 00 bd 32 33 05 3d 66 8c 6f bd
       0.067227386 -0.031314343 0.032519527 -0.058483504
0000d0 c7 6d 2b bd ee d6 00 be 38 65 9f 3d 64 b9 8b 3d
       -0.04185274 -0.12581989 0.07782978 0.0682247
0000e0 71 08 73 bd 92 61 34 3d c2 e6 1e 3e 94 81 0f be
       -0.059334222 0.044038363 0.15517715 -0.14014274
0000f0 36 31 27 bd 2b 71 d1 3d 3b 40 18 3b bd 1d 17 be
       -0.040818416 0.10226663 0.0023231644 -0.14757438
000100 39 37 63 bd 79 2a 21 be 01 c7 ca bc 32 1b 01 3e
       -0.055472586 -0.15738858 -0.024753096 0.1260803
000110 13 fd 75 3c 3d dc be bd 37 28 01 3e 53 33 86 3d
       0.015013951 -0.09319351 0.12612997 0.06552758
000120 a4 16 39 bd 68 74 38 3c 97 af 8b 3c 9f e1 6d 3c
       -0.045187607 0.011258222 0.017051501 0.014519124
000130 b9 cf 56 be 56 38 06 3e 50 51 13 3d 48 15 7d bb
       -0.20977677 0.13107428 0.035966218 -0.003861742
000140 20 8d ba bd 09 4f 64 bd 01 f7 80 be 1a 71 f2 bd
       -0.09108949 -0.055739436 -0.2518845 -0.11837979
000150 48 74 e6 bd 43 fc a6 3d ae 60 80 bd 17 9f c4 bd
       -0.11252648 0.08153584 -0.0626844 -0.096006565
000160 82 03 a1 3e a0 65 01 3a 78 39 d1 bd da 76 a2 3c
       0.3144799 0.0004936103 -0.102160394 0.019832063
000170 1e 63 ce ba 66 76 12 3e 54 93 4b 3a b7 f5 be bd
       -0.0015746092 0.14302978 0.0007765789 -0.0932421
000180 be 05 b5 bd f1 ce 9f bd 72 ca f7 3d b4 87 bb bd
       -0.08838986 -0.07803143 0.1209916 -0.09156743
000190 58 b9 22 bc 2a be 6c bd fb a7 13 3e bc e7 f7 3b
       -0.009931885 -0.057798542 0.14419548 0.0075654667
0001a0 f8 d1 9e bd a8 be fd 3c 0d 66 12 bd 5f 22 e2 3d
       -0.07754892 0.030974701 -0.035741854 0.11041712
0001b0 a4 88 75 bb cf 9a 81 3c 8a 35 f5 bd b5 11 d3 3d
       -0.0037465477 0.015820889 -0.119731024 0.10306112
0001c0 37 c6 7e bd 70 0f 05 be dc 75 4b bd e1 30 4a 3c
       -0.06220075 -0.1299417 -0.049672946 0.012340755
0001d0 49 f4 93 3e 30 46 7a 3d 5f 6c 02 be 63 70 ac 3c
       0.28897312 0.061102092 -0.12736653 0.021049684
0001e0 9c 25 19 bd d1 c1 84 3d 63 9c f5 bc c6 fd 49 be
       -0.037389383 0.0648228 -0.029981798 -0.19725713
0001f0 3f 4e 44 3e 05 35 d7 bd a1 91 b4 3d b5 1f 34 3e
       0.19170474 -0.105081595 0.08816839 0.1759022
000200 0d 60 0c 3d f1 53 d7 3d 2c cd 58 be 57 28 40 bc
       0.03427129 0.105140574 -0.21172017 -0.011728368
000210 07 a4 97 bb 4c a0 85 3d b7 06 8d 39 2b 1a 26 be
       -0.004627708 0.06524715 0.0002689862 -0.1622092
000220 92 2c fd 3d 26 16 11 3e 69 16 d0 3b 63 29 c1 bd
       0.12362017 0.14168605 0.0063503277 -0.09431722
000230 52 2f 75 bb 83 2c 99 bd 5b ee 4b 3e dd 7a 26 bd
       -0.0037412238 -0.07479193 0.19915144 -0.040644515
000240 f7 e4 24 3e 1f 5c d0 3b e7 69 f7 3d ec 09 4d bc
       0.16102968 0.006358638 0.12080746 -0.012514573
000250 a5 87 08 be f6 96 fe 3c f0 2e 91 3e 62 31 8a bd
       -0.13332994 0.031077843 0.28356123 -0.067477
000260 c8 3f c3 bc 96 34 46 be 98 10 c5 3d b7 21 44 be
       -0.023834124 -0.19355997 0.09622306 -0.19153486
000270 e5 61 63 be 8b 88 3d 3e 6f d2 57 3e 0f e9 02 be
       -0.22205313 0.18509118 0.21076368 -0.12784217
000280 ab b8 5b bd 54 8a 92 bd 20 59 2a 3e d3 81 c0 bd
       -0.05364291 -0.0715529 0.16635561 -0.09399762
000290 eb 4a b7 3d 19 9b 5e 3e ed ab 58 bd 27 5b 73 3e
       0.08949836 0.21738853 -0.052898336 0.2376524
0002a0 14 2a 81 3d 33 ff d5 bc 6a 85 92 bd 9f 4f f3 3d
       0.06306854 -0.026122665 -0.07154353 0.11880421
0002b0 9d 09 41 be 8e 4b 89 bd 2b 8e 23 3d 9c 6b 8b be
       -0.18851323 -0.06703864 0.039930504 -0.27230537
0002c0 4a 21 75 3d 5c 88 2c bd 7e 04 05 bd c8 33 89 be
       0.0598462 -0.04212223 -0.032474987 -0.26797318
0002d0 5d f2 f2 bc 2c 40 4e be f3 06 33 3e 0f 8f 41 3e
       -0.029656583 -0.20141667 0.1748312 0.18902229
0002e0 8a 0d 74 bd 7b e0 4c be a0 0d 89 3d 56 61 14 be
       -0.059583224 -0.20007508 0.06692052 -0.14490256
0002f0 cf e1 39 3e a9 56 6b 3e f4 64 2d be c7 8f 32 3c
       0.18152545 0.22982277 -0.16933042 0.010898537
000300 71 f7 69 3d 22 0f 08 bd f1 7b 89 3b f5 95 d4 3c
       0.057120744 -0.033217557 0.004195683 0.025950411
000310 bb a7 8e 3b 7c b6 07 3e 21 0a 26 be 1b db ac 3c
       0.004353491 0.13253206 -0.16214801 0.021100571
000320 39 c2 10 3e 2f 47 47 bd 0e 45 c9 bc ff dd 2c be
       0.1413659 -0.04865187 -0.02456906 -0.1688156
000330 21 c9 09 3e 02 f6 6c 3d 0b bc 09 3b 6c 3d 80 3d
       0.13455631 0.0578518 0.0021016623 0.06261715
000340 22 1e 53 3e 3e f7 b2 3b 82 e1 29 bc 4c 05 ba 3d
       0.20616964 0.0054616025 -0.010368707 0.090830415
000350 63 ee 10 bd 81 87 17 3d 4d 5b 36 3c ab ec 51 bd
       -0.035383593 0.03699446 0.011130166 -0.051251095
000360 48 7e 87 3d 9a ec 19 3d 61 17 ae 3d 4d 5c 92 3c
       0.06615883 0.037579156 0.08500553 0.017866278
000370 24 7b 11 be b5 9c 0b 3e 35 92 f0 3d 1e ba f6 bd
       -0.1420713 0.13633998 0.11746637 -0.12047218
000380 4f c1 34 bd c6 df bb 3d 6a f0 3c 3e fe cf ca bd
       -0.044129666 0.09173541 0.18451086 -0.099029526
000390 53 38 71 bd 31 81 aa bc 43 aa 8b bd a9 5c 55 3d
       -0.058891606 -0.020813556 -0.06819584 0.05209032
0003a0 f9 09 01 3c 28 d1 8d 3d 42 82 09 bc bf 0b f0 3d
       0.007875913 0.06924659 -0.008392872 0.117209904
0003b0 ab 6f 31 bd 1d 48 c0 bd 0f 46 31 3e ee 2c 29 be
       -0.043319385 -0.093887545 0.17311881 -0.16521046
0003c0 7e 3c fd 3d d8 fe dc 3b f0 fa 20 bc 10 9e 88 3c
       0.123650536 0.006744247 -0.009825453 0.016676933
0003d0 f4 3d df bd 2b 54 2c bd 69 cb 0c 3d 71 1d 31 3e
       -0.109004885 -0.042072456 0.034373675 0.17296387
0003e0 1f 03 f9 bd 25 18 0a 3c 6b c6 24 3e d8 c9 25 be
       -0.121587984 0.008428608 0.16091315 -0.16190279
0003f0 f9 a0 b4 bc 7d 11 6b 3d f0 cb fe bd 7d d9 7f bd
       -0.022049414 0.057389725 -0.12441242 -0.062463272

decoder.weight_hh_l0 f4 [256, 1]
000000 1c 89 a1 3e 90 91 fd 3c 5c d3 18 bd 6f a1 ae 3e
       0.3154992 0.030953199 -0.037310943 0.3410754
000010 4f d3 15 3e 28 93 9d 3d a9 b8 ba bd 20 b2 92 3d
       0.14631389 0.076940835 -0.091172524 0.07162881
000020 20 81 38 3e 40 6a 02 be 99 50 54 be 68 d0 18 3e
       0.18018007 -0.12735844 -0.2073387 0.1492325
000030 0a 1b 8b bd 37 f6 70 3d 14 9a b9 3a f7 f1 bf bc
       -0.06792267 0.05882856 0.0014160299 -0.023430808
000040 ea 10 8f 3e ca 00 5b bd 0d 4f 64 bf eb fe 26 3c
       0.27942592 -0.05346755 -0.8918312 0.010192613
000050 92 5e 13 be de bb 92 3d 79 66 b0 bc 3d b6 12 3e
       -0.14391544 0.07164739 -0.021533238 0.14327331
000060 9c 83 3c be 8c f0 11 c0 b3 19 21 3e 39 de 94 be
       -0.1840958 -2.2803068 0.1573246 -0.29075792
000070 d6 e3 83 3e 72 c8 95 bf ac 26 5e 3e d0 4f b8 3e
       0.25759763 -1.1701796 0.2169444 0.35998392
000080 75 c4 ce 3d 19 55 01 3f ce 47 a7 3e 36 bc ee 3c
       0.10096065 0.50520474 0.3267197 0.02914248
000090 4a ae a3 3d 3e e5 56 bd a1 a6 b8 3d d6 ef 46 bd
       0.079922274 -0.052464716 0.09016157 -0.04856857
0000a0 a5 84 ef bd b5 cb b2 3e 86 9b 65 3e 36 71 7f 3d
       -0.11695222 0.3492104 0.22422609 0.062363826
0000b0 64 3e 69 be 1a 5d d6 3d 9a c5 1a 3f 60 ba c2 be
       -0.22777706 0.104669765 0.60457766 -0.38032818
0000c0 0d 7d af 3d 5d 7c ec 3e 02 09 df 3d 36 3f 3d 3e
       0.085687734 0.46188632 0.1089039 0.18481144
0000d0 07 13 64 3e 13 30 24 be db 33 50 3e 2a d9 80 bf
       0.22272883 -0.16033964 0.20332281 -1.0066273
0000e0 7a de a8 3e b2 11 0a 3e 75 44 50 bd c0 be c4 3e
       0.32982236 0.13483313 -0.050846536 0.3842678
0000f0 5d 01 1a 3e a5 b8 96 3c b7 56 16 bf 0b 31 03 3b
       0.15039583 0.018398592 -0.58726066 0.0020018246
000100 c4 83 e8 3e 3e 27 4f be 28 84 2f bd d9 d4 9d 3e
       0.4541303 -0.20229813 -0.042850643 0.30826452
000110 a9 23 e2 3d 07 a9 e2 bc 1a 22 40 be 4b 6b 10 3e
       0.11041958 -0.02766849 -0.18763009 0.14103429
000120 f5 71 94 3e ba fc 0e be 1d b7 a9 bd 08 46 2c 3e
       0.28993192 -0.13963595 -0.08286879 0.1682359
000130 0d ac 9a bd 66 64 37 bb 29 e0 21 3c 6a a7 76 bb
       -0.07552347 -0.0027983426 0.009880104 -0.0037636408
000140 b8 ea e4 3e 89 4b c5 bd b2 35 87 3f 51 07 5a bd
       0.44710326 -0.09633548 1.0563262 -0.053229634
000150 d2 f6 2a be 1a 09 9c be 5a d6 57 bd a9 aa 5f 3d
       -0.16695717 -0.30475694 -0.052694656 0.054606114
000160 65 d0 ac bd 99 b8 86 bf 0e 8b 12 bc 57 85 ef be
       -0.084381856 -1.0525085 -0.008944286 -0.46781418
000170 10 14 58 bd c5 a9 84 bf 50 96 f5 bd f2 ed 85 3f
       -0.052753508 -1.036431 -0.119915605 1.046324
000180 91 a0 82 3e 4c fc ce 3f 7d 8a a3 3e 4b 2f bd bd
       0.25513127 1.6170745 0.31941596 -0.09237536
000190 cb ee d0 3b 3b 35 36 bd 0f 47 55 3d ee 6f 09 be
       0.0063761226 -0.04448436 0.05206972 -0.13421604
0001a0 f0 af f8 bd cc c0 1b 3e c2 13 16 be 02 8a b7 3d
       -0.121429324 0.15210265 -0.14655975 0.0896187
0001b0 43 7c 0a bf bc f3 b2 3d 6f c2 c2 3f ef 49 03 bf
       -0.5409586 0.08737895 1.5215586 -0.5128469
0001c0 14 82 c4 3c 78 c0 a2 3f 2e 0a a8 3d 73 a6 87 3c
       0.023987807 1.2714987 0.082050666 0.016558861
0001d0 70 44 dd 3d c0 6b b8 bd 6f ea c1 3d 06 0d 86 3f
       0.10804069 -0.09004927 0.09468543 1.0472724
0001e0 75 af 8b 3f 9d f3 23 3e 5d c9 7c be 66 e6 a5 3e
       1.091292 0.160109 -0.24686189 0.32402343
0001f0 9e 1b 8e 3d 56 df 6b 3c b0 53 1f bf ef c4 bc 3d
       0.06938861 0.014396509 -0.6223707 0.092172496
000200 25 c5 5e 3d 55 fc 6c be fd cd d6 bd 4e b4 f7 3c
       0.05438723 -0.23143132 -0.10488508 0.030237343
000210 1f e8 ec 3c 04 23 0f be 85 0a a5 bd 18 db ef bc
       0.028919278 -0.13978201 -0.08058647 -0.029279277
000220 b8 02 44 3d 8a da 8e 3e f2 85 20 be 47 6e 00 bd
       0.047854155 0.27901107 -0.15676096 -0.03135517
000230 9a 24 5c 3e a1 3a 81 3d 5d 95 18 bc 42 f5 e0 3c
       0.21498337 0.06310011 -0.009312955 0.027460698
000240 3b e2 24 be fa 81 02 be b4 b7 17 3f e5 62 ad 3e
       -0.16101925 -0.12744895 0.59264684 0.33864513
000250 7c ed 28 3e c3 40 73 bb 04 7e b8 3d 78 15 61 3c
       0.16496843 -0.0037117458 0.090084106 0.013738029
000260 90 8e ad 3e 26 c0 5c 3f f3 1e ba 3d 17 63 06 3d
       0.3389783 0.86230695 0.09087934 0.032809343
000270 64 f2 2a be 94 80 03 3f 51 ce ac 3e 67 dc 66 be
       -0.16694027 0.5136807 0.33751157 -0.22545014
000280 83 ac e6 3d b1 8a b7 be 48 04 07 3d e6 1c a8 3b
       0.11263373 -0.35848 0.032963067 0.005130398
000290 a8 5c b4 3e 0b 93 f5 bb fd 11 5f 3e f1 0a 04 bd
       0.3522694 -0.0074943355 0.21784206 -0.032236997
0002a0 a1 03 a7 3e e4 e7 7a 3d 5a 3d d7 3d 8b d3 2c 3d
       0.32619956 0.061256304 0.10509749 0.04219393
0002b0 0c fa 1b bd 3a a7 de bd 4c 66 e6 be 62 4b fd 3d
       -0.03808026 -0.1087174 -0.4499992 0.12367894
0002c0 3c 2b 27 3e a1 3d 55 3e 71 78 5d 3e 61 bc e8 bd
       0.16325086 0.20824291 0.21627976 -0.113640554
0002d0 e7 b6 a3 bd ca 21 63 3e 7e 2c a1 bd c1 1b a6 3e
       -0.0799387 0.22180858 -0.07869814 0.3244305
0002e0 38 31 2f be 95 d5 07 3d cf 1f 83 3d 63 47 27 bd
       -0.17108619 0.033162672 0.064025514 -0.040839564
0002f0 94 cc 5a bd 48 40 e0 bd eb 69 ac be 37 d0 b6 bd
       -0.053417757 -0.10949761 -0.3367456 -0.089264326
000300 56 20 cb 3d a2 af 11 3d 82 37 29 bd 1e f0 56 3e
       0.09918277 0.035567887 -0.041312702 0.20990035
000310 1f 90 8d 3c 4e ce 7a bd 6e 34 1e be 56 a8 39 3d
       0.017280636 -0.061231904 -0.15449688 0.045326553
000320 3a 12 30 3e 0d a1 08 be f1 18 a7 be 8a 17 51 3e
       0.17194453 -0.13342686 -0.32636216 0.20419136
000330 89 33 f5 bc 95 11 cf 3d 6a 76 4c bd a4 af f9 bd
       -0.0299318 0.101107754 -0.049917616 -0.12191704
000340 f9 98 4d 3e 84 9e 13 be 1f 18 25 3f 2c 3d 07 3e
       0.20077886 -0.14415938 0.6448993 0.13206929
000350 b2 cc e6 be 0b 75 00 bf 6f 5f 0b 3e 31 f6 dc bd
       -0.45078045 -0.50178593 0.13610624 -0.10789145
000360 d7 32 26 bd c2 0a 63 c0 e2 56 e3 3c 34 37 05 bf
       -0.04057583 -3.5475316 0.02775139 -0.5203736
000370 db 2a 19 3d 53 c7 8a bf 7f c6 8b 3e 52 58 53 3f
       0.037394386 -1.0842079 0.27299878 0.8255664
000380 5a 18 84 be 0a 59 ee 3e df 28 f4 3d 73 77 b4 3c
       -0.2579983 0.46552306 0.11921858 0.022029614
000390 68 15 2d 3e ef 3c f1 bd 4b c0 c7 3d c2 46 7f bd
       0.16902697 -0.117792 0.09753474 -0.06232334
0003a0 43 73 c2 bd cb 7c 41 3e 60 49 91 bd 7d 4b 3b be
       -0.09494641 0.18895261 -0.07094073 -0.18290515
0003b0 0e f0 fb be 18 c0 e6 bb b5 8e 22 3f ff 63 2b bf
       -0.49206585 -0.0070419423 0.63499004 -0.66949457
0003c0 45 74 a7 3d 7a 81 4f 3f e9 9c 2d bc 0b 25 5d 3d
       0.081764735 0.8105694 -0.010596492 0.053990405
0003d0 cc f4 fe 3d a2 14 3a be 3b de 33 3d 03 60 08 3f
       0.12449035 -0.18171933 0.043913107 0.532715
0003e0 1b 10 2d 3f 75 73 57 be d8 fd d8 be 0e fc 3d 3d
       0.676027 -0.21040137 -0.42381167 0.046382956
0003f0 2b f0 26 bd 09 c8 e3 3c 33 f8 68 bf 59 83 e9 bc
       -0.040756386 0.027805345 -0.9100372 -0.028505014

decoder.bias_ih_l0 f4 [256]
000000 b2 49 9f bd 81 4d 2e 3e 6e 02 23 bd d0 ad 28 be
       -0.07777728 0.17021753 -0.03979724 -0.16472554
000010 65 11 a8 bd 47 e4 20 bc df c1 f8 bd 5f 87 5e 3d
       -0.08206443 -0.009820051 -0.12146353 0.05432832
000020 f6 dd df bd b1 32 62 3e 32 35 ff 3d a4 80 57 3d
       -0.109310076 0.2208965 0.12461318 0.052612916
000030 2c 50 70 3d f3 cb 00 bb d1 68 e9 bb f5 17 d8 bc
       0.058670208 -0.0019652813 -0.007123091 -0.026378611
000040 b7 43 5c 3e 86 22 90 bd ad 4e 73 be 57 7c 36 3d
       0.21510206 -0.07037835 -0.23760481 0.044552173
000050 72 6c dd bd ac 5b 82 3d f2 7a c8 3a a3 e7 53 3d
       -0.108117 0.06365141 0.001529543 0.051734578
000060 a8 74 82 3e 9a ae 51 3e 23 16 94 bd cb aa ab 3d
       0.25479627 0.20476761 -0.07230785 0.083821855
000070 a1 5d a7 3d 8a 2c 8c bd cd 14 3c 3e e2 da ec bd
       0.08172155 -0.06844433 0.1836731 -0.11565186
000080 23 a9 c1 bc a3 a6 c3 3d d7 2a c4 bc df b5 ac 3d
       -0.023640221 0.09553268 -0.023946209 0.08433127
000090 36 cf 92 38 89 ae cb bc 42 2d b4 3d 0a 50 f1 3d
       7.0004186e-05 -0.024863498 0.08797695 0.11782844
0000a0 11 c9 c5 3d a1 ac 74 3d ac c8 81 3e 5e c7 d8 bd
       0.09657491 0.059734944 0.25348413 -0.10584901
0000b0 16 e5 58 bd 5b 91 b1 bd c2 e9 66 3e e0 90 7a 3d
       -0.05295285 -0.086703025 0.22550109 0.06117332
0000c0 6c e6 35 3e b6 db 44 be 7c 37 87 3c af 06 f0 bd
       0.1776368 -0.19224438 0.01650595 -0.11720025
0000d0 f8 71 33 be b2 99 4a 3e f8 4f a1 3c 70 42 b5 be
       -0.17523944 0.19785193 0.019691452 -0.3540225
0000e0 98 a5 03 be 7c 37 ec bd 51 1d 2c 3d 77 79 1b 3e
       -0.12856138 -0.1153402 0.042020146 0.15183054
0000f0 d2 6e 03 be 13 dd f4 bd 45 5c e3 b7 85 3f 7b bd
       -0.12835243 -0.11956229 -2.7103475e-05 -0.061339874
000100 b9 64 06 be 78 3a 65 be 82 ce 42 be f2 31 15 3c
       -0.1312436 -0.22385585 -0.19024089 0.009106146
000110 9a 4d 31 3b 72 ba 85 be de 4d 59 bc f0 c0 61 be
       0.002705431 -0.2611881 -0.013263194 -0.22046256
000120 03 f8 8f bd 9a 14 c3 be 3f 95 df be a2 0e da bd
       -0.07029726 -0.38101655 -0.43668553 -0.10647322
000130 d8 89 5b be 4a 9a a4 be cd eb 83 be ec ce 9c be
       -0.21439302 -0.32148963 -0.2576584 -0.3062662
000140 f8 12 82 be 8c b5 96 be 71 ab 49 3f 58 57 cd be
       -0.25405097 -0.29435384 0.78777224 -0.401057
000150 8b 0e 54 be f3 8e 0c be b1 27 03 be e9 01 4f bd
       -0.20708673 -0.13726406 -0.1280811 -0.05053893
000160 a5 b5 c9 be 03 48 2d be 60 06 a3 be 25 a8 07 be
       -0.39396396 -0.16922002 -0.318408 -0.13247736
000170 43 bd 5d be 39 b4 91 bd 28 55 0e bf 20 01 90 3e
       -0.21654229 -0.07114453 -0.5559869 0.28125858
000180 fd 53 db bd f8 46 07 bd 82 56 11 be 45 3f 7b be
       -0.10709379 -0.033026665 -0.14193156 -0.24535854
000190 c8 55 d4 be 06 d3 ab be 1e e0 ba be ae 2c 5f be
       -0.41471696 -0.33559436 -0.36499113 -0.21794388
0001a0 d7 6f a3 be 3d d9 d0 be f8 44 ec be c4 eb af be
       -0.31921265 -0.4079074 -0.4614637 -0.34359562
0001b0 02 a1 14 be 15 0b 15 3e 95 e8 18 3e 0c d5 0e be
       -0.14514545 0.14555009 0.14932473 -0.13948458
0001c0 4f 44 a5 be db 86 86 3d 32 e9 7c be 45 05 a2 bd
       -0.32278678 0.065686904 -0.24698332 -0.07911161
0001d0 9d f6 27 3c a5 2b d9 be 9b b3 18 be fe 43 72 3f
       0.010251668 -0.4241611 -0.14912264 0.94635
0001e0 a3 fd b4 3d ed 3c 07 3e 1b cb 39 3d ac 8b b6 be
       0.0883744 0.13206835 0.045359712 -0.35653436
0001f0 df 4e 18 be ea 26 3e bd 33 d3 ee bd f4 1c 47 be
       -0.14873837 -0.04642383 -0.11661377 -0.19444638
000200 0d 86 3a 3c f4 92 12 3e de 00 d3 3d ce 2f 85 bb
       0.011384499 0.1431387 0.103029 -0.0040645367
000210 b0 98 08 3c 8b bb e8 3d e6 96 8b bd 7b 65 1e be
       0.008337185 0.11363896 -0.06815891 -0.15468399
000220 3a 24 11 bd 64 d9 29 be 5b 6d c9 bd 5f 1c 2d 3e
       -0.03543494 -0.16586834 -0.09835311 0.16905354
000230 90 3c 38 be 6d 78 50 3e e0 ed b0 bd e5 8a 8d 3c
       -0.17991853 0.20358439 -0.08639121 0.017278144
000240 29 24 6b be 1c b8 92 3c 8f e4 a3 bd 23 00 12 be
       -0.22963013 0.017910056 -0.080025785 -0.14257865
000250 55 f6 26 be 8f d4 9c bd 42 32 21 3d 48 4a bd 3d
       -0.16304906 -0.0765773 0.03935457 0.09242684
000260 96 dd 59 bd 19 33 99 bd bc 1f 6b 3a f1 3b de bd
       -0.053189836 -0.07480449 0.00089692674 -0.10851277
000270 cd 49 40 3e 76 69 b1 bd e2 ba 74 be 8d ae 1b be
       0.18778153 -0.08662693 -0.23899415 -0.15203305
000280 a3 5c a0 3c bd f9 01 be 65 83 3e 3e cd 7d 4a 3e
       0.019575423 -0.12692924 0.1860481 0.19774552
000290 bf 66 a5 bd 16 d9 02 bd e6 31 19 be ce e1 b1 bd
       -0.08076238 -0.03194531 -0.14960441 -0.08685647
0002a0 aa b9 0d be 51 de 56 3e a2 c4 68 be 3d d9 a0 3c
       -0.13840356 0.20983244 -0.2273126 0.019634837
0002b0 61 40 f2 bc e7 d6 05 be 93 c5 d1 bd 3f fb 17 bd
       -0.029571714 -0.1307026 -0.102427624 -0.03710484
0002c0 63 22 0a 3e 2f db 1c 3e 79 7a 53 3e 32 50 01 3d
       0.1348968 0.15317987 0.20652188 0.03157062
0002d0 29 a8 1f bd ff 38 20 be 88 f3 2b bd 9a b3 30 bd
       -0.03897873 -0.15646742 -0.041980296 -0.04314003
0002e0 f3 21 94 bd 64 88 e7 3d 8e 63 ed 3c b7 80 1c be
       -0.07233038 0.11305311 0.028978135 -0.15283476
0002f0 80 6b 21 bd e9 40 15 bd a4 e2 32 bc 2f ac c6 3d
       -0.03940916 -0.036438856 -0.010918293 0.0970081
000300 b1 4c 22 be e7 5a cf 3c 1f 75 f5 3a 24 8e 8f bc
       -0.15849568 0.0253119 0.0018726921 -0.017523833
000310 51 23 8c bd 73 92 52 bc 93 4e 0a 3d d6 cf 72 3c
       -0.068426736 -0.012852299 0.03376634 0.01482006
000320 02 ac c0 3c c3 ca 4f 3d a6 33 74 3c 2a 10 8d bb
       0.02351952 0.050730478 0.014904892 -0.0043049054
000330 78 a1 e1 3d c9 7d 9b bd 1d 2c c6 3c 52 ec 2f 3d
       0.11017126 -0.07592351 0.024190957 0.042949982
000340 6b 80 1c 3e 6d 74 bc 3c ed 68 05 3f 0f a5 47 3d
       0.15283363 0.023004735 0.5211323 0.048741397
000350 9f 44 39 be db c8 81 3d d8 df bd bc 3a 2e 76 bd
       -0.18092583 0.06337138 -0.023178026 -0.06010268
000360 fa 87 7a 3d f1 28 62 3e 6e f0 a6 3d 07 0d d9 bc
       0.061164834 0.2208593 0.08151327 -0.02649547
000370 c1 33 8a bd 5b 8e 0d 3e 55 ee 2b 3e 08 c7 50 3e
       -0.067481525 0.13823836 0.16790135 0.20388424
000380 fc d7 0d 3e 30 f7 88 3d be 63 75 bd 87 04 2c 3e
       0.13851923 0.06687772 -0.059909575 0.16798602
000390 cd 9c 8c 3d b5 87 c4 bc 50 0a e0 3c 7b 01 f1 3d
       0.06865845 -0.023990491 0.027348667 0.117678605
0003a0 67 f9 39 3e ec be 09 bd 60 fb 96 3d 96 82 bf bd
       0.18161546 -0.033629343 0.07372165 -0.09351079
0003b0 bd f9 ae 3d 68 46 a4 bd b9 3f 08 3e 23 3b 99 3d
       0.085437275 -0.080212414 0.13305558 0.074819826
0003c0 c4 b5 24 bd e6 09 16 3e b9 86 fc bc af 30 3a be
       -0.040212408 0.14652213 -0.03082596 -0.18182634
0003d0 9a 8f b8 bc 5a 6e 2a 3e 69 26 06 be 35 5b fd 3e
       -0.022529412 0.16643658 -0.1310059 0.49483648
0003e0 c9 ab f3 3d 5e e9 bd bd 65 a9 34 3d 2b 4f 4f 3e
       0.11898 -0.09273027 0.04410686 0.20245044
0003f0 f8 eb ef 3b 4e fc 00 be 49 26 c6 3d cd 1e 4e bc
       0.007321831 -0.12596247 0.09675271 -0.012580586
