output/synthetic_data/models/model_hidden16_lr0.005_clip0.5.pth (torch, 13735 bytes, 9 tensors)

encoder.weight_ih_l0 f4 [64, 1]
000000 86 d6 5a 3e a4 7b c5 3d 39 12 1d be 4d 0a 99 3d
       0.21370897 0.09642723 -0.15338983 0.07472668
000010 7b ce cf be 80 31 37 bd 21 56 21 3e 21 1a 58 be
       -0.4058722 -0.04472494 0.15755512 -0.21103717
000020 06 3d 6d 3c 95 48 32 3e 7d 52 a0 3e 00 69 34 bc
       0.014479881 0.174105 0.31312934 -0.011011362
000030 52 d0 b9 bd 0a cd 13 bd 0c ae 8e 3e c2 89 c2 3d
       -0.09072937 -0.036084212 0.27867162 0.094989315
000040 ab 41 4f be 96 d5 b8 3e 73 bb 3a bd d2 13 7b be
       -0.20239894 0.36100453 -0.04558892 -0.2451928
000050 69 8e 8b be 03 e3 ce bd a9 75 b7 3d 1d 8d 08 be
       -0.27257088 -0.10101893 0.08957989 -0.1333508
000060 01 f5 7f 3e 85 34 53 3e e4 7b 76 3e 60 fa 0c 3f
       0.24995805 0.20625503 0.24070698 0.5506954
000070 a8 98 2c be be 55 aa 3e b6 dd 1e 3e 42 1c 57 3e
       -0.16855109 0.3326854 0.15514264 0.21006873
000080 21 24 16 3d 7a 50 45 be d7 bb f6 bd f2 e7 12 be
       0.03665555 -0.1926898 -0.12047546 -0.14346293
000090 ec a2 64 be a4 2e 93 3e ec 5a ff 3d 07 69 4f bd
       -0.22327775 0.2874652 0.12468514 -0.05063727
0000a0 ef c3 36 be d0 56 2e be db 08 69 be 04 e5 9d 3e
       -0.1784818 -0.17025304 -0.22757284 0.30838788
0000b0 93 40 28 bc ab e9 3c 3d c8 9f 2d be 47 dd a1 be
       -0.010269302 0.04612128 -0.16955483 -0.31614134
0000c0 26 d8 0c 3d 42 24 2d 3e a1 2e 7e be f8 d1 af bc
       0.034385823 0.16908363 -0.24822475 -0.021462426
0000d0 7d ed 3f bd 6d 12 b5 bc 21 27 18 bd d2 b2 12 bd
       -0.046857346 -0.022103513 -0.03714669 -0.035815068
0000e0 5f 5d ac 3d 11 3f 00 3b bd 30 c7 3d 70 b5 52 3e
       0.084162466 0.001956884 0.09726093 0.20577025
0000f0 2a 86 33 3e 21 9b 18 3d f3 f2 06 3e 93 d1 42 3d
       0.17531648 0.037257317 0.13178615 0.047563147

encoder.weight_hh_l0 f4 [64, 16]
000000 71 1a 34 3e eb d0 49 3e 5e 59 1d 3e 45 94 03 be
       0.17588212 0.19708602 0.15366122 -0.12849529
000010 ee 23 45 3e 6b 10 d1 bc 1b 97 19 bd 95 3d 4a 3e
       0.19251987 -0.025520524 -0.03749762 0.19750054
000020 3b f2 d3 bd 25 7d 26 be 3a 6e 48 be 17 d2 9b 3e
       -0.10348936 -0.16258676 -0.19573298 0.30433723
000030 35 63 3d 3e 35 37 e9 bd aa bd ff bd 95 b7 96 be
       0.18494876 -0.11387483 -0.124873474 -0.29436937
000040 42 fa 79 3d 9f bd 5e 3f 58 dd 66 3e 93 8e 46 be
       0.06102968 0.8700809 0.22545373 -0.19390325
000050 b2 6a db 3e b3 12 39 3e cd 9f 2e bd 77 3d c6 3d
       0.4285484 0.1807354 -0.042632867 0.09679692
000060 41 f6 a3 bc 12 d2 e1 3d bd e9 0e be 22 86 d4 3d
       -0.020014884 0.11026396 -0.13956352 0.10377146
000070 46 57 9d 3e ba ad 02 bf f8 47 a6 be d2 33 62 be
       0.30730647 -0.51046336 -0.32476783 -0.2209008
000080 2e 6a 79 be 80 41 3a 3e aa 3b 1f 3e a2 9f be 3d
       -0.2435691 0.18189049 0.15550104 0.09307791
000090 88 d5 cd 3e ee 37 70 3d b7 ab 3d be 9d d6 16 be
       0.40201974 0.05864709 -0.18522535 -0.14730306
0000a0 51 bf 8a be 0b 47 29 3e 8c fe 7d 3d 66 1e 6e be
       -0.27099088 0.16531007 0.062010333 -0.23253784
0000b0 99 33 28 be b4 2c 9e be 32 4d 2e 3e 06 0c 81 be
       -0.16425933 -0.3089348 0.17021635 -0.25204486
0000c0 71 3f a6 3d 36 d3 a7 3e ed 6b 5b be 1e 26 0c bb
       0.08117569 0.3277833 -0.21427889 -0.0021385024
0000d0 83 ea f6 bd cb f4 6b 3d 55 f9 17 3e 34 f5 be 3d
       -0.12056448 0.0576065 0.14841206 0.093241125
0000e0 32 b6 23 be 68 d9 90 3e b2 4c b0 bd 15 63 90 3e
       -0.15987471 0.28290868 -0.086083785 0.28200594
0000f0 b6 8d 9b bc e4 d2 ec bd 13 53 39 bd 65 88 a0 bd
       -0.018988471 -0.11563662 -0.04524524 -0.07838515
000100 b9 2d 8b be 16 6d 40 3e 30 d5 69 bc 33 5d 10 3e
       -0.2718332 0.18791613 -0.014272019 0.14098053
000110 6e 20 1a 3e 36 85 68 3e bc 94 98 3e fc fb dd bd
       0.15051433 0.22707066 0.29800975 -0.10839078
000120 9e cf 49 3c e4 ea af 3e 1b 6a 9e 3c 6d 8c 27 3e
       0.012317566 0.34358895 0.019337704 0.16362162
000130 b3 c5 84 bd 09 ff 7f bd 52 68 ac 3e 6b 80 49 bd
       -0.06483021 -0.06249908 0.3367334 -0.049194735
000140 42 b2 dd 3d 47 41 11 be 48 ee 58 be 94 e2 76 be
       0.108250156 -0.14185058 -0.21184647 -0.2410987
000150 87 da 4c 3e 90 97 e0 bd 5e 42 31 3d e6 af 83 3d
       0.20005237 -0.10966408 0.043276183 0.06430034
000160 78 2b 23 be c0 1a 1f 3c ab 0b ed bd a5 df d8 bd
       -0.15934551 0.009710968 -0.11574491 -0.10589532
000170 ec 68 d0 bc 2c 35 47 be 26 e5 60 be 6a 98 9c be
       -0.025440656 -0.19453877 -0.21962413 -0.30585033
000180 6b a4 35 3e d2 43 e6 bc 15 0d 7e 3e 84 f0 47 3d
       0.17738502 -0.028108511 0.24809678 0.048813358
000190 eb 09 e8 3d 50 69 00 be b2 f0 90 3e 44 21 5a bd
       0.11330017 -0.12540174 0.28308636 -0.05325438
0001a0 0c 10 fb bd ad dc 71 3e 30 37 03 be 03 55 91 3e
       -0.1225892 0.23619337 -0.12814021 0.2838517
0001b0 8d 69 72 3e 73 4b c8 3c 62 fc 1a 3d 68 e9 56 be
       0.23673077 0.02445004 0.037838347 -0.20987475
0001c0 e3 3c 37 be 7c fd e9 3d 4f 0f 50 bd bf 32 41 be
       -0.1789432 0.114253014 -0.05079585 -0.18867014
0001d0 8b d7 36 3e ce ad ca bd c2 18 18 be f0 2b 3e 3e
       0.1785566 -0.09896432 -0.14853194 0.18571448
0001e0 04 27 69 be f8 11 a4 3e 55 33 fa 3d 0c ef 89 3e
       -0.2276879 0.3204496 0.12216822 0.2694019
0001f0 c0 81 02 3e 3d 38 f0 be 4b 61 39 be bf e1 72 3e
       0.12744808 -0.46917906 -0.1810352 0.23718928
000200 a5 5b c6 3d 4f ed a1 3e 8e 94 09 be a2 e4 a0 be
       0.096854486 0.31626365 -0.13435575 -0.31424433
000210 0c dc 26 3e c0 f0 5d 3e a6 8a a0 3e de 53 a0 3d
       0.16294879 0.2167387 0.3135578 0.078284964
000220 9f 15 a3 be 56 49 b4 bc e3 66 fc 3d 3d 1c 2e 3d
       -0.31852433 -0.022007626 0.123243116 0.0425074
000230 04 2e 07 3e 3b ca c6 be b1 04 0f be 83 27 a7 be
       0.13201147 -0.38826165 -0.13966633 -0.32647333
000240 da 80 c4 3d ff 1c 35 be dd 2b 98 3e 62 ba 6a 3e
       0.09594889 -0.17686842 0.29720965 0.22922662
000250 09 53 37 be d4 98 14 bc b7 d1 ec bd 5f d9 25 3e
       -0.17902769 -0.00906964 -0.115634374 0.16196202
000260 a0 52 ed 3c 4e cc 85 3e 5b 0d 9f 3d ea c6 be 3e
       0.028970063 0.26132435 0.07766219 0.37261134
000270 4b ed 58 3e 79 b9 55 be 63 1e 39 bd 3c 9b 14 3d
       0.2118427 -0.20871533 -0.045194995 0.036280856
000280 c9 ef 9c 3d 5e 90 5d 3d 37 38 22 3e f1 40 03 be
       0.07662923 0.054092757 0.15841757 -0.12817742
000290 f3 99 6d be 00 6e 89 bd 91 d3 40 3e 2e d4 9d 3d
       -0.23203258 -0.06710434 0.18830706 0.07706486
0002a0 05 11 5a 3d f0 85 fb 3d 06 9e 5c be 3e f2 66 3e
       0.053238887 0.12281406 -0.21544656 0.22553346
0002b0 aa cb 86 3e 26 71 92 be a7 ef c9 3c 6f 4f f0 bd
       0.26327258 -0.2860195 0.024650408 -0.11733901
0002c0 77 de e5 bd 2e 82 81 3e f4 35 db bd 62 7c 7f 3e
       -0.112240724 0.25294632 -0.1070365 0.24949792
0002d0 b0 2c ad 3e 81 d9 18 bb 60 f7 9e 3e 21 af 99 be
       0.33823156 -0.0023323002 0.31048107 -0.30016425
0002e0 2a 60 2f be 54 ac d3 3d 60 4f 0b 3d 1c e0 a1 3e
       -0.17126527 0.10335603 0.034011245 0.31616294
0002f0 8a 7f 01 3e 8e bd 01 3d d1 fc e5 bd 83 67 1d 3e
       0.12646309 0.031674914 -0.112298615 0.15371518
000300 83 0c 2f be 1a 40 64 be 1d f5 5c 3e 28 c5 06 3e
       -0.17094617 -0.22290078 0.21577878 0.13161147
000310 7d f0 9d be 5d 7d 07 be 9c 68 18 be 9c bf 74 bc
       -0.3084754 -0.13231416 -0.14883655 -0.014938261
000320 2a 69 19 3e b5 7c c8 bd 6d 4e e4 bd 80 45 fd 3d
       0.14981523 -0.09789411 -0.11147771 0.12366772
000330 c6 bc e9 bd f3 d9 8f be da b8 92 bd 4f 69 13 be
       -0.11412959 -0.2809597 -0.07164164 -0.14395641
000340 86 fb c8 3d a4 8b 1a 3e 51 10 9d bd 2b a7 44 be
       0.09813599 0.15092331 -0.07669128 -0.19204395
000350 f6 a2 3e 3e 67 c0 aa bd a7 13 8a 3e e4 20 a1 3d
       0.18616852 -0.08337479 0.2696812 0.078676015
000360 37 92 b0 be aa 47 04 bc 83 70 c2 be b3 ff 48 3e
       -0.34486553 -0.008073727 -0.37976465 0.19628792
000370 ea 8a 85 be fd 02 9a be d9 28 56 be 0d 8e 39 be
       -0.26082546 -0.30080405 -0.2091402 -0.18120594
000380 7a 92 8d be 23 f2 a0 bc 74 1e 45 be ea fa 2c 3e
       -0.27650815 -0.01964671 -0.19249898 0.16892591
000390 f0 6a 70 bd cd 9f 2c be 32 6f 73 3e 20 c9 a3 3d
       -0.058695734 -0.16857834 0.23772886 0.07997346
0003a0 ca 9b 09 3e 1e e4 8b be 2c 88 f2 bc 7b 8b 02 3e
       0.13438335 -0.27322477 -0.029605947 0.1274852
0003b0 45 4d 06 bd cc 41 43 3d a1 32 2e 3d 8f 88 c3 3d
       -0.032788534 0.04767017 0.042528752 0.09547531
0003c0 94 11 12 be 57 7d 87 bd 1f a3 72 3c 3a c4 ed 3b
       -0.14264518 -0.066157036 0.014809399 0.007256058
0003d0 f9 d9 e6 3c 20 0d 18 3d 4f 2f 39 be 56 c1 fc bd
       0.02818011 0.037121892 -0.18084453 -0.123415634
0003e0 bc 30 71 be d5 23 68 be 0f 76 66 bd f8 30 f4 3d
       -0.23553747 -0.22669919 -0.056264933 0.119234025
0003f0 cb 3b d6 3d 74 59 b7 bd 84 25 d5 3c 47 a7 0e be
       0.10460623 -0.08952609 0.026018865 -0.13930999

encoder.bias_ih_l0 f4 [64]
000000 a0 95 57 bd 4f be 39 3d 36 ab 0d bd 34 af 0c be
       -0.052632928 0.045347508 -0.034587108 -0.1373871
000010 1b c7 bc bd d0 4a d5 bd 46 57 df bd 40 42 24 be
       -0.09217664 -0.1041466 -0.10905318 -0.16040897
000020 d4 d5 58 3e 4b 42 df 3d a7 db 94 3d 2f 4e 8d be
       0.21175319 0.10901316 0.07268458 -0.27598712
000030 5f 9a ef 3d c7 d6 54 3d b0 30 cf bd 29 c8 70 3c
       0.11699366 0.05196264 -0.10116708 0.014696159
000040 94 b8 be bd c2 90 21 3e 00 8c 2d bd df 02 a5 3c
       -0.09312549 0.15777877 -0.042369843 0.02014297
000050 ea 66 83 3d 62 04 20 be e0 e8 0d bc 14 6a fb 3d
       0.06416114 -0.15626672 -0.008661479 0.12276092
000060 e8 9c ad bc 6e 14 a7 3e e2 ba 6b 3e d0 4d c0 bc
       -0.021192983 0.32632774 0.23020509 -0.023474604
000070 ea 1e fe bc 3a 4f 14 3e 23 00 45 3e 83 25 ac 3e
       -0.0310206 0.14483348 0.19238333 0.3362237
000080 6a 89 14 be 1d 28 3e 3d de db 83 be a2 ad 13 be
       -0.14505544 0.046424974 -0.25753683 -0.14421704
000090 c0 7d e7 3d ec 6a 20 bd 96 2f 56 3e 63 89 4b bd
       0.11303282 -0.03916447 0.2091659 -0.04969157
0000a0 aa d4 1a 3d e7 c6 26 be 98 da 21 bc 0a 2c 59 bd
       0.03780047 -0.16286813 -0.009878777 -0.053020515
0000b0 af 3d 8b 3e 02 86 38 3e ec a8 6d be 8a 71 83 bd
       0.27195498 0.1801987 -0.2320897 -0.0641814
0000c0 1c b0 34 3d 6d 72 ea 3d fd 0a 22 3e 89 db 53 3e
       0.044113263 0.11447606 0.15824504 0.20689215
0000d0 69 29 33 3e 22 3e a7 3e d0 83 14 be 5b a4 5e bc
       0.17496265 0.3266459 -0.14503407 -0.01358899
0000e0 f4 80 66 bd e8 80 72 3e 45 77 20 bd 54 39 84 3e
       -0.056275323 0.23681986 -0.039176244 0.25824988
0000f0 53 4a 17 3d be ec 70 3e 74 e1 4b 3e c1 28 98 3e
       0.036936115 0.2352781 0.19910222 0.29718593

encoder.bias_hh_l0 f4 [64]
000000 8a d6 0d 3e 94 26 8c bd 17 9f a6 bd 63 de 9a 3d
       0.13851371 -0.06843296 -0.08135813 0.07561948
000010 bf 2b 5c be 98 a3 fc bc 8c 21 e7 3d 90 12 18 be
       -0.21501063 -0.030839726 0.112856954 -0.14850831
000020 87 cc 2e be f0 02 4b be 35 95 4b bb 24 52 58 be
       -0.17070208 -0.1982534 -0.0031064276 -0.21125084
000030 a7 ac 3f 3e 3e 61 3c 3e b3 03 7b 3e 36 7e 36 be
       0.18718205 0.1839647 0.2451313 -0.17821583
000040 2c 75 ac 3d 89 ed 8f 3e ed 5b a9 3d 21 df d4 bd
       0.08420786 0.28110912 0.082694866 -0.10394121
000050 34 5e 96 bd dc 73 9d 3e 54 6c 26 3e 73 da 17 be
       -0.073421866 0.30752456 0.16252261 -0.14829426
000060 6e 1b 86 bd af 84 8d bd 12 85 25 3d e7 37 6b 3e
       -0.065482005 -0.06910073 0.04041011 0.22970544
000070 b7 d7 15 3e 17 1f 68 bd 7e dc 9d 3d 5a a9 98 3c
       0.1463307 -0.056670275 0.07708071 0.01863544
000080 38 19 76 be e1 44 01 3e af 16 21 3e 49 c8 69 be
       -0.24033058 0.12623931 0.1573131 -0.22830309
000090 a1 89 5c 3d e8 d1 68 3e 78 0c 07 bd ea 3e 28 3e
       0.05384219 0.22736323 -0.032970876 0.1643025
0000a0 56 06 35 be 48 80 7f 3d 02 9f 35 be ef 3b 16 3e
       -0.17678198 0.062378198 -0.17736438 0.146713
0000b0 6e cc 36 bd f4 62 9a 3b 20 31 14 3d 44 bf 82 bd
       -0.044628553 0.004711503 0.03617966 -0.06384137
0000c0 8d 4c 09 be 3b 89 a8 3e cf ed 18 3e 69 ca 97 3e
       -0.13408108 0.329172 0.14934467 0.29646614
0000d0 47 c8 f7 bc c9 3d d7 bd b8 2e a5 bd 03 01 33 be
       -0.030246867 -0.105098315 -0.080655515 -0.17480855
0000e0 4a 9d eb bc 06 63 6e 3e a2 1b 23 bd 03 74 00 be
       -0.028761525 0.23279962 -0.039821275 -0.12544255
0000f0 18 41 0b 3e 62 0e 9a 3c f9 e2 5a 3e 84 d9 ab 3d
       0.1359905 0.018805686 0.21375646 0.08391097

decoder.weight_ih_l0 f4 [64, 16]
000000 a0 ab 1e 3e e1 a3 03 3e e2 47 27 3e 7e 84 4d bd
       0.15495157 0.12855484 0.16336015 -0.050175183
000010 9d 37 69 bc 78 ac 22 be 6b 35 ca 3b 40 0d 21 be
       -0.014234451 -0.15886104 0.0061709187 -0.1572771
000020 3b e3 31 be dc 0c 21 3e 8f fd cd 3d 14 5d 06 be
       -0.17371838 0.15727562 0.10058128 -0.13121444
000030 6b c9 a1 bd 1e c1 5d bd 96 25 29 3e f7 42 94 be
       -0.078997456 -0.05413925 0.16518244 -0.2895734
000040 b9 01 5d 3c b5 74 50 3e 2c 24 01 3e 9b f9 d3 bd
       0.01348918 0.2035702 0.12611455 -0.10350343
000050 b6 c4 31 bc b2 11 ba 3c 90 53 62 3e 9c 12 aa 3e
       -0.010850122 0.022713516 0.22102189 0.33217323
000060 2e b1 45 3d fb 35 4b be c5 9f 8e be 86 8c 03 bd
       0.048264675 -0.1984481 -0.2785627 -0.032116435
000070 60 fe 58 3e d3 3a e4 3d 7c a9 85 be 72 06 43 bd
       0.21190786 0.11144032 -0.2610587 -0.04761357
000080 19 91 82 be f9 c1 c1 bc 74 d0 04 3e 05 79 7b be
       -0.25501326 -0.023652064 0.12970144 -0.24557884
000090 87 fb e3 bb 6a f1 16 3d fe 2f b7 3d b3 e3 4a be
       -0.0069574746 0.036851324 0.08944701 -0.19813423
0000a0 56 25 4e be 00 8c a9 3b de f4 12 bd 16 79 dc 3d
       -0.2013143 0.00517416 -0.035878055 0.10765283
0000b0 d4 b0 dc bd b7 9a 05 be 7e 19 2e 3d 51 b6 b6 bd
       -0.10775915 -0.130473 0.04250478 -0.08921493
0000c0 08 98 10 be f7 8e 72 bd ab b3 3d 3d 81 06 a8 3d
       -0.14120495 -0.059218373 0.046313923 0.082043655
0000d0 7c fd e0 3d b7 f6 ad 3e 75 50 57 3e 9e 68 0b bd
       0.10985848 0.3397729 0.21026786 -0.034035318
0000e0 f0 09 f7 3d 2b 46 0d be ef 48 23 be 0b c8 44 3e
       0.12062442 -0.13796298 -0.1594579 0.19216935
0000f0 66 ff d7 bd 3a 51 3f be 86 81 59 be 52 89 ca bd
       -0.1054676 -0.18683329 -0.21240816 -0.09889473
000100 25 b6 6b bd 96 6f 87 3e b4 dc 93 bd 94 7a f4 3d
       -0.057546753 0.2645232 -0.0721983 0.119374424
000110 f7 bf 41 3e 13 ce f7 3c 68 49 90 3e 7c af 4a bd
       0.18920885 0.030249631 0.28181005 -0.04948376
000120 25 b7 ec 3d 0e ac b0 be af 92 20 bd 36 3f 59 3e
       0.115583695 -0.34506267 -0.03920239 0.2121552
000130 a0 f8 94 bd 0f d5 a2 be 58 94 a2 be 1e 90 81 be
       -0.07273984 -0.31803176 -0.31753802 -0.25305265
000140 79 9e 4b 3e 3f 6f 76 be 86 8a 6c 3e a0 90 a6 bd
       0.19884671 -0.24065875 0.23099717 -0.08133054
000150 e4 95 88 be 88 11 7d be 68 6b cd bc b4 77 57 bc
       -0.26676857 -0.24713719 -0.02507563 -0.013151098
000160 22 7f ee bd f8 9a 5d 3e 56 f6 8c 3e 20 ee 04 3e
       -0.116453424 0.21641147 0.2753169 0.12981462
000170 7b 29 24 be 36 1a 46 3e 97 5f 83 3e 8e 2a eb 3d
       -0.16031449 0.19345936 0.25658867 0.11482726
000180 6f 82 28 3e 3b 41 3e 3d 7f a8 87 3e 8e 69 c0 bd
       0.16456006 0.046448927 0.2649574 -0.09395133
000190 ee 4d 28 be a9 22 a1 be 8f 29 8e 3e 7e 31 76 be
       -0.16435978 -0.31471756 0.27766082 -0.24042317
0001a0 89 d7 0d 3c 5b 89 e5 3d 8e 90 ff bd 80 e7 77 3e
       0.008657345 0.11207839 -0.124787435 0.24209404
0001b0 6f 8b 00 bc 53 1f b5 3e 71 24 bc 3e 76 99 12 be
       -0.007845744 0.3537546 0.36746553 -0.14316353
0001c0 3d fa 9f be d3 65 1a bd 12 98 0b be 2b 6b 23 be
       -0.31245604 -0.037694763 -0.13632229 -0.1595885
0001d0 b8 5d e1 3e 67 dc bc bd fd 59 2f be ec 17 db ba
       0.44016814 -0.09221726 -0.17124172 -0.0016715503
0001e0 7e a4 f8 bd e9 ed 80 bd b6 2f bc 3d db dc 65 bd
       -0.121407494 -0.06295378 0.09188788 -0.056118827
0001f0 db 83 ee bd 64 c8 c7 be f4 e6 99 3d 31 58 9e 3d
       -0.11646243 -0.39020073 0.07514754 0.07731665
000200 c7 52 66 3d 6f c7 94 bd e3 a0 1e be 9d 85 51 3e
       0.056231286 -0.072646014 -0.15491061 0.20461126
000210 19 57 a0 bd 98 41 30 be b4 09 54 be 84 9b 12 3e
       -0.078291126 -0.17212522 -0.20706826 0.14317137
000220 6f 15 49 3e 36 c6 cc 3d 13 91 6f 3e 25 dd e0 bd
       0.19637083 0.09998743 0.23395185 -0.1097968
000230 2f 1e 9b bd eb 0a d0 3d 45 b5 58 bd 5c ca 99 3e
       -0.075741164 0.101583324 -0.052907247 0.300372
000240 03 cc a6 be d8 b7 97 3e 47 6b ed 3d 99 ee 69 be
       -0.32577524 0.2963245 0.11592727 -0.22844924
000250 99 14 fe 3d 96 b6 09 3e 97 36 49 3e b9 5e 8f 3e
       0.124062724 0.13448557 0.1964973 0.28001955
000260 32 37 fe 3d f6 a4 84 3c c3 75 c1 bd 72 46 3c 3e
       0.124128714 0.01619194 -0.094462894 0.18386248
000270 2b 16 35 be 44 c9 17 3e 50 41 82 be e4 f1 93 be
       -0.17684238 0.1482287 -0.25440454 -0.28895485
000280 29 74 79 3e 8c c9 d0 bd 47 7d 1a be f7 4c 87 3e
       0.24360718 -0.10194692 -0.15086852 0.26425907
000290 ea d7 a1 be 7e 35 84 bd ea 39 c5 bd 6c 28 53 3e
       -0.31610042 -0.06455515 -0.09630187 0.20620888
0002a0 df 1d 8a 3e f7 17 00 bc e9 67 55 be 66 ce 89 be
       0.26975915 -0.007818214 -0.2084042 -0.26915282
0002b0 1e 88 23 3e 40 26 59 3d 23 64 5d 3e 61 c9 c4 bd
       0.15969893 0.053014994 0.2162023 -0.096087225
0002c0 f5 98 56 be a9 88 43 3e 02 d0 a6 3d c4 5a 53 3d
       -0.20956786 0.190951 0.08145143 0.051600233
0002d0 01 a8 e6 bd af 22 86 3e d8 43 f0 bd 42 2b 43 bd
       -0.11262513 0.26198336 -0.1173169 -0.047648676
0002e0 98 65 01 3e 9c 11 0e bd 37 91 fe 3d bb 98 26 be
       0.12636411 -0.034684762 0.12430041 -0.162692
0002f0 9b 42 2a 3e c7 84 07 3e 2e bc 99 3d 17 d8 0b 3e
       0.1662697 0.13234244 0.075065956 0.1365665
000300 a6 c9 51 3e bf 63 d0 bc cf a2 8a bb 57 11 2e bd
       0.20487079 -0.025438188 -0.004230834 -0.042497005
000310 ed b3 bd 3e 63 88 62 be e9 6e f4 bd 4a 62 5c be
       0.37051335 -0.2212234 -0.11935217 -0.2152187
000320 52 aa be 3d 3d 5b d7 3d d7 25 2d 3e f1 ca 45 3d
       0.0930983 0.10515449 0.16908966 0.048289243
000330 3e 69 b2 3d 49 b8 88 bd f0 b6 6a be 2a b1 15 be
       0.087114796 -0.066757746 -0.22921348 -0.14618364
000340 c0 21 c8 be 5e 17 37 bb 5f d5 0f be 96 b7 3d 3c
       -0.3908825 -0.0027937512 -0.14046238 0.011579415
000350 2a f6 aa 3c 68 8a b2 3e e6 be b8 3d b8 5b 97 3e
       0.020869333 0.3487122 0.09020786 0.29562163
000360 c0 4f 96 bd 87 53 c0 3d 3c 77 cb bd 29 97 a4 be
       -0.0733943 0.093909316 -0.099348515 -0.32146576
000370 f8 e5 ca 3c e9 ad b8 bd 76 41 b5 be a4 dd 05 bd
       0.02476786 -0.09017546 -0.35401505 -0.032682076
000380 12 15 da be 61 d1 c5 3e 53 6a bd be e7 7e 69 be
       -0.425942 0.38636306 -0.3699518 -0.22802316
000390 f0 c7 b0 3e 9d ca bb 3e f3 4f 00 3f d1 6c d6 3e
       0.3452754 0.3667802 0.5012199 0.41879895
0003a0 d8 b1 0e bf b4 36 40 3e e6 4a fc be 41 45 a8 3d
       -0.5574012 0.18770868 -0.49275893 0.08216334
0003b0 91 22 fe bd 59 56 24 bf 85 e3 50 be 7f 62 e2 be
       -0.12408937 -0.64194256 -0.20399292 -0.44215772
0003c0 b6 27 2e be a9 e7 4e 3e f0 1b 87 bd 30 f4 bf bd
       -0.17007336 0.20205559 -0.065971255 -0.09372747
0003d0 34 58 74 bd e7 6d 44 3e 1f f0 ff 3d 63 02 bf bd
       -0.05965443 0.1918255 0.12496971 -0.09326627
0003e0 8e fe 66 be 56 42 14 bd aa 2c 46 3d 7c f9 05 3e
       -0.22558042 -0.036196075 0.04838244 0.13083452
0003f0 59 bc 0d be e4 e8 8e be 2e b9 fd bd f3 d9 21 3d
       -0.1384138 -0.27912056 -0.12388836 0.039514493

decoder.weight_hh_l0 f4 [64, 1]
000000 ea 98 d4 3b f1 76 56 3d c1 02 48 3e 9f 6f 99 3d
       0.0064879553 0.052359525 0.195323 0.07491993
000010 e5 e2 a0 bb 24 00 49 be 7b cf 56 bf 9d 16 09 be
       -0.0049098604 -0.1962896 -0.8391034 -0.13387533
000020 1e 4b c1 3d 44 de 6b 3e 2d 2f c7 bd 58 bc 7c 3e
       0.094381556 0.23034006 -0.09725795 0.24681222
000030 68 a5 1e bf 9a 7a 3e 3d f2 e7 90 3e 85 44 a7 3d
       -0.6197114 0.04650364 0.2830196 0.08167366
000040 0b a7 e0 3d 60 18 fc 3d d0 18 81 be cf 2e 8f 3d
       0.10969361 0.12309337 -0.25214243 0.0699135
000050 10 c0 92 3c 6b e3 e8 3e 13 11 46 3f 78 17 d0 bd
       0.017913848 0.45486006 0.77369803 -0.10160726
000060 85 dd 5c bc a5 e8 6d be af fd c5 bd de 92 77 3e
       -0.013480549 -0.23233278 -0.09667527 0.24177119
000070 cb 7f ae be 81 1f bd bc 85 37 11 be 50 4f 03 3e
       -0.34081873 -0.023086311 -0.14181335 0.12823224
000080 95 72 e9 bd 50 77 92 be 99 4d 82 be 4b 26 1f 3e
       -0.11398808 -0.28606653 -0.25449827 0.15541951
000090 d5 db 8b bd c6 e4 25 3e 8d 11 1e bd 42 80 b9 be
       -0.06829039 0.16200551 -0.038590956 -0.36230665
0000a0 49 1e 52 3d 63 5b 50 3e 78 d7 3d 3e ff 67 48 bd
       0.051298413 0.20347361 0.18539226 -0.048927303
0000b0 55 3c 81 3e fb c0 07 3e e0 80 07 bf 85 8e 80 3c
       0.25241342 0.1325721 -0.5293102 0.015692959
0000c0 c7 e9 e9 3d fc d1 36 3e e0 4c 7c bd 2b 26 cf 3e
       0.114215426 0.1785354 -0.06159675 0.40458807
0000d0 08 b8 0d 3e 10 65 9a 3d 3e 4b 2d bd 98 ee a8 be
       0.13839734 0.075388074 -0.042308085 -0.32994533
0000e0 65 ac f2 bc ce 31 da 3d a2 a4 6e 3e a7 f2 23 3e
       -0.02962322 0.10654031 0.2330499 0.16010533
0000f0 df 79 d4 be c9 7e 14 3e 8b e5 b5 3e 07 e7 dd 3e
       -0.4149923 0.1450149 0.3552669 0.43340322

decoder.bias_ih_l0 f4 [64]
000000 ff d0 ca bd 2f df 28 3e 4e c7 f7 3d b6 f7 af 3e
       -0.09903144 0.16491388 0.12098561 0.34368676
000010 75 d0 c0 bd 87 84 24 be d3 a4 96 be e2 7b 76 3e
       -0.0941476 -0.1606618 -0.29422626 0.24070695
000020 09 e8 64 3c 47 60 0c be a4 cf 45 be 99 0a 17 be
       0.013971337 -0.13708602 -0.1931749 -0.14750136
000030 58 33 22 bd 84 18 1a 3d 12 66 71 3e b7 b1 30 bc
       -0.039599746 0.037621036 0.23574093 -0.010784558
000040 26 ad 31 be 11 b7 f5 bd 7b 3e 3a bd ca 01 3a be
       -0.17351207 -0.11997808 -0.045469742 -0.18164745
000050 6b 18 bf be 6d 64 10 3f d6 01 8a 3e f6 de 95 bd
       -0.37323317 0.5640324 0.26954526 -0.07317917
000060 7b 79 7e be 6d 60 23 bc 13 76 b8 be c7 c3 8f be
       -0.24851029 -0.00997172 -0.36027583 -0.28079054
000070 b6 0f 04 be c1 62 b1 bd 38 f2 91 3d d0 9f fb 3d
       -0.12896618 -0.08661414 0.07126278 0.12286341
000080 f4 dc 69 3d 6b d6 b7 bd 96 3c 18 be 3d f4 0a 3c
       0.057095483 -0.08976444 -0.14866862 0.0084810825
000090 fa ab 3f 3e 39 ca 97 3e 6b 19 b0 bd 28 95 34 3d
       0.18717948 0.2964647 -0.08598598 0.04408756
0000a0 ea 91 30 3e 50 ed 9b 3e 70 1e 92 bc c5 cb 9d be
       0.17243162 0.30454493 -0.01783678 -0.30819526
0000b0 e7 a1 87 3b dd 45 2f be 62 72 cc 3c e7 ba 54 3e
       0.0041391733 -0.17116494 0.024956886 0.20774423
0000c0 db f3 9c 3d 2e 16 9e bd e0 03 1b 3d e0 cd 8f 3e
       0.07663699 -0.07719074 0.037845492 0.28086758
0000d0 6a f5 8e 3e 04 7f 22 3d f5 24 dd 3c 02 b7 7d 3e
       0.2792161 0.039671913 0.026995162 0.24776843
0000e0 19 11 09 3e 41 bf 83 3e 0e ec 1b be 0c 34 85 3e
       0.13385428 0.25731853 -0.15226766 0.2601627
0000f0 e5 02 db 3d eb 12 1a bd cc ce ca 3d 5b 97 f6 3d
       0.106939115 -0.037615698 0.099027246 0.120405875

decoder.bias_hh_l0 f4 [64]
000000 80 07 84 3e 4a 53 a6 3e 62 a6 fd bc 6d 15 8a 3e
       0.25786972 0.3248542 -0.030963127 0.26969472
000010 80 9c b3 3d 91 0f 0b be 06 80 30 be 96 be bd bd
       0.087700844 -0.13580157 -0.17236337 -0.09264867
000020 38 f0 ef bd 4c 3a 7b 3e 7c b3 0f be 3c 30 f6 3c
       -0.1171574 0.24533957 -0.14033312 0.030052297
000030 f1 02 55 3d e5 3f 8d bd 49 7a a0 3e de e0 94 3e
       0.05200476 -0.068969525 0.31343296 0.2907781
000040 56 65 d0 3d 08 10 9d be 86 2b 51 bd 88 ae 22 be
       0.10175578 -0.30676293 -0.051066898 -0.15886891
000050 34 91 87 be 79 41 e2 3e ca 4d aa 3e 62 c8 3c be
       -0.2647797 0.44190577 0.33262473 -0.18435815
000060 b9 6c 3e be 60 83 1d be b3 ad 7b bd 6e b1 a8 3d
       -0.18596162 -0.15382147 -0.06144495 0.08236967
000070 b7 d5 d8 3d 4f af 80 bd 62 0e 04 be 42 b8 a3 3d
       0.10587638 -0.062834375 -0.12896112 0.07994129
000080 64 67 1e be 19 ef 87 be 43 bc a1 3d b5 2f 4e be
       -0.15469128 -0.26549605 0.07897236 -0.20135386
000090 b7 dc 92 bd 9c 09 40 be 61 7f f6 bc 0d 25 b1 bd
       -0.07171004 -0.18753666 -0.030090036 -0.08649645
0000a0 ed 23 31 3e 7d cc 7b 3e 0e 13 c3 3d 78 30 ff bd
       0.17298861 0.24589725 0.09525119 -0.124604166
0000b0 0c 6a a7 bd bb e4 a9 be 7f 3f a1 3b 36 af 81 3e
       -0.08174524 -0.3318232 0.0049208994 0.25328988
0000c0 5c 9b 66 3e 5a 11 fa bd fb 0c 6d 3e 2f 25 e1 bd
       0.22520202 -0.12210341 0.23149483 -0.1099342
0000d0 9f 8a 2d 3e e9 a3 82 3d c7 a6 c8 3d a0 c4 76 3c
       0.16947411 0.0637892 0.09797435 0.0150615275
0000e0 ba c4 8f 3d ce 76 44 bc 03 db 0a be 03 fb 88 3b
       0.070199445 -0.011991216 -0.13560109 0.0041803136
0000f0 49 0f 98 bd 84 f8 0b 3e 4d ae 7e 3e 14 fd 87 bd
       -0.074247904 0.1366902 0.24871178 -0.06640068

decoder.weight_hr_l0 f4 [1, 16]
000000 c0 b1 8a bd 5b 89 a3 be 05 6b 3c be 2a c9 8e be
       -0.06772184 -0.3194073 -0.184002 -0.2788785
000010 cd 91 9b 3e d5 92 fc 3e 94 3f 1f 3f c6 c2 30 be
       0.30384675 0.49330774 0.6220639 -0.172618
000020 b2 12 5a 3d dd 8e 2e 3e a7 41 0e 3e 25 83 09 be
       0.053240485 0.17046686 0.13892232 -0.13428934
000030 e4 3d d6 3d 04 5c 55 be b5 1a 02 bf 72 d8 97 3e
       0.104610234 -0.20835882 -0.50822 0.29657322
