output/synthetic_data/models/model_hidden32_lr0.005_clip1.0.pth (torch, 39911 bytes, 9 tensors)

encoder.weight_ih_l0 f4 [128, 1]
00000000: 928c e33d 8707 8f3d 3eb6 a93d bacf ca3d
00000010: cd1d 4abe 88fa 9fbc f248 e6bd 3081 7e3d
00000020: 234f 59be 97eb 0d3b 9d0d 1a3b 57aa 16be
00000030: d0c7 363e 29d8 523e 3255 e2bd 21f3 24be
00000040: 045e dabc 856c 4b3e 5299 99bd bea8 82bc
00000050: fe0c 463d f590 433d 1e40 19be ab8e 9a3d
00000060: e001 1bbe 6e9b 82bd a3d9 783d 6b6e f3bc
00000070: 461a 75be ba5c a23d 93da 62bd d0bd 7c3b
00000080: 3935 013e 4fae 8b3b 2455 443e b989 913d
00000090: d7c9 b8bd 8d1a a9bd 639d 5dbe 4cb5 e13d
000000a0: b097 9dbb 22c2 803d 8713 193d 9ed1 553e
000000b0: 2ef5 033e 54bc bfbd d874 e7bd 3a7a 24be
000000c0: a6e7 4d3d d990 653e 0e16 d5bb 1722 e1bd
000000d0: bcb6 3ebe 9797 743e 84ca 773d e496 6bbc
000000e0: adb6 a1bd d2a7 e0bd 765e 173e 8f50 553e
000000f0: 25e0 a53d 123b f5bc f1da 2ebe 22a4 0a3e
00000100: 2444 b53d 6897 933d c300 39be 395f 2bbe
00000110: dceb 14be 5d79 cdbd c3fc a53d 32d2 d7bd
00000120: 8439 8a3d 6af6 3bbd 16ce 7e3d 2f84 d83d
00000130: bd91 3d3e 6d8a fabd cfeb 553e aadb 5e3e
00000140: 5e79 17be c118 ba3c b3de 98bd c088 973d
00000150: cb56 d7bd 9acb 44be efed b43c 7f74 5bbe
00000160: 88d4 183e 453f 6bbe 04eb 823e cd3d fd3d
00000170: e38d 3e3e aa72 413e 12bf eabd 74e6 fc3d
00000180: 5d25 bb3d 4844 7bbd e252 9bbb 3d6a 2abd
00000190: b3b7 f63d 2516 16be 8f85 533c d5be dbbb
000001a0: 5207 e13d ee20 b4bd 6571 8abe f3fd 3e3e
000001b0: 83ce cc3b 960f 223e 61dd 09be 3a06 573e
000001c0: 44ac 303d c2dc 443e 9119 d13d 975a 2abe
000001d0: 50cd f33d 1af2 833e 114c 123e 0a7c 4cbe
000001e0: 4afa 4dbd c84f 80bc 76c8 5d3d 6c74 b63d
000001f0: 565d 2cbe de21 e43d bfea c83d 87ed cbbd
0.11110796 0.069838576 0.08286713 0.09902902 -0.1973793 -0.019528642 -0.11244382 0.06213492
-0.21221595 0.0021655315 0.002350665 -0.14713417 0.1784966 0.20590271 -0.11051406 -0.16108371
-0.026656158 0.19865616 -0.07499947 -0.015949603 0.048352234 0.047745664 -0.14965865 0.07546743
-0.15137434 -0.06377302 0.06075443 -0.029715737 -0.23935804 0.079278424 -0.05538423 0.0038565286
0.12617959 0.0042627226 0.19173104 0.07106347 -0.09022873 -0.08257017 -0.2164207 0.11020908
-0.0048093423 0.06287028 0.03737214 0.20880744 0.12886497 -0.093620926 -0.11301583 -0.1606225
0.050269745 0.22418536 -0.0065028733 -0.1099283 -0.18624395 0.23885952 0.06049587 -0.014379237
-0.07896171 -0.10969509 0.14782128 0.20831512 0.08099393 -0.029935393 -0.17075707 0.13539174
0.088508874 0.07206613 -0.18066697 -0.16735543 -0.14543098 -0.10032914 0.08104851 -0.105381384
0.067492515 -0.045889296 0.062208258 0.10572087 0.18512626 -0.12233434 0.20890735 0.21763483
-0.14792392 0.022716882 -0.074643515 0.0739913 -0.10514601 -0.19218293 0.022086112 -0.21431158
0.14924824 -0.22973354 0.25569928 0.12365303 0.18608813 0.18891397 -0.11462225 0.12348643
0.09137986 -0.061344415 -0.004740105 -0.041605223 0.120467566 -0.14656885 0.012910261 -0.0067060986
0.10987724 -0.08795343 -0.27039638 0.18651561 0.006250204 0.15826258 -0.13463356 0.20998469
0.043133035 0.19224837 0.102099545 -0.1663612 0.119043946 0.25770646 0.1428683 -0.19969192
-0.050287522 -0.015663043 0.054146253 0.089089245 -0.1683248 0.11139272 0.09810399 -0.09957414

encoder.weight_hh_l0 f4 [128, 32]
00000000: aebb 183e 4f3d 35be 6c48 f2bd 0ef5 f23d
00000010: 3fd0 e03d b196 f4bd 4f8f a3bc 578e 2abe
00000020: 6002 08be 7f79 bdbd 63ab e7bd 8ac9 883d
00000030: f331 d13d 2eb4 953d 866d e83d 797d 0a3e
00000040: dc79 043e 0e5f b2bd 35c8 7ebd 75a2 a3bd
00000050: 0094 c4bc a4b0 713d daf5 90bc 625f bbbc
00000060: 079a 223e 161d b3bd 4dfb 3abd 9420 9b3d
00000070: a975 25be ecec 8fbd 94fa bd3d 83d6 ccbb
00000080: 96ce 4fbd 046a 783d 6c9a 4bbe d1da ad3d
00000090: 0ac7 0abe f2ab 65bd 7cc6 2ebd 9a0f 9bbd
000000a0: 2526 8fbd 32b8 063e 3e0d 193e 77d8 663d
000000b0: a87b 243d abdf d5bd 8b80 683e 72ef aabc
000000c0: be3a 04be 9ef9 e63c e617 5ebc 18cb c23d
000000d0: 5fa5 bfbd 841d cbbd c43f a1bd 665d eebd
000000e0: f8f2 5ebd bf76 f33d c7e2 04bd 8a72 01bd
000000f0: 712e fd3a 2118 82bd 1585 923d a9cc 0a3e
00000100: c69f 67bd 8bbc 0dbe 6b39 0b3e 2d03 1bbe
00000110: df19 19bd e327 d2bc dcac b3bd 9ff9 17be
00000120: cbc0 9cbc 7f5a f53b c494 e7bd aacd d43d
00000130: f614 8ebd e112 0cbc f628 b53d 7aaf 843d
00000140: e910 233e 7d73 a2bc e0f3 3ebd bde4 253e
00000150: 2bc3 32be 8af2 b1bd d16c 80bd 08fd 443e
00000160: d0aa 8b3d cfa8 c3bd 0a44 2e3d b0db f53d
00000170: 544e 113d 1695 babd 0bab 0fbc fc4d f5bd
00000180: 55c8 193e 054c ae3d 8b0a f23d 4e06 01be
00000190: c79f fd3d c241 fe3c ec4c 1fbe e31e 6cbd
000001a0: db57 27be b429 0cbe 1a21 41bd a8b9 c2bd
000001b0: bb31 823d a10a dd3d 8a8a 0f3e cedd 0cbe
000001c0: 5002 1fbe 879f 993b 4b28 3ebe c189 07be
000001d0: 88df bebd 2255 363d 231a 363d c988 3ebe
000001e0: 1a6a 503e c6bf ee3d 2bd5 893e c84a 02bd
000001f0: 648a 85bb 49ad 0d3d e6a0 3bbe 8488 e23d
00000200: 44a1 dfbd 2718 583c 4739 543e 2501 3d3e
00000210: 2560 823e d6ef 403e 09c3 1e3d 2b77 833d
00000220: d38b b4be ca20 663e 0f80 77be 242a cfbd
00000230: 4bae 35bd 656c 383e ed06 9cbd bb49 a9bd
00000240: 5683 863d 9422 31be 981f 3d3d 4534 3bbd
00000250: c200 283d c2f7 ecbc 043c d93d e755 11be
00000260: bc1b 403e 73b8 5b3e d0bf efbe 79c5 80bd
00000270: 6242 4dbe e80a 093e 6961 643d 1773 7e3d
00000280: e83e 0abd 2ac9 bd3d 833e 5ebd b10e 183b
00000290: df0f d9bd c0c4 7f3e a36d 2ebe a3c9 11be
000002a0: 8067 5abd ba22 343e 907c 123e 6791 25bd
000002b0: cdb4 21be f8ed 2a3e a492 0b3e 4f69 f0bd
000002c0: 1774 af3d 0dbe febd cc5a 13be ed21 dcbd
000002d0: bfb1 c53d 8c5b 1e3e c248 16bd f118 023e
000002e0: 4313 95bd b254 623e c1a8 e13d 2c1a 9bbd
000002f0: fcdc d3bd 18c1 a9bd eebb 4d3d e38b 7ebd
00000300: 5746 95be ceaf 683e 8bc3 89bd a834 4b3e
00000310: 534a c53c d3cc d8bc 5a24 773d c483 963d
00000320: 1795 04be cac8 b73b a5c5 ccbc 87a7 9d3c
00000330: 6451 95be 19ec 3f3e 228f d7bb 1fc0 54be
00000340: 819c dbbd f3c4 10bd cd6a 8b3d d730 8c3d
00000350: e84a 0dbd 9107 f23d 0bb0 29bd 9d4c 6b3c
00000360: 40c5 b93d cf80 9dbc ba0f 6bbd b4bb 89bd
00000370: 9d2d 01bd fb17 61be d9a6 1e3e 67c5 d9bd
00000380: 65eb a93d d9b4 02be d32f c63c bb6c 063d
00000390: 9b41 05bc ea19 cf3c 69b5 363e db5b 773d
000003a0: a915 cbbd 89e1 1d3e da5a fa3d 870b 9abc
000003b0: 1e71 f9bd aca7 3cbc 4a32 743c 78e6 d8bd
000003c0: 3d94 40bc 5651 223d 749b 03be b2d1 1d3e
000003d0: f16c cebd d3bc d03d 6da9 34be c82f 42bc
000003e0: 5277 ebbd 522e 173d 135a 1b3d 9474 1dbd
000003f0: c066 22be 7653 b83d d0b5 c3bd e2d2 c9bd
0.14915344 -0.17699169 -0.118302196 0.11863147 0.1097722 -0.119428046 -0.019965796 -0.16655861
-0.13282156 -0.09251689 -0.11311986 0.066790655 0.10214605 0.07309757 0.11349015 0.13524427
0.1293711 -0.087095365 -0.06220265 -0.079899706 -0.023996353 0.05900635 -0.017695356 -0.02287263
0.1587907 -0.08745782 -0.045649815 0.07574573 -0.16158165 -0.07027611 0.092763096 -0.0062511577
-0.050734125 0.06064798 -0.19883126 0.084890015 -0.1355249 -0.056072183 -0.04266976 -0.07571335
-0.06989697 0.13156202 0.14946458 0.05635878 0.04015699 -0.10443052 0.22705285 -0.02086613
-0.12913033 0.028195199 -0.0135555025 0.09511393 -0.09357714 -0.09917739 -0.078734905 -0.11638908
-0.05443093 0.118878834 -0.032442834 -0.031603374 0.0019316209 -0.063522585 0.0715429 0.13554634
-0.056548856 -0.13841455 0.13596122 -0.1513793 -0.03737819 -0.025653785 -0.08773205 -0.14841317
-0.0191349 0.0074875946 -0.11307672 0.1039079 -0.06937592 -0.008549423 0.08845703 0.06478782
0.1592442 -0.01983046 -0.046619296 0.16200538 -0.17457263 -0.08688839 -0.06270755 0.19237149
0.06819689 -0.09553682 0.042545356 0.12004793 0.03547509 -0.09110467 -0.008768807 -0.11977765
0.15017827 0.08510593 0.11818417 -0.12600061 0.12383991 0.031037215 -0.15556687 -0.057646643
-0.16342108 -0.13687783 -0.04715071 -0.09508067 0.063571416 0.10793043 0.14017692 -0.13756487
-0.15528226 0.0046882066 -0.18570058 -0.13236143 -0.09319979 0.044514783 0.04445852 -0.18606867
0.20352975 0.11657672 0.26920447 -0.0318096 -0.0040753353 0.034589086 -0.18323097 0.110611945
-0.10919431 0.013189352 0.20724975 0.18457468 0.25463977 0.1884149 0.03876022 0.06419214
-0.35262927 0.22473446 -0.24169944 -0.101154596 -0.04435567 0.18010099 -0.076185085 -0.08266016
0.06568019 -0.17298347 0.04617271 -0.045704145 0.041016348 -0.028926734 0.1060715 -0.14192925
0.1876058 0.2145708 -0.4682603 -0.06287665 -0.20044854 0.13383067 0.05575696 0.062121477
-0.0337514 0.092668846 -0.054258835 0.0023202116 -0.1059873 0.24977398 -0.1703401 -0.14237075
-0.05332136 0.17591372 0.1430533 -0.04042187 -0.15791626 0.1669234 0.13630158 -0.11738836
0.08567064 -0.12438593 -0.14390105 -0.10748658 0.09653043 0.1546461 -0.03669048 0.12704827
-0.072790645 0.22102621 0.110185154 -0.07573351 -0.10344884 -0.08288783 0.05022805 -0.062145125
-0.29155228 0.22723314 -0.0672675 0.19844306 0.024083292 -0.026464855 0.060337402 0.07349351
-0.12947498 0.0056086527 -0.024996588 0.019244922 -0.2916366 0.18742408 -0.006578342 -0.20776413
-0.1072321 -0.035344075 0.0680748 0.06845253 -0.034495264 0.118178494 -0.041427653 0.014361528
0.090708256 -0.01922646 -0.057388045 -0.06725255 -0.03153764 -0.21981804 0.15493335 -0.10633355
0.08296851 -0.127643 0.024192726 0.032818537 -0.008133317 0.025280911 0.1784264 0.060390335
-0.09916241 0.15418066 0.1222436 -0.018804325 -0.121797785 -0.011514585 0.014904568 -0.105908334
-0.011754093 0.03962835 -0.1285227 0.15412024 -0.10079373 0.10192265 -0.17642756 -0.011852212
-0.11497368 0.03690941 0.0379277 -0.038441256 -0.15859509 0.09000294 -0.09556162 -0.09854676

encoder.bias_ih_l0 f4 [128]
00000000: 13d2 e3bc 5600 053e 6357 2bbe 4e91 04be
00000010: 3c70 763d 2a07 b73d d8fa 3bbe 4e6c 423e
00000020: cf6d efbd 84a5 8d3d 428a 083e 2e97 513e
00000030: 8778 fa3c 3f75 a1bd 7320 683e 3635 02be
00000040: f0b8 f3ba 4bda bcbc 026b 223e 3448 97bd
00000050: 4627 f7bc 33e2 943d a998 153e a266 3d3e
00000060: 0ca6 2e3d 1cde 1d3e 47d3 6fbe 6391 c6bd
00000070: 989b 663e 172f 753e 9e3c 893d d971 263e
00000080: a7e2 523d 77f8 1c3e 3341 083e c5ea b43d
00000090: b5d2 153e 50f8 0abe f72f c1bd 544e 77bd
000000a0: 37d6 ebbd 3c73 003e 6119 13be 2a3a 80bd
000000b0: 9501 973d ceb1 4cbd da41 033e 1e8b 863e
000000c0: b0ce 743d a6b4 2a3e b859 8abd 3512 8ebc
000000d0: a560 0bbd d7a4 cebd 1fb5 103d fd31 50bd
000000e0: 574f 193e 9725 ea3d 4cc0 6e3e b229 353e
000000f0: c229 863e 141f 453d 48de cf3d 2a6a 9fbd
00000100: 17d1 97bd 96f2 8dbd ef6f 95bd 9cc6 5d3c
00000110: a0d3 663d 7def 76bd 0546 33bd 83d2 51bd
00000120: 7869 93bd 7c7c a7bc 8d1b 4bbd 9346 2bbe
00000130: 310c b1bc 3b76 84bc 233e f93c 0e57 053e
00000140: 576e d63d d6bf 653e d5d8 cfbd 680e cd3d
00000150: 31ac 163e e802 0abe 7885 1fbd 3322 3bbe
00000160: 2624 d33d 6b58 0c3e bc1e 13be 34c1 9a3d
00000170: e4d2 80be d478 273e 40ce f3bd 0d64 5cbb
00000180: e42d 253e 44c0 393d 8b95 bebd b20f 7ebd
00000190: c17f 83bb f291 ccbd 159a 153e b86a 4d3e
000001a0: ef7d 11be fe50 ce3d 04af 33be 0fd2 243e
000001b0: 2f3d a13d c506 263e 9881 d2bd b843 443e
000001c0: 6d2f 16be 6387 453e 9742 2b3e acd8 09be
000001d0: 0676 163e 1795 a3bd 45f6 2b3e 6a52 e0bd
000001e0: ffb5 cabc 649d d03d a94e 823e 7c20 f53c
000001f0: bed3 4dbd 5b9f 583e a0a1 e23c 1751 bf3d
-0.027810132 0.1298841 -0.16732554 -0.12946054 0.06016563 0.08936913 -0.18357408 0.18986627
-0.11690866 0.06916335 0.13333991 0.20467827 0.03057505 -0.07883691 0.22668628 -0.12715611
-0.0018594544 -0.023053309 0.15861133 -0.073868185 -0.030170094 0.072697066 0.14609016 0.18496183
0.042638823 0.15416759 -0.2342044 -0.09695699 0.22520292 0.23943745 0.06701015 0.16254367
0.051485684 0.15329157 0.13306122 0.08833841 0.1463116 -0.13571286 -0.09432977 -0.060377434
-0.115154676 0.12543958 -0.1436515 -0.06261094 0.073733486 -0.049974255 0.12818089 0.26278013
0.059767425 0.16670474 -0.06755394 -0.017342666 -0.034027714 -0.100900345 0.03532898 -0.050828923
0.14971672 0.11432951 0.23315543 0.17691687 0.26203734 0.04812534 0.10149819 -0.07783921
-0.074129276 -0.06931035 -0.0729674 0.013536122 0.056354165 -0.060286988 -0.043767948 -0.05122615
-0.07197851 -0.020445101 -0.04958682 -0.1672614 -0.021612259 -0.016169658 0.030425137 0.1302149
0.104702644 0.22436461 -0.10148779 0.100125134 0.14714123 -0.13477671 -0.038945645 -0.18274765
0.10309629 0.13705604 -0.14367193 0.07556382 -0.25160897 0.16354686 -0.119045734 -0.003362897
0.16130787 0.045349374 -0.09305867 -0.062026687 -0.004013032 -0.09988774 0.14609559 0.20060241
-0.14208196 0.10074042 -0.17547232 0.16095756 0.07872998 0.1621352 -0.10278624 0.19166458
-0.14666529 0.19289927 0.16724621 -0.1346156 0.1469346 -0.07987421 0.16793163 -0.10953219
-0.024744986 0.1018627 0.25450638 0.029922716 -0.05025076 0.2115454 0.02766496 0.093416385

encoder.bias_hh_l0 f4 [128]
00000000: 63ac 2f3d 9b09 b03d 30ff 343d 004b 183e
00000010: e500 99bd 3adc 9dbd fcb6 4dbd 7f2f 16be
00000020: 6d1e 003e 366b 943b 0fe0 33be a74e 683d
00000030: 7d8d 273e be20 1cbe 7af5 8b3a 42ed 21bd
00000040: 7474 093e e3fc 7d3d f3c3 173e 09c8 b53c
00000050: dc1b 43bc af20 1a3e a0df d03c 1511 adbd
00000060: 5301 053e 0254 c23d 1ba7 8ebd 0ea6 ef3d
00000070: 3b65 b23d ca0d a33d 01c3 1c3d d4ba 9a3c
00000080: 0c19 a3bd 1aad abbc b2de 963c 5e11 b4bc
00000090: 7c00 26bd ed22 40bc dd53 17bd 941c 423c
000000a0: 477f b83d 1987 cf3c 41a4 643c e118 4c3e
000000b0: 73e8 953d 177d 0abe e674 07bd 2d28 c33d
000000c0: b852 0bbe a22d 403e bad2 06be 0eb7 90bd
000000d0: c8c6 323d f6a4 463e 3e49 293e 535f 0e3e
000000e0: a773 32bd e2ea 803e 3681 d83d 5401 423e
000000f0: 1b13 213d 3716 313e 99bc 72bd 47d4 3c3e
00000100: 8de6 693e 5cdf 80be 500b c2bd 915e 34be
00000110: 98e2 da3d 3bf8 c93d f63e b03c 0f8f a6bd
00000120: 643c 04bd 6694 b73d 60f1 e93d c1cc c3bd
00000130: 2569 473e a087 11be 4a00 5e3e 149e 14be
00000140: 105b 6ebe 878e fd3d 96b7 72be cec9 78be
00000150: a3d5 203e d3ff 69bc b93f 18be aa9b 39bd
00000160: c488 ff3d b9a2 a43d 6eaa 263d 6325 443e
00000170: cee4 683d 2094 88bc 0e19 c3bd 4ad6 ef3c
00000180: 7787 253e 5e96 1c3e 8f5f f6bd 7c7b ce3d
00000190: 847b d1bd 1616 28be 6604 bb3a 2276 b53c
000001a0: f82f e4bd 12e1 99bd 47d5 263d 039c 693c
000001b0: c8f0 4a3e b8c3 c0bd 99f3 c23d 52d5 023e
000001c0: 76a8 b2bd 5a87 e1bd 81ed 5e3d 4c9f 153e
000001d0: 6aeb c63c 82c1 b43d cdcf 803e 2be7 f23b
000001e0: 8494 b3bd 02a0 743c c9ed a639 380a 4c3e
000001f0: 1a3b 25bd d6af 8e3d f7e0 f5bd fc69 d7bd
0.04288901 0.08595582 0.04418868 0.1487236 -0.07470874 -0.077080205 -0.050223336 -0.14666556
0.12511607 0.004529382 -0.1756594 0.056715634 0.16362567 -0.15246865 0.0010678016 -0.039532907
0.1342333 0.06200875 0.14820842 0.02219011 -0.011908498 0.1505153 0.025497258 -0.08450524
0.12988786 0.094886795 -0.069654666 0.11701594 0.087107144 0.079616144 0.038271908 0.018887915
-0.07963762 -0.020956565 0.018416736 -0.021980938 -0.040527806 -0.011727077 -0.036945213 0.011847634
0.09008651 0.025332974 0.013955177 0.19931366 0.07319727 -0.1352428 -0.033070467 0.09529147
-0.13605773 0.18767408 -0.13166323 -0.07066165 0.043646604 0.19398865 0.16531846 0.13903551
-0.043567326 0.251792 0.1057152 0.18945819 0.03932486 0.1729363 -0.059261892 0.18440352
0.22841854 -0.2517041 -0.09474814 -0.17614199 0.106877506 0.09861799 0.021514397 -0.08132755
-0.032284155 0.08963852 0.11422992 -0.09560538 0.19473703 -0.14211893 0.21679798 -0.14513427
-0.23276925 0.123807006 -0.23702845 -0.24295732 0.15706496 -0.014282185 -0.14868058 -0.04531447
0.12477258 0.080388494 0.04068988 0.19154887 0.05685883 -0.016672194 -0.09526263 0.029276986
0.16164957 0.15291736 -0.12029945 0.100821465 -0.10228637 -0.16414675 0.0014268279 0.022151057
-0.11141962 -0.07513632 0.04073074 0.0142583875 0.19818413 -0.094123304 0.09519119 0.12776688
-0.087235376 -0.110121444 0.05442572 0.14611548 0.024282176 0.08825971 0.2515854 0.0074128113
-0.087685615 0.014930727 0.0003183915 0.19925773 -0.040339567 0.06967132 -0.12005799 -0.10518262

decoder.weight_ih_l0 f4 [128, 32]
00000000: 3dbf 143e d586 de3c ae4e d63d cb14 0b3d
00000010: 14ec acbd 1cb2 033e 57d4 58be 9675 fdbd
00000020: 7abc e43d f78b f23b 7fff 143e ed40 033e
00000030: d7cb 973c 0471 b83d 0931 803d 4176 b7bd
00000040: 2b54 333e e3f1 c33d bd30 863b c3e2 3ebd
00000050: 2eab 02be 6718 d8bc 36c6 e43d 406c ca3d
00000060: 95d3 a23d 9fe3 203e 1513 2f3e 97c3 2ebe
00000070: 2f94 ae3d 6a33 4dbe 758f 053e f2f6 d6bc
00000080: 0f59 443e c966 7c3c 00f1 18ba 9549 96bd
00000090: 58de 403d cf3e 3dbd 935d 38bd 6529 b6bd
000000a0: d652 d93c 87b4 91ba 8103 bf3d 76c6 babc
000000b0: 7dad 91bd a02c db3d c9ec 213e 367d 013e
000000c0: 0778 efbd e7b0 bfbc ee22 10be e66b c23d
000000d0: 544d 083e 33ec f1bd cb46 2dbe 5fa4 9f3d
000000e0: 4d61 3d3e c471 813d b666 103d 615d 413e
000000f0: 4b55 52bd 7ff2 293e 436d 4cbe 4995 d1bd
00000100: 0ef4 853c e2c5 20be 37e3 da3d 528f 0e3e
00000110: 589a d73d 4894 ec3d 0b05 3e3d 44d3 de3d
00000120: b4b1 8e3d f849 9abc 21f8 cf3b b3b1 98bd
00000130: 0f2b 1e3e b831 aebd 26c9 ca3d 7537 5a3e
00000140: 0e37 38bd 48c9 273e 1e12 20bc 78db b1bd
00000150: 1a6f 543a 0991 ac3d 29a4 96bd 9835 373e
00000160: f683 04bd bb59 b63e 6a20 12be b733 373d
00000170: 0a40 193e 2f6d 283e b888 2bbe dd24 0dbe
00000180: 8acd 9b3d 1195 363e a166 e23d 9dc6 a8bd
00000190: dc9c 46bd a6c8 2f3d b003 2abd fbbe 2cbc
000001a0: c9a7 cbbc 03be d5bd 212d 483d 761d f13c
000001b0: 414b 01be d1b3 0a3e 0c0c 46be 91e9 663d
000001c0: ac7f 593e 11ab 31bc 6323 da3d f103 66bd
000001d0: 7f52 a2bd 96f7 103e c882 cb3d d945 97bc
000001e0: 4f17 52be 888e 5cbe bdaa 43be 5de3 42bd
000001f0: f516 a73d cc74 c3bd 9be9 8a3c c4e6 ecbd
00000200: 0817 2bbe f27c 413d 7294 ebbd 6118 313e
00000210: f6d9 1e3c c20e babc 1c70 1fbe 8c90 023e
00000220: 58b2 fabd 170e d0bb 0cef 27bc c8c2 363c
00000230: 658c 003e e981 a33d e6b1 08bd a2dd 243e
00000240: 7830 c23d 8dbd 883c b8b9 bbbd 6dea 603c
00000250: b89a 2e3e c92f 1bbd fdf9 5dbd 87b4 efbd
00000260: 3fba 033e 1380 513d 2673 3cbd 1705 f1bc
00000270: 5a03 743d 091c 2cbe 13e2 dcbd 7e8e 01bd
00000280: 2206 8e3d 1a45 39be 3c7b 19be 73f3 97bd
00000290: 036b fabc cd96 243c 8430 c8bd c4d6 893c
000002a0: 432f 92bd 3898 04bd acc2 f0bb da45 efbd
000002b0: 20dc 3c3e 2870 39be f19d 75bd 3d09 b03d
000002c0: 3e84 7b3c 8595 6a3e 4285 c33d e694 0dbd
000002d0: fd0d 263e 7144 ca3d 3911 11be 37bf ccbd
000002e0: 26eb ec3d a282 533e bffe a9bd fafc 923d
000002f0: 24d2 b8bd 5a5d 21bd 3943 563d 85b6 673d
00000300: b854 5fbe 1c92 323e c6f6 5dbd 0f91 9cbd
00000310: b65c b23d bd77 b0bc 031a 063e 8659 293d
00000320: ccdf 283e e374 243c 8992 46be d19e 0f3e
00000330: fca0 04bd 4599 4c3e b4da 83bd 482f 67bc
00000340: 5acd bfbd f903 5abd f8fe b13d dc4f 2b3e
00000350: f96f 63be 7345 003e 4b84 a03d 6ccd 673e
00000360: b58e 1dbe 4489 9d3c da4a 1d3d 564a 903d
00000370: edd9 8abd a0c2 833d 94e4 b33d 3228 28be
00000380: bf55 2ebe 4235 0a3e 3a01 db3d 548e 7b3e
00000390: 284b a8bd a021 9bbd 03f8 3f3e 32c5 cf3d
000003a0: 8ca2 b33d e24d 3d3d 93c0 dbbc 383d 3fbd
000003b0: afce 59bd 8a3a 653e 5f05 4dbe 6628 ba3c
000003c0: 1726 073e 0760 68bd f48d 913d c1a9 ff3d
000003d0: 267d 3f3d 9156 43bd 7740 473e 630b c33d
000003e0: 0490 27be 8ce7 4ebe 7c33 1d3d b8b1 863d
000003f0: cd4d 8f3d 8555 29be b5f0 d93d 9a49 f3bd
0.14526077 0.027163902 0.10464226 0.033955377 -0.08443466 0.12860912 -0.21174751 -0.12375943
0.111687616 0.007401939 0.14550589 0.12817736 0.018529816 0.09005931 0.06259353 -0.08958102
0.17512576 0.095676206 0.0040951655 -0.046602976 -0.12760612 -0.026378823 0.11170618 0.09883928
0.07950512 0.1571183 0.17097123 -0.17066799 0.085243575 -0.20039144 0.13043006 -0.0262408
0.19174598 0.015405365 -0.00058342516 -0.073382534 0.047087044 -0.046202477 -0.045011114 -0.08894614
0.026528757 -0.0011116423 0.0932684 -0.022799712 -0.071131684 0.10701871 0.15812983 0.1264542
-0.11692815 -0.023399783 -0.14075825 0.09493236 0.13310748 -0.118126296 -0.16921537 0.07795023
0.18494149 0.06320527 0.035254203 0.18883277 -0.051350873 0.16596411 -0.19963555 -0.10233552
0.016351726 -0.15700486 0.10687869 0.1392186 0.105274856 0.1155172 0.046391528 0.108801395
0.06967488 -0.0188341 0.006346718 -0.074557684 0.15446113 -0.08505577 0.09901647 0.21310218
-0.04497438 0.16385376 -0.0097699445 -0.086844385 0.00081037136 0.08426101 -0.0735553 0.17891538
-0.03235241 0.35615334 -0.14270177 0.044727053 0.14965835 0.164479 -0.16751373 -0.13783593
0.07607563 0.17830302 0.11054731 -0.082410075 -0.048489437 0.042915963 -0.041507423 -0.01054358
-0.02486028 -0.104366325 0.048871163 0.029432993 -0.12626363 0.13545157 -0.19340533 0.05637509
0.21240109 -0.010844008 0.10651281 -0.056156103 -0.07925891 0.14156947 0.09937054 -0.018465923
-0.20516704 -0.21538746 -0.191081 -0.04758011 0.081586756 -0.095437616 0.016957095 -0.115674525
-0.16708004 0.047238298 -0.11502923 0.17294456 0.009695521 -0.022712115 -0.1557011 0.12750453
-0.122410476 -0.006349336 -0.010249864 0.011154838 0.12553556 0.07983763 -0.033372782 0.16100171
0.09481901 0.016691947 -0.091662824 0.013727766 0.17051208 -0.03788737 -0.054193486 -0.11704355
0.12864016 0.05114753 -0.04600825 -0.029421372 0.05957351 -0.1680757 -0.10785308 -0.03163003
0.069347635 -0.18092766 -0.14988416 -0.07419481 -0.030568605 0.010045719 -0.097748786 0.016826041
-0.07137921 -0.03237173 -0.0073474254 -0.11683245 0.18443346 -0.1810919 -0.059965078 0.08595512
0.015351353 0.229086 0.09546901 -0.03456583 0.16216274 0.098763354 -0.14166726 -0.09997409
0.115682885 0.20655301 -0.08300542 0.07177158 -0.09024456 -0.039395668 0.052310202 0.05657055
-0.21809661 0.17438549 -0.05419042 -0.07644855 0.087090895 -0.02154147 0.1309586 0.04134514
0.16491622 0.010037634 -0.19391836 0.14025427 -0.03238009 0.19980343 -0.06438199 -0.014110394
-0.093653396 -0.053226445 0.086912096 0.16729683 -0.22210683 0.12526493 0.07837733 0.22636956
-0.1538647 0.019230492 0.038401462 0.070454285 -0.06779847 0.06433606 0.08783832 -0.16421583
-0.17024897 0.13496879 0.10693593 0.24566013 -0.0821746 -0.07574773 0.18746953 0.10145034
0.08771238 0.046216853 -0.026825225 -0.046689242 -0.053175624 0.22385612 -0.2002158 0.022724342
0.13198124 -0.056732204 0.071071535 0.1248355 0.04675021 -0.047689978 0.19458185 0.09523656
-0.16363531 -0.20205516 0.038379177 0.06576866 0.06997261 -0.1653653 0.10641614 -0.11879273

decoder.weight_hh_l0 f4 [128, 1]
00000000: af6c e03d f9e1 b13c 42b4 8cba 5f6b 68bd
00000010: f304 46bd 4eaf babc 4387 883e 3173 1e3c
00000020: cdc9 f93d 5165 58be a32c 5fbd c813 193d
00000030: b6b0 d7bd 2c93 9abf 5cb9 423d 1629 803d
00000040: 1e8d 3c3e 4092 8dbe 2338 8f3d 486d bfba
00000050: 0864 ddbc 9743 023e 94ef 003e 15f3 423e
00000060: d432 dabc 9910 4dbe 526c 2c3b f44f b7bd
00000070: 4224 e43e 7447 f2bd 7d8a 1b3e b4c1 1dbe
00000080: a326 533e ab4f 993e ae5e c33e 7819 aebd
00000090: bf97 fcbd b374 cd3d 9aa5 013f d691 07be
000000a0: c09d 0dbe ab52 35be 1c05 66bd 216c 72be
000000b0: cd6a 65bd 0c96 513f c00f 933d cb56 85bd
000000c0: 73f1 a53e 826f fdbd dd8a 1c3e b4fe 45bd
000000d0: d0bb 9e3c f964 8abd bd81 8e3e 7467 053f
000000e0: 7232 3e3d a799 a4bd 62f7 d8bd 13b5 4bbe
000000f0: 403b 333f 0733 843d 4b09 b83e 5098 593e
00000100: 065a 003c f2e9 5dbe 9ab6 b83d a57b 313d
00000110: 7ef9 abbd 732a 29bd 87bf 003e d429 91bc
00000120: a9c8 e1bd 9541 983e 84d1 16be 0e84 87be
00000130: bcd4 40be fdfc 2ebe d6f4 ac3d 955c d2bc
00000140: da7f 5ebe fc88 22bd 0215 a13d 4629 f5bc
00000150: 4166 aebd 721f 0fbe 6862 2e3e 019c bf3d
00000160: 2499 5abe bbef 8abe 7055 803e 5c93 153e
00000170: 00bc 18bf 8b7b f13c cccf 8cbd 27fa 99bd
00000180: f8cb 31be e06b 043e a6b1 3cbe cdf4 4e3c
00000190: 419a 5fbd 7594 34be 9e52 da3d 89c7 5fbd
000001a0: 07ac f7bc fcad 3abe 79f2 80be 7b28 8dbd
000001b0: ce41 283d 9c4c c93e b22f 10be 6003 31be
000001c0: 268a 193d 0008 143e 356b 2bbe f4d7 09be
000001d0: 6f5c c33d 4f2c 043e 8ac6 663d 968b bc3d
000001e0: 4499 29be fd52 c4be 33a5 57be 5085 4cbe
000001f0: 019f 083f 214b 50bd 35ad 9c3d fb10 ecbd
0.1095823 0.021714197 -0.0010734873 -0.056743022 -0.048344564 -0.02278867 0.26665697 0.009671018
0.121966936 -0.21132399 -0.05448593 0.03737238 -0.10531752 -1.2076163 0.047540054 0.062578365
0.18413207 -0.27650642 0.06993129 -0.0014604712 -0.027025238 0.12721096 0.12591392 0.19038041
-0.026635565 -0.20025863 0.002630968 -0.08950797 0.44558913 -0.11830035 0.15189548 -0.15405923
0.20620207 0.29943594 0.38158172 -0.085009515 -0.12333631 0.10032024 0.5064331 -0.13239226
-0.13829708 -0.17707317 -0.056157216 -0.2367406 -0.056010056 0.8186958 0.071807384 -0.06510695
0.32410774 -0.12374784 0.15287347 -0.048338607 0.019376665 -0.0675754 0.27833357 0.5211098
0.046434827 -0.08037119 -0.105940595 -0.19893293 0.70012283 0.06455045 0.3594459 0.21249509
0.007833963 -0.21671274 0.090192035 0.043330807 -0.08397196 -0.04130025 0.12573062 -0.01772014
-0.11024601 0.29737535 -0.14728361 -0.26467937 -0.18831152 -0.17088695 0.08445136 -0.025678912
-0.21728459 -0.03968142 0.07865335 -0.029926907 -0.08515597 -0.13976839 0.17029727 0.09355927
-0.21347481 -0.27136025 0.25065184 0.14606994 -0.59661865 0.029477855 -0.068755716 -0.07518416
-0.17362964 0.12931776 -0.18427143 0.012631607 -0.054590467 -0.17634757 0.10660289 -0.05463365
-0.030233396 -0.18230432 -0.25184992 -0.06892487 0.04107838 0.3931626 -0.14080694 -0.17286444
0.037485264 0.14456177 -0.16740115 -0.13461286 0.09539115 0.12907527 0.056341685 0.092063114
-0.16562372 -0.38344565 -0.21059112 -0.1997273 0.5336762 -0.0508529 0.07650224 -0.11526676

decoder.bias_ih_l0 f4 [128]
00000000: 8938 043d 5a7c 903d bce5 aabd 4295 663d
00000010: a9db 99bd 4249 d53b 76d1 3c3d bc43 5bbd
00000020: b7ad 37bd df26 463e 8e9b ca3d 4ca9 e03d
00000030: 604e 11be c044 7e3d ab88 323e 38b8 55bd
00000040: 1633 b9bd 9c10 ab3d 8525 d2bd 0f0c b93d
00000050: 04c5 573c 20a6 463d 9825 993d be89 aa3c
00000060: 7faf 903e 9576 443b d4a5 603e 8e7c b2bc
00000070: 1455 013e 0b31 2fbe 81d6 f0bd 4cb7 3abe
00000080: fec6 443e e622 1e3d 6a2d 953d 54e8 4ebe
00000090: bc81 7abd 50d3 31be 5e30 bbbd a4be 43be
000000a0: 02db 7ebd 9c4c b7be e0b3 333d 088e 56be
000000b0: 9b06 20be 47c7 203f b149 123e 6d16 cbbd
000000c0: 5922 2c3d 1055 51bb 2090 edbd 755a cb3c
000000d0: 961f 773c a436 1bbe fd07 05bd f69c f93d
000000e0: e154 1ebe d90d cabe a3ae 83be bc29 ddbd
000000f0: e870 68bb 58e7 623c d57c 443d c516 dfbd
00000100: 3699 713d 216e e4bd c85c 98bc 6c70 603d
00000110: ac38 b83d b53c 6dbe 4d23 f73c cc10 813d
00000120: 7c3d 0a3a 4341 4cbe 399f 803e 3b39 aa3d
00000130: fb1a 01bd 744f 763d f595 5ebe 09a3 8dbd
00000140: 06d9 00be 9a1a f5bd 53b2 883d ed37 d1bc
00000150: 80aa 17bd a90d 85bc d886 7cbb eea3 6e3d
00000160: a219 2d3e fb51 a6bb 7c60 b5bd e898 45be
00000170: ea49 b83d 08f1 63bc 84a9 e53d 595a 6b3d
00000180: c1c2 6c3c 9ee0 dbbd 5198 57bd ad0f 67bd
00000190: 7790 3f3e 36fa 1c3e 5349 9cbd de32 613b
000001a0: 89e7 cd3c 6687 0e3e c7bb 8cbd ef33 cd3d
000001b0: 5f25 a5bd 650f f13e 3dde 44bd 92b6 20be
000001c0: c12c 713d cf37 24be dc4e fa3d ffde 8ebc
000001d0: 5382 ad3d 5cea 59bd a8bc 14bc e522 35be
000001e0: 933a 5c3e 3ac8 e03d 2883 fabc e639 213e
000001f0: ff40 233e b1b0 42be e1c9 ed3d 5ca4 353d
0.03228048 0.07054968 -0.083445996 0.056294687 -0.075126 0.006508977 0.046098195 -0.053531393
-0.0448434 0.19350766 0.09892951 0.10969791 -0.14190054 0.062077284 0.17434947 -0.052177638
-0.09042947 0.08352777 -0.102610625 0.09035503 0.013169531 0.048498273 0.074778736 0.020817634
0.28258893 0.0029977907 0.21938258 -0.021787908 0.12630111 -0.17108552 -0.117596634 -0.18233985
0.19216534 0.0386075 0.07284053 -0.20205814 -0.06115888 -0.17365766 -0.09140085 -0.19115692
-0.06222058 -0.35800636 0.043872714 -0.20952618 -0.1562752 0.62804073 0.14285924 -0.09916387
0.042024944 -0.003194157 -0.11599755 0.024823407 0.015083214 -0.15157562 -0.03247832 0.12188141
-0.15462066 -0.3946369 -0.25719175 -0.10798976 -0.0035467688 0.013849102 0.04797061 -0.10893015
0.058984004 -0.11153818 -0.018598929 0.054794714 0.08995184 -0.23167689 0.0301682 0.06302032
0.0005273444 -0.1994677 0.25121477 0.08311697 -0.03151987 0.060134366 -0.21736892 -0.06915862
-0.12582788 -0.119679645 0.06674638 -0.025539363 -0.037027836 -0.016241865 -0.0038532522 0.058261804
0.1690431 -0.005075691 -0.088562936 -0.1929661 0.08998473 -0.013912447 0.11213973 0.05745921
0.01445073 -0.10736202 -0.052635495 -0.056411434 0.18707453 0.15329823 -0.07631173 0.0034362595
0.025134819 0.13918838 -0.06871753 0.10019671 -0.080637686 0.47082058 -0.048063505 -0.15694645
0.05888057 -0.16036914 0.122220725 -0.017440317 0.08472123 -0.05320202 -0.009078182 -0.17689092
0.2150672 0.1097569 -0.030580118 0.15744743 0.15942763 -0.19012715 0.11610771 0.0443462

decoder.bias_hh_l0 f4 [128]
00000000: 9724 203e 404d 1d3e 6499 cf3d 7b90 8a3c
00000010: bfb4 15be 70fd 333d 8816 15be 677d 70be
00000020: 30df 61bd 2a8d 863a b116 34bd f32f 0d3e
00000030: 454b bdbd 004a aebd 5efc 5c3d c639 7b3d
00000040: 19e7 043e 8fb9 a3bd db8b 30be c884 7d3d
00000050: 1c16 1fbd 0ef1 59be 9eff 44bd b087 27be
00000060: 9e62 f13d 3ffe e9bb c791 88bc f5db c4bd
00000070: ce92 113e f270 47be a1e3 48bd 50b0 12be
00000080: a1ba 1dbe c5ff bf3d 14bc 7c3d b88d 4fbe
00000090: 248a 273c 2f8d a23d 09d2 cfbc dbd7 e9bc
000000a0: 3385 05be 24e6 a5be f7f0 72be 5366 96bd
000000b0: af37 0fbd 3c2d 453f 2e29 88bd b52c c9bd
000000c0: 100d 183c c0fa c33b 2c3e 61bd 673a 34be
000000d0: aa11 9a3d 86ec 73be d23d 573d 1c37 00be
000000e0: 9480 053e cb71 00bf e624 0ebe 6b84 63bc
000000f0: c5fa cbbd f1ad 403d f904 393c 092a d23d
00000100: 3594 6ebe fd27 dbbd 2661 6abe 2b9d ca3d
00000110: 1d45 df3c 54ca 7bbe 1be3 2fbd 3eb1 d0bd
00000120: 5750 59bd 610e 8a3d ef22 2d3e af9a d13d
00000130: 5d00 213c 3a05 dabd 5b19 05be ae87 b33c
00000140: a3d7 27bd d5cf a53d e5e9 ed3c f5e3 c5bd
00000150: ae18 d5bd 66f6 58bd 6f90 8cbc f89b 973d
00000160: a026 c33d 1dfd 593e aded b2bd cf77 873d
00000170: 65e6 bfbd 7b83 c53d c166 d33d 2f08 773b
00000180: 9478 b23d 44b2 4d3e 1a4c c53d 3571 cfbc
00000190: f247 3c3d 02eb 17bd 64de 3cbe 8ba3 f4bd
000001a0: 63d1 24be df64 593e f549 613e 3a0d 573e
000001b0: d73e 46be 662f 7b3e 69ba 053d 78a2 c6bd
000001c0: e845 983d 147e dcbd 2b12 c93c 2658 84bd
000001d0: a090 67bd 9adf 1dbe ef29 81bd 2b52 a83d
000001e0: 8241 453e de64 e53b 7929 c03d 6d36 dcbd
000001f0: 2c86 d33d 5e93 7bbd 31fc fc3d 3ac1 ebbd
0.15638958 0.153615 0.10136679 0.016914597 -0.1461973 0.04394287 -0.14559376 -0.23485337
-0.05514449 0.0010265459 -0.043966953 0.13787822 -0.09242872 -0.08510208 0.053951614 0.061334394
0.12978782 -0.07994377 -0.1724085 0.06189421 -0.038839445 -0.21283361 -0.048095338 -0.16360354
0.11786388 -0.007140904 -0.016671075 -0.09612266 0.14216158 -0.19476679 -0.04904521 -0.1432507
-0.15403225 0.09374956 0.061702803 -0.20268905 0.010225806 0.07937085 -0.025368707 -0.02854531
-0.13039093 -0.32402146 -0.23724733 -0.073437355 -0.034965213 0.7702215 -0.066484794 -0.0982298
0.009280458 0.0059808195 -0.054990932 -0.17600404 0.075229004 -0.23820695 0.05254919 -0.12521023
0.1303733 -0.50173634 -0.13881263 -0.013886551 -0.0995994 0.047040883 0.0112926895 0.10261924
-0.23298724 -0.107009865 -0.22888622 0.09893259 0.027254635 -0.24588901 -0.042941194 -0.10190056
-0.053055134 0.06741024 0.16907857 0.10234582 0.009826747 -0.10645528 -0.12997954 0.021915283
-0.04097713 0.080962814 0.029042194 -0.0966262 -0.10405098 -0.05296936 -0.017158715 0.074027956
0.095288515 0.21287961 -0.08736739 0.066146486 -0.09370116 0.096442185 0.10322333 0.0037694087
0.08714405 0.20087534 0.09633656 -0.025322536 0.04596705 -0.037089355 -0.1844421 -0.11945256
-0.160955 0.21229886 0.22000869 0.2100114 -0.19359909 0.245298 0.032648478 -0.09698957
0.074352086 -0.10766235 0.024544796 -0.064621255 -0.05653441 -0.15417328 -0.06306826 0.08218797
0.1926327 0.0070005497 0.0938291 -0.107525684 0.10328326 -0.061419837 0.12352789 -0.115114644

decoder.weight_hr_l0 f4 [1, 32]
00000000: 2f89 3fbe 0e45 1fbe 4f7c 8ebd d2ba 043d
00000010: 6791 503d 1fcb 0dbe 70df 9e3d 6c8e 5fbd
00000020: e89c a33d 75a5 41be c750 5c3e 16a1 2e3e
00000030: df49 4a3d 2852 013f 92b5 f4bd c205 aabb
00000040: d87a 39be 6c24 eabc c312 fc3d 832e 343c
00000050: 486e 453d 5ce5 273b 8fb0 e9bc 6552 31bd
00000060: e6e2 463e 0156 803e 22a7 37be 028a 10be
00000070: f04f 61be f732 d13c d4d4 663e 21ae aabd
-0.18704675 -0.15553686 -0.06957304 0.03240473 0.050919916 -0.13847016 0.07757461 -0.054579183
0.07988912 -0.18910773 0.21515189 0.17053637 0.049386855 0.50515985 -0.11948694 -0.0051886747
-0.18113267 -0.02858182 0.12308266 0.010997417 0.048200876 0.0025618887 -0.028526573 -0.04329147
0.19422492 0.25065616 -0.1793485 -0.14115146 -0.2200315 0.025536997 0.22542125 -0.08333994
