output/synthetic_data/models/model_hidden16_lr0.001_clip0.5.pth (torch, 13735 bytes, 9 tensors)

encoder.weight_ih_l0 f4 [64, 1]
0	0x3e0a5a6f	0.1351106
1	0x3e356123	0.17712836
2	0x3e3b2ef0	0.18279624
3	0x3e048501	0.12941362
4	0xbda2e969	-0.07954676
5	0x3db1c7ed	0.08680711
6	0xbd12bfda	-0.035827495
7	0x3ba720f3	0.0051003634
8	0xbd99c827	-0.07508879
9	0xbde57e77	-0.11205762
10	0x3e408561	0.1880088
11	0xbe62ac40	-0.2213602
12	0x3d560135	0.052247245
13	0x3ba42956	0.0050098104
14	0x3e174be5	0.14775045
15	0xbcb87916	-0.022518676
16	0xbd3de27a	-0.046358563
17	0x3e34ca00	0.17655182
18	0xbe3c102b	-0.18365543
19	0xbe0e130c	-0.13874453
20	0x3e17daf1	0.14829613
21	0x3d3d5267	0.046221163
22	0x3da7713c	0.081758946
23	0xbdd66d2e	-0.10470043
24	0x3d9c9e1b	0.07647344
25	0xbdfbc987	-0.12294298
26	0x3ccec0d2	0.025238428
27	0xbe2394f4	-0.1597479
28	0x3e3bfc75	0.18358023
29	0xbd5c16bc	-0.05373262
30	0x3e8b235a	0.2717541
31	0x3d53eceb	0.051739614
32	0x3d99a629	0.07502396
33	0x3e8d7cce	0.2763428
34	0xbca02287	-0.019547714
35	0xbe3fe7bd	-0.18740745
36	0xbe8159cc	-0.25263822
37	0xbdc44055	-0.09582583
38	0x3e15ec7e	0.14640996
39	0xbdc08fd1	-0.09402431
40	0xbd87a03c	-0.06622359
41	0x3e8b75fa	0.27238446
42	0x3c8013e8	0.015634492
43	0x3e47b886	0.19503984
44	0xbe2662a5	-0.16248567
45	0x3c8bf3c1	0.017084004
46	0x3e2e0e8d	0.16997738
47	0x3e9b8f29	0.3038266
48	0xbe2b3c73	-0.16722278
49	0x3d6c5a3c	0.05770324
50	0xbcbd1b26	-0.023084234
51	0xbd169a7d	-0.036768425
52	0x3e787ce8	0.24266398
53	0x3e320b60	0.17387152
54	0x3dc506aa	0.09620412
55	0x3df92247	0.12164741
56	0x3e3882b9	0.18018617
57	0x3e01988d	0.1265585
58	0x3e586c73	0.2113512
59	0xbdcdd2a8	-0.10049945
60	0x3d8a05e1	0.067394026
61	0x3d960b63	0.073263906
62	0x3e55c5b0	0.20876193
63	0x3d983b27	0.074331574

encoder.weight_hh_l0 f4 [64, 16]
0	0xbcbb33b9	-0.022851812
1	0x3e627fe3	0.22119097
2	0xbd290c2a	-0.041271366
3	0x3dac937b	0.08426567
4	0xbca32444	-0.019914754
5	0x3e91e46a	0.2849458
6	0xbd9147e1	-0.07093788
7	0xbe090a0b	-0.13382737
8	0xbbf5bf39	-0.007499602
9	0xbdc3dcd5	-0.09563605
10	0xbe2f4aa5	-0.17118318
11	0xbe49a6e0	-0.19692564
12	0x3d5d8403	0.054080974
13	0x3bf5150d	0.007479316
14	0x3e81d9f0	0.25361586
15	0x3ea7d3ff	0.32778928
16	0x3e5cb8cd	0.21554871
17	0x3e12053c	0.1425981
18	0xbc030ba8	-0.007998385
19	0x3d409fb5	0.04702731
20	0xbdc045b1	-0.093882926
21	0x3e08d5d8	0.13362825
22	0x3df00c5d	0.11721108
23	0xbe3690da	-0.17828694
24	0x3b1e1851	0.002412338
25	0x3e9185d3	0.28422412
26	0x3dd02d0e	0.101648435
27	0x3d7893cb	0.06068782
28	0xbd9b75bc	-0.075908154
29	0xbe0190cf	-0.12652896
30	0x3e5d4634	0.21608812
31	0x3ddf7307	0.109106116
32	0xbe219076	-0.15777764
33	0xbdb4634b	-0.08808001
34	0x3e4c559d	0.19954534
35	0x3de0c847	0.109757
36	0xbe3120d5	-0.1729768
37	0x3d2dab88	0.042399913
38	0xbccd369c	-0.025050454
39	0xbe5d42fc	-0.21607584
40	0xbe6c7dc8	-0.23094857
41	0x3e75c4d8	0.24000871
42	0x3c0ef987	0.008726484
43	0xbdd0838b	-0.1018134
44	0x3de93e03	0.11388781
45	0x3e27edb7	0.16399275
46	0x3daf3f3e	0.08556984
47	0x3e91695c	0.28400695
48	0xbdac82bb	-0.08423372
49	0xbdd50f08	-0.104032576
50	0x3e20b5e3	0.15694384
51	0x3e41cdff	0.18926238
52	0x3e04782d	0.12936468
53	0x3e1b95cd	0.15193863
54	0x3e7d4959	0.24735011
55	0x3d00d3e8	0.03145209
56	0xbbbed476	-0.005823667
57	0xbc3319cd	-0.010931444
58	0xbd85d0ad	-0.06533942
59	0xbea632af	-0.32460544
60	0xbe4922c0	-0.19642162
61	0x3e83677d	0.25664893
62	0x3ed97ac9	0.4247649
63	0x3da3bdcc	0.07995185
64	0x3d6af8a8	0.057366043
65	0xbd5f32d2	-0.054491825
66	0xbe141e8a	-0.14464775
67	0x3e546334	0.20740968
68	0xbe191dd3	-0.14952783
69	0x3e6e28c2	0.23257735
70	0xbdade69c	-0.08491251
71	0xbe9a0971	-0.30085328
72	0x3dea4153	0.11438241
73	0xbd531bce	-0.05154019
74	0x3c7feae7	0.01561997
75	0x3e023f53	0.12719469
76	0x3db62fea	0.08895858
77	0xbe3a8783	-0.18215756
78	0x3deb6316	0.114935085
79	0x3e8c7a83	0.2743722
80	0xbea4c721	-0.32183173
81	0xbd6057c5	-0.054771204
82	0xbe1ac136	-0.15112767
83	0x3ddbbaad	0.10728965
84	0x3ca0d97e	0.019634958
85	0x3cac0f82	0.021003488
86	0x3e71fe1d	0.23632093
87	0xbcd8f396	-0.026483338
88	0x3d480902	0.048836716
89	0x3da289c9	0.07936437
90	0x3eaa60ac	0.3327688
91	0xbed28116	-0.4111411
92	0xbe93b4ae	-0.28848785
93	0x3e1645d2	0.14675072
94	0x3e5f2796	0.21792445
95	0x3ea7131f	0.32631776
96	0xbe855739	-0.26043108
97	0x3e484637	0.19558035
98	0xbdaf7700	-0.08567619
99	0x3d81a9de	0.06331228
100	0x3d4f3036	0.050583087
101	0xbe1634cf	-0.14668582
102	0x3d3df755	0.046378452
103	0x3db9b64c	0.090679735
104	0xbde613f6	-0.11234276
105	0xbddcc72f	-0.10780179
106	0x3de545c2	0.11194946
107	0xbe91a3dc	-0.28445327
108	0xbda5df8b	-0.08099278
109	0x3dbff232	0.09372367
110	0x3ed1d3e9	0.40981987
111	0xbdac22a6	-0.08405046
112	0x3d9bb57b	0.07602974
113	0x3e7e19a4	0.24814469
114	0x3e418e75	0.18902
115	0xbe0e94f4	-0.13924009
116	0xbe9e95d8	-0.30973697
117	0x3e86cf68	0.26330113
118	0xb9bb28c7	-0.000356978
119	0xbdf29cd1	-0.118463166
120	0xbe209686	-0.1568242
121	0xbc960be2	-0.018316213
122	0xbdba35a1	-0.0909226
123	0x3da2ceab	0.07949575
124	0xbe85b36d	-0.26113454
125	0xbe3856c9	-0.18001856
126	0x3ecf74f9	0.4051893
127	0x3dfdad49	0.12386567
128	0x3e55ee70	0.20891738
129	0xbe9a87f0	-0.30181837
130	0xbe2cb241	-0.16864873
131	0xbe5b8e1d	-0.2144093
132	0x3dd0303c	0.1016545
133	0x3e1a8c9c	0.150927
134	0x3e482d2a	0.19548479
135	0xbe1fe1d1	-0.15613486
136	0x3da37afe	0.07982443
137	0xbdd1aa8d	-0.10237608
138	0xbca57f52	-0.020202313
139	0x3d7ac458	0.061222404
140	0xbd7aae03	-0.061201107
141	0xbe604541	-0.21901418
142	0x3dd17715	0.10227791
143	0x3ea75615	0.32682863
144	0x3e0289b2	0.12747839
145	0xbd6c6250	-0.057710946
146	0xbd98842f	-0.07447087
147	0x3dec81ff	0.11548232
148	0x3e2ddb43	0.16978173
149	0x3e5b1d0d	0.213978
150	0xbe136edd	-0.1439776
151	0xbe95ca0c	-0.29255712
152	0xbec245fe	-0.37944025
153	0x3d7f1e51	0.06228477
154	0x3e119ca6	0.14219913
155	0xbe0bf469	-0.13667454
156	0x3d1cbd07	0.038266208
157	0x3abdb758	0.0014474196
158	0x3e516515	0.20448716
159	0x3c6a8e27	0.014316118
160	0x3dacc3e1	0.084357984
161	0xbe1eb7e5	-0.15499838
162	0xbdb16bc5	-0.086631335
163	0xbd66164d	-0.05617361
164	0xbe0e143d	-0.13874908
165	0x3d7ceebb	0.06175111
166	0xbd578509	-0.052617107
167	0xbe984666	-0.2974121
168	0xbc1820c8	-0.009285159
169	0x3e741f4f	0.23840068
170	0x3e08e17a	0.13367262
171	0xbdbfb2f2	-0.09360303
172	0x3ded6096	0.11590688
173	0xbe6c8b3d	-0.2309999
174	0x3e50c6da	0.20388356
175	0x3e5e0b6c	0.21684045
176	0xbcfc7ed5	-0.030822197
177	0x3d8acd6a	0.06777461
178	0x3d033eb9	0.03204224
179	0x3bbe2606	0.0058028726
180	0x3c36cfd1	0.011157946
181	0x3ee197e9	0.4406121
182	0x3cfbc212	0.030732188
183	0xbe9faf5a	-0.3118847
184	0x3df5d7a4	0.12004021
185	0x3eb2b68f	0.34904906
186	0xbdcd7fe9	-0.100341626
187	0xbea5b1f5	-0.32362333
188	0x3d9436cd	0.07237015
189	0x3e350872	0.17679003
190	0x3d4c2435	0.049839217
191	0x3e1d7cdd	0.15379663
192	0x3d852142	0.06500484
193	0xbe4e0dec	-0.20122498
194	0x3e570058	0.20996225
195	0xbe9cd657	-0.30632278
196	0xbe2480c0	-0.16064739
197	0x3da21e2d	0.07915912
198	0x3e14b43c	0.14521879
199	0xbe9ca445	-0.30594078
200	0xbc3bbec7	-0.011459059
201	0xbd082e80	-0.03324747
202	0x3e5dc173	0.21655826
203	0x3dae8451	0.08521331
204	0x3e13c5c9	0.14430918
205	0x3e0b118e	0.13580915
206	0x3ea101dc	0.3144673
207	0xbe2707fd	-0.16311641
208	0xbe0d0c6e	-0.13774273
209	0x3e24caf9	0.16093053
210	0xbe2fd24b	-0.17170064
211	0x3e05b28b	0.1305639
212	0x3da7c2c2	0.08191444
213	0xbe387451	-0.18013121
214	0xbddc92ec	-0.107702106
215	0x3e5095e1	0.20369674
216	0xbd1b8f12	-0.03797824
217	0x3dd0960f	0.101848714
218	0xbe45a741	-0.19302084
219	0x3e4f8712	0.20266369
220	0x3e66f534	0.22554475
221	0x3e82a115	0.2551352
222	0x3ce67805	0.028133402
223	0x3dd10bde	0.102073416
224	0x3c9fe59a	0.019518662
225	0xbe367e4f	-0.1782162
226	0x3e1c8932	0.15286711
227	0x3d945719	0.07243175
228	0xbe7c1a7f	-0.24619482
229	0x3e2c68c5	0.16836841
230	0x3be00ab7	0.006837215
231	0xbebe722d	-0.37196484
232	0xbed36867	-0.4129059
233	0x3ec6eeb7	0.38854
234	0x3dd2b983	0.1028929
235	0xbea0d30e	-0.31411022
236	0xbe49521c	-0.19660228
237	0xbdf81ba5	-0.12114648
238	0x3d5d0c96	0.05396708
239	0x3e832f53	0.25622043
240	0x3c023465	0.007947062
241	0x3e1bc88a	0.15213218
242	0x3e50b46b	0.20381324
243	0x3e13bcb7	0.14427458
244	0x3d356e48	0.044294626
245	0x3e262631	0.16225506
246	0x3d063119	0.032761667
247	0xbbab8544	-0.0052343924
248	0xb98d6737	-0.00026970517
249	0x3a99aa3f	0.0011723711
250	0x3e009612	0.12557247
251	0xbe8c75e2	-0.27433687
252	0xbe5d8184	-0.21631438
253	0x3d4c4056	0.049866043
254	0x3d83df61	0.064390905
255	0x3df5309a	0.11972161

encoder.bias_ih_l0 f4 [64]
0	0x3d89e161	0.06732441
1	0xbe3bdb80	-0.18345451
2	0xbe31c81d	-0.17361493
3	0x3d325f43	0.04354788
4	0x3d5ec9b9	0.054391596
5	0x3ea021ec	0.3127588
6	0xbddb4c80	-0.107079506
7	0xbde36d11	-0.11104787
8	0xbe376bc3	-0.17912202
9	0xbd6d9ff9	-0.05801389
10	0x3e4b14bf	0.19832133
11	0xbe2ade21	-0.16686298
12	0xbe159436	-0.14607319
13	0xbc1f5582	-0.0097249765
14	0x3dd3e961	0.10347248
15	0x3e7ccd10	0.246876
16	0x3e7a2311	0.2442744
17	0x3da263f1	0.079292186
18	0xbe00af5e	-0.12566897
19	0x3d216d77	0.039411034
20	0xbe2a82a5	-0.166514
21	0x3e4d8bc0	0.20072842
22	0x3d1e94d6	0.03871616
23	0xbe4853e6	-0.19563255
24	0x3e275aeb	0.16343276
25	0x3e3680a8	0.17822516
26	0x3e4deb1b	0.20109217
27	0xbe0ec421	-0.13942005
28	0x3e9268e2	0.28595644
29	0x3db51ff9	0.08843989
30	0x3dd43916	0.10362451
31	0x3dba1357	0.0908572
32	0xbe2ecc3c	-0.17070097
33	0xbe3f106e	-0.18658611
34	0x3e332071	0.17492844
35	0xbe33b358	-0.17548883
36	0xbe0cd1e8	-0.13751948
37	0x3dc3f817	0.09568804
38	0x3e4252e9	0.1897694
39	0x3dfe8206	0.12427144
40	0xbd879eaa	-0.0662206
41	0x3dddf73f	0.10838174
42	0x3e008a13	0.12552671
43	0xbe5fa18e	-0.21838972
44	0xbd6738f5	-0.056450803
45	0xbe34d14c	-0.17657965
46	0xbe25b5b4	-0.16182595
47	0xbc93af74	-0.018027999
48	0x3e910c15	0.2832953
49	0xbe825f23	-0.2546321
50	0x3d6084d9	0.054814193
51	0xbe4e237b	-0.20130722
52	0x3c9040ed	0.017609084
53	0x3ebae763	0.3650466
54	0xbccddac4	-0.02512873
55	0x3e721cc1	0.23643781
56	0xbdd72c14	-0.10506454
57	0x3e5e42de	0.21705195
58	0xbdad7677	-0.08469861
59	0xbe172c5f	-0.1476302
60	0x3dabe9ff	0.083942406
61	0xbdf77a4f	-0.120838754
62	0x3ebe041b	0.37112507
63	0x3e0e825b	0.13916914

encoder.bias_hh_l0 f4 [64]
0	0x3c857a6d	0.016293729
1	0x3d5e05fc	0.054204926
2	0xbd3d1209	-0.046159778
3	0xbc3515a3	-0.011052522
4	0x3da70b46	0.08156447
5	0x3e9490ec	0.29016817
6	0xbd475144	-0.048661485
7	0x3e69d5b7	0.22835432
8	0x3ddac60f	0.10682308
9	0xbe5ee0c1	-0.21765424
10	0xbde588f7	-0.112077646
11	0xbd443914	-0.047905996
12	0x3db156de	0.08659147
13	0x3dbca186	0.09210496
14	0x3eb87a8c	0.36030996
15	0x3dc431e9	0.09579832
16	0xbe30d347	-0.17268096
17	0x3e2dee93	0.1698554
18	0x3e6a5443	0.22883706
19	0xbe82c562	-0.25541216
20	0x3e092874	0.13394338
21	0x3ea87bee	0.3290705
22	0x3db284e9	0.08716757
23	0xbc8bf054	-0.01708237
24	0x3e2e6bd2	0.17033318
25	0x3de9ceaa	0.11416371
26	0xbe1e3a7f	-0.15452002
27	0xbc6254d3	-0.013814169
28	0xbd857c67	-0.065178685
29	0x3b5d7573	0.003379193
30	0x3e45379e	0.19259498
31	0x3e6bad0d	0.23015232
32	0xbe7cc07c	-0.24682802
33	0xbdf057cc	-0.11735496
34	0x3e91ad5a	0.2845257
35	0x3e03fc73	0.1288927
36	0xbe823099	-0.25427702
37	0x3d7bfeda	0.061522342
38	0x3e4b03cb	0.19825666
39	0xbdcf7c81	-0.10131169
40	0xbd22cc9c	-0.039745912
41	0xbe248f97	-0.160704
42	0x3dba4bd4	0.09096494
43	0x3cae660c	0.021288894
44	0xbe520d83	-0.20512967
45	0xbe0028ae	-0.12515518
46	0x3e91f113	0.28504238
47	0x3dbb02ab	0.09131368
48	0x3de96516	0.11396234
49	0x3cb0d387	0.02158524
50	0x3e4d0865	0.20022734
51	0xbdf31298	-0.11868781
52	0x3e115b73	0.14195041
53	0x3e986d8d	0.2977108
54	0x3ea46300	0.3210678
55	0xbc9f9b25	-0.019483158
56	0x3dfc9359	0.12332792
57	0x3def7732	0.116926566
58	0x3e940826	0.28912467
59	0x3df2d803	0.11857607
60	0x3d9b1288	0.07571894
61	0x3c8d67cb	0.017261406
62	0x3ce4737e	0.027887102
63	0xbdfee86f	-0.12446677

decoder.weight_ih_l0 f4 [64, 16]
0	0x3d6320ef	0.05545133
1	0x3dd89dc8	0.105769694
2	0xbe1c411b	-0.15259211
3	0xbd6989e4	-0.05701627
4	0xbc9ccea4	-0.019141503
5	0x3eaa5a95	0.33272234
6	0xbe470454	-0.19435245
7	0xbd364afa	-0.044505097
8	0x3e1dfc5d	0.154283
9	0x3b9867ee	0.0046510613
10	0x3e84f959	0.25971487
11	0xbd47d00b	-0.04878239
12	0x3e61b829	0.22042908
13	0x3e466733	0.19375305
14	0x3e878438	0.26468062
15	0x3e754192	0.23950794
16	0xbe99e5e3	-0.30058202
17	0x3e39bf29	0.18139328
18	0x3dd47045	0.10372976
19	0x3e29a0ef	0.16565298
20	0xbe16faf9	-0.14744176
21	0x3e2811ff	0.16413115
22	0xbd88991e	-0.0666983
23	0xbebe5ee6	-0.37181777
24	0x3d3e5db8	0.046476096
25	0x3e9b0045	0.30273643
26	0xbdc125a3	-0.09431007
27	0x3db9431c	0.09046003
28	0x3d30ac16	0.043132864
29	0x3dc1a118	0.09454554
30	0x3e7e6743	0.24844079
31	0xbe1be9a8	-0.15225852
32	0x3b3b2d5c	0.0028560972
33	0xbe4823e2	-0.19544938
34	0x3e29b583	0.16573147
35	0xbe17a97a	-0.14810744
36	0x3e18fddc	0.1494059
37	0x3db50415	0.08838669
38	0xbd88adf4	-0.06673804
39	0x3e50c4e1	0.20387603
40	0xbce58cb9	-0.028021203
41	0xbe615693	-0.22005682
42	0xbc50838a	-0.012726674
43	0x3e8e8388	0.27834725
44	0x3e0efa06	0.13962564
45	0xbe0970f2	-0.13421991
46	0xbdc34eb9	-0.095364995
47	0xbe7bd409	-0.24592604
48	0x3d95dab7	0.07317107
49	0xbd51f013	-0.051254343
50	0xbe7682ac	-0.24073285
51	0xbd087aba	-0.033320166
52	0x3e520747	0.20510589
53	0x3e82e288	0.25563455
54	0xbe65b52a	-0.2243239
55	0xbe0816ce	-0.1328995
56	0x3c83cf2d	0.01609
57	0xbe55f2e8	-0.20893443
58	0x3cbd27a9	0.0230902
59	0x3c8b3471	0.01699278
60	0x3d6c0955	0.057626087
61	0xbdaf604b	-0.08563288
62	0x3cbae94f	0.022816328
63	0xbc2180e6	-0.009857392
64	0x3e2714a5	0.16316469
65	0xbe5e4b2b	-0.21708362
66	0x3da700e3	0.08154466
67	0x3c239b16	0.009985706
68	0xbdf169d8	-0.11787766
69	0x3e8f7d1b	0.28025135
70	0xbd6e4013	-0.058166575
71	0xbebc11ae	-0.3673224
72	0xbde50b03	-0.11183741
73	0x3df7d32b	0.12100824
74	0xbe1d8d5f	-0.1538596
75	0x3d3953f4	0.04524608
76	0x3d916802	0.07099916
77	0x3c1ea329	0.009682455
78	0x3d80f4da	0.06296702
79	0x3e700423	0.23439078
80	0xbe0549d9	-0.13016452
81	0x3ea92b08	0.33040643
82	0xbce37cba	-0.027769435
83	0xbd00cb3e	-0.031443827
84	0x3e180668	0.14846194
85	0x3ea0d37f	0.3141136
86	0xbe4d4c75	-0.20048697
87	0xbeb2f9d8	-0.3495624
88	0x3e6e6c30	0.23283458
89	0x3bb7312d	0.005590579
90	0x3e26a573	0.16274051
91	0xbe8fc0f6	-0.28076905
92	0xbda83661	-0.08213497
93	0xbd9be75f	-0.0761249
94	0x3d51062c	0.051031277
95	0x3d1a9414	0.037738875
96	0xbea6178a	-0.32439834
97	0x3c0cfbe4	0.008604977
98	0xbe368f54	-0.17828113
99	0xbded50ca	-0.11587675
100	0x3d7561c6	0.059907697
101	0x3e28e17b	0.16492264
102	0x3e9df250	0.30848932
103	0xbe8f8a97	-0.28035423
104	0xbe93a550	-0.2883706
105	0xbddeaa36	-0.10872309
106	0x3ea16a20	0.3152628
107	0x3d8a9227	0.067661576
108	0xbddcad66	-0.107752606
109	0x3e00fd58	0.12596643
110	0xbe1d237d	-0.15345569
111	0x3d3bd18c	0.045854136
112	0x3e031eac	0.12804669
113	0x3df85839	0.12126202
114	0x3df31c5e	0.11870645
115	0xbe506330	-0.20350337
116	0xbe9af060	-0.30261517
117	0x3e890cca	0.2676757
118	0x3e924090	0.28564882
119	0xbcaf9adb	-0.021436146
120	0x3cabea1d	0.020985657
121	0x3d545761	0.051841144
122	0x3e30b284	0.17255598
123	0x3d622197	0.055207815
124	0x3e02dd0f	0.1277964
125	0xbe6d2ac4	-0.23160845
126	0xbe36976c	-0.178312
127	0x3e4d8ca8	0.20073187
128	0xbe8695e8	-0.26286244
129	0xbea30759	-0.31841543
130	0xbd87366a	-0.066021755
131	0xbd67ee50	-0.056623757
132	0x3e03a596	0.12856135
133	0xbe32d1e3	-0.17462878
134	0x3e5ed813	0.21762113
135	0xbe3a0b6f	-0.18168424
136	0xbeaa7d04	-0.33298504
137	0x3e7b0537	0.24513708
138	0x3e0d7053	0.1381238
139	0xbc7e4003	-0.015518191
140	0xbe5f073a	-0.217801
141	0x3dba8fa0	0.091094255
142	0xbdeeff5e	-0.11669801
143	0x3c2cba2a	0.010542432
144	0xbe349286	-0.1763402
145	0xbdb86f87	-0.09005647
146	0xbd124ea4	-0.03571953
147	0x3d70bff6	0.05877682
148	0xbdcab054	-0.09896913
149	0xbdea94f5	-0.114541925
150	0x3e78d5eb	0.24300353
151	0x3de26cc6	0.11055903
152	0xbe08752e	-0.1332595
153	0x3e9c8b48	0.30575013
154	0xbd8324eb	-0.06403526
155	0x3d736bc2	0.059428938
156	0xbc709dca	-0.014686057
157	0x3ddab15f	0.10678362
158	0xbe193219	-0.14960517
159	0x3e09f1b4	0.13471109
160	0xbebdb7c2	-0.3705426
161	0xbd23d5a4	-0.039998665
162	0x3de9c900	0.11415291
163	0x3c7a07cc	0.015260648
164	0x3dd54a71	0.10414589
165	0xbd60423c	-0.054750666
166	0x3d4a9a56	0.049463592
167	0xbdab5bec	-0.08367142
168	0xbe952382	-0.29128653
169	0x3d23cbdc	0.039989337
170	0xbd82519b	-0.06363221
171	0xbd657860	-0.056023
172	0xbe16d3b9	-0.14729203
173	0xbe81b7b4	-0.25335467
174	0x3e0bff70	0.1367166
175	0x3ec0432a	0.37551242
176	0xbe515ce9	-0.20445599
177	0x3e89d4c2	0.26920134
178	0x3e981a39	0.29707506
179	0x3e9589ae	0.29206604
180	0xbe012716	-0.12612566
181	0x3dd274fc	0.10276219
182	0xbcb356ad	-0.021891916
183	0xbebb7421	-0.36612037
184	0x3e0b9298	0.1363014
185	0x3eb16b2d	0.3465208
186	0x3e95d24a	0.29262
187	0xbede1c42	-0.43380934
188	0xbda4b7e4	-0.08042887
189	0x3dd1f6b8	0.10252136
190	0x3eac394f	0.33637473
191	0x3e7b285a	0.24527112
192	0xbd3b15ce	-0.04567509
193	0x3e883eea	0.266105
194	0x3e256d6b	0.16155021
195	0xbce23e85	-0.027617702
196	0x3ddcb6f6	0.107770845
197	0x3e7156e8	0.23568308
198	0xbe3c3d32	-0.18382719
199	0xbe7b9deb	-0.2457196
200	0xbe665b0d	-0.2249567
201	0xbe4b2a26	-0.19840297
202	0x3cdd2007	0.02699281
203	0x3cd1e803	0.025623327
204	0x3dbc7eec	0.09203896
205	0xbd8b527c	-0.06802842
206	0xbd643686	-0.05571606
207	0x3d9104c4	0.07080987
208	0x3d2dfadd	0.04247557
209	0xbd8a8891	-0.06764329
210	0x3e5b39c3	0.21408753
211	0xbe1e2432	-0.15443495
212	0x3d1c8c07	0.038219478
213	0x3eb74d84	0.35801327
214	0xbdae6c9c	-0.08516809
215	0xbdbc9c2b	-0.09209474
216	0xbdd6aa26	-0.10481672
217	0x3dcf0087	0.101075225
218	0xbcb6415d	-0.022247965
219	0xbc641acd	-0.013922405
220	0xbe89e7a8	-0.26934552
221	0x3d6a1da9	0.057157192
222	0x3e81c438	0.25345016
223	0x3eafb605	0.34318557
224	0x3d510213	0.05102737
225	0xbe84ae24	-0.2591411
226	0xbe486902	-0.19571307
227	0x3e40fa7f	0.18845557
228	0xbdd7563b	-0.10514494
229	0xbd9241e5	-0.07141475
230	0x3e10cbde	0.14140269
231	0xbdb7619d	-0.08954165
232	0xbceb82fc	-0.028748982
233	0x3e85462d	0.26030102
234	0x3e366dc6	0.17815313
235	0xbd9e22d9	-0.077214904
236	0xbe419320	-0.1890378
237	0x3d8930ed	0.06698785
238	0xbe52eeaf	-0.20598863
239	0xbe024fa2	-0.1272569
240	0xbe88e233	-0.26735076
241	0xbd0dcf1c	-0.034621343
242	0x3e84e042	0.25952345
243	0x3bcde56e	0.0062834537
244	0xbdc508c1	-0.0962081
245	0x3ee424c7	0.4455931
246	0xbd14f052	-0.036362
247	0xbed8036c	-0.4219011
248	0x3e9e54db	0.30924115
249	0x3f13989d	0.57654744
250	0x3eac3f41	0.3364201
251	0xbf07e4e0	-0.5308361
252	0xbe207783	-0.1567059
253	0x3cfe1420	0.031015456
254	0x3dc381d7	0.09546249
255	0x3e3059f7	0.17221819

decoder.weight_hh_l0 f4 [64, 1]
0	0xbd0cef75	-0.03440805
1	0x3db9bfdc	0.090697974
2	0xbe033ede	-0.1281695
3	0x3d28be37	0.041197028
4	0x3e26684e	0.16250727
5	0x3dba0ebf	0.09084844
6	0x3e220a82	0.15824321
7	0x3e9b4c9e	0.30331892
8	0x3e0bc7f3	0.13650493
9	0xbdb6d0f0	-0.089265704
10	0xbe042b05	-0.12907036
11	0xbddc87bd	-0.107680775
12	0xbe759cf3	-0.23985653
13	0x3d7c3b66	0.061580084
14	0x3e9009b2	0.28132397
15	0xbcab9ef9	-0.020949828
16	0xbe30bc3e	-0.17259309
17	0x3d351c11	0.04421622
18	0xbcb575d5	-0.022150913
19	0xbe526b54	-0.20548755
20	0x3e353cc4	0.17698961
21	0x3ed1ec0d	0.41000405
22	0x3d9a6eb9	0.0754065
23	0x3e016f48	0.12640107
24	0x3cc4a7be	0.024005767
25	0xbe465164	-0.19366986
26	0x3da73ce2	0.08165909
27	0x3ec14e0c	0.37754858
28	0x3f2a1d39	0.6645084
29	0xbe5b61f7	-0.2142409
30	0xbd8c9dd4	-0.06866041
31	0xbc27aa00	-0.010233402
32	0x3e651106	0.22369775
33	0x3e2bd97e	0.16782185
34	0x3e068580	0.13136864
35	0x3bad0d3b	0.005281118
36	0xbda83f13	-0.082151555
37	0xbe86ab5f	-0.2630262
38	0x3e79e191	0.24402453
39	0x3de41184	0.11136153
40	0xbbba1119	-0.0056783077
41	0x3e7a30cb	0.24432676
42	0x3d775354	0.060382202
43	0xbe20566d	-0.15657969
44	0x3d1494b3	0.036274623
45	0xbe202d41	-0.15642263
46	0xbd595614	-0.053060606
47	0xbee7d9c6	-0.45283335
48	0xbe0f5af0	-0.13999534
49	0x3d1e3817	0.03862771
50	0xbe7ab742	-0.2448397
51	0xbe734d06	-0.23759851
52	0x3e9c141f	0.304841
53	0x3db96642	0.09052707
54	0x3e04ac0b	0.12956254
55	0xbbe9657d	-0.007122694
56	0xbde03c7a	-0.10949035
57	0xbd907e29	-0.07055313
58	0x3dfe3845	0.12413076
59	0x3e87ae9c	0.26500404
60	0x3e63cde9	0.22246517
61	0xbddd0c36	-0.10793345
62	0x3d519c4e	0.051174454
63	0xbd0fd008	-0.035110503

decoder.bias_ih_l0 f4 [64]
0	0xbd32525e	-0.043535583
1	0x3e2f9b4d	0.17149086
2	0x3dfa5322	0.122228876
3	0xbc0ed241	-0.008717121
4	0xbd9795d5	-0.07401625
5	0x3d0760c1	0.033051256
6	0x3de38718	0.111097515
7	0x3c921eae	0.017836895
8	0xbd0edd16	-0.034878813
9	0x3e1ac1eb	0.15113036
10	0xbd953666	-0.07285766
11	0x3e284bf1	0.1643522
12	0x3e290fd9	0.16509952
13	0xbe29ce0b	-0.16582505
14	0x3e56692b	0.20938556
15	0x3e83eb04	0.2576524
16	0xbdcdb850	-0.100449204
17	0xbd870e9c	-0.065945834
18	0x3e084e2f	0.13311075
19	0x3e0d329a	0.13788834
20	0x3e203260	0.15644217
21	0x3bd5037b	0.006500659
22	0x3e09ba6a	0.13450018
23	0xbe004dbd	-0.12529655
24	0x3e1ce810	0.153229
25	0xbe58263c	-0.21108335
26	0xbe7161c9	-0.23572458
27	0xbd4c3d14	-0.049862936
28	0x3e7d6271	0.24744584
29	0xbe6a442a	-0.22877565
30	0x3e3bab98	0.18327177
31	0xbe70c926	-0.23514232
32	0xbe13ec0d	-0.14445515
33	0x3df6add0	0.12044871
34	0x3e49232a	0.1964232
35	0x3e123e3d	0.14281555
36	0xbe44bfb9	-0.19213761
37	0xbd73a47c	-0.059483036
38	0x3e40af69	0.18816914
39	0x3e968f26	0.2940609
40	0xbe318566	-0.17336044
41	0xbcec0807	-0.028812421
42	0xbe07cd44	-0.13261896
43	0x3e3746f7	0.17898165
44	0xbe0d8835	-0.1382149
45	0x3e354da9	0.17705406
46	0xbc3f7b29	-0.0116870785
47	0x3e14e54a	0.14540592
48	0xbd44dd18	-0.048062414
49	0x3e0d3050	0.13787961
50	0xbe114243	-0.14185433
51	0xbe584dfb	-0.21123497
52	0xbdd5a12f	-0.10431134
53	0x3e1f2350	0.15540814
54	0x3e3d0152	0.18457535
55	0x3d14ab2e	0.036296062
56	0x3e95aff0	0.29235792
57	0xbde07278	-0.10959333
58	0x3ca055ad	0.019572103
59	0xbdf0f497	-0.11765402
60	0xbb9fe404	-0.0048794765
61	0xbb98c9b5	-0.004662717
62	0xbb975902	-0.004618765
63	0x3e7b4f30	0.24541926

decoder.bias_hh_l0 f4 [64]
0	0xbcfaaf47	-0.030601157
1	0x3d15c52f	0.036565002
2	0xbe0b085d	-0.13577409
3	0xbd2ae44a	-0.04172162
4	0x3b268410	0.0025408305
5	0x3e3dd259	0.18537273
6	0xbd83229f	-0.06403088
7	0xbd59bb76	-0.053157292
8	0x3e738f33	0.23785095
9	0x3dcca693	0.09992709
10	0x3d9b9c54	0.075981766
11	0xbdf52b5f	-0.11971163
12	0xbd98d611	-0.07462705
13	0x3e91a6d2	0.28447586
14	0x3e04e97b	0.1297969
15	0x3dd04064	0.101685315
16	0xbe40d912	-0.18832806
17	0xbe04d58f	-0.12972091
18	0xbde76c3e	-0.112999424
19	0xbe488a72	-0.19584063
20	0x3d536fec	0.05162041
21	0xbd2f266c	-0.04276125
22	0x3e4553a7	0.19270192
23	0xbdeca5b1	-0.11555041
24	0xbdad1ec6	-0.08453135
25	0xbe270aed	-0.16312762
26	0xbe1381eb	-0.14405029
27	0xbcf1387e	-0.029445883
28	0x3eb7fe6e	0.35936302
29	0xbde9f131	-0.11422957
30	0x3e0de5d9	0.13857211
31	0x3dcb51f9	0.099277444
32	0xbdad8a17	-0.08473604
33	0x3e4c6096	0.1995872
34	0x3e366c55	0.17814763
35	0x3e47eec3	0.19524674
36	0xbe75796d	-0.23972102
37	0xbe424362	-0.18971017
38	0x3df01a05	0.11723713
39	0xbca0f1d7	-0.019646568
40	0xbe6f4dd4	-0.23369533
41	0x3cfc8ede	0.030829843
42	0xbe2908b4	-0.16507226
43	0xbe6ad311	-0.22932078
44	0x3dc3eb91	0.09566415
45	0x3dc819d6	0.09770553
46	0xbd54651a	-0.05185423
47	0xbdbe14a1	-0.092812784
48	0x3d17c072	0.037048765
49	0x3d833050	0.06405699
50	0x3e4459e1	0.19174911
51	0x3d651f58	0.055938095
52	0xbe228e56	-0.1587461
53	0xbe21b023	-0.15789847
54	0xbd6fc037	-0.05853292
55	0xbdabda6a	-0.083912686
56	0x3e542e5b	0.20720808
57	0x3e523e8b	0.20531671
58	0x3cfb79ae	0.03069767
59	0x3e944f8a	0.28966933
60	0x3e8bf9a7	0.27338907
61	0xbe1a69f5	-0.15079482
62	0x3dbca23e	0.09210633
63	0xbd641895	-0.055687506

decoder.weight_hr_l0 f4 [1, 16]
0	0x3e17aff3	0.14813213
1	0x3e8bfb9d	0.27340403
2	0xbd4db286	-0.05021908
3	0xbd84e403	-0.06488802
4	0xbe937ef3	-0.28807792
5	0x3e95e556	0.29276532
6	0x3e9b90e7	0.3038399
7	0x3e60e0fd	0.21960826
8	0xbdd85435	-0.10562936
9	0x3e6a402c	0.22876042
10	0xbe116152	-0.14197281
11	0xbeafcebb	-0.3433741
12	0x3e9c8808	0.30572534
13	0x3e237542	0.15962699
14	0xbdc5fc28	-0.096672356
15	0xbe8b2375	-0.2717549
