output/synthetic_data/models/model_hidden64_lr0.001_clip0.5.pth (torch, 141415 bytes, 9 tensors)

encoder.weight_ih_l0 f4 [256, 1]
0.0580973 0.032188915 0.014786183 0.16102052 0.038411215 0.020665582 0.10096562 0.10583581
0.05108939 0.22858745 0.09647505 0.09739341 -0.053295925 0.011613677 -0.008481601 0.110610284
-0.017402763 0.059118636 0.09910376 0.03431238 0.083099045 0.08340707 -0.03328494 0.006444109
8.8042616e-05 0.019941717 0.08271775 -0.002913874 0.009770955 0.014462179 0.069415316 0.13190866
0.13149422 -0.057868794 0.070129625 -0.037999343 0.12503715 0.06962602 -0.04821902 0.09187908
0.0694891 0.14060807 0.004954097 0.13899483 -0.089806005 0.1423973 0.093799576 0.13663794
-0.0073122396 0.01245494 -0.07539574 0.045567453 -0.05350549 -0.018349214 -0.0039138296 0.024248628
0.09336279 -0.016404917 0.0011626825 -0.054323357 -0.0017147539 0.11711406 -0.10390631 -0.07032823
0.031324852 0.00601532 0.018639965 0.002951995 0.07622076 0.07936176 0.13085787 -0.014792388
-0.01769172 0.19545208 -0.008424105 0.1581602 -0.025232675 0.060822327 0.020849233 0.11999224
-0.059889384 0.0021590055 -0.047657274 0.09145508 0.0731753 0.032499705 0.11559577 -0.059778135
-0.007762979 0.14550611 0.13509196 0.079738595 0.09278651 0.06548894 -0.11688914 -0.021575628
-0.040880136 0.080150895 -0.019081581 -0.030723747 0.07570138 0.004598203 0.051740974 0.13334347
0.025677321 0.16063595 0.06858242 0.03708939 0.021684842 0.09699165 0.16921797 -0.036513243
0.06349695 0.06723421 0.058121175 -0.08194206 0.05242207 0.09924434 0.122530445 -0.030580783
0.08270612 0.18294343 0.08902357 0.035139654 -0.057296313 0.16019417 -0.02305367 0.037248522
-0.14766051 -0.09271033 0.03644491 -0.142677 -0.10013707 0.033742517 -0.07599365 0.02517076
0.07869365 -0.12702632 -0.07910521 0.075516805 -0.005607143 0.032163773 0.12541766 0.034393456
-0.0214974 0.068969846 0.048017934 -0.13272445 -0.0022344552 -0.14980713 -0.07010011 -0.04178696
0.09855299 0.046944473 -0.069307365 -0.040786404 0.044695057 0.093073756 0.062305514 -0.044319246
-0.15422298 -0.10102335 0.0726169 0.013267578 0.051487166 0.12031623 -0.13172738 0.13133594
-0.014066569 0.0759755 0.02998857 0.13454589 0.041968673 0.013419769 0.13753279 -0.17179681
-0.08148047 -0.024933666 -0.10418867 -0.13202292 -0.07148918 0.034730546 0.06996019 0.0716202
-0.06350995 0.06612196 -0.098019324 0.11225397 -0.0035267423 -0.024234729 0.0022529992 -0.07879522
0.07673293 0.028361026 0.05691981 -0.00042411275 0.03993417 0.07306409 0.074820094 -0.0070528113
-0.16271456 0.17578271 -0.028728776 0.033376165 0.037426434 -0.041545503 0.11358389 -0.016218467
0.1505986 -0.043100964 0.15154181 0.10700167 0.11671002 0.11023117 0.10745495 0.015424669
0.006695744 -0.0013298214 -0.066500105 0.076352544 0.13023037 -0.0035706963 0.118838176 -0.050818667
-0.12017249 -0.042896844 0.09984623 0.08851289 -0.102136426 0.13285436 0.07446089 0.14827819
-0.02581595 0.037138037 0.10248484 0.06708334 -0.08103567 0.09362501 0.15294379 -0.010215868
-0.13220133 0.11618415 0.020405935 -0.081478596 -0.044111375 -0.08884756 0.025534572 -0.07533813
0.090707295 0.01282862 0.009241353 0.045371853 0.048455734 -0.0018472789 -0.11437584 0.038043063
00000000: 6ff7 6d3d 86d8 033d bf41 723c 90e2 243e
00000010: 1455 1d3d de4a a93c 10c7 ce3d 72c0 d83d
00000020: 1c43 513d d412 6a3e b694 c53d 3276 c73d
00000030: d44c 5abd 4b47 3e3c 6af6 0abc a587 e23d
00000040: 3d90 8ebc 6226 723d eaf6 ca3d 238b 0c3d
00000050: d52f aa3d 53d1 aa3d ca55 08bd 1b29 d33b
00000060: 85a3 b838 d05c a33c ec67 a93d b2f6 3ebb
00000070: 5b16 203c c6f2 6c3c 9e29 8e3d 1013 073e
00000080: 6ca6 063e d407 6dbd 1fa0 8f3d 33a5 1bbd
00000090: bd09 003e 1698 8e3d 4f81 45bd 192b bc3d
000000a0: 4d50 8e3d 90fb 0f3e fa55 a23b a954 0e3e
000000b0: 36ec b7bd 99d0 113e fe19 c03d d1ea 0b3e
000000c0: 839b efbb ce0f 4c3c 1569 9abd f0a4 3a3d
000000d0: 9328 5bbd 1751 96bc 953f 80bb 0fa5 c63c
000000e0: fe34 bf3d 9b63 86bc 2765 983a 2b82 5ebd
000000f0: 98c1 e0ba 7fd9 ef3d d5cc d4bd 3f08 90bd
00000100: 7d4e 003d 291c c53b d7b2 983c 4276 413b
00000110: a119 9c3d 6b88 a23d 9bff 053e c65b 72bc
00000120: 3aee 90bc 9724 483e 4205 0abc bff4 213e
00000130: c1b4 cebc d520 793d 03cc aa3c 7ebe f53d
00000140: 924e 75bd 1a7e 0d3b 4634 43bd cd4c bb3d
00000150: efdc 953d 691e 053d 7abd ec3d ebd9 74bd
00000160: 9660 febb 8eff 143e 8c55 0a3e fd4d a33d
00000170: db06 be3d 111f 863d 9363 efbd 5fbf b0bc
00000180: ee71 27bd 2726 a43d fa50 9cbc 5eb0 fbbc
00000190: 5309 9b3d 86ac 963b 58ee 533d 318b 083e
000001a0: 3f59 d23c c07d 243e f174 8c3d 0beb 173d
000001b0: 69a4 b13c 8fa3 c63d 7a47 2d3e e98e 15bd
000001c0: b00a 823d 17b2 893d 7810 6e3d 3dd1 a7bd
000001d0: 86b8 563d 9e40 cb3d 3ef1 fa3d 8d84 fabc
000001e0: d461 a93d 8655 3b3e fd51 b63d 99ee 0f3d
000001f0: 8aaf 6abd f109 243e 0ddb bcbc e891 183d
00000200: 5134 17be eade bdbd 4247 153d eb19 12be
00000210: aa14 cdbd 9835 0a3d 8fa2 9bbd e932 ce3c
00000220: 232a a13d 3013 02be ea01 a2bd 8ea8 9a3d
00000230: 20bc b7bb 29be 033d 7d6d 003e 27e0 0c3d
00000240: 511b b0bc 1040 8d3d 74ae 443d ebe8 07be
00000250: f06f 12bb 0a67 19be a590 8fbd ce28 2bbd
00000260: 26d6 c93d d948 403d 05f1 8dbd a50f 27bd
00000270: 2a12 373d 749d be3d 1134 7f3d 1988 35bd
00000280: a1ec 1dbe 55e5 cebd 2bb8 943d 4160 593c
00000290: 35e4 523d 5b68 f63d 8be3 06be ee7c 063e
000002a0: 7777 66bc 0b99 9b3d 97aa f53c 66c6 093e
000002b0: 58e7 2b3d 97de 5b3c 65d5 0c3e 81eb 2fbe
000002c0: 3cdf a6bd b041 ccbc df60 d5bd 0431 07be
000002d0: eb68 92bd 9e41 0e3d 4a47 8f3d 9dad 923d
000002e0: 8111 82bd f36a 873d 5bbe c8bd 69e5 e53d
000002f0: eb20 67bb e987 c6bc 0ea7 133b 635f a1bd
00000300: 2826 9d3d 6255 e83c bf24 693d 735b deb9
00000310: 0392 233d a0a2 953d 473b 993d 451b e7bb
00000320: a59e 26be 6200 343e 9c58 ebbc 72b5 083d
00000330: 764c 193d 9e2b 2abd ac9e e83d 97dc 84bc
00000340: 8536 1a3e a38a 30bd c72d 1b3e b123 db3d
00000350: aa05 ef3d e1c0 e13d 5711 dc3d c0b7 7c3c
00000360: f967 db3b 674d aeba 3531 88bd b95e 9c3d
00000370: 1c5b 053e 5802 6abb 6e61 f33d 3c27 50bd
00000380: ff1c f6bd 9ab4 2fbd 2e7c cc3d 3f46 b53d
00000390: e72c d1bd f90a 083e f37e 983d 3dd6 173e
000003a0: f97b d3bc 0e1e 183d 92e3 d13d fd62 893d
000003b0: 08f6 a5bd 78be bf3d 4c9d 1c3e 7560 27bc
000003c0: c95f 07be f5f1 ed3d 592a a73c 40de a6bd
000003d0: 21ae 34bd b6f5 b5bd e12d d13c e14a 9abd
000003e0: bfc4 b93d 222f 523c 0b69 173c d6d7 393d
000003f0: 8579 463d 6520 f2ba e13d eabd 0bd3 1b3d

encoder.weight_hh_l0 f4 [256, 64]
-0.04068798 0.006540374 0.043060582 -0.11430289 0.026595194 -0.10217903 -0.021617344 0.06252675
0.06372979 -0.11751352 -0.10423004 0.13257714 -0.07832926 -0.05515776 0.07333283 -0.060314283
0.040519964 -0.0061972253 -0.12519129 -0.091681734 -0.07785786 0.024013648 0.061978716 0.0681426
0.13050215 -0.028449839 0.041775886 -0.08347816 0.116395764 -0.026648251 0.060611136 -0.013209163
0.039503317 -0.083895706 -0.055826593 0.050122447 0.035578318 -0.040081788 -0.09315612 -0.087314405
-0.08893346 -0.09120195 -0.04954755 0.092901066 0.03413743 0.07646191 0.060073458 0.05907441
0.08266242 0.12111699 0.008423559 -0.0022490134 0.10343166 0.035705928 0.05639615 -0.007899657
0.03675313 0.065245435 -0.017352324 0.069785714 0.12147432 -0.011449201 -0.028417418 -0.02780237
-0.0505296 0.11946965 -0.08155205 -0.15490651 -0.008456349 -0.042392764 0.08089991 0.026116798
-0.10295845 -0.12536785 0.005462117 0.11379828 0.012393165 0.14325897 -0.083717875 0.09495668
0.04556278 -0.041223366 -0.059154976 0.054499894 0.011102284 -0.022463758 0.072704814 -0.06959756
-0.012013286 0.11163546 0.03210484 -0.025469098 -0.074350975 -0.0622587 -0.027954595 -0.015961668
0.07918115 -0.10342084 -0.06472174 0.07786891 0.00839095 0.112914786 -0.10203759 -0.06201658
-0.10438045 0.06559664 0.10693728 0.08547785 -0.06502132 0.054013077 -0.050967414 0.13894667
-0.0021246553 -0.050185785 0.10147229 -0.14823863 0.086641505 -0.14722477 -0.0698131 -0.08531559
-0.074971214 -0.083165884 0.0026325728 0.040194064 -0.031463977 -0.13867761 0.08892273 0.10527956
0.063745126 -0.09905225 0.0016339024 -0.1250342 -0.13204785 -0.101128556 0.03474969 0.06560869
-0.15219238 -0.052188866 0.11989106 -0.037150003 -0.07549691 0.048998345 0.015883034 0.12667774
0.06288643 0.018425299 0.021739779 -0.047280945 -0.09554571 -0.12640025 -0.06356012 0.006035283
0.08466506 0.13037132 -0.08160413 -0.07213759 0.029409278 -0.0013076833 0.12972288 0.052495692
0.09036295 0.0076786303 -0.02820167 0.014741888 0.1352332 -0.03726457 -0.098143496 0.01963541
0.10527758 0.10761893 0.018101687 -0.058927953 -0.042663485 0.006143197 0.0043185335 0.023079025
0.041932985 0.0620244 0.035010636 0.012055972 0.010348867 -0.09187557 -0.04107307 -0.026227778
-0.030374728 -0.000784265 0.11650825 -0.13338605 -0.04560841 -0.05407611 0.021203792 -0.050841402
0.032754928 -0.0012349271 -0.051349632 -0.04881022 -0.14540339 0.09003823 -0.10489472 0.14632845
0.050099034 -0.082346216 -0.064996466 0.06682712 -0.12914501 0.12798628 -0.065204665 -0.037723407
0.020311037 0.10188279 0.012755984 -0.040109143 -0.0069750664 -0.11157931 0.055700913 0.098207206
0.0151856905 -0.08503924 0.023670144 -0.05170786 -0.03463514 0.005186922 -0.0267758 -0.08853482
0.014429472 0.038964093 0.068144135 0.06944744 0.10469973 0.09884028 -0.10360428 0.15716553
0.09601669 -0.047172267 -0.024708645 0.124441884 0.12288335 0.11078144 0.04130301 0.045563962
0.0699435 0.03305391 -0.096833095 -0.15257147 0.0788452 0.056623947 -0.043386646 0.049213644
-0.048013806 0.20062825 0.0070986757 0.06090995 0.035552226 -0.1043192 0.098919965 -0.06125644
00000000: 70a8 26bd a250 d63b 4b60 303d a217 eabd
00000010: 2ade d93c 3d43 d1bd db16 b1bc 060e 803d
00000020: c484 823d eeaa f0bd 8f76 d5bd 4dc2 073e
00000030: 176b a0bd 1aed 61bd 862f 963d 1c0c 77bd
00000040: 43f8 253d 1812 cbbb 2532 00be a2c3 bbbd
00000050: f173 9fbd 45b8 c43c 65dd 7d3d 598e 8b3d
00000060: 5ba2 053e a30f e9bc 311d 2b3d 99f6 aabd
00000070: e760 ee3d 6f4d dabc 6243 783d 3f6b 58bc
00000080: 3bce 213d 83d1 abbd 6daa 64bd 324d 4d3d
00000090: 92ba 113d cd2c 24bd a3c8 bebd e5d1 b2bd
000000a0: bf22 b6bd 17c8 babd 5ff2 4abd ea42 be3d
000000b0: b1d3 0b3d 1098 9c3d 960f 763d 02f8 713d
000000c0: ea4a a93d 2f0c f83d f802 0a3c 2f64 13bb
000000d0: fad3 d33d 6140 123d a6ff 663d 906d 01bc
000000e0: 738a 163d 669f 853d 7626 8ebc d0eb 8e3d
000000f0: 87c7 f83d 6e95 3bbc a5cb e8bc ccc1 e3bc
00000100: 20f8 4ebd 81ac f43d c304 a7bd d09f 1ebe
00000110: 808c 0abc 09a4 2dbd daae a53d e5f2 d53c
00000120: e1db d2bd 6e60 00be 8ffb b23b 130f e93d
00000130: b40c 4b3c 7bb2 123e 4774 abbd a678 c23d
00000140: 0aa0 3a3d d5d9 28bd 7d4c 72bd 483b 5f3d
00000150: 5be6 353c ea05 b8bc 43e6 943d 2a89 8ebd
00000160: 60d3 44bc 22a1 e43d 5d80 033d 92a4 d0bc
00000170: 5345 98bd fb02 7fbd 0901 e5bc 0bc2 82bc
00000180: ba29 a23d 4ece d3bd d58c 84bd bc79 9f3d
00000190: 327a 093c de3f e73d 16f9 d0bd 1905 7ebd
000001a0: 6bc5 d5bd 8857 863d ef01 db3d 030f af3d
000001b0: e629 85bd d13c 5d3d 35c3 50bd 0948 0e3e
000001c0: cd3d 0bbb 9c8f 4dbd b4d0 cf3d decb 17be
000001d0: 1a71 b13d 17c2 16be 2cfa 8ebd f1b9 aebd
000001e0: 828a 99bd e052 aabd 3e87 2c3b 88a2 243d
000001f0: 5fe0 00bd 8101 0ebe 1f1d b63d cf9c d73d
00000200: ce8c 823d e8db cabd ab28 d63a f708 00be
00000210: 8d37 07be 7d1c cfbd b155 0e3d d95d 863d
00000220: 52d8 1bbe fec3 55bd 7289 f53d 9a2a 18bd
00000230: 209e 9abd 7db2 483d 231d 823c cfb7 013e
00000240: 9aca 803d a7f0 963c 9f17 b23c aaa9 41bd
00000250: 78ad c3bd 116f 01be cf2b 82bd a0c3 c53b
00000260: e064 ad3d 0f80 053e 1120 a7bd dfbc 93bd
00000270: baeb f03c 9266 abba 13d6 043e b905 573d
00000280: 3610 b93d 059d fb3b 3007 e7bc f687 713c
00000290: 927a 0a3e bca2 18bd 75ff c8bd 70da a03c
000002a0: c69b d73d 5067 dc3d fd49 943c 705e 71bd
000002b0: e8bf 2ebd df4c c93b 7c82 8d3b 3910 bd3c
000002c0: ecc1 2b3d 4c0d 7e3d 5067 0f3d 6986 453c
000002d0: 4b8e 293c 4229 bcbd 3c3c 28bd a3db d6bc
000002e0: 6cd4 f8bc 2297 4dba e19b ee3d 5a96 08be
000002f0: e2cf 3abd e97e 5dbd 93b3 ad3c 133f 50bd
00000300: 082a 063d 47dd a1ba fe53 52bd 3aed 47bd
00000310: a0e4 14be f765 b83d 0bd3 d6bd 20d7 153e
00000320: a534 4d3d 22a5 a8bd de1c 85bd a8dc 883d
00000330: 973e 04be d60e 033e 068a 85bd dc83 1abd
00000340: 5563 a63c eda7 d03d 7afe 503c 7c49 24bd
00000350: 198f e4bb b183 e4bd a426 643d dc20 c93d
00000360: 67cd 783c 0e29 aebd e4e7 c13c 9fcb 53bd
00000370: 94dd 0dbd 0ef7 a93b ec58 dbbc be51 b5bd
00000380: 9869 6c3c d098 1f3d 278f 8b3d 763a 8e3d
00000390: d06c d63d c66c ca3d 7b2e d4bd 00f0 203e
000003a0: 66a4 c43d b537 41bd c969 cabc 63db fe3d
000003b0: 44aa fb3d 61e1 e23d 582d 293d 47a1 3a3d
000003c0: 8a3e 8f3d 8963 073d 6e50 c6bd b23b 1cbe
000003d0: 9879 a13d 83ee 673d 32b6 31bd 3f94 493d
000003e0: 20aa 44bd 7e71 4d3e 029c e83b b67c 793d
000003f0: 369f 113d 4ea5 d5bd 8d96 ca3d 08e8 7abd

encoder.bias_ih_l0 f4 [256]
0.008266014 0.010365701 0.044509377 0.068368934 -0.041820027 0.12306798 -0.0774399 0.051846344
0.010868675 -0.033386607 0.13523766 0.10191232 0.113550074 0.12903164 -0.034730565 -0.062450167
-0.09106227 0.028117001 -0.03543846 0.12441047 0.022585811 -0.06619928 0.09964103 0.0730155
-0.01604307 0.033847984 -0.044091787 0.11629635 0.061953 0.048739854 -0.06115502 -0.038368598
0.014135987 -0.09320513 -0.102523424 0.011117504 0.05353487 -0.07600595 -0.09015042 0.07357159
0.038402542 -0.0037499352 -0.0047278353 -0.0776958 0.05537809 -0.100167654 0.11926869 0.019124607
-0.07232914 -0.02045441 0.1341835 0.063245125 -0.09586278 0.01970252 0.01880304 0.0060406122
0.06403914 0.024843587 -0.077406436 0.107882865 0.11325883 0.025867848 -0.07730943 0.09467202
-0.02099738 0.009970893 0.0039670668 -0.07433265 -0.04747088 -0.11685809 0.049710155 -0.08136184
-0.056872096 0.06999921 -0.09121706 0.005421137 0.055502735 -0.091636755 0.063166596 -0.023190077
0.016458308 -0.07952282 -0.099662736 -0.0054669366 0.066716895 -0.08425316 -0.09183551 0.070231564
0.0015813549 -0.02099742 -0.019964635 0.0037814404 -0.10792324 0.09414609 -0.1272788 -0.03208768
-0.05524355 0.07699041 -0.067063235 0.02158805 -0.0043922234 0.039940007 0.090194136 -0.010129074
-0.052314047 0.14208835 -0.065375276 0.13280709 0.039037455 0.05838476 0.03236511 -0.011541763
0.051793013 0.07546993 -0.0010835708 0.12021635 -0.0055375597 0.06774604 -0.08026463 0.13315701
-0.08527974 0.0060162996 0.10730614 0.13945787 -0.08115209 -0.0418757 0.11885627 0.02449372
0.044435833 0.09305454 -0.104890876 0.08608548 0.05130754 -0.09156001 0.0011321305 0.10132702
-0.008160928 -0.05186484 -0.049003594 0.024567971 0.06503393 0.057254877 -0.01733013 -0.07735883
0.03244094 -0.10739921 -0.11460151 -0.024628924 0.034128338 0.0336206 0.105029784 -0.0452813
-0.10708616 0.0039807004 0.07575619 0.09170594 -0.05990507 -0.12446093 -0.061827477 -0.00026529154
-0.002666781 -0.09891284 0.017391773 -0.111463405 -0.028965542 0.046134368 0.08781593 -0.012985845
-0.04326866 -0.03244551 0.035179228 -0.05213555 -0.026991809 0.072283715 0.0032648186 -0.085127935
-0.09404593 0.103260845 -0.068920374 0.023673974 -0.07549951 -0.13356036 0.09884978 -0.12850136
0.13396002 0.07681689 -0.0717091 0.11358443 -0.071758896 -0.13208967 0.10208895 0.08830749
-0.08138657 0.02691526 -0.10131361 0.046957873 0.03919178 7.138053e-05 0.01748333 -0.0608752
0.04408383 0.103657335 0.021292062 0.0527026 0.059922084 0.04596215 -0.03812468 -0.048250914
0.10897501 0.03267831 0.116304405 0.1262657 0.122212864 -0.09220404 0.08721554 -0.0418523
-0.043536592 0.040810324 -0.008062985 -0.050577685 0.1318862 -0.002681284 0.018367227 0.104407564
0.0076213754 -0.047368623 0.11656554 0.009629279 0.018194148 0.14932783 0.107511364 0.041630667
0.013534866 -0.017392073 -0.06431147 0.0049560396 0.023898171 -0.049322978 0.0169066 0.01380999
0.06393173 -0.027230369 0.009239772 -0.04239136 0.050522964 0.0015369217 0.04525681 -0.04620952
-0.013941218 0.040232047 0.093992956 0.028860558 0.15501392 -0.06259024 0.07791619 0.1074146
00000000: 2d6e 073c e7d4 293c 774f 363d 0305 8c3d
00000010: 7a4b 2bbd 110b fc3d cf98 9ebd d55c 543d
00000020: 8712 323c 65c0 08bd be7b 0a3e 68b7 d03d
00000030: f18c e83d df20 043e a341 0ebd bfcb 7fbd
00000040: db7e babd a055 e63c eb27 11bd ebca fe3d
00000050: e105 b93c 7d93 87bd 9910 cc3d 2789 953d
00000060: c26c 83bc 2fa4 0a3d 9799 34bd c82c ee3d
00000070: 6ec2 7d3d 71a3 473d b07d 7abd 6428 1dbd
00000080: a09a 673c 55e2 bebd cdf7 d1bd 3126 363c
00000090: 6147 5b3d 02a9 9bbd c9a0 b8bd b4ac 963d
000000a0: fc4b 1d3d 79c1 75bb f5eb 9abb fa1e 9fbd
000000b0: 23d4 623d b324 cdbd 2543 f43d 35ab 9c3c
000000c0: 4d21 94bd 0290 a7bc 6667 093e a986 813d
000000d0: b553 c4bd 2e67 a13c d508 9a3c 54f0 c53b
000000e0: f426 833d c784 cb3c 4487 9ebd b1f1 dc3d
000000f0: 3ff4 e73d cfe8 d33c 6854 9ebd 67e3 c13d
00000100: b302 acbc f55c 233c 2bfe 813b b73b 98bd
00000110: d370 42bd 4b53 efbd e09c 4b3d 09a1 a6bd
00000120: b7f2 68bd bf5b 8f3d 03d0 babd cba3 b13b
00000130: d656 633d 0dac bbbd 7d5d 813d 1ef9 bdbc
00000140: 93d3 863c dcdc a2bd fa1b ccbd fd23 b3bb
00000150: dea2 883d ec8c acbd 4214 bcbd 91d5 8f3d
00000160: 7745 cf3a c802 acbc e08c a3bc 0bd2 773b
00000170: dc06 ddbd aacf c03d 6055 02be 5f6e 03bd
00000180: 1047 62bd 26ad 9d3d 7358 89bd 6cd9 b03c
00000190: a4ec 8fbb 2298 233d b4b7 b83d 6af4 25bc
000001a0: 4147 56bd 9c7f 113e 79e3 85bd 95fe 073e
000001b0: bde5 1f3d dc24 6f3d 4791 043d aa19 3dbc
000001c0: e924 543d fb8f 9a3d 9a06 8eba fd33 f63d
000001d0: 6b74 b5bb 70be 8a3d c861 a4bd 505a 083e
000001e0: 25a7 aebd 6124 c53b 52c3 db3d 0bce 0e3e
000001f0: 1133 a6bd db85 2bbd eb6a f33d 0ea7 c83c
00000200: 5902 363d 6193 be3d 07d1 d6bd 964d b03d
00000210: db27 523d d183 bbbd ff63 943a 8a84 cf3d
00000220: 6ab5 05bc 3a70 54bd feb7 48bd c542 c93c
00000230: 8230 853d 1784 6a3d ebf7 8dbc 4e6e 9ebd
00000240: cbe0 043d 1ef4 dbbd 32b4 eabd 99c2 c9bc
00000250: 28ca 0b3d c1b5 093d db19 d73d e278 39bd
00000260: fd4f dbbd 8970 823b 1026 9b3d 53d0 bb3d
00000270: 055f 75bd 5fe5 febd cf3e 7dbd d416 8bb9
00000280: 29c5 2ebb d192 cabd 3179 8e3c ed46 e4bd
00000290: 2549 edbc 64f7 3c3d d7d8 b33d 95c2 54bc
000002a0: 7a3a 31bd 95e5 04bd 1818 103d 168c 55bd
000002b0: ed1d ddbc 7c09 943d 91f6 553b 8e57 aebd
000002c0: 279b c0bd 6c7a d33d 2026 8dbd ecef c13c
000002d0: 7d9f 9abd 0cc4 08be c171 ca3d dc95 03be
000002e0: d12c 093e 2c52 9d3d 38dc 92bd f49e e83d
000002f0: 54f6 92bd 8442 07be 0314 d13d 8fda b43d
00000300: 01ae a6bd 647d dc3c 837d cfbd e656 403d
00000310: 8f87 203d 21b2 9538 3339 8f3c 4658 79bd
00000320: 3f91 343d 4c4a d43d b16c ae3c aede 573d
00000330: dc70 753d cf42 3c3d a028 1cbd c0a2 45bd
00000340: 4a2e df3d b1d9 053d 0131 ee3d cc4b 013e
00000350: bd4a fa3d 79d5 bcbd 109e b23d 516d 2bbd
00000360: 6d53 32bd ba28 273d 9c1a 04bc 8c2a 4fbd
00000370: 2d0d 073e 7bb8 2fbb de76 963c a2d3 d53d
00000380: bbbc f93b 9a05 42bd eab9 ee3d 20c4 1d3c
00000390: e50b 953c 65e9 183e eb2e dc3d eb84 2a3d
000003a0: 58c1 5d3c d279 8ebc bbb5 83bd 4666 a23b
000003b0: 19c6 c33c e406 4abd b67f 8a3c 4c43 623c
000003c0: a4ee 823d 3912 dfbc 6a62 173c 90a2 2dbd
000003d0: 2bf1 4e3d 8972 c93a 345f 393d 3246 3dbd
000003e0: b569 64bc 5cca 243d 617f c03d fa6c ec3c
000003f0: f8bb 1e3e 502f 80bd 8692 9f3d 30fc db3d

encoder.bias_hh_l0 f4 [256]
0.08112762 -0.03662032 0.098132 -0.08523414 0.064104185 0.06603109 -0.019800927 0.053948715
0.08648912 0.041851472 0.017222514 -0.026393693 0.055295344 0.03140879 -0.020109 -0.09096933
0.032159436 0.10696788 -0.07741488 -0.040334754 -0.06365025 -0.036353312 -0.028261423 0.104325145
-0.08204681 -0.07599943 -0.04012621 -0.030351667 -0.013610425 0.056701906 0.04784324 0.07287565
0.07233015 0.07869385 0.06442374 0.06965839 -0.0687671 0.033877138 -0.07226015 0.02853916
0.00084671465 0.12106213 0.08775769 -0.03147525 0.076520115 -0.07936161 -0.047817968 0.04578442
-0.12394586 -0.04301859 0.09167591 -0.07919898 -0.11018358 0.05382742 -0.021004004 0.050280917
-0.00050245336 0.1723424 -0.024295056 -0.085790984 0.100022316 -0.046411477 -0.014402074 0.014845018
0.13190031 -0.09539635 0.0813836 0.08730037 -0.10905075 0.004142333 -0.074382156 -0.03232195
0.04945396 0.031099264 0.03330716 -0.06462317 -0.07283313 0.056493167 0.027552312 -0.03519836
0.061567143 -0.004588125 0.045426168 -0.07981378 0.073518425 0.10412715 0.0751792 -0.047323585
-0.019136436 -0.018428812 0.043655917 -0.035426665 0.11998771 0.015439268 0.048997432 0.12041863
0.06196211 0.036879443 0.123794235 -0.008965071 -0.049902707 0.060678966 -0.04921217 -0.08575475
0.13703938 -0.0011792753 -0.013443494 0.07017275 0.044483576 -0.07718368 0.13614936 0.1796828
-0.104867496 -0.04446703 -0.09800668 -0.0019146998 0.07863898 -0.0824706 -0.07349681 0.13801013
0.002074856 -0.046322223 0.04253815 0.0059919828 0.1327708 -0.058558468 -0.07134221 0.02423791
-0.112048425 -0.021091713 0.041478217 -0.12122365 -0.023416227 -0.11555969 -0.13374472 0.087016046
0.09582599 0.04150122 -0.11144088 -0.10214023 0.030765405 0.013353101 -0.030302629 -0.09674033
0.061159685 -0.11108008 -0.09705155 0.057259943 -0.14362162 -0.13150448 0.034763187 0.12746112
0.14121465 0.08740495 -0.012593145 0.10622599 0.12568314 -0.03416659 -0.077516854 -0.07314113
-0.015104488 -0.007955744 0.041504 -0.08030212 -0.019037861 0.082209595 -0.0137287 0.06781031
-0.13471755 -0.14488679 0.037741616 0.04999222 0.08236142 -0.00023090879 0.018299313 0.09375042
-0.11283682 -0.025537591 -0.058718536 -0.0931672 -0.07828946 -0.04971221 0.03427296 -0.032495055
0.073283635 0.020089643 -0.09527421 -0.04214092 0.05470128 -0.13712324 -0.005270773 0.13953122
0.072348304 0.0666651 -0.02243062 -0.09190255 -0.10419251 -0.10430406 0.09801183 0.004912051
-0.08070804 0.073565714 -0.092049025 0.004444927 -0.059682935 0.030452514 0.13717061 0.09114266
-0.030355085 -0.05266589 0.01560443 -0.055636734 0.13375002 0.069033496 0.019301657 0.0050670216
-0.019427555 -0.055278115 0.06782967 -0.02602792 0.007592005 0.09480242 -0.120759085 0.021760456
0.022296961 0.07944863 -0.09704596 0.11750886 0.079856694 0.023819182 0.09412594 0.10448799
0.11278546 0.08233124 0.03400333 0.028276125 -0.05838733 0.12650047 0.10924343 0.024950562
-0.07526382 0.13309775 -0.027582755 0.06654085 -0.034190897 -0.09745396 0.07589112 -0.029489184
0.034120116 0.0027457972 -0.05400668 -0.06776651 0.082210205 -0.05936153 0.044694524 -0.055869248
00000000: 3d26 a63d 30ff 15bd 6ef9 c83d 3d8f aebd
00000010: 0e49 833d 4f3b 873d 8e35 a2bc 54f9 5c3d
00000020: 3521 b13d 736c 2b3d 3b16 8d3c 9637 d8bc
00000030: 5f7d 623d 81a6 003d a1bb a4bc 214e babd
00000040: 9db9 033d fa11 db3d b18b 9ebd 0e36 25bd
00000050: 105b 82bd 36e7 14bd 8084 e7bc 6ca8 d53d
00000060: 2808 a8bd 97a5 9bbd 615b 24bd 0fa4 f8bc
00000070: 43fe 5ebc 4240 683d 46f7 433d d43f 953d
00000080: d421 943d 3e2a a13d 98f0 833d 0fa9 8e3d
00000090: c4d5 8cbd c1c2 0a3d 21fd 93bd f5ca e93c
000000a0: 0ff6 5d3a 6cef f73d 4eba b33d 31ec 00bd
000000b0: 94b6 9c3d 5788 a2bd c6dc 43bd 7288 3b3d
000000c0: 54d7 fdbd 4334 30bd 94c0 bb3d 1333 a2bd
000000d0: eea7 e1bd 247a 5c3d 9710 acbc 5df3 4d3d
000000e0: 13b7 03ba 877a 303e 6d06 c7bc 2fb3 afbd
000000f0: 80d8 cc3d f619 3ebd adf6 6bbc 8538 733c
00000100: e010 073e 295f c3bd 72ac a63d 89ca b23d
00000110: 0056 dfbd 68bc 873b ac55 98bd 0564 04bd
00000120: 3c90 4a3d e2c3 fe3c 176d 083d 2759 84bd
00000130: 8929 95bd 6165 673d 63b5 e13c 282c 10bd
00000140: d42d 7c3d fb57 96bb ca10 3a3d 6875 a3bd
00000150: d490 963d 9d40 d53d 8df7 993d 60d6 41bd
00000160: 04c4 9cbc 05f8 96bc 8cd0 323d 8d1b 11bd
00000170: 1ebc f53d fcf4 7c3c 88b1 483d 0b9e f63d
00000180: fbcb 7d3d e60e 173d d587 fd3d 3ce2 12bc
00000190: c866 4cbd 828a 783d b392 49bd 30a0 afbd
000001a0: 0d54 0c3e ea91 9aba 1a42 5cbc bbb6 8f3d
000001b0: 6934 363d 7a12 9ebd bd6a 0b3e c5fe 373e
000001c0: c5c4 d6bd 0f23 36bd bab7 c8bd aaf6 faba
000001d0: 790d a13d 59e6 a8bd 7f85 96bd 8752 0d3e
000001e0: 4ffa 073b 5fbc 3dbd 7c3c 2e3d 6558 c43b
000001f0: 12f5 073e 01db 6fbd dd1b 92bd 958e c63c
00000200: a579 e5bd 87c8 acbc 10e5 293d 1b44 f8bd
00000210: 63d3 bfbc 8faa ecbd 60f4 08be 7835 b23d
00000220: 6b40 c43d 2ffd 293d 1e3b e4bd e62e d1bd
00000230: bb07 fc3c f7c6 5a3c 383d f8bc cb1f c6bd
00000240: 9482 7a3d f47d e3bd f7c2 c6bd 6789 6a3d
00000250: 8c11 13be 1ca9 06be d863 0e3d 2b85 023e
00000260: 939a 103e 5e01 b33d 7a53 4ebc 038d d93d
00000270: 15b3 003e 44f2 0bbd 28c1 9ebd 04cb 95bd
00000280: d078 77bc cf58 02bc 1900 2a3d 7075 a4bd
00000290: 4af5 9bbc 815d a83d 57ee 60bc 22e0 8a3d
000002a0: 66f3 09be 345d 14be f496 1a3d a4c4 4c3d
000002b0: 1bad a83d 1b20 72b9 71e8 953c 3800 c03d
000002c0: fe16 e7bd 3634 d1bc d982 70bd 72ce bebd
000002d0: 3956 a0bd 089f 4bbd ce61 0c3d 8919 05bd
000002e0: bb15 963d 0993 a43c 201f c3bd f59b 2cbd
000002f0: 730e 603d 096a 0cbe 73b6 acbb 46e1 0e3e
00000300: 592b 943d b687 883d 6bc0 b7bc 6737 bcbd
00000310: e262 d5bd 5e9d d5bd 6dba c83d 45f5 a03b
00000320: 424a a5bd 9fa9 963d 3384 bcbd c0a6 913b
00000330: 1876 74bd 8d77 f93c 7476 0c3e 01a9 ba3d
00000340: 3aab f8bc 30b8 57bd b9a9 7f3c 58e3 63bd
00000350: c4f5 083e 6f61 8d3d 821e 9e3c 4209 a63b
00000360: 8926 9fbc 4e6b 62bd 48ea 8a3d 8138 d5bc
00000370: 5bc6 f83b c527 c23d 8a50 f7bd fc42 b23c
00000380: 1ea8 b63c f7b5 a23d 08c0 c6bd 7ca8 f03d
00000390: e88b a33d 7220 c33c 1ac5 c03d cdfd d53d
000003a0: 10fc e63d 489d a83d 1347 0b3d 55a3 e73c
000003b0: 8e27 6fbd 5789 013e 05bb df3d 1f65 cc3c
000003c0: eb23 9abd c74a 083e 3bf5 e1bc 9246 883d
000003d0: c10b 0cbd f195 c7bd ce6c 9b3d 4d93 f1bc
000003e0: 89c1 0b3d d5f2 333b 1c36 5dbd 2bc9 8abd
000003f0: d35d a83d 1325 73bd 9b11 373d 27d7 64bd

decoder.weight_ih_l0 f4 [256, 64]
0.07917197 0.10863914 0.020588685 -0.13437587 -0.08568809 0.04491206 -0.03512033 0.12985532
-0.06590831 -0.040913425 -0.124030694 -0.068188444 0.061815057 -0.08782915 -0.09911766 0.051266387
0.08201095 0.06936381 -0.102511264 0.10053113 -0.042509258 -0.04231937 -0.0647592 0.068678096
0.1197661 0.1215618 -0.09260975 -0.03500817 0.0948719 -0.098330915 0.035526544 -0.0014722919
0.097786665 0.10803027 0.052673705 -0.015257877 -0.09851916 -0.013303702 -0.100576706 0.08956633
0.058645867 -0.0780231 0.0529432 0.009041813 -0.08520129 -0.115188815 -0.10699526 0.099922396
-0.017877333 0.0061715627 0.045253694 -0.10170053 0.09739036 -0.11298533 0.05000031 -0.09441542
0.0329783 -0.04751394 0.035185188 0.045657013 0.115990624 0.043618567 -0.057192896 0.09068715
-0.08862242 -0.09154048 0.06959062 -0.032368284 -0.087035954 0.07208303 -0.119858846 0.019979173
-0.025051896 -0.14828548 0.10170866 -0.019833619 0.056289952 0.10096266 -0.07419611 -0.056827854
-0.076696664 0.033375077 0.06707255 -0.025565188 0.03218484 0.008617852 -0.042866077 -0.048419748
0.02864359 0.0708221 -0.027095454 -0.10387578 0.10143595 0.039089315 -0.080008335 -0.1118919
0.016874408 -0.08414176 0.005717091 0.09618214 -0.07244126 -0.07601975 -0.08488612 -0.046877135
-0.016439892 -0.13818985 -0.101556286 -0.06650652 0.021023061 0.12543581 0.10982835 -0.050448243
-0.12827311 0.11310961 -0.117901035 -0.13753027 0.06322599 -0.10853402 -0.09624599 0.07241458
0.10357284 0.0878741 -0.026977321 -0.06454642 -0.05512051 0.08143361 -0.05173636 0.02947272
-0.0616378 0.11677228 0.030189773 0.041841567 0.04190937 0.115663946 0.11344902 0.12680306
0.1261998 -0.018813303 -0.094928995 0.084642105 0.006942378 0.017347017 -0.13301495 0.07631415
-0.042972174 -0.12637639 0.034055866 0.09382736 0.017090756 0.039639357 0.11931732 0.08228369
-0.07957821 0.04925953 -0.10682479 -0.11904952 -0.101323016 -0.02367729 -0.08097944 -0.056053497
0.012853912 -0.11191798 0.10241835 0.07953337 0.079695076 0.116074264 -0.007927872 0.0028824469
0.112451494 -0.05343607 -0.01781776 -0.060013384 -0.075965874 -0.061739028 0.008721716 -0.05257523
0.08703339 0.060475465 -0.0359597 0.073558696 -0.020264447 0.07417353 0.07171578 -0.001993705
0.08720283 -0.15289193 0.093443 0.010239155 -0.034064483 -0.11081694 0.06634652 -0.087197915
0.009073813 0.100298434 0.0439094 0.09310242 -0.077762045 0.12971045 -0.042206515 -0.01810365
0.09377271 0.10213494 -0.0049946457 -0.07554069 -0.09207637 0.014889047 -0.14159751 0.0026537427
-0.053095955 0.045108672 -0.073042005 0.0774187 0.0009741136 0.024050258 -0.14071873 -0.11176707
-0.060151707 0.089985035 -0.013897122 0.018228306 -0.047607858 -0.063063905 0.029217107 -0.005785992
-0.057652596 0.11021107 -0.034757163 0.053484157 0.03612507 0.008660218 -0.026021492 -0.13541088
-0.0039748177 0.07089485 -0.074830726 -0.112639576 -0.13575992 -0.0340953 -0.013084412 -0.04560486
-0.017067835 0.022366172 -0.07940615 -0.08214793 -0.05095365 -0.10101554 -0.09874833 -0.093051985
-0.105499305 -0.0036571743 0.016150434 0.09205654 -0.07948849 -0.014875212 0.07337539 0.046420157
00000000: ea24 a23d 337e de3d 9aa9 a83c d499 09be
00000010: 3d7d afbd b5f5 373d 56da 0fbd cbf8 043e
00000020: f0fa 86bd d694 27bd ce03 febd 62a6 8bbd
00000030: c931 7d3d c5df b3bd 33fe cabd b4fc 513d
00000040: 5bf5 a73d 9d0e 8e3d 6df1 d1bd 44e3 cd3d
00000050: 301e 2ebd 1357 2dbd 79a0 84bd 1aa7 8c3d
00000060: ee47 f53d 65f5 f83d 2eaa bdbd ba64 0fbd
00000070: 334c c23d b861 c9bd 4884 113d ebf9 c0ba
00000080: 6044 c83d f93e dd3d 62c0 573d 2dfc 79bc
00000090: 6ac4 c9bd c5f7 59bc 29fb cdbd 8d6e b73d
000000a0: a636 703d 93ca 9fbd f8da 583d 1d24 143c
000000b0: 047e aebd 1de8 ebbd 5520 dbbd 1da4 cc3d
000000c0: 7c73 92bc d23a ca3b f05b 393d 5e48 d0bd
000000d0: 9974 c73d da64 e7bd 20cd 4c3d df5c c1bd
000000e0: 4114 073d fa9d 42bd 581e 103d d902 3b3d
000000f0: 7e8c ed3d 62a9 323d 1943 6abd 2fba b93d
00000100: ac7f b5bd 9379 bbbd 8785 8e3d 9b94 04bd
00000110: e83f b2bd 45a0 933d 8e78 f5bd 5dab a33c
00000120: a239 cdbc 26d8 17be a14c d03d 1d7a a2bc
00000130: 4b90 663d 83c5 ce3d 21f4 97bd 53c4 68bd
00000140: 2413 9dbd 4eb4 083d 555d 893d 166e d1bc
00000150: 40d4 033d e431 0d3c 5794 2fbd c953 46bd
00000160: f6a5 ea3c 2d0b 913d 49f7 ddbc d3bc d4bd
00000170: a7bd cf3d 1e1c 203d 69db a3bd 9527 e5bd
00000180: 333c 8a3c 8452 acbd 6f56 bb3b 24fb c43d
00000190: 155c 94bd 3eb0 9bbd c6d8 adbd 3d02 40bd
000001a0: f4ac 86bc a481 0dbe befc cfbd 9234 88bd
000001b0: 8e38 ac3c 3f72 003e b0ed e03d d1a2 4ebd
000001c0: 075a 03be 03a6 e73d 1976 f1bd bcd4 0cbe
000001d0: a17c 813d 1647 debd 9e1c c5bd 184e 943d
000001e0: ff1d d43d 56f7 b33d 8bff dcbc ea30 84bd
000001f0: 0bc6 61bd aac6 a63d 81e9 53bd c670 f13c
00000200: eb77 7cbd 4e26 ef3d 8b50 f73c 1062 2b3d
00000210: 29a9 2b3d 38e1 ec3d f657 e83d a9d8 013e
00000220: 853a 013e 5b1e 9abc 226a c2bd d758 ad3d
00000230: e37c e33b 551b 8e3c 1235 08be 984a 9c3d
00000240: 9703 30bd d068 01be 2a7e 0b3d 8f28 c03d
00000250: ea01 8c3c e15c 223d a45c f43d 5a84 a83d
00000260: e7f9 a2bd 5cc4 493d f5c6 dabd 3cd0 f3bd
00000270: 7182 cfbd e0f6 c1bc 8cd8 a5bd 5a98 65bd
00000280: 3799 523c 4135 e5bd b6c0 d13d 64e2 a23d
00000290: 2c37 a33d 58b8 ed3d e8e3 01bc 6fe7 3c3b
000002a0: f84c e63d c8df 5abd 8df6 91bc 98d0 75bd
000002b0: ff93 9bbd 10e2 7cbd 87e5 0e3c 2059 57bd
000002c0: 903e b23d 1fb5 773d 7a4a 13bd f1a5 963d
000002d0: a001 a6bc 4be8 973d b9df 923d d2a8 02bb
000002e0: 6697 b23d b48f 1cbe 0b5f bf3d 21c2 273c
000002f0: 3387 0bbd fef3 e2bd afe0 873d d294 b2bd
00000300: 55aa 143c 4469 cd3d 58da 333d 7bac be3d
00000310: b541 9fbd d1d2 043e bde0 2cbd 1b4e 94bc
00000320: e80b c03d 202c d13d 20aa a3bb 14b5 9abd
00000330: 8992 bcbd 30f1 733c f0fe 10be 6aea 2d3b
00000340: 257b 59bd dfc3 383d 0c97 95bd b28d 9e3d
00000350: a85b 7f3a 0c05 c53c 9218 10be 22e6 e4bd
00000360: a361 76bd 134a b83d c1b0 63bc 8753 953c
00000370: 7500 43bd a627 81bd b758 ef3c 6b98 bdbb
00000380: 2125 6cbd 57b6 e13d 875d 0ebd 3412 5b3d
00000390: e2f7 133d 96e3 0d3c 062b d5bc 26a9 0abe
000003a0: 303f 82bb 5231 913d da40 99bd 94af e6bd
000003b0: a604 0bbe 83a7 0bbd 0060 56bc 29cc 3abd
000003c0: d8d1 8bbc 4339 b73c b19f a2bd 2d3d a8bd
000003d0: c6b4 50bd 3ce1 cebd 903c cabd 0a92 bebd
000003e0: 0510 d8bd 34ad 6fbb ea4d 843c 2488 bc3d
000003f0: ddca a2bd 29b7 73bc d645 963d 1023 3e3d

decoder.weight_hh_l0 f4 [256, 1]
-0.08313363 0.043744184 0.06679243 0.273194 -0.056259338 0.056753192 -0.08664585 0.009058677
-0.076331384 0.065525465 0.050188646 0.053018034 -0.04407911 -0.13091524 0.06293121 0.12282308
-0.10421727 -0.13311923 -0.032038093 -0.2840412 0.024905672 0.111160316 -0.10545452 -0.069932625
-0.026132416 0.10516149 0.10248235 0.06607225 0.08116028 0.007865358 -0.26964813 -0.032843217
-0.12811045 -0.0676785 0.10895845 0.09894796 0.12400031 0.12085891 0.06650268 0.072313055
-0.055482272 -0.060526274 0.008933478 -0.025914196 0.043389063 -0.042061236 0.026906442 -0.10201635
0.20076244 -0.077383175 0.096998565 -0.16597104 -0.121338464 0.122967884 -0.0562397 -0.06813527
-0.12521547 0.2523546 0.009560303 -0.12966964 -0.119720146 -0.14609209 -0.033802204 -0.0038347167
0.07061211 -0.10065726 -0.14639196 0.2612641 -0.1183791 -0.15260762 -0.15315695 -0.05774514
0.07680087 0.040851347 -0.09556299 0.026937421 0.030646436 0.010235084 0.14324781 -0.055862825
0.022569109 0.08227431 -0.032394476 0.53967464 0.002538639 0.015040673 0.042188704 -0.116228536
0.14035167 -0.124368 -0.07692902 -0.05173309 0.07775191 0.12300178 -0.19555742 -0.14593074
-0.12762298 -0.023374254 -0.09889271 0.24847136 -0.068945296 0.057445075 0.08780653 -0.060543336
-0.1685064 -0.10223719 0.030632935 0.07441057 0.057162546 0.027342316 0.011103262 -0.03337914
0.13259572 -0.09953446 0.076525256 -0.09113276 -0.03114877 0.053868547 0.07109795 0.10095825
-0.008974549 0.24854901 -0.051362876 -0.10134925 -0.11644227 -0.14136942 -0.06702985 0.052750703
-0.019264216 0.096489474 -0.07728104 0.06304859 -0.017145956 0.100777514 0.01369741 -0.052675255
-0.11738172 0.10145598 -0.09820508 0.12161617 -0.020169646 0.103295416 0.060248803 0.07319556
-0.084130555 0.15446763 -0.044433344 0.2776232 0.12462249 0.08301686 0.12895831 -0.10350418
-0.14449556 -0.04818273 -0.038898226 -0.05061227 -0.117634155 0.013517449 0.09542202 -0.11592791
0.06334137 0.12858243 -0.091105826 0.07933907 -0.001360663 -0.003422287 -0.05285947 0.06859897
-0.13890082 0.067081675 -0.119774535 0.03594283 0.08475709 -0.00939887 -0.118599415 0.01748642
-0.012222692 0.026993012 -0.025563203 -0.041785777 0.107361756 -0.033361934 0.0692775 -0.023504732
0.08640316 -0.07584771 0.014841393 -0.08364563 -0.017547108 -0.01523579 -0.061926007 -0.039241444
-0.004712309 -0.029074542 0.1070034 0.07024385 -0.1330897 -0.0569985 -0.008529088 -0.114529274
0.014172855 -0.10535702 -0.10740672 -0.074279815 0.13785015 0.07950768 0.098660566 0.14135723
-0.059969567 -0.11746611 0.024335716 0.38025594 0.13185605 -0.08925501 0.05514119 -0.09025565
0.06814408 0.042004082 -0.09925148 -0.09287393 0.118864134 -0.07011134 -0.10237507 0.12490695
-0.12980488 0.06533647 0.025634367 0.22438669 -0.07237524 -0.10132433 -0.07175927 -0.012457395
-0.039237 -0.085469864 -0.00033027484 -0.06813194 0.14127971 -0.11379315 -0.0067852973 0.120685324
0.015708063 0.033407237 0.04166621 -0.19468696 -0.11243637 -0.033127144 -0.07889915 0.11329641
-0.051269583 0.2585287 0.12535381 0.0050387774 -0.111948706 -0.058640834 0.07396604 -0.06330052
00000000: f741 aabd 1a2d 333d 78ca 883d 15e0 8b3e
00000010: 3170 66bd 0976 683d 6173 b1bd d86a 143c
00000020: a153 9cbd 3732 863d 9c92 4d3d 7029 593d
00000030: 4c8c 34bd a50e 06be 14e2 803d ab8a fb3d
00000040: dd6f d5bd 6850 08be 603a 03bd d96d 91be
00000050: fb06 cc3c 05a8 e33d 8af8 d7bd d638 8fbd
00000060: a613 d6bc e85e d73d 44e2 d13d e350 873d
00000070: 5c37 a63d b4dd 003c 520f 8abe 9c86 06bd
00000080: 632f 03be 079b 8abd 9c25 df3d 3aa5 ca3d
00000090: e0f3 fd3d e084 f73d 8f32 883d de18 943d
000000a0: 6141 63bd 66ea 77bd b95d 123c 024a d4bc
000000b0: bbb8 313d 6748 2cbd e66a dc3c f3ed d0bd
000000c0: ab94 4d3e 127b 9ebd 2fa7 c63d 50f4 29be
000000d0: 4d80 f8bd 96d6 fb3d 9a5b 66bd 818a 8bbd
000000e0: 7c38 00be 9f34 813e d1a2 1c3c 1ec8 04be
000000f0: d62f f5bd 2a99 15be 2e74 0abd df4f 7bbb
00000100: 159d 903d 6525 cebd c6e7 15be 68c4 853e
00000110: be70 f2bd 2c45 1cbe 2dd5 1cbe 2b86 6cbd
00000120: c649 9d3d be53 273d 87b6 c3bd deab dc3c
00000130: 3c0e fb3c 0eb1 273c 8eaf 123e 6bd0 64bd
00000140: dae2 b83c 6f7f a83d 12b0 04bd 1e28 0a3f
00000150: 4b5f 263b 286d 763c 10ce 2c3d 3a09 eebd
00000160: 59b8 0f3e a6b4 febd f68c 9dbd 14e6 53bd
00000170: 653c 9f3d 5be8 fb3d 3440 48be de6e 15be
00000180: 99af 02be 5d7b bfbc 4388 cabd 476f 7e3e
00000190: 3133 8dbd 874b 6b3d e9d3 b33d 4afc 77bd
000001a0: f18c 2cbe bb61 d1bd ecf1 fa3c 9264 983d
000001b0: 4623 6a3d fefc df3c 75ea 353c 91b8 08bd
000001c0: 2cc7 073e b9d8 cbbd 46b9 9c3d d0a3 babd
000001d0: b52b ffbc 44a5 5c3d cd9b 913d 33c3 ce3d
000001e0: fd09 13bc a283 7e3e e161 52bd 3290 cfbd
000001f0: 4979 eebd 25c3 10be f246 89bd 1f11 583d
00000200: fdcf 9dbc 469c c53d 8645 9ebd 9f1f 813d
00000210: ad75 8cbc 7164 ce3d 1a6b 603c 02c2 57bd
00000220: d465 f0bd 27c8 cf3d bf1f c9bd e611 f93d
00000230: d03a a5bc 8c8c d33d 73c7 763d 8ee7 953d
00000240: a44c acbd c32c 1e3e bdff 35bd a124 8e3e
00000250: 133a ff3d be04 aa3d a60d 043e 00fa d3bd
00000260: a5f6 13be 415b 45bd bf53 1fbd d04e 4fbd
00000270: 2dea f0bd 4a78 5d3c 9f6c c33d 9d6b edbd
00000280: 1fb9 813d 1dab 033e b195 babd 867c a23d
00000290: 4658 b2ba 7348 60bb 2c83 58bd 9e7d 8c3d
000002a0: 043c 0ebe 1e62 893d 5a4c f5bd ca38 133d
000002b0: 2095 ad3d b8fd 19bc 40e4 f2bd ae3f 8f3c
000002c0: b041 48bc 7320 dd3c ec69 d1bc 9027 2bbd
000002d0: 7be0 db3d 86a6 08bd 5de1 8d3d ff8c c0bc
000002e0: 24f4 b03d 0b56 9bbd 5029 733c 664e abbd
000002f0: f4be 8fbc 899f 79bc 20a6 7dbd a3bb 20bd
00000300: b769 9abb bc2d eebc 9924 db3d 02dc 8f3d
00000310: ab48 08be 4277 69bd 97bd 0bbc 538e eabd
00000320: 4335 683c 6cc5 d7bd 0ef8 dbbd 0420 98bd
00000330: 9728 0d3e ecd4 a23d 8d0e ca3d f3bf 103e
00000340: a6a2 75bd 1292 f0bd b25b c73c e8b0 c23e
00000350: 4605 073e 55cb b6bd badb 613d f4d7 b8bd
00000360: 208f 8b3d 790c 2c3d 5c44 cbbd b034 bebd
00000370: 0a6f f33d 8996 8fbd 05aa d1bd 37cf ff3d
00000380: 92eb 04be 21cf 853d 2aff d13c a0c5 653e
00000390: 7839 94bd 2183 cfbd 86f6 92bd 1a1a 4cbc
000003a0: fab6 20bd d30a afbd bd28 adb9 c288 8bbd
000003b0: a1ab 103e 620c e9bd 3357 debb de29 f73d
000003c0: 32ae 803c 07d6 083d 30aa 2a3d 055c 47be
000003d0: 0a45 e6bd 54b0 07bd e195 a1bd f307 e83d
000003e0: 0e00 52bd e05d 843e c05c 003e 541c a53b
000003f0: 5d45 e5bd 5f31 70bd 827b 973d b4a3 81bd

decoder.bias_ih_l0 f4 [256]
0.09223219 0.10879114 -0.09649899 -0.13914521 -0.1131385 0.016791005 -0.027156856 -0.013374152
-0.08698271 0.0563996 0.014722352 -0.046676315 -0.055299945 -0.018065043 0.02794876 -0.013899617
-0.08924824 -0.08528269 -0.02329154 -0.019931396 -0.016130792 -0.060073994 0.041869834 0.045823965
0.08179231 -0.020279039 -0.065688044 0.09143878 -0.05155556 0.05713558 -0.12026979 0.026656523
-0.10100848 -0.037485953 0.10743959 0.07765967 0.041738484 0.048731383 0.0025378994 -0.07109586
0.12722199 0.01452648 0.053346854 -0.115525335 0.049504906 -0.04034888 -0.08095412 0.12277016
-0.13920741 -0.02221854 -0.032994777 0.057835385 0.086301945 0.059205335 -0.044021677 0.0012169569
-0.09875472 0.050404686 -0.0020169867 -0.05738074 -0.080566265 -0.06542635 0.103102334 0.086148985
-0.15016079 -0.061089836 -0.060298562 0.10455647 -0.16488092 0.026057776 0.07509262 0.070018895
0.043511976 -0.023853185 0.08782278 -0.01569911 -0.18516527 0.07898506 0.047605455 -0.14582127
-0.10967579 0.0418062 -0.13818611 0.35118988 -0.09034595 -0.13128714 0.0036750217 -0.13614526
-0.09114013 -0.14532733 0.0013711528 -0.07881225 -0.14655742 -0.044625584 -0.08092334 0.014188753
0.006964507 -0.029016448 -0.02368442 -0.015723007 -0.0049709105 -0.070610076 0.0152252065 -0.01682223
-0.15199749 0.0038681065 -0.11780655 -0.049638912 0.05967429 -0.058813952 0.06226332 -0.15100369
-0.119218454 0.050102472 0.061711706 -0.11743485 0.07155252 0.095194995 0.025775908 -0.06550394
-0.19290152 -0.13504055 0.035462357 0.0086505255 0.0051338645 0.083851546 -0.02497977 -0.196717
-0.019428356 -0.13799913 -0.025610903 0.0033013711 0.07235879 -0.013523834 0.037024032 0.09777008
0.07674261 0.04219377 0.12030621 -0.11874207 0.058207996 -0.040162336 0.04034666 -0.06276691
0.08082478 -0.022823218 -0.096851334 -0.017208809 0.11830527 -0.04972589 -0.10184191 -0.058685027
-0.06720051 0.1147251 -0.0025456941 0.008593142 0.1277787 0.10869505 0.011840883 -0.14199387
-0.04482227 -0.06472714 0.004371814 -0.102106676 0.14208682 0.07534627 -0.13922825 0.0068020998
0.007569831 -0.039413784 0.035369903 -0.048916876 0.120106615 -0.09195075 0.03106305 0.07181822
-0.10951575 0.12471382 -0.10188525 -0.08119996 -0.039130345 -0.10862056 -0.016478928 0.022474755
-0.037641335 0.07724447 -0.092604436 -0.048691217 -0.07170946 -0.0839518 -0.022253936 -0.061800428
0.14234705 0.024046568 0.09687844 0.06772971 -0.001033832 -0.13667381 0.002936311 0.043446947
0.029806044 -0.024334665 -0.0015623934 0.12276654 0.045832843 -0.096930146 0.034122996 -0.03294693
-0.09874311 -0.033282403 -0.09018544 0.14985505 -0.003634122 -0.040088374 -0.0636823 -0.020834552
0.13305087 -0.010084074 -0.05634304 0.054502733 -0.062416263 0.13691474 -0.06976106 0.007440033
0.07043286 0.14846908 0.07830666 -0.0014437044 -0.08270419 0.0056801476 -0.043968447 0.0022001006
-0.04558802 0.069734715 0.013321955 -0.10740083 0.086534366 -0.034859654 0.070450425 0.07464803
-0.034471527 0.059674736 0.021044165 0.14094348 0.042610515 0.03314498 0.052386712 -0.07165399
-0.007583799 0.035503834 0.03682904 -0.13009316 0.10805965 0.09339386 0.07348392 -0.00474173
00000000: 3be4 bc3d e4cd de3d 43a1 c5bd 157c 0ebe
00000010: 28b5 e7bd 4a8d 893c 0e78 debc 421f 5bbc
00000020: fe23 b2bd 4403 673d 0536 713c aa2f 3fbd
00000030: 3282 62bd 24fd 93bc ccf4 e43c 38bb 63bc
00000040: c8c7 b6bd b1a8 aebd e6cd bebc 2b47 a3bc
00000050: b924 84bc 2610 76bd b47f 2b3d e9b1 3b3d
00000060: ba82 a73d 3a20 a6bc 7487 86bd 4144 bb3d
00000070: ec2b 53bd ff06 6a3d 0250 f6bd c85e da3c
00000080: 89dd cebd df8a 19bd 4a09 dc3d 080c 9f3d
00000090: f9f5 2a3d 8f9a 473d e352 263b b59a 91bd
000000a0: 7b46 023e 7900 6e3c 3b82 5a3d 8c98 ecbd
000000b0: a8c5 4a3d de44 25bd 46cb a5bd ec6e fb3d
000000c0: 638c 0ebe a803 b6bc 8825 07bd cce4 6c3d
000000d0: 13bf b03d 4b81 723d 1350 34bd 4c82 9f3a
000000e0: ea3f cabd 2575 4e3d 6c2f 04bb 1108 6bbd
000000f0: edff a4bd 40fe 85bd 5127 d33d e16e b03d
00000100: c0c3 19be 5639 7abd a0fb 76bd b421 d63d
00000110: 8bd6 28be 1e77 d53c 29ca 993d 1166 8f3d
00000120: 9d39 323d c167 c3bc 6edc b33d 6c9b 80bc
00000130: f79b 3dbe ebc2 a13d f0fd 423d 2c52 15be
00000140: b39d e0bd fa3c 2b3d a980 0dbe 29cf b33e
00000150: 4c07 b9bd 2370 06be a2d8 703b aa69 0bbe
00000160: ada7 babd b0d0 14be 41b8 b33a 5168 a1bd
00000170: 2613 16be 51c9 36bd 23bb a5bd f277 683c
00000180: 8536 e43b e7b3 edbc d405 c2bc 89cd 80bc
00000190: 05e3 a2bb 049c 90bd 2573 793c c6ce 89bc
000001a0: 3ba5 1bbe 0f80 7d3b 8f44 f1bd 2c52 4bbd
000001b0: 076d 743d e6e6 70bd d307 7f3d b6a0 1abe
000001c0: ce28 f4bd 4038 4d3d 6ac5 7c3d af81 f0bd
000001d0: 218a 923d 98f5 c23d ff27 d33c ee26 86bd
000001e0: fa87 45be 1248 0abe fa40 113d efba 0d3c
000001f0: fa39 a83b 5cba ab3d 60a2 ccbc 2e70 49be
00000200: 3728 9fbc a54f 0dbe f5cd d1bc d15b 583b
00000210: d830 943d 1293 5dbc 83a6 173d ae3b c83d
00000220: 3b2b 9d3d 60d3 2c3d 1a63 f63d 0b2f f3bd
00000230: 826b 6e3d 4381 24bd 8a42 253d f08b 80bd
00000240: 7687 a53d c2f7 babc fe59 c6bd 7df9 8cbc
00000250: 094a f23d 60ad 4bbd 7e92 d0bd b65f 70bd
00000260: 6ca0 89bd fef4 ea3d a9d5 26bb 40ca 0c3c
00000270: 6bd8 023e 839b de3d 4300 423c d766 11be
00000280: 8e97 37bd aa8f 84bd 6f41 8f3b 4e1d d1bd
00000290: 357f 113e 254f 9a3d da91 0ebe 26e4 de3b
000002a0: 580c f83b 5970 21bd 08e0 103d 105d 48bd
000002b0: 75fa f53d ad50 bcbd f077 fe3c 6e15 933d
000002c0: cb49 e0bd f669 ff3d 37a9 d0bd 2a4c a6bd
000002d0: 2447 20bd 7574 debd d1fe 86bc fa1c b83c
000002e0: cd2d 1abd 5932 9e3d 65a7 bdbd 7170 47bd
000002f0: 69dc 92bd ecee abbd e34d b6bc 7222 7dbd
00000300: 6dc3 113e 4ffd c43c 3468 c63d e0b5 8a3d
00000310: a581 87ba 38f4 0bbe 206f 403b 6df5 313d
00000320: ce2b f43c 7e59 c7bc 39c9 ccba 066d fb3d
00000330: 38bb 3b3d 5083 c6bd 8ec4 0b3d 5cf3 06bd
00000340: d439 cabd 2153 08bd 25b3 b8bd 9a73 193e
00000350: 732a 6ebb b533 24bd de6b 82bd 39ad aabc
00000360: 7d3e 083e ac37 25bc f6c7 66bd 423e 5f3d
00000370: 32a8 7fbd 6133 0c3e e3de 8ebd 85cb f33b
00000380: 1a3f 903d 4708 183e 3e5f a03d ae3a bdba
00000390: d060 a9bd 8820 ba3b 4218 34bd 902f 103b
000003a0: 81ba 3abd 13d1 8e3d 5444 5a3c f7f4 dbbd
000003b0: ee38 b13d ffc8 0ebd 5048 903d 11e1 983d
000003c0: 0432 0dbd 7f6d 743d d064 ac3c 7d53 103e
000003d0: 5d88 2e3d 08c3 073d 7393 563d 54bf 92bd
000003e0: 8481 f8bb 786c 113d 0cda 163d 2437 05be
000003f0: 614e dd3d 4845 bf3d bd7e 963d 8460 9bbb
