output/synthetic_data/models/model_hidden64_lr0.005_clip0.5.pth (torch, 141415 bytes, 9 tensors)

encoder.weight_ih_l0 f4 [256, 1]
00000000: a2e2 0a3d 38f9 35be 0d7b f83d 879f 00bd
00000010: e158 c73d 77fe 6dbe 0796 843d 372a 803c
00000020: 8583 1a3e 7ceb 70be 2253 96bb acdd 1e3e
00000030: d1c7 c63d 4097 86bc 1bf9 343d f948 6cbb
00000040: a662 8ebe 61f2 9ebd 40f2 05bd f82c 64bd
00000050: 23a2 323d 71f7 a2bd b164 1d3e 5860 383e
00000060: adae 73bd b4ef 2cbc 01f8 edbc 7ba7 83bd
00000070: 9604 f93d c785 77bc e9ee 17bd 5c3f 023e
00000080: aadd 313d 22fa 40be 28a8 80bc 2b5f fa3d
00000090: cc43 d2bd 3476 3dbd 8b6d 2e3d ea1d fe3d
000000a0: acfa 053e 1b63 75bc 5a4e 703c 1c84 e6bc
000000b0: 892d 613e bae1 cd3d a4d9 c33c 5fa8 1ebe
000000c0: 3b26 73bc 77ef 153e c9b6 4f3d 829b 333e
000000d0: 0011 dabd e0d0 e4bd 53c1 bcbd 77dd 6dbd
000000e0: 8a90 95bd 7832 873d ac85 99be f46c 05be
000000f0: cbb1 edbd 8aeb 18bd c705 5e3e a60a 01be
00000100: 6fbd b4bd 102b babd 6d01 efbc 6a79 c03d
00000110: fa8e c53d 625d 88bd 8f08 563d 1abb 073e
00000120: 8112 3b3d 083c 2ebe 9728 d93d 3252 2f3e
00000130: 63c3 bbbc 5697 b83c 87ac 27bd 0d66 703d
00000140: 2aeb babd d5a1 613d 4a71 d93d 7f51 c43d
00000150: 7556 02be 6c31 f53d 0ac1 54bc 3a35 2b3e
00000160: d6e6 22be 8962 1dbe c552 923d e014 3fbd
00000170: 1941 e83d e71b 243e 0da1 003e 00f4 cc3d
00000180: df72 d9bd fc6d f3bd bcb6 5d3e dbd3 363c
00000190: 46b7 603c f0c9 513d 8745 563c 76a5 dfbc
000001a0: e7ee 2c3e ff3f 8f3d ec05 a3bd c02f 123d
000001b0: a11c 003e c580 7e3e 265b 65bd 2f77 18bc
000001c0: 88d5 323e 552b 103e 89e5 613e fa12 c73d
000001d0: 956a 4dbe c1df 98bd 6e35 e33d 67f7 dcbd
000001e0: 1d7e 223e 3c2b 703e d0f4 c7bd 3241 703e
000001f0: 25d0 45bd 19fb 0cbc 6c0f bc3d 9973 d13d
00000200: e067 11bd dfce 1fbc 3e57 1cbd eefa 02be
00000210: 1f4d 483e 35ea ab3c 14ec f23c cb31 d5bd
00000220: c070 c5bd 58b4 5d3d a565 60bd de65 dcbd
00000230: 22b8 65bb 846f c23d 20f4 9fbd df4f 573e
00000240: 4dc4 213d e1c7 5cbb a4d7 183e b597 163e
00000250: 9699 283e 224f a5bd f1cb 1c3e 78b5 66be
00000260: e540 8dbd 5b3d 283d 01fc b13d 7530 1ebe
00000270: 2600 0a3e 8db8 49bd deb3 d7bd d906 b73d
00000280: 41ee dd3c 53ff 46ba b46d 443e 44bb 1bbd
00000290: a39d 523d 46f6 fd3c 95da 043e 65fb dc3d
000002a0: 1874 04bd 363e 043e 806e 7ebd b67e 1b3e
000002b0: 65ea 123e 78c5 f53d 5e0c b03c 34a8 7a3c
000002c0: cde6 cc3d f206 633e 3c7e 31be cf97 013e
000002d0: 3f22 843c abde e4bd 52ee 093e d9a1 213d
000002e0: ddbb d6bd 48e2 233e d7fc 443d 7bed 6a3e
000002f0: 86f5 09be 97b1 9e3c 0d32 49be 1d5b f03d
00000300: 54dd 17be 1bd7 c7bc 76af bdbd aa29 b03d
00000310: 2bb0 803e fb93 97bd 69ba ed3d 0efa c13c
00000320: 79c4 a43d 0790 1fbe a228 18bd 1927 583e
00000330: 072b 103d ddf7 2bbe f1f4 20be f967 413d
00000340: 4899 08be 1268 44bd 76f1 c6bd 480b 823d
00000350: 486b 32bd e179 25bd 476f ff3d 6e72 5c3e
00000360: f273 29bd 259f e9bd 56cb 263e 73ab 663d
00000370: 7aa4 a9bb 7ba3 af3d c362 dfbd a108 e13d
00000380: 66b7 7b3c 21a9 74be a5e7 0c3e d195 04bd
00000390: 34db 1cbd 9e30 c6bc 6597 ad3d 375a de3d
000003a0: eb1d 2bbd 3060 933d 2d57 48bc df63 3c3e
000003b0: e74d 163e a908 313e 874c f73c 4a6e 26be
000003c0: d0f3 213e 6ba0 803b 3bf5 ad3c 6c3c 89bd
000003d0: b81e c03d 399a 65be 0578 d83d cb3a 7b3d
000003e0: 2a47 b6ba bc39 3f3e 12a9 90be e0a0 c73d
000003f0: 923e 0a3e 9f25 c6bd 872d 7b3d b893 163d
0.03390754 -0.1777085 0.12132845 -0.031402137 0.09733749 -0.23241602 0.06473928 0.01564513
0.15089233 -0.2352733 -0.004587547 0.15514249 0.09706081 -0.016429543 0.044182878 -0.0036054237
-0.27809638 -0.07761074 -0.03270173 -0.055706948 0.043611657 -0.07957352 0.15370442 0.18005502
-0.059492756 -0.010555197 -0.029048922 -0.06428429 0.12159078 -0.015107579 -0.037093077 0.12719482
0.043424286 -0.18845418 -0.015705183 0.12225183 -0.102668375 -0.046255305 0.042584937 0.124080494
0.13083905 -0.014977242 0.014667118 -0.028139167 0.21990027 0.100528196 0.02390749 -0.15493916
-0.014840658 0.1464213 0.050711427 0.1753979 -0.10647774 -0.11172652 -0.09216561 -0.058072533
-0.07302959 0.06601423 -0.29984796 -0.13029844 -0.11606177 -0.037334003 0.21681891 -0.12601718
-0.08825194 -0.09090245 -0.029175485 0.09398158 0.09646411 -0.06658436 0.052254256 0.13254967
0.045671944 -0.17015088 0.10603445 0.17121199 -0.022920316 0.0225331 -0.04093602 0.058691073
-0.09126885 0.055085976 0.10617311 0.09585857 -0.12728293 0.11972317 -0.012985477 0.16719523
-0.1590837 -0.1536962 0.07144693 -0.046650767 0.113405414 0.16026269 0.12561436 0.10007477
-0.10617613 -0.11886212 0.21651739 0.011158909 0.013715571 0.051217973 0.0130781 -0.027300578
0.16888009 0.06994628 -0.07960114 0.03569007 0.12510921 0.24853809 -0.05599513 -0.009305759
0.17464268 0.1407903 0.22060217 0.09720416 -0.20060189 -0.07464553 0.11094175 -0.10789376
0.15868421 0.23453993 -0.09763491 0.2346237 -0.048294205 -0.008604788 0.09182629 0.10227127
-0.035499454 -0.009753912 -0.038169138 -0.12791035 0.1956067 0.020985702 0.029653586 -0.10409888
-0.09640646 0.054127067 -0.054784436 -0.10761617 -0.0035052379 0.09493926 -0.07810235 0.21026562
0.039493848 -0.0033688473 0.1492601 0.14706309 0.16464838 -0.08071734 0.15312172 -0.22530162
-0.06897143 0.041074138 0.08690644 -0.15448172 0.13476619 -0.049248267 -0.10532354 0.08936853
0.027091147 -0.0007591147 0.19182473 -0.038020387 0.051419865 0.031001221 0.12974007 0.10790137
-0.032337278 0.12914357 -0.0621171 0.15185055 0.14347227 0.12000555 0.021490272 0.015298892
0.10004959 0.22170618 -0.17333311 0.12655567 0.016129611 -0.11175283 0.13469818 0.03946099
-0.10485051 0.16004288 0.04809269 0.22942154 -0.13472566 0.01937179 -0.19647999 0.117361285
-0.14830524 -0.024394562 -0.09261982 0.08601697 0.25134405 -0.07401272 0.116078205 0.023678806
0.08045287 -0.15582286 -0.037148125 0.21108665 0.035197284 -0.16793771 -0.15718438 0.047218297
-0.13339722 -0.04795081 -0.09714024 0.06349808 -0.043559343 -0.040399436 0.12472396 0.21528026
-0.04137034 -0.114073075 0.16288504 0.05631585 -0.005177078 0.08576103 -0.10907509 0.10987974
0.01536355 -0.23892643 0.1376024 -0.03236944 -0.038294986 -0.024193104 0.08476142 0.10857051
-0.04177658 0.07196081 -0.012227816 0.18397473 0.14678155 0.1728846 0.030187858 -0.1625301
0.15815663 0.0039253733 0.021235099 -0.06700978 0.09380859 -0.22422113 0.10569767 0.061335366
-0.0013906707 0.18674368 -0.2825399 0.09747481 0.13500431 -0.096751444 0.061322715 0.03676197

encoder.weight_hh_l0 f4 [256, 64]
00000000: c54f 7fbd de0f de3c f29d 79bd 8400 123e
00000010: dd35 44bd d961 7ebd 9602 173e 6638 293e
00000020: 80f1 a3bc 6759 013b 91a6 ad3d 4bae f7bd
00000030: 85d6 6abd 2618 44bd cf67 263d b2da 32bd
00000040: 7ad1 3dbe 70b4 dbbb 5cd9 85bc 5ac0 c4bd
00000050: 2a3a 5ebe e6d6 d3bb 9a80 cbbd c2f6 9dbd
00000060: e8cf 1e3e 32e4 51bc 25bb 513d 7c93 853d
00000070: de7d 0dbe c913 cbbb ec02 ff3d bdbc 02be
00000080: 922b 91bd 422d 8a3d f0e6 08be 0e21 74bd
00000090: 39c1 87bd 3000 e83d 6417 0e3d 84c8 15bd
000000a0: 42ad 6b3b eab1 ff3c bbee 6e3d f3ad 5a3e
000000b0: 0cb4 fc3c 0aef 83bd 1076 a3bd 9ae3 0fbc
000000c0: fc62 2abd 8f14 ccbd 8fd6 f53b 060d 7e3d
000000d0: 86ab 41be 4201 2f3d 3a62 46bc 1278 93bd
000000e0: d0ae c13d 3ae6 b4bd a480 033d 858f d0bb
000000f0: c64f a8bd 420c 973d 4f82 013e 8709 843d
00000100: e936 1cbe 9a5c 8d3c ecef 403e 1473 bfbd
00000110: 56b5 0c3c d6ba b33d f18d 80bb 6ac5 22bd
00000120: dee9 d83c b8c3 803d c36b 983d 92f8 28bd
00000130: e33e 943d 1be6 e73d 086e 893c d8e0 c8bd
00000140: 1b69 42bd ccd6 4d3e a41e 853c 1521 53bd
00000150: 8a18 1bbe 49aa f1bc bc1e 19be 2f03 9ebd
00000160: ea91 ec3d 8021 12be b187 72bc 3275 cd3d
00000170: 46d5 d9bd 08bc 013d 1a48 86bc 7b11 883c
00000180: 4ed1 16be 052f 8dbc aa7b 5bbe 3b39 70bd
00000190: 567e 43be c723 763d 2b1c cbbd 5818 17be
000001a0: 6bfa e33d 45ef aa3d a49b 2cbe 69f8 1a3c
000001b0: e304 63bd aad7 023d 3f6f 30be 5c6e f6bc
000001c0: ef6a 27be a024 eebc a2c9 fb3d 7cd4 63be
000001d0: aa40 d83d 10e7 f4bd 28a8 35be d44a 86bd
000001e0: d6aa e93d 9257 e4bd 5dc1 fd3d 4148 16bd
000001f0: 9417 90bc 7db5 24bd 3134 0e3d c8de d03d
00000200: effc 74bd d1b9 9b3d a4ea 3dbc 15fd 16bd
00000210: bf3a 9e3d 1600 67bd 1da2 413c 3b10 61bd
00000220: 9153 7cbd 1fc1 b83b db5d 073e 05e4 d8bd
00000230: 4e2d 07bd 22eb 12be 1eb3 973d c9a8 f13b
00000240: 3993 2c3c 5326 aabd c87d 793c d1f5 803c
00000250: 5417 1fbe bc1f 213e dc02 913b d3c1 3ebd
00000260: 37c9 8ebd cb40 dc3d a70c 01be 8cf9 ce3d
00000270: 7913 5cbc 07ab 0f3e 080e 963d 95d5 793d
00000280: 7720 d43c 6e32 483c aee7 6fba c041 c8ba
00000290: 3762 763d e14a af3d 7580 9d3d 2519 0cbe
000002a0: 5979 ccbd 9020 bb3d 04ba 453d 6214 e13c
000002b0: 94a6 92bc e84a 2b3d 9d66 8b3d 4ec9 9fbd
000002c0: 175b a9bd 8889 1fbd c0fe 89bd 0853 173d
000002d0: 280d a8bb db2d fdbd 97f1 6fbd 8c6d c1bc
000002e0: f569 913c c022 0e3e bdce 183d 9a5d 5d3e
000002f0: 9d87 d83d eef7 c0bd bc6c b83d d647 42bb
00000300: 436b e3bd 0dfe a93d 26fa b83d 5254 57bc
00000310: 72fc ed3d 6eee 243e a4b5 d5bb 1baa 04be
00000320: 624a dcbd 81e5 583c a3c1 a33c 555a abbc
00000330: bb9b 8c3d e659 27bc 565f 57bd d1b4 6dbc
00000340: 91e2 08be b363 cb3d a397 c9bd 4c2a 653d
00000350: ae85 15be bedb 843d 9793 2b3c c73d 1abd
00000360: d3c0 fabd e99d 14bc 2895 5e3c c34c 2fbd
00000370: 1dd3 d9bd 1ba4 033e b78f 19bd d0a2 793d
00000380: 3b67 4fbd 7f23 cf3c d7d6 393c 023d 0abe
00000390: 86fb 0ebe 4d49 f93b 856c 9d3d 92b7 3e3d
000003a0: 7382 55bd 50aa 98bc 6324 d93b 2b96 ccbc
000003b0: 94b8 803d ad9a d73d 49c3 083e 6237 b8bd
000003c0: 7013 163d 602e 9b3d 5dfd 04be 726c c2bd
000003d0: 51db a83d 5ca8 f6bd a5ad 703d 2272 2a3d
000003e0: 1c63 983d 5d0d 983e 0d0b 9dbd 6ad7 113e
000003f0: 195f 923d 5ebd f63b 9e89 58be 22c3 243d
-0.062331934 0.027107175 -0.060941644 0.14258009 -0.04790293 -0.062105034 0.1474708 0.1652542
-0.020012617 0.0019737126 0.08479036 -0.120937906 -0.057333488 -0.047874592 0.040626343 -0.043665595
-0.1853694 -0.0067048594 -0.016338997 -0.09607001 -0.21701875 -0.006464827 -0.09936638 -0.07713081
0.15508997 -0.012810754 0.051203866 0.06522271 -0.13817546 -0.006197427 0.12451729 -0.1276731
-0.070883885 0.067469135 -0.13369346 -0.059601836 -0.06628651 0.11328161 0.034690276 -0.03656818
0.0035961424 0.031212766 0.05833314 0.21355419 0.030847572 -0.064420775 -0.07981503 -0.008782292
-0.041598305 -0.09964859 0.007502384 0.06202414 -0.18913087 0.04272581 -0.01210838 -0.07200636
0.09457171 -0.08832975 0.032105103 -0.006364765 -0.082183406 0.07375385 0.12647365 0.0644713
-0.15255322 0.01725607 0.18841523 -0.09348121 0.008588156 0.087758705 -0.0039231707 -0.03973905
0.026478704 0.062873304 0.07442429 -0.04125268 0.07238557 0.11323186 0.0167761 -0.098085105
-0.047463518 0.2010147 0.016249962 -0.05154522 -0.1514608 -0.029500144 -0.1495313 -0.07715451
0.115512684 -0.14270592 -0.014802859 0.10032119 -0.10636382 0.03167346 -0.016391803 0.016609898
-0.14728281 -0.017234335 -0.21433893 -0.05864833 -0.19091162 0.060092714 -0.09917482 -0.1475538
0.11131748 0.08346418 -0.16856247 0.00945864 -0.055424582 0.031943955 -0.17229937 -0.03008192
-0.16349386 -0.029070199 0.12294318 -0.22249025 0.10559209 -0.11958134 -0.17739928 -0.06557241
0.114095375 -0.11149515 0.12390397 -0.03669 -0.017589368 -0.040212143 0.034717742 0.10198742
-0.05981153 0.07603801 -0.011591587 -0.03686245 0.07726049 -0.056396566 0.011818436 -0.05494712
-0.061603133 0.005638256 0.13219397 -0.10590366 -0.03300219 -0.14347509 0.07407211 0.007374857
0.0105331475 -0.08308091 0.0152277425 0.015742214 -0.15536243 0.15734762 0.0044253897 -0.046571564
-0.069719724 0.10754546 -0.12602483 0.10106191 -0.013432377 0.14030086 0.07326895 0.060994703
0.025894387 0.012219055 -0.00091516494 -0.0015278384 0.06015226 0.08559204 0.07690517 -0.13681467
-0.09984083 0.0913707 0.0482731 0.02747554 -0.017901696 0.041819483 0.06806681 -0.07802068
-0.08269327 -0.03894952 -0.06738043 0.03694442 -0.0051285215 -0.12362262 -0.058580007 -0.023611806
0.01775072 0.13880444 0.037306536 0.21617737 0.10572741 -0.09422289 0.090051144 -0.0029644868
-0.11104443 0.083004095 0.09032087 -0.013142662 0.11620416 0.16106579 -0.0065218974 -0.12955515
-0.10756375 0.013238312 0.019989794 -0.020917097 0.06865641 -0.010214305 -0.052581154 -0.014508442
-0.13367678 0.099311255 -0.098433755 0.05594854 -0.14601776 0.06487225 0.0104722 -0.03765657
-0.122438096 -0.009070852 0.013585366 -0.042797815 -0.1063597 0.1285557 -0.037490573 0.060946286
-0.050635558 0.02528548 0.011342726 -0.13499835 -0.13963136 0.007607615 0.07686714 0.046561785
-0.05212636 -0.018635899 0.006626652 -0.02497395 0.062852055 0.10527549 0.13355745 -0.089949384
0.03663963 0.07577205 -0.12987275 -0.094933406 0.08244956 -0.12043831 0.05875935 0.04161275
0.074407786 0.29697695 -0.076681234 0.1424233 0.07147045 0.0075298985 -0.21146247 0.040225156

encoder.bias_ih_l0 f4 [256]
00000000: 41fc 113d 39ee abbd 368f 4abd c279 de3d
00000010: ef5f d33d ab19 91bc 12af ad3c a64d 373c
00000020: 3fda 033e 95e7 9dbd 5766 00be 010c ab3d
00000030: fd70 dbbd 6c22 433d 377b de3d c72d 813d
00000040: 7ee0 febc d3df 113b 3f27 49bd 22ae 023d
00000050: 03ca 8a3c 489d 90bd e159 cf3d 5168 983c
00000060: 47ee 9a3d c23a 85bd 0996 44bd 54a8 d5bd
00000070: 89f5 01bd a2d5 1bbe 7052 11bd a51b e83c
00000080: e2e5 5d3d 89a3 783d f403 7bbd efb6 99bd
00000090: b9a8 6a3d 928f 6d3d eaa0 41bd 3957 303d
000000a0: bb99 a63d 82c7 94bd 56c6 8ebc efe8 1b3d
000000b0: 79cb 7b3d 5a45 36bd eead a93d 9e9e c8bd
000000c0: 7d0f 96bd f057 cc3d 6504 2f3d 4728 8ebc
000000d0: a6ed cd3c 0a49 483d 8526 95bd 3b27 c33b
000000e0: 454c 413e c345 b43d 0086 14be c623 54bd
000000f0: 9ae5 71bc 8843 0cbd 008d 7fbc db91 05be
00000100: 6680 25bd 9d12 acbd fc78 6c3d f1da db3d
00000110: 4806 fd3d cc7c 5b3d cadc 92bd 1a91 873b
00000120: f4d3 083e 0c48 213d e0f4 d2bc f959 d9bd
00000130: adc0 32bd 43d0 2a3e 6c77 033e cebc 95bd
00000140: f609 af3d 45a0 253e 3fa0 a9bd 59f5 0cbd
00000150: c414 433d e1d8 8abd 9412 db3c 70ee a9bc
00000160: d7c7 5b3d e98b df3d 1b9b 073e d381 1f3e
00000170: 01f4 bb3d 5bd8 663d 4066 563d aec7 703d
00000180: 1fde 053d 47f4 35be 37b5 133d 2f6d c9bd
00000190: 62b6 1abd ed17 e83c c116 fc3d 5dd5 fabd
000001a0: 98fd eb3d e16b 65bd c441 0bbe fcd3 293d
000001b0: 26c1 1e3d 1b03 51bd 4cf0 373d 8ea0 67bb
000001c0: b0aa aa3d 6fe8 5abb f0e6 063e fbd5 c13d
000001d0: 9db2 9a3c 2b50 8fbd 4b12 9ebd a3b2 babd
000001e0: 0de8 6a3e deac 633c e6e6 b4bb 4e7d b63e
000001f0: 3e36 243c 2844 b7bd 86af 1e3e cb79 4e3e
00000200: 8d02 ad3d 6846 643d af7d f9bd 6404 9ebc
00000210: 1f1e e2bd ea47 97bd b4bd 26be 4e2c d03b
00000220: ce41 e3bd 6153 01be 4af1 d13d 0a54 c5bc
00000230: 96b4 dc3d ddc2 00be 0257 183e 0692 2cbc
00000240: ac77 e1bc 60e4 ccbd 8079 173e 881e ebba
00000250: 8553 b63d 4d72 aa3d d60b f33c d251 723d
00000260: f09e bbbd c440 d73d 1446 8f3d e321 08be
00000270: 1326 28bd 9e4f 1fbd 8e52 2fbd 6005 943d
00000280: 9030 e03c ab5e 8fbd 5722 8e3d 9181 1d3e
00000290: c5ef 903d 6a75 06be 1a9a 7a3d 5d74 5bbd
000002a0: 8386 1b3d 4272 bebd 69b2 563d a44a 8dbd
000002b0: eb95 0c3d 3851 49bb 4af6 003e 5f7c c6bd
000002c0: c425 a93d 4b51 133d cbd8 2cbd 7f63 c73c
000002d0: a6da 9bbd 8c1c a9bc f2cb 993d fd91 65bd
000002e0: c0bb 433d d5be 983d 6749 803c 913a c9bc
000002f0: daca 0a3e 9018 b13d 2e05 eb3c d58d 5ebd
00000300: 440c a5bd a58f 80bd 50f2 9dbd 41db e6bc
00000310: 9521 a6bd d445 40bd a669 61bc f519 b5bd
00000320: eaee 38bc 22fb 853c 823b acbd bee0 1a3d
00000330: dc8a d03d 5094 233e 71ac 863c 8a09 9b3d
00000340: 5482 b1bd 80ab b5bd 8437 d03d f221 d2bd
00000350: 5962 42bd 759c 2f3c 3a44 69bb 0231 bc3d
00000360: 023d 13be 3537 db3d 9cb5 983d 621c a53d
00000370: f34b 853c 447d 043d e5c5 a93b 191b 9c3c
00000380: 96fc 59bd b7e0 1abe 4f88 413d da65 da3c
00000390: 8a2b a03d d0be 613d e25e 343d 9aed 8e3d
000003a0: 8a9a f13d a7e5 ba3d c6d8 00be 823e 843c
000003b0: 069e 58bd c580 b3bd b4d5 b23d b736 6a3c
000003c0: 5de7 00bd 023b f53d e38f 123d d350 83bd
000003d0: c8d6 a73d e1b4 e2bc 28d6 81bc 41f6 36bc
000003e0: 1773 5e3c 3e7e a5bd c185 203c 84f1 eb3d
000003f0: 86bd a93d 4c2d 903c aa27 80bd 6a99 a4bc
0.03564096 -0.08395047 -0.049452983 0.10863067 0.10321032 -0.017712435 0.021201644 0.011187946
0.12876223 -0.077101864 -0.1253904 0.08351899 -0.1071491 0.04764025 0.10863345 0.063075595
-0.031112906 0.0022258654 -0.049109694 0.031904347 0.01694203 -0.07061249 0.10124565 0.01860443
0.07564979 -0.06505348 -0.047994647 -0.10432497 -0.0317283 -0.15218213 -0.03547901 0.028333494
0.05417431 0.060702834 -0.061283067 -0.07505595 0.057289813 0.057998247 -0.0472726 0.043051932
0.081347905 -0.072646156 -0.017428558 0.03806394 0.061473344 -0.044499733 0.082851276 -0.09795879
-0.07327173 0.0997771 0.0427288 -0.01735319 0.025137734 0.04889778 -0.07282738 0.0059556044
0.18876751 0.088023685 -0.14504242 -0.05179193 -0.014764214 -0.03424409 -0.015597582 -0.1304392
-0.040405653 -0.08401988 0.057732567 0.10735119 0.12354714 0.053585812 -0.071710184 0.0041371705
0.13362104 0.03937535 -0.025751531 -0.10612864 -0.04364078 0.16681008 0.12838525 -0.07311402
0.08546822 0.16174419 -0.08282518 -0.03441367 0.047627226 -0.067796476 0.026742257 -0.020743579
0.05365738 0.109153576 0.13242762 0.15576868 0.091773994 0.056358676 0.052343607 0.05878418
0.032682534 -0.17768966 0.03606149 -0.09835278 -0.03777159 0.028331721 0.123090275 -0.12247727
0.115229785 -0.056011084 -0.13599306 0.04146193 0.03875842 -0.051028352 0.0449069 -0.00353435
0.08333337 -0.0033402701 0.13174033 0.09464642 0.018883998 -0.06997713 -0.07718333 -0.091161035
0.22940083 0.013896195 -0.0055206893 0.35642475 0.010022698 -0.08948547 0.15496644 0.20163648
0.08447752 0.055731207 -0.12182175 -0.019289203 -0.110409014 -0.073867634 -0.16283303 0.006352938
-0.110965356 -0.12629463 0.102511 -0.024087925 0.107766315 -0.12574334 0.14876941 -0.010532862
-0.027522884 -0.100044966 0.14792442 -0.0017938176 0.08902649 0.083225824 0.02966873 0.05916006
-0.09161174 0.105104 0.06995788 -0.13294177 -0.041051935 -0.03889429 -0.04280334 0.07227588
0.027366906 -0.07000478 0.069401436 0.15381457 0.070769824 -0.13130727 0.06118212 -0.05357777
0.037970077 -0.09299137 0.05241624 -0.06899002 0.03432266 -0.0030718576 0.12593952 -0.09691691
0.08259156 0.0359662 -0.042198937 0.024339436 -0.07610063 -0.020643495 0.075096026 -0.05604743
0.047786474 0.07458273 0.015660001 -0.02456406 0.13553944 0.08647263 0.028688993 -0.05433448
-0.0805898 -0.06277398 -0.07712233 -0.02818072 -0.08111874 -0.046941593 -0.013758099 -0.088428415
-0.01128743 0.016355101 -0.08409788 0.037811987 0.10182735 0.15974545 0.016439648 0.07570179
-0.08667436 -0.08870602 0.10166839 -0.10260381 -0.047457073 0.010718455 -0.0035593645 0.09189035
-0.14378741 0.10703889 0.07456514 0.08062054 0.016271567 0.032346025 0.0051810616 0.01905589
-0.0532194 -0.15124784 0.047249135 0.026659895 0.078208044 0.055113614 0.0440358 0.06978913
0.11797054 0.09125834 -0.12582693 0.016143087 -0.052885078 -0.08764795 0.08732167 0.014295272
-0.031470645 0.119741455 0.035781752 -0.064119 0.08195263 -0.02767414 -0.015849188 -0.01116711
0.013577244 -0.080807194 0.009797514 0.11520675 0.08288102 0.017599724 -0.06257565 -0.020092685

encoder.bias_hh_l0 f4 [256]
00000000: 102a b2bc 701e 02be 0344 bc3d 2a99 91bc
00000010: 34ab f23d 6ef8 e8bb 409a 49bd 19c5 b4bd
00000020: f21c 893c 580e 1e3d 4a63 02be dc39 09be
00000030: f7a7 a8bd 471f e03c d48f 30bd 205b f73c
00000040: 41f6 5dbe 68d1 f6bd 5bb1 a13d 4800 433d
00000050: cfc9 803d 7e23 e83c ca54 253c 0cb0 6c3d
00000060: 475b d7bb b7e7 70bd 921e 01bd 1914 fa3d
00000070: e949 ec3c 1cb8 4c3c 21e4 46bc 7cd2 80bd
00000080: 8db1 943c 7010 a7bc 1054 213d 3565 8e3d
00000090: 93b2 083d bb8c 383d 72a7 853d 0ff2 02bd
000000a0: 4eef 4b3d 8d30 dd3a ecde c83c 6303 4abd
000000b0: e449 19bd c887 aa3d ed73 453d acb0 6ebb
000000c0: e3a8 cb3d fa03 49bd b7c8 9dbd 932a 6b3d
000000d0: 8e3c 523d 02ca c93d d356 fbbd ac67 1e3d
000000e0: 230d 013e 3b7b 39bd 1189 17be 51d9 3ebd
000000f0: d9b4 ac3d 121b 7a3d ea51 16bd 31fb 06be
00000100: 44c9 cbbd e1f3 8c3d 1e11 693d e0fb c9bc
00000110: 0629 043e 695f 253e 9c25 bb3d 7ba3 2c3d
00000120: 510d a2bb b738 75bd 0207 48bd 4751 efbd
00000130: 34cd 31bd 47ee 1d3e 2af3 39bd 1614 60bd
00000140: 2197 cfbd fddc 8f3d 12a6 ef3b e696 303d
00000150: 2a1f 2f3e 63a4 8c3b 60d2 c13d 9423 9fbd
00000160: c031 cc3c 8adb 9f3d 55ec 973c ec6a 5fbd
00000170: c929 75bd 7508 113d 4c0d b03d 37f3 be3d
00000180: 4588 cfbd e0d8 49bd f5c9 8bbc 11a3 c53d
00000190: 87d3 dd3b c925 f93d 5670 1f3e 82c8 d53b
000001a0: 71d2 9c3d cebd 043e e082 b43c df0c cf3d
000001b0: f3f0 dd3b f34f afbc 680c 1dbd eaf1 a33d
000001c0: c70a fb3d a0b4 6a3d 8b15 a23d f4ec 9d3d
000001d0: 8e32 04be dcf3 f63b b497 2bbc 1dff afbd
000001e0: 6213 a93e a684 7ebc 7509 663d d02a 983e
000001f0: 8528 c6bc f8d5 5f3d a6bc 283b e1e3 d03c
00000200: d8aa 7fbc 137f 40bd 8b1b 1bbc 3c98 5f3c
00000210: 0c59 e7bc f581 9dbd e8fc 1fbe 38d8 fdbd
00000220: 37c0 84bd 19e7 51bd c86c 40bd d9a2 033e
00000230: b07a ab3d 280c abbd 516f 703c e0e1 f83b
00000240: 50bf c43d 4d38 003c ce48 d13d 3eb1 953c
00000250: 2877 9c3c 5458 a23d c062 b23c 75c4 bd3d
00000260: 2aa0 80bc 04d9 4b3d fcd8 833c d962 94bd
00000270: e1f1 c03d 236d 77bc bd17 e1bd de3a f93d
00000280: 8463 9cbd 5ad3 45bd d9b6 e63d de48 e13c
00000290: e5cf ef3c 87d5 1cbe 9d21 91bd 5396 3a3d
000002a0: fbbc 02bc a84b 9b3d 456f 463d ebec 97bd
000002b0: 1b39 cb3c 5a98 a0bd 6424 643d 5991 9cbd
000002c0: e0ca 7a3c 89b0 443d 1197 423d 7767 ce3d
000002d0: 12b5 123e 2011 973d a8a3 513d 9823 373d
000002e0: 258e 0dbe 71a3 bbbd 8a6d cc3d d63a a43d
000002f0: 3cc4 ca3d 4512 9f3c 11d3 19bc 0041 fa3d
00000300: f63c 84bc 8c28 31be 98d2 83bd 419a 4abd
00000310: b160 073e 1821 3cbd 7b95 543c 828a 463c
00000320: 34c0 fb3d b158 86bc 1622 d5bd 4af1 e2bd
00000330: 03cb eebd cdbf 273e ec8e d9bc 17e6 adbd
00000340: ddbc 1bbd 0757 4f3c 6a9b b83d 8abc 17bc
00000350: 1046 283e edb1 2b3d ed29 513c 159b 453d
00000360: 0463 b9bd f611 34bd cc22 943d 46e0 85bd
00000370: 3069 d0bd 1ccb bb3d 33f9 e4bd 369b 91bc
00000380: f10c ea3b aa7e ee3c 7a70 bf3c 6730 98bd
00000390: bdd6 653d 114d 72bd bfca f93d fc73 10be
000003a0: c35c b03c 9152 b8bc 7e8b 77bb 81d5 a7bd
000003b0: 2f05 96bd ac13 b73d 171c b83c 55d3 003d
000003c0: 5660 b63d dbbd 00bc 87f7 5bbd f56e bb3d
000003d0: d206 d1bd da1e 113d 58c3 f33d c359 25bd
000003e0: 5ace 623e 6fdb 44bd 8c1e 37bd d0f5 24bc
000003f0: 56b7 8d3d e5d4 d2bd 09bd 9f3d a767 28bd
-0.021748573 -0.12706923 0.0919266 -0.01777323 0.11849061 -0.0071096933 -0.04921937 -0.08826656
0.016737435 0.038587898 -0.12733188 -0.13400978 -0.08235162 0.027358664 -0.043105915 0.030194819
-0.2167597 -0.1205166 0.07895156 0.04760769 0.06288492 0.028337236 0.010091016 0.05778508
-0.0065721604 -0.05881473 -0.031523295 0.122108646 0.028843837 0.012495067 -0.012139351 -0.06290147
0.018151069 -0.02039358 0.03938681 0.069528975 0.033373427 0.045056086 0.06526078 -0.031969126
0.049788766 0.0016875431 0.02452036 -0.049319636 -0.037423983 0.083266795 0.04820626 -0.0036421223
0.09944322 -0.049076058 -0.07704299 0.05741365 0.05132728 0.09852983 -0.1227242 0.038673088
0.12602668 -0.045283537 -0.1479838 -0.046593968 0.084329315 0.061060973 -0.036699213 -0.1318176
-0.09950498 0.06882454 0.05690109 -0.024656236 0.12906274 0.16149677 0.09138033 0.042148095
-0.004945435 -0.05986854 -0.04883481 -0.11685424 -0.043408588 0.15422927 -0.045397915 -0.054706655
-0.101362474 0.07024572 0.0073134983 0.043112658 0.17101732 0.0042920574 0.09463954 -0.07770458
0.024926066 0.07805546 0.01854531 -0.054545328 -0.059854303 0.035408456 0.08596286 0.09323733
-0.10133413 -0.049279094 -0.017064074 0.09650243 0.006769601 0.1216541 0.15570197 0.0065241465
0.07657326 0.1296303 0.022035062 0.10109877 0.006773108 -0.021400427 -0.03834191 0.08005126
0.12257915 0.057301164 0.07914265 0.07711211 -0.1290991 0.0075363945 -0.010473181 -0.08593581
0.330226 -0.015534556 0.056161363 0.29720163 -0.024189243 0.054647416 0.002574721 0.025499286
-0.015604697 -0.046996187 -0.009467016 0.013647135 -0.028240703 -0.07690803 -0.1562382 -0.12394756
-0.064819746 -0.051245783 -0.046978742 0.1285509 0.0837301 -0.08351928 0.014674977 0.007595286
0.096068025 0.007825923 0.102189645 0.018272992 0.019099787 0.079270035 0.021775603 0.09265987
-0.015701372 0.04976751 0.016094677 -0.07245416 0.09421135 -0.015101704 -0.10990856 0.12169431
-0.076361686 -0.048297264 0.11265344 0.027500566 0.029273937 -0.15315829 -0.07086489 0.045553517
-0.007979627 0.0758279 0.04844596 -0.074182354 0.024807503 -0.07841559 0.055698767 -0.0764491
0.015307158 0.04801992 0.04750735 0.10078328 0.14326885 0.07376313 0.051181465 0.04471168
-0.13823755 -0.09162033 0.099818304 0.080190346 0.0990071 0.019417891 -0.009388701 0.12219429
-0.01614235 -0.17300624 -0.06436652 -0.049463514 0.13220479 -0.04593 0.012975092 0.012117984
0.12292519 -0.016399713 -0.10406892 -0.110811785 -0.11659815 0.1638176 -0.026557408 -0.08491152
-0.03802191 0.012655026 0.09014018 -0.00926126 0.16432977 0.04191773 0.012766344 0.0482436
-0.09052089 -0.04396244 0.072331995 -0.065369174 -0.10176313 0.091695994 -0.111803435 -0.017774206
0.007142656 0.029113133 0.023369063 -0.07431107 0.056112994 -0.059155528 0.12196874 -0.14106745
0.021528607 -0.022500308 -0.0037772353 -0.081950195 -0.073252074 0.08939299 0.022474332 0.031451542
0.08905093 -0.007857765 -0.053702857 0.09152023 -0.10206379 0.035429813 0.11902493 -0.040368807
0.2214903 -0.04806083 -0.044706866 -0.010068372 0.06919734 -0.10294513 0.077997275 -0.041114476

decoder.weight_ih_l0 f4 [256, 64]
00000000: 0920 ecbb 4bfe 8e3d 4c01 01bd 19a7 8fbd
00000010: 02c6 d63d 0b03 803d f453 03bb 8342 4e3c
00000020: cb6e 733c da2c b83d 801f 34bd 7e86 0d3e
00000030: b4d2 9d3b b304 263e 4820 4cbd 58bb 6e3d
00000040: 0163 72bc 650b dc3d b3bd a6bc 28d6 35bd
00000050: 4f89 4cbd 899a c8bd 5c1f 2ebe e50b 52bb
00000060: a722 acbd 33fe 98bd bd07 0cbe cb38 2fba
00000070: d819 20be bb92 28be 72a3 1cbc 71c3 bc3c
00000080: 5334 84bd 99cd 03bd 66cb 503d b93d 823c
00000090: 02f2 8fbd 653e 953c 9430 643d f527 03bd
000000a0: 3062 363e eead df3d de61 c4bd faf3 7b3c
000000b0: 1deb 21be 8bcf cfbd cb79 333d 911d bdbb
000000c0: af4a fb3b bd53 adbc f174 3b3e 15bf 06be
000000d0: ec92 8f3d f622 2b3d a53d d3bc e53c bfbd
000000e0: 5179 dfbd d449 a2bc fa3f 9bbd 7b02 b03d
000000f0: 132b dbbc 3d5a b7bd 2f79 ecbd 551b 6f3e
00000100: ae19 77bd 54fe aebd 4fb6 cd3c 1693 98bc
00000110: 9102 acbc a905 283d 7120 963b dc67 503d
00000120: 81a6 08bd ba4e 8a3d 0827 d83a f9d6 1f3e
00000130: b5c2 28bc 2f8f e6bb 1d39 f23d 1017 ccbd
00000140: e8bb 5f3d 23c9 a4bd 527c 4b3c b9b6 293c
00000150: 172a 233d b3a2 16bd f861 b3bd 426d 083e
00000160: 8d18 2abd 76e8 8f3d 75d9 453d 58c4 88bd
00000170: fe70 073e 0cd5 ea3c a15e acbd 1c10 d73d
00000180: b15d 9c3d 8fc0 ba3d b0cc 233e a9f5 b8bc
00000190: a0a6 71bd 1787 54bd 8c40 7d3d 5458 e0bd
000001a0: a785 b83d 8e9c bebd 5753 9ebd 5a77 cfbd
000001b0: 39a8 5b3d 8368 e4bd fabe ac3d b584 06bd
000001c0: 000c 31bb 56aa 503d 85d3 09be c2dc 883d
000001d0: 03a1 fbbc ccb4 d6bd df50 e03d 1cb7 d8bd
000001e0: fcca 31bd 613e 9fbd d73a a63d 6e38 cfbd
000001f0: b34b b0bd 35aa 5fbd ddc9 883d 17b8 ab3e
00000200: 9aa9 203e ca0c 95bd 682e 853d 41b6 d7bd
00000210: f1b1 b63d 93a4 213d e9df b6bd 7da2 57be
00000220: e081 55be 5038 0a3c 7c20 0b3c fcf9 edbc
00000230: f8ef e23b 6f26 53bc 64f0 1ebe 7a1e e43d
00000240: f9fe b3bd 9c2f bbbd a933 f43c 40bc 8f3e
00000250: 033b 513d d04f 653e 95c1 563e da4b 88bd
00000260: d27a 533e c800 0fbd 200d 653c d163 66be
00000270: d497 0e3e b105 b43d ebe0 5bbe b1af 533d
00000280: f67e 753e 5d74 debd b60e 833d ee9a 233e
00000290: 8f61 a53d 49a8 42be fddd 3c3c fed2 183e
000002a0: afd8 d0bd 9f9d 4a3e b785 b1bd 7cd0 6f3e
000002b0: c188 843e fa25 b63d 40af 443c caad e0bd
000002c0: 9727 563e af82 433e be77 6dbe 1b42 4e3e
000002d0: 5c2c 053e 9811 383e c43d 183e d13e 203e
000002e0: 4d56 153e 46b4 1b3d 517e 84bc b3f0 1cbe
000002f0: 7e78 26be c605 df3b 067c b7bd 224e f83c
00000300: 2d99 813d 6c5e 1abd 0335 e53d 7fb8 263d
00000310: e7bb 443e ab36 143e 6ae9 ec3d d332 8e3d
00000320: 2034 fc3d 8dc3 d9bd 8349 d23d 6bb8 1f3e
00000330: 1692 07be f16e 783c 5979 5fbd 4b50 b33c
00000340: 8b16 d73d 6782 bdbd 9910 c63d faed 503d
00000350: 131c 0cbe 7074 cd3d 8899 95bc b1ba 8abb
00000360: 3ac6 4cbc 9c24 13bc 0b4c fabd 0165 023e
00000370: 3578 dc3a 767b 8c3d 9551 6c3d a886 7bbc
00000380: cace ccbd f406 4c3d 5394 babd 2b48 eebb
00000390: c6e6 bb3d d1e4 c43c 29a0 08be 77ee 96bd
000003a0: 3d20 db3b 540b 2e3e 8280 2cbe cacf 29be
000003b0: 4fae 9ebc f608 c5bd 22d2 2d3c ce57 94bd
000003c0: dde9 e5bd b7d1 ba3d 5c0c f63d 90aa 0ebd
000003d0: 0856 043e 153c 4bbd 72a9 ee3c 63fa 13bd
000003e0: dce1 b63d 52b2 f73d 742a 03be e6fb d83c
000003f0: b6de 3b3d f9eb c83c 710a 04be 3413 7e3e
-0.0072059673 0.06982096 -0.031495377 -0.07014293 0.10486986 0.062505804 -0.0020039054 0.0125891
0.014857958 0.0899293 -0.043975353 0.13820836 0.0048163775 0.1621273 -0.049835473 0.058284134
-0.014794112 0.10744361 -0.020354128 -0.04439369 -0.049935635 -0.097951 -0.1700415 -0.0032050547
-0.08405047 -0.0747036 -0.13674827 -0.0006684183 -0.15634859 -0.16462223 -0.009560453 0.023042412
-0.064552926 -0.032178495 0.050975226 0.015898572 -0.07028581 0.018218229 0.05571039 -0.032020528
0.17810893 0.10921846 -0.09588979 0.015377993 -0.15812345 -0.101470076 0.043817323 -0.005771347
0.007668815 -0.021158094 0.18306328 -0.1315883 0.07010445 0.04178139 -0.02578623 -0.093377866
-0.10911811 -0.019810595 -0.07580562 0.08594223 -0.026753938 -0.089527585 -0.115465514 0.2335027
-0.060327224 -0.08544603 0.025111346 -0.018624824 -0.020997318 0.041021023 0.004581504 0.050880298
-0.033361915 0.06753297 0.0016491124 0.1560935 -0.010300328 -0.007036112 0.118273 -0.09965336
0.05462256 -0.08046176 0.012419777 0.010358506 0.039835062 -0.036776256 -0.087589204 0.13322929
-0.04152732 0.0702676 0.048303086 -0.066780746 0.13226697 0.028666042 -0.084164865 0.105011195
0.07635058 0.09118759 0.15996051 -0.022578077 -0.058996797 -0.051886644 0.061829135 -0.10954347
0.09009867 -0.09307204 -0.077307396 -0.101301864 0.053627227 -0.111527465 0.084348634 -0.032841403
-0.002701521 0.050943695 -0.13459595 0.06682731 -0.030716425 -0.10483703 0.10952925 -0.105818
-0.04340647 -0.0777557 0.081166916 -0.10118185 -0.086081885 -0.05460568 0.06679127 0.33538887
0.15689698 -0.0727783 0.06502992 -0.10532809 0.089206584 0.03946359 -0.08929426 -0.21058078
-0.20850325 0.0084362775 0.008491632 -0.029049866 0.006925579 -0.012887581 -0.15521389 0.111386254
-0.087888665 -0.0913994 0.02980979 0.2807331 0.05108167 0.22393727 0.20972283 -0.066550925
0.20652321 -0.034912854 0.01398018 -0.22499014 0.13925105 0.08790148 -0.21472518 0.051681224
0.23974213 -0.10862038 0.0639929 0.1597707 0.080752485 -0.19009508 0.0115275355 0.14924237
-0.10197579 0.1978669 -0.08668082 0.23419374 0.25885585 0.08893962 0.0120046735 -0.10970648
0.2091354 0.1909282 -0.2319021 0.20142405 0.13005203 0.17975461 0.14867312 0.15648963
0.14583702 0.03801372 -0.016173514 -0.15326194 -0.16256902 0.006806108 -0.089592025 0.030310694
0.06328044 -0.037687704 0.11191752 0.040703293 0.19212304 0.14473979 0.11567958 0.06943288
0.123146296 -0.106330015 0.102679275 0.15597694 -0.13239321 0.015163169 -0.054559086 0.021888873
0.105023466 -0.09253388 0.096711345 0.051008202 -0.13682584 0.10031974 -0.018261686 -0.004233681
-0.012498433 -0.008980896 -0.12221535 0.12733842 0.0016820492 0.06859486 0.05769499 -0.015351929
-0.100003794 0.04981132 -0.09110322 -0.0072717867 0.09174876 0.02403489 -0.13342346 -0.07369702
0.0066871927 0.16996509 -0.16845897 -0.16583171 -0.019370226 -0.0962085 0.010609182 -0.0724331
-0.112262465 0.09122031 0.12014076 -0.03483063 0.12923443 -0.049617846 0.029133532 -0.03612746
0.08929798 0.12094559 -0.12809163 0.026487302 0.04586669 0.024526583 -0.12894608 0.24812013

decoder.weight_hh_l0 f4 [256, 1]
00000000: bc04 343e da32 103d 9273 2e3e 7d30 b73d
00000010: 0ddb 95be 1415 20be dc6b ee3d 4f43 883e
00000020: 730a 60be 7746 3cbe 69c2 9ebc 84ce 1abd
00000030: 40ef 03bd e71a 4b3e 9ff8 073e 1e81 2cbf
00000040: 2c29 81bd 7eac 1e3e fef5 5a3d 06a4 66bd
00000050: d8c3 4dbe 86ff f23d bbdf ed3d 6e3c 973d
00000060: 5fc5 603d 96aa cf3d d530 113e 7217 4cbd
00000070: 8687 b9be 826b db3d de62 473d 2e8d 8dbd
00000080: 6ab3 adbe 103b 35be 9de8 203e 0d40 81bd
00000090: aa43 14be 5255 9f3e c56a 8bbd c0f5 79bc
000000a0: 0a16 4fbd c61e 803d 4c98 45be 239f 1d3d
000000b0: 1720 393e fec5 1cbe 0a6d 5dbe bd86 c53d
000000c0: a5e4 bebe 8272 b5bd 6215 a5be 92ef 06bf
000000d0: 9c01 883e 0cb0 913e ce73 e4bd 878a 3fbe
000000e0: 709e 3ebf 57b9 45bd 2dad 0abe d064 49be
000000f0: 4df6 adbe 7b25 9d3d bee6 ccbd f879 223e
00000100: d70c 7b3d e91e 2dbe a11b a73d 9c65 35bd
00000110: 9f46 8b3e aa32 b5bd 1e36 2bbe 9515 d03e
00000120: e819 2fbe 2f94 2bbe d5c2 8a3d 3608 343d
00000130: 706d 353e d4e8 303d 8047 b03d 8033 3e3f
00000140: 4f48 913e ac18 ad3e 9d34 f23d 59f7 5cbd
00000150: 8563 0cbc 48ac 8b3e bd22 da3e 2ebe 943e
00000160: b744 7e3e dee6 c13e 8afe f3bd 8e43 82bd
00000170: a447 7cbe f5c4 683e dd12 033c fc64 b6bd
00000180: 24e7 04bf e431 c4be 7afd babd 2458 3cbe
00000190: 856d 37be ec1b bc3e 126a 36be 703b 3fbe
000001a0: 49b3 06be e97c 963d 880c 893e 37f6 d4bd
000001b0: 75bb 933e 96c6 493e d135 30be 5a55 0fbe
000001c0: 69df dabe 684e 8abe c10a af3c 23f1 563f
000001d0: 35f6 513e 18a4 bc3e 45e9 fbbd 4e8c 70be
000001e0: fca5 413f 5553 81be 95be c3bd 6937 3abe
000001f0: 03b9 90be 62f1 15be abd4 4ebe 0841 b23d
00000200: b716 cbbd 57f5 eabd e553 ca3e 1d06 90bc
00000210: 669b 903c 734a 1a3e bd87 f4bc 8b11 e63c
00000220: 23d2 ac3c a9f7 3fbc 66f8 cf3d 7b4b ec3d
00000230: 0f12 023d 2cbf d13d ed45 d0bd 4d82 86be
00000240: 8693 a23d d694 3b3e 121b b0be 611e c03c
00000250: 4bd3 debc 9aec b03d 6ef4 fc3a 2328 3bbe
00000260: ae4c 43be 982d 5cbe d9c9 f6bc 527c 893e
00000270: ba00 dbbd ca8d 21be 3c3c 313d bb39 153e
00000280: 6201 dbbd 3416 04be 02ac 44be 7f3d c73d
00000290: 5972 26bd 5c04 953e 68df d2bb 5991 673d
000002a0: 0eec c13d 86c8 a2bd ac03 aebc 7259 80bc
000002b0: 9400 b13e b0c8 083c 46d1 b2bd 440b 73bd
000002c0: 28cf 9e3e 6449 9dbe 5abf d73d 9426 39be
000002d0: 9a01 db3d 2d6f 91be a6ba c5bd 8fdf 373e
000002e0: d778 dabd 16f0 213e 3077 c3bc cb82 12be
000002f0: ccb2 8cbd 884e ed3d e6de d7bd 2a92 febd
00000300: 9395 8cbd 9ac9 9e3d 5c56 fe3d a102 153d
00000310: b816 9b3c dcf3 1dbe aebe 35bd 4709 36bd
00000320: 67f1 76be ad7e 59be faa6 a7bd 996b c1bc
00000330: 6e24 b3bd 426f 363d 81f1 0d3d 102a d13e
00000340: c478 0f3d f4a8 9e3c 601c 0b3e de23 a2bd
00000350: ce50 2ebe c9ec af3b 54c5 5e3d 4462 f83c
00000360: 57cd 483e 540e 9a3d f55b ad3d d1e8 65be
00000370: 3dae babe 391c 173e 4dbe 09be 6f71 eb3c
00000380: 0d56 b0be 9084 88be 7ea2 c03c 060b c1bd
00000390: 58d9 d6bc 9c14 013e 90ad 1ebe 1722 2a3d
000003a0: d983 cbbd 7292 f8bc 8627 b1bd 5eb2 65be
000003b0: fcbe 563d 7961 003d d046 55be c0ac cf3c
000003c0: a933 85be a5aa 9fbe 52ec babe bc2b 833e
000003d0: c4a7 d83c ccb3 aa3d 4871 b6bd 0393 85be
000003e0: efe2 c83e 5448 8abd 32ee dabc 95a9 a5be
000003f0: a32d 8dbe 5da0 c4bc 8404 1cbe 5746 2e3e
0.17579931 0.035204746 0.17036274 0.08944795 -0.29268685 -0.1563304 0.11641666 0.26613852
-0.21878986 -0.18386255 -0.019379811 -0.037794605 -0.03221059 0.19834481 0.13278435 -0.6738452
-0.06306681 0.15495488 0.053457253 -0.05630877 -0.2009424 0.118651435 0.11614939 0.07384573
0.054875728 0.101399586 0.14178784 -0.049827047 -0.3623621 0.10713865 0.04867827 -0.069116935
-0.33925945 -0.17698312 0.15713735 -0.06311045 -0.14478937 0.31119782 -0.06807474 -0.015256345
-0.050558127 0.062558696 -0.19296378 0.038481843 0.18078648 -0.15309903 -0.21623626 0.0964484
-0.37283817 -0.08859731 -0.32242876 -0.52709305 0.26563728 0.28454626 -0.111549005 -0.18705188
-0.74460506 -0.048272457 -0.13542624 -0.19667363 -0.33976975 0.076731645 -0.10004948 0.1586684
0.061291542 -0.16906323 0.08159567 -0.044286355 0.27202317 -0.08847554 -0.16719863 0.40641466
-0.17099726 -0.16755746 0.067754425 0.043953143 0.17717528 0.043190792 0.086073875 0.7429733
0.2837548 0.33807886 0.118264414 -0.053946827 -0.008568649 0.27279878 0.42604628 0.29051346
0.248309 0.3787145 -0.11913784 -0.06360541 -0.24636704 0.22731383 0.008000103 -0.0890598
-0.5191519 -0.38319314 -0.09130378 -0.18392998 -0.17912872 0.36740053 -0.178139 -0.18675017
-0.1315433 0.073480435 0.26767373 -0.10398524 0.28853956 0.19704661 -0.1720803 -0.13997403
-0.42748573 -0.27012944 0.021367433 0.83961695 0.20504077 0.36843944 -0.12300352 -0.23491022
0.756439 -0.2525889 -0.09557835 -0.181852 -0.28266153 -0.14642861 -0.20198314 0.0870381
-0.09916442 -0.11472576 0.3951713 -0.01758104 0.017652225 0.15067463 -0.029849881 0.028084537
0.021096295 -0.011716762 0.101548 0.11537834 0.031755503 0.10241541 -0.10169587 -0.26271287
0.07938294 0.18318495 -0.34395653 0.023451986 -0.027200362 0.08638878 0.001929892 -0.1827703
-0.1907222 -0.21501768 -0.030125545 0.2685266 -0.10693498 -0.15776744 0.043270335 0.14572804
-0.10693623 -0.12899095 -0.19206241 0.09728526 -0.040636394 0.29104888 -0.0064353235 0.0565351
0.09468852 -0.07948403 -0.021241985 -0.01566765 0.34570754 0.008348629 -0.08731322 -0.059336916
0.31017423 -0.30720055 0.10534544 -0.18081123 0.10693665 -0.28405133 -0.09654741 0.17956375
-0.106675796 0.15814242 -0.023860544 -0.14307706 -0.0687004 0.11587244 -0.105405614 -0.12430222
-0.068644665 0.07753296 0.124188155 0.03637946 0.018931732 -0.15425056 -0.0443713 -0.04444244
-0.24115525 -0.21239729 -0.08186145 -0.023610877 -0.08747183 0.044539697 0.034654144 0.40852404
0.03502728 0.019367673 0.13585043 -0.079169974 -0.17023012 0.005368803 0.054387406 0.030320294
0.19609581 0.07522264 0.08464805 -0.22452094 -0.36461058 0.1475686 -0.134515 0.028740613
-0.34440652 -0.26663637 0.023514982 -0.09425931 -0.026226684 0.12605518 -0.15495896 0.041536417
-0.09937257 -0.030343268 -0.086501166 -0.22431323 0.05242823 0.031342957 -0.20827794 0.025350928
-0.26015976 -0.3118488 -0.36508423 0.25619304 0.026447184 0.08335075 -0.089083254 -0.26088724
0.39235637 -0.06752077 -0.026724909 -0.32355943 -0.2757388 -0.024002248 -0.15236098 0.1701902

decoder.bias_ih_l0 f4 [256]
00000000: 625b 78bc c9de a03d 1844 4c3e e953 1a3d
00000010: 5d5c 27be 2051 193e 26c3 013e 9106 493d
00000020: 2ccf 18be ccf1 3d3d 8229 a8bd ff72 013e
00000030: 7149 56bd 2c7f f5bc b2b4 0f3d db8d 04be
00000040: ce48 5dbd f95a e83d 4e2a 37bd 3a3c 863d
00000050: efcf f0bd 64a3 66bc fc5b 45bd 62d7 fbbc
00000060: 5fd8 ff3b c3b9 403d 7eaa af3d 3b33 9e3d
00000070: 3922 d63a 96df 643d 6a32 f1bd e314 34be
00000080: 8c3b 2a3d 2a47 b33d 733b 02be 2a15 e7bc
00000090: e363 a73d f863 53bc ca4d 863d d72f 67bb
000000a0: f693 9dbd 0735 c9bd 5275 13be 8f95 9a39
000000b0: c8be 293d 397c b23d d073 233e 5f5d c7bd
000000c0: 5be4 263e f7a2 1f3d 7551 a03b c074 d6bd
000000d0: ccf0 bfbd 7269 5f3c 7a9f 8b3d 45ef 32bc
000000e0: 869f 0abd dec3 583e 977f 43bb 7353 ee3c
000000f0: 46ad 943d 808d df3d e982 a93d dff7 47bc
00000100: 5c10 99bd 669d d0bd 49d4 71bd 4141 04be
00000110: 0186 583e 8d8f 44be caff 15be c151 6cbd
00000120: 1098 bdbd 997c 23be 79dd 14be 1553 7fbd
00000130: aedf 193d 8f31 393d 289e 2dbe 4d20 273f
00000140: ef88 613d 1daf cfbd d86f 303d c97d f4bd
00000150: 0f55 6a3d d4a0 69bd f000 1fbe 8ee4 b0bd
00000160: 98f9 bbbd 704f 13be c8c1 adbd aaec ce3c
00000170: 23d2 dd3c 036f 43bd 40c8 f6bc c094 bfbd
00000180: d122 2ebc c0d2 563c d003 253d 08ba 6ebe
00000190: 65ec 76be 6fbc a7bd 211a 1cbe 1d8a adbd
000001a0: 0264 37be 3bd0 d5bd 88b9 773e 54cc 26be
000001b0: 5b90 36bd 1369 753e 58bd 393d 72c2 d8bd
000001c0: 6d6c a6be d82b 723d fa82 6dbd 531f 1b3f
000001d0: a890 b93d 47a0 283d 57d5 a2bd 149b 3d3b
000001e0: 4775 443f 0820 a5be a29c a3bd af13 20be
000001f0: cc9e 643c 0315 5fbe 361f 643d 146d 1cbe
00000200: 4605 0dbd 4300 863d 5df1 1b3e 7788 6d3d
00000210: 7425 263c 8127 88bd 873a 54bd 9cd9 5f3d
00000220: ba47 993a 7180 863d 3385 9b3d 8f0a c7bd
00000230: 863d 263d a488 a6bc c7a5 243e 6794 953d
00000240: 89fa bcbd 05fa 343d dd41 a2bd d136 ceba
00000250: d59d 33bd b63b 7bbd f7ab 88bd 149b dabd
00000260: 8ab3 05be 9014 c3bd f2e9 8bbd 784c 843d
00000270: e6a6 aa3c f9ff 2ebe a05c 1fbd 131c 5ebd
00000280: 33ae 923d 9c65 90bd f69c c8b9 529a d7bd
00000290: 8c82 453d 2ebb 4bbc c09a 4e3b cc8f 3e3e
000002a0: 54d0 873d b112 c2bd f5da 2e3e 127d a73d
000002b0: 77a6 2f3d 763f c1bd e1cf be3d 2cd9 8abc
000002c0: 410a 35be faa0 29be a195 1b3b 05ba 953d
000002d0: 0f92 fa3d 95f4 1cbd 2440 c9bd e899 c4bc
000002e0: d31c 1b3d 7076 23be b779 8bbc 565c 08be
000002f0: 010c 66bc 689d 99bc a4f7 233e 24e2 1ebc
00000300: a8ff e5bd 83af 11bd 246a f73d abf9 37bd
00000310: 5567 373e 2e3e 583d 61ea b2bd 53b9 813d
00000320: 18c4 f2bd 6224 0c3d 8b9f 85bd ea6c ecbb
00000330: f91e 1cbd b601 16bc 69e5 f03d e777 8a3e
00000340: 27c9 6b3e 3179 033e 8530 a639 e634 a2bd
00000350: 0531 90bd 3291 ca3c f0ca d93d 6c13 e4bd
00000360: dde0 1b3d f3c7 8d3d f4a7 2ebd a34f 1c3d
00000370: c9f9 7d3c ce70 f23d 4a4b 31be d102 b4bd
00000380: f147 0cbe 92f5 613d 6210 a33a 324f a53d
00000390: 0921 063d 6bc8 8f3d 9cfa e6bc 0fc8 f53d
000003a0: 3e04 bbbd ebc1 a63c 3db0 ed3c 32d5 08be
000003b0: 62ca bb3d 9e6a 263e 1cc4 2d3d d2ad e43d
000003c0: ac61 893d 2038 933d 19be b33d 82ec 463e
000003d0: d9df 893d 635e 90bd 248b dcbc fab7 993d
000003e0: fab6 8e3e f917 2a3e 53ca cdbd d312 ecbd
000003f0: ab8e 9abc 63e2 61bd 1a26 d53d 772b 41be
-0.015158506 0.07854993 0.1994785 0.03767768 -0.16343828 0.14972353 0.126721 0.049078528
-0.1492278 0.046373174 -0.08211042 0.12641524 -0.052316133 -0.029967867 0.035084434 -0.12944739
-0.05402451 0.11345477 -0.04471808 0.06554456 -0.1175841 -0.014077041 -0.048183426 -0.030742351
0.007807776 0.047052156 0.08577441 0.07724615 0.0016337103 0.05587729 -0.11777194 -0.17586093
0.041560695 0.08753808 -0.1271799 -0.028208334 0.08173349 -0.012902252 0.06557806 -0.0035276318
-0.07694237 -0.09824567 -0.14400223 0.000294846 0.04144171 0.087151 0.15962148 -0.09734606
0.16298048 0.038973775 0.004892523 -0.10471487 -0.093721 0.01363598 0.06817527 -0.010921304
-0.03384354 0.21168467 -0.0029830688 0.029092526 0.07259612 0.10915661 0.08276922 -0.012205093
-0.074738234 -0.10186271 -0.05904034 -0.12915517 0.21144868 -0.19195385 -0.14648357 -0.057695154
-0.09257519 -0.15965499 -0.1453761 -0.062335093 0.037566833 0.04521328 -0.16954863 0.6528366
0.05506223 -0.10140822 0.043075413 -0.11938054 0.057210024 -0.057038143 -0.15527701 -0.08637343
-0.091784656 -0.14385772 -0.084842265 0.025259335 0.02707774 -0.04771329 -0.030124784 -0.09354544
-0.010628418 0.01311177 0.04028684 -0.23313153 -0.24113615 -0.08190238 -0.15244342 -0.08473609
-0.17909244 -0.104401074 0.24191868 -0.16288882 -0.04457126 0.23965864 0.045346588 -0.105839625
-0.32504597 0.059123844 -0.057986237 0.6059467 0.09060794 0.041168477 -0.079508476 0.0028931545
0.7674145 -0.32251 -0.0798886 -0.15632509 0.013953876 -0.21785359 0.055693828 -0.15275985
-0.034428857 0.06543019 0.15228792 0.05799147 0.010140765 -0.0664816 -0.05181363 0.054650888
0.001169435 0.06567467 0.07593765 -0.09718811 0.040586017 -0.020328827 0.16078864 0.07303696
-0.09227473 0.04418375 -0.07922719 -0.0015732889 -0.043851692 -0.06133624 -0.06673425 -0.1067411
-0.1305677 -0.09525406 -0.06831731 0.06459898 0.020831537 -0.17089833 -0.038906693 -0.054225992
0.07162132 -0.070506305 -0.00038263918 -0.10527481 0.048220202 -0.012434764 0.0031525344 0.18609542
0.06631532 -0.09476221 0.17075713 0.08178152 0.042883363 -0.09435932 0.093169935 -0.016949259
-0.17679693 -0.16565314 0.0023740309 0.07310871 0.1223489 -0.03831919 -0.09826687 -0.02399917
0.037869286 -0.15963149 -0.017025812 -0.13316473 -0.014040948 -0.018751815 0.16012436 -0.009697471
-0.11230403 -0.03556777 0.120807916 -0.044915836 0.17910512 0.052793674 -0.087361105 0.06334176
-0.11853808 0.034214385 -0.06524571 -0.007215132 -0.038115475 -0.009155681 0.117625065 0.27044603
0.23025952 0.128392 0.00031698137 -0.07920246 -0.070406 0.024727438 0.106344104 -0.11136517
0.038056243 0.06922903 -0.04264064 0.038161885 0.015501448 0.11837922 -0.17313877 -0.087896
-0.13699318 0.055165835 0.0012440796 0.08071746 0.03274635 0.070206486 -0.028195672 0.12001049
-0.091316685 0.02035614 0.029014701 -0.13362578 0.09169461 0.16251609 0.042423353 0.11165966
0.067080826 0.07188439 0.087764926 0.19426158 0.06732149 -0.07049253 -0.026921816 0.07505794
0.27873975 0.16610707 -0.10048356 -0.11527028 -0.018866858 -0.05514754 0.10407658 -0.18864237

decoder.bias_hh_l0 f4 [256]
00000000: a924 02bc 4dcb 36bd 2614 b53d a8ab 343d
00000010: 1577 eebd 976b fd3d 3cfb 713c 6990 703d
00000020: 9b61 a5bd e96c 2bbe 62f0 62bd 842b a03d
00000030: fb21 f9bd 404f ffbd ce9e 6cbd 573c c3bd
00000040: 4fde 26bd ac23 fa3c 95ee 373d 23ba 03be
00000050: f3a5 97bd 6358 d63d 42f1 c8bc 494c b13d
00000060: 0a16 903d 5e5c 1b3d 8ffc 8d3a 7281 8c3d
00000070: 057b 933d c9f7 953d 8bca cfbc ebd2 88bd
00000080: 72e6 863d e917 f3bd 223e 82bd 8116 3b3e
00000090: 561c c5bd 6b21 ccbd 55af 773c 2415 1b3d
000000a0: 30f1 1fbe 42f7 e9bd 95e1 813d 4add eabc
000000b0: d6ef 00bd 3b60 e2bc c050 da3c 5b79 d5bb
000000c0: 96ee 623e 3b71 c43d 0e48 d6bd 5b9a 5bbd
000000d0: 733d 0dbd 93c9 483d ea4e 8c3d e937 86bd
000000e0: 1ec5 ddbd d9fb 593c 5d5f a43d 9cb7 ba3d
000000f0: ceaa d8bd 01bd 823d 0a20 0a3e 3d8f 1cbe
00000100: 24a9 22be 3577 0cbe fa4a 61bc b0bc 6ebe
00000110: 6b36 9b3e 65dd 1cbd 6480 0abe baaa 3e3d
00000120: 12ef babd 1741 93bd d6b7 58be 9e1b c93a
00000130: 13c4 d8bd d822 53bd efa6 52be 2e78 3c3f
00000140: 0d0b 833e 464f a7bd 6fcf 1a3c 047a 82bd
00000150: 3687 bcbd 9d88 a2bd 4424 0a3d a09c 99bc
00000160: 1b1d d9bd d2ee e3bd fe6b a5bd 2821 96bd
00000170: 1968 7b3d b3c3 debd c404 68bd 0213 bdbd
00000180: 0990 893d abf8 c3bd 1568 353d 1cd8 4ebe
00000190: 647e ebbc 97fb b3bd 4c11 8dbe 2da6 cbbd
000001a0: 4a6f 39be 089e 3fbd 5966 743e ac9b 54bc
000001b0: ade8 183d ace9 ee3d c643 3a3b 81db 2dbe
000001c0: 0265 a3be 0965 613d beed a7bd 30b6 183f
000001d0: 961f 113d abc4 c8bd b935 e0bd 86f0 8fbd
000001e0: 21a5 173f 33c0 29be 81ed 35be de03 e1bd
000001f0: 0255 b8bd f317 81bd 21c6 00be 0f69 5b3c
00000200: 752c 1bbd 4bca 1b3e 4a09 b9bc 7325 e6bd
00000210: fd58 93bd 5eef a2bd 3074 70bd 0ae4 3d3d
00000220: 09bb b03c 5b13 29bd 04c9 013e a1fb 15be
00000230: d2cf 5ebd eab3 033d 4403 f1bc 6339 c5bd
00000240: dd4b 33be 8251 383e 0093 e53c 364c 57bd
00000250: c10e ff3c e805 37be 2b3c 0bbe b86d 46bc
00000260: 6b47 8abd e2fc 77bc 8f47 3bbe 4ef4 fbbc
00000270: 4a96 a83d 5a2b 1bbe d2a2 55bd 821c 72bd
00000280: bbf4 953d c788 1d3c 03c6 923d 895f 48be
00000290: d99c 17be d325 db3c 5676 bebd 1342 4b3e
000002a0: c39f e2bc 5333 793d 88e8 a73d 3890 c83c
000002b0: 82ef 263c a6b9 f0bd 4a27 da3d 44c1 49bd
000002c0: d6e7 3abe aa0e 86bd 30fa e5bd fefd b2bd
000002d0: 9f14 0dbd 767e 19be eac6 1abe f40b cebc
000002e0: 9836 3dbd 9c09 3fbd c112 c8bd b206 873d
000002f0: 308c 5f3c b60c 19be 21a6 2f3e b0cd 3f3d
00000300: 9ac1 3ebd b010 193e b5ef 993c f58f c63d
00000310: 5f4b c73d d19e ecbc 99ee 633c 0336 ae3d
00000320: 59a0 01be ea30 7e3d 3640 aabb a6e8 6b3c
00000330: 1d32 6ebd 6e1a a5bc a896 0d3e d470 a43e
00000340: 8de2 493e df7f d03b 4e98 253d d8ed e33b
00000350: 035c 25bd 2d2e 1b3d 59a6 db3d a73c 683c
00000360: 734f ea3d 55e6 5b3d 5455 01bc 1b76 c23d
00000370: 567e 89bd 4185 173e 0c6c 34be bb69 1fbe
00000380: e570 bc3d cd9f d0bd ea28 1abd 291e 433c
00000390: e71f 7a3d 1bbb 91bd ee3f 9d3d 5f34 9cbc
000003a0: c74d 5a3d 9cb8 90bc 1e2d fd3d 9522 913d
000003b0: ad47 adbd 4655 873d 863d fd3d 4ce2 e03d
000003c0: a852 123e fbd1 133e a1d2 e7bd e6cb b43d
000003d0: 54c3 193e dd61 6ebd a182 57bd 7692 13bd
000003e0: 04f1 9f3e c21b 5c3d 9fb4 ebbd 8faa 943d
000003f0: 6e6a 15be e6db ae3c a3da 963c cae9 8fbd
-0.007943311 -0.044627476 0.08841734 0.044109017 -0.11643807 0.12374037 0.014769372 0.05873147
-0.080752574 -0.16740765 -0.05540503 0.078208 -0.121646844 -0.124662876 -0.057768635 -0.09532993
-0.040739354 0.030534588 0.044905264 -0.12863974 -0.07404699 0.10466077 -0.024529103 0.08657128
0.070354536 0.037929885 0.0010832715 0.06860627 0.072011985 0.07322652 -0.025365135 -0.066808544
0.06586923 -0.11869795 -0.06359507 0.18270303 -0.09624545 -0.099673115 0.015117486 0.03786196
-0.1561935 -0.11424114 0.063418545 -0.028669972 -0.031478725 -0.027633777 0.026649833 -0.006514711
0.22161326 0.095919095 -0.10462962 -0.053614 -0.03448243 0.04902036 0.06850989 -0.06553633
-0.10828613 0.013304674 0.080260016 0.09117052 -0.105794534 0.06383706 0.13488784 -0.15289016
-0.15884835 -0.13717349 -0.013750786 -0.23314166 0.30314955 -0.038297076 -0.1352554 0.046549536
-0.0912763 -0.07190149 -0.21163878 0.0015343314 -0.10584273 -0.0515469 -0.20571493 0.7362088
0.2559437 -0.08169417 0.00944887 -0.06370929 -0.09205477 -0.07936213 0.03372599 -0.018751442
-0.106012546 -0.11129536 -0.080772385 -0.07330543 0.061378572 -0.108771704 -0.05664517 -0.09232141
0.06716926 -0.09568914 0.044288713 -0.20199627 -0.028746791 -0.08788221 -0.2755226 -0.09943805
-0.1810886 -0.04678157 0.23867168 -0.012976568 0.037331272 0.11665663 0.0028421744 -0.16978265
-0.31913 0.055027995 -0.081996426 0.59652996 0.035430513 -0.098031364 -0.10947747 -0.07028298
0.5923634 -0.16577224 -0.17766382 -0.10987066 -0.09000589 -0.06303396 -0.1257558 0.013391747
-0.037884194 0.15213887 -0.022587437 -0.112376116 -0.071947075 -0.07955812 -0.058704555 0.046360053
0.02157356 -0.041278224 0.12674338 -0.1464677 -0.05439741 0.032154 -0.029420502 -0.09630086
-0.17509408 0.17999843 0.028024197 -0.052562915 0.031134965 -0.17873347 -0.13597171 -0.01211112
-0.06751903 -0.015135976 -0.18289016 -0.030756142 0.0823179 -0.15153256 -0.05215723 -0.05910922
0.07322069 0.00961513 0.07166674 -0.19567694 -0.14805926 0.026751434 -0.092999145 0.19849424
-0.027664071 0.060839962 0.08198649 0.024482831 0.010188939 -0.1175416 0.10652025 -0.049256578
-0.18252501 -0.06545766 -0.1122936 -0.087398514 -0.034443494 -0.14989647 -0.15114942 -0.025152184
-0.046194643 -0.046640024 -0.09769202 0.06593074 0.013644263 -0.14946255 0.17153217 0.04682702
-0.04657135 0.14947772 0.018791059 0.096954264 0.09731173 -0.028884323 0.013911867 0.08506396
-0.12658824 0.062058367 -0.005195643 0.014398729 -0.05815326 -0.020154204 0.13827002 0.3211733
0.19715329 0.0063628997 0.040428452 0.0069558434 -0.040370952 0.037885834 0.10725088 0.014174617
0.11440935 0.05368646 -0.007893879 0.09495183 -0.0671355 0.14796926 -0.17619342 -0.15567677
0.092012204 -0.101867296 -0.037636675 0.011909046 0.06106558 -0.07115766 0.07678209 -0.019067941
0.05329683 -0.017666154 0.12362121 0.07086674 -0.08460937 0.066080615 0.1236525 0.10980663
0.14289343 0.1443557 -0.11319471 0.08827953 0.15015918 -0.0581988 -0.05261481 -0.036028348
0.31238568 0.05373741 -0.1150906 0.07259094 -0.14591381 0.02134509 0.018414801 -0.070270136
