output/synthetic_data/models/model_hidden32_lr0.01_clip0.5.pth (torch, 39898 bytes, 9 tensors)

encoder.weight_ih_l0 f4 [128, 1]
00000000: 8cf4 083e 3acd b5bd 7cfc e83d 9cbb a2bd
00000010: 19b5 9cbd dfe6 2dbe 15ea 8dbd 2823 773d
00000020: ee13 af3d 5e7d bebe fef6 43be 78fd c13d
00000030: c34f 213e f418 99bd 08fc a93e d0b2 fe3d
00000040: f4e6 0ebe 00ac 9abe 1767 ac3d 888d 723e
00000050: c037 9fbe cda0 05bf de1b 8ebd 1af8 d8bd
00000060: 28b9 aa3d f94e 19be ff74 07be 96c2 dd3d
00000070: 8cdb c0be 78df 0ebe 9d7d 33bb 3f8a 28bc
00000080: 2def e1bc 5564 c83d 35ce 263d d8df 0f3d
00000090: 3a88 343c 7eee 80bd b78d 943c 9409 a1bd
000000a0: 0a03 133e 03a8 b0be 97f0 a9bd d2c4 e93d
000000b0: 0f75 04bc e85b 20be 03fa f43c ff1f 4a3e
000000c0: 2b52 063f 1ff0 41be be8e f7bd 14fb e53d
000000d0: 8817 18be 29ea b1be e3a8 54be dfcc c6be
000000e0: 0a37 dabd bcd3 aebd d87b 67bd c609 483e
000000f0: e60a 23be 45f9 9b3d bdc7 683e ae19 a53d
00000100: 8a53 06be cf12 1abe 6153 ca3e 4ad2 5abe
00000110: 926a 7bbd 1c2d af3d 3ca3 2e3d 71f1 7cbe
00000120: b6d3 2f3e f594 463c 4eae 20be 8232 5abb
00000130: a6eb 62be 5dc3 203e 6733 73bd cd72 5d3e
00000140: b954 54be aad8 843c cc18 0b3e d871 f93d
00000150: 7740 7a3e 191a 86be bae0 e43b 6a5a 48bd
00000160: 2841 fc3d 8739 8c3d a1ed 7ebe 6415 40be
00000170: 76ef 7c3e b218 3dbe 4a08 963e 0b95 0e3e
00000180: 05d9 72be 4267 a7bd 1fa0 2a3e 795d c43c
00000190: 148d 9abe 461b b63d 959e 24be 2bc5 abbe
000001a0: 1981 db3d 0931 21be f8bd 56be 3681 533d
000001b0: 9cf5 023e fded c6bc 6b66 663e ae9a 04bd
000001c0: 1132 2e3e 84ea a9be 9336 19bd 9b1f 94bc
000001d0: d399 3abe 1035 bfbe 2041 40bd a36d d9be
000001e0: 706e 66bc 6dd6 2cbe d88a 2a3d f5eb 623e
000001f0: b79d a7be 444a 94bd b9ac 4f3e 7f59 793e
0.13374537 -0.088770345 0.113762826 -0.0794594 -0.07651729 -0.16982602 -0.06929413 0.060336262
0.08548723 -0.37205023 -0.19137189 0.094721735 0.15753083 -0.074754626 0.33200097 0.124364495
-0.13955289 -0.3020935 0.084181 0.23686802 -0.3109722 -0.5219849 -0.06938909 -0.105941966
0.08336097 -0.14971532 -0.13228224 0.1082813 -0.376675 -0.13952434 -0.0027388104 -0.010286867
-0.027579868 0.09784762 0.040723998 0.035125583 0.011018807 -0.06295489 0.018133981 -0.07863155
0.14356628 -0.34503183 -0.08297842 0.114144936 -0.00808455 -0.1566006 0.029904371 0.19738768
0.5246913 -0.18939255 -0.12087773 0.1122953 -0.14852726 -0.34748963 -0.2076755 -0.3882818
-0.10655029 -0.08536479 -0.05651459 0.19534978 -0.15922126 0.07615904 0.22732444 0.08061539
-0.13117805 -0.15046237 0.39516738 -0.21369281 -0.06138093 0.08553526 0.04263614 -0.24701478
0.17170605 0.012120475 -0.15691492 -0.0033294265 -0.22160205 0.15699525 -0.059375193 0.21625824
-0.20735444 0.016216595 0.13583678 0.12179917 0.24438654 -0.26191786 0.0069847973 -0.04891435
0.12317115 0.0684691 -0.24895336 -0.1875816 0.24700722 -0.18466452 0.293032 0.13924043
-0.23715599 -0.08173992 0.16662644 0.023970352 -0.3018576 0.08891921 -0.16076119 -0.33548865
0.10717983 -0.15741362 -0.20970905 0.051636897 0.12789005 -0.024283404 0.22500007 -0.032374077
0.17011286 -0.33186734 -0.03740556 -0.018081477 -0.18222742 -0.3734517 -0.046937108 -0.4246646
-0.014064416 -0.16878672 0.041636318 0.22160323 -0.32737514 -0.072407275 0.20280732 0.24350546

encoder.weight_hh_l0 f4 [128, 32]
00000000: 1ca2 d3bb d49a 0abd db52 5a3e c230 03bd
00000010: 938f 473e d008 1ebd 8e87 2d3e d8ed 03be
00000020: 0fcf 193d 9a92 01be cbc0 fb3a b708 4dbc
00000030: e209 8f3b 0ddc c7be a1cd efbc 2fc2 3e3d
00000040: b568 f5bb 40bc 653e 5b0c 9d3e 202e 5e3e
00000050: 1a64 183f ce43 e3bd 3b0a b53d ee17 59bd
00000060: bf68 84bb 68d1 3cbe e954 43bd bbe8 cc3d
00000070: 008d 613d e423 943e 63b9 33be e229 443d
00000080: d0e4 b13d e4e9 a63c 0c0e b93d 72db 4d3d
00000090: 2f4b 8bbe 04db 0cbe 5596 893c 4ae0 8d3e
000000a0: 15ca 353e 090a a63d e8c6 e1bd 9fc4 863d
000000b0: 8174 22be 6c21 cabe adf3 823c 90ba 25be
000000c0: 0550 23bf 5583 0ebd 547b b93d 650b 3f3e
000000d0: c9dc a03e 7cd3 05bd d7c7 0c3e 3d98 fbbd
000000e0: 5ba0 94bd 783e b0bd 8e62 643c 5877 74bd
000000f0: a7e6 0abe 820a 8e3c 6cd7 e3bc 46dd ea3d
00000100: bc7f 14bf eb50 77be 4a91 283e f99d 65be
00000110: 7105 9c3d d96f 3c3e 105b 5a3d 87ab b13e
00000120: 2d82 123e 45b7 ae3d b2eb 4b3e 40ea ec3d
00000130: f089 cebc e0bf 6cbe 14a5 f1be b139 c93d
00000140: 4cc1 a73d 90cb aa3e ef27 a4bd c093 653e
00000150: 1cee 7e3e 91df a83e 5880 843e 7ec3 a0bd
00000160: ab5a 913e 9016 10be 32c7 473d 591f 3dbe
00000170: 8f28 9fbe ad9a a9bd 42ca e2bd 105e bfbd
00000180: f80d 5c3e 13ad 1fbe bd4d 613c 5750 af3c
00000190: 5071 f6bd 9a35 6b3c fd4f 27bc 5c5a 02be
000001a0: a888 9ebd c8de aa3d cd7e 0c3d c1c3 373d
000001b0: 8517 c83d 7ffc 633e 0b5b 2abe f946 93bc
000001c0: 6106 cdbd a37d 3f3c 91ab 013b 8934 f0bc
000001d0: fcf0 5e3e 4b77 3ebe f9c5 edbd 693d 80bd
000001e0: d61d 5bbd 8c94 453e abb3 5dbd c843 ac3d
000001f0: 129a d13c cddd fabd 4670 363e aa6c 67bd
00000200: e4ac 0fbe a97a 843e 7d33 47be 3582 c03d
00000210: 2ac0 6a3e e1e7 90bc 40b9 96bc 3394 9bbe
00000220: c91d 95bd e05e 97be cf8f a33e 087c 61bd
00000230: 1225 6a3e ac7f ae3e acf3 643d f216 7f3e
00000240: f3e9 ae3d 9033 f93e afff de3d 5757 d2be
00000250: f69c e2be c1ad e93d 9a90 febe b847 2bbe
00000260: bf4b c0bc db17 fa3d 0ee3 c33d 6541 2dbd
00000270: 1144 c2bd ea22 b1bc 1f98 5dbe af6e 843c
00000280: d479 05be b0dc 6a3e 72cd 503e c39f 6abd
00000290: e967 f5bc be59 0a3e 56af ed3d 362e 8abe
000002a0: b29d f1bc 6344 843e 45f5 4d3e 1382 0d3d
000002b0: 52a3 82bd 1116 80be 2163 43be 91f3 b4bd
000002c0: d534 853d 7eb2 0d3d f5d7 503e 0163 d83e
000002d0: db56 4a3e e295 9c3d 1e3c 98bb a7ba 53be
000002e0: af79 3ebd c72f 82be 4e97 d8bb ad8a dbbd
000002f0: 8cec f9bd ca07 363c 8624 2abe 4abf 1dbe
00000300: 9fb6 193d 106d 993e e041 c73d 9870 973e
00000310: 74ab 6c3c a6ef 87be c575 0abe 3f90 613e
00000320: b9a0 f7bd e504 9c3d 05e9 0e3e 56b8 f9bd
00000330: 00ce d63d 3d0f 083d cb0e ffbc 1fcc aa3d
00000340: 71de 99bc 5829 8dbc 2f6b 9e3d 4e15 98be
00000350: 8ae2 123d 51ab ac3c aec4 20be 4a58 ddbd
00000360: a1ee 85be d171 f9bd eb21 553d 4a6b 0e3e
00000370: 8084 fdbd 77f0 ad3e e7aa 02be d7ff 51be
00000380: 3b98 94bd 9ae9 883e 470e 07bb 1784 5e3d
00000390: ad04 6a3e 68c3 f53c 53e2 1d3e e32e 8b3c
000003a0: 7fc6 a93d 8368 343d cd2e ba3e 3969 aabd
000003b0: 3820 3b3e 5ddc 9fbd 0681 cebd 9d08 1a3e
000003c0: 6182 dc3d 822b 9e3e f299 3d3d b99d 8cbe
000003d0: 3707 02bf 6d11 ac3e 6fe8 22bf 53c8 003d
000003e0: 12a1 7a3d 882d f8bc 50be ad3e 5156 413e
000003f0: caa5 553d 94bb d33e 5d8a 45be c908 a0bd
-0.006458534 -0.03383906 0.2132067 -0.03202892 0.19488363 -0.038582623 0.16946241 -0.12883699
0.037550982 -0.1265358 0.0019207237 -0.012514285 0.004365192 -0.39035073 -0.029272856 0.046571907
-0.0074892887 0.22435093 0.3067349 0.21697283 0.5952774 -0.11096917 0.08839842 -0.053001337
-0.004040807 -0.18439257 -0.0476884 0.10005327 0.05506611 0.28933632 -0.17551188 0.047891505
0.08686221 0.0203752 0.09035882 0.050258107 -0.27205798 -0.13755423 0.016795317 0.2771018
0.1775287 0.08107383 -0.110242665 0.06580471 -0.15864755 -0.39478624 0.015985334 -0.16184449
-0.63793975 -0.034793217 0.09056726 0.1865669 0.31418446 -0.03267239 0.13748108 -0.122848965
-0.07257148 -0.08605665 0.013939513 -0.059684128 -0.1356455 0.017338995 -0.027812682 0.11467986
-0.5800741 -0.24151962 0.16461673 -0.22423543 0.07618225 0.18402041 0.0533095 0.34701177
0.1430747 0.0853105 0.1991413 0.11568117 -0.025212258 -0.2312007 -0.47196257 0.09825457
0.08191165 0.3335843 -0.08015429 0.22419643 0.24895519 0.32983068 0.2587917 -0.07849787
0.28389487 -0.14071107 0.04877395 -0.1846899 -0.3108563 -0.08281455 -0.11073734 -0.09344113
0.21489704 -0.15593366 0.013751444 0.021400614 -0.120333314 0.014356041 -0.010211942 -0.12729782
-0.07740909 0.083432734 0.034300614 0.04486442 0.09770111 0.22264288 -0.16636293 -0.017978178
-0.10010982 0.011687669 0.00197861 -0.029321926 0.21771616 -0.18600194 -0.11610026 -0.06261713
-0.05349525 0.19294947 -0.054126423 0.08411366 0.025586162 -0.122493364 0.17816266 -0.056500115
-0.14030796 0.25874832 -0.19453235 0.09399835 0.22924867 -0.017688693 -0.018398881 -0.30386505
-0.07281072 -0.2956457 0.31945655 -0.055049926 0.22865704 0.3408178 0.055896446 0.24911097
0.08540716 0.48672152 0.108886115 -0.4108226 -0.44260377 0.11410094 -0.49719697 -0.16726577
-0.023473619 0.12211581 0.095647916 -0.042298693 -0.09485639 -0.021623094 -0.21640061 0.01616606
-0.13034755 0.22935748 0.20390871 -0.057281267 -0.029956775 0.13510796 0.11605708 -0.2698838
-0.02949414 0.25833425 0.20113094 0.034547877 -0.06378807 -0.25016835 -0.19080783 -0.08835519
0.065042175 0.03459405 0.20394881 0.42263034 0.19759695 0.076457754 -0.0046458384 -0.20676671
-0.046502765 -0.25427076 -0.006609834 -0.1071981 -0.12203321 0.0111102555 -0.16615495 -0.15405002
0.037527677 0.2996602 0.097293615 0.2957809 0.0144451745 -0.26550025 -0.13521488 0.22027682
-0.12091202 0.07618121 0.13956077 -0.121933624 0.1048851 0.033217657 -0.031134984 0.08339714
-0.018782826 -0.017231628 0.077352874 -0.29703754 0.035860576 0.021077784 -0.15700027 -0.108078554
-0.26158622 -0.12179912 0.0520343 0.13908115 -0.12378788 0.33972523 -0.12760507 -0.20507751
-0.07255598 0.26740724 -0.0020607875 0.05432519 0.22853346 0.030000404 0.15418367 0.01699013
0.08289813 0.044044983 0.3636383 -0.08320851 0.18274009 -0.07805703 -0.10083203 0.15042348
0.10767055 0.3089257 0.04628939 -0.27464083 -0.5079226 0.33607045 -0.63635916 0.031441044
0.061188765 -0.030295148 0.3393426 0.18880583 0.052160062 0.41354048 -0.19291063 -0.07814176

encoder.bias_ih_l0 f4 [128]
00000000: de2b e7bd c8b7 39bd b7ee d83d 6ca3 213e
00000010: 441b d93d e1ae f1bd 7970 2dbe ac69 1cbe
00000020: f177 03bd 5842 67be a51a 59bd 84e7 acbd
00000030: d3d5 98bd 94e0 1a3e ec96 73be 5a2b 6ebe
00000040: 3da3 b63d 5c73 2bbe 4adc d23d eae8 0d3e
00000050: 2a31 613e b6c0 5a3d d597 d03d 128e 6bbe
00000060: 3a82 4d3e 6db1 b5bd 942f 483e bf9f 753d
00000070: 47bb ed3c 3ab5 053e d58f 4a3e b0bd a23d
00000080: 1e0f 913c 0d7d b5bd 9260 6c3e 5a09 423e
00000090: 04e6 e33d 17b6 213e bbb3 55be d636 8d3e
000000a0: 810d 4f3d 2a15 73bc 4950 9f3c b515 ca3d
000000b0: 31df 66be db7c 403e 8d70 85bd 40e3 283d
000000c0: b2a5 053f dbd8 1bbe dcf0 e6bc bac4 dbbc
000000d0: 21cd 2d3e b8d0 9e3d c324 db3d ba4c 17bc
000000e0: 5806 1e3d 5df9 af3d 6b56 673e 440c d13c
000000f0: 0b51 16bd 6d34 1e3d 120a e8bd 917b 56be
00000100: cf80 7ebc 9c0f 20be 570d 9bbd 73ba 89be
00000110: f0a6 633e 9c89 be3d b68f 8e3c a558 353d
00000120: 2c6e e63d c3f1 a2bd 8819 b73d 6fdd 983e
00000130: 0ffb 803c 244e 5c3e f397 e8bd f833 cf3c
00000140: ac78 ed3d 3d4a 1fbc b669 11be edf4 d13c
00000150: 5ad1 c23d 7f75 87bc a419 443e 7023 063d
00000160: 0b50 863e b8e5 f13d 5589 4d3d fc1b 7bbe
00000170: a6cf 2d3e b8a3 d63d 8fd2 af3d 5f5e c93d
00000180: 44f6 0f3d dde6 a5bd 1fb4 473d 6f85 1c3d
00000190: b7bc 313c 2eaa ebbd e2c0 afbd 9b61 19be
000001a0: 2645 153e 6cf4 08be 6baa 16be 0d31 fc3d
000001b0: d1c9 67bd 8794 ed3d 6282 2f3c a3bf 14be
000001c0: 9e7b a8bd 2b57 2bbe 3a09 813d 9e6f 11bc
000001d0: bd0c a93c 4d61 0f3c f9ca 10be 6d08 cabd
000001e0: ba19 463e 1256 95bd 5f2d 393e c501 623d
000001f0: 67cb debc b369 0e3e 978b b6bc ff29 b23d
-0.11287664 -0.045341283 0.10592406 0.15784997 0.10600904 -0.11800934 -0.16937436 -0.15274686
-0.032096807 -0.22583902 -0.053003926 -0.084425956 -0.07462659 0.15124732 -0.23788041 -0.23258725
0.08917854 -0.16743225 0.10295923 0.13858381 0.21991411 0.05340644 0.1018521 -0.23003414
0.20069209 -0.08871732 0.195494 0.0599668 0.029019965 0.13057414 0.1978143 0.07946336
0.017707404 -0.08861742 0.23083714 0.1894888 0.111278564 0.15792118 -0.20869343 0.275809
0.050549988 -0.014836589 0.019447463 0.098674215 -0.22546078 0.18797629 -0.06515608 0.041232347
0.52205956 -0.15219443 -0.028191023 -0.026827205 0.16972782 0.07754654 0.10700371 -0.009234602
0.03858027 0.08592484 0.2259156 0.025518544 -0.036698382 0.038624216 -0.11330046 -0.20945574
-0.01553364 -0.15630955 -0.07570904 -0.26900062 0.2223165 0.09303591 0.017402511 0.04427399
0.11251482 -0.07956269 0.089404166 0.2985644 0.015744714 0.21514183 -0.11357107 0.025293335
0.11595282 -0.00972229 -0.14200482 0.025629485 0.09512587 -0.016535519 0.19150406 0.03274864
0.26232943 0.118113935 0.0501798 -0.24522394 0.16973743 0.104804456 0.08585083 0.09832453
0.035146967 -0.08100674 0.04875576 0.03821319 0.010848216 -0.115070686 -0.08581711 -0.1497864
0.1457716 -0.1337449 -0.14713447 0.12314043 -0.05658895 0.11600595 0.010712238 -0.14526229
-0.08226703 -0.1673247 0.06300588 -0.008876709 0.020635957 0.008751226 -0.14139928 -0.09864888
0.19345751 -0.07291807 0.18083714 0.05517747 -0.0271966 0.13907509 -0.022283358 0.08699416

encoder.bias_hh_l0 f4 [128]
00000000: b25c 2a3d 798c 263e f36b a1bd 647c 5d3e
00000010: eea6 d93d 0ecb 133d 4d6e dcbc ec8e 813d
00000020: 60d1 c4bd 295f 12bd 9299 43be defd 093e
00000030: 1977 c13d 60b5 d03d 4836 dfbd e865 e7bc
00000040: eb10 0bbd a782 b8bc 7add fc3d 2d70 213e
00000050: 6eae 50bd e163 81be ad46 4b3c bed4 1abe
00000060: 4365 4bbd 0c53 333d 605f 8d3c 1494 233e
00000070: 1e10 63be e8c0 27be d8b9 c43c 50ea b9bd
00000080: a478 adbc 0b03 323e 5292 003c e302 643e
00000090: 166c 0f3e 96e7 973d 65e5 22be 3801 883e
000000a0: 3129 9d3d 6b3e 99bd 98bf 0abe 9a49 dd3c
000000b0: f037 2dbd bee8 283e 08c7 9fbd 7707 873e
000000c0: 42a5 8d3e 7f6e 403e caf1 16be f3fd d53d
000000d0: b598 2d3e c811 88bc baea 7cbb 139c d5bd
000000e0: 0e01 13bd d243 483d c2b9 e13c a971 b73e
000000f0: b97e 25be 2dab 98bd 151d 3ebd 904e 3b3d
00000100: 5b88 5dbd 7473 fbbd 21e0 62bd 6c96 7bbe
00000110: 170c abbb 90b1 b53d 520d ba3d da4d a4bc
00000120: a689 353e 4c20 093e 8607 323d 3776 8f3e
00000130: 5056 edbd 0a06 85bc 4d52 fabc 8cf6 46bd
00000140: e00c 383d 7703 373e 2234 39be 4cab e53d
00000150: 1480 34be 6eab 143e a9d1 3a3e 87e2 43be
00000160: 81cc 7c3e d43c 843d 4e66 743e f456 0fbd
00000170: a7c8 11be da29 bebd 0ed6 7a3e 3838 2bbd
00000180: 432d a93c 8881 673d 009c 323e a36e 2a3e
00000190: 7700 1b3d 5923 20be e59f d5bc dc6b bfbd
000001a0: 2948 4dbd 8c3b 27be d344 5b3d 96d0 fdbd
000001b0: 5526 24bd a965 a13e 3623 31be 1698 37be
000001c0: db2b 9bbc 0a16 42be 3136 0dbd d182 18bd
000001d0: fed2 403e 735d c9bd d63a 24be bb3f c4bd
000001e0: df53 393d bc27 003d 52d6 0dbe bc96 293e
000001f0: 6219 9abd db9b 183e 4f2f a339 0b0b 04be
0.041592307 0.16264524 -0.07881918 0.21629483 0.106275424 0.03608232 -0.026908064 0.06326088
-0.096102476 -0.035735283 -0.19101551 0.13475749 0.09446544 0.101908445 -0.10899025 -0.028246835
-0.03395168 -0.022523237 0.12346931 0.15765448 -0.0509476 -0.25271514 0.012406987 -0.15120217
-0.049657118 0.04378037 0.017257392 0.15974456 -0.22174117 -0.16382182 0.024014398 -0.09077895
-0.02117569 0.17383973 0.0078473855 0.22266726 0.14006075 0.074172184 -0.1590782 0.2656343
0.07673872 -0.074826084 -0.1354965 0.027012635 -0.042289674 0.16495034 -0.07801634 0.26372883
0.27665144 0.18792151 -0.14740673 0.104488276 0.16952784 -0.016610041 -0.0038592056 -0.104301594
-0.035889678 0.048892803 0.027554397 0.35828903 -0.16161622 -0.07454524 -0.046414454 0.04572922
-0.054085117 -0.1227788 -0.055389527 -0.245691 -0.005219947 0.08871758 0.09084572 -0.020056654
0.1772829 0.13391227 0.043464206 0.28019878 -0.115887284 -0.016238231 -0.030556822 -0.04857497
0.044934154 0.17872415 -0.18086293 0.11214313 -0.17626983 0.1451852 0.18244042 -0.19129382
0.24687387 0.064569145 0.23867151 -0.034995034 -0.14236699 -0.09285326 0.24495718 -0.04180166
0.020651465 0.056520015 0.17442322 0.16643767 0.03784224 -0.15638484 -0.02607722 -0.093467444
-0.050117645 -0.16331309 0.053532433 -0.123933 -0.04007562 0.31522873 -0.17298588 -0.1792911
-0.01894181 -0.1895372 -0.03447551 -0.03723413 0.18830487 -0.09832277 -0.16038069 -0.09582468
0.045246 0.031287894 -0.13851288 0.16561407 -0.07524373 0.14903204 0.0003112503 -0.12894838

decoder.weight_ih_l0 f4 [128, 32]
00000000: a1be be3d 9c81 f13c 238d 82be 050e 0b3d
00000010: 35f8 c13e bdaf 95be 4730 37be 0345 343c
00000020: 4291 17be f495 5c3e 7714 613e 33d3 b7bd
00000030: b012 273e d668 99be abdb 06bf e083 cd3d
00000040: 80aa f0be e094 dcbd 5483 923d ed9f 64be
00000050: 7d1b 813d d129 313e 3499 15bf ea75 3d3c
00000060: 8c69 b0bd 3917 09bf f394 86bb edf9 1b3e
00000070: e573 803e 0860 603e 8627 57be 518c fa3c
00000080: 8d8c a0be 7bb8 eebe aea4 8bbf f14a 29bf
00000090: ec72 b13e ac60 c03e bb27 7a3e 55aa 11be
000000a0: ed61 aa3e 653a 0b3e 3e69 603e 2ecd 193f
000000b0: e522 aabe a911 5b3d 9349 1abf dec4 c83c
000000c0: f036 91be 6bae 033f 77eb 63be cd62 7dbe
000000d0: ff9c cdbe 8793 453f 61ad d7bd 96ed d5be
000000e0: 6822 1c3f afa5 4ebe 8685 2b3f 23c6 1cbf
000000f0: c0c1 193f e119 7f3e c329 f73e efdf 773e
00000100: 8384 f1bd 6fc7 92be 9417 573d e156 14bc
00000110: 5f4b 873e e834 84bd 1a8a 19be c403 8c3d
00000120: 5988 a33e 2185 733e d143 de3c 1396 043e
00000130: 0b69 46be c58e 93be c2df 903c 1b82 8f3d
00000140: e0b6 83be 842f a23b 9b26 41bb 4bde 173d
00000150: ed4b 463e afce 1abe 4d99 513e 5b07 6abe
00000160: 20d4 883e 2c21 30be b5e4 9c3d d65f ec3c
00000170: e2cb 643e 65b2 dd3d 0fb6 26bd 2c9c b93d
00000180: 86d5 d3be 1b66 18bf 66a6 dd3d 43a3 49bf
00000190: b49d 123f 8a96 2a3f f450 c03e 85bc 3dbe
000001a0: be98 003f f853 163f 216a 103f 3794 f13e
000001b0: 2502 aebe 1abf f03c 20f0 a0be b5b4 3e3e
000001c0: a125 83bd f086 933e abf5 04bf 74f9 1c3f
000001d0: d86b 8b3e de6b cd3e 9179 743d 47b6 ccbe
000001e0: a578 153f 2ca3 a7bd 983f 6f3f 0227 04bf
000001f0: e957 8c3e 3847 b4be 56c9 353f 6ad2 903e
00000200: 0ee7 99bd f0a1 063e de59 6b3d ede5 0abe
00000210: 49c4 2dbd 534c 21be ed2c 21bd d4f5 d7bd
00000220: 7d69 85bb c806 133e 07db 97bd 318f a0bc
00000230: c344 09bd 7f09 ebbe b0c2 1ebe de09 603e
00000240: 21e7 85be b793 d0bd 6914 c93d 5d1f 4d3c
00000250: edf6 6c3d 5dd9 843e 524c 06be a91f b4bd
00000260: c087 833d 42df 0fbe fa96 463e cda1 053e
00000270: 2f8b 623d e266 ab3d eda4 6a3d f438 15be
00000280: c0f4 783d d0fc 453e c40a 03be 7c9d bd3e
00000290: 092f 8fbe 80dc 8fbe 6215 653d 193c 86be
000002a0: 7dcf 96be cc07 1d3e d44d 6cbe ecb8 f1be
000002b0: ce01 d83e 944c 2bbf 043d 25be 3dce f13d
000002c0: 0c8f e7be b79d 2cbf 6b92 ea3e c1c5 4b3c
000002d0: 5689 903e d373 33be eaba f9be 6fb2 833e
000002e0: c0a0 b5be aae7 11bf ee7d d6bd 86d8 ba3e
000002f0: 38d0 063e 2181 883d bed9 87be 2e28 4cbe
00000300: 81d0 13be e17d eb3d e73e 113f c2c4 c8bd
00000310: 29ad ca3e a9ca 1abe d3d4 a1bc 0015 5cbe
00000320: 2749 943e 5dfd 063f fe60 713d 3767 8d3e
00000330: 7998 c93e 270e c33d 827d 8dbe 8621 6e3e
00000340: fb41 6f3d 42d0 1e3b 64d7 6c3e 9174 833e
00000350: e19f 993e f9a2 8b3e c61e e4bd 93a4 003e
00000360: b80c 1d3d 62de 903e 6ca6 633e e7b8 613d
00000370: 70b9 01be aa12 763e 9010 643e 26c4 bb3b
00000380: 8ea8 8abe ff86 2cbd d7a9 703e 3477 b03d
00000390: 4706 e8bc f67d 183e 03dd a53d be41 4ebe
000003a0: dcad abbc 8b56 7b3e 3a10 86bd ae38 9cbc
000003b0: 6b1c f83d 6ea2 82be 1fcf dbbe 1309 c4bc
000003c0: 6fa1 f8bd b943 4e3e 932c 49bd 07a9 2d3e
000003d0: 552e 15bb b70b 523e 216e 0e3e e1e0 533d
000003e0: cf48 2a3e bcc8 5dbe 86d3 893d 1c33 4dbd
000003f0: 2c9d 6cbd cada a7bd 7015 01be 0fd2 103a
0.09313703 0.029480748 -0.25498304 0.033948917 0.3788468 -0.2923564 -0.1788951 0.011002782
-0.14801505 0.21541578 0.21980463 -0.0897583 0.16315722 -0.29962796 -0.52678937 0.10034919
-0.4700508 -0.10770583 0.07153955 -0.22326632 0.06304071 0.17301108 -0.58436894 0.011563757
-0.086138815 -0.5355106 -0.0041071116 0.15232058 0.2508842 0.21911633 -0.2101117 0.030584486
-0.31357232 -0.46625122 -1.0909631 -0.66129977 0.3465799 0.37573755 0.24429218 -0.14225133
0.33277836 0.13596494 0.21915147 0.60078704 -0.33229747 0.05348364 -0.60268515 0.024507936
-0.28362226 0.51438016 -0.22257791 -0.24744721 -0.4015884 0.77178234 -0.10531116 -0.41782826
0.6099 -0.20180391 0.67000616 -0.6123983 0.60061264 0.24912216 0.4827405 0.24206518
-0.11792853 -0.2866778 0.05251272 -0.009053917 0.2642469 -0.064554036 -0.14994088 0.06836656
0.31939963 0.23781253 0.027131947 0.12947874 -0.19376008 -0.28819862 0.017684821 0.070072375
-0.2572546 0.004949512 -0.0029472474 0.03707723 0.19364901 -0.15117906 0.20468636 -0.22854368
0.2672434 -0.17200154 0.0766081 0.028854292 0.223434 0.10825042 -0.04070097 0.090629905
-0.41373843 -0.595308 0.108227536 -0.7876474 0.57271886 0.66635954 0.37561762 -0.18528946
0.50233066 0.58721876 0.5641194 0.4718339 -0.3398601 0.029388 -0.314332 0.18623622
-0.064036615 0.28813887 -0.5193736 0.61318135 0.27230716 0.4012136 0.059686247 -0.39982817
0.58387214 -0.081854194 0.9345641 -0.5162202 0.2741082 -0.35210586 0.7101034 0.28285533
-0.07514773 0.13147712 0.05745875 -0.13564272 -0.04242352 -0.15751772 -0.039349485 -0.10544935
-0.004071413 0.14358056 -0.07414823 -0.019599529 -0.033512842 -0.45905682 -0.15503955 0.21878764
-0.261529 -0.10184424 0.09818346 0.012519685 0.057852674 0.25947085 -0.13115051 -0.08795101
0.06422377 -0.1405001 0.1939353 0.13050003 0.055308517 0.08369233 0.05728619 -0.14572507
0.060780287 0.19334722 -0.12797076 0.37034214 -0.27965572 -0.28097916 0.055928595 -0.26217726
-0.29455176 0.15335006 -0.23076564 -0.47211397 0.42188877 -0.66913724 -0.16136557 0.11806915
-0.45226324 -0.67428154 0.45814833 0.012437285 0.2822978 -0.17524652 -0.48775417 0.25722072
-0.35474205 -0.56994116 -0.10473238 0.3649332 0.13165367 0.066652544 -0.26533312 -0.19937202
-0.14435007 0.11498619 0.56736606 -0.098031536 0.39585236 -0.15116371 -0.019754803 -0.21492386
0.2896206 0.5273035 0.05893039 0.2761781 0.3937414 0.09524184 -0.27634817 0.23254976
0.058412533 0.0024233018 0.2312904 0.2567487 0.3000479 0.27272776 -0.11138682 0.1256278
0.038342208 0.28294665 0.22231454 0.055107977 -0.12668395 0.24030557 0.22271943 0.00573017
-0.27081722 -0.04212093 0.23502289 0.08616486 -0.028323306 0.148918 0.08098795 -0.20142266
-0.020956926 0.24544732 -0.06546064 -0.019069996 0.12114795 -0.2551455 -0.42931458 -0.023930108
-0.12140166 0.20143022 -0.049114775 0.1695901 -0.0022763212 0.20512281 0.13909198 0.051728133
0.16629337 -0.21658605 0.06729798 -0.05009757 -0.05776708 -0.081960276 -0.12605834 0.0005524465

decoder.weight_hh_l0 f4 [128, 1]
00000000: 617f bdbf 487a a73c d4c3 213e 44fb 9f3d
00000010: c4bd 06be cfb7 95bf 8aeb 11bf 3e76 0cbd
00000020: 037b 893d 7742 4a3e 64b2 263c b576 c23e
00000030: c7f5 e63d 8a4a ce3d 44be 3fbe 82c6 c43d
00000040: 007a a83e bd90 8d3e fe52 f43c 562d 43bf
00000050: 1f0e 053e 2a77 c93d ede4 8a3e 8c9e a8be
00000060: f501 38bd af92 733e c047 233e ef39 49bd
00000070: 8846 373e 4eca 063e 4bff 873d 4769 37ba
00000080: 4107 593f b53c af3f c93a 903d 92be 0dbc
00000090: e41d b3bd dc8f 443f b478 a0be 917a 573d
000000a0: e70a c73f 8add 313e 00bd 32be b640 b0bd
000000b0: 410f c43f e4ff 923e f613 86bd c8c0 01be
000000c0: 6419 813f 6698 8e3f eb7c b03e e55f 8f3f
000000d0: 0086 ae3d 0be2 613f 182a ff3e 7034 aabe
000000e0: 6000 cdbd f120 cabd 84c3 a23f 6fe7 d1be
000000f0: cc2c c43e 3dc7 ad3e c765 76be b717 7c3d
00000100: 91e2 24bf 7cdc 273f 99a1 be3e 8bf2 64bf
00000110: 6b65 43be 39dc b9bd e27e 353e e30e 973e
00000120: 18f8 063f 2f94 9b3d 0e59 b83c 34d6 49be
00000130: 2706 023f f3d5 963e 96f4 8b3a 7444 99bd
00000140: 8e13 043f f5f5 b93e 54f8 9ebd 6932 43bf
00000150: 472f f63c 10f1 5d3e 6f10 383e 1201 d93e
00000160: 8954 283e b3a0 c5be f251 dd3e 996c 143c
00000170: abb5 bc3d 29b3 4d3e 716c 2c3e 2152 0c3e
00000180: 531b 0ec0 b807 1ebf fec8 b53e 436f 893e
00000190: dc85 0bbe ba8e d03e 80a7 1ebf 77fc e3be
000001a0: f25b a6be 0573 463e 2416 4fbe 75cf a23d
000001b0: 82fd 97be def4 a23e 3ec4 77bd 310d 3b3d
000001c0: 0691 abbd dc2d dabd d10d b43d 5405 cd3c
000001d0: aa0b 843d e579 3f3e 7c5c 463e 5eee 3bbe
000001e0: e3ef 29be 2486 973e 87f6 9cbe fdec 85be
000001f0: cb04 123e 2e6b 963d 8c86 babd f394 33be
-1.4804498 0.02044405 0.15797359 0.07811597 -0.13158327 -1.1696719 -0.5700003 -0.034292452
0.06712916 0.19751917 0.010174368 0.3798119 0.11277347 0.10072811 -0.18724924 0.09608175
0.3290558 0.2764949 0.02982473 -0.7624105 0.12993668 0.09837182 0.27127782 -0.32933462
-0.04492374 0.23786424 0.15945339 -0.049127515 0.17898 0.1316311 0.0664049 -0.00069965835
0.84776694 1.3690401 0.070424624 -0.008651393 -0.087459356 0.7678201 -0.3134209 0.052607123
1.5550202 0.17369667 -0.1745491 -0.08606093 1.5317155 0.28710854 -0.06546776 -0.12671196
1.0085874 1.1140258 0.34470305 1.120114 0.08521652 0.8823554 0.49836802 -0.33243132
-0.10009837 -0.09869564 1.2715917 -0.40996882 0.38315427 0.3394107 -0.24062262 0.061546054
-0.6440821 0.6557081 0.37232664 -0.8943259 -0.19081657 -0.09075207 0.17724183 0.29503545
0.5272231 0.07596623 0.022503402 -0.19710618 0.5079064 0.29460105 0.0010677751 -0.074837595
0.5159234 0.36320463 -0.077622086 -0.76248795 0.03005184 0.2167399 0.17975019 0.4238363
0.16438498 -0.38599166 0.43226582 0.009059095 0.09214338 0.20087875 0.16838242 0.13703205
-2.2204177 -0.6173053 0.35504907 0.26842698 -0.13625282 0.40733892 -0.61974335 -0.44528553
-0.32492024 0.19379814 -0.2022329 0.079497255 -0.296856 0.31827444 -0.060489886 0.045666877
-0.083772704 -0.10653278 0.08791698 0.025026955 0.06447537 0.18698843 0.19371217 -0.18352649
-0.16595416 0.2959453 -0.30656835 -0.2615737 0.14259641 0.07344662 -0.09107694 -0.17537288

decoder.bias_ih_l0 f4 [128]
00000000: d7bd a1be 0652 253f 1e22 593e 210d 003f
00000010: b7bf 05be 8bd8 b2be eb85 933d 9816 74bd
00000020: e7b8 2d3e 6186 34be 4fa7 d23d 3f98 02bd
00000030: 5db4 043c b0d5 923e b4e0 85bd 1688 753d
00000040: 4047 043d 697b 6cbc f1a0 c2bc eee0 6bbe
00000050: 0424 43be e46e bc3c 50e4 4d3d 8592 1e3f
00000060: 914c 83be d8ff b63e a7f8 0b3e 3d4d 453e
00000070: 8915 003e 47ec 433e fc14 bebd 8aff 6abd
00000080: db1d 883f 56ea b73e e297 93be 971e 3ebf
00000090: f4cc c6be 31e8 473f 5053 34bf 6d70 d1be
000000a0: 8bf3 873d 603b 9bbe 3455 a2be 41ad 29be
000000b0: bd12 4b3e fb1a 51be d7f4 763d 5160 9dbe
000000c0: e093 91bc 9717 fe3d 1ca8 91be 9e1a ac3f
000000d0: 405b 49bd 2701 8e3e 34cf 82bd 7913 32bf
000000e0: dff3 76be 6ccf 00bf 83c2 a23d fde6 033b
000000f0: df90 7cbe 35b2 52be 6956 df3d 829c 17be
00000100: 2e04 b13d 337a 293e 01a6 87be 1114 453e
00000110: 110a 12be 9c6a ed3d 44d6 9b3d c933 8dbd
00000120: ecda cb3d c106 a6bd 4e8b 87be d6cf cf3d
00000130: 1273 1bbd edfa 85be b0ac 853c 56fe 383e
00000140: f020 d43d 478c f4bd d4cb 46be 7d2a 153d
00000150: 3b4c 2abe 4768 203e 4344 ca3d ab8a 3cbe
00000160: 89d9 443c ba08 973d 4d1b d53b 9cce a03c
00000170: fb7b 0fbd 8a4a 473e cdff 1d3e d36b 1cbd
00000180: abf5 09be 5ed3 b73d 8f68 093e ad55 c03e
00000190: 3e56 c33d 1f78 213f 3e69 a33e 1f05 bf3b
000001a0: 22c7 883e 2ac2 60bc 82ce ee3c dfe6 24be
000001b0: 21db 563e e5b9 9fbd 5bc0 e0bd f2f2 363d
000001c0: 7f0b d9bb 0fec a83d 5984 053b f909 2f3f
000001d0: 5ba7 0ebe 8dd0 20bd fa93 0ebe b914 ff3e
000001e0: e6c0 b13c 7ba5 a23c 7a12 8f3d 0b73 d4bd
000001f0: 1c12 e3bc 7d12 8fbd ef26 00be 0ac6 59be
-0.3159015 0.6457828 0.21204421 0.50020033 -0.13061415 -0.34930834 0.07203277 -0.05959186
0.16965066 -0.17629386 0.10285818 -0.031883474 0.008099643 0.28678656 -0.06536999 0.059944235
0.03229451 -0.01443372 -0.023758383 -0.23035023 -0.19056708 0.023002096 0.050266564 0.6194232
-0.25644353 0.35742068 0.13669072 0.19267745 0.12508215 0.19133101 -0.09281346 -0.057372607
1.0634111 0.35920972 -0.28826815 -0.74265426 -0.38828242 0.7808867 -0.70439625 -0.40906087
0.06638249 -0.30318737 -0.3170563 -0.16569997 0.19831367 -0.20420448 0.06029209 -0.30737546
-0.017770708 0.12406843 -0.2844857 1.3445623 -0.04915929 0.27735254 -0.06387177 -0.6956096
-0.24116467 -0.503165 0.079472564 0.0020126693 -0.24664639 -0.20575793 0.10905153 -0.14805797
0.08643375 0.16550522 -0.26493838 0.19245936 -0.14261653 0.115926 0.07609227 -0.06894643
0.099538654 -0.08106757 -0.2647347 0.101470634 -0.037951536 -0.26168004 0.016317695 0.18065771
0.10357845 -0.11940818 -0.19413692 0.036417473 -0.16630642 0.15664779 0.09876301 -0.18412273
0.012014755 0.07374711 0.0065034986 0.019629769 -0.035030346 0.19462028 0.15429612 -0.038188767
-0.13472621 0.08975862 0.13418792 0.37565365 0.09537934 0.63073915 0.3191623 0.005829468
0.26714426 -0.013718167 0.029151205 -0.16103695 0.20982029 -0.077991284 -0.10974189 0.044665284
-0.006623685 0.082481496 0.0020373075 0.6837459 -0.13931029 -0.03926139 -0.13923636 0.49820498
0.021698426 0.019854298 0.06985946 -0.10373505 -0.027718596 -0.06985948 -0.12514852 -0.21266952

decoder.bias_hh_l0 f4 [128]
00000000: 9c01 993b 5ca3 273f 56e5 663e 8e12 263f
00000010: c05a 23be 03c4 bebe 12ea d03d 5a10 2d3d
00000020: 990b 5b3e a2ae 0abe 6901 813d 1b78 3c3e
00000030: 4c81 0e3d 26e7 f93c 18d9 473d 7695 0dbe
00000040: f02c 783d 9fe4 ebbd 8c4f 19bd 70b7 563c
00000050: d4fc 64be 71b1 25be a54a 1cbe 1e10 f03e
00000060: e51c 4abd 24f7 2b3e 9bcc 25be 5e07 1bbc
00000070: c672 1b3d 8620 2d3e 3004 1dbe 659b a83c
00000080: e8eb 643f 6b69 ba3e 2ab7 0cbf a2fe e1be
00000090: 777d f9be 9988 5a3f ab77 e8be 7fbb 66be
000000a0: a25e 1d3e 4beb 33be be7d 0cbf 7cb5 3fbe
000000b0: c55c 753d 77f6 47be aea3 f3ba 246f 1abf
000000c0: 08a4 893c c7e3 d73d 555e 80bd 169b 8f3f
000000d0: 2c32 eebc 1644 eb3c f150 22bd d73e 42bf
000000e0: 1cf3 e6bc 91fa d3be 36ac b93d 318e f13b
000000f0: 665d 93bd 5ca4 7fbe 3d9b c6bc f87b 0abd
00000100: 81ab 733b d8eb bb3d 5158 86be c889 3a3e
00000110: 2440 ab3d 4ada 0e3d 59f2 663e 3069 713e
00000120: 0e86 9fbb fc21 55bd d844 d4bd 3189 9d3d
00000130: 7939 173e 06a5 a1bd a29c ae3d 2091 e1ba
00000140: 0662 ec3d 81d3 003e 5668 5bbe fd65 d33d
00000150: 9597 923d a8e6 57bd 0945 403e fbc3 99be
00000160: aca5 93bd e16e 6b3e deaf a4bd 17ae 803d
00000170: fab4 e7bd 7bb5 593c 0d2a 7fbd 4c96 92bd
00000180: 41bb abbc 79e1 b93e f825 013e 112d c63e
00000190: 7031 5dbe 8493 023f 161f cc3c 80ce d63d
000001a0: 9458 733e 4dc9 b13d 092b 283e 2d7e 673d
000001b0: 0fab a83e f9b7 323e 3a39 2c3d 7443 33be
000001c0: b863 393e efdf efbb 3304 ca3d d7ef 453f
000001d0: a12d 963d 3f6a eabd bf80 1d3e 8b2d 203f
000001e0: b159 0fbe 1014 053e 2ce3 603b 3dd4 383e
000001f0: 5004 08be b381 4d3d a78f 4e3d 1cc3 1dbe
0.0046693813 0.6548364 0.22548422 0.6487206 -0.15952587 -0.3725892 0.10200895 0.042251922
0.21391143 -0.1354318 0.06299097 0.18405192 0.034791276 0.030505728 0.04879102 -0.13826546
0.06058973 -0.115182154 -0.037429377 0.013105258 -0.22362071 -0.1618097 -0.1526285 0.46887296
-0.049343962 0.16793495 -0.16191332 -0.009462206 0.037951253 0.16906938 -0.15333629 0.02058191
0.89422464 0.36408553 -0.54966986 -0.44139582 -0.48728535 0.8536468 -0.454038 -0.22532462
0.15368131 -0.17570226 -0.5487937 -0.18721575 0.059902925 -0.19527613 -0.0018588209 -0.6032584
0.016801849 0.10541492 -0.062679924 1.1219203 -0.029076658 0.02871899 -0.039627973 -0.75877136
-0.028192095 -0.41402104 0.0906605 0.007371687 -0.07195549 -0.24965042 -0.024243945 -0.033809632
0.0037181082 0.09175843 -0.26239255 0.18216622 0.08361843 0.034876145 0.22553386 0.23575282
-0.0048682755 -0.052034363 -0.103646934 0.07692183 0.14768018 -0.07892804 0.08525969 -0.0017209388
0.11542134 0.12580682 -0.2142652 0.10322187 0.07157818 -0.052710205 0.18776335 -0.30032334
-0.07209334 0.22991516 -0.080413565 0.06283205 -0.113138154 0.013287897 -0.062295962 -0.07157573
-0.020963313 0.36304834 0.1261214 0.38706258 -0.2160089 0.5100634 0.024917167 0.104886055
0.23764259 0.08680973 0.16422667 0.056516815 0.32943007 0.17452992 0.042046763 -0.175062
0.18104446 -0.007320396 0.09864082 0.7731909 0.07332922 -0.11446046 0.15381144 0.62569493
-0.13999058 0.12995934 0.0034315092 0.18049712 -0.13282895 0.05017252 0.050429966 -0.1540646

decoder.weight_hr_l0 f4 [1, 32]
00000000: fa61 3ebf 0347 bc3e b0a6 23be f4bc 963e
00000010: f3b1 e9bd f66e 063f 800a 603e d04a 433e
00000020: bd5a 623e 1c0b a6bd bded 0cbe 8036 f23d
00000030: 1670 823e bbee 44be 4956 733d bcd0 013e
00000040: 811b 453e 0b59 093e d8db 25be 162b 813f
00000050: e5de 87bd 405f 403e f37a 653d bfff 72be
00000060: a7f0 e03b 6c61 873e 89df 1d3e c4f8 61be
00000070: 8391 c1bd f2a2 033e eb47 80bd ca54 2dbd
-0.7436825 0.36772928 -0.15981555 0.29441035 -0.11410894 0.5251306 0.21879005 0.19071507
0.22104926 -0.08107588 -0.13762565 0.11826801 0.2547614 -0.19231693 0.05940846 0.12677282
0.19248773 0.13412873 -0.16197145 1.0091274 -0.06634311 0.18786335 0.056025457 -0.23730372
0.0068646255 0.26441514 0.15417303 -0.22067553 -0.09451582 0.12855127 -0.06263717 -0.04231719
