output/synthetic_data/models/model_hidden16_lr0.005_clip5.0.pth (torch, 13735 bytes, 9 tensors)

encoder.weight_ih_l0 f4 [64, 1]
0	0xbe9922af	-0.29909274
1	0x3e826e3b	0.25474724
2	0x3e945e4f	0.28978202
3	0xbe1b73ab	-0.15180843
4	0x3d3f5a65	0.046717066
5	0x3e58f3f5	0.21186812
6	0xbdf4e233	-0.119572066
7	0xbe4d0b51	-0.20023848
8	0xbc36d3a4	-0.0111588575
9	0xbe5e8963	-0.21732096
10	0xbdb6bd30	-0.089228034
11	0xbdb2f0fd	-0.08737371
12	0x3e76090e	0.24026892
13	0xbe5a5938	-0.21323097
14	0x3ea408b4	0.3203789
15	0xbe1e4d7a	-0.15459242
16	0xbe23643a	-0.15956202
17	0x3e9ca0d9	0.30591467
18	0x3e75758d	0.23970623
19	0xbd3dcf2e	-0.04634016
20	0x3e733488	0.23750508
21	0x3f02878f	0.50988096
22	0xbe130057	-0.14355598
23	0xbe54d2f0	-0.20783591
24	0xbe47c97f	-0.19510458
25	0x3d390a06	0.045175575
26	0x3e992892	0.29913765
27	0x3e1b61b8	0.15173995
28	0x3e3497d6	0.17636046
29	0xbe407f7b	-0.1879863
30	0xbd1819e8	-0.03713408
31	0xbce2ae7a	-0.027671088
32	0xbe429fb0	-0.19006228
33	0xbc03f21e	-0.008053331
34	0xbe1530e4	-0.14569432
35	0x3d6e14fe	0.05812549
36	0xbeae92d1	-0.34096387
37	0xbe868144	-0.26270497
38	0x3dd14ea4	0.10220078
39	0xbea67a7a	-0.32515317
40	0xbdcc33b3	-0.09970798
41	0xbd81ef2a	-0.06344445
42	0xbb85bcfc	-0.0040813666
43	0x3d57d2c7	0.052691247
44	0x3e78d1c2	0.24298766
45	0x3d6cb8f5	0.057793576
46	0xbe64f48a	-0.22358909
47	0xbde30fc1	-0.11086989
48	0xbdfd7e70	-0.12377632
49	0xbd989d77	-0.07451909
50	0xbe1dbaff	-0.15403365
51	0xbd80a718	-0.062818706
52	0xbdadfb21	-0.08495165
53	0x3e18c1ac	0.1491763
54	0x3d3afc73	0.04565091
55	0xbd177d7d	-0.03698491
56	0x3d88f8cc	0.06688079
57	0xbe237d41	-0.1596575
58	0x3e8038ab	0.25043234
59	0x3e2cd8e8	0.16879618
60	0xbdef5cd7	-0.1168763
61	0xbe04e64a	-0.12978473
62	0xbe12863c	-0.14309019
63	0x3d4b5c38	0.049648494

encoder.weight_hh_l0 f4 [64, 16]
0	0x3eac1fd2	0.33618027
1	0xbe0e9c27	-0.13926755
2	0x3dc421f9	0.09576792
3	0x3deb8405	0.1149979
4	0x3e4a65ec	0.19765443
5	0x3e8be4c1	0.27322963
6	0xbe5f8e50	-0.21831632
7	0xbdc61ad9	-0.096730895
8	0xbeb4ce99	-0.35313872
9	0xbe080586	-0.13283357
10	0x3d6ca956	0.05777868
11	0x3e87ea7a	0.2654608
12	0x3dc2c6ed	0.09510598
13	0xbcef1534	-0.029184915
14	0x3e3fd8ca	0.18735042
15	0x3d58932f	0.05287474
16	0x3c5e235c	0.013558235
17	0xbdd60493	-0.10450091
18	0xbd4d4948	-0.050118715
19	0x3cd34fcd	0.025794888
20	0xbe934c82	-0.28769308
21	0x3e2253e8	0.1585232
22	0xbdbae907	-0.09126478
23	0xbe2b629b	-0.16736834
24	0xbe60fa99	-0.21970595
25	0xbd630e24	-0.055433407
26	0xbd219cd7	-0.039456215
27	0xbe132a72	-0.1437166
28	0x3e3e6f07	0.18597041
29	0xbda17f89	-0.078856535
30	0x3d49ac6d	0.049236704
31	0xbd93553f	-0.07193994
32	0xbde9a574	-0.11408511
33	0xbe306b96	-0.17228541
34	0xbe48c76b	-0.19607322
35	0xbe87a5e8	-0.26493764
36	0xbe4fd440	-0.2029581
37	0xbe6f2545	-0.23354061
38	0x3e873748	0.26409364
39	0x3e652bf4	0.22380048
40	0xbea41ecf	-0.32054755
41	0xbe66a688	-0.22524464
42	0x3e7596ba	0.23983279
43	0x3db33fba	0.08752389
44	0x3e59d5d4	0.21272975
45	0xbd8b14dd	-0.06791089
46	0xbe9edea4	-0.31029236
47	0xbe2b5190	-0.16730332
48	0xbd8bc0d3	-0.06823888
49	0x3e85069f	0.25981614
50	0x3e62c1fa	0.22144309
51	0xbd8f72fb	-0.07004353
52	0x3e253a88	0.16135609
53	0x3de76524	0.11298588
54	0xbddf86cb	-0.109143816
55	0x3e96e9e4	0.2947532
56	0xbe57e581	-0.21083643
57	0xbe3b03ed	-0.18263216
58	0xbe0d406a	-0.13794103
59	0x3ec428ed	0.38312474
60	0x3c6b6925	0.01436833
61	0xbdf3ba26	-0.11900739
62	0xbe835861	-0.25653365
63	0xbb084ee6	-0.002079898
64	0xbe0c42df	-0.13697384
65	0xbd88c979	-0.06679053
66	0xbe338d54	-0.17534381
67	0x3e420bb3	0.18949775
68	0x3d1119a5	0.035424847
69	0xbe0b9b0a	-0.13633361
70	0x3da53caf	0.08068215
71	0xbd3fbae7	-0.046809103
72	0xbe1609c9	-0.1465217
73	0xbe08c8ba	-0.13357821
74	0x3d3ee705	0.046607036
75	0x3dc952d8	0.09830254
76	0xbe4be9e1	-0.19913436
77	0x3bf260df	0.007396802
78	0xbc2745c1	-0.010209502
79	0x3dfc05e4	0.12305811
80	0x3dae3781	0.0850668
81	0xbe3d551e	-0.18489501
82	0xbe9743d4	-0.29543936
83	0xbe321c19	-0.17393531
84	0xbe9892c6	-0.2979948
85	0xbb62493a	-0.003452851
86	0xbe9c59e7	-0.3053734
87	0x3e1394e4	0.14412266
88	0xbeed454f	-0.4634194
89	0xbe8a2fa3	-0.2698947
90	0xbd4044e6	-0.046940707
91	0x3d611800	0.05495453
92	0x3e190669	0.14943852
93	0x3ddcfa31	0.10789908
94	0xbe40a65c	-0.18813461
95	0xbd65c67b	-0.05609749
96	0x3d8d2bdf	0.06893133
97	0x3ca7c2a0	0.020478547
98	0x3ddd39e1	0.10802055
99	0xbd94b840	-0.072617054
100	0xbe686155	-0.22693379
101	0xbd0f820a	-0.035036124
102	0xbee4bfb4	-0.44677508
103	0x3f228884	0.63489556
104	0xbecfe8f0	-0.40607405
105	0xbe2c22b5	-0.16810115
106	0x3dafb995	0.08580319
107	0xbd360af4	-0.04444404
108	0xbde5e741	-0.11225749
109	0xbdfabdcb	-0.122432314
110	0xbe8a2334	-0.26979983
111	0xbe22430b	-0.15845887
112	0x3ebc87ac	0.3682226
113	0xbe8e47c8	-0.2778914
114	0x3d9ca9ff	0.07649612
115	0xbe395dde	-0.18102214
116	0x3e7267fc	0.2367248
117	0xbda7170d	-0.081586935
118	0xbe6a45d1	-0.22878195
119	0x3e7cb58f	0.24678634
120	0xbe311d6f	-0.17296384
121	0x3e5dfa37	0.2167748
122	0xbe901cd3	-0.2814699
123	0x3e8db754	0.2767893
124	0x3e01f9b6	0.12692913
125	0xbe4b2906	-0.19839868
126	0xbdfb38c0	-0.122666836
127	0x3e2c97ae	0.16854736
128	0x3de57351	0.112036355
129	0x3e1b35d3	0.15157251
130	0xbe9e1608	-0.30876184
131	0xbd2bce4a	-0.04194478
132	0x3c20ae70	0.009807214
133	0x3dbe07db	0.09278842
134	0xbf23918d	-0.6389397
135	0x3e6137fc	0.21994013
136	0xbe5b374a	-0.2140781
137	0x3d1c652e	0.03818243
138	0x3dcbc8f7	0.099504404
139	0x3decc102	0.11560251
140	0x3e493828	0.19650328
141	0xbdd84ab2	-0.10561122
142	0xbe59905b	-0.21246473
143	0xbe90a7e7	-0.282531
144	0x3e4237da	0.18966618
145	0x3c18b0f7	0.009319535
146	0xbe71df71	-0.23620392
147	0xbd74f279	-0.059801552
148	0xbe59bf42	-0.21264365
149	0x3e9c1480	0.3048439
150	0xbd6bc6a5	-0.05756249
151	0x3ea3a5d2	0.31962448
152	0xbd89c921	-0.067278154
153	0x3c23bcd3	0.00999375
154	0xbe2e0186	-0.16992769
155	0x3eb5c8f9	0.35504892
156	0x3d5b6d5a	0.053571083
157	0xbe94c34b	-0.29055247
158	0xbe4c03ec	-0.19923371
159	0xbdd16ed4	-0.10226217
160	0xbc9d5940	-0.019207597
161	0x3e61d466	0.2205368
162	0xbe3386e6	-0.17531928
163	0xbe4c7ddf	-0.19969891
164	0x3e65bf4f	0.2243626
165	0x3c46bf59	0.012130582
166	0x3e358fee	0.17730686
167	0x3d3318f8	0.043724984
168	0x3cc46d18	0.023977801
169	0xbd5dd2a4	-0.05415596
170	0x3e59ffe4	0.21289021
171	0x3d5747ac	0.052558586
172	0x3dd44c55	0.10366122
173	0x3b4b32d9	0.003100565
174	0xbd07b2ed	-0.03312962
175	0x3dab168d	0.083539106
176	0x3d7e49fe	0.062082283
177	0xbef335e9	-0.47502068
178	0xbe603a33	-0.21897201
179	0x3d175685	0.036947746
180	0xbe891547	-0.26774046
181	0xbf6f6e3a	-0.9352757
182	0xbc1982a5	-0.009369527
183	0xbe3ac3e5	-0.1823879
184	0xbece4e36	-0.40294045
185	0x3e10c3ed	0.1413724
186	0xbdee1977	-0.11625951
187	0x3e5c1f06	0.2149621
188	0x3d968d80	0.07351208
189	0x3e38c06a	0.1804215
190	0xbe1fa13a	-0.15588847
191	0xbe341c18	-0.17588842
192	0xbe39e1a7	-0.18152486
193	0xbe64c66b	-0.22341315
194	0xbe1cfcc6	-0.153308
195	0x3db80c0b	0.08986672
196	0xbe971f89	-0.29516247
197	0xbe357e1f	-0.17723893
198	0x3e1d3c5a	0.15355054
199	0x3e065a61	0.13120414
200	0xbe76c2d8	-0.24097764
201	0x3dc29c23	0.09502437
202	0xbe405d52	-0.18785599
203	0x3e8750dd	0.2642888
204	0xbd87a0f2	-0.06622495
205	0x3e502638	0.2032708
206	0xbde03e2e	-0.1094936
207	0xbe1af91f	-0.15134095
208	0x3e43bf12	0.19115856
209	0xbd22cbe1	-0.039745215
210	0x3da6862c	0.0813106
211	0x3cdd2b23	0.026998108
212	0x3dd99a04	0.10625079
213	0x3dbf647d	0.093453385
214	0xbe945c61	-0.2897673
215	0x3eb808ec	0.35944307
216	0xbecf4fca	-0.40490562
217	0xbdcddf7c	-0.10052392
218	0xbde693d7	-0.11258667
219	0x3ecd145f	0.40054604
220	0x3e3bf335	0.18354495
221	0xbe8b2850	-0.27179193
222	0x3e4496e0	0.19198179
223	0xbe2feae8	-0.17179453
224	0xbdbe4754	-0.092909485
225	0x3ba5771b	0.005049599
226	0x3dc2cb52	0.095114365
227	0x3e240dc6	0.16020879
228	0xbe41bd5c	-0.18919891
229	0x3e55e810	0.20889306
230	0x3dc82c95	0.09774128
231	0x3e2e5610	0.17025018
232	0xbef26f1d	-0.47350398
233	0xbe68d01d	-0.22735639
234	0x3deba20b	0.115055166
235	0xbd4e8764	-0.050422087
236	0xbe00d0f9	-0.12579717
237	0x3d9ee5a4	0.07758644
238	0x3d1116b4	0.035422042
239	0x3dc9a506	0.09845929
240	0xbdc42336	-0.095770285
241	0xbd881027	-0.06643706
242	0xbe2c221f	-0.16809891
243	0x3e3bf61b	0.183556
244	0xbdb43dd3	-0.088008545
245	0x3e408940	0.18802357
246	0x3e699f86	0.2281476
247	0xbdf4a0a0	-0.11944699
248	0xbd550a68	-0.052011877
249	0x3e729925	0.23691233
250	0xbe4a918d	-0.19782086
251	0xbe172c2d	-0.14762945
252	0x3c5638db	0.013075079
253	0x3e9a59bf	0.30146596
254	0x3cb7ac9e	0.022421177
255	0xbd26e14c	-0.040742204

encoder.bias_ih_l0 f4 [64]
0	0xbe1a1a5c	-0.15049118
1	0x3d24df06	0.040251754
2	0xbe05bb68	-0.13059771
3	0xbdc183bf	-0.09448957
4	0x3e80a545	0.2512609
5	0x3cb87def	0.022520987
6	0x3db422ba	0.08795686
7	0x3e2f6e0a	0.1713182
8	0x3e535da8	0.20641196
9	0xbda3457a	-0.07972236
10	0x3e92bae9	0.28658226
11	0xbe9167b9	-0.28399447
12	0x3dd0ae3a	0.10189481
13	0xbcd41431	-0.025888534
14	0xbe08ba12	-0.1335223
15	0xbe0b1825	-0.13583429
16	0x3e3ed864	0.18637234
17	0xbd8a0576	-0.06739323
18	0x3c1b3a80	0.009474397
19	0x3e0fc468	0.14039767
20	0x3cd1aa87	0.02559401
21	0x3eb23a57	0.34810135
22	0x3ca74b94	0.02042178
23	0x3e9fbde1	0.31199554
24	0x3deb1eae	0.11480461
25	0x3d45dbe8	0.048305422
26	0x3e4472bf	0.19184397
27	0xbc9b638b	-0.018968364
28	0x3ddec9d4	0.108783394
29	0xbe61b365	-0.2204109
30	0x3cf9eab4	0.030507423
31	0x3d3d8154	0.046265915
32	0x3e0a7000	0.13519287
33	0xbd4fc636	-0.050726138
34	0xbe559145	-0.20856197
35	0xbe6d622f	-0.23181985
36	0xbe03d608	-0.12874615
37	0xbde1f877	-0.11033719
38	0xbe4e4afc	-0.20145792
39	0xbe3e71d9	-0.18598117
40	0xbe78e692	-0.24306706
41	0xbe29584b	-0.16537587
42	0x3e4fb2d0	0.20283055
43	0xbd6f40a7	-0.058411267
44	0x3e16f473	0.14741687
45	0xbe3ceb2a	-0.18449083
46	0xbd74752e	-0.059682064
47	0xbe8a8ee1	-0.27062133
48	0x3d500713	0.050787997
49	0x3e28cb9b	0.1648392
50	0x3d2a5f47	0.04159477
51	0xbe4a8e72	-0.19780901
52	0x3e9bb044	0.30407917
53	0xbe297a84	-0.16550642
54	0x3d9f25bd	0.0777087
55	0xbd8bff3d	-0.06835792
56	0x3ea7b41c	0.327546
57	0x3e22c032	0.15893629
58	0x3e6dd14a	0.23224369
59	0xbbe2d7d8	-0.0069227032
60	0xbe5a9ed2	-0.21349648
61	0x3e2d8704	0.16946036
62	0x3e9362db	0.28786358
63	0x3e40539b	0.18781893

encoder.bias_hh_l0 f4 [64]
0	0xbe18d289	-0.14924063
1	0xbd4af2ec	-0.049548075
2	0x3da69649	0.08134133
3	0x3da83ba0	0.082144976
4	0x3bf89757	0.0075864005
5	0xbd09596b	-0.03353254
6	0x3e6dc392	0.23219135
7	0xbe0dd921	-0.1385236
8	0xbdac4097	-0.08410757
9	0x3ddaa1fc	0.10675427
10	0x3e10c538	0.14137733
11	0x3cc599ef	0.024121253
12	0xbdbb4874	-0.09144679
13	0xbdaa38aa	-0.08311589
14	0xbdef7bf5	-0.11693565
15	0xbd036350	-0.032077134
16	0xbba0055b	-0.004883451
17	0x3d261d88	0.040555507
18	0x3da23127	0.07919531
19	0x3dd6c051	0.104859
20	0x39ce3e67	0.00039337875
21	0x3dc86b67	0.0978611
22	0x3e8a1b08	0.26973748
23	0x3e082980	0.13297081
24	0x3e9e7a36	0.30952615
25	0x3e37d2fb	0.17951576
26	0x3dd1b64f	0.10239851
27	0x3ea0de1d	0.3141946
28	0xbe60a8df	-0.21939419
29	0xbd08bb1a	-0.03338156
30	0xbe055b84	-0.13023192
31	0x3e86a935	0.2630097
32	0xbe05dc18	-0.1307224
33	0xbddbff30	-0.107420325
34	0xbe87468e	-0.26421016
35	0xbe2c8854	-0.1684888
36	0xbe18eeb7	-0.14934812
37	0x3ceddc73	0.029035782
38	0x3e217114	0.15765792
39	0x3d828755	0.06373469
40	0x3e134ed7	0.14385544
41	0xbdfaf32f	-0.12253415
42	0x3df4e132	0.11957015
43	0x3e1068e8	0.14102519
44	0xbc07475d	-0.00825676
45	0x3e3f2f52	0.18670395
46	0xbe5f5ee2	-0.21813539
47	0xbd742347	-0.059603956
48	0x3d3d3075	0.04618879
49	0xbe38428c	-0.17994136
50	0xbd59be99	-0.053160284
51	0x3ddee167	0.10882836
52	0x3dcbcfda	0.09951754
53	0x3dcad164	0.09903219
54	0x3e8a5822	0.27020365
55	0x3ddc9358	0.10770291
56	0x3ed8bb2d	0.42330304
57	0xbe49b4c8	-0.19697869
58	0x3e720168	0.23633349
59	0xbd07b121	-0.033127908
60	0x3e126f2a	0.14300218
61	0xbd923b8a	-0.071402624
62	0x3e0364cd	0.12831421
63	0xbe04b95f	-0.12961338

decoder.weight_ih_l0 f4 [64, 16]
0	0x3f561a34	0.8363373
1	0x3ea5e1bd	0.32398787
2	0xbe936c16	-0.287934
3	0xbee647cb	-0.4497665
4	0xbde22df6	-0.110439226
5	0x3eb7f079	0.35925654
6	0xbf7d2fc4	-0.9890101
7	0x3ed796b5	0.42107168
8	0xbf2b5cfc	-0.6693876
9	0xbdb225bb	-0.08698603
10	0x3ef12dbf	0.47105214
11	0x3ec94923	0.3931361
12	0x3f008976	0.5020975
13	0xbf476cae	-0.7790021
14	0xbee09dca	-0.43870384
15	0x3df9be64	0.12194517
16	0xbd9f211a	-0.077699855
17	0xbe29e336	-0.1659058
18	0xbda4bc85	-0.0804377
19	0xbd8b6d5c	-0.06807968
20	0xbe3c4abd	-0.18387885
21	0xbe8a279e	-0.2698335
22	0x3d2e00ce	0.042481236
23	0xbd752623	-0.059850823
24	0xbd6881bb	-0.056764346
25	0xbe0c95f1	-0.13729073
26	0x3e87b0fc	0.26502216
27	0x3d0a857e	0.033818714
28	0x3d86eca9	0.06588108
29	0xbdf74c8c	-0.12075147
30	0xbe61f8d2	-0.22067574
31	0xbd08ee65	-0.033430476
32	0xbd912b43	-0.0708833
33	0xbe1bfa42	-0.15232185
34	0x3daf427d	0.085576035
35	0x3ddfd685	0.10929588
36	0xbe414914	-0.18875533
37	0x3e5e272a	0.21694627
38	0x3e09df9b	0.13464205
39	0x3ceeacf2	0.029135201
40	0xbe4aeabe	-0.1981611
41	0x3df4762d	0.11936603
42	0xbda18a9f	-0.07887768
43	0x3e061cf4	0.13096982
44	0xbe45cb04	-0.19315726
45	0x3e94cf22	0.2906428
46	0x3d190f92	0.037368365
47	0x3e60114f	0.21881603
48	0x3d9ff2e6	0.07810001
49	0x3de60329	0.112310715
50	0xbebbcbbf	-0.36678883
51	0x3c1f81fd	0.009735581
52	0x3dd823a4	0.10553673
53	0x3d8e13e3	0.06937387
54	0x3e22a9c6	0.15885076
55	0xbd28eb46	-0.04124
56	0xbe992e10	-0.29917955
57	0xbe55ad2c	-0.20866841
58	0xbd6e5f3c	-0.05819629
59	0x3e40bf96	0.18823084
60	0x3e130f88	0.14361393
61	0xbe40f0a6	-0.188418
62	0xbdc5bab3	-0.09654751
63	0xbe804ef6	-0.25060242
64	0xbe209242	-0.15680793
65	0x3dfc3c88	0.12316233
66	0xbe4b0dea	-0.19829527
67	0xbe56f02d	-0.20990057
68	0x3e28bb14	0.16477615
69	0x3e048f80	0.12945366
70	0x3d969a06	0.073535964
71	0xbd3486d1	-0.044073883
72	0xbd062684	-0.032751575
73	0x3d38a380	0.0450778
74	0xbddd4e31	-0.108059295
75	0x3e599884	0.21249586
76	0x3ccbf444	0.024896748
77	0x3dd3c253	0.10339799
78	0xbd97f1b4	-0.07419148
79	0xbccc93cd	-0.02497282
80	0x3c60585e	0.013692943
81	0xbe24323d	-0.1603479
82	0xbe8903b3	-0.26760635
83	0xbe040536	-0.12892613
84	0xbe776769	-0.24160542
85	0xbd48e62e	-0.04904764
86	0xbe4d938f	-0.2007582
87	0x3cf025d8	0.02931492
88	0xbeb27f89	-0.34862927
89	0x3c119959	0.008886659
90	0xbd460940	-0.048348665
91	0x3e462590	0.19350266
92	0xbc6805da	-0.014161551
93	0x3dd1c682	0.102429405
94	0x3cbfbc94	0.02340535
95	0x3e159fa6	0.14611682
96	0x3dfc116f	0.12308013
97	0x3cb01393	0.021493709
98	0xbdade558	-0.084910095
99	0xbc704556	-0.0146649685
100	0x3a798430	0.00095182937
101	0xbe0cf687	-0.13765918
102	0x3d8d4e88	0.06899744
103	0x3e0ac733	0.13552551
104	0x3d2d258a	0.04227213
105	0xbe6f128a	-0.23346916
106	0xbc835b9f	-0.0160349
107	0x3e35e374	0.17762548
108	0xbc6457d4	-0.0139369555
109	0xbe09b39e	-0.13447425
110	0x3e4a095b	0.19730131
111	0xbe7060c6	-0.23474416
112	0x3d7943e9	0.06085578
113	0x3dc54a7e	0.09633349
114	0xbe17c1db	-0.14820044
115	0xbe8def12	-0.2772146
116	0xbed476d0	-0.41496897
117	0x3e7c6d8c	0.24651164
118	0xbe576134	-0.21033174
119	0xbd2a65b8	-0.041600913
120	0xbe9211cd	-0.28529206
121	0x3dd7bfed	0.10534654
122	0x3cfb2855	0.03065888
123	0xbe012b78	-0.12614238
124	0x3e928ac0	0.28621483
125	0xbc6403f3	-0.013916957
126	0xbeabb7b7	-0.335386
127	0xbe76801e	-0.2407231
128	0x3ebc27f0	0.3674922
129	0xbd0ced36	-0.03440591
130	0x3d84fdf6	0.06493752
131	0x3da7a200	0.08185196
132	0x3ef3c7cb	0.47613367
133	0x3d831a82	0.0640154
134	0xbd996b32	-0.07491149
135	0x3e137143	0.14398675
136	0xbea01f6b	-0.3127397
137	0xbe53bb32	-0.20676878
138	0xbcb66aa9	-0.022267656
139	0x3eb811e7	0.35951158
140	0x3e533d46	0.20628843
141	0x3b80ea5b	0.0039341873
142	0x3cf70f06	0.03015853
143	0x3df029fe	0.117267594
144	0x3db8a9dc	0.09016773
145	0x3e883db3	0.26609573
146	0x3e52f7c6	0.2060233
147	0xbe5fdb26	-0.21860942
148	0x3e36b00a	0.17840591
149	0x3e28fed1	0.16503455
150	0xbe30fa91	-0.17283083
151	0x3d05ec68	0.032696158
152	0xbe838254	-0.2568537
153	0xbe38db4a	-0.18052402
154	0xbd3a1de9	-0.04543868
155	0xbe3982b7	-0.1811627
156	0x3d82a50b	0.06379136
157	0xbdb1e002	-0.08685304
158	0xbd3e6e47	-0.046491887
159	0x3cea0a7f	0.028569458
160	0xbc654b1a	-0.013994956
161	0x3e54a129	0.20764603
162	0xbe1a54d0	-0.15071416
163	0xbd27e228	-0.040987164
164	0xbe4e2ad1	-0.2013352
165	0x3e95b6f3	0.29241142
166	0xbe9ceddb	-0.3065022
167	0x3e82c163	0.25538167
168	0xbecb3fcb	-0.39697108
169	0xbeafb23f	-0.34315678
170	0x3d7742ec	0.060366556
171	0x3ea14bde	0.31503195
172	0x3e9432af	0.2894492
173	0xbe8216cc	-0.25408018
174	0xbead612c	-0.338632
175	0xbe3897aa	-0.18026605
176	0x3da12df1	0.07870091
177	0x3de43f44	0.111448795
178	0xbe05de19	-0.13073005
179	0x3e56c5c7	0.20973884
180	0x3e17d48d	0.14827175
181	0xbd498b8f	-0.04920536
182	0xbe42b675	-0.19014914
183	0x3e9037a9	0.28167465
184	0xbe189524	-0.14900643
185	0x3e6d6013	0.2318118
186	0x3ccdd97e	0.025128122
187	0xbd23378f	-0.039847907
188	0xbdd99eaf	-0.106259696
189	0x3d9aa149	0.07550294
190	0xbdb94b53	-0.0904757
191	0x3ddd7932	0.10814132
192	0x3e6a7091	0.22894503
193	0xbe1469e5	-0.1449352
194	0xbe572e86	-0.21013841
195	0xbd98237d	-0.07428644
196	0xbdf31ce1	-0.118707426
197	0xbe461b34	-0.19346315
198	0xbe625cbb	-0.22105686
199	0x3d32c851	0.043648068
200	0xbda619cd	-0.0811039
201	0xbcea520e	-0.02860358
202	0x3e08a8ff	0.13345717
203	0x3dc39523	0.0954993
204	0xbd44a2b9	-0.048006747
205	0xbd88cbb0	-0.06679475
206	0xbe8a0129	-0.2695401
207	0x3e325329	0.17414536
208	0xbdc2fd0f	-0.09520923
209	0x3dd5a54e	0.1043192
210	0xbdfe9163	-0.12430074
211	0x3d50de0b	0.050993007
212	0x3e43940b	0.19099443
213	0x3c359593	0.011083025
214	0x3e6cff30	0.23144221
215	0x3d00fd81	0.03149176
216	0x3d9f5ed6	0.077817604
217	0x3e194834	0.1496895
218	0x3df2137a	0.11820121
219	0xbdb0742b	-0.08615907
220	0xbc28d5d8	-0.010304891
221	0xbdba781c	-0.0910494
222	0x3e0e9845	0.13925274
223	0x3e073094	0.13202125
224	0xbd37eb36	-0.04490205
225	0xbc6abf4d	-0.014327836
226	0xbd9a6da7	-0.07540446
227	0x3e12a588	0.14320958
228	0x3d9ade1f	0.075618975
229	0xbe156a70	-0.14591384
230	0xbe89213a	-0.26783162
231	0x3e33f2b9	0.1757306
232	0xbe50c5a7	-0.20387898
233	0xbdeb3d44	-0.11486295
234	0x3dd3d9eb	0.10344299
235	0x3d2c2ec8	0.0420368
236	0x3d6e7ea3	0.05822624
237	0xbe9297ba	-0.28631383
238	0xbdf64c27	-0.12026244
239	0xbe3cf802	-0.18453982
240	0x3caf297f	0.021382092
241	0xbe461ec1	-0.19347669
242	0xba83f9d5	-0.0010068963
243	0xbd1533ac	-0.03642623
244	0xbd3df017	-0.046371546
245	0x3d52abd0	0.051433384
246	0x3e4a77d8	0.1977228
247	0xbe130db1	-0.14360692
248	0xbe3a7663	-0.18209223
249	0xbe6c59a0	-0.23081064
250	0x3d32bf03	0.043639194
251	0x3da4c55e	0.08045457
252	0xbe35094e	-0.1767933
253	0x3e223e18	0.15844
254	0x3e21e38a	0.15809456
255	0xbe2496a1	-0.16073085

decoder.weight_hh_l0 f4 [64, 1]
0	0x3cb1e1ee	0.021714177
1	0x3e84f76a	0.25970012
2	0x3e1eb0c1	0.15497114
3	0x3c17b989	0.009260544
4	0xbdf94507	-0.12171369
5	0x3da1971e	0.078901514
6	0xbdf9f498	-0.12204856
7	0xbead50cc	-0.33850706
8	0xbee6b3cb	-0.45059046
9	0xbe0024f1	-0.12514092
10	0xbe1acafb	-0.15116493
11	0xbcddbdf2	-0.027068112
12	0x3dea9fb4	0.11456242
13	0x3edccfe5	0.4312736
14	0x3eb0daca	0.34541923
15	0xbe023c93	-0.1271842
16	0xbdd18cf6	-0.10231964
17	0xbdc03149	-0.093844004
18	0xbd00de07	-0.03146174
19	0xbd350293	-0.044191908
20	0xbe5d60df	-0.21618985
21	0x3d6e0ea1	0.05811942
22	0xbe6ad8ca	-0.22934261
23	0x3f00d2dc	0.50321746
24	0x3f01c4cf	0.5069093
25	0xbd6eebff	-0.058330532
26	0x3ec640cb	0.38721308
27	0x3e87e2e1	0.26540282
28	0xbd17fb89	-0.037105117
29	0x3ec00e2b	0.3751081
30	0x3e8bafbf	0.2728252
31	0xbe2c10c7	-0.16803275
32	0xbefc34fd	-0.49259177
33	0xbe288e43	-0.16460519
34	0xbda4614f	-0.08026373
35	0xbe49f702	-0.19723132
36	0xbe7c6b3e	-0.24650285
37	0x3c39bf60	0.011337131
38	0xbe1c6a07	-0.15274821
39	0xbec609e9	-0.38679436
40	0xbe992c3f	-0.2991657
41	0xbeb06be0	-0.34457302
42	0xbeb359ca	-0.3502944
43	0x3e93a738	0.28838515
44	0xbe380063	-0.17968898
45	0xbda0e9de	-0.078571066
46	0xbd3a4fea	-0.04548637
47	0xbe3c68d7	-0.18399368
48	0x3dbc3327	0.09189444
49	0xbe331954	-0.1749013
50	0x3ca68d4f	0.020331053
51	0x3e989c5c	0.29806793
52	0xbd911267	-0.07083588
53	0x3e6b5105	0.22980125
54	0x3d748c0b	0.059703868
55	0x3dfec4fa	0.12439914
56	0x3dfd8019	0.12377948
57	0x3e87963c	0.26481807
58	0xbe2c6d9a	-0.16838685
59	0x3def07fe	0.11671446
60	0x3e839927	0.25702783
61	0xbd38c3a8	-0.045108467
62	0x3e4c7806	0.1996766
63	0x3e21efe3	0.15814166

decoder.bias_ih_l0 f4 [64]
0	0xbd3db2ec	-0.04631321
1	0x3b00c115	0.0019646336
2	0x3daa7117	0.083223514
3	0x3e471c56	0.19444403
4	0xbd1d930f	-0.038470324
5	0x3db6cd74	0.08925906
6	0xbe3065fb	-0.17226402
7	0x3d1de109	0.03854469
8	0x3d9bb638	0.07603115
9	0xbe16c478	-0.14723384
10	0x3e7c99a0	0.24667978
11	0xbe48d731	-0.19613339
12	0xbd1d230d	-0.038363505
13	0x3e09b587	0.13448153
14	0xbde16767	-0.110060506
15	0x3e7e3445	0.24824627
16	0xbe7974cc	-0.2436096
17	0x3ca69811	0.020336183
18	0xbdc5cd90	-0.096583486
19	0xbe9534d9	-0.29141882
20	0xbe13c85d	-0.14431901
21	0xbd90defb	-0.0707378
22	0xbde7e42d	-0.11322818
23	0x3e588b0c	0.21146792
24	0x3e4aabcb	0.19792096
25	0xbdca8815	-0.09889237
26	0xbe6c040f	-0.23048423
27	0xbe0ed4d8	-0.13948381
28	0xbdac24ff	-0.08405494
29	0xbdd93f96	-0.10607831
30	0xbd89c1b8	-0.06726402
31	0xbe2f42ee	-0.17115375
32	0xbc4e02de	-0.012573926
33	0xbe8ecc67	-0.27890322
34	0x3ca0697d	0.01958155
35	0x3e24bb0e	0.1608698
36	0xbdac57f9	-0.08415217
37	0x3e877679	0.26457575
38	0x3d242d88	0.040082484
39	0x3dbb0505	0.09131817
40	0xbe2d4a07	-0.1692277
41	0x3e0766b9	0.1322278
42	0x3e0fb88c	0.14035243
43	0xbdaed74b	-0.085371576
44	0xbd7ed139	-0.06221125
45	0xbe952a98	-0.2913406
46	0xbdb9eb8d	-0.09078131
47	0xbe82af20	-0.25524235
48	0x3dcf4c73	0.101220034
49	0x3e4865d6	0.19570097
50	0x3e5f089e	0.21780631
51	0x3e2cee1b	0.16887705
52	0xbe356d7c	-0.17717546
53	0x3d27a04e	0.040924363
54	0xbcba3805	-0.02273179
55	0xbc878a20	-0.016545355
56	0x3ebbcf9a	0.36681825
57	0x3cd88144	0.026428826
58	0x3e98394d	0.29731217
59	0xbe02d79a	-0.12777558
60	0x3d0aa084	0.033844486
61	0xbd9240ef	-0.07141291
62	0x3e461395	0.19343407
63	0xbdac7111	-0.08420003

decoder.bias_hh_l0 f4 [64]
0	0x3ed0f05a	0.40808374
1	0x3eae288e	0.34015316
2	0xbe25b9d4	-0.16184169
3	0x3dfea039	0.12432904
4	0x3e855f49	0.2604926
5	0x3cbe5a0e	0.0232363
6	0x3d936afc	0.0719814
7	0x3e30415e	0.17212436
8	0x3ca5b49c	0.020227723
9	0xbe3252c9	-0.17414393
10	0x3e439799	0.19100799
11	0xbe375234	-0.17902452
12	0x3e3aead3	0.18253641
13	0xbe5ce9b4	-0.21573526
14	0x3d203b56	0.039119087
15	0xbe149fbd	-0.1451406
16	0x3e466c66	0.19377288
17	0xbe934c17	-0.2876899
18	0x3d4f4dce	0.05061131
19	0xbd2872a7	-0.041124966
20	0xbcc1b1d6	-0.02364437
21	0xbea11735	-0.31463018
22	0x3d627c5b	0.055294376
23	0x3e4d3ded	0.20043154
24	0x3ecad7f5	0.39617887
25	0xbd19d41a	-0.03755579
26	0x3e2f2f9f	0.1710801
27	0x3dcfa570	0.101389766
28	0xbe1dfec5	-0.15429218
29	0x3e14213d	0.14465804
30	0x3d341462	0.04396475
31	0xbd8f4caf	-0.06997048
32	0x3bc7cc3b	0.006097344
33	0xbe99ec25	-0.30062976
34	0xbde1a876	-0.110184595
35	0x3e86b5b8	0.26310515
36	0xbe7fde31	-0.24987103
37	0x3dab6d52	0.083704606
38	0x3e42a619	0.19008674
39	0x3dbe655a	0.09296675
40	0x3d5ff447	0.05467632
41	0xbd1c602f	-0.038177665
42	0xbe2943bd	-0.16529746
43	0xbe3f692b	-0.18692462
44	0xbd7b51d9	-0.061357353
45	0x3e425872	0.18979052
46	0xbccb867e	-0.024844404
47	0xbd470b4f	-0.04859477
48	0xbd046a00	-0.032327652
49	0x3ea651c0	0.32484245
50	0x3e1cb8ff	0.15304945
51	0xbde6f202	-0.11276628
52	0xbd1461c6	-0.036226057
53	0x3e7c9924	0.24667794
54	0x3d7d2de7	0.061811354
55	0xbc8d938e	-0.017282274
56	0x3e8f892f	0.2803435
57	0x3e4a472c	0.19753712
58	0x3dc9a7b3	0.09846439
59	0x3e3670aa	0.17816415
60	0x3e79faf4	0.24412137
61	0xbe894b61	-0.26815322
62	0xbe007ec0	-0.12548351
63	0x3e1bef42	0.15227988

decoder.weight_hr_l0 f4 [1, 16]
0	0xbefb6dfa	-0.49107343
1	0xbe9d4838	-0.3071916
2	0xbe7f39fe	-0.24924466
3	0x3ea604f3	0.3242565
4	0xbe079895	-0.13241799
5	0x3e06c488	0.13160908
6	0x3df2475e	0.118300185
7	0xbeec75ce	-0.46183628
8	0x3f12099a	0.570459
9	0xbe3c8dc1	-0.1841345
10	0xbe874820	-0.26422215
11	0x3e0b5921	0.13608219
12	0xbdf70f2d	-0.120634414
13	0xbd2d3238	-0.04228422
14	0xbe732f74	-0.2374857
15	0xbe826778	-0.25469565
