output/synthetic_data/models/model_hidden64_lr0.005_clip1.0.pth (torch, 141415 bytes, 9 tensors)

encoder.weight_ih_l0 f4 [256, 1]
000000 7a 2b cf 3d 47 de 90 bd 2c 22 f9 bc fd c7 94 3d
       0.10115714 -0.07073646 -0.030411802 0.07264707
000010 24 cf 84 3d 37 88 bd bd 20 30 79 be f0 d0 26 bc
       0.064848214 -0.092544965 -0.24334764 -0.0101816505
000020 78 48 e5 bc da 2c 47 3d 83 c6 15 bb f4 b0 57 3e
       -0.027988657 0.04862676 -0.0022853918 0.21063596
000030 77 68 08 be 7a cb e2 bd fc 90 33 3e 0b fc c4 bd
       -0.133211 -0.11073966 0.17535776 -0.09618386
000040 a8 3a fc bd 54 a9 a6 bd 0b 4d cf 3c d2 0a 1d be
       -0.12315875 -0.081377655 0.025305292 -0.15336159
000050 41 f5 b8 bd 8f c8 56 3d a8 2e 17 3e ce 72 07 3e
       -0.090311535 0.05243736 0.14763892 0.13227388
000060 fe ec 95 bd fd 65 a9 3b 00 e3 e4 3d 8c 2e 2b 3d
       -0.07320593 0.0051696287 0.11176109 0.041792437
000070 7e 4d 0c 3d 9e 8d 7e be d0 7b 02 bd 22 57 d9 3d
       0.03425359 -0.2485871 -0.031856358 0.106123224
000080 5b 13 6c bd 09 b6 66 3d c6 f3 f1 be 27 a7 91 bd
       -0.057635646 0.056325946 -0.47256297 -0.0711196
000090 3f 90 65 3d c2 48 d7 bc 86 f5 c6 bd 77 73 b5 3c
       0.056045767 -0.02627981 -0.09714799 0.022149784
0000a0 84 1c 14 be 85 e0 35 3e 6f 00 4f 3c 6d ff 55 3c
       -0.14464003 0.17761429 0.012634381 0.0130613865
0000b0 85 6d 7a 3d bb 2a 2d bc 7b 91 79 3e 06 6b 09 bd
       0.061139602 -0.01056927 0.24371903 -0.03354933
0000c0 c0 8f 0f 3e 56 7a 93 bd de 63 18 be 37 6b 14 bd
       0.1401968 -0.07201068 -0.14881846 -0.03623506
0000d0 3a 0c c2 3d 32 eb df bd 50 1b 8b bc 13 db 53 3d
       0.09474988 -0.10933532 -0.016980797 0.051722597
0000e0 f1 f2 55 be 78 b5 40 3d c2 5d 38 3e 46 be df 3d
       -0.20893456 0.047048062 0.18004516 0.10924964
0000f0 a1 8e 91 3d ee 11 d3 bc a6 69 8e 3d f1 9a e8 3c
       0.071072824 -0.025765385 0.069537446 0.028394194
000100 b5 99 09 3e 83 2f 91 bc a4 ce 89 3d d1 45 04 3e
       0.13437541 -0.01772285 0.06728867 0.12917258
000110 23 4d d9 3d d3 84 3c 3e 2e 12 06 be e0 80 36 3d
       0.10610416 0.18410043 -0.13092873 0.0445565
000120 6b 21 b2 3d 73 21 e8 bd d2 64 80 bd dc 1b 9a 3d
       0.0869778 -0.11334505 -0.0626923 0.07524845
000130 6c 7d 32 be af 6e 07 be e9 27 ac 3d 13 83 ca 3c
       -0.17430657 -0.13225816 0.0840605 0.024720704
000140 9c af 53 3d 30 ee 73 3e e2 b0 0b 3d 2b e2 4a be
       0.051681146 0.2382133 0.034104235 -0.19812839
000150 18 d0 c2 bd e2 35 2d 3e 66 e5 46 3e c8 55 7c 3e
       -0.09512347 0.16915086 0.19423446 0.24642098
000160 34 b9 d4 3d 06 2e ef bd af 1b 03 3e 1c 79 8d 3d
       0.10386887 -0.116787 0.12803529 0.069078654
000170 6e 45 20 3e 78 89 84 be fa c5 6a 3d 1e 92 63 3d
       0.15651485 -0.2588613 0.05731771 0.05555927
000180 c8 d6 f1 3c 09 f9 3b 3d d7 51 a8 be dc cb d9 3d
       0.029521361 0.045891795 -0.3287494 0.10634586
000190 e8 b4 ea 3c 00 c2 2e be 1d bf 1e be b8 98 22 bd
       0.028650716 -0.17066193 -0.15502591 -0.039696425
0001a0 d1 6a 7b be 6e d2 bb 3d 58 cd d7 3d 29 b8 8a 3d
       -0.24552466 0.09170996 0.10537213 0.06773407
0001b0 60 be 43 3b 02 68 07 3c f2 1e 30 3e 3b 47 bf 3d
       0.002986811 0.0082645435 0.17199305 0.09339758
0001c0 13 97 70 3e 8b e4 77 3d ad 6f 14 be be b3 87 be
       0.2349513 0.06052069 -0.14495726 -0.2650432
0001d0 3b 7a da 3b 99 52 e6 bd 20 f5 8d 3d 67 a6 59 3e
       0.006667403 -0.11246223 0.069315195 0.21254884
0001e0 a0 e2 a7 bd 69 4f 3f 3e e5 7f 2c 3e 8b 91 90 3d
       -0.08197522 0.18682636 0.16845663 0.0705901
0001f0 e3 60 9a bd 79 bb 56 bd 23 64 88 bd be 12 df 3d
       -0.07538011 -0.05242488 -0.066597246 0.10892247
000200 1a 94 0e be 4b b0 e2 3d 48 f0 17 be a1 93 08 bd
       -0.13923684 0.110687815 -0.14837754 -0.033343915
000210 ff 1a 59 bd 8c 1a 4b be a3 ed 2d bc bf 19 e3 3d
       -0.05300426 -0.19834346 -0.010615739 0.11088895
000220 57 79 d8 3d 1b 8e 05 3e 3f a7 f3 3d 26 91 46 3e
       0.10570019 0.1304249 0.11897134 0.19391307
000230 7f 87 af 3d 18 e8 fd 3d 99 4e 1b 3e b8 f7 8d bd
       0.08570766 0.12397784 0.15166701 -0.06932014
000240 b9 39 8c bc 7d fc 61 3d d8 2e 78 be db d8 af bd
       -0.017117368 0.055172432 -0.2423662 -0.08586284
000250 25 2b 06 be 72 c9 7b 3e ed 85 2c be da bd 49 3e
       -0.13102396 0.24588564 -0.16847964 0.19701329
000260 97 db 32 3d 86 b7 44 be bd d2 82 bd 69 61 93 bd
       0.04366645 -0.19210634 -0.063878514 -0.07196314
000270 a0 72 97 3c b6 d5 4a be 8b d6 ba 3d 8d f7 30 3e
       0.018487275 -0.19808087 0.09122952 0.17281933
000280 49 7c 0c be 2e d7 d4 bb 4e f9 83 3b 18 1b 8b bd
       -0.13719286 -0.006495378 0.004027522 -0.06792277
000290 fe 9c 2d be d2 94 61 bc e5 4c 87 bd d1 3d 47 be
       -0.16954419 -0.013768392 -0.06606463 -0.19457175
0002a0 8e ea 81 bd 59 8f f5 3b 91 75 88 3d 5e 61 1e be
       -0.06343566 0.007493895 0.06663049 -0.1546683
0002b0 fa 88 b7 3d c5 1b bc 3d ac 3b 2e 3e 14 a6 a8 3d
       0.08961673 0.09184984 0.1701495 0.08234802
0002c0 d0 50 1e 3e 31 23 22 3b 4a ae 29 be 71 33 81 3d
       0.15460515 0.0024740214 -0.16570392 0.0630864
0002d0 77 c6 f0 3d 32 25 27 be 53 25 0b 3e f5 9b aa bd
       0.11756604 -0.16322783 0.13588457 -0.08330528
0002e0 3f f7 aa bd 10 fe 59 be 4c 46 3b be ea de e0 bc
       -0.0834794 -0.21288323 -0.18288535 -0.027450044
0002f0 ad 42 26 3e dc 31 a9 bd 46 0f c8 bc c3 ca 09 be
       0.16236372 -0.08261463 -0.024421345 -0.13456254
000300 a1 5e eb 3b 3b 1c 91 3d 25 3c a8 3d fd 1b b4 bd
       0.0071829115 0.07085463 0.08214597 -0.08794401
000310 ef 49 bb bd d2 f6 17 bd 26 4e 49 be cc ce 99 bd
       -0.09144961 -0.03710062 -0.19658718 -0.075101465
000320 b1 f2 df 3c 96 c5 4c bd a9 cc 26 3d d6 dc a0 3c
       0.027337404 -0.04999312 0.040722523 0.019636553
000330 05 08 23 be 0c db 2e bd ed bb 1e 3e ac 34 93 3c
       -0.15921028 -0.042689368 0.15501375 0.017969452
000340 aa 1b 78 3c bb a0 4d bb 7f 6b 97 bb aa 0c 0a be
       0.015143314 -0.003137632 -0.004620969 -0.13481393
000350 38 81 04 be 5c af 5c 3e 7e 57 18 3e 44 13 46 3d
       -0.12939918 0.2155127 0.14877126 0.048358217
000360 02 5f 0b be 29 4d 32 be 84 4b 52 3d 73 c0 44 3c
       -0.13610461 -0.17412247 0.05134155 0.012008774
000370 25 ab a9 3c e1 71 06 be 0b e1 f0 bc 6d 42 5e 3b
       0.02071149 -0.13129379 -0.029404184 0.0033914105
000380 73 23 fd bd 92 b4 56 bc b3 99 2a be 4a 0f 08 3d
       -0.12360277 -0.013104575 -0.16660194 0.033217706
000390 3f e8 d5 3c 83 b2 51 be 4f a8 e1 bd 53 a1 65 3d
       0.02611172 -0.20478253 -0.110184304 0.056062054
0003a0 0a 6b 69 be eb ea 8d 3d 72 84 2b bd 0d 30 e1 3d
       -0.22794738 0.06929573 -0.041874357 0.10995493
0003b0 f7 03 b6 bc 1a 35 4f bd ca 2b 1c 3e ed 4a 51 3d
       -0.022218687 -0.05058775 0.15251079 0.051096845
0003c0 f5 7a c9 3d e3 0f c3 bd cb 3d a5 bd d7 9c 1e be
       0.09837905 -0.095245145 -0.08068427 -0.15489517
0003d0 d8 9c 7b 3d eb 4e 42 bd 89 66 7e bc 96 dc 3f 3e
       0.061428875 -0.047438543 -0.015527376 0.1873649
0003e0 c0 40 a8 bd 9f c9 b7 bc 76 6c e2 3c e4 bd 8b 3c
       -0.08215475 -0.022435008 0.027639609 0.01705832
0003f0 6d 76 9d 3d 38 e0 e6 3c 78 4b 66 3d b0 0a e5 3d
       0.076886036 0.028183088 0.056224316 0.11183679

encoder.weight_hh_l0 f4 [256, 64]
000000 dd 1e c8 bb e3 d6 be bd ae 35 c3 3c 36 79 de 3d
       -0.006107195 -0.0931833 0.023829307 0.10862963
000010 8b c9 92 bc d4 28 26 be 8a 4e 01 3e 95 f8 62 bd
       -0.017918369 -0.16226512 0.12627617 -0.055412848
000020 a6 5a c0 bd 95 04 7b bd f0 dd 84 bd eb ac 22 3d
       -0.0939229 -0.061283667 -0.06487644 0.03971569
000030 5e 7f c5 3b 4b a0 bc bd 4e 01 b9 3d 23 49 36 bd
       0.0060271462 -0.09210261 0.09033452 -0.044503342
000040 59 45 2e 3d 51 90 71 3d f4 5a 0f be 3a 45 2c be
       0.042546604 0.05897552 -0.1399954 -0.16823283
000050 69 b9 0f bd cb da fd 3c be d4 b2 3d 33 85 8a 3d
       -0.03508893 0.030988118 0.087319836 0.06763687
000060 95 6a a2 3d dd 5c e6 bd ca 83 da bd 2c 72 02 bc
       0.07930485 -0.11248181 -0.10669668 -0.007961791
000070 be 60 0c bd f5 75 a0 bd 66 b7 d5 3c 3c 4f ea 3d
       -0.034271948 -0.078349985 0.026088428 0.11440894
000080 e3 53 8c 3c 89 1d d6 3d 51 79 8c 3d 9f ff a5 3d
       0.017129844 0.10454852 0.06859077 0.081053965
000090 c6 59 11 be 97 8f c8 bd 2c 45 bc bd ce 02 16 be
       -0.14194402 -0.097930126 -0.09192881 -0.14649507
0000a0 7c 79 8f 3c ec 2f d8 3d 2e 37 32 bd 87 38 33 be
       0.017513983 0.10556015 -0.043509655 -0.17502032
0000b0 04 fc 33 3d bd 5b 66 3c 1b e2 04 bd a2 38 cf 3d
       0.043941513 0.014059958 -0.032442193 0.10118224
0000c0 1c 9d 8c 3d fa 0a 3a 3c eb 8d df bd 2b ad 9e bd
       0.06865904 0.011355156 -0.109157406 -0.07747873
0000d0 1b 27 4f bd f6 56 08 3e 6b 70 64 bd 8b 18 3a 3c
       -0.050574403 0.13314423 -0.055771273 0.011358391
0000e0 02 94 3e bd 58 e5 f7 bc e5 4e 2f 3c 61 2a 26 3e
       -0.04652787 -0.030260727 0.010699962 0.16227104
0000f0 8a a4 05 3e 67 e1 bf 3d 4c f1 c5 bd f9 7d b7 bd
       0.13051048 0.09369164 -0.09665164 -0.08959574
000100 6b 5c 03 3c ec df 7c 3d 56 88 ca 3d 7f fd e6 bc
       0.00801764 0.061736986 0.09889285 -0.028197048
000110 7d 74 fa ba ee c9 dc bd 89 c5 e3 3d 2c a1 bc 3d
       -0.0019108203 -0.107807025 0.11121661 0.092104286
000120 a7 6a a3 bc 3b 5e c0 bd 01 f8 df bd e7 5a a0 ba
       -0.019948317 -0.09392973 -0.10935975 -0.0012234122
000130 3b 10 d2 3d ad 4a 64 3d f7 85 05 3e 1d d2 a9 bd
       0.10257002 0.05573528 0.13039385 -0.08292029
000140 87 be c2 bd 3d 51 11 bc ab 43 ae 3c d9 50 29 3d
       -0.095089965 -0.008869466 0.021272501 0.041336868
000150 42 e7 d8 3d 3d b8 bb 3d ea 7a 83 bb 96 69 1e 3d
       0.10590984 0.09166 -0.004012455 0.038674913
000160 c1 22 d7 3d 3c b0 c3 bd 61 2f 06 3e 23 b5 89 3c
       0.10504676 -0.095550984 0.13104011 0.016810006
000170 af 27 82 3d f2 b6 27 bc 51 cb c5 3d 32 06 f7 3c
       0.06355225 -0.010236489 0.0965792 0.030154321
000180 1a 9a 89 3d a2 b9 32 3d ed c2 ec ba a9 ef fe 3b
       0.06718846 0.043634064 -0.0018063464 0.0077800346
000190 fe a5 55 3d 7c ac 4d bd d6 60 85 3d 1c dd 16 be
       0.052160256 -0.050213322 0.065126106 -0.14732784
0001a0 7f e7 e0 3d 3b 53 bc 3d 4c 71 fe 3b 2d 61 2a be
       0.109816544 0.091955625 0.007764971 -0.16638632
0001b0 30 e8 0c bd 0f 17 7f 3d 40 b1 ac bd 8b e7 9e 3d
       -0.03440112 0.06227785 -0.08432245 0.07759007
0001c0 b4 0e d4 3d 02 d7 c1 bd bf 27 e0 bd a0 42 07 3e
       0.10354367 -0.094648376 -0.10945081 0.13209009
0001d0 e6 01 40 bd 7b 36 aa 3d a5 ce 8e 3d ce f8 b4 bd
       -0.04687681 0.083111726 0.06973008 -0.08836518
0001e0 0f c2 11 be eb 4a 00 be ee 92 96 bc 1e 9f 99 bc
       -0.14234184 -0.12528579 -0.018380608 -0.01875263
0001f0 4c 1d c4 3d 3c 6d c0 bd cf 95 bf bd eb 19 83 bc
       0.095759004 -0.09395835 -0.093547456 -0.01600357
000200 d4 b8 85 bd 9b 9b 15 3d 4a b6 d6 3b a2 10 4e 3d
       -0.06529394 0.03652535 0.0065524923 0.05030883
000210 cd 67 c0 bd 1d ee 40 3d 6b e6 82 bd ee 5a ae bd
       -0.093947984 0.047102083 -0.06391605 -0.08513437
000220 f1 e8 a0 bc 1d 7b de bd 01 8b 60 3d f5 95 ad 3d
       -0.019642325 -0.10863326 0.054820064 0.08475868
000230 77 ac 05 3e 04 10 a1 bd af c4 f0 bd 86 dd e5 3d
       0.13054071 -0.07864383 -0.117562644 0.11223893
000240 40 53 46 3d 0c 8d 29 bc 87 1b 0a 3c 63 1c 64 3c
       0.048419237 -0.01034857 0.008429415 0.013922784
000250 8e ff c9 3d 0c 01 df 3d 5f 30 5b 3d e7 fe 10 3d
       0.09863196 0.108888716 0.053512927 0.035399344
000260 25 40 5a bc 8e b3 1d 3c 19 11 ee 3d c5 e9 e8 3d
       -0.013320957 0.009625329 0.11624355 0.11372713
000270 9d 5e 02 3e 62 8b c0 3d 34 bb 07 3e 5d a3 1d 3d
       0.12731405 0.09401585 0.13255006 0.038485873
000280 de ab a4 3c 79 7b 82 3d fe d9 28 bd c9 d1 21 3a
       0.020101484 0.06371207 -0.04122352 0.0006172923
000290 17 84 75 bb da 72 cd 3d 23 7f bb bd bd 6c ab bd
       -0.0037462765 0.10031672 -0.09155109 -0.083703496
0002a0 b6 ef ec bb f2 d8 61 bd 62 b4 d0 bc df 57 0b be
       -0.007230724 -0.055138536 -0.025476638 -0.13607739
0002b0 31 27 af bd 3b 2e 59 bd 5d ab 78 3d 96 0d 22 bd
       -0.08552397 -0.053022604 0.0607103 -0.039563738
0002c0 54 45 40 3d 7f d0 d6 bc 8e 0f 21 bd 9d 0f d9 3c
       0.046941116 -0.026222466 -0.039321475 0.026496703
0002d0 85 49 a7 bd df 4a 29 3d c2 40 f2 3d 94 1f 8c bd
       -0.081683196 0.04133117 0.11828758 -0.068419605
0002e0 b2 7b ed 3c 99 12 98 3d 2b 61 ce 3d c6 47 00 3d
       0.028989647 0.07425422 0.10077127 0.03131845
0002f0 e3 9e d5 bd fd a0 4e 3d 4f c3 80 bd 61 4d 3e bd
       -0.10430696 0.0504465 -0.06287252 -0.046460513
000300 5f 7c 01 3e 87 95 7c bd fe de 0b 3e 67 3e 94 3d
       0.126451 -0.061666038 0.13659284 0.07238465
000310 31 84 d0 3c 98 e7 43 3c c6 db b9 3b 59 d6 ad 3d
       0.025453659 0.011957072 0.005671951 0.08488149
000320 e2 29 18 bd 3b 41 a7 b9 7e e1 4e 3c e7 cf 68 bc
       -0.037149318 -0.00031901323 0.012627004 -0.014209724
000330 07 c1 af 3d f7 b8 51 bd c2 82 81 3c 1e f9 14 3c
       0.08581739 -0.051201787 0.01580942 0.009092597
000340 22 73 8e bd c8 ee 5e bc 93 38 06 3e b4 e5 27 bd
       -0.069555536 -0.013606735 0.13107519 -0.040990546
000350 2a 99 ac 3c 11 1c 06 be 44 30 e3 3c 2a c5 1d be
       0.021069128 -0.13096644 0.027732976 -0.15407243
000360 33 c2 b7 3d 9d 30 96 bb cd d4 33 be 48 31 56 bd
       0.089725874 -0.004583432 -0.17561646 -0.052293092
000370 cf 4b a4 3d d4 fe d8 3c c0 3b ce 3d 14 f1 d7 bd
       0.08022272 0.026488699 0.1006999 -0.10544029
000380 15 88 9f 3d 11 bc dc bb 1d e6 0e bd 0a 27 05 3e
       0.077896275 -0.0067362865 -0.034887422 0.13003173
000390 e8 54 e7 3c 63 fb 05 3e 00 5d de 3d 0c 71 8b 3c
       0.028238729 0.13084178 0.10857582 0.017021678
0003a0 8e a7 a0 bd 49 39 95 3d 64 de b3 bd 68 57 66 3d
       -0.078444585 0.07286317 -0.08782652 0.0562357
0003b0 cf a3 fc 3d 96 0b 4d 3d 93 7d fb 3d 3c bb 2b 3d
       0.123359315 0.050059877 0.12279811 0.041926607
0003c0 8f 17 8b be e1 e4 00 3e 23 b4 2d bd 5e 5f db bd
       -0.2716641 0.1258731 -0.04240812 -0.10711549
0003d0 1d b6 33 3d 94 22 d7 bc 31 4a 17 bc 1f b0 33 bd
       0.04387485 -0.026261605 -0.009233997 -0.043869134
0003e0 df af d8 bd c5 6e 80 bd e1 46 81 3d 02 f9 bf 3d
       -0.1058042 -0.062711276 0.06312347 0.09373666
0003f0 91 63 0d be 08 70 d5 bd 22 6b d9 3c 9e b8 a7 3d
       -0.13807513 -0.10421759 0.026540343 0.0818951

encoder.bias_ih_l0 f4 [256]
000000 88 e3 e7 bb 43 ac c4 bd 33 1c dd bd 4c af ff 3d
       -0.0070766844 -0.09603169 -0.10796394 0.12484607
000010 a2 aa 0c 3d 6a 99 d9 3d c2 4b 41 3d 2d a4 18 bd
       0.034342416 0.106249645 0.04719139 -0.037265945
000020 dd 56 af 3c 9c 39 9e 3d 65 a3 5d bd 2a 15 ef 3d
       0.021403724 0.07725832 -0.054110903 0.116739586
000030 08 b2 80 bd 80 50 94 bd 1e 76 56 bd cb c3 6d bd
       -0.06283957 -0.07241917 -0.05235874 -0.05804805
000040 6a 44 a5 bd 4e 1a a9 bc 29 c7 93 bd 66 8f 62 bd
       -0.080696896 -0.020642426 -0.07215721 -0.055312537
000050 16 82 3a 3c 30 b7 27 bd e5 33 c8 bd 25 34 28 bd
       0.011383554 -0.040946186 -0.09775523 -0.041065354
000060 d1 2b 8d bd 6e b5 61 3d 6d 7d 18 3e 05 52 e6 bd
       -0.06893123 0.055104665 0.14891596 -0.11246113
000070 85 22 ab bd a5 16 f4 3d f6 79 8c bd 7b b2 60 3d
       -0.083561935 0.119183816 -0.068592 0.054857712
000080 d1 ad f0 3d 1e e3 16 3d e3 39 cc bd bb e7 6d 3c
       0.11751903 0.03683769 -0.099719785 0.014520581
000090 f7 4a ea bd ae 2b bd bd 23 e6 cf bb fc 10 0b bd
       -0.1144008 -0.09236847 -0.006344573 -0.033951744
0000a0 55 85 fa 3b e0 86 29 bd 1b 3c bd bd a3 4f 72 3d
       0.007645289 -0.041388392 -0.0923998 0.05915798
0000b0 1f e7 bb 3c 8a ae c1 3d fd 68 6c 3d e1 bd 06 3d
       0.022937356 0.09457119 0.057717312 0.032895926
0000c0 4c b8 8e bd 7b b2 29 bc 81 4a c5 bd b3 16 f0 3d
       -0.069687456 -0.0103574945 -0.09633351 0.117230795
0000d0 69 40 85 bd a7 eb 89 3d 30 36 97 bd 7e 2d 17 3e
       -0.06506426 0.067344 -0.07383382 0.14763448
0000e0 54 0e d3 bd 09 30 e1 3c 6d 76 9b 3d af 3b 12 bd
       -0.10305467 0.027488725 0.07590947 -0.03570145
0000f0 81 d1 8e 3d bc 22 7b 3b 29 3b 23 be 3a 74 b8 3d
       0.069735534 0.0038320264 -0.15940537 0.090065435
000100 7c 3a 87 bd c3 41 c2 bd 3e ef 19 3e 34 8c a1 bc
       -0.06602952 -0.09485199 0.1503267 -0.019720174
000110 f3 9c 3e 3d eb 91 49 3b 31 3a a8 3d 89 43 57 bd
       0.046536397 0.003075714 0.08214224 -0.05255464
000120 40 50 14 bc ab c8 d5 bd ff 53 d5 bd b3 4d a8 3d
       -0.009052336 -0.10438665 -0.104164116 0.08217945
000130 04 87 a5 3d 28 df 8c 3d 35 33 b8 bd ac bf c4 bd
       0.08082393 0.06878501 -0.08994142 -0.09606871
000140 ae 99 d9 bc f4 3c 09 3e 67 47 fa 3d 25 a9 c3 3d
       -0.026562538 0.13402158 0.1222065 0.09553746
000150 28 43 e4 3d c3 07 4b 3e 96 8a 17 3e 6a c4 54 3d
       0.111456215 0.1982718 0.1479896 0.051945128
000160 0c 7a 8a bd 0b 34 97 3d d9 6b 0a 3e 1a e4 6f bc
       -0.0676156 0.07382973 0.13517703 -0.014641786
000170 5a cd 96 3d 06 93 43 bd 8c da 52 bd 9c 91 09 3d
       0.073633865 -0.047747634 -0.051477954 0.03358613
000180 fa d9 d9 3d bd 80 23 bd 45 ec 5d 3b b3 d4 74 bd
       0.10637279 -0.039917696 0.0033862751 -0.05977316
000190 5a 95 40 3e 6c d2 0e be cb 06 8d bd 04 c3 5c 3d
       0.18806973 -0.13947457 -0.06886061 0.05389692
0001a0 f7 53 19 3e 86 22 ff 3d 4b 3d 91 bd 49 07 2c 3c
       0.14973436 0.12457757 -0.07091769 0.010499784
0001b0 67 f3 07 bd 81 43 25 bd b7 c0 8a 3d 47 39 a4 3d
       -0.03319111 -0.04034758 0.06775039 0.08018737
0001c0 b7 02 b2 bd e3 ce 04 3c 85 46 b3 bd dc 30 57 3e
       -0.08691924 0.008105966 -0.08753685 0.21014732
0001d0 e2 ba 01 3e b8 29 aa bc 50 b0 29 3e 81 31 8b bd
       0.12668946 -0.020771846 0.16571164 -0.067965515
0001e0 fd d0 8d 3d 59 48 d0 3b 54 48 0a 3e af 12 c3 3d
       0.06924627 0.0063562808 0.13504153 0.09525048
0001f0 06 5a f8 bc 42 10 f0 bd 11 01 73 bd 87 f6 c5 3d
       -0.030316364 -0.11721851 -0.05932719 0.09666162
000200 19 6a dc bd cb 41 e7 bb ae a8 86 3c 03 73 31 3e
       -0.10762424 -0.0070574037 0.016437855 0.1732903
000210 1c 26 02 be ba 12 06 3e 8f 24 dd 3c e7 37 0b bd
       -0.1270985 0.13093081 0.026994972 -0.03398886
000220 4d 09 67 3d c7 66 ba 3d 3d 9c da 3d 9b 62 be 3c
       0.056405354 0.091016345 0.10674331 0.023240378
000230 73 0b 15 3e a9 99 94 3d bf 81 d7 3d ac 77 34 bd
       0.14555149 0.07255871 0.10522794 -0.04405944
000240 6e 7d 05 bd 38 20 12 be e2 3f 4f bd 6e 2b 10 be
       -0.032590322 -0.14270103 -0.050598033 -0.14079067
000250 8e cd a6 3d 97 e4 8e bd 37 3a 75 3d f1 a8 5f bd
       0.08144675 -0.06977194 0.05986997 -0.054604474
000260 62 5c 46 bd 2a 5f 26 3d e3 6d e8 3c 61 01 e7 bd
       -0.048427947 0.0406181 0.02837271 -0.1127956
000270 c6 5b 15 3d 23 1f b8 3d 0f de e6 bb d6 be 80 3d
       0.036464475 0.08990314 -0.0070455144 0.06286399
000280 d4 16 40 bd 42 ee f1 bd df fb 40 bd 2a aa a1 3c
       -0.04689677 -0.11813022 -0.047115203 0.01973446
000290 31 0f 1d bd 27 42 bf bd 2c 7d dc bd 78 f6 c4 3d
       -0.038344566 -0.093387894 -0.10766062 0.09617323
0002a0 f6 a7 17 3d cb 1f 60 bd c8 5d 61 bd d3 f5 72 bd
       0.037025414 -0.05471782 -0.055021077 -0.059316467
0002b0 d2 36 e8 3d a6 12 f3 3d 45 f3 14 3c 66 15 4e bd
       0.11338581 0.11868791 0.009091203 -0.050313376
0002c0 0a dd 1b bd bf d6 ed 3d 56 08 84 3d 96 e7 c6 bd
       -0.038052596 0.11613225 0.064469025 -0.0971214
0002d0 c1 5b 6b 3d 93 73 1e be 9e 34 8d bd 44 c0 6d bd
       0.05746055 -0.15473776 -0.068948016 -0.058044687
0002e0 cb 79 5b bd 8d 8d a2 bd bb 03 ff 3d f2 fa 43 3e
       -0.053582948 -0.07937155 0.124518834 0.19138697
0002f0 46 d2 08 3e d9 1e bf bd 65 b6 8a bd dd 2b 47 3c
       0.13361463 -0.093320556 -0.0677307 0.012156454
000300 d1 04 00 3c 60 5f 8e 3c 0e da e8 3d b1 64 36 3d
       0.007813648 0.017379463 0.11369716 0.04452962
000310 a2 3d f3 3d 57 51 18 bc dc 0c fd bd 62 c5 fb 3d
       0.1187699 -0.009296737 -0.12355968 0.12293507
000320 f3 f6 97 3d 42 85 e8 3c 70 3b 8a 3d d8 7e fa bd
       0.07420149 0.028383855 0.06749618 -0.12231225
000330 1f 16 d5 bd 70 3a e5 bd 89 2c 49 bd 2d ff 35 bd
       -0.1040461 -0.11192787 -0.049114738 -0.044432808
000340 81 11 7e bc 02 9a d9 3c a1 d8 9c 3c 2b cc df 3d
       -0.015507103 0.026562694 0.019146265 0.10927614
000350 9f 88 a9 3d c9 06 8e bb 1f 22 da bd fa 98 99 bd
       0.082780115 -0.004334305 -0.10651039 -0.07499881
000360 2f 52 a5 3d fd ac 5f 3c 1f d2 33 3d 4d 0e b5 3d
       0.08072316 0.013652083 0.04390156 0.08840618
000370 d7 49 93 3d 31 59 12 3d 58 1c 86 3a a4 ba 07 be
       0.07191818 0.03572959 0.0010231836 -0.13254791
000380 e0 01 34 bd 79 ee ce 3c 52 3d 76 3c dc 32 e9 3c
       -0.0439471 0.025260197 0.015029268 0.028466634
000390 56 55 85 3c 33 71 f7 bd d6 b1 ca bd f7 7f 12 bd
       0.016276043 -0.12082138 -0.09897201 -0.035766568
0003a0 7e a7 c1 bc 13 f4 e6 3d 04 32 dd 3c a0 87 04 3d
       -0.023639437 0.11277022 0.027001388 0.032355905
0003b0 f8 74 4a bd 7c 3a 1a be 3f d7 07 bd 22 0d 5d 3d
       -0.049427956 -0.15061373 -0.03316426 0.053967603
0003c0 8c 02 c4 bd f4 4c b5 bd d0 c7 13 3c f2 1a 39 3e
       -0.09570798 -0.08852568 0.009019807 0.18076685
0003d0 ad 98 75 ba 6a 53 eb bd 5c d7 b0 3d 8b 57 07 3e
       -0.0009368759 -0.11490519 0.086348265 0.13216989
0003e0 1a a8 10 be ef 67 00 bc 98 3e 8f 3d d1 e5 c6 bc
       -0.14126626 -0.00783728 0.06994361 -0.024279507
0003f0 62 0f f9 bd d7 2c d7 bd a9 fe d9 3c 4d 00 1a bc
       -0.12161137 -0.105065994 0.02661069 -0.009399486

encoder.bias_hh_l0 f4 [256]
000000 60 b3 e9 3c ec 1f c9 bc e2 d0 28 bd d0 56 1b 3e
       0.028527915 -0.024551354 -0.04121483 0.15169835
000010 41 43 2d bd 61 68 b0 3c 9f 65 1f be 4b be ef 3b
       -0.042300466 0.021534147 -0.15566109 0.007316386
000020 26 22 94 bd 01 6c 16 be 2a 84 58 3d 09 e0 07 3d
       -0.07233076 -0.14689638 0.052860416 0.03317264
000030 41 17 b3 bc 65 c3 97 3d 7a 95 08 3e 79 e1 e6 3c
       -0.021861674 0.074103154 0.13338271 0.028183686
000040 6f 06 e2 3d 51 31 a4 bd a8 b2 0e 3d be e5 78 3d
       0.11036383 -0.08017219 0.03483835 0.060765974
000050 db d4 d9 3c dd 74 ce bd 04 cb 9c 3d 05 96 c0 3d
       0.026590755 -0.10080884 0.0765591 0.09403614
000060 22 62 87 3d db a5 e3 bb 1c 5b d1 3c 46 75 c6 3d
       0.06610514 -0.0069472617 0.02555614 0.09690337
000070 9e 3b ea 3d 0f 71 b1 ba 50 89 e5 3d 84 15 14 bc
       0.11437152 -0.0013537722 0.11207831 -0.009038333
000080 85 b5 94 bd 1f 19 8b 3a 44 d3 5c bd 41 a1 96 3d
       -0.072611846 0.0010612345 -0.053912416 0.073549755
000090 b8 5a a7 3d e3 4d 5a be d1 a9 7b bd 0e 45 97 bc
       0.081716 -0.21318774 -0.061441246 -0.018465545
0000a0 51 2c ca 3d e4 22 1f bd 2d 1d 0c 3d b2 d8 bb bd
       0.09871734 -0.038851634 0.03420751 -0.09172191
0000b0 eb 67 02 bd 01 e3 da bd 25 fe 8b 3d f6 c8 9e 3d
       -0.031837385 -0.10687829 0.068355836 0.07753174
0000c0 22 73 13 3d 43 50 95 3d 39 ca 5a 3c 62 58 97 3d
       0.03599847 0.07290699 0.013353878 0.073899046
0000d0 8e 09 8e 3d 16 27 e2 bb 09 99 01 3e b7 91 03 3e
       0.06935416 -0.006901632 0.12656035 0.12848555
0000e0 0c 4c df bc 0e ff c2 bd 87 33 64 bd 2a 66 ed 3d
       -0.027257942 -0.09521304 -0.055713203 0.11591752
0000f0 50 93 26 be cd 38 46 bd a8 a2 9a bc 9f 89 73 bc
       -0.16267133 -0.048394013 -0.018876389 -0.014864354
000100 cd 4e 83 bd 48 b6 2d 3d d8 9b 16 bd 5c f7 2f 3e
       -0.064115144 0.042410165 -0.036769718 0.17184204
000110 06 9d a0 bd 55 7c 2d 3e e3 15 b3 bd 06 9f 95 3d
       -0.0784245 0.1694196 -0.08744409 0.07305722
000120 f7 bc f0 3c d4 b8 b9 3d 2d 0f 94 bc 55 1e 0b 3e
       0.02938698 0.09068456 -0.018073643 0.1358579
000130 fb 06 c4 3d 88 ce 00 3e 27 47 68 bd 26 5b c6 bd
       0.09571644 0.12578785 -0.05670848 -0.09685354
000140 8f d7 aa bd 94 96 9c 3c ff 1d 24 3e 52 b8 8b 3d
       -0.08341896 0.01911477 0.16027068 0.06822266
000150 08 22 92 3d 2f 6b 62 3d 90 7e 22 3d 1c 81 64 3c
       0.07135397 0.055278 0.03967148 0.013946798
000160 64 bc 31 bd e9 58 ef 3d c3 04 39 ba d6 e6 99 bd
       -0.043392554 0.1168688 -0.00070578995 -0.075147316
000170 8c 29 f3 3d fc 99 fe 3d 7b c4 03 3e 96 3a d2 3d
       0.11873159 0.12431714 0.1286792 0.10265081
000180 3e 0c 16 3e 3c 88 ab 3d 8d 0b f5 3d 82 b7 bd 3d
       0.14653108 0.08375594 0.11965094 0.09263517
000190 11 65 00 bd 76 d1 c9 3c ed ab 67 3d 0d 3e c9 bc
       -0.031346384 0.024636012 0.056560446 -0.02456572
0001a0 3d 48 d8 bc 3f 1d c1 3d 6d fa 81 bc 2f 46 54 3d
       -0.026401633 0.094294064 -0.015866483 0.051824745
0001b0 2c 93 92 3d d0 78 ff bd fa 58 a6 bc 54 6b b1 3d
       0.07156977 -0.12474215 -0.0203061 0.08663049
0001c0 6b e2 d5 3d d3 55 6a 3d 7b af f9 bd 85 49 4e 3d
       0.104435764 0.057210755 -0.12191673 0.050363082
0001d0 42 4a af 3d dc cb 0f 3d 9f 24 f8 3c 08 46 e0 3d
       0.085590854 0.035106525 0.0302909 0.109508574
0001e0 db 5e b9 3d 9f 8a aa 3d 14 61 d4 3c ec 85 40 3d
       0.09051295 0.08327221 0.025925197 0.047002718
0001f0 b7 e3 a4 3d 71 e7 35 3d d5 50 66 3d ed eb 4b 3d
       0.08051246 0.044410173 0.05622943 0.049785543
000200 9b c1 05 be 1d 6b f5 3d 5a 77 b0 bc 6f 01 91 3c
       -0.13062136 0.11983321 -0.021541286 0.017700879
000210 11 af fe bd 20 22 e3 bb 6b ef 0d 3e 8a 8b 17 3d
       -0.12435735 -0.0069315583 0.13860862 0.03699831
000220 03 d7 ac 3d 45 22 01 3d f6 20 e7 3b db 61 80 bd
       0.08439448 0.031526823 0.00705349 -0.062686644
000230 18 f5 a8 3d 24 bb c5 bd 21 f5 50 bc 84 87 79 bb
       0.08249873 -0.09654835 -0.012753756 -0.0038075158
000240 f1 74 74 bd 6a c8 97 bd 5c 6a e9 3d 00 d6 16 3c
       -0.059681837 -0.07411273 0.113972396 0.009206295
000250 2a d2 06 3e 07 9c 86 bd fc 90 35 3d 01 f9 8f bd
       0.13166109 -0.065727286 0.04432772 -0.070299156
000260 94 9c fd bd f8 dd 98 3d 8f c8 97 bd f7 26 c9 bd
       -0.123833805 0.07464212 -0.074113004 -0.09821885
000270 54 ae 26 be ff a5 26 bd 4d 2c 44 3d 9a 4c c2 3c
       -0.16277438 -0.04068565 0.04789381 0.023718167
000280 65 0a 0f be bf 83 d2 bd e2 84 c7 bc 3c 4b 99 3d
       -0.13968809 -0.10279035 -0.024355356 0.07485053
000290 f7 db de 3d 52 90 6a 3d b4 f4 af 3c f2 1f 7c bc
       0.10881799 0.05726654 0.021478988 -0.015388476
0002a0 36 90 bb bc d4 b3 e6 bd ab 99 a6 bd 19 0b b9 3d
       -0.022895914 -0.11264768 -0.081347786 0.0903532
0002b0 42 8a 80 3c 82 51 d1 3d 87 67 ca 3d 8b 77 2e 3d
       0.015690926 0.102206245 0.098830275 0.042594474
0002c0 2a 0f 9e bd 4d 2e 56 3d 56 bf 1c 3d 64 29 f8 bd
       -0.07717736 0.05229025 0.03826841 -0.1211727
0002d0 49 7f 3d bd b0 5e f6 3c a3 0d cd bd 3b be 1f be
       -0.046263967 0.030074447 -0.100123666 -0.15599911
0002e0 7d 8c 36 3d 23 e8 d3 bd 89 18 ee bd cb fe c2 3d
       0.044567574 -0.10347011 -0.116257735 0.09521254
0002f0 0d 8c 9d bd 00 d6 84 bb 38 e4 b3 bc e4 47 54 bc
       -0.07692728 -0.004053831 -0.02195941 -0.012956593
000300 1a ab a3 bc 4d 22 97 bd e9 bf e5 bd 2a b5 0c bd
       -0.019979049 -0.07379589 -0.112182446 -0.03435246
000310 ef 8f 6a 3d aa 59 98 3d ca 31 ec bb 22 79 ce bd
       0.057266172 0.07438977 -0.0072080838 -0.10081698
000320 12 6f 1a 3d a2 ec 81 3d 21 eb ea bc 1f ce d8 bd
       0.03770358 0.06343962 -0.028676571 -0.105861895
000330 7c 6d fd bc 3c 02 af bc 28 50 83 bb 56 16 fb 3d
       -0.030935995 -0.02136337 -0.004007358 0.122601196
000340 a0 4b b9 3c de b9 3b 3d 0b 75 56 3d de cf 60 bd
       0.022619069 0.045831554 0.052357715 -0.054885738
000350 8f b9 9f bc 90 7e 00 3e 1e 20 71 3c 5d 0e 65 3d
       -0.01949766 0.1254828 0.01471713 0.0559219
000360 2f a9 a5 3d d8 26 3a 3d c9 10 2d 3e 9b 2f df bb
       0.0808891 0.0454472 0.16900934 -0.006811095
000370 45 44 b5 3d 78 d9 e7 3c 4f 6c d1 3d b9 bf c3 bc
       0.08850912 0.02830194 0.10225736 -0.023895131
000380 82 f9 01 3e aa e5 06 3e 9f 01 8a bd 08 09 cc bd
       0.12692836 0.13173547 -0.067385904 -0.0996266
000390 13 17 c0 3d 84 75 0c be 64 d4 12 bd 17 2f e6 bd
       0.09379401 -0.13716704 -0.035847083 -0.112394504
0003a0 ea ff 39 3d 34 43 e1 3d 9f 33 34 be f8 2f cd 3d
       0.045410074 0.10999146 -0.17597817 0.10018915
0003b0 9f cd 0b bd b8 90 8f bb f2 c5 24 3e 90 76 ef bd
       -0.034131642 -0.0043812655 0.16091135 -0.11692536
0003c0 6f bd 17 3d 68 f0 19 3d e2 b4 33 3d 20 66 03 3c
       0.037045892 0.037582785 0.043873675 0.008019954
0003d0 d9 c9 54 3d 2a d9 d5 bd cd 92 8e 3d c7 8f 05 3e
       0.05195031 -0.104418114 0.06961594 0.13043128
0003e0 bc 22 85 bd 9f 16 b4 bd 81 79 a0 3d e3 36 27 3b
       -0.06500766 -0.08793377 0.07835675 0.0025514893
0003f0 9c 96 31 be c3 d3 a6 bd 5e 8c 4e 3d b9 bf 89 3d
       -0.17342609 -0.08145859 0.050426833 0.06726021

decoder.weight_ih_l0 f4 [256, 64]
000000 b0 0b ae bd 51 cc 4a bd 20 d5 63 bc 70 be 8b bd
       -0.08498323 -0.049511258 -0.013905793 -0.068234324
000010 13 bc b9 3b ef cb a4 3d 3e 2d d8 3a 1b 3e 78 3d
       0.005668172 0.0804671 0.0016492975 0.060606103
000020 97 47 6d bd 0e 6f 45 bd 50 3a 27 3d de 62 dc 3c
       -0.0579296 -0.048201613 0.040827096 0.026902612
000030 9a 2e c5 bd 9c a4 d3 3c a6 41 1d 3c d8 35 b7 3d
       -0.09628029 0.025835328 0.009598171 0.08945817
000040 dd 01 20 bd 9c 4c f1 3c f1 8a e8 bb 06 20 41 bd
       -0.039064277 0.029455476 -0.007096641 -0.04714968
000050 81 2e af 3c aa 7b ad bd 3e a6 ae bd 7c 70 c8 bd
       0.02138448 -0.08470853 -0.08527802 -0.0978708
000060 ba bc 45 3c a4 08 ed bb 52 41 e5 bc 46 0c 64 3c
       0.012068922 -0.007233696 -0.027985249 0.013918942
000070 7f e7 a8 3c c1 cf 71 bd ce 28 25 3e f0 e1 0b bd
       0.020618198 -0.05903602 0.16128847 -0.034151018
000080 ce 9a 0c bd 8d 51 84 bc e2 20 d3 bd 01 74 8f bd
       -0.03432732 -0.016152168 -0.10309006 -0.07004548
000090 9e fd d6 bc 51 a6 7b 3c 92 e0 86 bc c8 67 f0 3d
       -0.026243981 0.015359477 -0.016464505 0.11738545
0000a0 2f 1e 27 3d 98 e3 f7 3d 25 fb 11 bd 35 e7 34 bd
       0.04080027 0.12103957 -0.0356399 -0.04416581
0000b0 38 64 a5 bd 63 90 af 3d 75 e4 33 3d c2 46 ed bd
       -0.08075756 0.085724615 0.043919045 -0.115857616
0000c0 9c c0 46 be 46 d7 58 3c 71 46 03 3e 6c ee 05 3e
       -0.19409412 0.013234919 0.1281984 0.13079232
0000d0 8f 1a 39 3c 24 fc 91 3c 69 56 bb bd 95 c1 bd 3d
       0.011297836 0.017820425 -0.09147341 0.092654385
0000e0 25 6d 52 3d 70 6d 17 3d f2 68 33 bd 16 36 9d bd
       0.05137362 0.036969602 -0.043801256 -0.07676332
0000f0 e7 ab b3 bc 8e ab a6 3d f7 eb b9 3d d8 e7 4b bd
       -0.021932555 0.0813819 0.0907821 -0.04978165
000100 a4 5b 69 bd 9c 58 2a bd e0 46 d1 bd 3f 2d 2b bd
       -0.05697216 -0.04158841 -0.102185965 -0.041791197
000110 d3 55 93 3c b6 49 aa 3d f5 43 6c 3a 7a 0e e5 3d
       0.01798526 0.083148405 0.0009012812 0.11184402
000120 32 26 96 bd 6b 3c 3c bd e2 af 81 3d dd f8 92 bd
       -0.07331504 -0.045956057 0.06332375 -0.07176373
000130 26 07 b6 3c b3 70 e8 3d 9f 00 56 bb ec 69 09 3d
       0.022220206 0.11349621 -0.0032654179 0.03354828
000140 e3 b3 a2 3c d2 64 88 3d 6b 25 8f bd 7b f9 9e bc
       0.019861167 0.06659855 -0.06989559 -0.019406071
000150 78 f7 47 bc 6e dc ec 3d 75 6c 88 bd dc cf 2e bd
       -0.012204997 0.11565481 -0.066613115 -0.0426787
000160 b7 02 b3 3d d7 06 67 bb 2e 2e 0a 3d c7 84 d5 3c
       0.08740752 -0.003525188 0.033735447 0.02606429
000170 6c 37 6d bd c2 8a 8a bd 07 35 72 3d 94 95 23 bc
       -0.057914183 -0.06764747 0.059132602 -0.009984393
000180 fd 31 96 3b 1b ef 1d 3e b7 cc 1a 3e a2 e2 a4 3d
       0.004583596 0.15423243 0.15117155 0.08051039
000190 23 31 38 bd 1c 14 c1 3d 84 a5 3e bd f1 0d ea bd
       -0.044968735 0.09427664 -0.046544567 -0.1142844
0001a0 1a 20 08 be 76 43 d7 bd 94 c7 d4 3c 3d 16 72 3d
       -0.13293496 -0.10510914 0.025974073 0.05910324
0001b0 09 21 b6 bd 2f 56 8a 3d 45 ca f2 3c c7 14 88 3b
       -0.0889302 0.067547195 0.029637465 0.0041528675
0001c0 1b 24 f9 bd 87 c9 a2 bd b7 96 95 bd 3a a6 62 bd
       -0.1216509 -0.079485945 -0.07304137 -0.055334307
0001d0 1c 62 a6 3d 2b 31 b5 3d 39 f3 5c 3d 1b 53 9d bd
       0.08124182 0.08847269 0.053942893 -0.07681867
0001e0 22 7c b6 bc ea d4 42 bd a3 fa d8 3d 70 81 27 be
       -0.022275988 -0.047566332 0.1059468 -0.1635797
0001f0 af 66 fe bb d8 77 85 bd 03 fb 50 3c 24 e5 53 3d
       -0.0077637057 -0.06516999 0.012755158 0.051732197
000200 9f 2c 77 bd b4 c9 8d 3d d2 b5 ac 3c b9 32 e1 bc
       -0.06034529 0.069232374 0.021082792 -0.027490007
000210 ea 04 fb bc cc 19 91 3d 56 1d 70 3d f2 12 15 3d
       -0.030641992 0.070849985 0.058621727 0.03639502
000220 ef 99 67 bc 0e 41 1f bd 60 76 51 bc 8d d4 97 bd
       -0.014135822 -0.0388804 -0.01278457 -0.07413588
000230 60 1e b6 bd 18 65 3d 3d 32 14 15 bd 29 7a 98 bc
       -0.08892512 0.04623899 -0.036396213 -0.018612938
000240 40 70 ab bd be 4f b6 3d df 91 f8 3d ab ca f0 3d
       -0.08371019 0.08901928 0.12137198 0.11757406
000250 e3 72 98 3d 2b 2e 27 be 7b a9 e0 bb 14 24 5f be
       0.07443788 -0.16326205 -0.006856141 -0.21791106
000260 09 18 92 3d e3 5e 57 bd 8c 60 36 3e 18 d1 22 3e
       0.071334906 -0.052580725 0.17810267 0.15900075
000270 d8 62 6e bd 6c aa 09 3c d0 6f ba 3d 9e 63 46 be
       -0.058199733 0.008402448 0.09103358 -0.19373938
000280 c2 77 67 bd e5 1d 08 3d fd c5 91 3c b2 40 1a bd
       -0.056510694 0.033231635 0.017794603 -0.037659355
000290 3f 2e c8 bd 85 c8 1b bb 20 68 ed bc 26 84 6c bd
       -0.09774446 -0.0023770642 -0.028980315 -0.057743214
0002a0 50 e6 bd 3d 1a 80 17 3e d1 2f a8 3d e5 f0 c4 3d
       0.09272444 0.1479496 0.08212245 0.096162595
0002b0 b2 33 0d be 44 43 60 3c 23 8b 81 3d 12 63 d1 bd
       -0.13789251 0.013687912 0.06325366 -0.10223974
0002c0 87 01 84 be de d4 27 be 17 ee 20 bd 9f 6e ca 3d
       -0.25782415 -0.16389796 -0.03928956 0.098843805
0002d0 03 21 0f be 1a d4 c5 3c 08 c9 91 3d 9f 8e f6 3d
       -0.13977437 0.02414899 0.07118422 0.120389216
0002e0 c5 ef 9f 3d c4 22 16 3e 8c e9 1d 3d bf f4 96 bd
       0.07809404 0.146617 0.038552806 -0.073709
0002f0 17 54 c6 3b cb 29 b7 3d 7b 0f 20 bd 68 56 54 bd
       0.0060525048 0.08943518 -0.039077263 -0.051840216
000300 48 14 6d 3c 8a 7f 07 be b3 a2 96 3c 25 73 f0 bb
       0.014470167 -0.13232246 0.018388128 -0.007337945
000310 70 70 8b bc 40 a2 1b bd 32 0d 15 be 8c 00 fb bd
       -0.017021388 -0.03799653 -0.14555815 -0.12255964
000320 be a0 90 bd 6f cb 39 3d d8 3a e1 bd a9 68 27 be
       -0.07061909 0.045360025 -0.10997552 -0.16348518
000330 1e 81 bb bd 05 dd d3 bc 47 0e 88 3d ad 66 15 bd
       -0.091554865 -0.025862226 0.06643348 -0.036474872
000340 d6 33 2b 3e c0 72 69 3e b6 a7 c4 bb 4e 16 71 3c
       0.16718993 0.2279768 -0.006001438 0.0147147905
000350 7f a1 6c 3d 2b 21 cf ba 3b 14 c0 3d b4 56 d6 bd
       0.057771202 -0.0015802732 0.09378859 -0.10465756
000360 6e 4c 59 bd da 14 ca 3c cc ad 50 3e 83 d8 56 bc
       -0.053051405 0.024668146 0.20378798 -0.013113144
000370 9b e4 34 3e c5 8d 24 3e d2 58 7d bd 4d bd 16 bd
       0.17665331 0.16069706 -0.061852284 -0.036801625
000380 06 07 79 3c 01 35 7e 3d 83 44 0f be 85 61 8f bd
       0.015199428 0.062062267 -0.13990979 -0.07001022
000390 2c e4 00 3e 2e 62 95 bd 78 b0 d6 3d c6 9f 23 be
       0.1258704 -0.07294117 0.104828775 -0.15978917
0003a0 92 d4 17 3e aa d0 35 3e 8b 20 b8 bd 34 a0 99 bb
       0.14827183 0.1775538 -0.08990582 -0.004688287
0003b0 96 f5 9e bc 13 55 d8 bd a2 d7 cc 3d fe 3d 08 bd
       -0.019404214 -0.105631016 0.10002066 -0.033262245
0003c0 30 65 8a bc f7 ae 30 be 1c 53 40 3d 84 6c 04 3d
       -0.016893953 -0.17254244 0.04695426 0.03233005
0003d0 4f 56 16 bd 0c 0e 77 3d 6d 42 2b 3e 81 36 80 3d
       -0.036703404 0.06031613 0.16724558 0.06260396
0003e0 3f cf 78 3d 27 21 90 3d 8c cf a6 3d 8e 65 e7 3d
       0.06074452 0.07037573 0.08145055 0.11298667
0003f0 76 57 48 bd 15 fa 61 3d f4 0a ac bd a3 83 90 3d
       -0.048911534 0.055170137 -0.08400527 0.07056358

decoder.weight_hh_l0 f4 [256, 1]
000000 ce 57 29 3c 6f ad 1f 3e b3 99 33 3d fa 0a 9b 3c
       0.010335876 0.15593503 0.04384775 0.018926132
000010 95 1b ac 3d 50 7c 41 ba a2 56 2e bd 5f 93 cb bd
       0.08403698 -0.000738089 -0.04256309 -0.09940218
000020 02 b7 65 be 8f 22 31 be f0 bf b0 be 91 0b 85 3e
       -0.22433093 -0.1729834 -0.34521437 0.25985387
000030 6e de cd 3d 7a a1 94 3e c5 a1 f3 bd e6 0a 4e bd
       0.10052191 0.29029447 -0.118960895 -0.050303362
000040 40 04 d0 3c 88 9d 03 be f2 b5 4b 3e fc ad 11 bc
       0.025392652 -0.12853062 0.19893625 -0.008891579
000050 a8 b4 9d 3e d3 13 3e be 39 6d 19 3e 53 cc 48 3e
       0.30801892 -0.1856225 0.14983071 0.19609194
000060 a6 bc 19 be 0b 28 b6 3d 48 be e3 3d 7a 46 8b be
       -0.1501337 0.08894356 0.11120278 -0.27202207
000070 a4 6c 5a 3e 03 be 9b 3d 35 b8 c9 3d 8a 54 b9 3e
       0.21330506 0.07604601 0.09849588 0.3619731
000080 38 a2 94 3e 2a ae 49 3e ad e1 65 3e 78 76 c7 be
       0.29030013 0.19695345 0.2244937 -0.38957572
000090 70 8a f8 3d 7c cc 99 bd ec ba 99 3d f5 3d 7f 3d
       0.1213578 -0.075097054 0.07506356 0.062314946
0000a0 8c 1b 50 3e 82 91 02 3f 4b aa 34 3d 12 03 eb 3d
       0.20323008 0.5100328 0.044107717 0.11475195
0000b0 42 e9 69 bd 12 c4 09 be 98 45 71 be 59 9f bd bc
       -0.057107218 -0.13453701 -0.23561704 -0.023147272
0000c0 31 b0 62 3e 3a 37 10 3e 11 44 82 bf f0 79 0b bd
       0.22137524 0.14083567 -1.0177022 -0.034051836
0000d0 5a 92 ae 3d 43 60 65 3e 41 ce 75 3e a8 c2 b3 3e
       0.08524008 0.22400002 0.24004461 0.35109448
0000e0 af 51 45 3e f6 e2 d0 bd e3 b9 c8 3e d2 ce 34 be
       0.19269441 -0.10199539 0.3920432 -0.1765702
0000f0 13 2e 08 3f 6d 52 df be ae 7a b6 bc 42 0e 8b be
       0.53195304 -0.43617573 -0.022275295 -0.27159315
000100 3c c2 82 3d d9 0c 12 3e 3d b0 4e 3d 11 6a 38 bd
       0.063847035 0.14262713 0.050461043 -0.045023028
000110 32 14 a8 3d 0e b9 ad bc d7 2c 00 be ad 33 52 be
       0.08206977 -0.021206405 -0.12517105 -0.20527525
000120 f1 ca 31 be c2 b7 14 be 30 54 fe be f2 9c 2a 3d
       -0.17362572 -0.14523223 -0.49673605 0.04165358
000130 43 20 c4 3c 08 39 26 bd e9 62 f8 bd 8e f9 42 3e
       0.023941165 -0.040581733 -0.121282406 0.1904051
000140 29 a1 1b be ed fa 36 bc c0 8e 5b bc f7 70 2b 3e
       -0.15198196 -0.011168224 -0.0134007335 0.16742311
000150 38 43 e7 3d 48 91 70 be 2e a5 e8 bd 3b a5 5a 3d
       0.11292118 -0.2349292 -0.113596305 0.053380232
000160 38 18 b6 bc 63 87 e9 bd 86 a5 25 3e 35 de 6f be
       -0.022228345 -0.11402776 0.16176423 -0.23424609
000170 0d 32 03 3d 58 61 c4 3b 58 3c 1b 3e 22 c2 0b 3f
       0.032030154 0.0059930496 0.15159738 0.545931
000180 1c b6 9d 3e 5a fe 01 3f fa 77 33 3e 98 0d 35 be
       0.30803 0.50778735 0.17526236 -0.17680967
000190 b1 fe fb bd c4 7f 33 be 3b 18 aa ba 2a ff 83 bd
       -0.12304438 -0.17529207 -0.0012977192 -0.06445153
0001a0 b0 bb 3d 3f 13 e2 3d 3f 35 ba ca bd 4e b2 ae 3d
       0.74114513 0.74173087 -0.098987974 0.08530103
0001b0 62 f3 86 be 27 5a 12 be 7d 79 19 be 78 40 94 b9
       -0.2635756 -0.14292203 -0.1498775 -0.00028276793
0001c0 57 75 03 3f a5 51 93 bd 9e 0b 69 3f 32 52 5f be
       0.5135092 -0.07193307 0.9103335 -0.21808699
0001d0 90 00 a9 3d b0 a6 b2 3d 57 ee 44 3e 95 a8 6a 3f
       0.082520604 0.08723199 0.19231544 0.91663486
0001e0 62 bd e0 3d 82 d7 22 be 52 aa 5c 3f e8 c8 ac be
       0.10973622 -0.15902522 0.8619739 -0.3374703
0001f0 fa c1 9b 3f f2 95 cd be 7f 3c ae bd 37 63 8f 3f
       1.2168572 -0.40153462 -0.085076325 1.1202153
000200 6e 99 16 3d ba 8a 01 be cb 48 c6 3d c6 ea 09 be
       0.036767416 -0.12650576 0.09681853 -0.13468465
000210 a2 70 34 3d f8 69 82 be 0f 6a 1e bd 31 fc 83 3e
       0.044052728 -0.25471473 -0.038675364 0.25778344
000220 21 06 07 3e ff 1d a0 3e 1b a4 44 3e bf 2e 01 3e
       0.13185932 0.31272885 0.19203226 0.12615488
000230 38 9d 8b 3d 94 b8 29 be 2d 24 1d be fb f1 83 be
       0.068170965 -0.16574317 -0.15345831 -0.25770554
000240 67 e5 05 be 6e 32 8d 3d 01 65 04 be bc d1 1d be
       -0.13075791 0.06894384 -0.12929155 -0.15412039
000250 da de 32 bd aa c1 bd bd f9 1a ae 3d 92 42 f5 3d
       -0.04366956 -0.09265454 0.085012384 0.11975588
000260 93 b7 97 3d fb 75 7e bd 53 7d dc 3d 1f a8 19 3d
       0.07408061 -0.062124234 0.10766091 0.03751385
000270 8d a7 bb 3d 1e b8 4f 3e 9a fa 28 3d 72 3c ab be
       0.09162817 0.20285079 0.041254617 -0.33444554
000280 d7 4f 50 3d 25 63 8f be 78 0b 72 be b7 97 ba be
       0.05085739 -0.2800533 -0.23637187 -0.36443874
000290 1a a4 42 3d bb 3a e6 bd 5c 92 a3 bd 5f a7 60 3c
       0.04751978 -0.11241671 -0.079869 0.013711779
0002a0 f4 9c 9e 3e ca b9 de 3e f5 43 03 bd 0e d0 73 3e
       0.3097912 0.4350112 -0.03204723 0.23809835
0002b0 69 6c ef 3b 6f fe 96 bd cb 5c fa bd 53 34 c9 3c
       0.0073066247 -0.07372748 -0.1222473 0.024561083
0002c0 05 4b a6 bd 37 ae fb 3d ec 88 52 3e e7 bd b5 3d
       -0.081197776 0.12289088 0.20560044 0.088741116
0002d0 cc b9 8f 3d 13 72 05 be 61 f8 ef 3d 88 1d d0 3e
       0.0701786 -0.13031797 0.117172964 0.4064753
0002e0 8d d2 c3 bd 23 ca f4 3d f9 2c dd be cc ab 76 be
       -0.09561644 0.11952617 -0.43198374 -0.24088973
0002f0 25 35 fe 3e 43 05 c0 bd 23 dc 5b bd 3a b8 13 bf
       0.4964992 -0.093760036 -0.053676736 -0.5770298
000300 fa 82 89 bd 62 05 39 3e d3 88 68 3d ce b7 06 3e
       -0.06714435 0.1806846 0.05677111 0.13156053
000310 fe 38 38 3e e2 1b 70 bd 06 2c 95 3c ae 25 91 be
       0.17990491 -0.05862034 0.018209469 -0.2834906
000320 31 dc 84 be 81 48 06 bf 09 2b 90 be 87 14 63 3d
       -0.25949243 -0.5245438 -0.28157833 0.0554395
000330 5a 98 17 3e d6 0d 87 3c 51 42 22 be 4a 14 bc be
       0.14804211 0.01648609 -0.1584561 -0.3673423
000340 42 8f 8e bd 2e fd 3d be 24 b3 5c 3d e5 55 02 3d
       -0.06960918 -0.18553612 0.05388178 0.031820197
000350 9b e2 b8 3b c4 c1 87 be a2 88 72 3d bd 1e 87 3e
       0.005642248 -0.2651502 0.059212334 0.2639064
000360 15 d1 6e be 7d bb ca 3d 54 92 54 3e 5f 61 fe be
       -0.23321946 0.09899042 0.20758945 -0.49683663
000370 87 52 8e 3d d0 bd 99 bd 49 c6 3b 3e 25 34 e7 3e
       0.069493346 -0.07506907 0.18337359 0.4515697
000380 c4 1e 02 3e 59 dd 24 3e 14 34 a5 3c 0c e9 aa be
       0.12707049 0.16100062 0.020166434 -0.33380926
000390 75 a3 f8 3d 1e 85 e3 3c 19 b9 19 3e de 18 e0 3d
       0.12140552 0.027773436 0.15012015 0.10942243
0003a0 0e e4 91 3e be 08 a3 3e 31 ce 06 3e a8 a6 81 bd
       0.28494304 0.31842607 0.13164593 -0.06330615
0003b0 6d b7 ce bd f1 17 da bd a3 aa 54 bd 0d cf a9 bd
       -0.100935794 -0.10649098 -0.051920544 -0.08291445
0003c0 04 52 75 3e 7c 5d 5a 3e 8d f6 97 3e c2 36 b4 bd
       0.23957068 0.21324724 0.2968029 -0.08799507
0003d0 c4 3f 80 3d 06 1a 5c 3e 9f 87 37 bc 5c 78 6c 3d
       0.06262162 0.21494302 -0.011201768 0.05773197
0003e0 15 62 bc 3d 44 7f da bd 7d e2 89 3e 6d 69 e9 be
       0.09198395 -0.10668805 0.2693061 -0.45588246
0003f0 ea 75 af 3e ce d0 b3 be ce 75 e6 3d b7 aa 53 3f
       0.3426965 -0.35120243 0.11252938 0.82682365

decoder.bias_ih_l0 f4 [256]
000000 2d a8 1e bd ac d1 ca 3d 0b 81 47 3d 87 2c 96 3d
       -0.038734604 0.09903273 0.04870705 0.07332712
000010 1c 28 97 3c 1b a7 3d 3d c7 f1 78 3c 79 18 6f bd
       0.018451743 0.046301942 0.015194363 -0.05837295
000020 1a e9 8a bc 8d b4 90 3d ca d0 b7 3e 5a 69 e4 3c
       -0.016956855 0.07065687 0.3590148 0.027882267
000030 fe f0 13 3e c1 bb e9 3d 3c d4 ea bc d3 66 e8 bd
       0.144474 0.11412764 -0.028665654 -0.11347737
000040 ef e4 25 3e 76 7e 6b 3d b5 4a 12 bc 33 a7 a3 bd
       0.16200612 0.05749365 -0.008928944 -0.07990875
000050 44 16 1c 3e 2a 18 7d bd b3 a3 fb bd 4e 87 13 3e
       0.15242869 -0.061790623 -0.122870825 0.14407083
000060 1a cd 7b bd 61 61 60 bd ca c2 5c bd ef 42 df bd
       -0.061474897 -0.054780368 -0.053896703 -0.109014384
000070 25 a1 43 bd 9a b2 00 bd a2 1e 98 3d 49 da e4 bd
       -0.0477611 -0.031420328 0.07427718 -0.11174447
000080 0a e0 d1 3d 0e 20 3f 3c d1 67 7e 3b 91 5e da 3d
       0.1024781 0.011665357 0.0038819204 0.10662568
000090 fe 2f b1 3b dd 16 6c bc 0c be 01 bd 93 20 20 3d
       0.0054073324 -0.014409748 -0.031675383 0.039093565
0000a0 02 51 51 bc 89 67 ea 3d 30 d9 ee 3d f8 b5 6c bd
       -0.012775661 0.11445529 0.11662519 -0.057790726
0000b0 e1 b3 bb 3d dd e8 ae 3d f9 4b d4 bd b4 94 8c 3c
       0.091651686 0.08540509 -0.10366053 0.01716075
0000c0 ab 4b ae bd 65 69 12 3e c1 8b 83 be e5 fe 67 bc
       -0.08510526 0.14298017 -0.2569256 -0.014159893
0000d0 d4 b8 ae bd e3 7c cf bd fe 94 90 3d 36 b2 43 3e
       -0.08531347 -0.10131242 0.07059668 0.19110951
0000e0 33 3a 1d 3e e0 63 f7 bb 02 cd 27 3e e4 e7 ee 3b
       0.15354232 -0.007549748 0.16386798 0.007290827
0000f0 39 4f 67 3e 5a 0a 4e bd 78 f3 86 3d 4a f1 9a bc
       0.22588815 -0.05030284 0.06589407 -0.018913884
000100 b1 8b 22 be 3b 79 5f bd 95 b9 53 bd 0b e1 45 be
       -0.158736 -0.054558974 -0.051690657 -0.19324128
000110 1e 0f 7a be b1 f2 00 bd 63 ef 56 be c9 90 18 bd
       -0.24419829 -0.03148145 -0.20989756 -0.037247453
000120 e9 f1 5a 3c ef 65 3f be 0f c5 00 bf 32 9a 95 be
       0.01336334 -0.18691228 -0.5030069 -0.29219204
000130 83 0c ca bd 65 e8 6c be b1 41 a8 bd fc 74 48 3c
       -0.09865668 -0.23135526 -0.08215655 0.0122349225
000140 28 3a d0 be 95 22 7e bb 61 a2 68 be e2 4a 9a 3b
       -0.4066937 -0.0038777937 -0.22718193 0.0047086338
000150 25 8e 2a be 70 ce 02 be 4f 83 24 be b9 76 45 be
       -0.16655786 -0.12774062 -0.16065715 -0.1928357
000160 4e 1d 07 3d bb cd 72 bd 7b 5f 33 be 5f b6 cd bc
       0.03298693 -0.05927823 -0.17516892 -0.025111375
000170 24 c5 3c be 5e 7b ce 3c 55 99 84 bd 99 d9 85 3e
       -0.18434578 0.02520531 -0.06474558 0.26142576
000180 e6 b1 8a be de 14 d5 3d f5 cf 4e be 7c 72 79 3c
       -0.2708885 0.10404371 -0.20196517 0.015225049
000190 d0 94 2c be 55 53 bc bd c2 38 53 be 9c d9 22 be
       -0.16853642 -0.09195582 -0.2062712 -0.15903324
0001a0 c7 9a d2 3d d0 b1 07 3e 66 19 b0 be e8 d3 f4 bc
       0.10283428 0.13251424 -0.34394377 -0.029886201
0001b0 59 b6 5e 3d 1e d5 f1 bd cb f7 1c bd 46 4c 1f be
       0.05437312 -0.11808227 -0.03832225 -0.1555644
0001c0 6b d7 ed 3d c3 bd 9b be aa 1b 8b 3f 0b 61 eb bd
       0.11613353 -0.30418214 1.0867817 -0.11493119
0001d0 0f c6 50 be c4 24 f3 bd 43 13 eb bb db 1f a4 3d
       -0.20388053 -0.11872247 -0.007173927 0.080138884
0001e0 e3 00 4e be d3 ca 3b bd 0c c8 88 3c 27 54 45 bc
       -0.20117526 -0.045847725 0.016696952 -0.012043989
0001f0 07 3e 30 3d be ad ed bd 2b a2 00 be 88 34 62 3f
       0.043027904 -0.11605404 -0.12561862 0.88361406
000200 56 75 e4 bd be 66 db bd 93 74 92 bd ba 06 5c 3d
       -0.111551926 -0.10712956 -0.07151141 0.053717352
000210 7c 7b 1c be b8 de 47 bd b6 81 b2 bc 0f 91 67 bd
       -0.1528148 -0.048796386 -0.021790367 -0.056534823
000220 2e 01 95 bd 44 4d 8f bd 6d 1f 7d be c7 6b 23 3e
       -0.07275616 -0.06997159 -0.24719019 0.15959083
000230 4d f7 69 bc 2d bb 32 be 36 f2 6c bd a2 de 0e 3d
       -0.0142801525 -0.17454214 -0.057848178 0.034880288
000240 3e 3b 1e 3d 40 a0 bb 3c 86 45 99 3c c2 42 03 3d
       0.038630717 0.022903562 0.01870991 0.032046087
000250 ae e2 a5 bd 09 ab 07 bd a2 fd b6 bc 67 ff 34 3e
       -0.08099876 -0.033122096 -0.022337738 0.17675553
000260 89 63 11 3d 46 66 0f 3e 85 2b c0 3d 5e b0 12 3d
       0.035495315 0.14003858 0.09383301 0.035812728
000270 20 49 da 3c ac be 80 3d 32 47 29 3e 72 58 13 be
       0.026646197 0.06286368 0.16531065 -0.14389208
000280 74 69 0d 3e f7 24 02 bd 36 02 1b be 82 71 aa 3d
       0.13809758 -0.031773534 -0.15137562 0.08322431
000290 96 f9 26 3c 9c f8 ce 3c a0 c0 18 be 32 29 54 3d
       0.010191342 0.02526503 -0.1491723 0.0517971
0002a0 e6 4c c4 3d 83 3e 53 bc 06 30 2e bd 4a e2 ae bd
       0.0958498 -0.012893322 -0.042526267 -0.08539255
0002b0 84 9d 2f 3d 7e 39 90 3d 1f af b6 bd ae 6e 17 3e
       0.042874828 0.07042216 -0.089201204 0.14788315
0002c0 1c d1 c9 bc e5 2b a2 bd 00 85 07 3d fd 70 84 bd
       -0.024635844 -0.079185285 0.033085823 -0.06466863
0002d0 d2 49 1d bc b2 e6 dd bc 55 d4 cf bc 77 40 35 3d
       -0.00960012 -0.027087543 -0.025369802 0.04425093
0002e0 ea 04 0b be c1 c7 24 bd f2 c7 38 bc b2 58 85 3d
       -0.13576093 -0.040229563 -0.011278139 0.06511058
0002f0 c6 9d d5 bc 97 9e 12 bd 65 5e 21 be ee d3 86 3d
       -0.026076209 -0.035795774 -0.15758665 0.06583391
000300 06 d9 d5 bd 6b 41 b7 3d 63 1a 10 bd 2f 9d b8 bd
       -0.104417846 0.08948024 -0.035181414 -0.090143554
000310 11 65 04 bd db 6b b6 3d 7f 0c f5 bd 79 cf 41 3e
       -0.032322947 0.089072905 -0.11965274 0.18926801
000320 8e 0b cc bb 5b ff 9c bd 25 c0 bd 3e 83 e7 18 ba
       -0.0062269634 -0.07665893 0.37060657 -0.0005832838
000330 49 cc d6 bd 96 c8 e4 3d 45 59 85 bc 7a de 3b 3d
       -0.10488183 0.11171071 -0.016277919 0.045866467
000340 0d 1b 22 3d 88 4b d6 bd 93 f0 b0 3b a0 e1 e7 3d
       0.03957658 -0.10463625 0.0053997724 0.113223314
000350 dc e1 05 3e 27 d8 8e bc 20 8b bd bd 06 06 c7 bc
       0.1307444 -0.017437054 -0.092550516 -0.024294864
000360 67 f5 fa bd c1 98 42 3d c5 6e b4 3d 61 37 0c be
       -0.12253838 0.04750896 0.0881019 -0.13693
000370 fb 74 1e be 9b 50 a3 3d 0d 63 af bc 74 67 bf 3d
       -0.15474312 0.07974359 -0.021409536 0.09345904
000380 8a aa 06 bb ce cc 14 3e c4 b2 ab bd d3 3c 6f 3e
       -0.0020548427 0.14531252 -0.08383706 0.23363046
000390 4f 14 25 3d a9 25 30 3d 6d 3a f2 bd 3f b7 74 bc
       0.04030257 0.043004666 -0.1182755 -0.014936267
0003a0 8d d6 49 3e e4 d3 bc 3c 51 31 88 bd eb 86 2c bc
       0.19710751 0.023050256 -0.06650031 -0.010530214
0003b0 db 6c 91 3d c0 41 fb bd 91 91 00 be d7 16 33 3d
       0.07100841 -0.122684 -0.12555529 0.043722954
0003c0 f3 f8 8d 3d d9 37 6e 3e 4d 90 38 3f b0 b9 96 bc
       0.06932249 0.23263492 0.72095186 -0.01839909
0003d0 ad 25 bf bd c8 3e d9 37 4a 07 1d bd cd da 43 3e
       -0.09333358 2.589765e-05 -0.03833703 0.19126435
0003e0 be 87 51 3d 8b 74 9e bd bc e6 89 3e 35 b7 a0 3b
       0.051154844 -0.077370726 0.2693385 0.0049046525
0003f0 0f 84 1e 3e ae 93 e2 bd 51 0f f5 3d 7a bc 01 3f
       0.15480064 -0.11063324 0.11965812 0.5067822
