output/synthetic_data/models/model_hidden16_lr0.005_clip1.0.pth (torch, 13735 bytes, 9 tensors)

encoder.weight_ih_l0 f4 [64, 1]
00000000: 66dd 363c 5810 903e 3da1 093c c18d bc3d
00000010: 75ca f03d 0e0f a5be 9c7e 0f3d e2ba bebc
00000020: 8cc3 a4bd 8fee 26bc c50a dbbc 11e5 4bbd
00000030: 5f4d e83d 3158 a93d 35f4 c3bd 6f02 15be
00000040: 5876 88bd b255 0b3e faa8 863e 3eae 823e
00000050: fb7f 99bd 7052 40be 4639 9b3e 11f9 aebe
00000060: 371b 1abe 186d 873e 0988 453d 5823 ad3e
00000070: c599 173e 4281 26be 7c1e 953d c48f 15bc
00000080: ddb9 91be cf69 723e 1b3e 5f3e 29b2 5d3c
00000090: b2d9 873e a74a 043c 34c7 a3be 71e3 a53d
000000a0: 0604 4fbd 27a6 523d c0f4 1cbe 55cc 863e
000000b0: 6603 953e ebaf 45be a767 eb3d 7623 3d3e
000000c0: b5b8 bb3d 778c bcbc ef93 fc3d 03ee f03d
000000d0: 5632 ae3d a39f 70be a055 183e 980f c2be
000000e0: cfc5 663e 0186 403e 9565 90bb 5ffd 733d
000000f0: 1a8b 59bb 6e1b 213e 9fea 203e a37d 7fbe
0.011161184 0.2813747 0.008400259 0.09206725 0.117573656 -0.32238048 0.035032853 -0.023282472
-0.0804511 -0.010188713 -0.026738534 -0.049779 0.11342882 0.08268774 -0.09568063 -0.1455171
-0.06663197 0.13606909 0.26300794 0.2552356 -0.074951135 -0.18781447 0.30317134 -0.34174398
-0.15049444 0.2645042 0.048225436 0.33816028 0.14804752 -0.16260245 0.07281205 -0.009128515
-0.28462115 0.23673175 0.21801035 0.013531246 0.26533276 0.008074439 -0.31987917 0.08100022
-0.050540946 0.051427986 -0.1532774 0.26327768 0.29104155 -0.19305389 0.114943795 0.18470559
0.091660894 -0.023016198 0.123329036 0.11764147 0.085056946 -0.23498397 0.14876413 -0.37902522
0.22536395 0.18801118 -0.004406641 0.059567805 -0.0033194483 0.1573312 0.15714501 -0.2495027

encoder.weight_hh_l0 f4 [64, 16]
00000000: 01f6 e0bc 73a7 133e d493 52be 3c87 a83d
00000010: 3d28 ac3b 89d2 2dbe d707 a73e b40a 973e
00000020: c405 b4bd 0873 213e 8357 b03e 76fc 8b3e
00000030: c10a 90bd acab c7bd b07e e83d 721f 7bbe
00000040: c56d 3c3e c379 8d3e 2509 593e 79ed 14be
00000050: 57c9 8c3e c9bf 6bbe b15c 713d d64b 613d
00000060: a96a 30be 97ad 37bd 1207 9d3c e859 55be
00000070: 92f2 9dbd 8254 42be c79f 523e 5000 fc3d
00000080: c857 6cbe 88ef 7d3d 9745 91bd 4019 cdbd
00000090: 899b 63be 3fc8 aabd 5d06 b1be 16dc 573e
000000a0: 27d9 81bc 8f68 823e 0e8f b33e a908 dcbd
000000b0: 9f7a 11be 1231 3fbe e99a 463e 4c76 34be
000000c0: 6764 343e f832 2dbe 0975 aa3b 0cd2 273e
000000d0: 3644 c63d 0040 22bd a69b 9bbd 2c20 44be
000000e0: ccd5 433d c9dd d23b dbf1 353f 58c3 3bbe
000000f0: 6204 f83d 74f4 583e 411b 1cbe ee51 9abd
00000100: ddac 1bbe c487 c03d 421d 83be 1d91 f53d
00000110: ff5a 33bc 8d35 30be a655 9c3c 2c87 14be
00000120: 768e 543d f635 b43d 7975 e83e cb59 2a3e
00000130: 3d5f 04bd dae0 aabd 0f5e 1bbc 3805 eb3d
00000140: d136 efbd 6f25 5dbc cefd 5e3e ea8a 14be
00000150: 1880 49bd 1b24 e0bd 2873 883d 75d4 43be
00000160: 1097 4fbd 03b2 603e c10c b23c 5e70 173c
00000170: 68af 86bd dc46 803e 1645 4bbe 6eab b0bd
00000180: 9a14 723e 0435 143e ed79 5b3e 76e3 78be
00000190: 4c21 d53e a0f6 b3be 52fb a8be 3f77 b8be
000001a0: 9021 063c 8734 e6bd c5b1 a5be 3149 ae3d
000001b0: 1e3b 0ebe d00f 8abe 82f5 223e 1dfc debb
000001c0: 0244 10be c644 c6bd ae02 d03d 80ad 8dbe
000001d0: 0fdf 4cbe 8446 e13c 1fbc b9bd 1a42 4f3e
000001e0: 3234 1a3d 5b9f fb3c b98d bd3d 7788 133e
000001f0: 5c82 023e e07a e23b 1a38 5ebe 91ae eabe
00000200: ac9c 013d 38a2 32be cf9a 2a3e 5888 793e
00000210: 0c3d b3bd 9d22 ab3d 4c8e 96be 604c 70bd
00000220: ad28 88be 465a b4bd c3b3 fb3e 8d65 e23d
00000230: e6c2 6abd 04e3 90bd 6531 423e 1efd 1dbe
00000240: 6413 043e b04c 193d 5d30 b3bd 40d2 433d
00000250: 3fb1 053e 5ffb 6cbe 91fa 5ebe f8c3 5bbe
00000260: a320 823e a3c3 893e ef14 443e 6ec7 40be
00000270: eeb3 173e 56d6 813d 6412 52be e670 d7bd
00000280: 7177 783e 77c2 36be 649f 843e e49d 1abe
00000290: 9cf9 bbbe 0471 c13d 7926 03bf 4997 b6bb
000002a0: 3cd5 c4bd 53f5 87bd 2ee3 a83e 9662 493e
000002b0: 938c 983e 8d52 3abe 19b3 fbbc eeb5 3cbe
000002c0: c50f 37be 2b31 a13e f7cc 9dbe 425a 9fbd
000002d0: ff8b 03be 753f aebd fa01 18be 5269 3f3e
000002e0: 1b15 93be 477e 29be db7b e8bd 0fbb 223e
000002f0: fcd8 c53d 84dc 3cbe e59c 823e bce9 533e
00000300: 5124 32bd d8b3 cbbd 0dab 81be 9485 833e
00000310: 77ea 163e 573e 733d 0d09 543d 0e7e ef3c
00000320: 6bd7 8cbc 5ae0 2e3e 3dd3 733e 70b9 32be
00000330: 7728 90be 6149 a83d 77ce 313e 763c 653e
00000340: ce90 cdbd 829b 603e f327 f3bd 9ed5 b63d
00000350: 71eb 79be 265b 89be 9860 02be b8ea 78be
00000360: d9ff 083e b83c 983e 5938 103e 9704 bdbd
00000370: 3494 5bbc 4f5a eebd 4393 5cbe c6fd d33d
00000380: 5138 6cbe bee1 abbc 3ed5 0c3e 74f1 8b3e
00000390: f3b1 97be 171e 973d 8f24 a0bd 88e3 fabd
000003a0: 1b95 dd3d a9f3 173e 75c1 043d 4128 c53d
000003b0: 828f 8ebd 45df f2bc 80d5 b33d 632e 1c3d
000003c0: c727 4bbd 27bc 2bbe ca4b afbc 96e6 5b3d
000003d0: b518 bdbd 9228 2bbe 21b3 1cbf c426 88be
000003e0: 38fc aebd 937a 05bd 7aaf 983e c9dc 39bd
000003f0: d011 1d3e d3e1 f0bd 8bbe 873d e9e8 94be
-0.027461054 0.14419346 -0.20564204 0.08228919 0.00525382 -0.16974844 0.3262317 0.29500353
-0.08790162 0.15766537 0.34441766 0.2734105 -0.07033301 -0.09749541 0.11352289 -0.24523714
0.18401249 0.2763196 0.21194895 -0.14543714 0.2749736 -0.23022379 0.058926288 0.055003963
-0.17228188 -0.044843283 0.01916841 -0.20835078 -0.07712282 -0.1897755 0.20568763 0.12304747
-0.23080361 0.061996013 -0.07093351 -0.10014582 -0.222273 -0.08338975 -0.34575167 0.2108005
-0.015850617 0.25470397 0.3507008 -0.10743839 -0.14206932 -0.18671063 0.19395031 -0.17623252
0.17616425 -0.16913974 0.00520194 0.1638872 0.09680979 -0.039611816 -0.07598047 -0.19152898
0.047811314 0.0064351303 0.7107217 -0.18336236 0.12110211 0.21187001 -0.15244772 -0.07535158
-0.15202661 0.09400895 -0.2560826 0.11990569 -0.010946988 -0.17207928 0.01908381 -0.14504689
0.051893674 0.08799355 0.45402125 0.16635816 -0.03231739 -0.08343668 -0.009482875 0.11475605
-0.11680377 -0.013497694 0.21776506 -0.14506117 -0.049194425 -0.109443866 0.06662589 -0.19124015
-0.050681174 0.21942906 0.021734597 0.009243099 -0.06576425 0.2505406 -0.19850573 -0.086264476
0.23640671 0.14473349 0.2143323 -0.2430552 0.41626966 -0.35149097 -0.33004242 -0.36028478
0.008186713 -0.112404875 -0.3236219 0.08510054 -0.13889739 -0.2696519 0.15913966 -0.0068049566
-0.14088443 -0.09681086 0.10156761 -0.27671432 -0.20006965 0.027499445 -0.090690844 0.2024006
0.037647434 0.030715635 0.09255547 0.14407526 0.1274504 0.0069116205 -0.21701089 -0.4583631
0.031643555 -0.17444694 0.16660617 0.24368417 -0.08751878 0.08356211 -0.2940544 -0.058666587
-0.26593533 -0.08806281 0.49160585 0.110545255 -0.057314776 -0.0707455 0.18964155 -0.15428588
0.12898022 0.03742665 -0.08749459 0.047807932 0.13055895 -0.23142765 -0.21775271 -0.21461475
0.25415525 0.2690707 0.1914861 -0.18826076 0.14814731 0.063397095 -0.20514828 -0.105195805
0.24264313 -0.1784762 0.25902855 -0.15099293 -0.36713874 0.09445384 -0.5123058 -0.005572234
-0.09610984 -0.06638589 0.32985824 0.19666514 0.2979475 -0.18195553 -0.030725049 -0.18428776
-0.1787711 0.31482825 -0.30820438 -0.07780887 -0.12846373 -0.08508197 -0.14844504 0.1869252
-0.2872704 -0.16552077 -0.113517486 0.1589167 0.09660527 -0.18443495 0.25510326 0.20694631
-0.043491665 -0.09946412 -0.25325814 0.2568785 0.14737879 0.059385624 0.051766444 0.029234912
-0.017192563 0.17077771 0.2381105 -0.17453551 -0.28155872 0.08217121 0.17363916 0.22386345
-0.10037385 0.21934322 -0.11872854 0.08927463 -0.2440622 -0.26827353 -0.1273216 -0.24308288
0.13378848 0.29733825 0.14083995 -0.09229391 -0.013402034 -0.11638319 -0.21540551 0.10351138
-0.23068358 -0.020981666 0.1375322 0.27332652 -0.29627952 0.07378786 -0.07819473 -0.122504294
0.10819455 0.14839043 0.032411058 0.096268184 -0.06960966 -0.029647479 0.08780956 0.038130175
-0.04959848 -0.16770993 -0.021398444 0.0536867 -0.09233228 -0.16714695 -0.6121083 -0.26592076
-0.08544201 -0.0325876 0.29821378 -0.045376573 0.15338826 -0.117618226 0.0662814 -0.29083946

encoder.bias_ih_l0 f4 [64]
00000000: 5791 09be 9ad9 48be 0e43 c2bd 2b2c 0bbe
00000010: 790a f1bc 4f58 e6bd 8276 d53d 484a 87bd
00000020: d081 623e c736 273e 0b9b 93bc bd1d 1a3e
00000030: c99a 503d c70b 313e 63e0 643d ee0b f0bd
00000040: f904 953e 4d40 2a3e 70f3 e8bd 13d3 9f3d
00000050: 13f1 ed3c ed62 92bd 3785 ed3e ddac 82bc
00000060: 595b 9e3c cb7e a53d e78f 1a3b d510 2f3d
00000070: 187b 8d3e 3341 923d 910b 313e 26fc 60be
00000080: 28a8 61be 08cb 4f3e 96ce 0ebe 5264 f73b
00000090: 0ce7 c33c bca3 2cbe d9c0 d4bd 9b0c 273e
000000a0: aef2 a73d 91cc 913c 6a02 0dbb 1eb2 0a3e
000000b0: f9d9 90be a700 763d ad0d d43d d163 91bd
000000c0: b501 853e 24f9 853a 39f6 4c3e dbbe fcbd
000000d0: aac7 863e 9d92 bd3d 3d2f cbbd 6d48 87be
000000e0: ec14 8d3e 7fca 0fbe db8f 21be 200f 833e
000000f0: 3f2b b0bc d98a 323e 1235 28b9 959f 193e
-0.13434349 -0.19614258 -0.09485446 -0.13591067 -0.029423939 -0.11247312 0.10422994 -0.06605965
0.22119832 0.1632949 -0.018018266 0.15050407 0.050928865 0.17289649 0.055878054 -0.117210254
0.29105356 0.16626091 -0.11374557 0.07803931 0.029045617 -0.07147775 0.46390697 -0.015951568
0.019330667 0.080808245 0.0023584308 0.04274066 0.27632976 0.07141342 0.17289568 -0.21971187
-0.22036803 0.20292294 -0.13945994 0.007549801 0.023913883 -0.16859335 -0.10388345 0.16313402
0.08200584 0.01779774 -0.0021516331 0.13544509 -0.282913 0.060059216 0.10354171 -0.070991166
0.25977865 0.0010221344 0.20015801 -0.1234109 0.26324207 0.0925648 -0.09921119 -0.26422444
0.27555025 -0.1404209 -0.15777533 0.25597477 -0.021504996 0.17435779 -0.00016041499 0.15002282

encoder.bias_hh_l0 f4 [64]
00000000: f6ac e5bd 2568 f3bd 6ea8 483d 1350 3ebe
00000010: 24ee 04be 2a91 1d3e 8f58 8bbe 3217 36be
00000020: eea0 713e f9f9 3b3e 4643 c5bd 2e92 243e
00000030: 0bc5 2fbe ba21 13be 32c8 303e 77b9 7dbe
00000040: 521c 183e 97d1 943e aa1a 3a3d 7aff 7fbd
00000050: 1b87 6dbd 4f5f 46be 10f4 d13c a80d 9bbd
00000060: f0e7 803e 67cc ab3d 4d3b 923e 38eb d53b
00000070: 14f4 9dbd 6e8d 10be a6e8 4d3d 7723 e4bd
00000080: 4eee 97be 3bff 8bbd b5c5 c73c 6969 0f3e
00000090: 294e ccbc cb35 c8bd c85a 233e 4ccb aabd
000000a0: 10a5 debd 1db6 c33c fdd5 96be d0da 733e
000000b0: f0cb 5dbe 03e0 06be 9172 a83d c0db a73c
000000c0: 4e9e 8cbc f99b d0bd 711d 873e 6b49 d43c
000000d0: 568b 253d f4e9 d6bd d9b2 f03d 1240 0ebe
000000e0: 8c07 7b3c 35ea 78bd b230 0f3e 9f44 e03d
000000f0: f17a 4e3e 510d 82be 8d92 f3bd 52b5 e23d
-0.1121463 -0.11885098 0.048988752 -0.18585233 -0.12981468 0.15387407 -0.27216002 -0.17782286
0.23596546 0.18357076 -0.09631972 0.16071388 -0.1716501 -0.14368334 0.17263868 -0.2477778
0.14854553 0.29066154 0.045435585 -0.0624995 -0.057990175 -0.19372295 0.025629073 -0.07570964
0.25176954 0.08388596 0.28560868 0.0065282844 -0.0771257 -0.14116451 0.0502707 -0.11139577
-0.29674 -0.06835791 0.024386266 0.14005055 -0.024939613 -0.09775885 0.15952599 -0.08339557
-0.10871327 0.02389055 -0.29460135 0.23813939 -0.21659827 -0.13171391 0.08224977 0.020490527
-0.01716533 -0.101859994 0.2638965 0.025913915 0.040416084 -0.10493842 0.117528625 -0.13891628
0.0153216235 -0.060770232 0.1398342 0.109505884 0.20164086 -0.25400785 -0.11893187 0.1106974

decoder.weight_ih_l0 f4 [64, 16]
00000000: 2634 293e f029 38bd 8bc8 2d3e 19fe 643e
00000010: 1686 50be 6f07 bb3c 7098 a03d f5a5 533d
00000020: 5f21 683e 944b 243e 2b4a c03d 7ba3 4dbd
00000030: de7a b2bd d689 433e ac49 63be 4643 333e
00000040: 3fbc 8f3e 2914 a8be 4722 c9bd 2099 12be
00000050: 5281 00be 67af 203e 645d 61bd f1e0 f9bc
00000060: 183e 003e c70d 9ebc e824 8a3e 63cb 873d
00000070: 5830 94bd 63a4 253e c506 80be f16d acbe
00000080: 27c6 40be 0db2 413e 537f 5dbe 9c33 b83d
00000090: dda4 57be d3c8 b83e fc4b d4be d6bd 463e
000000a0: 00c9 28be ea53 9f3d 1add d13e c18b 2bbd
000000b0: 2d41 9cbe 2564 8cbe dc7b 273d 4604 cabe
000000c0: d857 f7bd 1986 a33c 268a a3bd 5cb6 59be
000000d0: 5a6d 1ebe 8166 28bd 3106 67be 05fc 983d
000000e0: 2908 9b3e 992e 38be 9db5 67be 5bf5 8a3c
000000f0: ed8e 9fbc 667f 803c df5c 97bd 25eb 0b3e
00000100: d6a0 84bd 2b11 72be 1455 863c ee9f 7cbe
00000110: d1ce 313f 01c6 35be aa6b 6cbe b4af 89be
00000120: 57fc 5e3e 0cae 51be a4eb 39bf e24b 043d
00000130: 1d67 1bbe c749 b7be c4d8 93be e6c1 a83e
00000140: 9354 02be c633 c53d 8a5e 4fbc 2668 7f3d
00000150: 2c5a c1bd 7303 bdbd 8c99 97be 0e5d 213e
00000160: dacb 90be 31b8 0a3e 0da8 d53e a605 9d3e
00000170: b3c6 a1be 9d9b 2ebd a73b b93e f5c5 29bd
00000180: 1b65 94be 178f 0c3f 322c 09bf 3f69 e43e
00000190: cb5a 68bf 0401 09bd 74d6 82bf 1d05 f4bd
000001a0: 0495 99be cca8 383f 3308 5f3f c7c1 a73d
000001b0: 9930 d5be 78a4 093e b765 973e bc6c 6bbe
000001c0: e22e 923e bcca 5ebe 7ef5 af3e 71a8 1fbe
000001d0: d2df 3bbe 5a6a 65bd a843 0a3e 8156 0fbe
000001e0: ea1e 85bc a0d5 b3bd b8f3 bdbe 3f83 9ebe
000001f0: 95b2 953e f08e 2c3e 043b 21be 2e0a 35bd
00000200: ec14 f93d 0c71 733e 81ab 443d cd5b 793e
00000210: 0378 50be 2fcc 65bc f8d9 c3be 2b30 633d
00000220: 36d1 05be da1a 87bd bff9 a53e f661 6e3e
00000230: be54 59be 57c3 c4bd 20c3 df3d 3afa 8fbe
00000240: c33f b6be ca50 ccbc 26aa babe 6cb9 94bc
00000250: 4f01 aebe e70e 76be 0d25 d0be 3e4d afbd
00000260: 97b3 38be aa1e f33d 6cd3 4f3d 9ed0 df3e
00000270: 5816 d5be cc8d afbe 4c98 4e3d 2a7c 8fbe
00000280: 3d99 14be 9411 253e 2f21 8fbe 3060 873e
00000290: bc9e c9bd 9b04 02be f775 6bbe 06c2 c63c
000002a0: daef 983d 5a03 1f3d afd0 a93d c89a 18be
000002b0: 4401 323e a121 7e3e 4b1d e8bd a011 c3be
000002c0: 67ba 0bbe f445 073e 64f7 3b3e 9d15 f2bd
000002d0: d438 a03e 6397 783d ad79 443e d791 11bd
000002e0: aca9 0abe 02e1 4a3d d4dc 593a 363c 53bd
000002f0: c437 5a3d a372 543e e4ad 6ebd 714a 623e
00000300: c8f3 16be b685 9a3e 6da1 3738 7d67 903e
00000310: 2a37 90be 5ab1 4a3e 73a5 4abe bd40 533e
00000320: a724 72be e378 803e 3de6 dc3e 9b0b 683e
00000330: 58ad d5be 2dfd 023e 964d 9d3c a00b 93bd
00000340: be69 8b3e f632 75be 0eaa 163e 5697 e1bd
00000350: 5378 8b3e ecfb 8abe 577a 7abd 1060 70be
00000360: c078 ac3d 2408 4dbe 11b9 1b3c 53cb 65be
00000370: 7b22 ffba 9a30 43be 70c9 babe 2892 67be
00000380: e648 1dbe 4a4b 8bbd 32f0 2bbe f4e7 63bd
00000390: 1573 f4bc f635 ee3d 6b59 8ebe a76f 1cbd
000003a0: ce5b 073e ea4f dd3d f777 823e 287f a93e
000003b0: 7360 f43d c59b 903e 9af3 6c3d 676f 5fbe
000003c0: 4b93 4a3c 039a 173e d806 493e 7a98 403e
000003d0: ac19 36bd deee 6f3e 4980 67be 6570 32be
000003e0: cd4f 55be 208d 7d3e b7e6 fd3d 0d2d a5bc
000003f0: 1ecb 41be 57b8 2a3e e26b 7c3c d830 c4be
0.165238 -0.04496187 0.16971032 0.22362556 -0.2036365 0.022830693 0.07841575 0.05167194
0.2266898 0.16044456 0.093891464 -0.050204735 -0.08714841 0.19095549 -0.22196072 0.17506132
0.28073308 -0.3282788 -0.09820991 -0.14316225 -0.12549332 0.1569191 -0.055020705 -0.030502768
0.12523687 -0.019293679 0.26981282 0.0663059 -0.07235783 0.1617599 -0.25005165 -0.3367763
-0.18825589 0.18915577 -0.21630602 0.08994219 -0.21058984 0.36090717 -0.4146422 0.19408354
-0.16482925 0.07779677 0.40989 -0.041881327 -0.30518475 -0.27420154 0.040889606 -0.39456385
-0.12077302 0.019961404 -0.07985334 -0.21260971 -0.15471402 -0.04111338 -0.22560956 0.07469944
0.30279663 -0.17986526 -0.22627874 0.016962698 -0.019477332 0.015685748 -0.07390761 0.1366392
-0.064759895 -0.23639362 0.01639799 -0.24670383 0.694562 -0.17751314 -0.23087946 -0.26891863
0.21775948 -0.2047655 -0.72625184 0.03229893 -0.15176053 -0.35798475 -0.28876317 0.32960433
-0.12727575 0.096290156 -0.012656817 0.062355183 -0.09441027 -0.092291735 -0.29609334 0.15758154
-0.28280526 0.13546826 0.41729775 0.30668372 -0.31596908 -0.042628873 0.36178324 -0.041448552
-0.28983387 0.5490584 -0.5358306 0.44611546 -0.9076354 -0.033448234 -1.0221696 -0.11915038
-0.29996502 0.72132564 0.87121886 0.08191257 -0.4163864 0.13441646 0.2956979 -0.22990698
0.28551394 -0.21757025 0.34366983 -0.15591599 -0.183471 -0.056009628 0.13502371 -0.13997842
-0.016250093 -0.0878098 -0.37100005 -0.30959508 0.2923781 0.16851401 -0.15745169 -0.04419916
0.12162194 0.23773593 0.04801512 0.24351425 -0.20358281 -0.014025732 -0.38252234 0.05546586
-0.13068089 -0.065969184 0.32417104 0.23279557 -0.21223733 -0.096075706 0.10925889 -0.28120595
-0.3559552 -0.024940867 -0.36457938 -0.018154822 -0.33985373 -0.24029122 -0.40653268 -0.08559655
-0.18037258 0.11871083 0.050738737 0.4371385 -0.4161861 -0.3428787 0.05043821 -0.28024417
-0.14511581 0.16119987 -0.27955005 0.26440573 -0.09844729 -0.1269707 -0.22994219 0.02426244
0.07467623 0.038821556 0.08291756 -0.14902794 0.17383295 0.24817516 -0.11333712 -0.38099384
-0.13645326 0.13210279 0.18356091 -0.11820529 0.31293356 0.06069125 0.1918704 -0.035539474
-0.13541287 0.04953099 0.0008310799 -0.051571093 0.05327584 0.20746855 -0.058271304 0.2209871
-0.14741433 0.30180138 4.378094e-05 0.28203955 -0.28167087 0.19794217 -0.19789676 0.20630164
-0.23646794 0.2509223 0.43144408 0.22660677 -0.41733813 0.12791891 0.019202035 -0.07179952
0.27229112 -0.23945221 0.14713308 -0.11015193 0.27240238 -0.27145326 -0.06115183 -0.23474145
0.08421469 -0.20022637 0.0095045725 -0.22440843 -0.0019465232 -0.19061509 -0.3648181 -0.22614348
-0.1535984 -0.068014696 -0.16790846 -0.05564113 -0.029840032 0.11631386 -0.27802595 -0.038192417
0.13218614 0.10806258 0.2548215 0.33104825 0.11932459 0.28243843 0.057849504 -0.2181984
0.012364219 0.14804845 0.19631517 0.18808165 -0.044458076 0.23430964 -0.2260753 -0.17425688
-0.20831223 0.24760866 0.12397521 -0.020163083 -0.1892514 0.16671883 0.015406581 -0.38318515

decoder.weight_hh_l0 f4 [64, 1]
00000000: d794 d83e 233e 1c3f 953e a23e aca2 723e
00000010: 5a4e 2bbf 22bb d23d f84a c33e 9214 d7bd
00000020: 7c9d 2f3f e296 65be 6838 543c 2198 8c3d
00000030: fea6 3ebe af86 b6be c124 8a3e 8a86 bf3c
00000040: 8e2e c83c f1e3 563f 88ce 06be 208b babd
00000050: c285 953f 583d d13b 89f6 e23e 42f4 1cbe
00000060: 134f df3e be16 883e bc33 da3d aece d3bd
00000070: 9ffe 333e d8d4 263f ea38 b93d 1f55 b73d
00000080: ed14 8abe dcf3 aa3d efa3 b1be d0ae 90bd
00000090: 72fb 08bd 974c f73b 2d7c d73e e163 e7bd
000000a0: 60d7 d13e 5ff2 68be ae5e 843e 5a0b dabd
000000b0: 25c4 0d3e eb30 e03a 2deb 183e e92d 19be
000000c0: 95cc bf3e 7ae3 353f 8faa 063e 36ac 0a3e
000000d0: b87a 583f d90c 653e cd5d 7f3e 5bd1 43bd
000000e0: 510a 0a3f 4e8f 843d 63d7 9a3d b70f 183e
000000f0: 7020 01be db2c f43e 8624 a23e 567a 643e
0.42301056 0.61032313 0.3168837 0.23694867 -0.6691643 0.10289599 0.38143134 -0.1050197
0.6859968 -0.22420838 0.012952901 0.06864954 -0.1861839 -0.3564963 0.26981166 0.023379583
0.024436262 0.8394156 -0.13164723 -0.09108567 1.1681445 0.0063854866 0.44328716 -0.15327552
0.43615016 0.2657985 0.10654399 -0.103421554 0.17577599 0.65168524 0.090440586 0.089517824
-0.2696909 0.08347294 -0.34695384 -0.07064593 -0.033442922 0.007546972 0.42086926 -0.11298347
0.4098463 -0.22748707 0.25853485 -0.106466964 0.13844354 0.0017104422 0.14933462 -0.1495892
0.3746077 0.71050227 0.13151 0.13542256 0.84562254 0.22368182 0.24938126 -0.04780708
0.5392199 0.06472646 0.07560613 0.14849745 -0.1261003 0.47690472 0.3166849 0.22312292

decoder.bias_ih_l0 f4 [64]
00000000: 9add 2ebe 5eb4 45be 2b24 83bd da92 d6bc
00000010: e4c7 84be eb29 eb3d abb1 583e 309b 67be
00000020: 67de 823d ce23 6abd ab79 b83c 144e 3dbd
00000030: 1b75 b53d 1d33 90bc d608 1ebe 3e5f a4bc
00000040: 69fd ed3d f68a e03d 8136 b23d b0b8 47bd
00000050: 6b28 443f 2deb 2e3d ceec 03bc c7a8 82bc
00000060: ce07 5b3d 4f45 86be 7b5c 9bbe b5b2 cbbd
00000070: d5d5 37bd 9e22 0a3f 847a 19be 6af1 b8bd
00000080: 5c44 b23d 0aaa 913c d28a 0dbe 7596 f3bd
00000090: 3132 30bd 5183 353e 946f 77bd ccf8 90bd
000000a0: f12e 13be 3538 923e 80de 493e c68d fc3c
000000b0: 3d1d 49be c824 89be 755c 75be 3aa7 213e
000000c0: fe02 c63c 3383 38be 53cb 8f3e c1f7 6d3d
000000d0: 5d52 073f 072c 01be 3463 3abe 3a6a ae3d
000000e0: 2c72 393e e365 4a3e 7764 733e cab8 48be
000000f0: 47f9 343c 4236 793e 4d90 3bbe 8bf8 3e3e
-0.17076722 -0.19307086 -0.06403383 -0.026193071 -0.25933754 0.114826046 0.21161525 -0.22617793
0.06390076 -0.057163052 0.022518953 -0.04621704 0.08860227 -0.017602498 -0.15433058 -0.020064946
0.116206 0.10964005 0.08701802 -0.048760116 0.7662417 0.04270475 -0.008052064 -0.01594962
0.05347424 -0.26224753 -0.30343994 -0.09946195 -0.04488166 0.5395907 -0.14988142 -0.09030421
0.08704445 0.017781276 -0.13822487 -0.11893932 -0.043016616 0.17725874 -0.060409144 -0.07078704
-0.14373375 0.28558508 0.19713783 0.030829322 -0.1964006 -0.26785874 -0.23961051 0.15786448
0.024171349 -0.18018799 0.28084812 0.058097605 0.5286005 -0.12614451 -0.18201905 0.08516355
0.1810996 0.19765429 0.23768793 -0.19601741 0.0110457605 0.24337104 -0.18316765 0.18649499

decoder.bias_hh_l0 f4 [64]
00000000: 9300 c53d 6903 63bd 3d9c 1e3d 7e1f 1abe
00000010: 1aa2 4dbe 5ab0 a63e 2a3d 043e 0044 35be
00000020: ba7c 93bd 6cd1 b93e e80c 29bd dfcc 2fbe
00000030: c070 a93e 36b0 83be 6abc 873e 73fd a53d
00000040: f299 173e d405 e4bd 72ef 58bc 50b7 8f3d
00000050: e05b 093f 1c4f 10bd a85a 54be 1c03 213e
00000060: ad2f 41bd 1931 6ebe ea20 e6be 0aa9 c13c
00000070: 9608 8ebe 199a bc3e e7a5 c0be cd8b 02bd
00000080: 3af9 81be 14f0 0abe 6b0f 9cbc dbf0 983d
00000090: 9244 6a3c 2b79 b03e 96a0 323e ab28 23bd
000000a0: 7fe7 11bd 69d1 423e 0f2f bcbd 2080 003e
000000b0: b77e 8abe 7647 913d 8a18 023e 158e 01bc
000000c0: ae0f 25be 2b81 66be 0d8a ab3d f0c7 733d
000000d0: 8dac ae3e dab8 7c3e e266 1cbe e79b 57bd
000000e0: f5ac 0a3e 372d 1a3e fedf 66be 650f 1dbd
000000f0: bebc aebd cceb c93e d950 9a3e 8c8f 5bbe
0.0961925 -0.055423174 0.03872322 -0.15051076 -0.20081368 0.3255642 0.12913957 -0.17701721
-0.07201524 0.3629259 -0.041272074 -0.17167996 0.33093834 -0.25720376 0.26510936 0.08104982
0.14804819 -0.11133924 -0.013240682 0.07017386 0.53655815 -0.035231695 -0.20737708 0.15723842
-0.047164608 -0.23260917 -0.44946986 0.023640174 -0.27740926 0.36836317 -0.37626573 -0.031871606
-0.25385457 -0.13568145 -0.01905032 0.074678145 0.014298575 0.34467444 0.17444071 -0.039833706
-0.035621163 0.19025196 -0.09188663 0.12548876 -0.270498 0.07093708 0.12704673 -0.00790741
-0.16119263 -0.22510211 0.083759405 0.059516847 0.3411602 0.2467989 -0.15273622 -0.052638914
0.1354254 0.1505631 -0.22546384 -0.03834476 -0.085320935 0.3943771 0.30139807 -0.21441478

decoder.weight_hr_l0 f4 [1, 16]
00000000: 231b e9bd fc74 053e 7548 a7be 3741 ea3d
00000010: 52d8 31bf 97dc e73d 3b8b fa3e 6bbf e13c
00000020: b711 6d3e f948 9a3e 490f 253e 2c93 2a3e
00000030: dc2c 89be 4830 0abf 13c9 91be 3fab 183e
-0.11382129 0.13032907 -0.32672468 0.1143822 -0.69470704 0.11321371 0.4893435 0.027557096
0.23151289 0.301338 0.16119112 0.16657704 -0.26792037 -0.5397992 -0.2847372 0.14909075
