output/synthetic_data/models/model_hidden32_lr0.005_clip5.0.pth (torch, 39911 bytes, 9 tensors)

encoder.weight_ih_l0 f4 [128, 1]
0	0x3e135c59	0.14390697
1	0xbd0ffcd3	-0.03515322
2	0xbdab0442	-0.083504215
3	0x3dcbf99c	0.099597186
4	0x3cb907ae	0.02258667
5	0x3e605d25	0.21910532
6	0xba8ee219	-0.0010901123
7	0xbd3fd2c6	-0.04683187
8	0xbd92c596	-0.07166593
9	0x3df0d1af	0.11758744
10	0x3ddee27a	0.10883041
11	0x3ca1331b	0.01967769
12	0x3cbb4bed	0.022863353
13	0x3e336f5e	0.17522952
14	0x3e40129c	0.18757099
15	0xbea3890e	-0.31940502
16	0x3e1fc80c	0.15603656
17	0xbc9d4160	-0.019196212
18	0x3e017396	0.12641749
19	0x3e5b95c3	0.21443848
20	0xbe0f8150	-0.14014173
21	0x3e306a9f	0.17228173
22	0xbd77a8ae	-0.0604636
23	0xbaf1372f	-0.0018403287
24	0xbd990e55	-0.07473437
25	0xbd452b1a	-0.048136808
26	0x3df2aec4	0.1184974
27	0x3d93da7c	0.07219407
28	0xbe95321a	-0.29139787
29	0xba4121f3	-0.00073674246
30	0x3d4774d6	0.048695408
31	0xbe986dd2	-0.29771286
32	0x3de1fd42	0.11034633
33	0xbdcb9865	-0.09941176
34	0x3da75596	0.08170621
35	0x3e4a4c81	0.19755746
36	0x3de9c57e	0.11414622
37	0x3de56325	0.11200551
38	0xbc6c6637	-0.014428667
39	0x3de2c551	0.11072791
40	0x3dcf28e8	0.10115224
41	0x3e0080d7	0.12549148
42	0x3cde4851	0.027134093
43	0x3e367d90	0.17821336
44	0xbe250047	-0.16113387
45	0x3e8673d3	0.26260242
46	0x3e74a743	0.2389193
47	0x3ebbb375	0.36660352
48	0x3e6afa2f	0.22947
49	0x3d349790	0.044089854
50	0xbc331472	-0.0109301675
51	0x3e179a75	0.14805014
52	0xbcb1c3f0	-0.021699876
53	0xbc9df12a	-0.019280035
54	0x3d645a0b	0.055749934
55	0x3dc11fc0	0.09429884
56	0xbe37a321	-0.17933322
57	0xbcf4823b	-0.029847255
58	0x3e12fa47	0.14353286
59	0x3d760c45	0.060070295
60	0x3d83c35b	0.064337455
61	0x3d6db73a	0.058036067
62	0x3c8d638c	0.017259382
63	0xbde6fa29	-0.11278183
64	0x3d118118	0.035523504
65	0x3e24134e	0.16022989
66	0xbe6014c4	-0.21882921
67	0xbde413f9	-0.11136622
68	0xbe0aab1f	-0.1354184
69	0xbe545f57	-0.20739494
70	0x3d237140	0.039902925
71	0xbd7a11d1	-0.061052147
72	0x3d910650	0.07081282
73	0x3da44193	0.0802032
74	0x3e4a1ffc	0.19738764
75	0x3df7b3ad	0.12094817
76	0xbdb74df2	-0.08950414
77	0xbe44ddb0	-0.19225192
78	0x3dca3d42	0.09874965
79	0x3e879a2f	0.2648482
80	0x3d156c83	0.036480438
81	0xbe2656cd	-0.1624405
82	0x3da0f0f6	0.0785846
83	0x3e098d1f	0.1343274
84	0x3e4534de	0.19258448
85	0x3d42e5b3	0.04758234
86	0xbe2ed608	-0.17073834
87	0x3e986f95	0.2977263
88	0xbd00a60e	-0.031408362
89	0xbc2c3023	-0.010509524
90	0x3df0ba1f	0.1175425
91	0x3cbcd202	0.023049358
92	0x3d4bd6e9	0.0497655
93	0xbe46b4af	-0.19404863
94	0xbe5ad050	-0.21368527
95	0x3e5529bb	0.208167
96	0xbe119aa3	-0.14219145
97	0xbde2251d	-0.11042235
98	0xbdc5e4c2	-0.09662773
99	0xbd49e067	-0.049286272
100	0xbe34784d	-0.17624016
101	0x3ddee066	0.10882644
102	0xbe514825	-0.20437677
103	0x3e750147	0.23926269
104	0x3d6312a7	0.05543771
105	0x3e23d339	0.15998544
106	0x3e026b8f	0.12736343
107	0xbb3a12c3	-0.002839253
108	0xbe5a69e4	-0.21329457
109	0xbd3d4017	-0.0462037
110	0xbd8b91f4	-0.06814948
111	0x3d84f475	0.06491939
112	0x3e0eafd7	0.13934265
113	0x3e554234	0.20826036
114	0x3d3ecdb0	0.046582878
115	0x3d65ecd5	0.056134064
116	0xbe8bf595	-0.27335802
117	0x3df79005	0.120880164
118	0xbd0270a6	-0.03184571
119	0x3c8ac434	0.01693926
120	0xbdbaad1f	-0.091150515
121	0xbe30c55f	-0.17262791
122	0xbda5ad02	-0.08089639
123	0x3e2358b7	0.15951811
124	0xbe5804b6	-0.21095547
125	0x3db68d5f	0.08913683
126	0x3e1b35fb	0.1515731
127	0xbe53d6c9	-0.20687403

encoder.weight_hh_l0 f4 [128, 32]
0	0x3e192b4b	0.14957921
1	0xbe0b9944	-0.13632685
2	0x3bc69177	0.006059821
3	0xbc4c7109	-0.012478122
4	0xbeb3b3d4	-0.35098135
5	0x3e04b522	0.12959722
6	0xbcfeaae3	-0.031087345
7	0x3d9b02b6	0.075688764
8	0xbce915da	-0.028452802
9	0x3d786ee6	0.060652636
10	0xbbdc4d6f	-0.006723098
11	0xbe5c3a8c	-0.21506709
12	0xbe02c16f	-0.12769102
13	0xbbf47e4d	-0.0074613453
14	0xbcb10faa	-0.021613915
15	0xbe8e45da	-0.27787668
16	0x3cb09e01	0.021559717
17	0xbe0ae23b	-0.13562863
18	0x3e3985ca	0.18117443
19	0xbe886c5f	-0.2664518
20	0x3c544150	0.012955025
21	0xbe32f0c9	-0.17474665
22	0xbd0cf7fa	-0.034416176
23	0xbd80ed50	-0.06295264
24	0xbe3aa8c9	-0.18228449
25	0x3d81d1ca	0.06338842
26	0xbc95c689	-0.018283146
27	0x3dffef98	0.12496871
28	0x3ba387a1	0.0049905335
29	0xbe262b19	-0.16227378
30	0x3dae76c3	0.08518746
31	0x3dc38944	0.09547666
32	0xbdbf76d8	-0.093488395
33	0xbd9704ee	-0.07373987
34	0x3cb466e7	0.022021724
35	0x3d49b2e2	0.04924286
36	0xbe2e9b03	-0.1705132
37	0x3dd5d244	0.104404956
38	0xbd990c5e	-0.07473062
39	0xbe2849db	-0.16434424
40	0x3de279cf	0.110583894
41	0xbc908187	-0.017639888
42	0xbd19b158	-0.037522644
43	0x3d6ed076	0.058304273
44	0xbe03ba3e	-0.12864015
45	0xbe725f86	-0.23669252
46	0x3e15cb33	0.14628296
47	0xbe482b5a	-0.19547787
48	0xbdb1092d	-0.08644328
49	0xbe0c36f2	-0.13692835
50	0xbe15a19e	-0.14612433
51	0xbd7f09e9	-0.06226531
52	0xbd4af6bf	-0.04955172
53	0x3e1397f1	0.1441343
54	0x3d8409c8	0.06447178
55	0xbde95abd	-0.1139426
56	0xbe1b73cf	-0.15180896
57	0xbd90c6f5	-0.07069198
58	0x3d617f13	0.055052828
59	0x3dd273bc	0.10275981
60	0x3d9e21fc	0.07721326
61	0xbd48b793	-0.049003195
62	0xbd1a6e4d	-0.037702847
63	0xbde90641	-0.11378146
64	0x3de00321	0.10938097
65	0x3cfd62d6	0.030930918
66	0x3cd98188	0.026551023
67	0xbe3e02a2	-0.18555692
68	0xbdbb6319	-0.09149761
69	0xbdcfa19a	-0.10138245
70	0x3e1cccd0	0.15312505
71	0xbd64160e	-0.055685095
72	0xbd769a23	-0.06020559
73	0x3e394da2	0.18096021
74	0xbc127d0b	-0.008940945
75	0x3d01c74e	0.031684212
76	0x3da53b97	0.080680065
77	0xbe2408b5	-0.16018946
78	0x3e41f23e	0.18940064
79	0xbd55e112	-0.052216597
80	0x3e4efe67	0.20214234
81	0xbda4c558	-0.08045453
82	0xbd96493f	-0.07338189
83	0xbdae1389	-0.0849982
84	0x3d80c539	0.06287617
85	0xbe00ac3b	-0.125657
86	0xbdfc938b	-0.12332829
87	0x3db68605	0.08912281
88	0xbdb66650	-0.08906233
89	0x3e1e07e0	0.15432692
90	0xbcef82e7	-0.029237224
91	0xbdc946e3	-0.09827974
92	0x3d9d0905	0.07667736
93	0x3e411ccf	0.18858646
94	0xbdd7ccd5	-0.105371155
95	0xbe0c12f3	-0.13679104
96	0x3e11a382	0.1422253
97	0x3e02ff1a	0.12792626
98	0xbdf131ac	-0.11777052
99	0xbe02e30e	-0.12781927
100	0xbcc483b1	-0.023988577
101	0xbd966787	-0.07343965
102	0x3dd8e68e	0.1059085
103	0xbe02b768	-0.12765276
104	0x3d80a016	0.06280534
105	0x3d996dc7	0.074916415
106	0xbd8a4d00	-0.06752968
107	0x3da641b6	0.08118002
108	0xbd9526a5	-0.072827615
109	0xbdac91ca	-0.084262446
110	0x3e481f39	0.1954316
111	0x3d5ec531	0.054387275
112	0x3d8a83e2	0.06763436
113	0xbe36b455	-0.17842229
114	0x3e4cd818	0.20004308
115	0xbd7e2a10	-0.062051833
116	0x3d60687a	0.054787137
117	0xbe20f79f	-0.1571946
118	0xbd1a1c26	-0.0376245
119	0x3dc74d48	0.09731537
120	0x3df2782f	0.118393295
121	0xbd1daa1c	-0.038492307
122	0x3e595f35	0.21227725
123	0x3de98282	0.114018455
124	0xbdcf1511	-0.1011144
125	0xbca8ca0e	-0.02060416
126	0xbe50ab2f	-0.20377801
127	0xbe1f420f	-0.15552543
128	0xbd1d842a	-0.03845612
129	0xbe3863dd	-0.18006845
130	0x3e23d3aa	0.15998712
131	0xbde17799	-0.110091396
132	0x3e335b7e	0.1751537
133	0x3d92e5c1	0.07172728
134	0xbd867438	-0.06565136
135	0xbe362353	-0.17786913
136	0x3eb39940	0.35077858
137	0x3deedd0a	0.116632536
138	0xbe82d6a0	-0.2555437
139	0xbe95ec13	-0.29281673
140	0xbe9b39f6	-0.30317658
141	0xbdb67dc6	-0.08910708
142	0x3da7938e	0.08182441
143	0xbe3ca4e9	-0.18422283
144	0x3cdfac56	0.027303856
145	0x3c0bff42	0.008544745
146	0xbd99372d	-0.07481227
147	0x3e87db2a	0.26534396
148	0x3db41bf6	0.087943956
149	0x3e638618	0.22219121
150	0xbe67fb34	-0.2265442
151	0xbca75747	-0.02042736
152	0xbe8a93e1	-0.27065948
153	0x3d5b625b	0.053560596
154	0xbd033956	-0.0320371
155	0x3d8a4705	0.06751827
156	0xbea4678a	-0.32110244
157	0x3b3eb263	0.0029098026
158	0xbdb3dcea	-0.087823704
159	0x3d585c4d	0.0528224
160	0x3e048742	0.12942222
161	0x3e5f4300	0.21802902
162	0xbceb6d19	-0.028738545
163	0xbdbe5fe3	-0.09295633
164	0xbd1551d9	-0.03645501
165	0xbe779619	-0.24178351
166	0x3e2e841d	0.17042585
167	0x3db916bc	0.09037539
168	0xbe8c816b	-0.27442488
169	0xb99c5381	-0.00029816854
170	0x3dabc5e3	0.08387353
171	0xbd8194eb	-0.06327232
172	0x3df81c9d	0.121148326
173	0xbe15d436	-0.14631733
174	0x3dad2d72	0.08455934
175	0x3e95776f	0.29192683
176	0x3d2a4eaa	0.041578926
177	0x3d1073ee	0.03526681
178	0x3dde9558	0.10868329
179	0x3e4e49d8	0.20145357
180	0xbdbf14a6	-0.0933011
181	0x3d0fb968	0.035088927
182	0xbe857f6b	-0.26073775
183	0x3e07f6be	0.13277718
184	0xbdacabbb	-0.084311925
185	0x3d8e3399	0.06943435
186	0xbdf600bd	-0.120118596
187	0x3e6c350d	0.23067112
188	0xbd4552a3	-0.04817451
189	0xbeadbc67	-0.33932802
190	0x3ca0af8d	0.01961496
191	0xbd66c41b	-0.056339364
192	0xbe076213	-0.13221006
193	0x3e2b1d21	0.1671033
194	0xbda017c8	-0.07817036
195	0xbd4fca2b	-0.05072991
196	0xbe042247	-0.12903701
197	0xbd8a0bc3	-0.067405246
198	0x3e1d6fdb	0.153747
199	0xbe101e50	-0.14074063
200	0x3c4aa9a3	0.012369546
201	0xbd80f0a3	-0.06295898
202	0xbd9f5627	-0.07780104
203	0xbdca1d85	-0.09868912
204	0x3cfd55ed	0.030924762
205	0xbd582b21	-0.052775506
206	0x3d614353	0.054995846
207	0xbeb6bf61	-0.35692886
208	0xbdeacdd0	-0.11465037
209	0xbe3814a5	-0.17976625
210	0xbd24f935	-0.040276725
211	0x3ccaacb0	0.024740547
212	0x3e0aad30	0.13542628
213	0x3e46c374	0.19410497
214	0x3d5d4066	0.054016493
215	0x3e2c4df0	0.16826606
216	0x3d89607d	0.06707857
217	0x3daafdb0	0.08349168
218	0x3c7a6af8	0.015284292
219	0x3e3a3491	0.18184115
220	0xbe140c9e	-0.14457938
221	0xbe06e58a	-0.131735
222	0x3c69aff8	0.014263146
223	0xbdb2f06d	-0.08737264
224	0x3d445e73	0.047941636
225	0x3d8608dc	0.065446585
226	0x3df47349	0.119360514
227	0xbd314ca7	-0.043285992
228	0x3d0a7df7	0.033811536
229	0x3e25a998	0.16177976
230	0xbdd371c2	-0.10324432
231	0x3de24558	0.110483825
232	0xbdaf3f65	-0.085570134
233	0xbd9581eb	-0.073001705
234	0x3dbf2f89	0.093352385
235	0x3ddcffe7	0.10790997
236	0xbda2e5e4	-0.079540044
237	0xbe68474f	-0.22683452
238	0x3c1513be	0.009098945
239	0x3e32b79b	0.17452852
240	0xbd9693b4	-0.07352391
241	0x3d764d8c	0.06013255
242	0x3b5c170a	0.0033583068
243	0x3e198f04	0.14995962
244	0x3e1902e9	0.14942516
245	0x3c655434	0.013997126
246	0xbd85fd91	-0.065425046
247	0x3daf6ac8	0.08565289
248	0x3d45da0f	0.04830366
249	0x3d40518b	0.046952765
250	0x3e424fc7	0.18975745
251	0x3e491eae	0.1964061
252	0xbe1a0c1c	-0.15043682
253	0x3e81ca27	0.25349542
254	0xbe004d56	-0.12529501
255	0xbd703f2b	-0.05865399

encoder.bias_ih_l0 f4 [128]
0	0xbc0d8da1	-0.008639724
1	0xbd92247a	-0.071358636
2	0x3e086318	0.13319051
3	0xbdce2825	-0.10066251
4	0x3de856b1	0.1134466
5	0xbe063058	-0.13104379
6	0xbe0e6778	-0.13906658
7	0x3e414124	0.18872505
8	0xbc8d440f	-0.017244367
9	0xbcfe4585	-0.031039009
10	0xbc99e8e3	-0.018787807
11	0x3d10c4b7	0.035343852
12	0x3d98ae42	0.07455112
13	0xbd9ff303	-0.07810023
14	0xbd802cb6	-0.06258528
15	0xbe1bb9b7	-0.15207563
16	0x3e0aa20e	0.13538381
17	0xbccca989	-0.024983184
18	0x3e474d4d	0.19463082
19	0x3da52176	0.08063023
20	0xbe24d2d3	-0.16096048
21	0x3dedaabf	0.11604833
22	0xbd182bfa	-0.037151314
23	0x3d4b9db4	0.049710944
24	0x3e478d83	0.19487576
25	0xbe1ab30a	-0.1510736
26	0x3db06005	0.08612064
27	0x3dc9aaff	0.09847068
28	0x3e00361a	0.12520638
29	0x3d705652	0.05867607
30	0xbd1a2efd	-0.037642468
31	0xbd47127f	-0.048601624
32	0xbc690567	-0.014222479
33	0xbe0e81e1	-0.13916732
34	0x3c6672c3	0.014065447
35	0x3d9950de	0.07486127
36	0x3e2a09a6	0.16605243
37	0x3d5b3651	0.053518597
38	0x3dc0e9f4	0.09419623
39	0xbe1065ed	-0.14101382
40	0x3e57cb9c	0.21073765
41	0x3e34e8b4	0.17666894
42	0x3d42ba9f	0.047541257
43	0x3e0c299b	0.13687746
44	0xbde47ccb	-0.11156615
45	0x3e2ea7bd	0.17056175
46	0x3cb1ab12	0.021688018
47	0x3e5cf2a7	0.2157694
48	0x3ceb07a7	0.028690172
49	0xbd04bbca	-0.032405652
50	0x3e2c13e8	0.16804469
51	0x3e11f00d	0.14251728
52	0x3dc46cae	0.095910415
53	0x3e0c0dfa	0.13677207
54	0xbc40babf	-0.011763274
55	0x3d8d2c0d	0.06893168
56	0x3d911d95	0.070857204
57	0xbdb67062	-0.08908154
58	0xbdb24085	-0.087037124
59	0x3c290aa1	0.010317476
60	0x3e1353ca	0.14387432
61	0x3d8d8ec2	0.069119945
62	0x3d983027	0.07431059
63	0xbe1924d7	-0.1495546
64	0x3d96d578	0.07364935
65	0xbdbd31ee	-0.09238039
66	0x3da8ec1e	0.08248161
67	0xbe5767dc	-0.21035713
68	0xbd81c5e3	-0.06336572
69	0xbd8ffde1	-0.070308454
70	0xbe119508	-0.14217007
71	0xbdde5c68	-0.10857469
72	0x3d29ae28	0.041425854
73	0xbd25b5a5	-0.040456433
74	0x3d9846d5	0.07435385
75	0xbdd14d44	-0.102198154
76	0x3dc6facb	0.09715804
77	0x3de9080e	0.113784894
78	0x3e3718b1	0.17880513
79	0xbd0b87f8	-0.034065217
80	0x3e0148af	0.12625383
81	0xbe03292f	-0.12808679
82	0x3e5570a1	0.20843746
83	0x3d8ebd58	0.06969708
84	0x3d75302b	0.05986039
85	0x3e34dc99	0.17662276
86	0x3c457759	0.0120523805
87	0x3e340b9f	0.17582558
88	0xbe0cfa54	-0.13767368
89	0x3ccbae74	0.02486346
90	0x3e69374e	0.22775003
91	0x3dafd805	0.08586124
92	0xbe57ed3e	-0.21086594
93	0x3df20294	0.11816898
94	0x3bdb758d	0.0066973628
95	0x3d64d1a7	0.055864003
96	0x3df61b14	0.120168835
97	0x3db34f1c	0.08755323
98	0x3d6eb4b0	0.058277786
99	0xbd770cc5	-0.060314912
100	0x3e83b003	0.25720224
101	0x3dcaa90b	0.09895524
102	0x3e1cf835	0.15329058
103	0xbca51869	-0.020153241
104	0x3e8013f7	0.25015232
105	0xbe1331fc	-0.14374536
106	0x3d74a13c	0.059724078
107	0x3e81443b	0.25247368
108	0xbe2379dd	-0.15964456
109	0xbde1b981	-0.1102171
110	0x3d8e74bc	0.06955859
111	0x3e1a71a8	0.15082419
112	0x3e36a89e	0.1783776
113	0x3cdcbb2d	0.026944721
114	0xbcc355a2	-0.023844544
115	0xbe2fb979	-0.17160596
116	0x3dba8ab4	0.09108487
117	0x3dc3bcd5	0.09557501
118	0xbd10f64c	-0.035391137
119	0x3e05dc85	0.13072403
120	0x3e01a213	0.12659483
121	0xbcd151a1	-0.025551619
122	0x3e39abae	0.18131897
123	0x3e39a7ea	0.1813046
124	0x3e11995f	0.14218663
125	0x3d850ca7	0.06496554
126	0x3e252224	0.16126305
127	0xbe1a6274	-0.1507662

encoder.bias_hh_l0 f4 [128]
0	0x3cf7e6bd	0.030261392
1	0x3dc22858	0.09480351
2	0xbcc80dc8	-0.024420634
3	0xbdfbd7de	-0.12297033
4	0x3c294295	0.010330816
5	0xbdcad9a7	-0.09904795
6	0x3c8dd443	0.017313128
7	0x3dc8aa3d	0.097980954
8	0xbd08a312	-0.03335864
9	0xbdb4487e	-0.08802889
10	0xbdd15af1	-0.10222424
11	0x3ddbd2fc	0.107336015
12	0xbdd178d2	-0.10228123
13	0xbde2114c	-0.11038455
14	0x3e0429d0	0.12906575
15	0xbd8cdeb1	-0.068784125
16	0x3d07d257	0.03315958
17	0x3ce359cb	0.027752778
18	0x3dd0bccb	0.101922594
19	0xbd1ee35a	-0.038791038
20	0x3de21838	0.110397756
21	0x3d6afe83	0.057371628
22	0xbdef37b1	-0.11680544
23	0x3e4e1b0f	0.2012751
24	0x3d206267	0.039156344
25	0xbd790611	-0.0607968
26	0xbdac3efe	-0.08410452
27	0x3c6a3876	0.014295688
28	0xbdf83428	-0.12119323
29	0xbd38b6b5	-0.045096118
30	0x3dfcca8d	0.12343321
31	0xbc8af437	-0.016962154
32	0x3d4806ad	0.04883449
33	0xbb4a3d8f	-0.0030859446
34	0xbd5daad1	-0.05411798
35	0xbdde627c	-0.10858628
36	0x3e9a3e8a	0.3012584
37	0x3de50561	0.111826666
38	0x3d0e2e09	0.03471187
39	0xbe0f603c	-0.14001554
40	0x3dc2ce51	0.09512008
41	0x3e3182ae	0.17335007
42	0xbdfed9f1	-0.12443913
43	0x3e5c3c17	0.21507297
44	0x3c436724	0.011926446
45	0x3e44fdfb	0.19237511
46	0x3e401e57	0.18761574
47	0x3d657523	0.056019913
48	0x3db9f862	0.090805784
49	0x3e5250c8	0.20538628
50	0xbd153c82	-0.036434658
51	0x3b7619a8	0.0037551913
52	0x3dfe6838	0.12422222
53	0x3e011a55	0.12607701
54	0x3e7a2a8e	0.24430296
55	0x3d96042b	0.07325014
56	0x3e5c3382	0.21504024
57	0x3e078b03	0.13236623
58	0x3e43a624	0.19106346
59	0x3e614c60	0.22001791
60	0x3dde3c62	0.10851361
61	0x3e8b4885	0.27203766
62	0xbc5eb2bb	-0.013592417
63	0xbdf371c6	-0.11886935
64	0x3d20d806	0.039268516
65	0x3df6712c	0.120333046
66	0xbe4a6356	-0.19764456
67	0xbe43c6db	-0.19118826
68	0xbe5c9579	-0.21541394
69	0xbc6d577a	-0.014486188
70	0xbe40f737	-0.18844305
71	0xbe414cdf	-0.1887698
72	0xbd0b889d	-0.03406583
73	0xbd9694b6	-0.07352583
74	0xbe111ad3	-0.14170389
75	0x3e0ae5b4	0.13564187
76	0xbe4b4545	-0.19850643
77	0x3b76dece	0.0037669423
78	0xbca2c7a6	-0.01987059
79	0xbe054344	-0.13013941
80	0x3dcdb16a	0.10043605
81	0xbdde39e9	-0.10850889
82	0x3adea698	0.0016986905
83	0xbd4dd2db	-0.050249916
84	0xbdca343f	-0.098732464
85	0xbd7d09c8	-0.061776906
86	0x3d330480	0.043705463
87	0x3df97bba	0.12181802
88	0xbe20463f	-0.15651797
89	0xbd0eed32	-0.034894176
90	0x3e2100be	0.1572294
91	0xbcaf36f6	-0.021388512
92	0x3b20328b	0.0024444188
93	0xbe555a53	-0.20835237
94	0xbe235e53	-0.1595395
95	0xbe1f9cc3	-0.15587144
96	0x3e0c6176	0.13709053
97	0x3cb30543	0.021853095
98	0xbc0fa5b6	-0.008767536
99	0x3d9854f2	0.07438077
100	0x3e86c755	0.26323953
101	0x3db9a949	0.09065492
102	0x3e8276be	0.25481218
103	0xbe16583e	-0.14682099
104	0x3d34ff9c	0.04418908
105	0xbbfd1e22	-0.0077245394
106	0x3dcd97c6	0.10038714
107	0x3e4c5335	0.19953616
108	0xbd4c98d3	-0.049950432
109	0xbde9efe9	-0.11422712
110	0xbd736f70	-0.059432447
111	0x3e390d20	0.18071413
112	0x3d3fe88d	0.046852637
113	0xbcc0a072	-0.023514006
114	0x3d1e2bff	0.038616177
115	0x3e2eca88	0.17069447
116	0xbe032e53	-0.1281064
117	0x3debb2d9	0.11508722
118	0x3d8b490b	0.06801041
119	0x3d8cf8ae	0.068833694
120	0x3e34eca7	0.176684
121	0x3d4430be	0.047898047
122	0x3decfc95	0.11571614
123	0x3e1cb7c6	0.15304479
124	0xbe157874	-0.1459673
125	0x3d5987e6	0.05310812
126	0xbd580c18	-0.05274591
127	0x3d1682c0	0.036745787

decoder.weight_ih_l0 f4 [128, 32]
0	0xbc1980df	-0.009369104
1	0xbd861df9	-0.065486856
2	0xbdfb38be	-0.12266682
3	0x3d11a86f	0.03556102
4	0x3d8b1bf3	0.0679244
5	0xbdd65209	-0.10464866
6	0x3e1fb4d4	0.15596324
7	0xbe3af9fa	-0.18259421
8	0x3e2170cd	0.15765686
9	0x3e064c64	0.13115078
10	0x3e39f83d	0.18161102
11	0x3c9cecc7	0.019155873
12	0xbe062ec3	-0.13103776
13	0xbe8b61fb	-0.2722319
14	0x3da18ce7	0.07888203
15	0x3def50e3	0.1168535
16	0x3e357752	0.17721298
17	0xbe2b526a	-0.16730657
18	0x3e2d5cd8	0.16929948
19	0x3e127dff	0.14305876
20	0x3e135827	0.14389096
21	0x3dd40262	0.10352017
22	0x3bdd489c	0.0067530405
23	0x3d8f6677	0.070019655
24	0xbc2416f6	-0.01001524
25	0x3e326afb	0.17423622
26	0xbcf61773	-0.030040478
27	0xbd67344b	-0.056446355
28	0xbdd846e9	-0.105604
29	0xbdae0c30	-0.08498418
30	0xbe3ab8fb	-0.18234627
31	0x3da03a05	0.07823566
32	0xbe25cb2c	-0.16190785
33	0xbe3c46ce	-0.18386385
34	0x3da9c826	0.082901284
35	0x3e679e35	0.22618945
36	0xbd38fa55	-0.04516061
37	0x3e7f0907	0.24905787
38	0xbe08ceaa	-0.13360086
39	0x3d3b13de	0.045673244
40	0xbd69ddd8	-0.057096332
41	0xbe5eb8c7	-0.21750174
42	0x3e49e77c	0.1971721
43	0x3d848755	0.06471125
44	0x3e22a4be	0.15883157
45	0x3de90ae1	0.11379028
46	0xbd2cc513	-0.042180132
47	0xbcbadbd1	-0.022809895
48	0x3d767a37	0.060175147
49	0xbda54b3c	-0.080709904
50	0xbe7bc130	-0.24585414
51	0xbe00194c	-0.1250965
52	0x3d3a039a	0.04541359
53	0xbad6bf4a	-0.0016383913
54	0x3ce014ca	0.027353663
55	0x3d6a6c5d	0.05723225
56	0x3d36f83b	0.044670325
57	0x3e858665	0.26079097
58	0x3dc487d3	0.09596219
59	0xbe493815	-0.196503
60	0x3e5ab399	0.21357574
61	0xbd58ad90	-0.052899897
62	0xbd29cbb8	-0.041454047
63	0x3d344e66	0.04402008
64	0x3decb9a4	0.11558846
65	0x3e2be805	0.16787727
66	0xbe043e39	-0.12914361
67	0x3e25393d	0.16135116
68	0xbde244db	-0.110482894
69	0x3d6d7ea4	0.057982102
70	0xbd6ed784	-0.058311
71	0xbd9a997a	-0.075488046
72	0xbcee9938	-0.029125795
73	0x3d4829c8	0.04886797
74	0x3dc3baf4	0.09557143
75	0xbdc930ca	-0.09823759
76	0xbd30e033	-0.043182563
77	0xbc4b9638	-0.012425952
78	0x3cc18246	0.02362169
79	0x3c9cc7d7	0.01913826
80	0xbe1a8877	-0.1509112
81	0x3e330379	0.17481793
82	0xbdb91a72	-0.09038247
83	0x3db0cfd1	0.08633388
84	0xbe524c39	-0.20536889
85	0x3dfdfc2e	0.12401615
86	0xbce901da	-0.028443266
87	0xbd726e57	-0.05918726
88	0xbe2dbdb1	-0.16966893
89	0xbd0a1866	-0.033714674
90	0x3e0b115c	0.13580841
91	0xbdded54e	-0.108805284
92	0x3e24a628	0.16079009
93	0xbd5e879b	-0.054328542
94	0xbe1d604f	-0.1536877
95	0x3bfdfd58	0.007751148
96	0x3e4626c5	0.19350727
97	0x3e0112b4	0.12604791
98	0xbe869754	-0.2628733
99	0x3dd70084	0.10498145
100	0xbeab18fb	-0.33417496
101	0xbe169844	-0.14706522
102	0x3e604d65	0.21904524
103	0xbe0801b1	-0.13281895
104	0xbe82bbdb	-0.25533947
105	0x3d5347ff	0.051582333
106	0xbd890c54	-0.066918045
107	0xbd0573fb	-0.03258131
108	0xbe6ac398	-0.22926176
109	0xbedec883	-0.43512353
110	0xbddac52e	-0.1068214
111	0x3e748e1f	0.2388234
112	0x3e321123	0.1738935
113	0x3d631ee8	0.055449396
114	0x3d9b1aea	0.07573493
115	0xbcd01b03	-0.025403505
116	0x3df240d8	0.11828774
117	0xbcf3d374	-0.029763915
118	0xbf05553b	-0.52083176
119	0xbd697090	-0.056992114
120	0x3e02c690	0.12771058
121	0xbea9637e	-0.3308372
122	0x3d846c50	0.064659715
123	0x3e7bb7c5	0.24581821
124	0xbe424eda	-0.18975392
125	0xbd22014b	-0.039552014
126	0xbcf7696a	-0.030201633
127	0xbee26757	-0.44219467
128	0xbd6c0d0a	-0.057629623
129	0xbe358eee	-0.17730305
130	0xbc24bfab	-0.010055463
131	0xbd2f27fd	-0.042762745
132	0x3e36c440	0.17848301
133	0x3dac78a6	0.08421449
134	0x3d9dcb45	0.07704786
135	0x3db5de17	0.08880251
136	0xbdcb2c99	-0.09920616
137	0x3e7ccfe2	0.24688676
138	0xbddf7fae	-0.10913025
139	0xbe2eb234	-0.17060167
140	0xbd87f426	-0.066383645
141	0xbd91de21	-0.07122446
142	0x3d1a78f9	0.037713025
143	0x3d849d8c	0.06475362
144	0xbbad04e9	-0.0052801264
145	0xbd8f4cba	-0.06997056
146	0xbd88f8ba	-0.06688066
147	0x3e579b03	0.21055226
148	0x3dd6993e	0.104784474
149	0xbd16dc6e	-0.036831312
150	0xbeafb746	-0.34319514
151	0x3dbc576c	0.09196362
152	0x3dcd7298	0.10031623
153	0xbe25ae12	-0.16179684
154	0x3db0d940	0.08635187
155	0x3d3ccff0	0.046096742
156	0xbe8c69ce	-0.27424473
157	0x3dcfe932	0.101519
158	0xbdf4337d	-0.11923883
159	0x3d2a611f	0.04159653
160	0xbe4ce784	-0.20010191
161	0xbe1bb7dd	-0.15206857
162	0xbd977ebe	-0.07397221
163	0xbe5eabb8	-0.21745193
164	0x3ddb1e3b	0.106991254
165	0xbce72dd8	-0.028220102
166	0x3e2ef2a0	0.17084742
167	0xbd9dc51f	-0.077036135
168	0x3e7e9cf3	0.24864559
169	0xbc7f95c3	-0.015599671
170	0x3dd8d1cf	0.10586893
171	0x3e569299	0.2095436
172	0xbe3c7191	-0.18402697
173	0x3d84255c	0.06452438
174	0x3e1d2f85	0.15350159
175	0x3e8cf037	0.2752702
176	0x3ddf20e9	0.10894949
177	0x3dd31624	0.10306957
178	0x3e0df385	0.13862427
179	0x3eae4ddb	0.34043774
180	0x3d92b301	0.071630485
181	0xbdd7b9ad	-0.10533462
182	0xbe812ce4	-0.2522956
183	0xba5558e3	-0.00081385503
184	0x3db9705d	0.09054635
185	0xbe33d48f	-0.17561553
186	0xbd5dabc0	-0.05411887
187	0x3d3673eb	0.04454414
188	0xbda7c73a	-0.08192296
189	0x3d9654b0	0.073403716
190	0xbd5b5548	-0.053548127
191	0x3e15b500	0.14619827
192	0xbdce8ab6	-0.10085051
193	0x3e335bb4	0.1751545
194	0xbdec90cd	-0.11551056
195	0xbe860a4c	-0.2617973
196	0x3cd9b396	0.026574891
197	0x3b970b49	0.0046094996
198	0xbc4cc637	-0.01249843
199	0x3d2b5705	0.041831035
200	0x3d23663e	0.039892428
201	0xbe1ac88f	-0.1511557
202	0x3cd64b51	0.02615896
203	0x3e599201	0.21247102
204	0xbdce56e4	-0.10075167
205	0xbe47e3ef	-0.19520544
206	0xbc66d200	-0.014088154
207	0x3be23b30	0.0069040284
208	0xbd1bde28	-0.03805366
209	0xbe126e82	-0.14299968
210	0x3e33313c	0.1749925
211	0xbda4cc61	-0.08046795
212	0xbdf8ceaf	-0.12148797
213	0xbdc95ea1	-0.09832502
214	0xbe6e3d10	-0.23265481
215	0x3e0a0563	0.13478617
216	0x3cce9b14	0.025220431
217	0x3d8974c9	0.06711728
218	0x3dceb760	0.1009357
219	0x3dc52908	0.09626967
220	0x3b9fb955	0.004874388
221	0x3d9e1ad2	0.07719959
222	0xbe129a41	-0.14316656
223	0x3e2d12c5	0.16901691
224	0xbe3c26c0	-0.18374157
225	0xbdb576bd	-0.08860538
226	0xbe2a07d1	-0.16604544
227	0x3df9c0a2	0.12194945
228	0x3e9bf2be	0.30458635
229	0xbdaf3cb8	-0.08556503
230	0x3ea38d96	0.3194396
231	0x3cef1193	0.029183185
232	0x3e86f6ac	0.2636007
233	0x3e342745	0.17593105
234	0xbe6f8063	-0.2338882
235	0xbdfac959	-0.12245435
236	0xbe1b99a2	-0.15195325
237	0xbe3f4eb3	-0.18682365
238	0xbd3207d4	-0.043464497
239	0xbc3526f6	-0.011056652
240	0x3cbea2a2	0.023270909
241	0xbdf7d87d	-0.12101839
242	0xbd78e0c2	-0.06076122
243	0x3e63e44b	0.22255056
244	0x3e3947a5	0.18093736
245	0x3e3d2e0e	0.184746
246	0xbddcfac6	-0.10790019
247	0x3e38edc0	0.18059444
248	0x3e1f6ba5	0.15568407
249	0xbe3d12d6	-0.18464217
250	0x3dfaf360	0.12253451
251	0x3e98474c	0.29741895
252	0xbe118d93	-0.14214163
253	0x3e058124	0.13037544
254	0x3e0984b6	0.13429531
255	0x3e4bcd5a	0.19902554

decoder.weight_hh_l0 f4 [128, 1]
0	0x3ddf7dc6	0.10912661
1	0x3e383560	0.17989111
2	0x3e81a5d2	0.25321823
3	0xbe827617	-0.2548072
4	0xbe9feeed	-0.31236973
5	0x3eba925b	0.36439785
6	0x3e3397e8	0.17538416
7	0xbca70459	-0.020387815
8	0xbf4ccc91	-0.79999644
9	0x3e8206cb	0.25395808
10	0xbd28fe6f	-0.04125827
11	0xbf3c17d9	-0.7347389
12	0xbf8edabc	-1.1160502
13	0x3c1fb68e	0.009748114
14	0x3e7f8943	0.24954705
15	0xbca707b9	-0.020389425
16	0xbe3a1f05	-0.18175896
17	0x3db6c473	0.089241885
18	0x3ec1abf4	0.37826502
19	0x3daf64f0	0.08564174
20	0x3e964d0b	0.29355654
21	0x3d118833	0.03553028
22	0x3e8a8015	0.27050844
23	0x3e9d5d1c	0.307351
24	0x3cce027d	0.02514767
25	0x3d3efeda	0.046629764
26	0xbe29291c	-0.16519588
27	0xbd37a679	-0.044836495
28	0x3d82b953	0.06383004
29	0x3e4cbeb7	0.19994627
30	0x3cae2de3	0.021262115
31	0xbddb23c1	-0.10700179
32	0xbde0e57a	-0.10981269
33	0x3f024979	0.5089336
34	0x3f4f00d1	0.8086062
35	0xbe6249de	-0.2209849
36	0xbf064f6a	-0.52464926
37	0xbde52237	-0.111881666
38	0x3e5a6fbc	0.21331686
39	0xbe566999	-0.2093872
40	0x3f8fc424	1.1231732
41	0x3e64bb34	0.22337037
42	0xbe61df4a	-0.22057834
43	0x3e8b0ca6	0.27158087
44	0x3f046f9a	0.5173279
45	0x3d269cb0	0.040676773
46	0x3dc0aeef	0.09408366
47	0x3db27f04	0.087156326
48	0xbe8c266b	-0.2737306
49	0x3f2075cb	0.6267974
50	0x3ef9c83b	0.48785576
51	0x3e6e7ddc	0.23290199
52	0x3de9153d	0.11381004
53	0xbdc065a5	-0.09394387
54	0x3f0253e6	0.5090927
55	0x3d38e7e5	0.045143027
56	0x3f8d8a5c	1.1057849
57	0xbda87c49	-0.082268305
58	0xbe21afef	-0.1578977
59	0xbe13a59d	-0.14418645
60	0xbd2b2000	-0.041778564
61	0x3e4065ae	0.18788788
62	0x3fa5f44e	1.2965181
63	0xbd028d90	-0.031873286
64	0xbe3a3055	-0.181825
65	0x3de0014f	0.109377496
66	0x3e64c502	0.22340778
67	0x3e831dc7	0.25608656
68	0xbdefb772	-0.11704911
69	0x3ec59343	0.38588914
70	0xbde9aa16	-0.114093944
71	0x3e3769de	0.17911479
72	0xbe3f9373	-0.18708591
73	0xbdd55cfd	-0.10418127
74	0xbdd13b61	-0.10216404
75	0x3e9b904b	0.30383524
76	0x3f25e4c6	0.64802206
77	0xbdb63ee7	-0.088987164
78	0x3e0343e0	0.12818861
79	0x3e924d5e	0.2857465
80	0xbe375a2a	-0.17905489
81	0x3ef1118b	0.47083697
82	0x3e555946	0.20834836
83	0xbd302dad	-0.04301231
84	0x3d6fcad8	0.058543056
85	0x3d81e96c	0.0634335
86	0x3ea34c98	0.31894374
87	0xbe04d116	-0.12970385
88	0x3ec60ba5	0.3868076
89	0x3ddf19a2	0.10893561
90	0xbe4f0319	-0.20216025
91	0x3d22cec4	0.03974797
92	0xbe9249bd	-0.28571883
93	0xbcee11d3	-0.029061234
94	0x3eec1e08	0.46116662
95	0x3eacfb71	0.33785585
96	0x3d9c90e7	0.076448254
97	0x3e286a47	0.16446792
98	0x3ec027eb	0.37530455
99	0xbf21a96f	-0.6314916
100	0xbf230ecd	-0.6369446
101	0x3e81f96a	0.253856
102	0x3ddf3c6b	0.10900196
103	0x3d4206ad	0.047369648
104	0x3cb0dd2b	0.021589836
105	0x3dde468d	0.108533
106	0xbde47d8a	-0.11156757
107	0xbf8bd3b8	-1.0923986
108	0xbe589b69	-0.21153034
109	0x3ca9dd7f	0.0207355
110	0xbd89a5a8	-0.067210495
111	0xbdcbfcb3	-0.09960308
112	0xbf0305a9	-0.5118051
113	0xbda313fb	-0.07962795
114	0x3ef5aa7a	0.47981626
115	0x3e6b7c9d	0.22996755
116	0x3e468c52	0.19389465
117	0x3d6ff77e	0.058585636
118	0x3dd71d55	0.105036415
119	0x3e4c0d21	0.19926883
120	0xbe512b43	-0.2042666
121	0xbd5607c4	-0.0522535
122	0xbe33ee7c	-0.17571443
123	0xbd9dabff	-0.07698821
124	0x3dd7b8b4	0.10533276
125	0xbd73fe29	-0.059568558
126	0xbdca1b59	-0.098684974
127	0xbe513aa6	-0.20432529

decoder.bias_ih_l0 f4 [128]
0	0x3dcc433d	0.09973762
1	0xbb6307d8	-0.0034642126
2	0x3dfe4a5d	0.124165274
3	0x3d5e5c83	0.054287445
4	0x3d4f3abc	0.050593123
5	0x3d76b81e	0.06023418
6	0x3da7f66c	0.08201298
7	0xbd9fe592	-0.07807459
8	0xbe78c0ec	-0.24292344
9	0xbe537f66	-0.20654067
10	0x3d3d16a7	0.04616418
11	0x3e4c43a1	0.19947673
12	0xbebc2dad	-0.36753598
13	0x3e93fcfe	0.28903955
14	0xbd7f306b	-0.062302034
15	0x3d010c3c	0.03150581
16	0x3c9ea99b	0.019367984
17	0x3e18864f	0.14894985
18	0xbe3569b2	-0.17716101
19	0xbd3fb651	-0.04680473
20	0xbe2b6cf4	-0.16740781
21	0x3e6d208a	0.23156944
22	0xbe4716be	-0.19442269
23	0xbd6d6526	-0.05795779
24	0x3ea5651f	0.32303712
25	0x3e81d272	0.2535587
26	0xbdd2ed5c	-0.10299179
27	0x3e35d23a	0.17755976
28	0x3e88ca64	0.26716912
29	0x3d7b3fa2	0.06133998
30	0x3debbc76	0.115105554
31	0x3d0165c8	0.031591207
32	0xbeab15a5	-0.3341495
33	0x3dd308c7	0.103044085
34	0xbe0dde68	-0.13854373
35	0xbdc61b8a	-0.096732214
36	0xbe44422b	-0.19165866
37	0xbeac22d7	-0.3362033
38	0xbea231b8	-0.31678557
39	0xbec5d4b2	-0.38638836
40	0x3f54b7fa	0.83093226
41	0xbda4037c	-0.08008477
42	0xbdc5582c	-0.09635958
43	0xbe43cf1c	-0.19121975
44	0x3f5ec6d2	0.87022126
45	0xbde806c1	-0.11329413
46	0xbdce6317	-0.10077494
47	0xbea9bf60	-0.3315382
48	0xbe8a0d56	-0.269633
49	0xbe22122a	-0.15827242
50	0x3e8ddb2b	0.27706274
51	0xbe719584	-0.23592192
52	0xbecbdd9c	-0.39817512
53	0x3e1f53b5	0.15559275
54	0x3d3bd7bb	0.045860033
55	0xbe5dbb95	-0.21653588
56	0xbe35a5eb	-0.17739074
57	0xbd87e554	-0.06635538
58	0xbda7968a	-0.0818301
59	0xbdcca205	-0.0999184
60	0xbd40074d	-0.046881963
61	0xbea0e386	-0.31423587
62	0x3dd2a0bf	0.10284566
63	0xbe9990c7	-0.2999327
64	0xbe28e037	-0.16491781
65	0xbe1ebe5f	-0.15502308
66	0x3e2a22fa	0.16614905
67	0xbc7ce9c4	-0.015436593
68	0xbcd3992f	-0.02582988
69	0xbe033503	-0.12813191
70	0x3e857eb9	0.26073244
71	0x3db650a3	0.08902099
72	0xbd4d6d9a	-0.050153352
73	0xbe044cf8	-0.12919986
74	0x3c5d9447	0.013524122
75	0x3deec779	0.1165914
76	0xbe2da1f2	-0.16956308
77	0x3e61fc99	0.22069015
78	0x3df051a8	0.11734325
79	0x3e77cdcf	0.24199603
80	0x3e005006	0.12530527
81	0xbd8a5e40	-0.06756258
82	0xbda44985	-0.08021835
83	0x3c140f66	0.009036874
84	0xbdd0f923	-0.10203769
85	0x3c55576a	0.013021329
86	0xbdc3dd48	-0.095636904
87	0x3e51c665	0.20485838
88	0x3df20da9	0.11819012
89	0xbdc0259e	-0.09382175
90	0xbc771213	-0.015079993
91	0xbe0ac00d	-0.13549824
92	0x3e1ae62d	0.15126868
93	0xbe2c1b7f	-0.16807364
94	0x3e0fcc32	0.14042738
95	0x3e5e7cda	0.21727315
96	0x3d9397b4	0.072066694
97	0x3e2032d7	0.15644394
98	0xbd8ae415	-0.067817844
99	0xbe1af3b3	-0.15132026
100	0x3d6d2f6e	0.05790656
101	0x3d30d5fb	0.043172818
102	0x3d6c4fbd	0.05769323
103	0xbce3c2bd	-0.02780282
104	0x3e28fb59	0.16502132
105	0x3d608831	0.054817382
106	0x3e3e5349	0.18586458
107	0xbdea1978	-0.11430639
108	0x3ef4a7b0	0.47784185
109	0x3c594d47	0.013263053
110	0x3e2068cc	0.15664977
111	0xbdcf9fea	-0.10137923
112	0x3e295304	0.16535574
113	0x3e8fff40	0.28124428
114	0x3e1b257f	0.15151022
115	0xbdacff44	-0.084471256
116	0xbbb4fbee	-0.0055231964
117	0x3e6c756d	0.2309167
118	0x3d534505	0.051579494
119	0x3e3ae6ef	0.18252157
120	0x3e96476a	0.2935136
121	0xbdc75184	-0.09732345
122	0x3d90aecd	0.070645906
123	0xbd9663ed	-0.07343278
124	0x3df1b513	0.11802115
125	0xbdc17eca	-0.09448011
126	0x3bca47b4	0.0061730985
127	0x3e586513	0.21132307

decoder.bias_hh_l0 f4 [128]
0	0xbd89ef03	-0.06735041
1	0x3dfbe4dd	0.122995116
2	0x3dac4ece	0.08413468
3	0x3d802087	0.06256204
4	0x3e004802	0.12527469
5	0xbd572c35	-0.052532393
6	0x3db938a5	0.09044007
7	0x3e2d7cf0	0.16942191
8	0xbec396b4	-0.38200915
9	0x3dccbdf5	0.09997169
10	0x3d6be60d	0.05759244
11	0x3dea00c7	0.114259295
12	0xbd7f0909	-0.062264476
13	0x3dba470d	0.09095583
14	0x3db4c204	0.08826068
15	0x3d8904b5	0.06690351
16	0xbdca8bf7	-0.098899774
17	0x3e76abbb	0.24088947
18	0x3dd0eaf8	0.10201067
19	0x3e1e8fcd	0.15484543
20	0x3c97baa1	0.018521609
21	0x3e53d03d	0.20684905
22	0xbdabd0db	-0.083894454
23	0x3e3eaa1d	0.1861958
24	0x3e500a97	0.2031654
25	0x3e217af5	0.1576956
26	0x3d8c20b0	0.06842172
27	0x3e34dbe0	0.17662
28	0x3dd8f680	0.10593891
29	0x3c24a393	0.010048765
30	0x3e271f8b	0.16320626
31	0x3e09cfcf	0.13458179
32	0xbcf07eb2	-0.029357288
33	0xbe552879	-0.2081622
34	0x3e447c8e	0.19188139
35	0x3cd98bb3	0.026555872
36	0x3d087b5d	0.033320773
37	0xbe500e7e	-0.20318028
38	0xbe6c104b	-0.2305309
39	0xbe398087	-0.18115436
40	0x3f122b8a	0.57097685
41	0x3dd128dd	0.10212872
42	0xbe5e52dd	-0.21711297
43	0xbe4056c2	-0.18783095
44	0x3f518e65	0.818579
45	0xbebe5695	-0.37175432
46	0xbd5c7c4c	-0.053829476
47	0xbd99ccc9	-0.07509763
48	0x3c111f5e	0.008857576
49	0xbdbab03c	-0.09115645
50	0x3ed54090	0.4165082
51	0xbe755912	-0.23959759
52	0xbd9194be	-0.071084484
53	0x3d91edbe	0.07125424
54	0x3d8f0621	0.06983591
55	0xbe3b3fe0	-0.18286085
56	0x3ce614fe	0.028086182
57	0xbc88b73f	-0.016688941
58	0xbd725631	-0.05916423
59	0xbb74ecaa	-0.0037372508
60	0xbe6546ec	-0.22390336
61	0xbdc96418	-0.098335445
62	0x3e1ad347	0.15119658
63	0xbe17447b	-0.14772217
64	0xbd39e6af	-0.045386013
65	0x3dc7c2a7	0.09753924
66	0x3d03398a	0.032037295
67	0xbdf483d4	-0.11939207
68	0x3d3cc338	0.046084613
69	0xbde83b3f	-0.11339425
70	0x3e323165	0.17401655
71	0xbe269641	-0.16268255
72	0x3e194a5b	0.1496977
73	0xbdda688a	-0.106644705
74	0x3d9d49fd	0.07680128
75	0xbdaacb20	-0.08339524
76	0x3e0d5d06	0.13805017
77	0x3e889b70	0.2668109
78	0xbe38be34	-0.18041307
79	0x3e48c409	0.19606031
80	0x3d24dfa0	0.040252328
81	0x3deb861d	0.115001895
82	0x3d8f76ed	0.07005105
83	0xbe34811a	-0.17627373
84	0x3add4496	0.0016881402
85	0xbd4782bf	-0.048708674
86	0xbccf9e2b	-0.025343975
87	0x3db19b1d	0.08672164
88	0x3c1e4842	0.009660782
89	0xbdce0118	-0.10058802
90	0xbe342032	-0.17590407
91	0x3b68bf12	0.0035514277
92	0x3bedc9fc	0.0072567444
93	0xbe7aa0ef	-0.24475454
94	0x3e321aaf	0.17392991
95	0x3e436d2e	0.19084617
96	0xbb9a8525	-0.004715579
97	0x3e07f74f	0.13277934
98	0x3cd47d7d	0.025938744
99	0xbe193fd6	-0.14965758
100	0xbe036cfc	-0.12834543
101	0x3dce2257	0.100651436
102	0xbd0fc890	-0.03510338
103	0xbd05d5d2	-0.032674618
104	0x3eb71676	0.35759324
105	0xbe3c2fde	-0.18377635
106	0xbd2833ec	-0.04106514
107	0xbe28c6e5	-0.16482122
108	0x3f18f4dc	0.59748626
109	0x38998230	7.319858e-05
110	0xbbf086bf	-0.0073402817
111	0x3d5d6a17	0.054056253
112	0x3d7a2056	0.061065994
113	0x3df1651f	0.117868654
114	0x3e3b29f8	0.18277729
115	0xbd5e57bc	-0.05428289
116	0xbdf8f589	-0.12156207
117	0x3d73551b	0.059407335
118	0x3dadb305	0.08481411
119	0x3d4caf2b	0.04997174
120	0x3e895b8b	0.26827654
121	0xbd3bd709	-0.04585937
122	0x3e25ec80	0.16203499
123	0xbd1d08fd	-0.03833865
124	0x3e348c55	0.17631657
125	0x3e1cf844	0.15329081
126	0x3c8b85fc	0.017031662
127	0x3e6c84d1	0.2309754

decoder.weight_hr_l0 f4 [1, 32]
0	0xbdc3f206	-0.09567647
1	0xbe2bcb1a	-0.16776696
2	0x3e80abf9	0.25131205
3	0x3e6b2342	0.22962669
4	0xbe6b228f	-0.22962402
5	0xbdf04b34	-0.11733094
6	0x3ddc441d	0.10755179
7	0xbe3794fb	-0.17927925
8	0xbf2db3c4	-0.67852426
9	0x3d871062	0.06594922
10	0x3e45141f	0.19245957
11	0x3eadca2d	0.3394331
12	0xbf819a08	-1.0125132
13	0x3e0175d0	0.12642598
14	0xbd4c3a15	-0.04986008
15	0x3e7192c1	0.23591138
16	0xbe4850d7	-0.19562088
17	0x3e8dd9ee	0.2770533
18	0x3e9dfaa7	0.30855295
19	0xbe1ce691	-0.15322329
20	0xbd8568d5	-0.06514136
21	0xbe6bb817	-0.23019443
22	0x3e1aa703	0.15102772
23	0x3e78caa9	0.24296059
24	0x3e8bace7	0.27280352
25	0xbe320e00	-0.17388153
26	0xbdf9d730	-0.12199247
27	0xbe039e65	-0.12853391
28	0x3e83636e	0.25661796
29	0xbe518bb8	-0.20463455
30	0x3e81a74d	0.25322953
31	0x3e1a9842	0.15097144
