output/synthetic_data/models/model_hidden64_lr0.001_clip5.0.pth (torch, 141415 bytes, 9 tensors)

encoder.weight_ih_l0 f4 [256, 1]
000000 46 7e 7f 3d 5a e4 d7 bb 66 64 58 bd 47 0a e8 3d
       0.062376283 -0.006588501 -0.052830122 0.11330085
000010 b6 70 45 bd 02 42 cc bc ac 87 6c bd 5a 53 4b 3c
       -0.048203193 -0.024933819 -0.057746574 0.012410009
000020 aa 89 07 3d 0c 34 1b bd 2d 5c d7 bc d6 62 0c 3e
       0.03309027 -0.037891433 -0.02628907 0.13709578
000030 70 c2 fe bd 6c 1b de bc 8f 3f ec 3d 89 6c 84 bd
       -0.1243943 -0.027112685 0.1153556 -0.06466014
000040 ed d7 bd 3d 2d 4f eb 3b 2f 97 e5 3d ce 96 f8 3d
       0.092697 0.0071810693 0.112104766 0.12138139
000050 27 01 f0 bd 63 4d 7f bb 23 b6 18 bc 23 cd 8b bd
       -0.1171897 -0.0038956038 -0.0093207685 -0.06826236
000060 d2 5d 11 bd fc 1d c0 bd 12 a2 04 3c 38 a5 25 3d
       -0.035489865 -0.09380719 0.008095281 0.040440768
000070 95 54 dc 3d 86 45 1c 3d 64 46 d3 3c ba 87 ae bd
       0.1075832 0.03815224 0.0257904 -0.085219815
000080 9e cf 41 bc 7b bc c6 3d 56 4d 18 3d a0 98 28 3e
       -0.011829285 0.097039185 0.03718313 0.16464472
000090 f3 0c 79 3d e0 a8 af 3d 64 02 e1 bd c6 5c d9 bc
       0.060803365 0.08577132 -0.10986784 -0.026533496
0000a0 69 0a d1 bb 49 f1 a9 bd 10 23 63 bd b4 40 a2 3d
       -0.006379415 -0.082979746 -0.05545336 0.079224974
0000b0 1c 28 13 3d fc 3e 76 3c 36 90 a5 3c 15 6e 01 3e
       0.035926923 0.015029665 0.020210367 0.12639649
0000c0 41 b9 83 bd 06 91 15 3e ba 13 16 bd 1a 8d 12 bd
       -0.06431819 0.14606103 -0.036639906 -0.035779096
0000d0 85 8d fa 3d 71 28 90 3d c7 f0 20 3e 19 01 8e 3d
       0.12234024 0.070389636 0.1571685 0.06933803
0000e0 91 0e ed 3b 42 e0 20 be ba 0a f7 ba 58 96 1d 3e
       0.0072344025 -0.15710548 -0.0018847801 0.15389383
0000f0 13 9c 72 bd 62 e1 d2 3d 8e c6 5a bd 01 43 b1 bd
       -0.059230875 0.102968946 -0.053412013 -0.08655358
000100 67 f1 8a 3d b5 bf 2a 3d 3a a8 6b bd 26 0d 8e bd
       0.06784325 0.041686732 -0.05753348 -0.069361016
000110 9c 3d c1 bd fb ba ea bc 10 01 bb 3d 68 97 2e 3d
       -0.09435579 -0.028653612 0.09131062 0.04262486
000120 d1 57 13 3e 84 09 8b 3c 93 b1 0c 3e ea 77 14 3e
       0.14388968 0.01697231 0.13739614 0.14498869
000130 1c 2c f6 3d 00 f3 c7 bc b4 6b ee 3d 80 04 d9 3d
       0.12020132 -0.024407864 0.116416365 0.105965614
000140 38 cd 01 3e 57 fd a1 bd a7 f3 20 3e e2 20 f9 3d
       0.12675941 -0.07909649 0.15717946 0.12164475
000150 e7 54 e1 39 1e 5f c1 3c 30 27 bd bd 65 00 71 bd
       0.000429786 0.023604926 -0.0923599 -0.058838267
000160 ea 8e 65 3d 67 7f 9c 3d 83 c8 cd 3c 7e e2 a5 3d
       0.056044497 0.076414876 0.025120026 0.080998406
000170 1d c7 6f bd 07 18 13 3d fd 3c 76 3d cd 47 0c 3d
       -0.0585395 0.035911586 0.060116757 0.034248162
000180 fc 41 f1 3c 22 fd 83 bc 73 45 10 3e 91 f4 0a 3e
       0.02945041 -0.016111914 0.14088993 0.13569857
000190 ca 0b cb 3d 54 17 cd 3d 2a 4b 04 bd 5e 74 c7 bd
       0.09914358 0.10014215 -0.032298245 -0.09738992
0001a0 d8 ac 15 3d 99 23 02 3d 7c 8b 26 bc b3 8b 90 3a
       0.03654179 0.03177223 -0.010165092 0.0011027962
0001b0 5a a8 09 3e 74 0b 9e 3d ce 16 90 bd 0f 36 25 3e
       0.13443127 0.07717028 -0.070356 0.16133903
0001c0 d2 e3 54 bd e4 8c 90 3d a9 fe d4 3c 1e 77 ea 3d
       -0.05197508 0.07058123 0.026000338 0.11448501
0001d0 e2 7e 90 bd 06 25 ca bc da d8 6a 39 6e ec f1 3d
       -0.07055451 -0.024675857 0.00022396763 0.118126735
0001e0 da c2 d7 3c 38 8c 85 3c c7 32 d2 3d ee c9 b9 3d
       0.02633803 0.016302213 0.10263591 0.09071718
0001f0 d8 60 1b 3e 5c 51 50 3d 3e 08 98 bd f2 7a 8d bd
       0.15173662 0.05085884 -0.07423447 -0.069082156
000200 44 f1 18 3d 27 03 2e 3e 43 9f f7 bb d9 fb e5 3d
       0.037339464 0.1699339 -0.0075568273 0.11229677
000210 c2 31 57 bd 11 f5 b8 3d b6 25 0e be bb 60 21 3d
       -0.052537687 0.09031118 -0.13881573 0.03939889
000220 6a 38 63 bd fa 71 17 be 9d be f3 bd e5 19 86 bd
       -0.055473723 -0.14789572 -0.11901591 -0.06547908
000230 b8 1d b6 bd b4 2b 47 bd c4 42 db 3d 24 90 05 be
       -0.08892387 -0.048625663 0.10706094 -0.13043267
000240 11 91 ae bc 5c 71 09 be 38 04 38 3b 95 d9 d9 3d
       -0.021309407 -0.1342215 0.0028078686 0.106372036
000250 ed ca a1 3d c4 8f cf 3d dc 2d 4f 3d 36 f0 82 bd
       0.07900033 0.10134843 0.050580844 -0.06393473
000260 14 bf eb bd 02 b5 a6 bd 0c 38 66 bd ff df 3e 3e
       -0.11511055 -0.08139993 -0.056205794 0.18640135
000270 53 be f4 3d 41 f5 e7 3c a2 26 29 bd fb ee b1 bc
       0.11950364 0.028315188 -0.04129661 -0.0217204
000280 cb 67 e5 3d 71 25 96 bd 98 63 b5 3d b4 6b 20 be
       0.112014376 -0.0733136 0.088568866 -0.15666085
000290 1a 75 aa ba 0e 13 99 bd 59 a0 07 be c4 79 ab 3d
       -0.001300487 -0.074743375 -0.13244762 0.08372834
0002a0 13 ce 85 3d 3c 68 2c 3d 5b 33 14 3b 2f ec 24 be
       0.06533446 0.042091593 0.0022613618 -0.16105722
0002b0 b5 9e d3 3d 94 ac e0 3c 2c 0f d4 3c c1 34 f7 bc
       0.10333005 0.027426042 0.02588614 -0.030176522
0002c0 41 8b 5d 3d b8 e8 65 bc 9d 71 3e bd ad 65 83 bd
       0.05408788 -0.014032535 -0.04649507 -0.064158775
0002d0 43 05 38 3d 40 46 eb 3d 81 cf b2 3d 13 45 08 3e
       0.044926893 0.114880085 0.087309845 0.133076
0002e0 0c 90 04 3e 4b 2c 2e 3d f9 ec bd 3d eb c2 34 3b
       0.12945575 0.04252271 0.092737146 0.0027582
0002f0 67 7c f6 bc 44 1a 93 bd 4d 8e 04 3e 1a 7a d4 3d
       -0.030088617 -0.07182744 0.12944908 0.103748515
000300 b3 2d 8c 3d 80 dd 03 3e 18 d8 13 bd 21 79 de 3d
       0.06844654 0.12877464 -0.036094755 0.10862947
000310 4e db a3 3d e4 38 27 3d 9e 38 b4 bc 00 48 22 bd
       0.080008134 0.04082574 -0.021999653 -0.039619446
000320 79 df fe 3d 0a 34 05 3e 97 44 31 3e 56 47 3b bd
       0.12444968 0.13008133 0.17311321 -0.045722328
000330 fb cc 97 3d 3c 60 f8 3d 9a 20 ba 3c 6a 5a 72 bb
       0.07412144 0.1212773 0.022720624 -0.003698016
000340 30 66 1d 3e af 38 98 bd 97 c5 c2 bc 86 c3 80 3c
       0.15371013 -0.074326865 -0.023775859 0.015718233
000350 00 92 29 bd cc 80 82 3d 25 c8 9b 3d 1a 95 a9 bc
       -0.041399002 0.06372222 0.07606534 -0.02070098
000360 dc 47 92 3a 2d 20 e1 3d a7 67 f9 3d 60 53 67 3d
       0.0011160332 0.10992465 0.12177973 0.056475997
000370 38 1a a3 bd 1c f0 6e 3d 03 67 15 be f9 14 48 3c
       -0.07963985 0.058334455 -0.14590077 0.0122120315
000380 e5 6b 1d bc 88 c3 5e bd 6b 0c c2 bd fd f9 13 3e
       -0.009608244 -0.054385692 -0.09475025 0.14450832
000390 1e b1 c5 3d 08 1f 88 bd 43 8c 74 bd 09 40 a3 bc
       0.09652923 -0.06646544 -0.059704076 -0.019927995
0003a0 66 b9 9a bd b6 50 55 bd 24 28 06 3e 73 d6 2f 3e
       -0.07554893 -0.052078925 0.1310125 0.1717165
0003b0 45 0b 3a 3d 80 32 d4 3d 2e 67 99 bd 78 a9 9c 3c
       0.045420904 0.103611946 -0.07490383 0.019123778
0003c0 a3 7a b4 bd c3 4b 11 3e 8c 74 c9 3c e7 d1 36 3d
       -0.088124536 0.14189057 0.024591707 0.044633772
0003d0 0e f6 d6 3d fb 6c 12 be 4f 01 f1 3d 2e 62 a6 3d
       0.1049615 -0.14299385 0.11767828 0.08124195
0003e0 86 f7 b6 bc 5c a2 bb bd 2b a2 17 bc 5d e4 3a 3e
       -0.022334825 -0.09161827 -0.009254972 0.18251176
0003f0 ed ff d7 3d 5e 00 9e 3d 6b 1d e5 bd 74 e5 af b8
       0.10546861 0.07714914 -0.11187252 -8.387389e-05

encoder.weight_hh_l0 f4 [256, 64]
000000 c9 69 91 bd 05 e1 27 3d 5e c1 5e 3c 04 62 b2 3a
       -0.07100255 0.04098608 0.013595907 0.0013609533
000010 73 6e d5 bd 62 e1 c6 3b 49 46 8f bd 91 6d f1 bd
       -0.10421457 0.006069348 -0.06995828 -0.11788476
000020 65 c0 a1 bd 78 b1 b5 bd c3 f6 14 bd 73 03 cb bc
       -0.078980245 -0.0887174 -0.036368143 -0.024781918
000030 fa a3 35 3d 77 23 28 3d 31 99 41 3c e0 2e 89 bd
       0.044345833 0.041049447 0.011816309 -0.06698394
000040 6c 61 9f 3b 76 f5 00 be 0d 17 be bb 0c ec 63 3d
       0.0048639085 -0.12593636 -0.0058010877 0.055645034
000050 00 fe ff 3d 18 a1 aa bd 54 a8 d5 bc 87 83 88 bd
       0.124996185 -0.083315074 -0.026081242 -0.06665712
000060 bd d8 8e 3b d5 6b 65 3d 00 2b f8 bd 3d 70 af 3c
       0.0043593333 0.05601104 -0.121175766 0.021415824
000070 87 fb 1d 3d d4 d3 a9 3d 76 45 8a 3c 7f 22 b8 bd
       0.038569953 0.08292356 0.016878825 -0.089909546
000080 e6 7e a9 3c bd 89 64 bd c4 a6 69 bd ef 52 a0 bc
       0.020690393 -0.05579542 -0.057043806 -0.019570796
000090 81 3a 1a bd a2 0e 9f bd 85 ee cf 3d 36 d1 9a bd
       -0.03765345 -0.07766463 0.10152916 -0.07559435
0000a0 b4 f1 2e bd d5 33 09 3e e6 03 36 3b 5d 72 ef bd
       -0.042710975 0.13398679 0.002777332 -0.11691735
0000b0 b3 ca e6 bd f6 74 35 39 3a f8 51 bb 67 b3 0e 3d
       -0.112691306 0.00017305076 -0.0032038824 0.03483906
0000c0 b4 97 bf bd 67 7c 6c 3d b9 80 6c bd d1 56 bf 3d
       -0.09355107 0.057735827 -0.057739947 0.09342731
0000d0 56 c2 cc bd 4e 17 cb 3d ab 3e b7 3d bb 8b 4b 3d
       -0.09998004 0.099165544 0.089475 0.049693804
0000e0 b2 ad 05 3e 33 30 ba 3d cc 4f 9e bd 8b 34 97 bd
       0.13054541 0.090912245 -0.07730064 -0.07383069
0000f0 ef 85 bd bd 84 56 33 bd 81 a1 80 3c 57 32 84 bc
       -0.092540614 -0.04378368 0.015702011 -0.016137285
000100 67 3e a1 3c d1 ab fe 3d 7f a9 21 bb f5 e1 b9 3d
       0.019683076 0.12435115 -0.0024667678 0.09076301
000110 b9 9a 11 3d dd bd 08 bd dc ef fb bc 89 ea 1d bd
       0.035547946 -0.033384193 -0.030754022 -0.03855375
000120 88 71 a4 3d c7 8c a3 3d 64 36 22 be 36 b9 87 3d
       0.08029467 0.079858355 -0.15841061 0.06627123
000130 d6 08 95 bd af 83 7a bd e3 94 c5 bc 5e 2d 8b 3d
       -0.07277076 -0.06116074 -0.024118846 0.067957625
000140 2c e5 9d 3d f7 3f f7 bd 17 c4 01 bd c2 94 b6 bd
       0.07709727 -0.12072747 -0.031681146 -0.08915092
000150 5b 27 03 3e 11 58 87 bd 65 4b 2e 3c 0e 0b bf 3c
       0.12807982 -0.06608594 0.010638093 0.023320701
000160 76 d5 5a 3e 0e ae 42 3d 1c ff 24 be c0 82 41 3c
       0.21370491 0.047529273 -0.16112942 0.011810958
000170 a1 1a fe 3d 9e 1c f7 3d d3 ab 1e 3e cb 1d 20 bd
       0.12407423 0.12066005 0.15495233 -0.039090913
000180 6e 13 0a bd e7 b2 8d 3d 0f 37 1e be 30 0e b7 3c
       -0.033709936 0.069188885 -0.1545069 0.022345632
000190 2e 13 3f bd c1 96 a0 bd a6 da 93 bd c1 a1 8c bd
       -0.04664915 -0.07841254 -0.07219438 -0.068667896
0001a0 11 6f 18 3d c6 9b ae bd c8 40 40 3d 76 99 4d 3d
       0.037215296 -0.08525805 0.04693678 0.05019518
0001b0 1c 73 01 3d 46 f8 45 bd b3 01 50 3d ff b6 48 3d
       0.031603917 -0.048332475 0.05078287 0.049002644
0001c0 3f b4 17 3e be 28 6d bc e4 7b 27 be 06 e0 82 3d
       0.14814852 -0.014475046 -0.16355854 0.06390385
0001d0 b8 ee ba 3c b3 2f f2 bd 16 a7 0b 3e 80 17 e5 3d
       0.022818908 -0.11825504 0.13637957 0.11186123
0001e0 ee 2d ee 3d 4a d7 bc 3d ec 1f 9e bd e9 c8 d5 bc
       0.11629854 0.09220751 -0.07720932 -0.026096778
0001f0 83 cd b2 3c d3 64 8a bc c2 f7 91 bb d2 62 81 3d
       0.021826511 -0.01689378 -0.004454584 0.063176766
000200 03 85 1f bd f4 fe 33 3d 3b 6c fd 3d d1 1f c1 bd
       -0.03894521 0.043944314 0.12374159 -0.094298966
000210 43 5a be 3d c5 6b c4 bb af 36 4d bd 24 01 59 bd
       0.0929456 -0.0059942924 -0.05010098 -0.052979603
000220 1e 26 ca bd 01 e7 02 be fb 02 a1 3c 62 f3 e3 ba
       -0.098705515 -0.12783433 0.019654742 -0.0017391259
000230 cd 5f e5 3d 2c 56 43 3b e6 0a f2 3d e3 80 0e 3d
       0.11199913 0.0029806 0.11818485 0.034790885
000240 12 11 9c bd 16 4c fd bd 7c 54 e4 bd 49 ab 50 3d
       -0.076204434 -0.12368028 -0.111489266 0.0509446
000250 10 a1 56 bd 5a 5e a6 bd de 22 e3 3d a4 43 0d 3d
       -0.052399695 -0.08123465 0.11090635 0.034488335
000260 e0 8c c9 bd 3c c3 c3 bd 7e e4 47 bd 35 c0 24 bd
       -0.09841323 -0.095587224 -0.04880189 -0.040222365
000270 51 22 ab bd 0f 63 01 bd 82 18 01 be eb b0 08 be
       -0.08356155 -0.03158861 -0.12607005 -0.13348739
000280 4c 2b 6e 3d 5d 6f 03 3e 77 44 cf bd 99 1b bc bd
       0.05814676 0.1283545 -0.101204805 -0.09184951
000290 84 42 db 3c c5 e9 ec bd d1 b9 06 be 92 fe 07 be
       0.026765116 -0.115680255 -0.13156821 -0.13280705
0002a0 91 72 ab 3d e6 e6 32 bd 57 fa a4 3c ae 98 b0 bd
       0.08371461 -0.043677233 0.020138903 -0.08622871
0002b0 c3 7e db 3d cf 69 00 3e 2e bd 86 3d 74 ec 15 3d
       0.10717537 0.12540363 0.06579052 0.036602452
0002c0 d6 ed a2 3d 5c 15 36 3b 0c a1 35 bd 10 a9 d4 bd
       0.0795552 0.0027783727 -0.04434304 -0.103838086
0002d0 96 ea 96 bd 61 dc 97 3c d5 27 16 3e 44 6b 94 3d
       -0.073689625 0.018537702 0.14663632 0.07247022
0002e0 e5 1e a4 3d 66 15 23 bd b6 f5 51 3d d8 2c a6 3d
       0.08013705 -0.03981533 0.05125972 0.08114022
0002f0 46 5e c7 3d a6 3a bf bd 1b 29 91 bc 16 98 d4 3d
       0.09734778 -0.09337358 -0.017719796 0.103805706
000300 53 a8 4a bd 8f 0d 05 3d 44 d4 03 bd 9c 78 8c 3d
       -0.049476933 0.032483634 -0.032184854 0.06858942
000310 90 bd 10 3e 99 4c 76 3c d3 b7 cb 3d c4 d9 1a 3d
       0.14134812 0.015032911 0.09947171 0.037805334
000320 35 14 d3 3d 54 b2 e0 bd 1e a6 f6 3d 95 0b a8 3c
       0.103065886 -0.109715134 0.12043403 0.020513335
000330 20 a7 95 bd a5 ac f6 bb 1b b1 1d bd ad 98 fe bd
       -0.07307267 -0.007527905 -0.03849898 -0.12431464
000340 3d f8 c0 bd 1c 95 8a bd df 3a 98 3c 69 a9 5f bd
       -0.09422348 -0.067667216 0.01858276 -0.05460492
000350 ae f0 8d bc a5 5d 91 bc 69 27 ba bd 29 0a 9f 3d
       -0.01732668 -0.017744849 -0.09089548 0.0776561
000360 3e 08 03 3e 07 c4 32 bd f4 4f ba bd 35 52 17 3e
       0.12796113 -0.043643977 -0.09097281 0.14777453
000370 0e 84 cc 3d e7 51 b5 3d c3 6c 8a bd cf 8a 9c bd
       0.09986125 0.08853512 -0.06759026 -0.07643663
000380 c3 8a c7 3c ba a9 83 bd 45 86 5c bd 85 6d ca bd
       0.024358159 -0.06428857 -0.053838987 -0.098841704
000390 4e a2 b1 3d 8f 53 90 3d cb 2c 28 3c 57 6e 02 3e
       0.08673535 0.070471875 0.010264586 0.12737404
0003a0 f8 58 9c bd ad 07 a2 bd d9 9b c8 bd 4c fc ba bc
       -0.07634157 -0.0791162 -0.097953506 -0.022825383
0003b0 38 1e f0 bd 3c 80 bd bd f4 60 bf 3b 83 5b 8d 3d
       -0.11724514 -0.092529744 0.005840415 0.0690222
0003c0 72 50 53 3d 8a 2f 86 bc 81 16 dc bd d8 d9 07 3b
       0.05159039 -0.01638009 -0.1074648 0.002072921
0003d0 4c e3 ba 3c 9f a4 79 bd be 77 03 bc 83 fa 75 3d
       0.022813462 -0.06094801 -0.008024154 0.06005336
0003e0 4c a2 c3 3d 33 51 50 bd 67 5c c5 bd 5a 9c 1a bd
       0.0955244 -0.050858688 -0.09636765 -0.037746765
0003f0 e2 49 6c bb 17 b0 05 bd bc 11 d0 3d 2b 5c ce 3d
       -0.003605478 -0.032638635 0.101596326 0.100761734

encoder.bias_ih_l0 f4 [256]
000000 e3 88 3a 3d c1 02 f6 3d 21 4f 64 3d f0 10 af 3c
       0.0455407 0.12012244 0.055739526 0.021370381
000010 3f 53 ec 3d 36 8c c3 3d 9f d8 8e bd 00 63 1d 3d
       0.115393154 0.095482275 -0.06974911 0.038424492
000020 20 d0 32 3c cc db a1 3d 74 3f 86 bd b1 20 cf 3d
       0.010913879 0.07903251 -0.065550715 0.10113657
000030 19 d7 be bd 36 71 fe ba 3d 25 6d 3b ae 20 0f 3e
       -0.0931837 -0.0019412402 0.0036185526 0.1397731
000040 f1 eb a2 bc 4f aa 05 bd be fc 5f bd 55 90 50 bd
       -0.019887896 -0.032633122 -0.054684393 -0.050918896
000050 e3 fb b3 3d b1 09 93 3d e4 db 0b bc 61 cf cf 3d
       0.08788278 0.07179583 -0.008536313 0.10146976
000060 91 51 f2 3d 9d 7c c7 bd b4 a1 84 bd 40 6e be 3d
       0.11831964 -0.09740565 -0.06476155 0.09298372
000070 8e 46 e8 3d 60 34 0e 3e 48 b9 da 3d de d5 bc bc
       0.11341582 0.13887167 0.10679871 -0.023051199
000080 4e db 17 bc 24 2c be 3d 7b d1 b6 3d 88 5e 13 3e
       -0.009268595 0.09285763 0.08926674 0.1439153
000090 e1 4c bf bd d1 1f 0a bd 71 c5 5e 3b ea 61 ea 3c
       -0.09340835 -0.03372175 0.0033992196 0.028611142
0000a0 21 0a a3 3c e8 bf dc bc 30 5e 08 3e dd 36 7f 3d
       0.01990229 -0.026946977 0.1331718 0.06230818
0000b0 4a d4 9d 3d d3 1f cc 3d 1f 62 d4 3d 35 db 83 bd
       0.077065066 0.099670075 0.103702776 -0.06438295
0000c0 37 1d 08 3e 66 6a 71 3d f9 3d 3c bd 4a ec c6 3c
       0.13292395 0.05893936 -0.04595754 0.024282593
0000d0 5f ab a9 3b a9 4d 09 3d 0c db 95 bd 8b bb 8f bc
       0.0051778997 0.033521328 -0.073171705 -0.017545482
0000e0 12 51 48 3c 47 b1 e8 3c 84 4c 37 3d 16 53 ef 3b
       0.01222636 0.028404845 0.044750705 0.007303606
0000f0 56 06 0b bd b9 97 81 bd 72 da 5a bd 23 f0 d9 bd
       -0.03394159 -0.06327767 -0.053430982 -0.106415056
000100 4a 6b dd 3c 58 1c 85 bd 26 11 94 bd 69 96 dd 3d
       0.027028698 -0.06499547 -0.07229833 0.10819704
000110 af d6 54 bd 3c 3c 06 bd d7 0e 41 bd 2b 61 96 bc
       -0.05196255 -0.032772288 -0.047133293 -0.01835688
000120 7a 1a 68 bd f0 f8 81 3d 36 47 0e bc f0 84 28 bd
       -0.056665875 0.06346309 -0.00868397 -0.041142404
000130 a8 71 03 bd 76 bd 0a 3d a9 94 a4 3d 42 60 02 3e
       -0.032090813 0.03387209 0.08036167 0.12732032
000140 75 be 32 3d 50 f0 98 bd c6 45 d9 bc 02 8b b9 3c
       0.043638665 -0.07467711 -0.026522528 0.022649292
000150 a1 5e dc 3d ac c5 a1 bd 7b 36 9e bd f5 ee cb bc
       0.107602365 -0.07899031 -0.07725235 -0.024894217
000160 c1 e2 2f 3e 64 db a1 bd 30 58 9b 3d 9d 10 ea 3d
       0.17176344 -0.079031736 0.0758518 0.1142895
000170 f3 7e ae 3c 03 17 d1 3d 65 a7 f1 3c 1d b9 f7 3c
       0.021300768 0.10209467 0.029498765 0.030239636
000180 3d 7d fc 3c 53 65 20 bc 91 7f 0f bd 1c 9e f0 3d
       0.030821437 -0.009789783 -0.035033766 0.11748907
000190 af a6 2f 3c ca 5f c2 3d 35 42 cc 3d a8 d3 4f 3d
       0.010720893 0.094909266 0.099735655 0.05073896
0001a0 c8 f9 94 bd e5 76 7b 3d 46 7f 71 bd c3 48 a4 bd
       -0.072742045 0.061392684 -0.058959268 -0.08021691
0001b0 0b f5 13 3e 35 ee 07 bd 81 87 a2 bd 08 5c 72 bc
       0.14448945 -0.033186156 -0.079360016 -0.01479245
0001c0 4e 78 80 3c bd be 09 3e 3e a7 bd 39 84 99 eb bd
       0.015682366 0.13451667 0.00036173494 -0.1150389
0001d0 91 cb c0 3d 63 0a b2 bc 58 fc 9f 3d 7e 15 52 3d
       0.09413827 -0.021733468 0.078118026 0.051290028
0001e0 f1 29 b7 3d 34 0d 02 be ab 89 0b 3e 24 c7 01 bd
       0.089435466 -0.12700349 0.13626735 -0.031684056
0001f0 f9 aa c2 bd f8 61 09 be e6 31 37 bd 36 77 d1 3c
       -0.09505267 -0.13416278 -0.04472532 0.02556954
000200 cd 54 04 be 67 2a 22 bc f1 34 63 3d 25 98 67 3d
       -0.12922974 -0.009897805 0.05547041 0.05654158
000210 36 4e a9 3d 49 59 f4 3c 3a 5a fc bd 32 86 4e 3b
       0.08266871 0.02982773 -0.12321897 0.0031513092
000220 8d 6e 42 bd 69 d1 d3 bd 71 cc 17 be 9c 50 b3 bc
       -0.04746871 -0.10342676 -0.14824082 -0.021889023
000230 87 f4 6f 3c 96 96 58 bd 97 83 50 3d b7 33 ea bb
       0.014645702 -0.052877985 0.050906744 -0.007147278
000240 fe a5 4e bd f9 bb 60 3d 4b 21 eb bd 05 1e 25 bd
       -0.05045127 0.054866765 -0.114809595 -0.040311832
000250 2f d8 20 bd 3b a3 02 3e 4c 3e 08 3c a5 81 ff 3d
       -0.03926867 0.1275758 0.008315634 0.124758996
000260 4e 95 a0 bd 90 5a 44 3d 55 b8 10 bd 88 c2 e0 bd
       -0.078409776 0.04793793 -0.035332043 -0.10974604
000270 00 21 66 3c e9 0f 6c 3d f1 a8 88 bc 7f 14 66 bc
       0.014045954 0.05763236 -0.01668212 -0.014042973
000280 40 af ec 3d 54 ab c9 3d 95 37 6e 3d a9 1b d2 bb
       0.11556864 0.09847131 0.058158476 -0.0064119888
000290 0c 38 bb bd 26 a1 86 bd 7a c8 ec bd d1 31 e4 bd
       -0.091415495 -0.065737054 -0.11561675 -0.11142314
0002a0 b0 37 43 b9 18 49 d3 3c 26 e1 fb 3d 66 b2 91 bd
       -0.00018617394 0.02579169 0.12298803 -0.07114105
0002b0 1f a6 a2 3d aa 97 83 bd 0c 47 db bb 5c 09 a2 3d
       0.07941841 -0.06425412 -0.006691819 0.079119414
0002c0 d7 57 08 3d e8 37 10 3e a0 18 7b bc 8f ea 11 bc
       0.033286896 0.14083827 -0.015325695 -0.008906021
0002d0 81 77 b9 3c 3e e2 94 3c 41 22 0d 3c f2 b7 de 3d
       0.022639992 0.018174287 0.008614124 0.108749285
0002e0 c2 ff 52 3d 0b 5c 49 bd 80 6d cf 3d 90 82 bb bc
       0.05151344 -0.049160045 0.10128307 -0.022889405
0002f0 5e e7 45 bd 39 1b 61 3d 9f 44 a6 bc 51 c1 d1 bd
       -0.048316352 0.054957602 -0.020296393 -0.1024195
000300 9d eb f0 bd f2 f4 f9 3d 22 c2 de 3d bd 66 84 3d
       -0.1176369 0.12204923 0.10876872 0.06464908
000310 5e 0d bf bd 5a 1e 05 3d dd a2 67 bd 1a 6f 45 3d
       -0.093287215 0.03249965 -0.056551803 0.048201658
000320 2f 29 82 bb bc c4 13 3e 24 6b 21 3d f9 be 1e bd
       -0.0039721946 0.14430517 0.039408818 -0.038756344
000330 07 12 06 3d 3a 0f 24 3d 78 ab 21 bd aa 12 b7 bd
       0.032732036 0.040053584 -0.039470166 -0.08939107
000340 54 23 a3 bd ad 30 24 bd 8b fc 73 3d 9c 11 85 bd
       -0.07965723 -0.040085483 0.059567016 -0.06497499
000350 f4 3e 2e 3d 1f c6 50 3d 26 5d c9 3d 7c 15 43 3d
       0.042540506 0.050970193 0.0983222 0.04762791
000360 42 23 86 3d 19 95 63 3c df 45 30 bc e4 95 b0 bc
       0.06549694 0.013890528 -0.010758846 -0.021555848
000370 98 59 c6 3d ed 83 f0 3d bd c9 9c bd 3a a5 33 bd
       0.096850574 0.11743913 -0.07655666 -0.043858744
000380 69 a5 ce 3d 34 e4 94 3c 26 fe cd 3d 90 17 b4 3b
       0.10090143 0.018175222 0.100582406 0.005495973
000390 d2 ea f2 bd ee 8e 7c bc 88 07 1f 3d b2 93 68 3c
       -0.11861195 -0.0154149365 0.03882554 0.01419537
0003a0 a0 9b 03 3e 70 ff 67 bd 1f 75 e2 bd 54 f5 4a bd
       0.12852335 -0.05664009 -0.11057495 -0.04955037
0003b0 95 c7 85 3d 00 a8 b3 bd ae 48 42 3d 66 92 a4 3c
       0.06532208 -0.08772278 0.047432594 0.02008934
0003c0 f0 a1 87 3d 45 14 4c 3d 71 f5 45 bd e3 e9 ba 3c
       0.06622684 0.049824018 -0.048329774 0.022816604
0003d0 6d 81 65 bd d3 8f 10 3e 0e ca 58 3c 77 8b 16 3e
       -0.056031633 0.14117365 0.013231767 0.14701639
0003e0 04 81 c1 bd 4b 9d 4b 3d 61 8d c4 3d 21 c9 27 3e
       -0.09448436 0.049710553 0.095972784 0.16385318
0003f0 96 26 09 3e fe cc ed bd af 9f fd 3d 04 e6 d2 3d
       0.13393626 -0.11611365 0.12383973 0.10297778

encoder.bias_hh_l0 f4 [256]
000000 46 d9 be 3d 8b 25 46 3d f9 be 1e 3d d8 e8 92 3d
       0.09318785 0.048375648 0.038756344 0.07173318
000010 d0 c1 f4 3d 72 c6 bb ba dd 69 ba bd ae 7b 6a 3d
       0.11951029 -0.0014326109 -0.09102223 0.057246856
000020 1a 31 c6 bd 61 a4 30 3d ec 89 2b 3d f2 83 50 bd
       -0.09677334 0.043125514 0.04187958 -0.050907083
000030 ac 32 49 bd 78 7f 15 3e 85 d7 92 bd 14 17 42 bd
       -0.04912059 0.14599407 -0.07170013 -0.04738529
000040 a6 57 6b 3d e2 3c a3 bd 8a 00 77 bd f0 87 0e 3e
       0.057456635 -0.07970597 -0.06030325 0.13919044
000050 a9 31 a6 ba 4a e4 a6 3c ba 06 cd bd 92 b5 54 3b
       -0.0012679595 0.020372529 -0.100110486 0.0032456857
000060 3e ae 63 3c 3c 88 6a bc b5 81 2d bd b4 2b 1d 3e
       0.013896523 -0.014314707 -0.042360026 0.15348703
000070 26 c5 3c bd f0 dd 90 bd 03 71 95 3b c0 85 bb 3d
       -0.046086453 -0.07073581 0.004560591 0.0915637
000080 e3 72 7b 3d 43 af aa ba 37 2a dd 3d 51 f5 d7 bc
       0.06138886 -0.0013022203 0.107990675 -0.026362093
000090 4d 64 e5 3d fd 00 12 3d 4e 7f 9e 3d 2c 69 22 3d
       0.112007715 0.035645474 0.07739125 0.03965108
0000a0 8c 9e 44 3d db 23 c9 bd a0 bb f4 3c 45 91 0d 3e
       0.048002765 -0.09821292 0.029874623 0.13824947
0000b0 2b 38 ca 3b 93 d7 d4 3d a9 9e 17 3d b7 26 ac bd
       0.0061712465 0.1039268 0.037016544 -0.08405822
0000c0 a6 e2 82 3d 66 46 5a 3c d4 d1 6b bd cc 6f fd bd
       0.06390886 0.013322448 -0.057573155 -0.12374839
0000d0 b9 89 ba 3d 74 de 61 3d 05 18 fc 3d af 77 b3 bd
       0.091083 0.05514379 0.12309269 -0.08763062
0000e0 74 79 cb 3d 76 79 d8 bd 77 c8 ad 3d ad 1d ba bd
       0.09935275 -0.10570042 0.08485501 -0.090876915
0000f0 8c ce 6b 3d 5e 8f 93 3b c4 94 0c 3e a0 24 eb 3c
       0.057570025 0.0045031747 0.13728625 0.028703988
000100 34 d8 bd 3d 36 36 47 3d cf 6d c1 3d 4a 65 b4 bc
       0.09269753 0.048635684 0.094447725 -0.022020955
000110 68 f9 be 3d 62 c8 74 bd 9c 47 91 bd 01 e2 23 3d
       0.09324914 -0.059761412 -0.070937365 0.040010456
000120 44 e2 f3 3d 3b 47 c1 bc 5a 9f ef 3d 87 0d 07 3e
       0.11908391 -0.023593536 0.11700316 0.13188754
000130 40 ce a6 3d 88 bb 22 bc bd 81 d4 3d 62 26 6f bd
       0.08144808 -0.009932406 0.10376308 -0.058386214
000140 30 54 94 3d 4f 90 ce 3d ce c6 06 3e 30 67 b3 bd
       0.0724262 0.100861184 0.13161775 -0.08759916
000150 66 0f 1b 3d 99 92 e4 bd c7 b9 01 3e 48 e4 ec 3d
       0.037856482 -0.11160774 0.12668525 0.11566979
000160 ce 1f ee 3a 03 aa 34 3d d8 25 17 bd b2 51 28 3d
       0.0018167438 0.04410745 -0.036901325 0.041093536
000170 e2 f3 1f bd 43 f6 18 bc 27 e5 e9 bd ab 50 44 bd
       -0.039050944 -0.009336057 -0.114206605 -0.047928493
000180 00 47 a6 3d 40 31 c3 bc 6c 95 02 3d 6e ca b5 3d
       0.08119011 -0.023827195 0.03188078 0.08876501
000190 82 c6 95 bb 99 93 82 3d 74 5c 37 3c 5f 48 cd 3d
       -0.004570783 0.06375808 0.011191476 0.10023569
0001a0 31 01 3d bc b5 8c 87 3d 80 5a c9 3d 2e 2a 8d bd
       -0.011535929 0.066186346 0.09831715 -0.06892811
0001b0 1e f9 ab 3c 6e ed e4 3d a7 67 fc 3d 83 fe 40 3d
       0.020992812 0.111780986 0.123244576 0.04711772
0001c0 ca fc 95 bd 1d 44 28 bd 3f 1f 78 bd 33 c4 91 bd
       -0.07323606 -0.041080583 -0.060576674 -0.071175
0001d0 44 17 3d bc aa 0a 2c 3e d8 81 77 bd 3b 60 30 bd
       -0.0115411915 0.16800943 -0.060426563 -0.043060523
0001e0 48 d0 4e bd 5e a6 e4 bd 43 e3 33 3d 39 ef ef 3d
       -0.0504916 -0.111645445 0.043917906 0.1171555
0001f0 7f 5b 4b 3d 51 bf 9e 3c 07 22 bd bd dd 01 a6 3d
       0.049647804 0.019378336 -0.09235006 0.08105824
000200 07 81 bf 3b ad 4b 0f bd 1a d9 ea 3d 2d 4a c3 3c
       0.0058442387 -0.03498428 0.1146719 0.02383908
000210 21 91 68 bd 44 e6 19 bc 0d 85 81 3d 14 c3 8f bd
       -0.05677903 -0.0093932785 0.063242055 -0.0701963
000220 58 9f cf bd 76 7c 52 bd af fb 9e 3a 9a 75 0b be
       -0.10137814 -0.051388226 0.0012129451 -0.1361908
000230 41 18 81 bd 10 63 54 bd b5 1f 62 bd bc f1 57 3a
       -0.06303454 -0.051852286 -0.05520602 0.00082376203
000240 6a 92 c4 bd 27 15 5d bd 4c 4e 78 bd 5b bd c3 bd
       -0.09598239 -0.05397525 -0.060621545 -0.09557601
000250 9e 4d b6 bd f5 ee 06 3d 07 51 0c bd e1 d5 4a bd
       -0.08901523 0.03294273 -0.03425696 -0.049520377
000260 eb 28 6e 3d f1 22 f1 bd 39 b2 e0 bd b0 59 dc 3d
       0.05814449 -0.11774243 -0.10971493 0.10759294
000270 f6 d9 b8 39 ae 79 80 3d 49 ab c0 3c 89 e2 d1 bc
       0.00035257608 0.062732086 0.023519175 -0.025620716
000280 04 a6 95 3d ad bb 16 3d f3 36 dc bd 99 3b b0 bd
       0.073070556 0.036800075 -0.10752668 -0.08605117
000290 3d 4f 95 bd 3b 94 b6 bd 29 ac bf bc 33 05 af bd
       -0.07290504 -0.089149915 -0.023397522 -0.085459135
0002a0 ee 3a 59 3d 46 de 21 3d 7f 73 fb bb 69 f5 49 bc
       0.053034715 0.039518617 -0.0076736803 -0.012326577
0002b0 03 5a a3 3d ef 53 2c bd 77 48 c7 bd be 3d 46 3d
       0.07976153 -0.042072233 -0.097306184 0.048398726
0002c0 75 50 bd 3d 9d 60 d0 3d c4 82 90 bd fe 54 b4 3d
       0.092438616 0.101746775 -0.070561916 0.088052735
0002d0 d7 57 34 3d 3e 9b 46 bd 57 7e d8 ba 5d 17 66 bc
       0.044029083 -0.048487894 -0.0016517144 -0.014043656
0002e0 9f aa a5 bd 50 1f dd bd 40 dc c8 3d 92 f1 01 3c
       -0.08089184 -0.10796988 0.09807634 0.00793113
0002f0 9e c6 c6 3c 07 29 03 3c 30 fd a9 bd 34 7f b0 3d
       0.02426463 0.008005387 -0.08300245 0.08618012
000300 bc 61 de bd 67 13 84 3d f8 d4 c0 3c 89 d9 d4 3d
       -0.10858485 0.06449013 0.023539051 0.10393054
000310 10 da ca 3d 30 fe 0f bd f9 da 57 3c 45 05 83 bd
       0.09904873 -0.03515452 0.013174766 -0.063974895
000320 f8 50 fc 3d 7e 77 88 bd 9a 71 9f bd 54 2f 11 3e
       0.12320131 -0.06663416 -0.0778534 0.1417821
000330 c9 b3 1c 3d c2 15 c7 bd 73 6f 84 3a b1 cf b0 bd
       0.038257394 -0.09720947 0.0010104015 -0.08633364
000340 8a fb 03 3d 35 9b d4 bd 9d f4 bd bd e8 1f 84 bd
       0.03222231 -0.10381166 -0.09275172 -0.06451398
000350 68 31 46 b9 cd 43 be 3c 50 ae dc bc af 17 00 3e
       -0.00018901157 0.02322569 -0.026938587 0.12509035
000360 c6 2a 7b bd 9d 5c 9c bd 77 80 42 3d 3b 84 40 3d
       -0.06132009 -0.07634852 0.047485795 0.047001105
000370 53 09 80 bd 81 ca d6 bc 86 f3 ea bb 83 19 e3 3d
       -0.062517785 -0.026219608 -0.0071701435 0.1108885
000380 73 01 96 3c 71 19 a4 3d 7a 16 a2 3d c4 a5 c2 bd
       0.018311238 0.08012665 0.07914443 -0.095042735
000390 8d 01 9a bc 4a 02 7e 3c aa 9c e5 bd 8d b7 59 bd
       -0.018799568 0.015503475 -0.11211522 -0.053153563
0003a0 c0 ae ad bd 51 53 11 be 84 fb a5 bc 98 90 83 bc
       -0.084805965 -0.14191939 -0.020261534 -0.016060159
0003b0 f9 b9 4c 3d 45 34 9e 3d 9e 9e c4 bd 6c 30 5e bd
       0.049982045 0.07724813 -0.09600566 -0.054245397
0003c0 85 dd 0b bd 12 b7 c6 3d e0 67 8b 3d a7 3b e6 bd
       -0.034146804 0.09702887 0.06806922 -0.112418465
0003d0 f2 e0 a3 bc 59 8b 00 3e cb 87 8a bd 54 37 d1 3d
       -0.020004723 0.12553157 -0.06764182 0.10215631
0003e0 35 9f ed 3d 61 ba 5f 3d 85 32 b7 3d d1 71 57 3d
       0.11602632 0.054621104 0.08945183 0.05259878
0003f0 05 2a bb bd 88 98 6b 3d 27 02 cb bd 9e 41 8b bd
       -0.09138874 0.057518512 -0.0991252 -0.06799625

decoder.weight_ih_l0 f4 [256, 64]
000000 4e 0a 74 bd cb ad 9a bd f7 92 ea bd 09 e5 75 3d
       -0.05958014 -0.0755268 -0.114538126 0.060032878
000010 97 3e be 3d 2a d3 e6 bd 87 d5 ce 3d 6a 2a b9 3c
       0.09289282 -0.11270745 0.10099321 0.022603232
000020 94 f7 4b bd ab a2 f4 3d 9c 96 8f bd d7 a0 db bc
       -0.049796656 0.11945089 -0.07011148 -0.026810093
000030 d2 ae f9 bd 32 9e e2 3c 13 4d b1 bd 49 7d 09 3d
       -0.121915475 0.027663324 -0.08657279 0.033566747
000040 5f 8b 93 bd ec b6 ab 3d 62 54 9d bd 94 f3 ab 3c
       -0.07204317 0.08384499 -0.0768211 0.02099017
000050 b3 c6 77 bc 9a ee c6 3d 1f 50 e7 bd a1 a5 ef bc
       -0.015123057 0.097134784 -0.11294579 -0.029253783
000060 21 c2 af 3d 77 4a 10 3e 20 38 87 3d c3 63 be 3d
       0.08581949 0.14090906 0.06602502 0.09296372
000070 e3 a2 b6 bd 12 a0 b8 3d 97 59 62 3d e3 48 d9 bd
       -0.08917787 0.09014906 0.05526122 -0.10609605
000080 dc 63 ca 3d 47 dc 63 3d a5 8a 52 bd b9 04 20 3d
       0.09882328 0.055629995 -0.051401753 0.039067004
000090 5c c7 4e bd 61 65 b4 bd 05 eb 17 3d 81 5f f5 3d
       -0.050483093 -0.08808399 0.037089366 0.119811065
0000a0 53 a8 cc 3d f8 1c 68 3d de 4b 00 be f5 69 00 3e
       0.09993043 0.05666825 -0.12528941 0.1254042
0000b0 2b ef 36 3d 8d 56 72 3a d9 e8 5b bc da 85 4f bc
       0.044661682 0.00092444645 -0.013422214 -0.01266619
0000c0 84 7c d8 3b 5c 57 58 3c 14 b7 42 3d 00 7d b2 bd
       0.0066066403 0.013204422 0.04753788 -0.08715248
0000d0 8a 85 a3 bd fb 8e 3d 3d 60 76 6e bd 9e 0c df bd
       -0.07984455 0.046278935 -0.05821836 -0.108910784
0000e0 5c fb f0 bd c5 c8 cd 3d f6 11 d7 bd 76 7e c2 bc
       -0.11766693 0.100480594 -0.10501473 -0.023741942
0000f0 88 a8 9f 3d f6 ac 9e 3d 4c b1 81 bc 4d b5 65 3d
       0.07795817 0.077478334 -0.015831612 0.056081105
000100 f5 b3 ec bd b4 e7 92 bd b6 68 d9 3d f7 35 6e bd
       -0.115577616 -0.071731 0.10615675 -0.058156934
000110 af bf 32 3d 53 24 02 bd 26 74 a6 3d 3d 4e 73 3d
       0.043639835 -0.031772923 0.08127622 0.059400786
000120 13 53 df bd 2e 0b f1 bd 70 98 14 bd f7 ae bf 3d
       -0.10904517 -0.117697105 -0.03627819 0.09359544
000130 b6 ef cd 3d e7 74 1b bc 7e 86 a2 3d 33 7c 2b 3d
       0.10055487 -0.009488321 0.079358086 0.041866492
000140 84 70 c0 3c 1d 0b d7 bc 4c 43 44 3d d4 00 ab 3d
       0.023491152 -0.026250416 0.04791574 0.08349767
000150 24 90 9c bd e1 c5 f2 3d 3f 52 e4 bd df d0 e1 3d
       -0.0764468 0.11854149 -0.111485 0.11026167
000160 e9 76 b0 3d c6 52 8f bd eb a1 8e bd 1b c1 f3 3d
       0.0861643 -0.0699821 -0.06964477 0.11902066
000170 d5 82 d9 bd 3d 54 84 bd 05 77 61 3d 5d 20 82 bd
       -0.10620657 -0.0646138 0.055045146 -0.06353829
000180 c3 6a c5 bc 9a 8b ef bd d4 f4 05 be 92 91 95 bc
       -0.02409876 -0.11696549 -0.13081676 -0.01825789
000190 0d 66 f0 bd b7 13 39 3d a9 19 cd bd 08 a1 12 3b
       -0.11738215 0.045184817 -0.1001466 0.0022373814
0001a0 96 d9 50 bd b5 4c ab 3b 68 e1 da bb 0e 95 90 bd
       -0.050988756 0.00522765 -0.0066797026 -0.0705968
0001b0 58 cf d0 3c ac 29 fa 3d 2b c4 e2 3d ba f7 82 3b
       0.025489494 0.122149795 0.11072572 0.0039968165
0001c0 c1 cd 91 3d 6b 26 75 3c 23 0a ed bd 10 1b 34 3d
       0.071193226 0.014962773 -0.11574199 0.04397112
0001d0 ad 90 46 bd ba 62 84 bd 08 5b 44 3d 8e 9b 8e bd
       -0.048477817 -0.06464143 0.047938377 -0.069632635
0001e0 a2 c4 83 3d 5e 79 95 bd bd 63 fe 3d 84 4e ab 3d
       0.06433989 -0.072985396 0.12421367 0.08364585
0001f0 d3 84 03 be a9 3b e9 3d f1 30 0b 3d 28 f9 aa 3d
       -0.12843637 0.113883324 0.03398222 0.08348304
000200 45 66 b4 3d d1 19 74 bd 14 d4 cf bd ee 11 ea bb
       0.08808569 -0.059594933 -0.101478726 -0.0071432507
000210 ae 12 48 3d 7d 39 0f bb 61 66 08 be cc 8e 73 bd
       0.04884594 -0.0021854334 -0.13320304 -0.059462354
000220 89 d1 71 bd 24 14 2f bd d5 e3 2a 3d da 6e fd bd
       -0.05903772 -0.042743817 0.041721184 -0.12374659
000230 3b ef db 3c f7 cd 86 3c 58 e5 6d bd e8 7b f6 bd
       0.026847472 0.016455634 -0.058080047 -0.12035352
000240 06 f3 36 3d 94 62 08 bc 45 03 51 bd 14 47 d5 bd
       0.04466536 -0.008324284 -0.05102851 -0.10413948
000250 99 27 ad bd d4 bc 6c 3d 96 d8 05 be 5a bb 00 3e
       -0.08454818 0.057797268 -0.13070902 0.12571469
000260 c9 5d a5 3d 2d 12 57 bd 62 6f 9e bd 0f bb 07 3d
       0.08074529 -0.05250757 -0.07736088 0.033137377
000270 86 b8 bb 3d 1c d2 61 3d f2 a2 b5 3c f0 a3 76 3d
       0.091660544 0.055132017 0.022172425 0.060214937
000280 6d 9c a4 3d 5c 56 03 3e ff 4b 94 bd f1 6c 18 3d
       0.08037648 0.12825912 -0.072410576 0.03721327
000290 42 48 c8 3d 65 67 38 bc 64 e2 e8 bd 71 fb 90 bd
       0.09779407 -0.01125512 -0.113713056 -0.07079209
0002a0 e5 19 b8 bd f9 13 ab bd 99 bb 0a 3d f1 c8 cb 3d
       -0.08989314 -0.08353419 0.033870313 0.09950436
0002b0 5f 98 75 bd 6a 8d 98 bd 53 15 bf 3d ea a6 c8 3d
       -0.059959766 -0.074488476 0.09330239 0.09797461
0002c0 65 2b 77 3d 4a d1 a1 bd 8c b8 d3 3d 75 b6 48 3d
       0.06034412 -0.07901247 0.10337934 0.04900213
0002d0 b5 ab f7 3d a9 dd c6 3d 11 31 d0 bd f3 f2 d7 bd
       0.120932974 0.09710247 -0.10165609 -0.10544386
0002e0 a1 69 f6 3d 37 6a c6 bd 42 3d a1 bd cd 15 22 bd
       0.12031866 -0.096882276 -0.07873012 -0.039571572
0002f0 b5 be d4 3d d7 68 55 bb a8 0a 45 3c 82 7f 0a 3e
       0.10387937 -0.003256371 0.012026466 0.13525203
000300 ff a7 ab bd 8a 45 1c bd 41 e2 d4 3d 09 ee 21 bd
       -0.08381652 -0.038152255 0.10394717 -0.03953365
000310 78 ea 90 3c 7d d1 b9 bd ad 4c fb bd 6f 25 cc 3d
       0.017689928 -0.0907316 -0.12270484 0.099680774
000320 83 d0 b3 bd ca af 53 bd 0c 54 91 bd 14 b0 50 3d
       -0.08780005 -0.051681317 -0.07096109 0.05094917
000330 2a 7f f6 bd 93 da 83 bc 21 cb 2e 3d 16 11 0e 3d
       -0.12035973 -0.016095435 0.042674188 0.034684263
000340 79 a6 fc bd 93 7b fa bd b5 b4 f5 bd e9 0a e3 bd
       -0.1233644 -0.12230601 -0.11997358 -0.11086065
000350 23 d9 36 3c ce 77 bd 3d 31 08 f5 3c b1 87 a4 3d
       0.011160168 0.092513666 0.029911133 0.080336936
000360 16 27 03 3d 6b 22 70 3d 3a 7c e0 3c c4 d2 14 3c
       0.032019697 0.058626574 0.027402986 0.009083454
000370 54 d5 92 3d 97 d9 ce 3d e1 29 6f bd 2a 27 92 3d
       0.07169595 0.10100096 -0.05838955 0.07136376
000380 57 30 50 3c 39 15 88 bd 5d f0 66 bd 70 f5 ea bd
       0.012706838 -0.06644673 -0.056381572 -0.11472595
000390 33 68 ed bd e7 31 0d 3d 10 5c e3 bd 29 0f 72 bd
       -0.1159214 0.03447142 -0.11101544 -0.05909649
0003a0 31 8f b2 3d 4e f6 bf 3d 94 87 ba bd 5a bb c5 3c
       0.08718718 0.09373151 -0.09107891 0.024137188
0003b0 f7 21 84 bd 8a 1d da 3d 58 2a 52 bd ec c3 07 3d
       -0.06451791 0.106501654 -0.051309913 0.03314583
0003c0 ad be 04 3d 39 1b e8 b5 38 dd c9 bd e8 fb ad 3d
       0.032408405 -1.729327e-06 -0.09856647 0.08495313
0003d0 88 d8 c3 3d 0d 82 84 bb f8 ab 64 bd 17 d9 85 3d
       0.095627844 -0.0040438236 -0.055828065 0.06535547
0003e0 91 39 fa 3d 66 3a a4 bd 52 0e f7 bc 9d d7 b7 bc
       0.12218011 -0.08018951 -0.030158196 -0.02244168
0003f0 1f e2 e3 bd c8 99 9c bd be d8 06 ba ab 37 c1 bd
       -0.111271136 -0.07646519 -0.00051439914 -0.09434446

decoder.weight_hh_l0 f4 [256, 1]
000000 4d d0 1c be 74 45 86 bd 59 47 d9 3d 93 86 32 3d
       -0.15313835 -0.06556216 0.106093116 0.04358537
000010 86 79 19 3d 3c a4 ae 3d 61 06 88 bc 8b e2 11 be
       0.03746941 0.08527419 -0.016604604 -0.14246576
000020 9b 0a c3 bd 60 37 c1 bd 89 0f 37 3d ca d1 e9 bc
       -0.09523507 -0.0943439 0.04469255 -0.028542418
000030 47 ae 09 3d 99 02 14 3c 3e 42 5c 3e b4 da a8 3d
       0.03361347 0.009033822 0.21509644 0.08244839
000040 ec 26 34 bd 9e 49 73 bd 7f 63 1a 3b 1e 5b 49 3d
       -0.04398243 -0.05939638 0.002355784 0.04915916
000050 fe eb 06 be 2d 06 46 be 21 94 ae 3d ac 9b 2b bd
       -0.13175961 -0.19338293 0.08524347 -0.041896507
000060 3b 4f de bc 82 70 12 bc 43 d8 4e bd ac a6 10 3d
       -0.02713739 -0.008937957 -0.050499212 0.0353152
000070 5c 3e 1b 3d a4 da 86 3d 82 25 2d bc b4 ff 9f 3c
       0.037901267 0.06584671 -0.010568025 0.019531108
000080 e5 79 b4 bd 2a 57 d6 3d dc 70 07 be 7f 45 bd bd
       -0.08812312 0.10465844 -0.13226646 -0.09241771
000090 30 84 9e bd 2d e8 11 3e 04 77 03 3c 5b d7 d4 bb
       -0.077400565 0.14248724 0.008023981 -0.006495399
0000a0 2f a5 8f 3d 12 67 84 bc 5a fe d2 3d 90 5c 04 be
       0.07013928 -0.016162429 0.1030242 -0.12925935
0000b0 b2 94 fd bd 85 91 d6 bd e4 6b 5c 3d 5c b0 a1 bd
       -0.12381877 -0.104769744 0.05381383 -0.07894966
0000c0 54 91 db bd cf a3 3f 3e 86 bf 39 bc 9e de 59 3e
       -0.107210785 0.18714832 -0.011337167 0.21276328
0000d0 26 7f ec bd 0d 27 d4 bc b3 ae 1c be 8f b0 d2 bc
       -0.11547689 -0.025897527 -0.15301017 -0.025718955
0000e0 2d 69 8e 3c 36 45 f4 bd 3f ec 81 3d ba 07 37 3e
       0.017384136 -0.119272634 0.063438885 0.17874041
0000f0 35 de 99 3d 2a a6 0b be f0 ea ec bc 31 32 c9 bd
       0.07513086 -0.13637605 -0.02892062 -0.098240264
000100 92 91 90 3d 68 b0 bc 3d 75 81 be 3d 53 79 a2 bd
       0.07059015 0.09213334 0.09302036 -0.07933297
000110 fa f9 38 3e 63 4d 8c 3e e0 64 b4 bd 44 49 04 be
       0.18064108 0.2740279 -0.08808303 -0.12918574
000120 b4 ce d3 3c 28 c3 14 bc 2d 2b 2f bd 45 2e 00 3d
       0.0258554 -0.009079732 -0.042765785 0.031294126
000130 0d e2 35 bc d3 00 d6 3d 9f 9d 2b 3e 91 25 f4 3c
       -0.011101258 0.10449376 0.16759346 0.02980307
000140 9a a4 52 bd 17 41 40 3d 21 c9 09 be bf 21 3d 3e
       -0.051426508 0.046937075 -0.13455631 0.18469904
000150 df 37 df bc 41 84 56 be bd 93 67 3b 82 0f 4a bd
       -0.027248321 -0.20948888 0.0035335862 -0.049331196
000160 71 79 d2 bd c5 cc f6 bd 4c 0b 42 be 53 bd 29 3e
       -0.10277069 -0.120507754 -0.18949622 0.16576128
000170 de 76 26 3e 58 5f 4b 3d 4b 10 d5 bb 15 26 50 bd
       0.16256282 0.049651474 -0.0065021864 -0.050817568
000180 5a fa 04 3d 7a 8c 7d bb 22 8f 87 3d 9f 62 65 3d
       0.032465316 -0.0038688467 0.06619097 0.056002256
000190 69 22 89 3d 53 a8 50 3d 75 f6 f7 3b 4a 25 23 3d
       0.06696016 0.050941776 0.0075672218 0.039830483
0001a0 cc 4b 1a be a0 69 65 bd 91 fe 04 be 86 5e d2 bd
       -0.15067977 -0.056008935 -0.12987734 -0.10271935
0001b0 41 58 86 3d 74 92 ce bc fe 77 62 3d 22 a6 b3 3e
       0.06559802 -0.025216319 0.055290215 0.35087687
0001c0 f1 4b 2a bd df b3 85 3e e6 62 b0 bd a2 fe 99 3e
       -0.04157633 0.26113793 -0.086126134 0.30077082
0001d0 1f a4 6b 3d cf 1b 88 3d f9 fc 16 3d 1c 27 0f be
       0.057529565 0.06645929 0.036862347 -0.13979763
0001e0 9a ba 01 be ed d6 52 bd 4c a1 04 3d 13 20 34 3e
       -0.12668839 -0.0514745 0.032380387 0.1759036
0001f0 51 e1 06 be 04 86 47 bd b4 fb c1 3d cb 71 34 be
       -0.13171889 -0.04871179 0.09471837 -0.17621534
000200 84 15 9a 3d 1e d8 e8 3c 3f 95 10 bd 25 d1 d5 3d
       0.07523635 0.028423365 -0.035298582 0.10440282
000210 c7 de bc bd e6 28 70 3e af 66 dc 3d 46 df b7 3d
       -0.09222179 0.23453102 0.10761773 0.08978133
000220 0a 60 37 3d b1 2c b4 3d e2 41 8a 3d fd 7f 60 3d
       0.044769324 0.08797587 0.067508474 0.05480956
000230 7c 5e db bd 5f cc 86 3d ee bc 00 3e e8 80 28 3e
       -0.10711381 0.065819494 0.12572071 0.16455424
000240 01 bf a1 3d b5 a6 af 3d 0a 44 88 ba 2e 22 e0 3d
       0.07897759 0.08576719 -0.0010396254 0.10944019
000250 be bb 92 bd cb fe f4 3b b6 4a 24 3d 5c 67 da 3c
       -0.07164715 0.0074766628 0.040110312 0.026660614
000260 b2 05 ff 3d f1 47 d3 bd 2a b9 41 3d f6 51 e7 bc
       0.12452258 -0.10316456 0.047295727 -0.028237324
000270 b3 1c 3f 3d c9 6a 1d bd 79 e6 2c 3d 25 00 8d bd
       0.04665823 -0.038431916 0.042211983 -0.06884793
000280 9d 73 23 bd a6 68 0b 3e 9c 5f 7b bd d7 da cb bd
       -0.03990518 0.13614139 -0.061370477 -0.0995385
000290 58 62 92 bd 7c 71 a8 3d 86 cf 03 be 39 a8 0e 3d
       -0.07147664 0.082247704 -0.12872133 0.0348284
0002a0 82 db d4 bc 75 c1 6e 3d 6b e6 ac 3d 61 c3 a4 bc
       -0.025983576 0.058289964 0.08442386 -0.020112695
0002b0 40 38 55 3d f6 3f 14 3d 6e eb 2f 3c 76 9f e3 bd
       0.052055597 0.03619381 0.010737283 -0.11114399
0002c0 de 54 82 bd ee c7 81 3e fb 1f 9d bd 7c 1f 2d be
       -0.063638434 0.25347847 -0.076721154 -0.16906542
0002d0 9b b4 be 3d 7a 07 09 bd a0 53 06 3e e4 4a c1 bd
       0.093117915 -0.033454396 0.13117838 -0.094381124
0002e0 80 5f f5 bd 2c f7 d9 bc b4 ad 61 bd 35 d6 cf bd
       -0.11981106 -0.026607119 -0.055097297 -0.101482786
0002f0 72 3e 42 bd 37 6b b7 3d d2 99 b5 bd e4 01 88 bd
       -0.047422834 0.089559965 -0.088672295 -0.066409856
000300 f0 f5 21 3d 09 3b 74 3d ef 1a df bc 8c 14 c7 bd
       0.039541185 0.059626613 -0.027234523 -0.09720716
000310 05 09 e2 3d 7f 83 4f 3e cb 4e e2 3d 4b b5 07 bd
       0.110368766 0.20265006 0.11050185 -0.03313188
000320 34 98 21 bd 6d 96 2f bb 2d ed 34 3d ba ad a6 bd
       -0.039451793 -0.0026792542 0.0441715 -0.081386045
000330 8e 17 10 bd 37 a0 a0 3d a8 f9 25 3e 55 41 8f 3d
       -0.035178714 0.078430586 0.16208518 0.06994883
000340 45 45 21 3d f7 d4 47 bd 51 ba 08 bc fc 85 c9 3d
       0.0393727 -0.048787083 -0.008345203 0.098400086
000350 fc ac cb bd 02 fb 25 be 98 d0 97 bc 30 f7 7a bd
       -0.099451035 -0.16209033 -0.018532082 -0.061270893
000360 d8 de 8e bd 4b 60 ad 3d 92 5c 73 bd 4e d9 73 bd
       -0.06976098 0.08465632 -0.059414454 -0.05953341
000370 a0 ff 5d 3d 14 a4 ef bd 1b f4 d5 bd a4 9d 1a 3c
       0.05419886 -0.11701217 -0.1044695 0.0094369985
000380 dd d0 da bd f8 31 f6 bd 29 88 67 bd f8 d0 74 bd
       -0.10684369 -0.120212495 -0.056526337 -0.0597696
000390 df 68 7d bd 57 8b 0d 3d f4 d1 bf bc 8c 65 96 3d
       -0.06186759 0.034556713 -0.023415543 0.07343587
0003a0 b1 e3 09 be df 40 39 3d 89 24 81 3d 1d cc 44 be
       -0.13465764 0.04522788 0.06305797 -0.19218488
0003b0 be 6e d6 bc 41 fd ee bd cb 4f 8e 3d 1d 44 c0 3e
       -0.026175853 -0.11669398 0.06948813 0.37551966
0003c0 f2 f6 90 bd ce f6 85 3d 3b 18 b5 bd a4 f3 a8 3d
       -0.07078351 0.06541215 -0.08842512 0.08249596
0003d0 7d 58 0d be 42 da b5 bd 14 41 cd bd ca 6e ae bd
       -0.13803287 -0.0887952 -0.10022178 -0.08517225
0003e0 96 71 ea 3d 55 a3 a3 3d d2 a3 be bd df 91 bd bc
       0.11447446 0.079901375 -0.0930859 -0.023140846
0003f0 4f 68 b4 bd c3 c6 ed 3c 26 ba e3 3d 6e af bd 3c
       -0.08808958 0.029025441 0.11119489 0.02315494

decoder.bias_ih_l0 f4 [256]
000000 0f 21 b5 3d 5d c6 85 3b 6f d2 f5 3d 63 a4 ce 3d
       0.08844196 0.0040824846 0.12003028 0.10089948
000010 5a 00 ae 3c 98 2d e7 bc 5a a3 51 bd 46 14 14 3e
       0.021240402 -0.028219983 -0.051181175 0.14460859
000020 de 05 99 bd 62 2c 85 3d d9 1c 0e 3e 2d 22 a0 bd
       -0.07471822 0.06502606 0.13878192 -0.078190185
000030 5a e9 b0 bd ca 82 c9 3d 47 1f 0d 3d 55 02 94 bd
       -0.08638258 0.09839399 0.034453657 -0.07227007
000040 aa 0f cd 3c f1 c8 70 bd 2b 31 fb bd 9e f0 35 bc
       0.025031883 -0.058785383 -0.122652374 -0.011104731
000050 52 fb 89 3d 0a d4 3e bc 13 b9 db bd 8a 80 af bd
       0.06737389 -0.011647234 -0.107286595 -0.08569439
000060 fc 90 de bb 4e 1a 90 3d 2e 2f 9d 3d b0 d5 03 3d
       -0.006792186 0.07036267 0.076750144 0.03218621
000070 9f 40 5f bc 87 f1 f2 3a bf e3 de bc 34 7e 03 bd
       -0.013626247 0.0018535116 -0.027208207 -0.03210278
000080 6b ec ce bd af 80 8e bc 69 60 bc bc 5d a4 bb 3c
       -0.10103687 -0.017395345 -0.02299519 0.022905523
000090 e6 a4 ff 3b 4a 38 aa 3d 6a d5 24 3d 73 e7 76 bd
       0.00780164 0.083115175 0.04024259 -0.06027932
0000a0 62 25 e4 3c 7e 75 f8 bd 43 a5 11 3e 24 d3 1e bd
       0.027849857 -0.12131785 0.14223199 -0.03877558
0000b0 a0 31 8e bd 2e ec 4d bc c3 3b b5 bd 57 f1 04 bd
       -0.06943059 -0.012568517 -0.08849289 -0.032456722
0000c0 77 74 b5 bc 14 c3 cf 3d 12 ab 54 3d 56 52 4b bd
       -0.022150261 0.1014463 0.051920958 -0.04963907
0000d0 6b 9a 10 3b 4d 68 39 3d e5 03 17 bc d4 7c 56 bd
       0.0022064697 0.045265485 -0.009217237 -0.05236514
0000e0 0c 67 ee 3d 6a 64 46 bd 81 ae 5d bd 11 a3 e8 bd
       0.116407484 -0.048435606 -0.054121498 -0.113592274
0000f0 b4 1e b0 3d ae 5d aa bd b6 fb da bd b0 9e e8 3c
       0.08599606 -0.08318649 -0.10692541 0.02839598
000100 4e a4 ef bd d4 d2 fb bd 41 ea 6e bd a7 7b b3 3d
       -0.117012605 -0.12296072 -0.05832887 0.08763819
000110 0c 58 28 3d b3 2f 93 3d 23 f7 2b 3d c5 e9 2c be
       0.041099593 0.07186832 0.041983735 -0.16886051
000120 2a 62 b7 bd f3 cb 88 bd c6 64 97 bd ef 75 d0 bd
       -0.0895427 -0.06679525 -0.07392268 -0.10178744
000130 85 64 b2 bd b4 d3 03 bc 63 6b e3 bc 01 e1 d1 3d
       -0.08710579 -0.008046079 -0.027761167 0.10247994
000140 d6 03 f8 bd 5f ce c0 3d aa 22 9d 3d 09 19 41 3d
       -0.12110107 0.09414362 0.07672627 0.047143016
000150 c9 89 0c bd a7 1c bc bd 7e 22 1c be 08 4f b9 bc
       -0.03431109 -0.091851525 -0.15247533 -0.022620693
000160 8c 85 a6 bd e7 6d 9f ba 18 cf 08 be d9 f9 c4 3d
       -0.08130941 -0.0012163491 -0.1336025 0.09617967
000170 8d b4 86 3d dd 1b df bd 8d f1 b7 3d 75 87 cd 3c
       0.06577406 -0.108939864 0.08981619 0.025089005
000180 0b da 95 bd db f3 54 bd 10 a1 a0 3d 54 dc 80 bd
       -0.07316979 -0.05199037 0.0784322 -0.06292024
000190 7b 9b 76 3d 77 dd 4f bc 9e 86 a1 3d f8 93 14 bc
       0.06020687 -0.012687079 0.07887004 -0.009068482
0001a0 95 97 1b be 71 29 40 be dd 05 10 be c5 75 94 3a
       -0.15194543 -0.18765809 -0.14064737 0.0011326602
0001b0 3c 2b 5b bd 2f 71 15 bd c9 cf 44 bd 89 33 d7 3e
       -0.05350803 -0.036484893 -0.048049722 0.42031506
0001c0 f6 1e ff bc 2f c8 63 bc 0e f4 a7 bd 77 b7 84 bd
       -0.031142693 -0.013902708 -0.082008466 -0.06480306
0001d0 8b 75 11 be e5 4b 2f be 67 8d e8 3b b2 d4 33 3d
       -0.14204995 -0.17118795 0.0070969346 0.043904014
0001e0 a2 cc b7 3d 7f d6 35 bc 2e 74 df bd ef e3 6c bd
       0.089745775 -0.011098503 -0.109108314 -0.057834562
0001f0 25 95 16 be 74 16 84 bd 6c d3 52 3c e0 63 13 be
       -0.14705332 -0.06449595 0.01286779 -0.14393568
000200 63 83 65 bb 42 35 05 3e b9 4c d6 3a d3 2d fe bd
       -0.003502094 0.13008597 0.001634977 -0.12411084
000210 18 fc 5b bd d1 c4 5c 3d e8 5e 8a 3d ca 3c d1 bd
       -0.053707212 0.053898636 0.06756383 -0.10216673
000220 2d e0 16 3d dc 78 ae 3a ad 6c fb bd 72 75 d8 bd
       0.036834884 0.0013311165 -0.12276588 -0.10569276
000230 b7 11 42 bd cb 4e bb bc 86 2d 69 bd bb bf 0c 3e
       -0.047380175 -0.02286472 -0.05692818 0.13745014
000240 c1 16 09 3d 64 d6 bf bc 3a 69 c3 3d e7 fd 53 bb
       0.033468965 -0.02341766 0.09541555 -0.0032347383
000250 db 73 1c 3b 7e e2 2f 3d 1c e2 b7 3d 0a f7 a8 3d
       0.0023872766 0.04294061 0.08978674 0.08250244
000260 ed 80 31 bd 54 d7 fb 3d 09 1d 4c bc 16 be fa bc
       -0.043335844 0.1229693 -0.012458094 -0.030608218
000270 3c 94 98 bd 6c 80 96 3a c2 d1 0f 3e 03 5e 85 bd
       -0.074501485 0.0011482364 0.1404486 -0.06512072
000280 e1 c3 8e bd 29 62 ca bc 5a 6c 5f 3c 41 67 54 bd
       -0.06970955 -0.02470501 0.013636673 -0.051856283
000290 65 4b c9 3d 9f e3 77 3d 88 bf c9 3d dd fb 26 bd
       0.098288335 0.06051981 0.09850985 -0.04076754
0002a0 00 c2 82 3b c1 0a 24 bd 22 1b 7d bd ee c1 a6 3d
       0.0039904118 -0.04004932 -0.061793454 0.08142458
0002b0 69 46 c0 bb b6 a2 73 3d 0c d9 99 bd 0c 54 b3 3d
       -0.0058677685 0.059481345 -0.075121015 0.08756265
0002c0 80 df 06 3d b4 4f 6d bd da e6 b6 3d 80 4c 82 3c
       0.03292799 -0.05793734 0.0893075 0.015905619
0002d0 4d ae ce bd e5 53 ee bd 9a 3a 66 bd de 7d ac bd
       -0.10091839 -0.11637095 -0.05620823 -0.08422445
0002e0 c7 c5 1d 3c 3c f3 da 3d 7c 01 a2 bd 86 a2 b8 3d
       0.009629673 0.106909245 -0.07910439 0.09015374
0002f0 c8 51 a8 bd d3 71 d2 bd b7 4f 1a bc ce 05 37 bd
       -0.082187235 -0.102756165 -0.00941842 -0.04468327
000300 ad dd 03 be 24 e8 07 3e ea ed 8f bd 95 63 10 3d
       -0.12877531 0.13272148 -0.070278004 0.03525122
000310 53 18 ac 3d 98 71 94 bd 79 54 d6 bd 7e e3 1d 3d
       0.08403077 -0.07248229 -0.10465331 0.03854703
000320 e5 cc 55 bd 19 0b 8c bd 42 ed 02 3e d9 95 05 3e
       -0.052197356 -0.06838054 0.12785819 0.13045444
000330 92 16 0d 3e c4 e6 c7 3d 7d 68 a7 3d 19 f3 8a bd
       0.13778141 0.09760812 0.081742264 -0.067846484
000340 8e 0c 11 3d 87 a8 c3 3d b4 19 dd bd a4 f8 b0 bd
       0.035412364 0.095536284 -0.10795918 -0.086411744
000350 8e d2 7e bd b7 67 16 bd d1 be e8 bd e6 f1 cd bc
       -0.06221252 -0.036720004 -0.1136452 -0.02513976
000360 56 4b b5 3c 74 d1 09 3e 24 78 f6 bb 30 04 01 bd
       0.02213065 0.13458806 -0.007521646 -0.031498134
000370 2f 78 0f 3e a3 d7 47 bc d0 68 68 3d bd 86 ac 3d
       0.1401069 -0.012197408 0.056740582 0.08424137
000380 0b 05 b3 bd f0 4a d6 3d c0 e2 bc bd cd 50 e1 bd
       -0.08741196 0.10463512 -0.09222937 -0.1100174
000390 9c 1b 50 3c b8 af 67 3d 77 3f 0b 3e 0f 5f b7 3d
       0.012701895 0.056564063 0.13598429 0.08953678
0003a0 03 e2 eb bd 62 c2 ea bd 13 ea 8e bd 4b fb e2 bd
       -0.11517718 -0.11462857 -0.0697824 -0.110830866
0003b0 9f 0c 05 3e db 1e 04 3e af 2e 02 bd f2 1b 98 3e
       0.12993096 0.12902395 -0.031782802 0.2970882
0003c0 c0 dd a2 bd 68 17 58 3d f9 07 0c 3c 2c b8 78 bd
       -0.07952452 0.052756697 0.008546823 -0.060722515
0003d0 82 46 bc ba 72 6f a8 bd 5e 5e 0c bd 43 aa cb bd
       -0.0014364275 -0.082243815 -0.034269683 -0.09944584
0003e0 56 66 8e bd 7b 5f 96 3d 4b a8 67 bc e2 1d ec bd
       -0.06953113 0.0734243 -0.014139245 -0.11529137
0003f0 0b 9d 09 3e a0 f9 7b bd 8d 70 c1 bc f8 2f 06 bd
       0.13438813 -0.061517358 -0.023613239 -0.03276059
