output/synthetic_data/models/model_hidden64_lr0.01_clip1.0.pth (torch, 141402 bytes, 9 tensors)

encoder.weight_ih_l0 f4 [256, 1]
000000 45 eb 75 3d 30 a8 e5 bb 25 0c a2 be 38 6f 03 be
       0.060038824 -0.007008575 -0.3164989 -0.12835395
000010 32 23 44 3e f3 97 03 be 50 86 76 bd d6 93 7a 3d
       0.19154051 -0.12850933 -0.060186684 0.061176144
000020 2f 37 c6 bd b5 e7 97 be c4 1c ce bd 1c 0c 57 be
       -0.09678494 -0.29668966 -0.1006408 -0.21000713
000030 59 cd 1e 3d c0 ff 3e 3c 63 3e 72 ba 0f bf 0b 3d
       0.038770054 0.011657655 -0.0009240864 0.034117755
000040 f8 1c 01 3e 53 c6 a2 3d c3 ce 91 3d ad eb 6e be
       0.12608707 0.079479836 0.07119515 -0.2333209
000050 52 01 1e 3e 76 d0 05 3e 36 cc b2 bc a2 15 5d 3b
       0.15430191 0.13067803 -0.021825891 0.0033734818
000060 07 44 60 3c f8 05 80 3e 85 88 22 be 7d d7 13 be
       0.013688094 0.25004554 -0.1587239 -0.14437671
000070 db dd 86 3e 6b 57 31 bd b4 97 f2 bd f7 b6 16 be
       0.26341137 -0.04329626 -0.11845341 -0.14718233
000080 d9 dc 89 be 61 03 8f be 34 07 e0 39 4f aa 00 3e
       -0.26926306 -0.27932265 0.00042729976 0.12564968
000090 66 ec 71 3d 0b e1 13 be b4 f7 ae be 9b c9 97 bd
       0.059063338 -0.14441316 -0.34173357 -0.074115
0000a0 da 2f 50 bd b5 32 1f 3d f5 8c f8 3c 19 c3 c2 bd
       -0.050826885 0.038866717 0.030340651 -0.09509868
0000b0 aa 61 b8 be 2c 98 7f bc 3e ca 1e be c9 d2 91 3d
       -0.36012012 -0.015600245 -0.15506837 0.07120282
0000c0 7e b7 44 3d f8 c4 d4 3d cc 94 9d bd 7e f9 11 be
       0.048026554 0.10389131 -0.076943964 -0.1425533
0000d0 c4 92 bb bd 2d 14 73 3e da 36 f6 bd cd fe ed bd
       -0.09158853 0.23738165 -0.12022181 -0.11620865
0000e0 0d f6 4c be 24 f1 dd bd 6d 65 7a bd fb f4 8b bd
       -0.20015736 -0.108370095 -0.061131883 -0.06833836
0000f0 af df 35 3c 42 0c 8d bd f5 d8 6e be f1 c3 b2 bc
       0.011100694 -0.068871036 -0.2332495 -0.021821948
000100 28 4f 36 3c e0 a9 f2 bd 84 e7 8c bd 73 87 cb bd
       0.011127271 -0.11848807 -0.068800956 -0.09937944
000110 55 2c 32 3e cf d1 dd bd f7 f3 4a be dc 67 07 3e
       0.17399724 -0.108310334 -0.19819628 0.13223213
000120 b6 23 9c bd e6 84 75 be b3 cc cd bd a9 f7 cb bc
       -0.07623999 -0.23976478 -0.10048809 -0.024898367
000130 0d 36 16 3a da ac 16 be 1f fc 18 3c 0f 50 b6 3d
       0.00057301 -0.14714375 0.009337454 0.08901989
000140 a6 4c f8 3d 45 8d 86 bd 1d 06 1f 3e e2 f9 47 bd
       0.121239945 -0.06569914 0.15529676 -0.04882229
000150 75 20 39 3e fb 8f d1 bc 29 98 bb bd 76 3d 96 bc
       0.18078788 -0.02558135 -0.091598816 -0.018339854
000160 35 80 d5 bc a0 14 d0 3e 30 52 23 3e 16 16 f2 bc
       -0.02606211 0.40640736 0.15949321 -0.029551547
000170 cb 5e e9 3e 56 78 df bd ed c6 c6 3d ec 0b 13 3d
       0.45580134 -0.10911624 0.09705911 0.03590004
000180 25 70 1a be da 51 4e bd 7f 89 52 3d ef 9c 71 3e
       -0.15081842 -0.05037103 0.051400658 0.23595022
000190 63 a7 dc 3d 56 16 36 be 80 e5 ce bd 05 fa c9 bc
       0.10774114 -0.17781958 -0.101023674 -0.024655351
0001a0 b1 f1 cf 3d b3 0a 4e bd 1a f2 0a 3e e3 94 d5 3c
       0.10153521 -0.050303172 0.13568917 0.026071971
0001b0 c5 87 a0 be 5f 1d 42 be eb f5 7b bd b8 64 75 3e
       -0.31353584 -0.18956517 -0.061513823 0.23964202
0001c0 ef 38 c4 3e c8 b8 f3 3d c9 40 4c be 49 3b 60 bd
       0.38324687 0.119004786 -0.19946589 -0.05474404
0001d0 d3 f2 11 be 48 6b fb 3d 03 fe a8 bd 34 28 46 3c
       -0.14252786 0.12276322 -0.08251574 0.012094546
0001e0 64 40 09 be 3c 69 14 bc 3b 09 72 3e 2e 2e 94 bd
       -0.1340347 -0.009058293 0.23636334 -0.072353706
0001f0 88 d9 e6 bd a9 c1 4e bd 18 0c 2a bd 45 ec 86 3d
       -0.112719595 -0.050477657 -0.04151544 0.065880336
000200 d0 11 24 3d 52 3d d1 bc 7f bc 04 bd 63 39 37 3e
       0.04005605 -0.025541935 -0.032406326 0.17892985
000210 7a e7 5d be ef 72 da bc 1b e6 02 3d 9f 8a a7 be
       -0.21670333 -0.026666133 0.031957727 -0.32722947
000220 6d c1 3b be c4 39 69 bd b7 61 f0 3d cb 6d 96 bd
       -0.18335505 -0.056939855 0.117373876 -0.0734516
000230 7e e1 84 3c a7 e8 5e bd fb c7 54 3e bd 08 81 be
       0.016220804 -0.054421093 0.20779411 -0.2520198
000240 64 c9 9b 3d 69 78 01 be de 2f 37 3e 98 f8 93 3d
       0.076067716 -0.12643589 0.17889354 0.0722515
000250 d3 5c 3a 3e c8 2a 16 be e3 0f f1 3c d8 55 1b be
       0.18199472 -0.14664757 0.02942652 -0.15169466
000260 70 c2 a3 bd 36 16 67 be 03 eb 10 3e 7a 99 98 3b
       -0.079960704 -0.22567067 0.1415215 0.0046569677
000270 45 12 61 3e fd 52 4d bd 4d 2d 96 3e 8e 17 14 be
       0.21979626 -0.050127972 0.29331437 -0.1446211
000280 d0 6b 80 3c 96 ed b9 bd c5 0c 82 bc 20 4a 2f 3e
       0.015676409 -0.09078519 -0.01587523 0.1711812
000290 29 fb 80 be 97 36 a8 3d c2 c0 b3 3d 57 f2 ef bd
       -0.2519162 0.08213537 0.08777 -0.117161445
0002a0 87 6a 28 3e 4c ec 25 3e e4 2c e5 3d 2e ca cf bd
       0.16446887 0.16203421 0.11190203 -0.101459846
0002b0 a7 8b 8e 3e c2 ce 33 be 85 e4 6e 3e 24 eb be 3b
       0.2784092 -0.1755934 0.23329361 0.005826371
0002c0 08 88 5e 3e 41 1f 15 3e 02 6c 92 3d 00 3d 09 3e
       0.2173158 0.14562704 0.07149507 0.13402176
0002d0 0d 78 a8 3d 99 07 6f be bc a4 bf bd 4c 08 af 3d
       0.08226023 -0.23342742 -0.093575925 0.085465044
0002e0 d1 00 ee 3d 1c 52 42 3e bd 50 39 3d a0 66 ef 3d
       0.116212495 0.18976635 0.045243014 0.11689496
0002f0 35 2e 1d be 07 45 9c 3d 67 54 03 3e 2e b4 6a 3d
       -0.15349658 0.076303534 0.12825166 0.05730074
000300 b2 c6 9b bd 19 23 e4 bd 58 a1 5b be 2d 59 8a 3c
       -0.076062575 -0.11139507 -0.21448267 0.016888225
000310 e9 41 f7 3c 58 c1 7d bd fb 04 20 be 12 80 20 bc
       0.030182796 -0.061951965 -0.156269 -0.009796159
000320 20 98 f9 3d 28 fa 95 be 38 57 25 be d8 14 4e bd
       0.12187219 -0.29292417 -0.16146553 -0.050312847
000330 01 08 57 bd 4e 73 4c be b1 ad bc 3d 4d ca 11 3d
       -0.052497867 -0.1996586 0.092128165 0.03559332
000340 b4 98 80 3c a2 20 db 3d 3a 60 fb 3c 6a c3 96 bd
       0.015697815 0.106995836 0.030685533 -0.07361491
000350 ba e6 34 3d d2 15 c9 bd ea c6 8f 3d ec 75 97 3d
       0.04416535 -0.09818615 0.07020362 0.07395539
000360 1d e2 87 bd 99 46 12 3e 26 50 01 bd ae 11 a9 bc
       -0.066349246 0.14284743 -0.031570576 -0.020638313
000370 2d 96 ee 3c 96 f6 01 be e4 e1 2c 3c a7 e6 36 bd
       0.029124344 -0.12691721 0.010551903 -0.04465356
000380 25 97 7c be a6 d0 e9 bd 13 7b d8 bd 96 f3 8c 3d
       -0.24667032 -0.1141675 -0.105703495 0.06882398
000390 e1 43 84 3e d9 83 f1 bd c0 a6 4a be d0 ce 49 bb
       0.25833037 -0.11792726 -0.19790173 -0.0030793436
0003a0 40 da 67 bd f7 b6 9e bc 57 73 12 3e 8a a2 7f bd
       -0.056604624 -0.019374354 0.14301811 -0.06241087
0003b0 e9 be a9 be 95 70 27 be 9d 52 0d ba 0b 13 9a 3d
       -0.33153465 -0.1635154 -0.00053910335 0.075231634
0003c0 59 04 11 3e 02 b4 56 bd 68 c6 b6 bd ed e9 68 be
       0.14161815 -0.052417763 -0.08924562 -0.22745486
0003d0 f1 7c 3c 3d f5 b0 39 3d 0a 0a 8f 3c 65 41 f2 bc
       0.04601759 0.045334775 0.017460842 -0.029572198
0003e0 e9 c8 c1 be e3 55 d0 3d a9 fc 87 bc 24 7b 10 3d
       -0.37848595 0.101726316 -0.01659997 0.035273686
0003f0 99 a5 73 3d cc 7f d9 bc 31 51 5b be c7 e9 c8 3d
       0.059484098 -0.026550196 -0.21417691 0.098102145

encoder.weight_hh_l0 f4 [256, 64]
000000 83 46 6a bc 4e fd 8b bd 50 7c e7 bd 43 54 02 3e
       -0.014299038 -0.068354234 -0.113030076 0.12727456
000010 f5 14 99 3c 3c d0 19 be 01 33 18 3e 21 d1 89 3d
       0.01868675 -0.15020841 0.14863206 0.06729341
000020 86 19 b0 3c e1 10 8a be 8c 95 b2 3c 22 0e 62 3d
       0.021496546 -0.26966003 0.021799825 0.05518926
000030 8b 2b 2a bd 78 5c 1d 3d f4 bc aa 3e 70 39 c5 3d
       -0.041545432 0.038418263 0.33347285 0.09630096
000040 50 4e be 3d 6a 07 3a 3d f4 9d f3 3d a3 0c ca bd
       0.09292281 0.045417227 0.118953615 -0.098656915
000050 0c fe 46 bd cb 17 c8 bb fd b9 28 bb 2f a1 86 bd
       -0.04858212 -0.006106352 -0.0025745623 -0.06573712
000060 33 be 1d 3e 59 dd da bb 82 b6 06 3e c2 1c a9 bd
       0.15404586 -0.0066792187 0.13155559 -0.08257438
000070 05 89 83 ba 00 a8 c9 3d 39 cf 01 be 91 ac 82 3d
       -0.0010035342 0.098464966 -0.12676705 0.06380571
000080 95 b6 e2 3d ff c8 90 bd 01 89 b5 bd d4 b7 ef bd
       0.11069981 -0.07069587 -0.08864022 -0.11704984
000090 57 5b 28 be 49 07 63 3b 45 98 de bb d9 b5 7b bd
       -0.16441093 0.0034641793 -0.0067930543 -0.06145272
0000a0 c7 36 39 be d6 58 a2 bc fc 14 a1 3d 93 62 99 bc
       -0.18087302 -0.01981775 0.078653306 -0.018723762
0000b0 64 74 6e 3d 08 a1 c0 3d 39 bb f0 3c a5 dc 32 3e
       0.058216467 0.09405714 0.02938615 0.17466982
0000c0 e9 49 47 be be 49 e9 bd 37 e3 44 bd 92 91 21 bc
       -0.19461788 -0.11391018 -0.04806825 -0.009861367
0000d0 e1 b7 2a bd 27 4b 1e bd fc 21 06 be b7 b2 b8 bd
       -0.041679267 -0.03864589 -0.13098902 -0.09018462
0000e0 37 d9 22 3c bd 11 0e 3e 90 6d be 3d 42 6e 95 bd
       0.009939483 0.13873954 0.09298241 -0.07296421
0000f0 41 08 1b 3d 15 cc 5d 3d 26 18 73 bc 92 cb 22 be
       0.03784967 0.054149706 -0.0148373 -0.15897968
000100 30 7b 0a 3b ee ce b6 bc 8e ce 39 be ef 2c 92 3d
       0.0021130554 -0.022315469 -0.181452 0.07137477
000110 b2 0f 38 3e 62 59 ea bd ef f0 30 3d c4 9d 2b 3e
       0.17974737 -0.1144283 0.043198522 0.16759402
000120 fb aa d0 3d f1 ae c5 3c bb 14 09 bd 69 36 9c 3d
       0.10188862 0.02413127 -0.033467036 0.076275654
000130 74 e6 a6 bd 52 9a 14 3d 73 de b0 bd b2 03 4f 3e
       -0.08149424 0.036279984 -0.08636179 0.20216253
000140 a5 30 2b be 3e b4 c8 bc fe 40 1a bd 12 63 2c be
       -0.16717775 -0.024500009 -0.037659638 -0.16834667
000150 a6 4a cb bd 96 65 0b 3d e4 27 54 bc 8c b9 1c 3d
       -0.099263474 0.034032427 -0.012948964 0.03826289
000160 db e0 9a bc 23 be d3 3e 79 4a 26 3e 8d 74 bd bd
       -0.018906048 0.41356 0.16239347 -0.09250746
000170 17 f6 7a be 27 8b 4d bd 41 74 33 3d 5e 2a 08 bc
       -0.24507938 -0.050181534 0.04381204 -0.008310882
000180 a8 70 2c be 26 ee bc 3d 87 aa 40 3e f5 85 b5 3c
       -0.1683985 0.09225111 0.18815051 0.022158602
000190 2f 65 c3 bd 0b 20 8e bd 72 04 35 be 8d cf 0b be
       -0.095407836 -0.069397055 -0.17677477 -0.13653393
0001a0 0e c8 c5 be 06 9f 39 bc f3 25 31 3e f0 10 f2 3d
       -0.38629192 -0.011329418 0.17299633 0.11819637
0001b0 9c b1 6b bc 8d 30 92 3d c3 28 16 be a5 ea b4 bd
       -0.014385607 0.071381666 -0.14663987 -0.088338174
0001c0 ea b2 48 be cc a0 e6 bb f7 b5 c3 3c 53 92 97 be
       -0.195995 -0.0070382114 0.023890479 -0.29603824
0001d0 97 e8 86 bd 64 27 ab 3d 85 7b 00 3e 09 d3 7f 3c
       -0.06587332 0.083571225 0.12547119 0.01561428
0001e0 fd d6 11 3e 02 53 87 bd a6 3f 00 be ec 85 27 be
       0.14242168 -0.06607629 -0.1252428 -0.16359681
0001f0 b3 25 71 3d 38 86 4d 3d 01 d9 9c 3c dd 9d ed bd
       0.058873843 0.05017683 0.019146444 -0.11602376
000200 2f 5b 4e be 12 8f 94 bc cf bb 2b 3e 51 2c ca bd
       -0.20151971 -0.018134627 0.16770862 -0.09871734
000210 48 8f 80 3e 2b 9f 58 be 32 63 b4 3d f8 78 3d 3e
       0.25109315 -0.21154468 0.088079825 0.18503177
000220 18 92 4f 3e 9d bc 09 3f 79 4a 94 be a4 a6 fd 3d
       0.20270574 0.53803426 -0.28963068 0.123853
000230 33 46 a9 3d ee de 7a be 5d f5 9b be c0 fc 99 3e
       0.082653426 -0.24499103 -0.30460635 0.30075645
000240 2e 07 57 be e6 df 8a bc 68 6c 2d be 93 9d 83 bd
       -0.20998833 -0.016952466 -0.16935885 -0.06426539
000250 3b 1a 68 be 78 45 20 3e 9e 3b 4c 3e 40 7b 73 3e
       -0.22666256 0.156515 0.19944617 0.23777485
000260 27 e0 d6 bd fc 0b 55 3e 5d 9e 31 3f 6d 14 c5 be
       -0.104919724 0.20805353 0.6938227 -0.38492146
000270 d9 8e 8b be cf d1 74 3e 92 c3 5c bf c5 cf f4 bc
       -0.27257422 0.2390816 -0.86235917 -0.029884228
000280 fc 9a e5 3c 0a 50 a6 3e 47 03 50 3e d0 01 e5 bd
       0.028028004 0.3248294 0.2031375 -0.11181986
000290 70 7a 83 3e 2d e7 3c be ee 8a 86 be f6 03 65 be
       0.2567935 -0.18447562 -0.2627787 -0.22364792
0002a0 a6 5e 8b be 49 bf 13 3e a1 5b 54 be 11 98 86 3e
       -0.2722065 0.14428438 -0.20738079 0.26287892
0002b0 ff e6 19 bd 22 00 ae 3e eb 35 db be 0d 55 23 b9
       -0.03757381 0.33984476 -0.42814574 -0.00015576575
0002c0 0c e3 4f be bd 4b b2 be 9a 5d 86 be 16 ab 1a bf
       -0.20301455 -0.3482341 -0.26243287 -0.60417306
0002d0 26 dc 44 bd c6 bb b3 3d c2 e6 1c be a5 dc 73 be
       -0.048061512 0.08776049 -0.15322402 -0.23814638
0002e0 6c 91 1d be 47 05 81 bf e9 a0 7a be 7a cf 8a be
       -0.15387505 -1.0079736 -0.24475445 -0.27111417
0002f0 5b e7 99 3d 8a aa fb 3d 93 fc 09 bf f1 12 9b be
       0.07514831 0.12288387 -0.5390102 -0.3028789
000300 fc 2b ec ba 44 5e b4 bd 38 d6 d4 3e 8b cb fb 3d
       -0.001801848 -0.08807042 0.41569686 0.12294682
000310 d1 a7 33 3d d9 03 25 be 99 6c a7 3c 31 56 17 3e
       0.043861214 -0.16114749 0.020437526 0.14778973
000320 21 1d da bc 9d d7 08 3e 95 e6 0f be b0 e9 44 3d
       -0.026625218 0.133635 -0.14052804 0.048074424
000330 7a 13 27 bd 19 06 c7 bc 6b e1 04 3e 3b 53 5d 3e
       -0.04079006 -0.0242949 0.12976615 0.21613781
000340 6a dd 10 be 23 14 eb bd 4f a7 5c 3e 60 84 40 3d
       -0.14146963 -0.1147845 0.21548198 0.047001243
000350 29 3d 25 be 07 36 1d 3e 90 37 00 bc cf a7 3a 3e
       -0.16136612 0.15352641 -0.007825747 0.18228076
000360 60 2e fe 3d 36 d8 35 3c 0b 9b 09 3d 5e 7b d1 bd
       0.12411189 0.011098912 0.033595126 -0.102286085
000370 b8 ab dc bd 1e 4b 81 ba 4c 46 76 be 9c ce f5 bc
       -0.1077494 -0.0009864306 -0.24050254 -0.030005746
000380 fb ac 3c 3d 3f 3e d6 3c 04 b0 12 be d0 98 c1 bc
       0.046063405 0.026152728 -0.14324957 -0.023632437
000390 0a 69 4a 3d 66 ce 39 3e 84 bb 6f bd 7e 5f ca 3d
       0.04941658 0.18145141 -0.05852844 0.09881495
0003a0 b9 d1 47 3c 8a 29 cf bc 51 51 86 bc 2f 06 72 bc
       0.012195998 -0.025288362 -0.016396197 -0.014771982
0003b0 fa 6b 10 bd b7 d8 34 3c e1 df 6a 3c a1 42 30 3d
       -0.035259224 0.011037997 0.014335603 0.043032292
0003c0 b9 32 2c bd fd 3a 26 bd 82 1c 13 be 4e b7 ad bd
       -0.04204056 -0.0405836 -0.14366344 -0.08482228
0003d0 44 23 6d 3d b6 c0 39 bc 90 46 63 be 68 ea c9 bc
       0.05789496 -0.01133745 -0.22194886 -0.024647906
0003e0 2c 5d 17 be 5a 12 98 bc e5 0a 9f bc 60 ea 74 be
       -0.14781636 -0.018563438 -0.019414375 -0.23917532
0003f0 4b 9e 07 3e 43 d2 7c 3d 95 26 b7 3d 93 ae 01 be
       0.13243978 0.06172396 0.08942906 -0.12664251

encoder.bias_ih_l0 f4 [256]
000000 a0 f3 05 be 72 7f 5f be c0 dc 56 be 22 58 1b 3c
       -0.13081217 -0.2182596 -0.20982647 0.009481462
000010 99 61 ae 3b 6f 3c 35 3d 86 4d f3 bd e4 d5 3d bd
       0.005321693 0.044247087 -0.11880021 -0.04634656
000020 19 56 05 be dd 56 a8 bd 7c fb f5 bd 24 a2 49 3d
       -0.13021125 -0.08219693 -0.120108575 0.049226895
000030 a5 f1 01 3d 54 db 3e be a8 a9 b4 bc 79 30 cc 3c
       0.03172459 -0.18638355 -0.022053555 0.024925457
000040 9b e7 b4 3d 8c d1 16 3c 45 bd 5f 3d 41 82 0a be
       0.08833238 0.009205233 0.05462386 -0.1352625
000050 2b 22 0d bd 34 79 6f bd 99 23 74 3c 9d e1 c2 bd
       -0.034456413 -0.058465198 0.014901065 -0.095156886
000060 ef 0f 3f 3d 16 b8 17 be 9a f3 6f be 30 63 f6 bd
       0.046646055 -0.14816317 -0.2343277 -0.12030637
000070 16 a9 d7 3d 6c 3b ce bd 95 86 17 be ed f1 1d be
       0.105302975 -0.100699276 -0.14797433 -0.15424319
000080 91 51 ba bd 8a 42 19 bd 91 8a 91 bd e7 00 f1 3c
       -0.09097589 -0.037416972 -0.071065076 0.029419376
000090 de b0 09 bd d2 ae 85 bd ff d2 63 be 43 30 07 bd
       -0.03361594 -0.06527485 -0.22248457 -0.03300501
0000a0 24 16 15 be 8d 88 94 3b e7 9a 80 3c fa 14 b7 bd
       -0.14559227 0.0045328797 0.015698863 -0.08939548
0000b0 04 5a 05 3d 68 91 86 bc 19 1e 73 be ce 52 90 bd
       0.03255655 -0.016426757 -0.2374195 -0.07047044
0000c0 88 f6 84 bd a9 36 08 bd 74 6c 32 be 18 0e f5 bd
       -0.064923346 -0.033255253 -0.17424184 -0.11965579
0000d0 e5 ee 12 be ed 1d 25 be c5 17 f2 3a ea 48 3b bd
       -0.14348944 -0.16124697 0.0018470219 -0.045723833
0000e0 81 36 8e be 0f d2 15 3d f5 16 ce bc 04 5e 15 be
       -0.27775958 0.03657728 -0.025157431 -0.14586645
0000f0 b1 2e bf bd 41 dd 49 bd 26 52 63 be 20 e0 47 bc
       -0.093350776 -0.04928327 -0.22199306 -0.012199432
000100 b6 ae fa bd f8 79 02 be 38 40 b6 3d d4 98 36 bd
       -0.12240355 -0.1274184 0.088989675 -0.044579342
000110 6b d4 ff 3d 7b 45 c1 bc d4 d5 01 be 38 74 32 bd
       0.124916874 -0.023592701 -0.12679225 -0.043567866
000120 be ff 96 bd b0 4c 27 3d 0e f3 9d 3d dd a0 1c 3d
       -0.07372998 0.04084462 0.07712375 0.03823935
000130 72 29 c8 bd 3b 87 19 bd 5e 8f aa 3d a0 c7 39 bd
       -0.0977353 -0.03748248 0.08328126 -0.045356393
000140 e3 aa 46 ba c9 55 da bd de 33 d6 3d 21 91 10 bd
       -0.00075785647 -0.106608935 0.10459112 -0.035294656
000150 d0 1b f6 bd 30 d3 d1 bd 2c b6 38 3d 2f 6d 19 3d
       -0.120170236 -0.10245359 0.045095608 0.03745764
000160 92 5e 43 3d 5e df d6 3c 27 df 9a 3e e9 9f d2 bd
       0.04769761 0.026229557 0.30248377 -0.10284407
000170 9e e4 b1 3d a6 bc e1 3d c7 69 21 3e cb e3 b3 bd
       0.086861834 0.1102231 0.15763007 -0.087836824
000180 25 c8 3b be a2 1d 0b bd e1 94 3f bd f0 90 06 3d
       -0.18338068 -0.033963807 -0.04677284 0.032853067
000190 28 97 29 3e 17 c4 52 3d 65 b9 eb bd fe 9a ba bd
       0.16561568 0.051456537 -0.115099706 -0.09111594
0001a0 8b 12 94 3c 7e ac 60 bd 82 35 09 be 90 c8 85 bd
       0.018075248 -0.054852 -0.13399318 -0.06532395
0001b0 ce b8 53 bd 97 96 0f be 75 79 a4 bd 09 0d 57 3e
       -0.051689915 -0.14022289 -0.080309786 0.21001066
0001c0 e3 47 1f 3e b2 36 1d 3d 51 97 44 bd 1c d8 04 be
       0.15554766 0.03838224 -0.04799587 -0.12973064
0001d0 b0 64 43 bd aa 44 5f 3d 28 02 14 3e d5 96 0a be
       -0.047703445 0.054508843 0.14453948 -0.135341
0001e0 4c 4c a4 bd 56 a5 37 3e 87 f3 4a bd 2e fe 60 be
       -0.08022365 0.17934164 -0.049548652 -0.21971962
0001f0 06 be 27 3d b3 5e 86 bd 89 98 7b ba d9 6f cb bd
       0.040952705 -0.06561031 -0.00095976196 -0.099334426
000200 e8 ad 8f 3d d1 21 e0 3d d5 a5 4e 3d 39 37 af bd
       0.07015592 0.1094395 0.05045112 -0.08555455
000210 68 9b 9f bd ac 9d 97 bc 22 30 e3 bd a0 df 4c bd
       -0.07793313 -0.018507801 -0.11093165 -0.050017953
000220 50 74 51 3b 04 94 c3 bd b4 db f2 3d 10 9d 9b 3d
       0.0031960197 -0.09549716 0.11858311 0.07598317
000230 65 f7 f4 bc 49 79 b9 3d 89 4e f9 bc 58 cb 60 bd
       -0.029903123 0.090563364 -0.030432956 -0.054881424
000240 4c d3 da 3d c7 af cf 3d 4b 1f 87 3d 45 43 0c 3e
       0.10684833 0.10140949 0.065977655 0.13697536
000250 34 00 94 3d 3a a2 93 bd 4d 35 81 bd 13 a8 0f bc
       0.07226601 -0.07208677 -0.063089944 -0.008768099
000260 1f db 27 bc cb 0f 98 bd 92 12 0d be 7b 74 82 bb
       -0.010245114 -0.07424887 -0.13776615 -0.0039811707
000270 a5 bb a9 3d 73 cd 2b bd 80 23 27 3d ca 67 fb 3d
       0.082877435 -0.04194398 0.04080534 0.122756556
000280 76 56 89 3d 52 b4 48 bd d6 19 ec 3c 5a a7 d1 3c
       0.06705944 -0.04900009 0.028820913 0.025592495
000290 b0 48 bd 3d f1 18 39 3d c1 b4 b1 3d e4 ac 32 3d
       0.0924238 0.0451898 0.08677054 0.043621913
0002a0 66 1e ac 3d 84 7d 2c bd c8 79 2e be 43 28 fc bb
       0.084042355 -0.04211189 -0.17038643 -0.0076952293
0002b0 06 56 19 be 59 f0 26 be bd 30 ed 3c 2f ce cb 3d
       -0.14974222 -0.16302623 0.028953904 0.09951436
0002c0 3b 88 a3 3d 80 db 0d bc 59 8d 56 3d 41 b5 db 3d
       0.07984968 -0.00865829 0.052380893 0.10727931
0002d0 bc b9 4d bc 26 e7 4b bc e3 61 3d be 0f cc 98 3d
       -0.01255649 -0.012445247 -0.18494372 0.07460796
0002e0 5e ae 47 3d 2f fa 4a bc 91 03 c0 bd d8 5f ba bd
       0.048750274 -0.01238875 -0.0937568 -0.09100312
0002f0 52 21 75 bd 0d 64 20 be 36 cd 0a 3d 46 2d e4 3c
       -0.05984623 -0.15663166 0.03388711 0.02785362
000300 04 2e 94 bd a5 de 11 be d2 57 9e bd 36 e2 29 be
       -0.07235339 -0.14245088 -0.07731594 -0.16590199
000310 c9 b0 7c bd 72 60 28 bd fa fd d3 bd 4b 9c f3 bd
       -0.061692033 -0.041107602 -0.103511766 -0.11895045
000320 65 ee 14 bd 26 a6 ca 3d 52 2f 1a be a4 e9 de bd
       -0.036360163 0.098949715 -0.15057114 -0.10884407
000330 bd 6c 83 3c f5 82 a0 bd 55 ed cd 3d 9c 02 c6 bc
       0.016043061 -0.07837478 0.10055033 -0.024171166
000340 bc 21 87 bd 52 54 6d bc 6f f0 9b 3d 31 8d f8 3c
       -0.06598231 -0.014485436 0.076142184 0.030340763
000350 bb af 36 3c 33 57 85 bd 23 dd d6 bd f3 16 32 be
       0.011150296 -0.065107726 -0.10491397 -0.17391567
000360 52 65 27 bd 6e 40 7f 3c a5 ed d4 bc 62 bf e1 bd
       -0.04086811 0.015579326 -0.025992224 -0.110228315
000370 21 85 d8 3d 47 42 90 3b d5 5b 9c 3c b4 60 13 bc
       0.10572267 0.004402432 0.019086758 -0.008995224
000380 92 e7 da bd 47 a1 bd bc 27 46 08 be 33 93 e9 3d
       -0.106887 -0.023148192 -0.13308011 0.11405029
000390 a2 d1 9f 3d c4 b5 4f bd 85 ad 49 bd 10 35 16 bc
       0.07803656 -0.050710455 -0.049237747 -0.0091679245
0003a0 76 b4 7d bc d1 30 08 3d 66 89 da bd a4 fd 05 be
       -0.01548492 0.03324968 -0.10670738 -0.13085037
0003b0 eb b7 25 bd f2 1f e0 bd 95 0d 6c be c6 07 d5 3a
       -0.0404586 -0.10943593 -0.23052056 0.0016252927
0003c0 6b 5c fa bc 22 df 36 be 59 fd e3 bd 54 e4 2a be
       -0.030561646 -0.17858556 -0.111323066 -0.16688663
0003d0 28 88 4d bd 63 7f 80 3b cd 00 01 be 8c f1 7a 3d
       -0.050178677 0.0039214357 -0.12597962 0.061265513
0003e0 ec 11 17 be b1 8e a1 3d ac 88 0d be 46 5e 3f be
       -0.1475293 0.07888544 -0.13821667 -0.18688306
0003f0 df fa f5 bd c6 65 2f 3d c5 15 ea bd 68 c4 4a 3b
       -0.120107405 0.042821668 -0.114299335 0.003093982

encoder.bias_hh_l0 f4 [256]
000000 74 29 27 3d 49 63 28 3c 50 4a 7a bd d5 d2 69 bd
       0.040811017 0.010277578 -0.061106026 -0.05708583
000010 c0 d5 03 be ac 40 32 3d 53 c1 71 be ed b4 ce bc
       -0.12874508 0.043518707 -0.23608904 -0.025232757
000020 67 39 d6 bd e1 69 13 3d 43 14 0a be c6 ab 65 bd
       -0.104601674 0.035989646 -0.13484292 -0.05607202
000030 29 d2 1f be 48 91 3e be 14 f0 20 3d 3f b2 bb bc
       -0.15607513 -0.18610108 0.039291456 -0.022912143
000040 7f 93 97 3c 61 d0 54 bc 45 cc b2 3c 29 1c 02 be
       0.018502949 -0.0129891345 0.021825919 -0.12706055
000050 d8 d9 bc bd 5e 8f 71 3d fc 9b 46 3d 72 7a 1f bd
       -0.09221238 0.058974616 0.048488602 -0.038935132
000060 26 71 03 3e 29 48 a7 bd f2 b6 0f be 16 c3 2a 3d
       0.12836131 -0.0816806 -0.14034632 0.041689955
000070 6b a5 99 bc 5d 34 b0 bd 33 1e 0d be d7 76 c0 bd
       -0.018755635 -0.086037375 -0.13781051 -0.09397667
000080 77 37 65 bd 69 c8 0a be cb 75 4d be 6a 69 85 3c
       -0.0559611 -0.13553013 -0.20064466 0.016285617
000090 d3 77 71 3b cd b2 1c be a3 ed 10 be 45 bb 1a 3d
       0.0036845102 -0.15302582 -0.14153151 0.03777625
0000a0 2c 31 38 bd c3 af b8 bd 04 08 9d bd 1e fe 83 bd
       -0.04496877 -0.09017899 -0.076675445 -0.064449534
0000b0 32 1e a9 bd e4 40 51 be 52 f2 50 be e5 df 96 bc
       -0.082577124 -0.2043491 -0.20404938 -0.018417308
0000c0 e8 d6 a5 bd b0 c8 52 bd 60 a9 4f be 4e dd 9f bd
       -0.08097631 -0.05146092 -0.20279455 -0.078058824
0000d0 75 58 6c ba 92 0f 24 3b bf 5f 6d bc f1 bd 3f 3d
       -0.00090158667 0.0025033695 -0.01448816 0.046812
0000e0 1c 13 5a be d7 db 2e bd c1 02 87 bd 22 15 5a be
       -0.21296352 -0.042690124 -0.06592322 -0.21297124
0000f0 9c 5a 14 bc e2 fb d0 bd 79 48 ab bd 80 99 3b be
       -0.009054806 -0.10204293 -0.083634324 -0.18320274
000100 a6 49 c9 bd 7f 13 8a bd ff e0 14 bd c1 6d 28 3b
       -0.098285004 -0.06742 -0.036347385 0.0025700184
000110 1c 03 2c bd fd b6 b7 bc 69 4d ae 3b b5 95 21 3e
       -0.041995153 -0.022426123 0.0053192866 0.15779765
000120 f4 2f 9e bd 6c 56 4e 3e 13 26 d7 bd b9 4e b3 bd
       -0.0772399 0.20150155 -0.10505309 -0.087552495
000130 e3 d5 ba bc 8d 7c c8 bb 14 5b 02 3e a1 ba 2e 3d
       -0.022807067 -0.0061183632 0.12730056 0.042658452
000140 b5 a7 b4 3d c5 90 3b bd d4 c7 94 3d 59 52 96 3c
       0.0882105 -0.04579236 0.07264677 0.018349813
000150 6f 4f a6 bd 3f b5 d6 bd 0a 42 12 be c9 4f 76 bd
       -0.081206195 -0.10483789 -0.14283004 -0.060134683
000160 2f 65 9b bd 85 89 2b 3e 1c 66 b2 3e c8 c1 bf 3d
       -0.075876586 0.16751678 0.34843528 0.09363133
000170 f5 21 98 3d 7b 73 22 3d d3 bd 1b 3e bc 78 b0 bc
       0.07428352 0.039660912 0.15209131 -0.021541946
000180 40 24 90 3c b7 f0 5d bc a5 31 0b 3d 40 f2 ca bc
       0.01759541 -0.01354616 0.03398289 -0.024773717
000190 a1 44 ba 3d e6 2f 33 3b 58 9d 0c be ce 9b ee bc
       0.09095121 0.0027341782 -0.13731897 -0.029127028
0001a0 c7 bf d4 3c 35 66 8c bd bd ff 70 3d 73 fb af bd
       0.025970353 -0.06855432 0.05883764 -0.08592882
0001b0 6b 04 94 3d e6 04 5e be c2 82 f0 bd 37 ef e3 3b
       0.07227405 -0.21681556 -0.1174369 0.006956007
0001c0 0c 2b 63 3d d1 8c 21 3d 43 cd 3f be 33 31 d4 bd
       0.055460975 0.039440934 -0.18730645 -0.103609465
0001d0 e4 18 fd bd ef f9 80 bb f4 29 d1 3d 87 34 37 bd
       -0.12358263 -0.0039360444 0.1021308 -0.04472783
0001e0 05 67 8b be 22 5a 58 3e fe a0 e8 3c 7b a1 67 be
       -0.27227035 0.21128133 0.02839708 -0.22620194
0001f0 6f 8a 06 be 57 ec e4 bd d1 f9 bb bd 04 13 a2 bd
       -0.13138746 -0.11177891 -0.09178508 -0.07913783
000200 22 d9 da bd 3b e6 a0 bc 23 10 14 3e 94 01 f9 3d
       -0.10685946 -0.019641032 0.1445928 0.12158504
000210 2f 3a 45 bd 7c 2e 1f 3e 34 e7 c2 bc 4e c0 cc bd
       -0.04815119 0.15545076 -0.023791887 -0.09997617
000220 32 1d f9 bd fb dd 75 3d 26 50 c9 bd a4 ce 58 bd
       -0.12163772 0.06002615 -0.0982974 -0.052931443
000230 a0 99 b8 3d 7c 1e c3 3d cf 41 e7 3d 2e 9a a7 bd
       0.09013677 0.09527299 0.11291849 -0.08183704
000240 39 eb 12 3e 37 a2 82 bc 87 8a 18 3e 9f c2 8e 3d
       0.14347543 -0.01594649 0.14896594 0.06970715
000250 e8 03 1c bc 99 7a 1b bd eb a6 32 3c a4 37 94 bd
       -0.009522416 -0.037958715 0.010904054 -0.07237175
000260 87 f3 22 be 33 5b c5 3d 50 f2 05 be 6c 7e 84 3d
       -0.15913211 0.096365355 -0.13080716 0.064694256
000270 e3 78 77 bc 4d 74 11 bd b5 43 e3 bd ea ea ff 3d
       -0.015104505 -0.035511304 -0.110968985 0.12495978
000280 8e 3c d1 3d ed 7c b8 bd 21 97 d5 bd f9 e8 86 3d
       0.10216628 -0.09008203 -0.10429216 0.06587405
000290 0a fd 4a 3d b9 f9 8e 3d 6f 29 de 3d 27 6f 07 3e
       0.049557723 0.069812246 0.108477466 0.13225995
0002a0 b5 27 c6 3c 38 56 3b bd 05 c5 e6 bb fb 76 63 bd
       0.024188856 -0.04573652 -0.0070425295 -0.05553339
0002b0 77 30 d8 bd c5 35 48 3d d6 e2 59 bd 8c af 70 3c
       -0.10556119 0.048879404 -0.053194843 0.014690291
0002c0 74 75 57 3d 10 7e 07 bd 91 3f 49 3d c8 e7 9c bd
       0.052602246 -0.033079207 0.049132887 -0.07661396
0002d0 70 8a 98 3d 99 eb 90 3d 36 14 bf bd cc 57 87 3c
       0.0744828 0.07076187 -0.09330027 0.016521357
0002e0 8b 94 0e be 38 34 70 3d 03 86 a4 3d 21 47 8e bd
       -0.13923852 0.05864355 0.08033373 -0.069471605
0002f0 a7 3f 03 be 6d 3f b8 bd a6 1e b0 bc dd f6 76 3d
       -0.1281725 -0.089964725 -0.02149899 0.06029402
000300 55 8f 16 3d 2b 49 af bd ca 8b 41 bc d3 cf d9 bd
       0.036757786 -0.085588776 -0.0118131135 -0.106353424
000310 ce 46 bc bd c2 4c 23 be 97 ad 72 be 6c 46 f6 bd
       -0.091931924 -0.1594725 -0.23699032 -0.12025151
000320 bc d5 02 3d 74 db f6 bb a4 fd 2f ba 2c 0a 05 bc
       0.031942114 -0.007533485 -0.00067135156 -0.008120101
000330 7c 62 10 be 34 38 ac 3c c8 3a f1 3d 26 7d 29 bd
       -0.14100069 0.021022893 0.1177879 -0.041379116
000340 fa c8 9e bc f3 cc dd bd 25 32 56 bb 1d 22 f0 bd
       -0.019382942 -0.108301066 -0.0032683697 -0.117252566
000350 e6 c1 14 be f9 68 1b be ad c2 38 bd c8 45 97 bc
       -0.14527091 -0.15176763 -0.045107532 -0.018465891
000360 aa 06 0c 3e ff 9a e8 3d 78 ef 0f 3e d6 9b 13 3d
       0.13674417 0.11357688 0.14056194 0.03603729
000370 c2 84 10 3e c6 63 c8 3c 67 a9 ad 3d e2 85 e1 bd
       0.14113143 0.024461638 0.084795766 -0.11011864
000380 54 65 12 be 84 a6 30 bc 11 79 62 be f4 61 e0 3d
       -0.14296466 -0.010781888 -0.22116496 0.10956183
000390 21 01 0c 3d 64 09 27 bd 87 a2 ee bd 36 e6 89 bd
       0.034180764 -0.04078044 -0.116520934 -0.067333624
0003a0 6c 87 1f be 52 8d a0 3d 72 50 ab 3d 3d 82 96 3c
       -0.15579003 0.07839455 0.08364953 0.01837265
0003b0 5e 28 98 3d 32 f9 fa bd 96 3e a3 bd 63 55 26 3d
       0.074295744 -0.122545615 -0.07970922 0.040608775
0003c0 03 49 31 bd e3 56 cc 3c 2e 9f 01 be 8c 7a 15 be
       -0.04328252 0.024943775 -0.12658378 -0.14597529
0003d0 1b ae d2 bd 9c bb 0b be 4b 54 13 3d 1b f1 de bd
       -0.10287114 -0.13645786 0.03596906 -0.10885831
0003e0 3b 08 8f be a1 55 04 3e cb 3f ca bd 11 b2 2d be
       -0.27935967 0.1292329 -0.09875449 -0.16962458
0003f0 35 d0 ec 3b 7a 01 20 bd 4b 5b d9 bd c8 f0 59 be
       0.0072269686 -0.03906391 -0.10613116 -0.21283257

decoder.weight_ih_l0 f4 [256, 64]
000000 da ec 74 bd 70 f4 5e bd 6b f7 50 3d 9e 52 a6 3d
       -0.05979619 -0.054432333 0.051017206 0.08121227
000010 66 6b 9f bd 72 db 24 3d 4f 83 f9 bd 07 fc e6 3c
       -0.077841565 0.04024834 -0.12183248 0.028196348
000020 1f be 90 3d b1 38 24 be 98 64 8a 3d be 13 95 bd
       0.07067513 -0.16037251 0.06757468 -0.07279156
000030 31 b9 1d bd 0a 12 f2 bd 03 14 a4 bd d3 1c 3e be
       -0.03850669 -0.11819847 -0.080116294 -0.18565683
000040 8d 90 ca bd 24 c9 cd 3d dd 4c bd bd 0b 1e 47 bd
       -0.09890852 0.1004813 -0.09243176 -0.048612636
000050 66 25 66 3d 72 66 2b bd 1b 4c 02 3e 4c 45 8b 3d
       0.05618801 -0.041845746 0.12724344 0.06800327
000060 ba f2 1c 3c f5 d7 1b bd 45 ab 0e 3e e5 bb 18 be
       0.009579355 -0.03804775 0.13932522 -0.14915426
000070 87 69 a6 3c 66 f4 1e 3e e7 89 37 3b c4 5a ee 3d
       0.020313991 0.15522918 0.002800578 0.11638406
000080 bd 62 4d bb 11 88 9d bd 10 dd 14 bc 47 15 d9 3d
       -0.003133937 -0.07691968 -0.0090859085 0.105997615
000090 77 63 a0 bc e7 ad 18 3e b2 18 80 3d 05 93 31 be
       -0.019578679 0.14910088 0.0625471 -0.1734124
0000a0 b1 ce b4 3d ba 0b 05 be b6 f0 2c be e2 fe 54 3d
       0.08828486 -0.12992755 -0.16888699 0.052000888
0000b0 be 2c 28 3d d4 56 b1 bd d1 e7 cc 3d 3f 95 a2 bd
       0.041058294 -0.08659139 0.10005153 -0.07938623
0000c0 20 7d 7c 3e 91 e8 c8 3d 4d 7a 64 bd fa 43 47 bd
       0.24657106 0.098099835 -0.055780698 -0.048648812
0000d0 67 99 05 3d 3c 6a 81 bd 54 f8 1d be fe 25 4d bb
       0.032617 -0.06319091 -0.15426761 -0.0031303163
0000e0 bf f2 00 be 43 6b 90 bc 2f 73 b5 bd cd a2 aa bd
       -0.125926 -0.017629271 -0.0885986 -0.08331833
0000f0 18 9a 77 bd 2e 78 b3 bc 2c 82 1b bd bc 03 20 3d
       -0.06044969 -0.021907892 -0.03796594 0.03906606
000100 1a 32 dc bc 7e 14 67 3d f8 6d 1b bd b5 a7 36 3e
       -0.026879359 0.056416027 -0.03794667 0.17837413
000110 9f 4c d5 3d 3c c0 d5 3d d0 ec e1 3d 81 d1 23 be
       0.10415005 0.104370564 0.110314965 -0.15997888
000120 e6 4e 8b bd 54 9e 91 bd 33 82 1f be 92 0b f4 bd
       -0.06802158 -0.07110277 -0.15577011 -0.11916269
000130 82 fb 8f 3d 03 de 5e 3d d6 74 40 3d 71 be 1e 3e
       0.07030393 0.054410946 0.046986423 0.15502335
000140 9e 41 04 3d 22 d9 2f 3e 7a 12 27 bd 26 e0 7d 3d
       0.03228914 0.17172673 -0.040789105 0.061981343
000150 6a df d5 bb 79 2c 7c 39 95 c1 9c 3d c8 62 8f 3d
       -0.006526877 0.0002404916 0.0765411 0.07001263
000160 25 30 10 3d 82 b0 21 bd 5f ec 86 3c 4a 62 f2 bd
       0.035202164 -0.03947497 0.016470132 -0.118351534
000170 15 5a 07 3d f2 a9 a9 3c 9e 90 95 3c 85 98 e8 bd
       0.033044893 0.020710919 0.018257435 -0.11357216
000180 48 ab c1 3d d6 75 b4 bd 6e 40 c6 bc 13 7e 5f be
       0.094564974 -0.08811538 -0.024200644 -0.21825437
000190 24 a6 8d bd 66 a1 04 be 50 da 83 3d ad b0 54 3d
       -0.069164544 -0.12952194 0.06438124 0.051926304
0001a0 64 a2 67 3c 66 b0 93 3c b0 4f d7 bd 07 ff 7a 3d
       0.014137838 0.01802845 -0.10513246 0.06127837
0001b0 97 99 57 bc 39 6d ae 3c c8 61 7f bb 45 68 09 3e
       -0.013159177 0.021292316 -0.0038968194 0.13418682
0001c0 e3 fe d8 bd bd ff 96 bd 1e 3e 60 bd f4 5e 0d 3e
       -0.10595491 -0.07372997 -0.05474674 0.13805753
0001d0 55 79 df 3d 04 22 60 be 55 72 e7 bb 8d 7a b9 bc
       0.10911814 -0.21887976 -0.00706319 -0.022641445
0001e0 3c 9b ae 3d f7 e9 53 be ad 23 40 be 35 04 a1 3d
       0.08525702 -0.2069472 -0.18763609 0.078621306
0001f0 0c 92 62 3d 24 ad 39 3d d8 9a 39 bd b3 ba 84 3d
       0.055315062 0.045331135 -0.045313686 0.064809225
000200 2c d3 81 be dc ef 3c 3d 51 52 7a 3d 44 a0 ef 3d
       -0.25356424 0.046127185 0.06111366 0.1170049
000210 2d ff 59 3e c3 4a 25 bc 2f 36 11 bd 2e a8 b5 bd
       0.21288748 -0.010088625 -0.035452064 -0.08869968
000220 d5 a1 06 3e 03 17 3e be 7a 22 6d be fa 50 de 3c
       0.13147672 -0.18563466 -0.23157683 0.027138222
000230 e9 34 4d bd b5 ca 45 be f9 a1 71 bd 11 b7 5f bc
       -0.050099287 -0.19315608 -0.05899236 -0.013654486
000240 bf 09 4d be f1 5b 2f 3e 61 44 f6 3d a5 2e 8f bd
       -0.20023249 0.17124917 0.12024761 -0.069913186
000250 13 45 2c be 8b 61 b1 3d 63 38 5b 3e 8c a4 e1 3d
       -0.16823225 0.08661183 0.21408229 0.11017713
000260 88 8a 29 3e 5c 95 2c 3c 57 d9 5c 3e 77 7c 81 be
       0.16556752 0.010533657 0.21567284 -0.25290272
000270 88 e4 15 bd af df af 3d 29 c4 a6 3d cd b2 2a 3c
       -0.036594898 0.08587586 0.08142883 0.010418606
000280 5b f4 5b 3d cb df 28 be bc e2 a6 bd 11 23 c8 bd
       0.053699832 -0.1649162 -0.08148715 -0.097723134
000290 b2 05 28 3d 81 5c 2d be 2a b1 60 bc 44 30 22 3a
       0.041021056 -0.16929819 -0.013714114 0.00061870017
0002a0 bc 5a 38 be fd a8 f7 3d 8a 90 4d be 6d 04 13 3e
       -0.18003362 0.12092779 -0.20074669 0.14357157
0002b0 b0 ff f0 3d dd 5d 9d bd b2 9b 29 3e 77 65 fa 3d
       0.117675185 -0.076839186 0.165633 0.12226384
0002c0 6c 9a 9a bc 64 dd 5c be dd 1d a2 bb 09 09 04 be
       -0.018872462 -0.21568829 -0.0049474076 -0.12894072
0002d0 dc 54 1d 3e 1e d8 19 bd d1 0d e9 3d a8 57 6d 3d
       0.15364403 -0.03755962 0.113795884 0.057944924
0002e0 62 de a2 3c 0e dc 6a be 84 4e d5 bd 9a 99 92 3d
       0.019881431 -0.22935507 -0.10415366 0.071582034
0002f0 f1 fb 5e 3e 74 58 10 3d 3d 8e 50 bd b7 e3 e2 3c
       0.21775796 0.035240605 -0.0509169 0.027696474
000300 c5 e4 cb bd 6b 06 1c 3e 80 3e c0 3e 33 93 f7 3d
       -0.09955744 0.15236823 0.37547684 0.12088623
000310 6c e2 1f be 85 db 58 3d 40 1a ee bc fb 6e e3 bd
       -0.15613717 0.052943725 -0.029065251 -0.11105152
000320 dd f7 d6 bd 3b f4 dc 3e f9 67 91 bd 06 9b 82 3d
       -0.10496495 0.43155083 -0.07099909 0.063772246
000330 bd 6c 4d 3e 7d 7b a2 3d a5 1d 2c bf cf 5f 46 bd
       0.20061012 0.0793371 -0.67232734 -0.048431214
000340 ec 81 14 be 86 72 69 be b6 8e d0 be 70 42 8b 3d
       -0.14502686 -0.22797593 -0.4073388 0.06799781
000350 ab ab 68 3e 2d 05 13 be e3 b9 ce bd a5 63 4a bc
       0.22721736 -0.14357443 -0.10094049 -0.012352859
000360 77 a1 01 be 0a b2 a6 be ea df 04 3f 9b f7 78 be
       -0.1265925 -0.32557708 0.51904166 -0.24313204
000370 43 70 6a 3e c3 a5 d5 3e 42 c6 4b be 37 95 8f bc
       0.22894387 0.4172803 -0.19899848 -0.017527206
000380 b8 71 ea 3c 9a e7 3e 3e 69 15 de 3e 24 35 a7 bd
       0.028618678 0.18643036 0.4337571 -0.08164433
000390 f4 3c aa bb 7b 1e 09 bd d9 74 03 be 29 46 28 be
       -0.0051952545 -0.033476334 -0.12837543 -0.16433014
0003a0 3a a1 95 3d f0 10 c4 be 96 ba 02 be 23 ee 4e 3d
       0.07306142 -0.38294172 -0.1276649 0.050520074
0003b0 8a 9a 67 be 65 19 0f be 49 fc 78 bd ca af e0 be
       -0.22617546 -0.13974531 -0.060787473 -0.43884116
0003c0 90 65 f8 3d b9 71 63 be 12 09 f8 bd 4e ec a3 be
       0.121287465 -0.2221135 -0.12111105 -0.32016224
0003d0 8f c3 b0 3d d1 4d da be c1 9c 7b be 01 60 18 be
       0.0863105 -0.42637494 -0.24571516 -0.14880373
0003e0 1c f2 6f be d2 b9 92 bf 9e ce da be e3 03 0e bd
       -0.23432201 -1.1462958 -0.4273576 -0.034671675
0003f0 e5 95 8d 3d 0c 09 91 be ef c5 4d be 35 4e 5b 3c
       0.06913356 -0.28327215 -0.20095037 0.013385345

decoder.weight_hh_l0 f4 [256, 1]
000000 e5 17 7d 3d cd d3 17 bf 07 e9 71 bb b4 98 a3 bf
       0.061790366 -0.5930756 -0.0036912577 -1.2780976
000010 8a 0d c5 bc a9 db ea bf a0 55 88 bd ca 99 d4 3b
       -0.024054307 -1.8348285 -0.06656957 0.0064880596
000020 3a ef 89 be dc 11 24 3c 2e 16 8e bd c7 4a 00 3d
       -0.26940328 0.010014024 -0.06937824 0.031321313
000030 bc 45 01 bd a3 44 20 3e 4a 77 82 3e b5 9c 8c 3d
       -0.031560645 0.15651183 0.25481635 0.06865827
000040 9f ec 0d 3d 2e 06 04 3d 36 1c 71 3d af 11 9a bd
       0.034649488 0.032232456 0.058864795 -0.07522904
000050 9f 9a a5 bd 7a a3 99 3c 29 87 82 3e 20 2c c5 bc
       -0.08086132 0.01875471 0.25493744 -0.024068892
000060 6c 27 c1 3c 72 99 4d 3e ee 55 b8 3d 0a 28 01 3e
       0.023578368 0.20078066 0.09000765 0.1261293
000070 cd 9e 00 3d a6 e4 be bc 00 71 e6 bf 99 63 49 3d
       0.031401444 -0.023302387 -1.8003235 0.04916725
000080 7a 66 a3 3d d8 4e c7 3d 23 6c f0 bc 2e d2 02 3e
       0.0797853 0.09731835 -0.029348439 0.1277549
000090 6f cf b8 3e 6b 79 b4 3d 03 a0 39 bd 99 14 8a bd
       0.3609576 0.08812221 -0.045318615 -0.0674221
0000a0 00 ac 5f bd c8 74 a1 bd eb a9 44 bf 6b 6e 10 3d
       -0.05460739 -0.078836024 -0.76821774 0.035261553
0000b0 1d 93 4d 3e 95 cc a1 3d ba b3 5c 3d d5 40 c6 bd
       0.2007565 0.07900349 0.053882338 -0.096803345
0000c0 2e 0d 08 3e 9a 31 95 bd 96 a0 b8 3d de 49 39 bf
       0.13286278 -0.07284851 0.09015004 -0.7237834
0000d0 46 11 95 3c 6f 94 10 be 70 67 7d be 5e b8 7f bb
       0.018196713 -0.14119123 -0.2474649 -0.0039019804
0000e0 ca 03 af bd 48 ec 0e 3e 6c f5 db bd da ec d1 bc
       -0.085456446 0.13957322 -0.1074017 -0.025625635
0000f0 9f 2b 3f 3c 6f fb 42 3e c5 8e 62 bd 8f 7e 74 3e
       0.011668115 0.19041227 -0.055311937 0.23876403
000100 3a 73 ef bd ca 5b 4f bf 04 4e 0b be 70 a5 55 bf
       -0.116918996 -0.80999434 -0.1360398 -0.8345556
000110 2f 7d c9 3d 42 c1 90 3f 06 7a 34 bd 67 d4 a1 3e
       0.0983833 1.1308978 -0.044061683 0.31607363
000120 c4 2a ea 3d aa 3b cd 3d 76 2e e0 3b 34 db ae bd
       0.11433938 0.10021146 0.006841476 -0.085379034
000130 cd 57 0f 3b 7d 25 82 bc 1c 30 d9 3e 48 6a 05 bd
       0.0021872402 -0.015887016 0.42419517 -0.03257206
000140 5e d9 f0 bc 3d 11 0f 3e b9 22 d7 bd 5c 45 cc 3c
       -0.029400524 0.1397142 -0.1050467 0.024935417
000150 25 62 3e 3d 5d 38 8c 3d 52 01 4e 3f 21 59 5e bd
       0.046480317 0.06846688 0.80470765 -0.05428422
000160 60 0d 00 3d ae a6 6b 3f 53 d1 ff bc c0 00 28 be
       0.031262755 0.9205121 -0.031227743 -0.16406536
000170 ac d3 8d 3d c6 1d 66 3d 61 28 ac bf 86 2b f4 bd
       0.06925139 0.056180738 -1.3449823 -0.11922364
000180 9c 2e 02 3d e1 b9 3b 3f 79 ee e8 3d 6e 3c 50 be
       0.03178273 0.73330504 0.1137361 -0.20335552
000190 d7 c0 97 3f db cb 78 3d c6 78 40 bc ef e4 d1 bc
       1.1855725 0.060741287 -0.011747545 -0.02562186
0001a0 9b 9b 83 3d de ff c3 bd 7c 96 4b bf 64 c2 48 bc
       0.06426164 -0.09570287 -0.79526496 -0.012253378
0001b0 41 8d 78 3d 39 bf 6f bd 0e 9e 61 3d 69 93 92 3d
       0.060681585 -0.058531974 0.055082373 0.071570225
0001c0 4d 8f 18 3e 13 c0 25 3d 60 94 a6 bd e0 de 9b 3f
       0.14898415 0.04046638 -0.08133769 1.2177391
0001d0 82 50 35 3e 5a 33 af bd 35 35 07 bf 6f d5 36 bd
       0.17706493 -0.085547164 -0.5281556 -0.04463714
0001e0 78 d3 52 be 09 b7 b2 3d 34 e3 02 3e 37 d7 96 bd
       -0.20588481 0.087263174 0.12781984 -0.07365268
0001f0 f5 b5 0d 3d 6b 91 82 bd e8 e3 77 3d 74 6f 06 be
       0.034597356 -0.063753925 0.060520083 -0.13128453
000200 ed e6 4d be a7 8a df bb 1f 60 00 3e af 79 f7 3e
       -0.20107622 -0.0068219486 0.12536667 0.48335025
000210 3c 22 70 bc 5b 13 6f be 2b ca 23 3c 7c ee f0 3d
       -0.0146566 -0.23347227 0.009996931 0.11764237
000220 40 4a 21 be 98 25 0f be 0a 65 8f be 7e 42 ce 3e
       -0.1575098 -0.13979185 -0.28006774 0.40285105
000230 6e 83 fa bc cf e3 1c 3e 20 fc 81 3d 59 e1 b2 3d
       -0.030580249 0.15321277 0.06346917 0.08734388
000240 d6 83 d2 bd c4 ac 93 3d 90 dc 68 3e 05 0a a6 bd
       -0.10279052 0.07210687 0.22740388 -0.0810738
000250 62 a3 a0 bc 36 96 4f bd bd 71 39 be 5e 97 13 3e
       -0.019609157 -0.05068036 -0.18109794 0.14413211
000260 93 aa fc 3d c9 3e fb 3e ee 55 ce bd f7 fd e0 3e
       0.12337222 0.4907134 -0.100749835 0.4394376
000270 8c 39 82 3d f8 bc 44 be 00 41 26 3f b2 e0 75 3e
       0.063586324 -0.19212711 0.6494293 0.24011496
000280 51 c9 29 3e 64 6d 5c 3e 62 60 0b 3c 4c 2f 1e 3e
       0.16580702 0.21526104 0.008506866 0.1544773
000290 27 4a 2b 3f da 0b 29 be 1c d8 e1 bc 6f f9 b6 3d
       0.6691002 -0.16508427 -0.02756887 0.089342944
0002a0 4e 60 ee bd ec be 58 bd ba 17 6c be 21 ab ff 3d
       -0.116394624 -0.052916452 -0.23055926 0.12483812
0002b0 e0 f9 74 3d a3 85 f4 3d f6 b5 ea bd 40 b9 0b 3b
       0.059808612 0.11939552 -0.114604875 0.0021320134
0002c0 04 4d a9 3d 94 ba bb bd c2 ed 2b 3d b7 af 13 bf
       0.08266643 -0.09166446 0.04197479 -0.57689995
0002d0 78 d8 5f 3c 3a 03 03 be b7 d4 ee bc 84 54 1b 3e
       0.01366245 -0.127942 -0.029154165 0.15168959
0002e0 07 80 53 be 28 10 1a be ed 4a 22 3e b8 14 1e 3e
       -0.20654307 -0.15045226 0.15848894 0.15437591
0002f0 ae c4 05 3d b3 60 15 bd 5c 7e ac bc 5b 88 c0 3e
       0.03265827 -0.036469173 -0.021056347 0.3760403
000300 3e 0f f1 3d 2b c2 41 bf 5a 2d 8e 3c 2c 29 47 c0
       0.11770485 -0.756869 0.01735561 -3.111888
000310 32 83 d4 bd 8e 9d 88 be d2 25 9c bd 95 45 22 3d
       -0.10376586 -0.26682705 -0.07624401 0.03961714
000320 97 6a 23 bf f8 40 9a 3d d8 02 ed 3c c5 6a 1d bc
       -0.6383452 0.07531923 0.02893202 -0.009607975
000330 e1 75 7b be 34 80 11 3e 80 2a 34 3d 75 d5 ef 3d
       -0.24556686 0.14209062 0.043985844 0.117106356
000340 2c a1 1a bd b5 62 d9 bd 8a c7 f9 3d e9 c7 86 bd
       -0.03775136 -0.1061453 0.12196262 -0.065810986
000350 be 91 93 bd 6b 8f 49 bd 80 14 e9 3e 4c 96 15 3d
       -0.072055325 -0.04920904 0.45523453 0.036520287
000360 4b 78 70 be 1d 1f c3 be e7 40 2a 3d 9a 2e 93 bd
       -0.23483388 -0.38109675 0.041565802 -0.07186623
000370 c7 1c 80 bd 35 1f ed bc 3c f9 16 c0 a9 2d b2 3d
       -0.06255489 -0.028945545 -2.358962 0.08700115
000380 68 55 c9 3d 39 e7 52 3e c0 83 87 bc 7c 78 b0 bc
       0.09830743 0.20596017 -0.016542315 -0.021541826
000390 6c 02 87 3d 96 f8 34 3e b0 95 2f be b6 53 55 bc
       0.06592259 0.17672953 -0.17146945 -0.0130204465
0003a0 79 be c1 3d 26 3c 24 be e8 c7 8e bf 19 e2 7c 3d
       0.09460158 -0.1603857 -1.1154757 0.06173906
0003b0 7e 30 0f bb 70 38 ca bd 7b ac 10 be 1d 9e e9 bd
       -0.0021848972 -0.09874046 -0.14128296 -0.11407111
0003c0 1f e0 aa bd 30 00 06 3b 0c 03 d6 bd ab 0e 76 3f
       -0.08343529 0.002044689 -0.104498 0.9611613
0003d0 69 71 ae bc c3 ed 3f be d4 ad 10 bf d8 d6 83 be
       -0.021294313 -0.18743043 -0.5651524 -0.2574985
0003e0 71 e5 cb bd 58 bc d7 bd 9b 59 93 bc 01 42 b3 bd
       -0.09955872 -0.105339706 -0.017987063 -0.087528236
0003f0 9b 29 c3 3d a1 43 bb 3c ee ca f3 bd 2c e1 51 bd
       0.0952942 0.022859396 -0.1190394 -0.05124013

decoder.bias_ih_l0 f4 [256]
000000 b2 94 bc 3c 92 05 7c 3d d6 90 ec bd 27 52 6d 3b
       0.023020122 0.06152875 -0.11551063 0.0036212297
000010 2a b1 32 3d d1 b9 bf be 99 ef 44 be 79 19 e6 3d
       0.043625988 -0.37446454 -0.19232024 0.11235327
000020 25 49 e4 bd 31 b1 7f bd 26 dd ab 3d 1d 55 e5 3d
       -0.11146764 -0.062424842 0.0839179 0.11197875
000030 44 e0 1c be d8 ee 6a 3e d4 d8 e7 bd 61 04 48 3d
       -0.15319926 0.22942674 -0.113206536 0.0488323
000040 32 6a 5b 3e 3f 27 b6 bd 8c 1c 9e 3d 3a 57 b8 3d
       0.21427229 -0.08894204 0.07720289 0.09001012
000050 26 9a 56 bd d6 d2 f9 3c 63 a6 65 bd 07 cd ad 3d
       -0.0523931 0.030496042 -0.056066882 0.084863715
000060 50 ff 9d bb 1e d7 08 3e 58 c3 e1 3d 75 ea b7 3e
       -0.0048216954 0.1336331 0.11023587 0.35921064
000070 47 6c 95 bb bf ca 4c 3d f6 31 e0 3d 5b 07 9f 3d
       -0.004560027 0.04999804 0.10947029 0.07765075
000080 8d ad 75 bd b0 4b 1e be 8a d2 6c bd 22 16 aa 3d
       -0.059979964 -0.1545856 -0.057817973 0.08305003
000090 bc 4f 85 3e 23 a6 ca bd 5b d1 8c bc b9 98 94 bd
       0.26037395 -0.09894969 -0.017189672 -0.07255692
0000a0 8f f1 1e be b4 34 03 3d 6e 85 e3 bd 81 36 6b 3d
       -0.15521835 0.032032683 -0.11109434 0.057425026
0000b0 98 22 5c bd 3a b9 da bd fe 90 8d bd bf 37 87 be
       -0.05374393 -0.106798604 -0.06912421 -0.26409718
0000c0 d8 4b c4 bc 9c f7 2b be a7 f7 66 3d c9 ba 89 be
       -0.023961946 -0.16793674 0.056388523 -0.26900318
0000d0 60 cf b6 bd 59 f2 9b bd 26 65 7b bc 25 48 cf 3b
       -0.089262724 -0.076145835 -0.01534394 0.006325739
0000e0 96 02 cf bc b3 f1 0d 3d 4e df 3b bd 0c 74 25 3e
       -0.025269788 0.03465433 -0.045867257 0.1615755
0000f0 dd 4d d1 3d b8 f4 5f 3d 1b 8f fc bd 24 32 5f 3e
       0.10219929 0.05467674 -0.12331983 0.21796471
000100 69 de 59 be 6c 62 63 bd 55 1a e9 bd 2a 6d 0c be
       -0.21276249 -0.055513784 -0.113819756 -0.13713518
000110 7e a2 81 bc b5 31 85 3f 64 4d 9e bd 56 34 56 be
       -0.015824553 1.0405794 -0.07729605 -0.20918402
000120 95 34 a9 bd 82 a5 89 be 29 5b ef be 29 59 2d bf
       -0.08261982 -0.26884085 -0.46749237 -0.6771417
000130 ab be 3e 3d 42 1b e3 be 75 11 10 bd fe 3e bd bc
       0.046568554 -0.44356734 -0.0351729 -0.023101326
000140 74 54 bd be 7e 16 a0 be 37 12 44 be 70 67 6f bd
       -0.36978495 -0.3126716 -0.19147573 -0.058448255
000150 fd f0 ef bc 52 fc 1a ba d4 04 07 3f 82 0d 96 be
       -0.029289717 -0.00059122324 0.5274174 -0.2930718
000160 93 bd d9 bc 53 ad bd bc c8 d3 bc be 49 e3 2c bf
       -0.026579654 -0.023153936 -0.36880326 -0.6753431
000170 c5 6e c9 be 70 e1 ce be 7e 06 1e be 3e a9 86 be
       -0.39342323 -0.4040637 -0.15432164 -0.26300997
000180 02 89 86 be 59 35 90 3e 67 19 94 bd bc 33 56 bc
       -0.26276404 0.281657 -0.072314076 -0.013073858
000190 2b a7 2f 3e 56 4c 00 3e 08 31 8d be 5c a7 f9 be
       0.17153613 0.1252912 -0.2757647 -0.48760498
0001a0 87 f3 ac be 28 7a e5 bd d6 76 78 bd 9e d6 ee bd
       -0.33779547 -0.1120494 -0.060660206 -0.11662029
0001b0 6f d4 86 be f7 80 73 bd 1d fc f6 bd 1f ca 52 be
       -0.2633395 -0.059449162 -0.120598055 -0.20584916
0001c0 dd 7c 16 be b7 1e 44 be 69 4b 75 be 5a c5 ab 3f
       -0.14696069 -0.19152342 -0.23954548 1.3419602
0001d0 1c 18 70 bd 65 22 61 be 86 d1 3e be ee 37 3d bd
       -0.058616742 -0.21985777 -0.18634614 -0.046195917
0001e0 40 fa de be d3 8a c8 be 40 8c 93 bd 27 42 71 be
       -0.435503 -0.39168414 -0.07204485 -0.23560391
0001f0 05 03 d5 be 40 ce e5 be e4 ab 34 be d4 49 36 bf
       -0.41603866 -0.4488392 -0.17643696 -0.712064
000200 74 0c 3b 3e 7f 4b 3d bd c7 4a be 3c 45 8c 5e bd
       0.18266469 -0.046214577 0.023229016 -0.05433299
000210 37 21 d3 3d 5e 30 7f 3d 01 88 a7 bc 35 05 dd 3d
       0.103090696 0.062301986 -0.020450594 0.10792009
000220 41 45 85 bc 48 d7 a3 bc 7d 31 59 3e 2d 90 07 be
       -0.016268374 -0.020000115 0.21210285 -0.13238592
000230 e9 10 1c 3d 1a 38 54 be 27 b7 08 be bf 3a 7e 3c
       0.038102064 -0.20724526 -0.13351117 0.015516936
000240 fe a8 80 3e 3e bb ed bd 45 ea 19 be d0 ed ec bd
       0.2512893 -0.11607979 -0.15030773 -0.11568797
000250 22 11 c8 3b 2e c7 42 3a f8 5d f7 bd f7 88 7b bd
       0.006105558 0.0007430193 -0.1207847 -0.061409917
000260 05 c8 52 3d a1 f8 91 bd 41 0f 55 be b9 f4 63 be
       0.051460285 -0.071275 -0.208066 -0.22261323
000270 a7 0b 3c be 15 f8 50 3e b4 ac 0c bd 1b 74 8b bd
       -0.1836382 0.20407136 -0.03434439 -0.06809255
000280 d5 55 95 bd 98 21 14 3e 23 1c d2 bc ca 95 87 3d
       -0.07291762 0.1446594 -0.025648182 0.06620367
000290 c3 e1 79 bd af 2f 4e 3c 95 a4 9a 3d ec 6e 0d be
       -0.06100632 0.012584611 0.07550923 -0.13811845
0002a0 5d 89 07 3e 49 3f d5 bd 64 8c ac 3d b5 5b dd bd
       0.13235994 -0.10412461 0.08425215 -0.10808507
0002b0 95 16 8d bd f1 28 85 bc 84 2c b9 3d 8d 36 00 bb
       -0.06889073 -0.016254874 0.09041694 -0.0019563765
0002c0 fe 4e 0d 3d e3 f0 83 3d bb 74 cd bd 02 73 b8 bb
       0.03449916 0.0644243 -0.1003203 -0.0056289444
0002d0 1e 49 e4 bc 4d 17 81 bc 29 0c a7 3c 13 8c 6e bd
       -0.027866896 -0.015758181 0.02039154 -0.058239054
0002e0 61 c7 4e 3e 1e 1b 57 3e c4 15 58 bd 21 eb e9 bd
       0.20193245 0.21006438 -0.052755132 -0.114218004
0002f0 44 08 59 3e d0 79 0c 3e 95 db 04 3d ae 24 29 be
       0.2119456 0.13718343 0.032435972 -0.16517898
000300 cc 1d 0f 3e 4a cc 83 bd a5 00 0d be 8d 59 b6 bc
       0.1397621 -0.064354494 -0.13769777 -0.022259498
000310 e0 12 bb bd e9 4a 08 3f f4 e6 69 3c e9 6d ca bd
       -0.091344595 0.53239304 0.014276255 -0.09884245
000320 a3 f4 db bd d3 cd 75 bd aa 8a d5 3c 56 8d 27 3e
       -0.1074002 -0.060010742 0.026067097 0.16362509
000330 7f ef f8 bd 6e 51 f9 3d 01 4c 48 bd a9 85 c6 bc
       -0.12155055 0.121737346 -0.048900608 -0.024233656
000340 58 df ca bb ed 43 2e bd 66 f5 4a bc 83 fd 6f bd
       -0.0061911754 -0.042545248 -0.012387609 -0.058591377
000350 c2 f6 da bd b9 b3 9f bb f3 b7 64 3e a0 f4 ec 3d
       -0.106915966 -0.0048737195 0.22335796 0.11570096
000360 75 cd ad 3d 98 7a 8c 3d 15 97 e6 3d ad cf c0 3e
       0.084864534 0.068593204 0.11259285 0.37658444
000370 76 1f c0 3d 3c 4d 25 3e b7 26 50 3c 61 ca 08 bd
       0.09381001 0.16142744 0.012704543 -0.03339613
000380 6f ce 72 3c b9 d1 43 3c 78 db e5 bd 60 3d cc bd
       0.014819725 0.011951857 -0.11223501 -0.09972644
000390 0f ac cc 3e 97 3b 8e bc 7a dd b4 bd bc be 36 bd
       0.3997502 -0.017362399 -0.08831306 -0.044615492
0003a0 4a 5e a6 bd ca 9a 67 bb a8 2d 29 bc a4 4e 55 bd
       -0.08123453 -0.0035340064 -0.010325827 -0.05207695
0003b0 a0 02 4a bd 92 ae 15 bd eb 47 a3 3c d3 dd 92 be
       -0.04931891 -0.036543436 0.019931754 -0.28684863
0003c0 8d 3f 07 3c 92 3c e8 bd 53 fa 00 bd 0e 9c 5a 3f
       0.008254898 -0.11339678 -0.031488728 0.8539437
0003d0 b1 d4 ee bc b5 b0 2f be e8 f9 8e 3d bf 3d bb bd
       -0.029154154 -0.17157252 0.069812596 -0.091426365
0003e0 d5 06 db 3d 88 fe 68 3c e9 23 4e 3d 6e 25 80 bd
       0.106946625 0.014220841 0.050327215 -0.06257139
0003f0 9f fd 36 bd 1b 7c 00 3e e5 56 93 bd ba fd 27 3e
       -0.044675466 0.12547342 -0.07194308 0.16405383
