output/synthetic_data/models/model_hidden16_lr0.01_clip0.5.pth (torch, 13722 bytes, 9 tensors)

encoder.weight_ih_l0 f4 [64, 1]
0.2517188 0.20114185 0.114491194 0.5667548 0.2679149 0.20307077 0.045023195 0.13990451
-0.39109415 0.10749986 0.08503379 0.17948309 0.07429593 0.33094147 0.17840023 0.053342346
0.5829899 0.0012646364 0.19862826 0.4784886 0.36719278 -0.07863601 0.34214136 0.26193795
0.043833166 0.22933021 -0.17673369 0.23470433 0.19617517 0.10384844 0.27071118 0.18124303
-0.42434224 0.3476824 -0.15292656 -0.20285696 0.3235332 0.12229599 -0.009467825 0.3895453
0.0801731 -0.042707376 0.3379561 -0.3867668 0.05385082 0.19136837 0.11003842 -0.25917092
0.30946654 0.06567117 -0.031509798 0.4435066 0.26182246 0.32148007 -0.02360454 -0.10029453
-0.11555336 0.24396072 -0.35149166 0.18681177 0.16834772 0.44923055 0.4094394 0.19010015
00000000: 49e1 803e 21f8 4d3e 5c7a ea3d d816 113f
00000010: 242c 893e c9f1 4f3e 3e6a 383d 2143 0f3e
00000020: 7e3d c8be e328 dc3d 3226 ae3d 6aca 373e
00000030: 7728 983d 2971 a93e 8dae 363e 817d 5a3d
00000040: d33e 153f 28c2 a53a 3565 4b3e 75fc f43e
00000050: b100 bc3e eb0b a1bd 272d af3e bb1c 863e
00000060: 688a 333d 8ad5 6a3e adf9 34be 5556 703e
00000070: 25e2 483e 7eae d43d a89a 8a3e c697 393e
00000080: 6343 d9be 6d03 b23e c898 1cbe bcb9 4fbe
00000090: 25a6 a53e 5276 fa3d f01e 1bbc 7b72 c73e
000000a0: cb31 a43d eeed 2ebd 9508 ad3e 4c06 c6be
000000b0: ad92 5c3d 12f6 433e d35b e13d 0db2 84be
000000c0: 6672 9e3e 9b7e 863d 6b10 01bd 4c13 e33e
000000d0: 980d 863e 0999 a43e 4f5e c1bc 3867 cdbd
000000e0: 3da7 ecbd d7d0 793e b7f6 b3be 964b 3f3e
000000f0: 5863 2c3e 8c01 e63e 0ba2 d13e 9da9 423e

encoder.weight_hh_l0 f4 [64, 16]
-0.16137442 -0.030442214 0.10439373 -0.20989603 -0.13856198 0.13874923 0.122439854 0.27379665
-0.05658106 -0.17835669 0.12755963 0.21020061 -0.12816012 0.1964056 -0.23575158 0.06982195
-0.011658308 0.088268094 -0.039247368 0.0637783 0.18774864 0.23800416 -0.032207567 -0.10958309
-0.13265258 0.13141915 0.19030465 0.20721409 0.066352695 -0.10595315 -0.0035596644 -0.65767473
-0.23526779 0.066839196 -0.023992179 0.14412986 0.2235992 0.07230231 0.11029307 -0.24913983
0.068933725 -0.21782069 -0.17440741 -0.09801152 0.05074438 -0.09937058 0.27650052 -0.35520095
-0.25605693 0.10193189 0.016910337 -0.019469937 0.24891546 0.24687314 -0.31497943 0.16560157
0.077011764 -0.007098589 0.0334471 0.24688856 0.04920234 0.15668567 0.35951665 0.3678626
0.18088889 0.27702367 0.030601965 0.18885195 -0.031985022 0.016766874 -0.18386178 0.12568928
0.14125997 0.020600563 -0.14214598 -0.3579915 -0.21218924 -0.05283599 -0.23606876 -0.46311224
-0.015560249 -0.03434978 0.0901173 -0.4040351 -0.23217447 -0.103094645 -0.25303754 0.12444913
-0.06955762 0.30780324 0.07509318 0.058596864 -0.010370832 0.25303656 0.3049662 -0.048064344
-0.2514888 0.106474526 0.27562377 -0.002564879 0.081141755 0.33107525 -0.3237212 -0.08356499
0.08816061 0.3479717 -0.16339065 0.2902894 -0.19780633 -0.054855928 0.056799363 -0.09962229
0.17183125 0.047195964 0.0454272 -0.035015505 -0.14702468 -0.3800998 0.40064436 0.0726272
0.14315335 0.19986269 -0.45990124 -0.30301946 -0.101157926 -0.3299674 -0.026441338 0.09539064
0.059829153 0.124553315 0.24265677 0.33832723 -0.33944103 -0.13921057 0.24583544 -0.054791987
-0.5368591 -0.43490195 -0.2065196 -0.465547 -0.23547322 0.16022779 -0.05832775 -0.42070022
0.09835156 0.05480437 0.078847095 -0.19715177 0.19021112 0.28004727 -0.17222396 -0.35039943
-0.30942288 -0.23203999 -0.03254924 -0.13381505 0.15363505 0.14169893 0.11886582 -0.24029379
0.089318946 -0.13132393 0.20585652 -0.29545048 0.10040506 -0.017818594 0.19456954 0.0910194
-0.10391504 -0.05746265 0.15472797 -0.15191524 0.13304728 0.040599406 0.2712938 -0.47793388
0.11242131 -0.046047878 -0.104253456 -0.003009743 0.05676283 0.1309217 0.3025077 -0.2999067
-0.301391 0.16711678 -0.13194446 -0.20140462 -0.15364854 0.020823529 -0.08868553 0.23933755
0.06157281 0.09955816 -0.013548133 -0.22343475 0.15360406 0.11575359 -0.2059697 -0.05621154
0.1448982 -0.13077371 0.2063124 0.38163888 0.08657445 0.116089575 0.14294712 -0.33198535
-0.081931025 0.17837533 0.2218896 0.015065044 -0.13043454 0.067951925 0.111305594 0.1312858
-0.040677566 0.30911946 0.18454602 0.11964113 -0.31286243 -0.13644181 0.20122428 0.11461034
-0.26945442 -0.16193663 -0.12687388 -0.42261016 -0.2118271 0.2995808 -0.13818805 0.04190112
0.2762632 -0.01651089 0.16358532 -0.028823266 -0.03363656 0.26976544 -0.16880965 0.10218351
0.010329917 0.12614915 0.19830745 -0.40776992 0.071023 -0.023968555 -0.2596486 0.01794244
0.18187273 0.17614481 0.0040110615 -0.14629021 0.10426083 0.15700899 0.12216531 0.019340599
00000000: 563f 25be f361 f9bc 61cc d53d fcee 56be
00000010: 31e3 0dbe 4714 0e3e bfc1 fa3d 132f 8c3e
00000020: 8bc1 67bd 23a3 36be fe9e 023e d43e 573e
00000030: 683c 03be 8d1e 493e dd68 71be cffe 8e3d
00000040: 7d02 3fbc e7c5 b43d d9c1 20bd 339e 823d
00000050: 2e41 403e 5db7 733e 15ec 03bd 196d e0bd
00000060: 14d6 07be be92 063e 39df 423e ee2f 543e
00000070: ece3 873d f7fd d8bd 4249 69bb 5f5d 28bf
00000080: 0aea 70be fde2 883d 3f8b c4bc c796 133e
00000090: 30f7 643e 3c13 943d 55e1 e13d 831e 7fbe
000000a0: 202d 8d3d 630c 5fbe db97 32be 44ba c8bd
000000b0: 57d9 4f3d cd82 cbbd 7a91 8d3e e6dc b5be
000000c0: e519 83be abc1 d03d 8c87 8a3c 6b7f 9fbc
000000d0: b2e3 7e3e 50cc 7c3e fc44 a1be 7593 293e
000000e0: 58b8 9d3d 489b e8bb d4ff 083d 5bd0 7c3e
000000f0: 6588 493d 3572 203e 9112 b83e 7d58 bc3e
00000100: f03a 393e 0cd6 8d3e f9b0 fa3c 6862 413e
00000110: ba02 03bd af5a 893c 4346 3cbe b1b4 003e
00000120: 74a6 103e 83c2 a83c b78e 11be a94a b7be
00000130: 2348 59be 8d6a 58bd 02bc 71be 0c1d edbe
00000140: 6af0 7ebc 5bb2 0cbd 6b8f b83d b0dd cebe
00000150: 25bf 6dbe 4923 d3bd 238e 81be 2fdf fe3d
00000160: 3a74 8ebd 6398 9d3e 74ca 993d 4403 703d
00000170: 6cea 29bc 028e 813e 8824 9c3e 1edf 44bd
00000180: 24c3 80be 510f da3d 8f1e 8d3e 8717 28bb
00000190: a62d a63d b282 a93e c9be a5be 1f24 abbd
000001a0: 8d8d b43d 5929 b23e e14f 27be d0a0 943e
000001b0: be8d 4abe 9cb0 60bd 73a6 683d c506 ccbd
000001c0: 88f4 2f3e 8e50 413d df11 3a3d 6b6c 0fbd
000001d0: a38d 16be 719c c2be 4221 cd3e 92bd 943d
000001e0: cb96 123e cea8 4c3e 2d78 ebbe 5e25 9bbe
000001f0: e32b cfbd 7df1 a8be 819b d8bc 2b5c c33d
00000200: 6a0f 753d cf15 ff3d 047b 783e 3a39 ad3e
00000210: 37cb adbe 378d 0ebe 49bc 7b3e 906d 60bd
00000220: 996f 09bf 78ab debe e079 53be 2d5c eebe
00000230: e41f 71be c112 243e 14e9 6ebd 0566 d7be
00000240: 8b6c c93d 8c7a 603d 967a a13d 27e2 49be
00000250: b4c6 423e 5b62 8f3e 7a5b 30be 8e67 b3be
00000260: ad6c 9ebe e49b 6dbe 5a52 05bd d006 09be
00000270: 8252 1d3e 8619 113e ec6f f33d 930f 76be
00000280: daec b63d c879 06be 0dcc 523e 4945 97be
00000290: 2ba1 cd3d 4df8 91bc 3d3d 473e 6168 ba3d
000002a0: 69d1 d4bd f55d 6bbd 0271 1e3e ab8f 1bbe
000002b0: 8c3d 083e 904b 263d 05e7 8a3e c0b3 f4be
000002c0: 253d e63d b39c 3cbd d682 d5bd 1c3f 45bb
000002d0: 2480 683d 5710 063e 4ae2 9a3e 5f8d 99be
000002e0: ec4f 9abe a920 2b3e 731c 07be 033d 4ebe
000002f0: 0b56 1dbe 1b96 aa3c c2a0 b5bd e714 753e
00000300: c533 7c3d 26e5 cb3d fdf8 5dbc 14cc 64be
00000310: 624a 1d3e 3810 ed3d b9e9 52be 123e 66bd
00000320: 3260 143e 8be9 05be 8f43 533e 2c66 c33e
00000330: f24d b13d 5fc0 ed3d bb60 123e fcf9 a9be
00000340: 74cb a7bd 06a8 363e 0737 633e 60d3 763c
00000350: a290 05be 612a 8b3d 30f4 e33d c96f 063e
00000360: 859d 26bd e844 9e3e a2f9 3c3e 6906 f53d
00000370: 812f a0be 67b7 0bbe bd0d 4e3e d3b8 ea3d
00000380: eef5 89be b7d2 25be 3aeb 01be 5c60 d8be
00000390: 34e9 58be a862 993e 2b81 0dbe 82a0 2b3d
000003a0: 5f72 8d3e d941 87bc e982 273e c51e ecbc
000003b0: 7dc6 09bd b21e 8a3e 70dc 2cbe 9745 d13d
000003c0: d03e 293c 3e2d 013e 1c11 4b3e 38c7 d0be
000003d0: 8274 913d b459 c4bc a9f0 84be 06fc 923c
000003e0: d83c 3a3e 4e5f 343e 396f 833b 1acd 15be
000003f0: b486 d53d f7c6 203e ce31 fa3d 2d70 9e3c

encoder.bias_ih_l0 f4 [64]
-0.24910694 -0.07560454 0.19403443 0.29265183 0.03522863 0.29452392 -0.09053968 -0.13915
-0.13415846 -0.12993057 -0.10076733 -0.24271561 0.01847521 -0.058201604 0.24987605 -0.32727116
0.16461979 -0.048701648 0.21760404 -0.040421322 0.016507434 0.10968044 0.23129512 0.19919652
0.24587947 -0.06734723 -0.053742427 0.14373513 0.24349858 -0.078928135 0.060451254 0.1526172
-0.23085473 -0.057556108 0.09491053 -0.22487241 -0.07835429 0.027330486 -0.3301658 -0.16432466
-0.36700535 0.16918212 -0.08066387 0.16299923 -0.23997407 0.0458886 0.054464765 -0.052437898
0.23082049 0.0975459 0.13098347 -0.050368525 0.06613036 -0.13400696 -0.09669766 -0.076331995
-0.15435913 0.19744924 0.06769687 0.26155752 0.049614143 0.042713296 0.1938302 -0.08290602
00000000: e415 7fbe 8ed6 9abd f6b0 463e 76d6 953e
00000010: e54b 103d d7cb 963e de6c b9bd 567d 0ebe
00000020: d660 09be 850c 05be 1a5f cebd 718a 78be
00000030: 5359 973c ce64 6ebd 82df 7f3e 1690 a7be
00000040: 1792 283e 617b 47bd 98d3 5e3e d490 25bd
00000050: 993a 873c 23a0 e03d a1d8 6c3e 2cfa 4b3e
00000060: d4c7 7b3e 58ed 89bd 0521 5cbd 4d2f 133e
00000070: b157 793e 13a5 a1bd bc9b 773d af47 1c3e
00000080: 2f65 6cbe f4bf 6bbd 7460 c23d f444 66be
00000090: 3778 a0bd 2fe4 df3c 7e0b a9be b944 28be
000000a0: 20e8 bbbe 143e 2d3e 1933 a5bd 45e9 263e
000000b0: c3bb 75be aff5 3b3d 7216 5f3d 1fc9 56bd
000000c0: 355c 6c3e 25c6 c73d 8820 063e 3a4f 4ebd
000000d0: 5b6f 873d 1f39 09be 6c09 c6bd f353 9cbd
000000e0: 5210 1ebe 2230 4a3e a8a4 8a3d deea 853e
000000f0: 3338 4b3d 23f4 2e3d 6d7b 463e a2ca a9bd

encoder.bias_hh_l0 f4 [64]
-0.23390268 0.10625179 0.19260187 0.12426916 0.14861214 0.0604407 0.046099592 -0.20019834
0.13831978 -0.049732536 0.0012871978 0.042487465 0.084752165 0.13411447 0.2772542 -0.021581165
0.28085366 0.1039168 0.18996583 0.25629947 -0.058045555 0.37872726 0.37055627 -0.120591514
0.14690848 0.021964587 -0.14660488 0.16956207 0.32471576 0.19626914 0.16287386 -0.2437855
0.14507426 0.081714444 0.3423331 -0.07771288 0.08506495 0.17432469 -0.24639292 -0.22450969
0.07243645 0.13696569 0.29772377 0.18721558 -0.35682854 0.28006607 0.33806035 0.0731855
-0.06057253 -0.04803091 0.20364659 0.08207621 0.14703962 0.29622707 -0.07589497 0.16394824
0.07246383 0.08250168 -0.0566872 0.010442241 0.121224776 0.14996368 0.115821846 -0.096870095
00000000: 2f84 6fbe 8a9a d93d 6d39 453e d480 fe3d
00000010: c82d 183e ab90 773d edd2 3c3d cb00 4dbe
00000020: b3a3 0d3e 58b4 4bbd 31b7 a83a 5607 2e3d
00000030: 8b92 ad3d 4e55 093e 43f4 8d3e fcca b0bc
00000040: 0dcc 8f3e 55d2 d43d 6786 423e af39 833e
00000050: 2dc1 6dbd 8ae8 c13e 8db9 bd3e aff8 f6bd
00000060: 2d6f 163e 14ef b33c 971f 16be aea1 2d3e
00000070: 2541 a63e c7fa 483e 68c8 263e e8a2 79be
00000080: 598e 143e e759 a73d 4946 af3e ee27 9fbd
00000090: 8836 ae3d 2c82 323e 6d4e 7cbe dee5 65be
000000a0: 9059 943d bc40 0c3e 406f 983e 71b5 3f3e
000000b0: 3bb2 b6be d264 8f3e 3f16 ad3e 48e2 953d
000000c0: e71a 78bd 0fbc 44bd bb88 503e 9217 a83d
000000d0: 8e91 163e 13ab 973e d26e 9bbd 0ce2 273e
000000e0: eb67 943d a4f6 a83d d630 68bd ef15 2b3c
000000f0: b244 f83d 1490 193e 0134 ed3d d463 c6bd

decoder.weight_ih_l0 f4 [64, 16]
-0.21908802 0.21788886 0.37110654 -0.6304403 -0.013210139 0.48783013 -0.2691964 0.076954745
-0.08703453 0.053119417 0.13231906 0.118136026 -0.46852446 0.35509762 0.31935227 -0.14420842
0.20622131 -0.27210566 -0.03111088 0.10653572 -0.27043396 -0.27927777 0.25235942 0.089961864
0.12824155 -0.053937227 -0.33932054 0.0847701 0.053792786 -0.30542162 -0.30110133 -0.08222837
-0.3345124 0.054399084 0.134175 0.12925328 -0.021793814 0.22326998 -0.22548984 0.4862049
-0.009615569 -0.0021162482 0.06380677 0.09402912 -0.1739684 0.13722907 0.15437289 -0.4923902
0.16600645 -0.0034410723 -0.14067043 0.23011804 -0.36262274 -0.34302017 0.1576173 0.15268992
0.07750354 0.051573407 -0.2731288 -0.3655233 0.30533373 -0.03925589 -0.06979457 0.25156713
-0.03681218 -0.18180583 -0.09756213 0.38070384 -0.102518536 -0.30002713 -0.008708487 -0.0086454265
-0.17463374 0.1024486 -0.20671645 -0.058878258 0.28683904 -0.13355032 -0.04635591 0.11123832
0.2870381 -0.0022118145 -0.2893315 0.054566473 -0.4549632 -0.21536328 0.014898299 0.35862848
0.53061503 0.10930145 -0.10404629 0.04244873 0.20234753 -0.33744484 -0.20735146 -0.44706732
-0.17739516 0.20926131 0.38202095 -0.63356686 0.22883952 0.5515283 -0.40074313 -0.22081578
-0.11316747 0.055388894 0.15800911 0.08104627 -0.26783955 0.5311989 0.5353049 0.07516105
-0.13770345 -0.007346673 0.15345004 -0.029256254 0.16906855 -0.20207167 -0.16201667 0.65988994
0.23091547 -0.20521212 -0.033762265 -0.042781595 0.2139807 0.077464685 0.22063981 -0.053249203
0.04182885 0.070325896 -0.3351404 0.19436917 -0.17372096 -0.04369268 -0.063122705 0.11728467
-0.08775558 -0.23964381 -0.30078137 -0.24772598 0.0639455 -0.056131076 -0.1797638 0.2220023
0.10663586 -0.13813768 -0.25684237 0.48263153 -0.35101745 -0.050693724 0.2082659 -0.20717406
-0.10598916 -0.18389831 -0.4654675 0.12808652 0.41514403 -0.026275314 -0.24781139 0.36850706
-0.332436 0.0068043177 0.06768035 -0.61605966 0.33943066 0.012147344 -0.044529226 0.608368
-0.085818686 -0.33962864 0.3340212 -0.48326898 -0.21147162 0.3854017 -0.04143379 -0.3431396
0.08012909 -0.25302544 -0.10128257 0.32690978 -0.2525037 -0.032456677 0.09299802 0.2195505
0.08717924 -0.012098919 -0.005564222 -0.052530453 0.3660691 -0.29057395 -0.35326615 -0.09172176
0.19994494 -0.07987189 -0.18702397 -0.08607414 0.07789565 -0.23324955 0.09613108 0.26559108
-0.24985875 0.057710275 -0.22989525 -0.22603132 0.34593764 -0.04192972 -0.19667347 -0.16852139
-0.26533145 0.3015976 0.26526266 -0.7832086 -0.027904093 0.26484114 -0.10616398 0.5189262
-0.34641185 -0.6786302 -0.0066541824 -0.33512008 0.23625278 -0.11312517 -0.1650842 -0.21640188
0.14454812 -0.24470487 -0.32320657 0.02546608 0.27104074 -0.39129886 0.27869767 0.025046675
0.7524907 0.066733666 -0.41800174 -0.6832704 0.12059285 -0.077351846 -0.31147632 -0.59105736
-0.2832381 0.3912096 0.3381281 0.021376396 0.33612165 0.29902136 0.06784647 0.3368978
-0.016005157 0.15173441 0.22074753 -0.11909184 -0.17626984 0.0057418128 0.09757558 -0.79800105
00000000: 9c58 60be 421e 5f3e ad01 be3e 8964 21bf
00000010: 576f 58bc dfc4 f93e 1cd4 89be 739a 9d3d
00000020: 293f b2bd bf93 593d a67e 073e 4df1 f13d
00000030: 70e2 efbe 5bcf b53e 2482 a33e 5fab 13be
00000040: ae2b 533e 6f51 8bbe 3fdc febc 662f da3d
00000050: 5276 8abe 7ffd 8ebe 4135 813e ed3d b83d
00000060: c151 033e 48ed 5cbd 6cbb adbe f29b ad3d
00000070: d355 5c3d 3960 9cbe f429 9abe 5967 a8bd
00000080: 3645 abbe 93d1 5e3d 2c65 093e f95a 043e
00000090: f188 b2bc e3a0 643e cfe6 66be d9ef f83e
000000a0: 9f8a 1dbc c1b0 0abb 20ad 823d 5792 c03d
000000b0: c624 32be c785 0c3e ed13 1e3e 911a fcbe
000000c0: 98fd 293e 9d83 61bb e90b 10be 10a4 6b3e
000000d0: b0a9 b9be 57a0 afbe 6e66 213e bf5a 1c3e
000000e0: 2dba 9e3d a33e 533d 8ad7 8bbe df25 bbbe
000000f0: b454 9c3e c9ca 20bd 75f0 8ebd 68cd 803e
00000100: 5ec8 16bd 4f2b 3abe a7ce c7bd 9deb c23e
00000110: 3df5 d1bd 289d 99be 0bae 0ebc 8ca5 0dbc
00000120: 30d3 32be 92d0 d13d 7aad 53be 542a 71bd
00000130: 91dc 923e 6ac1 08be b2df 3dbd ebd0 e33d
00000140: a8f6 923e 17f4 10bb 4223 94be 1881 5f3d
00000150: f0f0 e8be 3188 5cbe ff17 743c 279e b73e
00000160: 63d6 073f 70d9 df3d 3916 d5bd b8de 2d3d
00000170: 3134 4f3e 92c5 acbe f153 54be 02e6 e4be
00000180: 14a7 35be 9948 563e 4098 c33e 7031 22bf
00000190: e854 6a3e f530 0d3f 342e cdbe 881d 62be
000001a0: 59c4 e7bd 77df 623d 24cd 213e 96fb a53d
000001b0: 4422 89be a7fc 073f be09 093f 09ee 993d
000001c0: 2202 0dbe 5cbc f0bb 0222 1d3e d0aa efbc
000001d0: 4e20 2d3e e0eb 4ebe b3e7 25be 8cee 283f
000001e0: 1b75 6c3e 2023 52be 4d4a 0abd c13b 2fbd
000001f0: c21d 5b3e cea5 9e3d 67ef 613e d61b 5abd
00000200: ba54 2b3d 0607 903d 8697 abbe b608 473e
00000210: e8e3 31be 18f7 32bd 7a46 81bd f232 f03d
00000220: 33b9 b3bd 3065 75be 0400 9abe e1ab 7dbe
00000230: dcf5 823d b3e9 65bd 0014 38be 9254 633e
00000240: e763 da3d f773 0dbe d880 83be 7b1b f73e
00000250: 8fb8 b3be 39a4 4fbd a843 553e 7025 54be
00000260: d810 d9bd d74f 3cbe c251 eebe 1d29 033e
00000270: c28d d43e 543f d7bc 45c2 7dbe f5ac bc3e
00000280: 0d35 aabe c1f6 de3b ff9b 8a3d 16b6 1dbf
00000290: dbc9 ad3e a705 473c 4764 36bd 01be 1b3f
000002a0: b5c1 afbd cee3 adbe d404 ab3e 086f f7be
000002b0: 048c 58be 5f53 c53e 7ab6 29bd feaf afbe
000002c0: b81a a43d 8d8c 81be 3c6d cfbd b860 a73e
000002d0: 2a48 81be 4bf1 04bd bf75 be3d d9d1 603e
000002e0: 088b b23d 8b3a 46bc 1454 b6bb 2c2a 57bd
000002f0: 696d bb3e 1cc6 94be 4ddf b4be 9ed8 bbbd
00000300: 5ebe 4c3e e093 a3bd 3683 3fbe a447 b0bd
00000310: c187 9f3d f8d8 6ebe 5fe0 c43d 8efb 873e
00000320: f9da 7fbe 9c61 6c3d a969 6bbe c174 67be
00000330: bd1e b13e 80be 2bbd c564 49be df90 2cbe
00000340: 86d9 87be 006b 9a3e 82d0 873e 5c80 48bf
00000350: 2097 e4bc 4299 873e 806c d9bd 59d8 043f
00000360: e55c b1be b5ba 2dbf 540b dabb dc94 abbe
00000370: 40ec 713e 2bae e7bd d50b 29be 7498 5dbe
00000380: 6c04 143e ea93 7abe 557b a5be 3e9e d03c
00000390: dac5 8a3e 5358 c8be 76b1 8e3e af2e cd3c
000003a0: 3ba3 403f a9ab 883d 5304 d6be cfea 2ebf
000003b0: 62f9 f63d a56a 9ebd d379 9fbe 894f 17bf
000003c0: 9604 91be a04c c83e 201f ad3e 8d1d af3c
000003d0: 2318 ac3e 5419 993e 17f3 8a3d de7d ac3e
000003e0: 3f1d 83bc 4460 1b3e a40b 623e 6ce6 f3bd
000003f0: 1580 34be d125 bc3b b5d5 c73d cc49 4cbf

decoder.weight_hh_l0 f4 [64, 1]
0.038065623 0.22758505 0.25133285 -0.17212781 0.11095428 -0.12957726 -0.09340966 0.25069004
-0.097399354 0.2607666 0.0037806393 0.093739085 -0.27872917 -0.819791 -1.9459803 -0.1521402
0.49958426 0.12466643 -0.1836712 0.039909888 0.19879231 0.83127356 0.40215385 -0.23321861
0.23356311 -0.06657145 0.55996585 0.114019185 -0.12757178 -0.23899494 0.22986403 -0.12607715
0.1775371 0.0043822993 0.22746798 0.020745974 -0.19703363 -0.15693563 0.07287301 -0.061169956
-0.011022091 0.14406064 0.56990993 -0.24848393 -0.036223643 0.51164275 -0.05946433 0.047411643
0.07548412 0.07148567 0.45228955 0.27039725 0.099720456 -0.020374252 0.13424729 0.54976857
-0.123649985 -0.06113528 -0.12000977 0.24049826 -0.09031301 -0.4225892 -0.015000469 0.07504907
00000000: b3ea 1b3d 0e0c 693e b3ae 803e 4642 30be
00000010: ff3b e33d e7af 04be 904d bfbd 725a 803e
00000020: 5079 c7bd 3383 853e 9ac4 773b 47fa bf3d
00000030: 97b5 8ebe d3dd 51bf e215 f9bf a4ca 1bbe
00000040: 82c9 ff3e 1d51 ff3d 4e14 3cbe 8d78 233d
00000050: 3690 4b3e 58ce 543f 1ce7 cd3e dcd0 6ebe
00000060: 2b2b 6f3e 9d56 88bd ec59 0f3f e482 e93d
00000070: 2da2 02be 17bb 74be 7a61 6b3e 5e1a 01be
00000080: 49cc 353e 6499 8f3b 5eed 683e 76f3 a93c
00000090: 2fc3 49be bcb3 20be 723e 953d 598d 7abd
000000a0: 0096 34bc a284 133e 9ee5 113f 9272 7ebe
000000b0: 3e5f 14bd 05fb 023f df90 73bd b632 423d
000000c0: 6b97 9a3d 1467 923d 7f92 e73e 8271 8a3e
000000d0: 3d3a cc3d e7e7 a6bc 1f78 093e a2bd 0c3f
000000e0: 343c fdbd fd68 7abd afc7 f5bd 2d45 763e
000000f0: 07f6 b8bd 9d5d d8be 87c4 75bc 54b3 993d

decoder.bias_ih_l0 f4 [64]
0.18709032 0.036682487 0.18617481 0.017402524 0.00041923457 -0.09104194 0.17086694 0.108877204
-0.30690593 0.06785021 -0.10357531 -0.17524555 -0.0052108658 0.15094574 -0.04041483 0.30452338
0.14174761 -0.2797007 -0.08735996 -0.33314437 -0.39724633 0.1451532 0.15814438 -0.06433269
0.0453144 0.048824664 -0.19787733 0.04516862 0.0560676 -0.3644356 0.36275223 -0.27582034
0.36405948 0.048200507 0.1295411 0.1059388 -0.050839912 0.11686437 0.36314315 -0.031437382
0.079051115 0.036545783 0.042557582 0.12425497 0.017259922 0.074946605 -0.017201891 0.28368104
0.076236874 0.10107989 -0.012045006 -0.10465286 -0.09440131 0.09024538 -0.06698265 -0.18833522
0.11463514 -0.2780073 0.05523901 0.029827971 -0.18327424 0.123117544 0.2221111 -0.093973644
00000000: 9b94 3f3e 6040 163d 9ca4 3e3e bd8f 8e3c
00000010: b6cc db39 3274 babd bef7 2e3e 03fb de3d
00000020: c622 9dbe 0df5 8a3d 4b1f d4bd 9273 33be
00000030: e9bf aabb 8591 1a3e 058a 25bd 7dea 9b3e
00000040: 4926 113e ee34 8fbe c7e9 b2bd e691 aabe
00000050: df63 cbbe 0aa3 143e 9af0 213e dbc0 83bd
00000060: 989b 393d 5ffc 473d 5ba0 4abe bb02 393d
00000070: 24a7 653d 4e97 babe a9ba b93e 5338 8dbe
00000080: 0166 ba3e e56d 453d 6ca6 043e 71f6 d83d
00000090: 833d 50bd 9656 ef3d e6ed b93e 7cc4 00bd
000000a0: 8de5 a13d 08b1 153d dc50 2e3d 6479 fe3d
000000b0: ae64 8d3c 9b7d 993d fbea 8cbc a43e 913e
000000c0: 1422 9c3d f902 cf3d 6b58 45bc 3d54 d6bd
000000d0: 7955 c1bd 92d2 b83d 332e 89bd f3da 40be
000000e0: d4c5 ea3d f956 8ebe 4d42 623d ca59 f43c
000000f0: 3eac 3bbe 0d25 fc3d 1871 633e 4175 c0bd

decoder.bias_hh_l0 f4 [64]
0.47228998 0.05787795 -0.13243875 -0.32132265 -0.33674437 -0.3848364 0.3824557 -0.090810195
0.03001067 -0.04298227 -0.14608312 0.036391098 -0.14050823 -0.11801385 -0.33802134 0.22800721
0.21844947 -0.36372098 -0.030528672 -0.09483503 -0.30728176 0.42678797 0.13737196 -0.38927805
0.122506425 -0.056787442 -0.14005442 -0.089288615 0.044166382 -0.06638032 0.47080022 -0.28600943
0.18401815 0.08879347 0.21249655 -0.12541865 -0.05414358 -0.15543826 0.16724819 -0.17630798
-0.011523033 0.020406472 0.091867894 -0.08278535 0.067442596 -0.09974709 -0.036726173 0.10317309
0.33975273 0.06967423 -0.28426808 0.120691255 -0.34608915 0.0905642 0.076172605 0.11606841
-0.004511223 -0.2261953 0.029685972 -0.31904948 -0.28655303 -0.1420205 0.5616835 -0.090749614
00000000: fecf f13e 6e11 6d3d 069e 07be 6784 a4be
00000010: c269 acbe 4709 c5be 3cd1 c33e b2fa b9bd
00000020: f0d8 f53c 2d0e 30bd d096 15be d50e 153d
00000030: 64e1 0fbe 3fb1 f1bd 2211 adbe b97a 693e
00000040: 38b1 5f3e a339 babe 4417 fabc de38 c2bd
00000050: 0954 9dbe f483 da3e 3cab 0c3e 744f c7be
00000060: a6e4 fa3d f399 68bd 6d6a 0fbe f3dc b6bd
00000070: cfe7 343d 68f2 87bd ba0c f13e d46f 92be
00000080: 416f 3c3e 5ad9 b53d b298 593e bf6d 00be
00000090: a9c5 5dbd 352b 1fbe 1c43 2b3e 148a 34be
000000a0: 1acb 3cbc 792b a73c 3c25 bc3d 5e8b a9bd
000000b0: 581f 8a3d 3448 ccbd 2f6e 16bd 6a4c d33d
000000c0: 12f4 ad3e 5db1 8e3d 968b 91be fa2c f73d
000000d0: 9932 b1be b979 b93d 6200 9c3d 46b5 ed3d
000000e0: e2d2 93bb be9f 67be ff2f f33c 745a a3be
000000f0: 14b7 92be d26d 11be 7dca 0f3f efda b9bd

decoder.weight_hr_l0 f4 [1, 16]
0.3579131 -0.09446582 0.12299066 -0.09015955 0.1070818 0.59031075 0.23881435 -0.23157424
0.031999964 -0.036679406 0.44861373 0.03165447 -0.04309278 0.42085865 0.7569172 0.20810762
00000000: 6340 b73e 4c77 c1bd 87e2 fb3d 92a5 b8bd
00000010: b44d db3d 9b1e 173f c08b 743e cc21 6dbe
00000020: 6512 033d 253d 16bd b3b0 e53e 1ea8 013d
00000030: 0e82 30bd c97a d73e 53c5 413f 2a1a 553e
