output/synthetic_data/models/model_hidden32_lr0.001_clip5.0.pth (torch, 39911 bytes, 9 tensors)

encoder.weight_ih_l0 f4 [128, 1]
000000 39 54 30 3e 6b c3 6c 3d 59 45 27 3e 6d 50 60 be
       0.17219628 0.057803553 0.16335048 -0.2190568
000010 91 79 80 3d 08 90 82 bd 82 16 76 3e 42 8a 23 3d
       0.06273187 -0.06375128 0.24032024 0.039926775
000020 03 e6 29 3d 49 be 21 3e 0d 00 9d bd 32 16 1e 3e
       0.041479122 0.15795244 -0.07666025 0.15438154
000030 24 20 9a bc d0 d6 4a bd 15 7c 53 bd 5e db 00 be
       -0.018814154 -0.049521267 -0.051632006 -0.12583682
000040 d2 f8 16 3e 6f dd 09 be 27 08 e3 bc a3 a9 4f 3e
       0.14743355 -0.13463376 -0.027713848 0.20279555
000050 ec 4e 4d 3e 51 0a 02 3e 56 a8 23 3e e6 10 39 3e
       0.20049638 0.12699248 0.15982184 0.18072852
000060 45 3d 3e 3e 59 71 01 3e 85 4f 65 3e 84 a3 23 bd
       0.1857806 0.12640895 0.22393616 -0.039950863
000070 3c 9a e8 bd 26 9d c3 3d 29 10 fe bd bc d0 2e 3e
       -0.11357543 0.09551458 -0.12405426 0.17071813
000080 c2 b0 81 3e cd 76 33 bd bf 79 08 3e 86 c6 c5 3c
       0.25330168 -0.04381447 0.13327692 0.024142515
000090 4b 58 bb 3c bd cd d9 bd 3f e4 42 3e 13 98 59 3e
       0.02286925 -0.106349446 0.19032381 0.21249418
0000a0 54 6b 0b be 68 e5 a2 bc 3b 37 6b 3e 84 6b 4e 3e
       -0.13615161 -0.01988478 0.22970288 0.20158201
0000b0 a5 f7 35 3d 2c 34 ce bd d0 16 2a 3e c2 79 61 3d
       0.044425625 -0.10068545 0.16610265 0.055047758
0000c0 dc f9 99 3e 17 1c 0f 3e 07 cb 2f 3e 5a fc 87 3e
       0.3007344 0.13975559 0.17167293 0.26559716
0000d0 3e b9 81 3d 83 fd 18 bd 26 e8 16 bd a6 b4 3d 3e
       0.0633416 -0.037351143 -0.036842488 0.18525943
0000e0 c8 eb 75 3e 03 0e dc 3b 7b 52 3f 3e 6a b3 77 bd
       0.24015725 0.0067155375 0.18683808 -0.060473837
0000f0 5f 10 32 3e e6 04 07 bc 7b 84 42 3e 51 fe 92 3e
       0.17389058 -0.008240914 0.1899585 0.28709653
000100 58 8a 59 3e 44 0f c0 3d 73 55 64 bd fe 0a 05 be
       0.2124418 0.09377912 -0.055745553 -0.12992474
000110 18 ee 28 3d ab d6 3b bd 52 8f d3 bc 46 81 26 bc
       0.04124269 -0.04585902 -0.025825176 -0.010162657
000120 d9 48 0d bd 22 4a 5f bd 5b a1 96 3c 66 b7 2d bd
       -0.0344933 -0.054514058 0.018387487 -0.04241123
000130 8c db a1 3d 19 7c 3b bd f4 c7 91 bd a2 22 7f 3d
       0.07903203 -0.045772646 -0.07118216 0.062288888
000140 af f4 0e be f5 38 1d bd 4a ac 93 bc cb 76 95 bd
       -0.13960527 -0.038384397 -0.01802649 -0.072980486
000150 d4 88 be bd c1 d1 82 3d ad b1 9f 3c 3c 77 da bd
       -0.09303442 0.06387664 0.019493902 -0.106672734
000160 c4 a2 dd bd 57 8a 48 be 6a b1 24 3e d2 59 fd 3c
       -0.10822061 -0.19584022 0.16083303 0.030926619
000170 fe 9a f2 bc 5b 38 44 3e 4c 72 dd bd ac 3c 99 3d
       -0.029614922 0.19162123 -0.10812816 0.07482275
000180 31 9b 5f 3e 12 2a ce 3d bb 70 bd bd 23 5d fc 3d
       0.21836545 0.10066618 -0.09250017 0.12322452
000190 14 1a af 3d 84 33 26 bd 29 bf 01 3e 2c 5d 8a bc
       0.08549896 -0.040576473 0.12670578 -0.016890131
0001a0 08 44 72 bd e2 26 c7 b9 1d 47 b3 bc e6 1b 5c 3d
       -0.05914691 -0.00037985208 -0.021884495 0.053737544
0001b0 f7 75 03 3e cd ad 21 3e 7a a3 28 3e e4 95 d4 3d
       0.12837969 0.15788956 0.16468611 0.10380152
0001c0 be ec a3 3d aa 25 4f 3e 23 90 68 3e 98 2a f4 3b
       0.08004139 0.20229211 0.22711234 0.0074513666
0001d0 71 2f 0c be 75 ff d2 3d 7f 4f 50 3d 2d 37 4a 3e
       -0.13689972 0.10302631 0.050857063 0.1974761
0001e0 eb 1b 6c 3e a2 e3 8e 3e 79 9c b8 3c aa d1 23 3e
       0.23057525 0.27908045 0.02253555 0.15997949
0001f0 c4 e3 2f 3e e2 e4 58 3e 74 1d 91 bd d5 88 f4 bc
       0.1717673 0.21181062 -0.07085696 -0.029850403

encoder.weight_hh_l0 f4 [128, 32]
000000 1d f9 b7 bd 88 fc cf bd a5 cf 1d bd d5 5f f9 3b
       -0.089830615 -0.101555884 -0.038528103 0.007610301
000010 0b d8 10 3e 13 b1 99 3d 1d 9f 00 3e 5d 43 ca bd
       0.14144914 0.07504477 0.12560697 -0.0987613
000020 c6 da bd 3c e0 8a f6 3d 17 37 2e be df 53 99 bc
       0.023175608 0.12038207 -0.17013203 -0.01871675
000030 f5 11 54 3d e9 51 13 bd 5a eb 4d be 8c 40 09 be
       0.051774938 -0.035966787 -0.20109311 -0.13403529
000040 01 76 6b 3d 5b 5a 91 bd 13 9c 1c bc 90 70 f6 3d
       0.057485584 -0.07097312 -0.009558695 0.12033188
000050 7b 35 89 3d 25 81 1f be 7d 93 e3 bd 6a a2 e5 bb
       0.06699654 -0.15576608 -0.111121155 -0.0070078867
000060 ea 79 08 be 11 9d a0 be 36 2f 47 3c 28 ae 1b be
       -0.13327757 -0.31369832 0.012157252 -0.15203154
000070 fb e8 c3 3d 94 a5 e0 3c 7c 81 02 3e 6c ee 38 be
       0.09565922 0.027422704 0.12744707 -0.180597
000080 d7 4d 3a 3d af 6c a5 bc 26 2a 0e 3e 59 0e dc bd
       0.04548439 -0.020193426 0.13883266 -0.10744924
000090 9b 98 af bd 3d 56 d6 3d 2e 45 93 bd a5 6c 07 3d
       -0.08574029 0.104656674 -0.07190929 0.033062596
0000a0 04 d6 0e be 06 2d e3 3d 90 fc 0d bd b7 14 c9 ba
       -0.13948828 0.11092572 -0.03466469 -0.0015341257
0000b0 54 65 78 bc 66 f6 2c 3e 32 a2 ac 3d 9d 39 30 bd
       -0.015160877 0.16890869 0.08429374 -0.043023694
0000c0 cb 0b 22 be b2 b9 23 3e 66 d3 d6 bd d3 a6 39 3d
       -0.15824811 0.15988806 -0.1048954 0.04532511
0000d0 cb f6 d6 bd 4f aa 21 be 90 0b 53 3d b1 36 a0 bc
       -0.10496291 -0.15787624 0.0515247 -0.019557329
0000e0 f5 46 ae bc 10 cd 01 be 6d 8f 01 3e 5c 0d 37 bd
       -0.02127407 -0.12675881 0.12652369 -0.044690475
0000f0 42 d7 2d 3e 63 29 a3 bd 73 9b b1 3d 87 d6 2a be
       0.16976646 -0.07966878 0.08672228 -0.16683398
000100 f4 5e b6 3c 47 32 22 be 01 9c 37 be 86 f2 28 3e
       0.022262074 -0.15839492 -0.17930605 0.16498765
000110 73 ac ca bd 72 50 32 3e a2 cb 56 3d 67 cb fb 3d
       -0.09896173 0.174135 0.052440293 0.12294655
000120 44 85 e7 bd f5 95 c4 bd ea b7 bb 3c e5 4a c5 3d
       -0.11304715 -0.095989145 0.022914845 0.096334256
000130 4b 8a ab 3d 92 42 0a ba ec c2 27 3d 51 ce 23 bd
       0.08375987 -0.0005274202 0.040957376 -0.03999168
000140 84 86 2b 3b 60 4d c4 bd 9d 97 e3 bd 46 e8 19 3e
       0.0026172707 -0.095850706 -0.11112902 0.15030012
000150 4b 52 d0 bd 8d 72 47 bd 99 94 de 3d 61 44 db 3d
       -0.10171946 -0.04869323 0.108681865 0.107064016
000160 5d d4 01 be 24 b0 39 bd 37 ae 42 3e fd 57 2d be
       -0.12678666 -0.045333996 0.1901177 -0.16928096
000170 03 b5 b6 bd 5e bc d1 bc 12 d7 8b 3d 5f 51 bf bc
       -0.08921244 -0.025602516 0.06828131 -0.02335423
000180 6a a7 31 be 29 8a 0c 3d cd 33 9d 3d e0 50 64 bd
       -0.1734902 0.034311447 0.07675896 -0.05574119
000190 ca 08 21 be 93 e8 99 bd 10 c8 c8 3d 88 8d 7a bc
       -0.15726009 -0.07515063 0.09803784 -0.015292533
0001a0 2a 7d 03 be 68 00 1d be 9f 4a de 3d 4a ce 6e 3d
       -0.12840715 -0.15332186 0.108540766 0.0583022
0001b0 51 b7 1d 3e 66 29 07 3e 32 58 e7 3d a5 3d 19 be
       0.15401961 0.13199386 0.11296119 -0.14964922
0001c0 95 87 82 3d 4f 5e c4 3d 0c f8 8a bd 76 79 47 3d
       0.063735165 0.095883004 -0.067855924 0.04869982
0001d0 cf d9 20 be d7 03 2e bc 83 c4 03 bd f0 2e 0e be
       -0.15708087 -0.010621033 -0.03216983 -0.13885093
0001e0 21 d6 8f 3e 29 4c f2 3d 17 66 0e 3e 30 b8 35 bd
       0.28093055 0.11830933 0.13906132 -0.044365108
0001f0 50 36 58 bd 32 ac 1a 3e e8 17 86 bd 7f 16 2f bd
       -0.05278617 0.1510475 -0.065475285 -0.042746063
000200 7c 00 f1 bb c8 d4 14 be b5 36 51 be 02 12 14 bd
       -0.007354794 -0.14534295 -0.20431025 -0.036149986
000210 dc b8 4f be f9 e5 f6 3b 4d ce 41 3e 49 7e b6 3c
       -0.20285362 0.007534739 0.18926354 0.022277014
000220 5b d1 eb bd 3a 8d dd bb 5a 2b 3a 3b 1f 3a 4d 3e
       -0.11514541 -0.0067612203 0.0028407187 0.20041703
000230 19 de 0c 3e 74 ff c2 3c f1 2b 84 bd f4 c2 49 3e
       0.13756599 0.02380345 -0.06453694 0.19703275
000240 e5 eb df bd 30 1e 14 3d 09 15 d3 ba d6 07 c5 3d
       -0.10933665 0.0361616 -0.0016104291 0.09620635
000250 30 59 3b 3d 42 2d 40 bd b2 7c c9 3d ba 5d 02 3e
       0.045739353 -0.04691816 0.09838237 0.12731066
000260 95 c6 55 3c 32 ac 4e be cc 73 19 bd b2 bf 33 bd
       0.013047834 -0.20182875 -0.037463948 -0.043883987
000270 fd 8f bc 3c 8b 5e a4 3d 1a d6 95 bd 3a d2 06 be
       0.023017878 0.08025845 -0.07316227 -0.13166133
000280 35 fc 20 be 88 03 0f 3b a2 cb 05 3c 8b df 39 be
       -0.1572121 0.0021822173 0.008166226 -0.18151681
000290 14 34 c3 3b 27 40 10 3e 55 60 75 3d db 8a a7 3c
       0.005957136 0.14086972 0.059906323 0.020451954
0002a0 44 c8 fd bc 95 62 15 3d a6 c4 a3 bd c3 61 68 bc
       -0.030979283 0.03647097 -0.07996492 -0.014183464
0002b0 cc 1d 27 bd f6 47 14 3c c2 b3 22 be f7 83 a6 bc
       -0.0407999 0.00905036 -0.15888885 -0.020326598
0002c0 4b cc b0 3c bf d6 13 3e b6 b7 8e 3d c8 f3 01 bd
       0.02158179 0.14437388 0.06968634 -0.03172663
0002d0 1c f0 38 be 1c 02 15 be 7a 79 82 bd 82 88 7c 3d
       -0.18060344 -0.14551586 -0.06370826 0.06165362
0002e0 d3 ee e5 bd 6b 8e 7d be 70 df 3e 3e 39 2a 4f 3d
       -0.11227193 -0.2476136 0.18639922 0.050577376
0002f0 0e df a9 3c 61 86 d7 bd 6f 42 3f bd e6 e1 68 bc
       0.020736244 -0.105236776 -0.046694215 -0.014214015
000300 0f b0 4b bc 2d 40 83 3d dc e6 11 3d e8 d0 a4 3d
       -0.012432112 0.06408725 0.035620555 0.08047658
000310 0e 40 fc 3d de 74 4a bd 74 29 45 bc 58 5f ea bd
       0.12316905 -0.04942786 -0.012033809 -0.114439666
000320 3c 5e b8 bd 80 9b 9d bd aa 3e 94 3c 62 0f 05 bd
       -0.09002349 -0.07695675 0.018096287 -0.032485373
000330 9c 3b 7e 3c af 51 b1 3d f1 2c 2e be 2a b4 c8 3d
       0.015517142 0.08658158 -0.17009331 0.097999886
000340 08 01 b4 3d 5e 82 00 3e 9a 76 f8 3d e8 d7 56 3d
       0.08789259 0.12549731 0.121319965 0.052451998
000350 61 1b 0b be 46 d2 f1 3d 5d 79 1c 3e 15 e2 8c 3b
       -0.13584663 0.118076846 0.15280671 0.004299412
000360 07 98 57 3d 59 bd 42 be ca 7b 22 3e e6 82 2f 3d
       0.05263522 -0.19017543 0.15867534 0.042849444
000370 d8 8d 6b bd 3c 03 c4 3d 80 80 33 be 7d 16 49 3d
       -0.05750832 0.095709294 -0.17529488 0.049093712
000380 45 b3 58 3e ac 1b 23 be 9d ae 10 3d 82 20 a3 3d
       0.21162136 -0.15928525 0.035322774 0.07965185
000390 85 13 27 bd bb 7b da bc b7 25 48 3e a1 8c b3 3d
       -0.0407901 -0.026670327 0.19545637 0.08767057
0003a0 3f 87 e5 3d 75 70 2b 3e dd 62 09 bd 11 ba 76 3d
       0.11207437 0.16742118 -0.03354155 0.06023604
0003b0 4f bd 9c bd be 67 5b 3d 1b 17 85 3d 9b 2c 82 3d
       -0.07653295 0.053565733 0.06498548 0.06356164
0003c0 68 6b 05 3e 6d 85 1d 3e 18 76 3f bd 19 2b d2 3d
       0.13029253 0.15382929 -0.046743482 0.102621265
0003d0 36 2d 01 be 68 aa 15 be 9e 66 03 3d c9 38 2b bc
       -0.12614903 -0.14615786 0.032080285 -0.01045055
0003e0 09 f1 03 bd cf 33 3c be 19 d0 29 3e d3 99 15 be
       -0.03221229 -0.18379138 0.16583289 -0.1460946
0003f0 57 59 cb 3d 0d d4 04 3e 61 6d 79 bd 4f 97 00 be
       0.099291496 0.12971516 -0.060895327 -0.1255772

encoder.bias_ih_l0 f4 [128]
000000 db c3 36 bd 1b 13 f9 3d 38 47 00 3e 5a f5 03 be
       -0.044620376 0.12161847 0.12527168 -0.12886563
000010 02 85 bd bc 80 f2 fc bd 3b 2e 36 3e d5 21 37 bd
       -0.023134712 -0.12350941 0.17791073 -0.04471
000020 d1 1e 0d be b6 38 74 3d e1 bf bf bd 81 c2 d3 bb
       -0.13781287 0.059624396 -0.0936277 -0.0064623957
000030 41 6f 4b 3e d0 de 4e bd 2e 2a d9 bc aa 73 29 be
       0.19866659 -0.05050546 -0.02650937 -0.16548029
000040 95 2e f6 3d 93 46 21 3e 85 d1 67 3d d4 03 27 3e
       0.120206036 0.15749578 0.056596298 0.16310054
000050 1b 9e f7 bd 47 72 d9 3b 94 ba fe bc a6 5d 8a 3c
       -0.12090703 0.0066359374 -0.031094827 0.016890358
000060 25 2a e7 bb 94 c5 4b 3a 0d 1c e3 bd d3 2e 6c 3d
       -0.0070545846 0.0007773277 -0.11089335 0.057661843
000070 5c a7 dd 3d 3d 4e af 3d 78 6b 8b 3d 76 eb e0 ba
       0.10822937 0.08559845 0.068076074 -0.0017160017
000080 77 2d a6 bd 66 7b 2c 3e 31 d8 a6 bd d6 32 a9 3d
       -0.081141405 0.16843948 -0.08146704 0.08261649
000090 4d 27 13 3d 74 fc 48 bd 69 f5 e9 3d f2 c9 42 3d
       0.035926152 -0.049068883 0.114237614 0.04755587
0000a0 e1 d2 1a 3e 67 5f c7 bd 9e 01 c2 3d a3 16 a4 3d
       0.15119506 -0.097349934 0.09472965 0.0801213
0000b0 11 e5 88 3d 6d 56 75 3b 5c 5e ed 3d 55 ed ff bd
       0.06684316 0.0037435547 0.11590263 -0.12496439
0000c0 2a b2 d4 bc 45 0d 04 be 1e 3f 8c bd a7 8f 17 be
       -0.025963861 -0.12895687 -0.06847976 -0.14800893
0000d0 48 51 91 3c 09 8b e0 3d 2c 2f 60 3d cf c4 ba 3d
       0.017738953 0.10964019 0.054732487 0.091195695
0000e0 fe 2e c8 3d 0e 3c 32 3e c1 c6 41 3c c6 65 3e 3d
       0.09774588 0.17405722 0.011827172 0.046483777
0000f0 31 87 a3 3d 22 ee f6 3d d3 45 c7 bd e6 64 5a bd
       0.0798477 0.12057139 -0.09730115 -0.05331888
000100 27 33 98 bd b1 79 10 3e 4e 17 63 3d 8b 48 85 bd
       -0.074316315 0.14108922 0.055442147 -0.06507977
000110 20 b3 5b bd 8f 11 d5 bd 2d 98 24 3e c8 b9 d7 bd
       -0.053637624 -0.1040374 0.16073675 -0.10533482
000120 76 ba 3c 3d a5 5e 30 3e e8 f1 08 be de fe c3 bd
       0.04607626 0.17223604 -0.1337353 -0.095700964
000130 74 5e 2b be 64 55 5f 3d 98 d7 15 be f7 a9 37 3d
       -0.1673525 0.054524794 -0.14633024 0.044839825
000140 78 17 32 be 17 2a 91 bd d0 f1 33 3c 08 b2 a2 3c
       -0.17391765 -0.07088106 0.010982946 0.019860283
000150 28 74 42 be b6 d9 27 be 1b 62 18 3e cd ef 39 be
       -0.18989623 -0.16391644 0.14881174 -0.18157883
000160 2b 6f a4 3d 3f bc e3 bd 0e bb a9 3d 18 90 10 be
       0.08029016 -0.111198895 0.08287631 -0.14117467
000170 b9 ff 15 be 54 17 ae bd e5 bf 06 be 3e df 72 bd
       -0.14648332 -0.08500543 -0.1315914 -0.05929493
000180 66 89 28 bc b4 0b d1 3d 7a 3b 92 3d 84 6a e9 3d
       -0.010286665 0.1020731 0.071402505 0.11397269
000190 b8 17 76 3d 1f 63 3c bd a7 e5 ab bc a0 78 fa bd
       0.060081214 -0.045992967 -0.02098353 -0.12230039
0001a0 3e 39 de bc f6 35 21 bd 8f 59 e0 3d bd c2 04 3e
       -0.027126905 -0.0393581 0.10954582 0.12964912
0001b0 51 29 b0 bd ef 02 05 bd 44 e5 03 be 7b a8 dd bc
       -0.086016305 -0.0324735 -0.12880427 -0.027057877
0001c0 f5 bd 6d bd 62 15 d6 bd 91 23 17 3d b4 45 d1 bc
       -0.058042485 -0.10453297 0.036899153 -0.025545932
0001d0 17 d6 e4 bc 26 4e d8 3d 21 47 0c be 87 38 ed 3d
       -0.027934117 0.10561781 -0.13699009 0.11583047
0001e0 45 b6 f8 3d cd 3b a1 3d 84 35 52 3e 28 a1 b5 bc
       0.1214414 0.07872734 0.20528227 -0.022171572
0001f0 bc 3f 0a bd f9 6e 46 3e b1 2e 10 3b e2 8e 85 3d
       -0.033752188 0.1937827 0.0022000486 0.06521393

encoder.bias_hh_l0 f4 [128]
000000 a8 4d 07 be a9 02 a2 bd 48 ff 24 3e b3 1b ed 3d
       -0.13213217 -0.07910664 0.16113007 0.11577549
000010 d7 59 33 3e c2 c0 93 3d dd b0 4f bd 3f 1c eb 3c
       0.1751474 0.072145 -0.05070578 0.028699992
000020 46 a0 04 bd ae 98 43 bd 7a 4d 07 be 1b df 71 3d
       -0.03237941 -0.04775303 -0.13213149 0.05905066
000030 80 d5 4e 3e 41 aa e4 3d 0b 40 d4 bb 80 9b 1f 3d
       0.20198631 0.11165286 -0.006477361 0.038966656
000040 23 91 81 3d e6 01 c8 bd 36 aa ab ba b8 a4 18 3c
       0.06326511 -0.09765987 -0.0013096991 0.009316616
000050 bc 9a 44 3b b5 73 50 3c b1 fd 4b 3d 32 47 0c be
       0.0029999455 0.012722899 0.049802486 -0.13699034
000060 78 da 4c 3d 72 e4 19 3e f6 3a 1e 3e b0 c9 99 3b
       0.050013036 0.15028551 0.1545218 0.0046932325
000070 03 e0 2c 3e 8b 78 b8 3d 25 f2 1d bd cf 41 7f bd
       0.16882329 0.09007367 -0.038561005 -0.06231862
000080 67 2e 43 3e e9 30 c7 bd c6 68 09 bd 57 7f 91 bd
       0.1906067 -0.09726126 -0.033547185 -0.07104366
000090 f4 94 9a bc 13 e2 24 3d 8f 13 d0 bd 23 72 e4 bd
       -0.018869855 0.040254664 -0.101599805 -0.11154582
0000a0 3d 29 2b 3e 12 57 73 bd 37 8b 8d bd 39 e6 e5 bd
       0.1671495 -0.05940921 -0.06911319 -0.11225552
0000b0 6e c3 2d 3e 53 08 e3 bd b5 53 e0 bd fc 84 0e 3c
       0.16969082 -0.11085572 -0.10953466 0.008698698
0000c0 8f 88 ab bd 96 d8 21 3e 50 4d 9c 3b b6 da 18 3d
       -0.08375656 0.15805277 0.0047699586 0.037317954
0000d0 82 63 bc bd a6 04 4a bc e3 35 ae ba 9b cd 77 3d
       -0.09198667 -0.01233021 -0.0013291206 0.060498815
0000e0 b6 6f 9e bd ce 53 c4 3d 0d 39 1e 3e a1 78 c9 3c
       -0.07736151 0.09586297 0.1545145 0.024593653
0000f0 b8 7e 07 be cd 76 e7 bd b6 6b 0a be f7 42 c4 bd
       -0.13231933 -0.11301956 -0.13517651 -0.09583085
000100 76 f8 36 3e e5 74 1a 3e 03 68 41 be e4 e4 b0 3d
       0.17868218 0.15083654 -0.18887334 0.086374074
000110 8a 2c 58 bd f8 57 a6 3d 9a 36 9c bd ba 06 b3 3b
       -0.05277685 0.081222475 -0.07627602 0.0054634484
000120 80 c9 39 be 81 f5 41 3e 26 9b 2b be 47 f1 d7 3d
       -0.18143272 0.18941309 -0.16758403 0.10544067
000130 d7 2a 16 be 89 92 28 3e e4 b1 9f bd 27 49 ca 3d
       -0.1466478 0.16462149 -0.07797602 0.09877234
000140 81 92 e4 3d 41 15 c0 3c 4a f6 46 be 11 a7 24 3e
       0.11160756 0.023447635 -0.1942989 0.16079356
000150 89 33 09 be c3 39 bc bd a5 ce 80 3c 13 2f f6 bd
       -0.13398565 -0.09190705 0.015723536 -0.120206974
000160 83 c9 0c 3e 03 ca 34 3d c5 99 bb bd 1e 05 09 be
       0.13748746 0.044137966 -0.091601886 -0.13380858
000170 1f d8 52 bd f2 c2 3c 3e 51 63 08 be fa 4d 8c bd
       -0.05147564 0.1843374 -0.13319136 -0.0685081
000180 e2 86 da bd c1 08 9f 3d 24 18 38 bb 33 c1 38 3e
       -0.10670258 0.077653416 -0.002809056 0.1804245
000190 5b 6d 4e 3d d0 1d 18 bd e2 dc 3b bd b1 b1 3d 3e
       0.05039726 -0.037137806 -0.045864947 0.18524815
0001a0 1f 18 04 3c ec 14 03 3d 0f 43 45 3e f9 c2 44 3e
       0.008062392 0.032002375 0.19263862 0.19215001
0001b0 96 4d 97 3c ce 7e 9d bd 20 3b 5a 3e 22 ad 1c 3d
       0.018469613 -0.07690202 0.21311617 0.03825105
0001c0 49 b4 eb bd dc 1b 28 bd cc 21 02 be 0d ed 46 3e
       -0.11508996 -0.041042194 -0.12708205 0.19426365
0001d0 bd 83 0b be df 3d 2b 3e 46 e9 d3 bc 44 9f d0 3d
       -0.13624473 0.1672282 -0.02586807 0.101866275
0001e0 82 54 af 3d 5c 37 90 3e 10 23 66 3d 4b 27 47 3e
       0.085610405 0.28167236 0.056185782 0.19448583
0001f0 78 f3 82 bd 70 3e ea 3d 89 41 42 bd c2 f1 06 be
       -0.06394094 0.1143769 -0.04742578 -0.13178161

decoder.weight_ih_l0 f4 [128, 32]
000000 ce 79 c9 3d 86 cc d9 3c ed 89 f7 3c 46 57 2c 3d
       0.098376855 0.026586782 0.030217135 0.042075418
000010 16 71 28 3d e2 53 f7 3c 7f 72 dd bc e8 7a 46 be
       0.041123472 0.030191366 -0.027032135 -0.19382823
000020 4d f4 06 3e fa 99 f5 3d d3 b7 f0 bd f2 f0 99 3d
       0.13179131 0.11992259 -0.11753812 0.0751666
000030 6c 1d 10 be e4 61 6b 3c 12 4a 2d 3d 97 41 c8 3c
       -0.14073724 0.014366601 0.042306967 0.024445338
000040 28 a9 9a bc f0 de 81 bd a5 04 15 bb 21 e2 7c 3d
       -0.018879488 -0.0634135 -0.0022738364 0.06173909
000050 a8 72 2c 3d 66 6b f8 3c 25 06 9e bd e2 26 3a bd
       0.042101532 0.030324649 -0.07716016 -0.045447238
000060 57 64 b2 bd e5 76 01 3d fc 9a 3f bc 97 c0 32 be
       -0.087105446 0.031607527 -0.011694666 -0.1745628
000070 6f f8 bb 3d c2 14 a7 3d 0f a6 ce 3c 06 22 c8 3d
       0.09178244 0.08158256 0.025225667 0.097721145
000080 2e b2 e6 3d 43 3f 4e be 08 f2 13 bd 6e da ac be
       0.11264454 -0.2014132 -0.03611949 -0.337604
000090 96 5a 2c be 7a 3b 9e 3e f4 80 dd 3d 9c 2a 94 be
       -0.16831431 0.30904752 0.108156115 -0.28938758
0000a0 4a 30 1c be 4c 88 13 bd 75 52 90 be 90 95 fa 3d
       -0.15252796 -0.036018655 -0.2818791 0.12235558
0000b0 23 c2 17 be 39 18 6f 3e b1 73 4a be cb c4 c6 bd
       -0.14820151 0.23349084 -0.19770695 -0.09705504
0000c0 e9 e4 f1 bd 84 06 4c 3e 6c fe 44 3d 89 44 ce 3d
       -0.11811239 0.1992436 0.048094198 0.10071666
0000d0 c5 72 9c 3d 37 8f ea bd 88 b3 42 3e c4 13 65 3d
       0.07639078 -0.11453097 0.19013798 0.055927053
0000e0 87 9a 85 be 9b 8d bf bd 90 99 5e 3e 58 42 6f 3b
       -0.26094458 -0.09353181 0.21738267 0.003650805
0000f0 ba 68 7a 3d 55 f9 64 3e a0 65 ef bd 0c 67 7b bd
       0.06113503 0.22360738 -0.11689305 -0.06137757
000100 13 86 b2 3d 15 68 64 bd 75 5e 60 bd 10 70 0e 3d
       0.08716979 -0.055763323 -0.05477758 0.03477484
000110 96 86 ba bd 3a 68 73 3d 47 d5 19 3c ba 97 11 3e
       -0.091077015 0.05942557 0.009389228 0.14218035
000120 95 a2 59 bd e9 ef f9 3d dc 6c 53 3d 84 8d a6 bd
       -0.053133566 0.12203962 0.05161749 -0.08132461
000130 36 1e 3e be 1f 54 11 be e2 4b 75 bd 03 55 e4 3c
       -0.18566212 -0.14192246 -0.05988682 0.027872568
000140 e3 6a 9f bc 2f ca da bd 28 7b 03 be c1 66 a8 3d
       -0.019460147 -0.10683095 -0.12839949 0.08222724
000150 3c b8 a6 bd 5a 16 e4 bd f1 01 53 3e c5 02 de 3c
       -0.08140609 -0.11137076 0.2060621 0.02710093
000160 03 2a 16 bd 66 dd 33 be db ab cd 3d f5 bf d1 bd
       -0.03666116 -0.17564926 0.100425445 -0.10241691
000170 26 7b 07 3c cf 7b 19 3e b7 ab d8 3c d0 75 00 bd
       0.008269107 0.14988635 0.026449068 -0.031362355
000180 80 f9 4d 3e b0 f4 31 3e b9 66 8a bd fc e3 56 3d
       0.20114708 0.17378497 -0.06757874 0.052463517
000190 9b 3c f6 bb 0f 69 25 bd 68 4f a9 bd 14 76 55 bd
       -0.007514549 -0.040383395 -0.08267099 -0.05211456
0001a0 33 a6 58 bd 6d 1a 4c 3e a6 3c 71 bd ed e9 8d bc
       -0.052892875 0.19931956 -0.05889573 -0.017323459
0001b0 d4 0e 9a bd b9 c3 4c 3e 6b ab 53 bd 54 fd 04 be
       -0.075223595 0.19996537 -0.05167715 -0.12987262
0001c0 2a a4 9a 3d af c8 34 3d 0a f5 5f bb 34 49 b1 3d
       0.07550843 0.0441367 -0.0034173154 0.086565405
0001d0 bb 75 65 bd 4c d0 11 be 8a 52 0b 3e 17 4a a9 3d
       -0.05602048 -0.14239615 0.13605705 0.08266085
0001e0 a4 34 91 3d b8 9a a1 3c 7d 61 5a 3e 32 c1 17 3d
       0.070901185 0.019727096 0.21326251 0.03704948
0001f0 12 e1 42 be ff 97 46 3e d7 0d 84 3c f1 1e e9 bd
       -0.1903117 0.1939392 0.01611988 -0.11382855
000200 cd ac 12 3d 07 1e e2 bb 6f 51 8a 3d 3a e3 18 3e
       0.035809327 -0.006900552 0.067538135 0.1493043
000210 8e c3 23 3d 5b a0 be 3b bc 2a 80 bd 25 61 0d be
       0.039981417 0.0058174557 -0.06258151 -0.13806589
000220 3b d1 d9 3b 2d e1 ca 3d db 4f d4 3d da 50 2b 3d
       0.0066472567 0.0990623 0.10366794 0.041825153
000230 1f 24 17 39 9c 53 b9 3d 11 1e f6 3d 2c 36 7d bd
       0.00014413938 0.0904915 0.120174535 -0.06181924
000240 c3 68 eb 3d 01 cf c9 3d e6 c3 1c be 3b 7f 0b 3c
       0.11494591 0.09853936 -0.15309104 0.008514221
000250 5d 8f a4 3d 71 cb 0d 3d 25 51 aa bd 74 4b d7 3d
       0.08035157 0.034617845 -0.08316258 0.105124384
000260 6c b8 35 bd 9c 44 18 bd 1d 06 c9 bd 52 af a8 bd
       -0.04436533 -0.037174806 -0.09815619 -0.08236565
000270 98 a8 3d bc b0 cf db bd 27 62 fc 3d 5c 50 1f 3e
       -0.01157584 -0.107329726 0.123234086 0.15557998
000280 ea b4 a8 3d 65 bb 23 3d 1f ea a2 bb 81 2c 4d be
       0.082376316 0.039973635 -0.004971757 -0.20036508
000290 f9 4b cc bb 42 3f 2d 3e 7f a9 c7 3c 4a 66 e9 3d
       -0.0062346426 0.16918662 0.024372814 0.11396463
0002a0 a0 92 3a bd a4 15 ac bd a7 44 4d bd 4b 33 08 be
       -0.04554999 -0.08402565 -0.0501143 -0.13300817
0002b0 54 7d ab 3d 4c 73 75 bd 26 72 d5 bc fd 94 46 3c
       0.08373514 -0.05992441 -0.026055407 0.0121204825
0002c0 65 20 a6 bd 0a 63 a0 bd 30 4a 79 bb e3 0a 27 bc
       -0.081116475 -0.0783139 -0.0038038604 -0.010195467
0002d0 d1 54 ca 3d ba ce 0a bd 15 6e 52 3e 4b 14 8b bd
       0.09879459 -0.033888556 0.20549805 -0.0679098
0002e0 89 07 5a bb 79 c0 a5 3d 7d 0d 4c 3d cb e0 40 be
       -0.0033268651 0.08093352 0.04981755 -0.18835752
0002f0 5a 37 dd 3d 56 bd 48 3e 6c 93 74 bd d0 17 4f 3c
       0.10801573 0.19603476 -0.059710905 0.012639955
000300 47 01 1d 3e 47 69 90 bd b2 0f e4 bd db 5f 23 be
       0.15332519 -0.0705133 -0.11135806 -0.15954535
000310 2e 6d 9a bd 96 76 10 3e f7 e4 5c 3e 45 62 84 be
       -0.075403556 0.14107737 0.21571718 -0.25856224
000320 5c 37 5a be ed 3c a1 3c c8 d2 69 bc 02 29 5d 3e
       -0.2131018 0.019682372 -0.014271446 0.21597674
000330 46 d4 27 be e2 ea 47 3e 8b 86 a7 bd 0f 0e 84 bb
       -0.1638957 0.19523194 -0.08179959 -0.004029996
000340 a4 d0 cc bd 3d d0 50 3e 0c 80 3a be 22 89 7a 3d
       -0.100007325 0.20391937 -0.18212909 0.061165936
000350 64 59 14 bd ed b1 fe bd 08 87 af 3e 9d a2 96 be
       -0.036218062 -0.124362804 0.34282708 -0.2942094
000360 79 27 ad bd f8 00 1a be 7b b5 85 3e f4 8d cb bd
       -0.084547944 -0.15039432 0.2611502 -0.09939185
000370 a9 ec b5 bd 85 3e 92 3c 93 cd 80 be 7a cc bf bd
       -0.0888303 0.017852077 -0.2515684 -0.09365173
000380 56 d3 89 3d b6 6f 02 3d d1 16 00 3d 6f e4 8b bd
       0.06729762 0.031844817 0.03127176 -0.068306796
000390 d9 aa 38 bd f9 81 c8 3d 5e d8 84 bd e1 e5 f7 3b
       -0.045084808 0.09790415 -0.06486581 0.0075652455
0003a0 97 fa 88 bd 92 db 2e bd 6b 8a 13 be 40 f2 a6 3d
       -0.06688421 -0.042689867 -0.14408271 0.08151674
0003b0 20 5a 9e bc db dc 69 bd 17 12 0f be 59 63 30 bc
       -0.019330084 -0.05709539 -0.13971744 -0.010765874
0003c0 d7 e7 5d 3d 78 a4 0e 3e b8 06 d8 3d e9 4d 29 3e
       0.054176178 0.13929927 0.105481565 0.16533627
0003d0 63 76 9c 3d 73 3c 05 3d f1 d5 42 3e e2 0c 38 be
       0.07639768 0.032528352 0.19026925 -0.17973664
0003e0 c4 9c 92 bd 88 5b 60 be 0a 77 77 3d 21 5e 02 3e
       -0.07158807 -0.21909916 0.06041626 0.1273122
0003f0 50 40 af bd 86 11 e5 3d 8a 7c eb bd b1 5f 28 bc
       -0.085571885 0.11184983 -0.11498363 -0.010276721

decoder.weight_hh_l0 f4 [128, 1]
000000 45 52 4e 3e a6 00 b1 3d ad 38 50 bc 79 14 bd 3c
       0.20148571 0.08642702 -0.012708825 0.023081051
000010 eb b1 fb 3d 35 30 e7 3c 83 e8 aa 3e d5 e9 c0 3b
       0.122897945 0.02822123 0.33380517 0.00588725
000020 a8 50 38 3d 0c 87 fc 3d ec 9e 05 3e 1a 94 3d be
       0.044998795 0.12330446 0.13048905 -0.18513528
000030 60 f5 b8 3d 57 ab 7d 3e 3c 5b 56 bd 3c 2e 74 3e
       0.090311766 0.24772392 -0.0523331 0.23845762
000040 b5 fd 69 3e a4 97 86 3d 6a 2a 3a bd 16 87 86 bd
       0.22850688 0.06571892 -0.045450605 -0.06568734
000050 cd 72 81 bd cb 6c 47 bd 74 9f 33 be db bf 35 3e
       -0.06320725 -0.048687737 -0.17541295 0.17748968
000060 63 91 20 3e 0b 9f 89 3d 10 25 27 be 3e 66 e2 bc
       0.1568046 0.06719788 -0.16322732 -0.027636643
000070 77 b1 55 bc cb d5 82 be a2 8f 9b 3b 9c b9 4c 3e
       -0.013042799 -0.25553736 0.004747347 0.1999268
000080 75 ed 44 3e 88 7d 22 be 99 ac 06 3e 8e 66 40 3e
       0.19231208 -0.15868199 0.13151778 0.18789122
000090 4c 73 2f 3d 94 e4 f2 3c c2 b4 d2 3e e6 94 9f bc
       0.042834565 0.02965001 0.41153532 -0.01948018
0000a0 31 51 45 3e 6c 1c c2 3c 71 28 9f 3d 8f 9a c5 be
       0.19269253 0.023695193 0.077713855 -0.3859448
0000b0 69 44 92 bd 60 45 4f 3e de 03 a0 be 7f aa d9 bd
       -0.071419545 0.20241308 -0.3125295 -0.10628223
0000c0 44 9a 0d 3e 2e c3 74 3e ce 77 4b bd 7d a4 d5 bd
       0.13828379 0.2390258 -0.0496748 -0.10431764
0000d0 63 6f 5c bd 23 4f 83 3c a8 71 c5 3d 8c fb ea bc
       -0.053817164 0.016028946 0.09640819 -0.0286844
0000e0 47 bc 5e 3c f6 0c 2e bd 25 4b d4 3d 83 46 ae bd
       0.0135946935 -0.04249283 0.10365895 -0.08509543
0000f0 14 a4 00 3e 6d 7e a3 3e ca 24 ff bd 09 27 90 bc
       0.12562591 0.31932393 -0.12458189 -0.017596738
000100 65 a1 87 bd b5 05 9a be 20 3d 0b bd 0c 90 90 bd
       -0.066225804 -0.3008248 -0.03399384 -0.07058725
000110 e3 17 27 bd 49 e5 97 bd 34 8c 8c 3e e1 f5 17 3c
       -0.040794265 -0.074167795 0.27450716 0.009274931
000120 2c ee c3 3d 10 70 b0 be 28 60 b4 bd 23 c5 bf 3d
       0.09566912 -0.34460497 -0.08807403 0.09363773
000130 ff 61 90 3e a8 3a 90 3c fa 37 0a 3d 9f 82 c1 be
       0.28199765 0.017606094 0.03374479 -0.37794968
000140 d4 4c 3e bd ef 68 3a 3d f8 1a 56 3d 9c 9f 02 bd
       -0.046459988 0.04551023 0.052271813 -0.031890497
000150 89 b3 53 3c 39 58 ee bd 5e b2 4d 3e b7 13 ea bc
       0.0129212225 -0.11637921 0.20087573 -0.028573854
000160 fe 9d 60 3b cb 9f ad bd ca b6 ea bc cc f6 5c bd
       0.0034273858 -0.08477744 -0.028651614 -0.0539463
000170 50 6f d7 bd 7d 94 0f bd d1 06 06 3d ea b8 f5 bd
       -0.10519278 -0.03505372 0.032721344 -0.1199816
000180 4f 9e 7c 3e 41 9d 24 be 14 5c 76 3e b3 38 a7 3d
       0.24669765 -0.16075613 0.24058563 0.081651114
000190 26 b2 9f 3d 24 c1 92 bd 30 5f 70 3e 1f 85 65 be
       0.07797651 -0.07165745 0.23473811 -0.22414063
0001a0 48 67 5a 3e e1 01 92 bd 5f 9b 84 3e d4 a0 6f be
       0.21328461 -0.071292646 0.2589979 -0.23401195
0001b0 6a cd ef bd ae 0c 99 3c 14 f6 50 be 31 10 fa 3d
       -0.117091015 0.018682804 -0.20406371 0.122101195
0001c0 7a 34 a3 3d 41 dc 04 bd bf f6 f4 bd 42 a2 fe bd
       0.079689935 -0.032436613 -0.119611256 -0.12433292
0001d0 b1 3e 15 bd d9 fd 11 3e 3d 0e 98 3b 52 3f 1d 3e
       -0.03643674 0.14256991 0.004640369 0.15356186
0001e0 9d c7 0d 3e 57 74 88 3e 2f 7c be 3c c9 ca f8 3d
       0.13845678 0.2665126 0.023252575 0.12148053
0001f0 8a 51 31 bb 3d 34 cc 3d d4 11 a8 3d 15 dd 4e 3e
       -0.0027056658 0.09970901 0.082065254 0.20201524

decoder.bias_ih_l0 f4 [128]
000000 79 04 49 3e 26 6e 09 3e db 9e 51 bd b3 16 3a 3e
       0.19630612 0.13420925 -0.051176887 0.18172722
000010 e2 d3 24 3e 11 fd 1c 3e 70 e4 86 3e b4 db 8b 3d
       0.16096452 0.15330912 0.2634616 0.068290144
000020 8f ba 24 3c 93 ae 7a 3e 4d 8b 50 3e dc 28 f7 3d
       0.010054245 0.24480657 0.20365639 0.1206834
000030 e8 1c a9 bd 53 0a 47 3d 5c 70 0e 3d ac e8 15 3e
       -0.082574666 0.04859383 0.034775123 0.14639539
000040 97 c1 55 3b e6 0d 03 be 06 85 6a 3d ce 90 1e be
       0.003261661 -0.1279827 0.057255767 -0.15484926
000050 9e 4b f3 3d 85 17 f7 bd 5c 50 c8 3d b0 13 4d 3d
       0.11879657 -0.12065033 0.09780952 0.050067604
000060 88 34 23 bd a3 57 ad bd 23 c0 46 be 09 8f 3a 3e
       -0.03984502 -0.08463981 -0.19409232 0.18218626
000070 d7 4d 39 bd 9e fc 87 3d 21 8d 82 3c 0b 5e 48 3d
       -0.04524025 0.0663998 0.015936436 0.04891781
000080 4f 92 ac 3d 41 97 da 3d b0 51 af 3d 2c 37 ac ba
       0.08426344 0.10673381 0.085605025 -0.0013139001
000090 36 86 cd 3b a0 68 4c be 65 8b 84 3e f6 fc 2b 3e
       0.0062721027 -0.19961786 0.258876 0.16795716
0000a0 30 7f 54 bd af e9 08 be ec a1 06 3e 9c c1 2e 3e
       -0.051879108 -0.13370393 0.13147706 0.17066044
0000b0 9a cf c5 3d ab 51 39 3d aa 0d ea bd 0f db 45 be
       0.096587375 0.0452439 -0.114283875 -0.19321845
0000c0 bc 4a 4c bd 72 f0 48 be 10 a7 71 3c 5e 68 bd 3d
       -0.04987596 -0.19622973 0.014749303 0.09248422
0000d0 a5 68 90 3c c3 1e 2f 3c 28 e0 12 3e 3a e6 c4 bc
       0.017628023 0.0106884865 0.14343321 -0.024035562
0000e0 3d a3 1d be 93 ab be bc ef 5c 55 bd 7f 11 94 3d
       -0.15394302 -0.023275172 -0.05209058 0.072298996
0000f0 5f 9f bc bd 68 0e ea 3e 9b b1 46 be b1 1b 2d be
       -0.09210085 0.45714116 -0.19403689 -0.16905095
000100 91 03 ff 3d 9d 8a fb 3d 69 ab 05 3e 7e 0f 0e be
       0.12451852 0.12282298 0.13053669 -0.13873097
000110 ec 06 d9 3c 81 3e 8c 3d 41 f2 38 bd 20 93 00 bd
       0.026492558 0.06847859 -0.045152906 -0.03139031
000120 68 b3 2b be 0d a5 93 3d 77 68 9c 3d 2e 8d 11 3e
       -0.16767657 0.07209215 0.076371126 0.14214012
000130 5d fd 18 3b b6 48 10 be 2b 96 29 3d e4 7e 0e 3c
       0.0023344376 -0.14090237 0.041402977 0.008697245
000140 c2 5e a4 bc 50 c1 d3 bb d4 46 72 3d 1a 76 19 be
       -0.020064715 -0.0064622536 0.05914958 -0.14986458
000150 f3 73 c4 bd 75 e7 76 bd 15 c7 32 3e b8 ed f5 3d
       -0.09592428 -0.06027933 0.17458756 0.12008232
000160 50 84 22 3d 2a 64 f8 bc b1 34 9f bb 32 f8 0e be
       0.039676964 -0.0303212 -0.004858576 -0.13961866
000170 aa 7e fb bd ae 36 e2 3c 7f 0c 64 bd 66 a1 0e be
       -0.12280019 0.027613964 -0.05567598 -0.13928756
000180 a4 a3 9b 3d 00 ae 09 be 73 84 c0 3d 99 d9 6a bd
       0.07599571 -0.13445282 0.09400263 -0.057336424
000190 9f 59 a1 bd 88 e6 40 3e f1 31 47 3e 12 25 18 bc
       -0.07878422 0.1883794 0.19452645 -0.009286182
0001a0 65 29 38 bc bc 2a 1c bd 5c 7f 97 bb e0 d7 38 3d
       -0.011240338 -0.038126692 -0.0046233367 0.04512775
0001b0 19 87 8f bb de c1 17 3e 82 49 32 be b8 ef 71 3e
       -0.0043801186 0.14820048 -0.17410854 0.23626602
0001c0 42 96 46 3c 67 85 f5 bd b8 49 12 3e 78 5f ea 3d
       0.012120785 -0.11988335 0.14285934 0.114439905
0001d0 e7 9c 25 3d ae 09 a9 bc 13 aa e4 3d 69 85 ba bd
       0.040432837 -0.020634498 0.111652516 -0.09107477
0001e0 d5 fa 6b 3d 29 8d c2 bd 3b 3b a0 3d 97 92 c7 3d
       0.05761226 -0.094995804 0.07823797 0.09744757
0001f0 95 a3 07 3e 17 b3 a7 3e 4f 3c bf 3d f3 de 8d bd
       0.13245995 0.32753822 0.09337675 -0.0692729

decoder.bias_hh_l0 f4 [128]
000000 ab 81 a0 3d 16 ed 10 3e 7b db e1 3d dd c5 06 3d
       0.07837232 0.14152941 0.11028191 0.03290354
000010 69 a2 37 bd 61 37 25 bd 7e 32 58 3e 6e 6e a9 3c
       -0.04483262 -0.040336017 0.21113011 0.02068254
000020 97 7d 96 bd f2 cd 80 bd 0e a7 fc 3d 14 c4 88 bd
       -0.07348173 -0.06289281 0.12336551 -0.06678024
000030 d4 88 69 3e f4 8d cc 3d db 94 43 be b5 e3 7e 3e
       0.22806102 0.09988013 -0.19099753 0.24891551
000040 06 d2 af 3b fa 3b fb bd e4 51 0c 3e 8e 72 f1 ba
       0.005365613 -0.12267299 0.13703114 -0.0018420981
000050 a0 fc 08 bd 7b de 15 bd a3 9a 24 3e cf c8 04 3e
       -0.033444047 -0.036589127 0.16074614 0.12967227
000060 c0 c4 1f 3e ea 00 d1 3d 40 93 a9 bb 20 fe 41 3d
       0.15602398 0.102052525 -0.0051750243 0.047361493
000070 b9 43 34 bd b8 76 16 be e4 18 d7 3d f5 98 0d be
       -0.044009898 -0.14693725 0.105027944 -0.1382788
000080 d6 b8 26 3d 79 a8 d1 bc 17 c5 59 3d 12 1b 1b be
       0.040703617 -0.02559303 0.053166475 -0.15147045
000090 ad ee 9c 3d b0 f0 b4 3c aa 6f 93 3d 4a f1 b6 3c
       0.07662711 0.022087425 0.071990326 0.022331852
0000a0 41 0b 40 be 35 b7 26 be e5 39 6e 3d ce 37 a6 3c
       -0.18754293 -0.16280825 0.05816068 0.020290282
0000b0 cf 4c 16 be 9c d4 b6 3d 14 c7 52 3c 8c 71 28 be
       -0.14677738 0.08927271 0.012864847 -0.16449565
0000c0 51 fd 6d bd 44 41 95 bc d9 9a 02 3e 25 87 55 bd
       -0.05810291 -0.018219598 0.12754382 -0.052130837
0000d0 10 68 92 3b 26 e9 db bd ca 98 2a 3c b6 42 bb 3d
       0.0044679716 -0.10737829 0.010412404 0.091435835
0000e0 21 f5 5b 3b a9 ab 66 bc 5f 2d 8f bc 57 66 67 3d
       0.0033562856 -0.014079013 -0.01747769 0.056494083
0000f0 f5 ab 35 be 99 1f e7 3e e4 07 49 bb 32 3d ee ba
       -0.17741378 0.45141295 -0.003067487 -0.0018176197
000100 25 03 4e 3e 32 1a be 3d 5a 36 20 be 3d ab d7 bd
       0.20118387 0.0928234 -0.15645733 -0.10530708
000110 e5 b5 20 3e e3 f2 f5 bd cc 7d 10 3e bc 45 8f 3d
       0.15694387 -0.120092176 0.14110488 0.06995723
000120 f7 4b 99 3d 4d 6c ca bc a9 39 b5 3d 5b ed 33 be
       0.07485192 -0.024709845 0.088488884 -0.17571013
000130 89 9e ec 3d 20 ad 05 be d5 e5 03 be 7b 2d 72 bd
       0.11553676 -0.13054323 -0.12880643 -0.059125405
000140 b1 78 11 be 60 8f 84 bc dd cd 02 be 97 85 a8 3d
       -0.14206196 -0.016181648 -0.12773843 0.08228605
000150 22 36 35 3e bf 2a 13 3e 4e 74 ed bc 7b a6 48 3e
       0.17696431 0.14371775 -0.028986122 0.19594757
000160 e4 f6 76 3d ec 23 e9 3c 1b a8 83 bc 71 55 c6 bd
       0.060294047 0.028459512 -0.01607137 -0.096842654
000170 e7 d8 23 be 3a c0 98 3d e8 3d 20 3e 81 fe 04 3e
       -0.1600071 0.07458539 0.15648615 0.1298771
000180 ef fb 12 3b 2a 5a d3 3c b3 ae 13 3c 22 3a 43 3e
       0.0022427996 0.02579983 0.0090138195 0.19065145
000190 a2 e2 94 3d b7 a3 f5 bd 3a 6b 2a 3e ef 76 67 bd
       0.07269789 -0.11994117 0.16642466 -0.05650991
0001a0 5a c2 1c be 5d 0f 93 bd 22 b9 a8 bd 50 c5 c1 bc
       -0.15308514 -0.07180665 -0.08238436 -0.023653656
0001b0 46 17 69 3d 51 92 9e bd 43 b1 49 bd e7 57 4a 3e
       0.05690696 -0.077427514 -0.049241316 0.19760095
0001c0 29 e8 3e be 2a 64 23 be b9 a1 74 3c f3 c4 a1 bd
       -0.1864325 -0.15956178 0.014931136 -0.07898893
0001d0 b2 8c 29 3e 3a 43 d8 bc aa 77 1a bd 7e 92 03 be
       0.16557577 -0.026399244 -0.037711777 -0.12848851
0001e0 97 e6 da 3c 5b 0b 12 be 18 73 c1 bc a5 0c 8d 3d
       0.026721282 -0.14262144 -0.023614451 0.068871774
0001f0 1d 0a c4 3c 38 f2 84 3e 30 30 9c bd 3f ce f4 bc
       0.023930604 0.25966048 -0.076263785 -0.029883502

decoder.weight_hr_l0 f4 [1, 32]
000000 8c 2b 2d 3e d1 b6 61 be bd ff 38 be 58 13 ba bd
       0.16911143 -0.22042395 -0.18066306 -0.09085721
000010 7f ca 51 3d fc e2 4f be 07 5d a6 be 8b 85 b1 3d
       0.051218506 -0.20301431 -0.3249285 0.086680494
000020 04 98 58 bd 43 96 6d be b8 02 b4 3d 52 d9 f3 bd
       -0.05287935 -0.23201852 0.08789581 -0.11906685
000030 d0 e1 90 3e 25 7c 1e 3d 08 f0 21 3e 34 fc 6a be
       0.2829728 0.038692612 0.15814221 -0.2294777
000040 c4 e3 83 3d b7 b1 fe 3d 12 6b 84 3d bc 04 97 3d
       0.06439927 0.1243624 0.064657345 0.0737395
000050 32 3d 8d 3d b1 b7 03 3e de 92 28 3e 30 ca 3e 3e
       0.06896438 0.12863041 0.16462275 0.18631816
000060 44 2e 19 3e 02 d0 24 bd 93 8d 29 3b 2e c7 05 be
       0.14959055 -0.040237434 0.0025871738 -0.13064262
000070 25 75 2e be e2 31 87 3e c6 21 46 3e 15 bc 20 be
       -0.17036875 0.26405245 0.19348821 -0.15696748
