output/synthetic_data/models/model_hidden32_lr0.01_clip5.0.pth (torch, 39898 bytes, 9 tensors)

encoder.weight_ih_l0 f4 [128, 1]
0.061934188 0.017058263 -0.3284974 -0.02064697 0.101109885 0.09549918 -0.1350693 -0.31493446
0.28004006 0.020887434 0.11102478 -0.14022808 0.09609343 0.032792903 -0.117370665 0.13464347
-0.04300621 -0.17018987 -0.25519723 0.27051136 -0.04800361 -0.1842001 0.052435588 -0.13966581
0.12918769 -0.26102534 0.19326812 -0.11838427 0.16268454 0.026750108 -0.15440999 -0.23804893
-0.052082106 -0.030487603 -0.039943203 -0.17392315 0.21772952 0.36523375 -0.025091788 -0.3356096
0.36347947 0.077241786 0.25049895 -0.25005516 -0.05746212 -0.08708158 0.023736807 0.082282394
0.1782495 -0.21506722 0.07352163 0.12988405 -0.1353933 -0.08979988 -0.16252562 0.15759146
-0.05567871 -0.11782417 0.22128375 -0.16424032 0.01872448 0.064284295 0.012834392 -0.16709997
-0.120795876 0.073933214 0.18059395 0.053913843 0.22303763 -0.31167543 0.13165064 -0.4782369
0.33822575 -0.09465036 0.16649373 0.016688779 -0.18297864 0.07097513 0.2740391 0.019663969
0.17290927 0.037289288 -0.13375871 0.29056057 0.11800169 -0.26432756 -0.0077264695 0.0060384735
0.21350756 -0.03591098 0.23987888 -0.09397344 -0.16931126 -0.21924087 0.028388683 0.030640738
-0.050210107 0.13444166 -0.0015416543 -0.12237774 -0.1061899 0.29233217 0.04801269 -0.29188263
0.18547487 0.29761767 0.03224134 -0.06810331 -0.040348984 0.12685624 0.03863569 0.00074438646
0.13007267 -0.13021643 -0.009034305 0.29576167 0.0765497 -0.06087467 -0.164388 0.12665446
-0.051416397 -0.19355734 0.025616791 -0.19362126 -0.04166397 -0.31745994 0.14355637 0.062385507
00000000: b4ae 7d3d c5bd 8b3c d030 a8be d623 a9bc
00000010: b312 cf3d 1395 c33d 9b4f 0abe 173f a1be
00000020: 6961 8f3e 201c ab3c f660 e33d f397 0fbe
00000030: a2cc c43d da51 063d 0860 f0bd fadf 093e
00000040: 4827 30bd 4146 2ebe 36a9 82be 7780 8a3e
00000050: 6f9f 44bd f39e 3cbe b3c6 563d 8e04 0fbe
00000060: c749 043e 1da5 85be 14e8 453e 7473 f2bd
00000070: c796 263e 0b23 db3c a71d 1ebe 19c3 73be
00000080: 0c54 55bd 23c1 f9bc 7c9b 23bd e918 32be
00000090: 7df4 5e3e ebff ba3e 4b8d cdbc 06d5 abbe
000000a0: fb19 ba3e f130 9e3d 6641 803e 3b07 80be
000000b0: 665d 6bbd d457 b2bd b173 c23c ac83 a83d
000000c0: 0987 363e 953a 5cbe 8292 963d 5300 053e
000000d0: 8ba4 0abe 00e9 b7bd 1e6d 26be a85f 213e
000000e0: 5c0f 64bd cc4d f1bd 3598 623e 9d2e 28be
000000f0: 1564 993c 7ca7 833d 5747 523c 411c 2bbe
00000100: d463 f7bd 4c6a 973d 9fed 383e c3d4 5c3d
00000110: fa63 643e ec93 9fbe 6dcf 063e 78db f4be
00000120: ed2b ad3e 0cd8 c1bd 557d 2a3e e8b6 883c
00000130: c15e 3bbe 695b 913d da4e 8c3e 5516 a13c
00000140: 210f 313e a7bc 183d 0bf8 08be 5bc4 943e
00000150: dfaa f13d f155 87be 532e fdbb 63de c53b
00000160: baa1 5a3e 6417 13bd cfa2 753e 2675 c0bd
00000170: ee5f 2dbe ae80 60be 628f e83c 4902 fb3c
00000180: 1da9 4dbd 13ab 093e 5611 caba 2ea1 fabd
00000190: 177a d9bd 90ac 953e f4a8 443d a471 95be
000001a0: 20ed 3d3e 5861 983e 7f0f 043d c079 8bbd
000001b0: fa44 25bd 9ae6 013e 7540 1e3d ee22 433a
000001c0: c531 053e 7557 05be 9f04 14bc 136e 973e
000001d0: 17c6 9c3d b857 79bd 5455 28be b5b1 013e
000001e0: 009a 52bd e533 46be 4eda d13c a744 46be
000001f0: d7a7 2abd 1c8a a2be 7100 133e f287 7f3d

encoder.weight_hh_l0 f4 [128, 32]
-0.18029048 0.16255972 0.26965114 -0.25647888 -0.07065437 0.08765588 -0.072784506 -0.04178907
-0.5480627 0.2893614 -0.006013402 0.010993957 0.098837234 0.019493178 0.11444159 -0.04393685
-0.02476374 0.25913492 0.012523868 0.08111919 -0.21685952 -0.19624422 -0.1466233 -0.012231818
-0.29486594 0.11334508 0.012249615 -0.0684461 0.0021760014 0.08232324 0.29876858 -0.06489043
0.06536882 0.18114102 0.047932636 -0.14898127 -0.18663788 -0.6894683 0.040420864 -0.23199779
0.34112814 -0.35272613 0.05175527 -0.09778154 0.07381453 0.1629278 0.16777258 -0.4109271
-0.0367273 -0.082085915 -0.25121343 -0.005821403 -0.27368936 -0.058234952 0.21379484 -0.15405948
-0.020462574 0.13213035 0.3477732 -0.015105224 -0.17281084 -0.097459815 -0.2950688 0.1286695
0.04026654 0.061971888 -0.036077823 0.03720309 0.0292284 0.36986428 0.06707334 0.503606
0.07697752 0.17476715 -0.2241013 -0.09544562 0.14731169 -0.26043487 -0.039259966 0.025200546
0.032292657 -0.0023225427 0.069933966 -0.10859914 -0.11907979 0.17043063 -0.18149155 0.2533367
-0.08018902 0.016565097 -0.11598293 0.09015909 -0.038214654 0.140833 -0.16651921 -0.015631257
-0.024387613 0.16415673 -0.085127905 0.08176186 -0.07257932 0.07409019 -0.08487226 0.14661413
0.14757004 -0.017769422 0.04538564 -0.025037969 0.05300563 0.005373119 -0.410515 0.1508566
-0.060962584 0.13103521 -0.009501702 -0.08380374 0.09725455 -0.22012392 0.055258233 -0.15099606
-0.050279733 0.15490939 0.15902865 0.006120582 0.08483178 0.0033654722 0.029268486 0.16437283
0.28002745 0.10692247 0.15896118 -0.11041258 -0.19396348 -0.2503117 -0.22694768 0.08159636
0.16042347 0.18128885 0.034763493 -0.065359406 0.057666615 0.22356614 0.036118925 -0.06525597
-0.05385102 0.2140295 -0.22439936 -0.17262891 -0.18541571 -0.20297839 0.19306324 0.08169009
-0.12552513 0.08247499 0.044348292 -0.023853153 0.1825286 0.1707213 0.0068217083 0.008004883
0.036622174 0.13635544 -0.10398745 -0.25968388 0.22582583 -0.19912851 -0.0088218665 -0.10393338
0.29223716 -0.027061684 0.1101462 -0.27391666 0.020080812 0.17658772 -0.26509604 -0.23632936
-0.09795104 -0.085802406 -0.025529345 0.065671526 -0.2117526 0.12837926 0.060797397 0.095691465
-0.13109732 0.09259054 -0.053372677 0.07895561 0.07673882 0.25783852 0.0970725 0.043658677
-0.0066853226 -0.011980618 -0.07617312 -0.24601917 -0.07326177 0.07055018 0.088622294 -0.19811122
-0.084294476 0.13620242 -0.18517387 -0.14677744 0.24487194 -0.072525434 0.16673422 0.075082354
-0.26249385 -0.13604724 -0.09961443 -0.011082506 -0.004196083 -0.09627882 0.07417929 0.10709357
-0.25953612 0.029862607 0.017164644 0.27763018 0.26141864 0.17949438 -0.1592206 -0.052622795
0.41044143 0.33158535 -0.21783985 -0.13177638 -0.47861886 0.831593 -0.27385524 0.31890026
-0.23275886 0.20450455 -0.18414386 0.19969589 0.06662952 -0.10156316 -0.5302508 0.2380261
0.02540666 0.110381715 0.463312 -0.5763216 -0.25815442 -0.044715617 0.0343506 0.14820476
-0.2795571 0.114494175 -0.5547334 0.23334946 0.4793823 0.4112227 0.25528443 -0.16923393
00000000: 119e 38be 0e76 263e b70f 8a3e 3351 83be
00000010: 3db3 90bd ed84 b33d 0b10 95bd 042b 2bbd
00000020: d64d 0cbf 2d27 943e 120c c5bb ff1f 343c
00000030: 2d6b ca3d 28b0 9f3c 5a60 ea3d 20f7 33bd
00000040: 54dd cabc 55ad 843e e930 4d3c d121 a63d
00000050: 6c10 5ebe 3ff4 48be 6b24 16be f767 48bc
00000060: abf8 96be 7721 e83d 9cb2 483c 782d 8cbd
00000070: 3f9b 0e3b 1699 a83d 32f8 983e 46e5 84bd
00000080: 17e0 853d 087d 393e 0355 443d 8c8e 18be
00000090: 001e 3fbe ff80 30bf 5990 253d d490 6dbe
000000a0: 59a8 ae3e 8598 b4be 56fd 533d b041 c8bd
000000b0: 132c 973d 8cd6 263e 93cc 2b3e 0965 d2be
000000c0: 5e6f 16bd a91c a8bd 0c9f 80be 78c1 bebb
000000d0: 0321 8cbe c687 6ebd 09ed 5a3e c5c1 1dbe
000000e0: 21a1 a7bc 2e4d 073e 540f b23e e77b 77bc
000000f0: 53f5 30be 0399 c7bd 4213 97be f0c1 033e
00000100: 87ee 243d 3cd6 7d3d 57c6 13bd 4462 183d
00000110: 6670 ef3c da5e bd3e bf5d 893d 53ec 003f
00000120: 64a6 9d3d 29f6 323e d07a 65be fe78 c3bd
00000130: e0d8 163e b857 85be 0fcf 20bd 6071 ce3c
00000140: 4e45 043d cd35 18bb 8a39 8f3d 3a69 debd
00000150: 1be0 f3bd 5e85 2e3e ecd8 39be 59b5 813e
00000160: 243a a4bd 87b3 873c 7588 edbd 54a5 b83d
00000170: f886 1cbd 8736 103e 0384 2abe 1f0d 80bc
00000180: 88c8 c7bc b418 283e 8a57 aebd c372 a73d
00000190: 77a4 94bd 99bc 973d 82d1 adbd 0422 163e
000001a0: 9a1c 173e 2e91 91bc 4be6 393d 6d1c cdbc
000001b0: 6e1c 593d fd10 b03b 062f d2be 277a 1a3e
000001c0: e7b3 79bd 182e 063e 07ad 1bbc 4ca1 abbd
000001d0: 652d c73d 2a68 61be 7556 623d b69e 1abe
000001e0: 1ff2 4dbd 91a0 1e3e 68d8 223e 2a8f c83b
000001f0: 49bc ad3d 418f 5c3b 77c4 ef3c 5a51 283e
00000200: c25f 8f3e 2bfa da3d b8c6 223e fe1f e2bd
00000210: 5d9e 46be db28 80be f964 68be fe1b a73d
00000220: 0d46 243e c9a3 393e 2a64 0e3d 27db 85bd
00000230: d433 6c3d 86ee 643e 70f1 133d eca4 85bd
00000240: e392 5cbd 8d2a 5b3e f2c8 65be a2c5 30be
00000250: 9edd 3dbe 91d9 4fbe 5fb2 453e 224d a73d
00000260: a989 00be a6e8 a83d 8ea6 353d b067 c3bc
00000270: c7e8 3a3e 91d1 2e3e a388 df3b ea26 033c
00000280: 2201 163d c3a0 0b3e 5ff7 d4bd 49f5 84be
00000290: e33e 673e 58e8 4bbe 9789 10bc 06db d4bd
000002a0: 1ca0 953e 77b0 ddbc 5594 e13d ce3e 8cbe
000002b0: 8480 a43c 69d3 343e abba 87be 5300 72be
000002c0: 8e9a c8bd 2cb9 afbd eb22 d1bc cb7e 863d
000002d0: acd5 58be da75 033e b106 793d e3f9 c33d
000002e0: 603e 06be 1ca0 bd3d 4f9d 5abd 7bb3 a13d
000002f0: 3e29 9d3d 6903 843e f2cd c63d 71d3 323d
00000300: 8d10 dbbb 5b4a 44bc a700 9cbd 73ec 7bbe
00000310: 440a 96bd 9d7c 903d 9b7f b53d abdd 4abe
00000320: 95a2 acbd a678 0b3e 389e 3dbe d34c 16be
00000330: b6bf 7a3e 3788 94bd 60bc 2a3e c7c4 993d
00000340: 9865 86be f84f 0bbe a602 ccbd 6693 35bc
00000350: 4c7f 89bb d42d c5bd 50eb 973d e053 db3d
00000360: ebe1 84be 6da2 f43c de9c 8c3c 8b25 8e3e
00000370: aad8 853e 60cd 373e ba0a 23be 008b 57bd
00000380: 6125 d23e 8ec5 a93e 6911 5fbe 63f0 06be
00000390: 880d f5be 47e3 543f c136 8cbe e546 a33e
000003a0: 5758 6ebe a469 513e 3590 3cbe 147d 4c3e
000003b0: 0f75 883d 5900 d0bd 84be 07bf 1dbd 733e
000003c0: a121 d03c cf0f e23d 3b37 ed3e d089 13bf
000003d0: d12c 84be b927 37bd 37b3 0c3d fdc2 173e
000003e0: 1c22 8fbe ec7b ea3d 0203 0ebf 29f3 6e3e
000003f0: 9971 f53e c88b d23e a4b4 823e a94b 2dbe

encoder.bias_ih_l0 f4 [128]
-0.19338264 -0.23771757 0.14944403 -0.12377895 0.06257507 -0.058609255 -0.09325168 -0.13192181
-0.27942425 -0.40125144 -0.07789722 -0.014994934 0.14664459 -0.18728474 -0.22596872 -0.15830538
-0.18165882 0.043934993 -0.18020788 0.13993423 -0.0061995834 0.035459496 0.11177692 0.039672274
0.047603104 -0.057498273 -0.02788633 -0.103841186 0.05366786 -0.048414852 -0.20297138 -0.005720718
0.1507752 -0.01745551 0.024136478 0.24109924 0.14657094 0.19589627 -0.14747061 0.22609442
0.40521944 -0.0951011 -0.051749427 0.094842955 0.15296693 -0.114349134 0.15529607 0.0001368798
-0.016116437 -0.13135701 0.0810708 0.22508135 -0.038171023 -0.04768743 0.19335629 0.19979602
0.086134546 -0.16922735 0.054846056 0.12579025 0.13773756 -0.077181935 -0.098073184 0.060877495
0.13340972 0.088643275 -0.04446332 0.16932265 0.1436632 0.11661688 0.014761334 -0.08041831
-0.03508604 0.07551151 0.1859417 0.03310744 -0.21213259 -0.035427872 -0.122706965 0.14579141
0.115326196 0.043563984 -0.004802977 0.2213396 0.13810922 0.051743172 -0.14693628 -0.25677258
0.2056493 0.015549413 0.07036094 -0.11199478 -0.18476199 -0.003165994 0.10501597 -0.07473749
0.08584872 -0.21606365 0.122086 -0.07049661 -0.11488683 0.030597012 -0.11257778 0.17095885
0.15991002 -0.2329257 -0.0049127587 -0.20279472 0.14486237 0.10355841 0.027717765 0.03724525
-0.14609848 -0.118965864 -0.028708698 0.06657132 -0.18786287 0.01698582 -0.12546939 -0.04959601
-0.09642386 -0.20937163 -0.112077214 -0.12516275 0.092985146 -0.22557834 -0.14012742 -0.14773472
00000000: 1906 46be 3c6c 73be db07 193e d17f fdbd
00000010: 5c27 803d 4210 70bd bdfa bebd 8316 07be
00000020: b210 8fbe d470 cdbe 9488 9fbd 50ad 75bc
00000030: 002a 163e 92c7 3fbe 5864 67be ce1a 22be
00000040: c504 3abe 2ef5 333d 6a88 38be eb4a 0f3e
00000050: e025 cbbb fa3d 113d 4ceb e43d 657f 223d
00000060: 79fb 423d 4f83 6bbd df71 e4bc b0aa d4bd
00000070: d4d2 5b3d a74e 46bd bbd7 4fbe dc74 bbbb
00000080: d064 1a3e dcfe 8ebc ddb9 c53c b8e2 763e
00000090: b116 163e 0899 483e 8902 17be 4c85 673e
000000a0: ec78 cf3e 5ec4 c2bd 35f7 53bd 063d c23d
000000b0: 5da3 1c3e e12f eabd ef05 1f3e 6487 0f39
000000c0: 9e06 84bc 7482 06be 7308 a63d ba7b 663e
000000d0: 3859 1cbd e553 43bd 31ff 453e 5497 4c3e
000000e0: 4f67 b03d ef49 2dbe 42a6 603d 29cf 003e
000000f0: 130b 0d3e 9011 9ebd 98da c8bd ae5a 793d
00000100: 8f9c 083e 9b8a b53d 2c1f 36bd eb62 2d3e
00000110: 721c 133e d5d4 ee3d 86d9 713c 5bb2 a4bd
00000120: 61b6 0fbd c7a5 9a3d 8067 3e3e ab9b 073d
00000130: 4939 59be d11c 11bd ca4d fbbd 584a 153e
00000140: 2430 ec3d 2670 323d 4b62 9dbb d9a6 623e
00000150: 816c 0d3e a6f0 533d 7776 16be b277 83be
00000160: bb95 523e f7c2 7e3c 6619 903d 855d e5bd
00000170: 3f32 3dbe 917c 4fbb 9d12 d73d f80f 99bd
00000180: 74d1 af3d ca3f 5dbe 3a08 fa3d 8760 90bd
00000190: c949 ebbd 96a6 fa3c 2e8f e6bd d60f 2f3e
000001a0: 74bf 233e 1384 6ebe 35fb a0bb 6ba9 4fbe
000001b0: cd56 143e 6f16 d43d 5e10 e33c 7a8e 183d
000001c0: d79a 15be 60a4 f3bd 812e ebbc 8b56 883d
000001d0: 205f 40be d925 8b3c 0c7b 00be 3025 4bbd
000001e0: df79 c5bd 8465 56be bd88 e5bd aa2a 00be
000001f0: ff6e be3d 02fe 66be 907d 0fbe c547 17be

encoder.bias_hh_l0 f4 [128]
0.08163546 -0.21305117 0.051123586 -0.041433364 -0.089551024 -0.098721795 -0.019563658 -0.29058164
-0.27581695 -0.20322077 0.18474756 0.091402195 0.08292057 -0.09242383 0.044430424 0.008276652
-0.1251944 -0.14772327 0.036210883 0.12772404 0.037919328 0.10322541 -0.103350855 0.14143996
-0.12329663 -0.20099084 0.03238267 0.1059774 -0.06325333 0.0077598463 -0.19676876 0.082133114
0.013722856 -0.008587277 0.051314294 0.15246812 0.30072787 0.027430013 -0.20898542 0.4441773
0.17931351 0.028322179 0.20968191 0.089290604 0.069374025 -0.17227829 0.16443765 -0.08389403
0.096344784 -0.13395938 0.2474905 0.17652737 -0.10747539 0.10251151 -0.07849218 -0.04762651
0.14833614 0.04018304 -0.06949663 0.023131441 0.21048053 0.052391868 -0.024334237 -0.18345834
0.08553923 -0.013160078 -0.13132814 0.12717967 -0.18750206 -0.0671368 0.0045141233 0.14498703
0.006219869 -0.12300626 0.025305972 0.078596935 -0.06274432 -0.04093315 0.13608459 0.039673597
0.0276023 0.018748907 -0.008176087 -0.08754114 0.13926691 0.015952267 -0.08382612 -0.03381337
-0.0670359 -0.013267057 -0.15119788 -0.11476294 0.042721793 0.07297982 -0.015006027 0.0006060377
-0.1360487 -0.23320717 0.12352692 0.05985943 0.10476319 -0.008003079 0.057567585 -0.10007318
-0.06172121 -0.1587647 0.1246535 0.043849852 0.20205699 0.023609232 -0.1075486 0.03600947
0.02003463 -0.073795095 -0.06823647 -0.10647477 0.020705897 0.19026248 -0.12635435 -0.0004256706
0.13915023 0.10076552 0.043609746 0.060893495 -0.03550282 -0.02845016 0.06764727 -0.19876651
00000000: 7e30 a73d 162a 5abe f766 513d 08b6 29bd
00000010: 8766 b7bd a72e cabd f743 a0bc 1ec7 94be
00000020: e137 8dbe 1b19 50be 772e 3d3e 1331 bb3d
00000030: 43d2 a93d b448 bdbd adfc 353d cb9a 073c
00000040: f632 00be c544 17be dd51 143d 17ca 023e
00000050: 4c51 1b3d d867 d33d 9da9 d3bd a3d5 103e
00000060: f282 fcbd 8bd0 4dbe b1a3 043d ae0a d93d
00000070: f68a 81bd 4f46 fe3b c07d 49be 6835 a83d
00000080: d4d5 603c a6b1 0cbc f02e 523d 9a20 1c3e
00000090: 01f9 993e e8b4 e03c 4600 56be 356b e33e
000000a0: f69d 373e ea03 e83c dbb6 563e fedd b63d
000000b0: f813 8e3d b869 30be 5862 283e a2d0 abbd
000000c0: 6a50 c53d a62c 09be 266e 7d3e 97c3 343e
000000d0: 0f1c dcbd 8ef1 d13d 82c0 a0bd 0414 43bd
000000e0: 6ee5 173e f996 243d 4054 8ebd 267e bd3c
000000f0: 3588 573e db98 563d 9858 c7bc 81dc 3bbe
00000100: 312f af3d 5e9d 57bc e27a 06be 633b 023e
00000110: 8a00 40be 057f 89bd 36eb 933b 7b77 143e
00000120: 0bd0 cb3b b5ea fbbd 784e cf3c 6ef7 a03d
00000130: 1880 80bd 85a9 27bd c259 0b3e c880 223d
00000140: 381e e23c 4f97 993c fff4 05bc c548 b3bd
00000150: fc9b 0e3e 54ae 823c 07ad abbd e37f 0abd
00000160: 1e4a 89bd 125e 59bc 9ed3 1abe d508 ebbd
00000170: 0cfd 2e3d 7276 953d d7db 75bc 80de 1e3a
00000180: 5a50 0bbe dccd 6ebe affb fc3d 292f 753d
00000190: 158e d63d 591f 03bc fdcb 6b3d 2bf3 ccbd
000001a0: 61cf 7cbd 3793 22be 564a ff3d e79b 333d
000001b0: 07e8 4e3e 2668 c13c 7142 dcbd aa7e 133d
000001c0: aa1f a43c e221 97bd 90bf 8bbd 720f dabd
000001d0: 6a9f a93c 2bd4 423e 0963 01be 8a2c dfb9
000001e0: 667d 0e3e 275e ce3d 22a0 323d 756b 793d
000001f0: 686b 11bd 4f10 e9bc a78a 8a3d 7389 4bbe

decoder.weight_ih_l0 f4 [128, 32]
-0.2855312 -0.11185456 0.16912967 -0.070836045 0.08007765 0.29789808 0.0044299695 0.005417989
0.12277742 -0.05434479 -0.05050308 -0.258964 0.11024987 0.0012130248 0.060248796 -0.022238009
-0.0010357167 0.03705266 0.08518066 -0.013530943 -0.20064135 -0.094642 0.09329991 0.007462336
-0.23156291 0.20421354 0.030305656 -0.04859026 0.17725185 -0.16422345 -0.06978651 0.25053915
0.13168602 -0.0065741646 -0.024106639 0.0958748 -0.056552514 0.045647673 -0.01226163 -0.09361947
0.06032416 -0.19086163 0.114638224 0.057099577 -0.20778896 0.13337749 -0.14640465 0.018259035
0.11828371 0.11516173 0.15427183 0.14432085 -0.067129016 0.072976656 -0.051228095 -0.2139757
-0.050189387 0.10647719 0.09073717 -0.048723426 -0.05075145 0.18881695 0.10395159 0.07542809
-0.04955337 0.17215805 0.25534853 -0.06843516 -0.2629946 0.1050068 -0.087913945 0.06692683
-0.0025352656 -0.078128405 -0.11427057 -0.21214764 0.0939624 0.19682029 -0.008374531 -0.1964054
-0.015670795 -0.07211616 -0.048436258 -0.20560186 -0.008092416 -0.23732539 0.04231126 0.08114782
-0.15332657 0.09387695 0.2875394 -0.051745553 0.18567447 -0.15624446 0.015561843 0.23181397
0.0571582 0.12638739 0.12497373 0.09875743 -0.07942822 0.14469609 0.10904133 0.008775264
0.15417027 -0.07304503 0.07039587 -0.078388125 0.01744473 0.027950767 -0.17581594 -0.024313115
-0.09463218 -0.05994229 -0.08870872 -0.088437624 -0.07363734 -0.16731285 -0.080899335 0.0946531
-0.16145858 -0.05539825 0.13236728 0.20821957 0.13323489 0.065199174 0.11826103 -0.13846903
0.12892562 0.06546506 0.09783802 0.008487472 -0.34437668 -0.14643571 -0.08244478 0.1839902
0.13750336 -0.12491504 -0.082103856 -0.05927789 0.03801825 0.28006887 -0.3408645 -0.033374585
0.025836969 0.045104384 -0.0048947427 0.07474653 0.12291437 -0.0073040416 -0.11226086 -0.15536638
0.06734197 0.0034391389 0.0045749624 -0.13292937 -0.067452416 -0.14866021 -0.17290805 -0.06715161
-0.19470155 0.31401408 0.42098293 -0.074129775 -0.059367597 0.16901107 -0.08150771 -0.24509944
0.13567397 0.19879854 0.016170291 -0.02464122 -0.0039741737 -0.06372719 0.078987695 -0.16894206
-0.06643208 -0.2641437 0.0042078774 -0.123652846 -0.017962607 -0.13653408 0.21040265 0.23766056
-0.048680108 0.06787697 0.048366036 0.14064893 0.022743797 -0.18877967 -0.23250808 0.29787615
-0.053147048 -0.00800956 -0.09680834 0.21453641 -0.2049521 -0.34016785 0.23986341 0.024827499
0.32635465 -0.35572135 0.09396342 -0.1519233 -0.31826267 0.261382 -0.3050299 -0.076095745
0.12481381 -0.0130872 0.042173874 0.056214377 0.17370681 -0.11299671 -0.19482595 -0.3278299
0.13254522 -0.0183568 -0.08560378 -0.2423895 -0.18842965 -0.19854552 -0.15481572 0.11444014
-0.04876868 0.061906498 -0.17208596 0.059957407 0.061851393 0.029453382 0.06757341 0.1963693
0.008653824 -0.013258102 -0.065585434 0.20579381 -0.19401188 0.035138972 -0.1971828 0.07533124
0.14359073 0.070238024 0.035208914 0.16567366 0.14586765 -0.10208343 -0.065743595 -0.08130441
0.19044928 -0.08963143 -0.12144335 -0.18218443 -0.13893571 0.118842386 -0.05052464 -0.005503124
00000000: 2531 92be 0114 e5bd 5430 2d3e 7d12 91bd
00000010: c0ff a33d 1986 983e 4729 913b 6389 b13b
00000020: ba72 fb3d a498 5ebd 51dc 4ebd ee96 84be
00000030: afca e13d 5cfe 9e3a 71c7 763d 7c2c b6bc
00000040: e3c0 87ba 88c4 173d 3373 ae3d e3b0 5dbc
00000050: ed74 4dbe aad3 c1bd 0614 bf3d 9d86 f43b
00000060: d41e 6dbe 5b1d 513e 9143 f83c 9506 47bd
00000070: 8281 353e 312a 28be 3bec 8ebd ab46 803e
00000080: b3d8 063e 176c d7bb 497b c5bc 025a c43d
00000090: 9ca3 67bd 0ef9 3a3d 01e5 48bc 91bb bfbd
000000a0: 7716 773d 3b71 43be 72c7 ea3d 3fe1 693d
000000b0: a1c6 54be 1c94 083e 1aeb 15be f993 953c
000000c0: bb3e f23d ead9 eb3d 6ff9 1d3e d8c8 133e
000000d0: f07a 89bd c974 953d 8dd4 51bd 721c 5bbe
000000e0: 6393 4dbd b710 da3d 69d4 b93d 3792 47bd
000000f0: c1e0 4fbd 3b59 413e 92e4 d43d 0b7a 9a3d
00000100: 79f8 4abd 334a 303e 0bbd 823e bc27 8cbd
00000110: 3aa7 86be ce0d d73d 3a0c b4bd ef10 893d
00000120: b326 26bb c901 a0bd b006 eabd 3b3d 59be
00000130: 5c6f c03d 428b 493e 5435 09bc 7f1e 49be
00000140: 0a60 80bc a3b1 93bd 1965 46bd 4b89 52be
00000150: 0e96 04bc 6d05 73be 924e 2d3d d430 a63d
00000160: a401 1dbe 8f42 c03d 5d38 933e 25f3 53bd
00000170: 7321 3e3e 8cfe 1fbe 1af7 7e3c a460 6d3e
00000180: b71e 6a3d b26b 013e 3af2 ff3d 5641 ca3d
00000190: 43ab a2bd 362b 143e 1051 df3d 20c6 0f3c
000001a0: d0de 1d3e a298 95bd b62b 903d f489 a0bd
000001b0: 40e8 8e3c 02f9 e43c 1809 34be 4c2c c7bc
000001c0: 84ce c1bd 0c86 75bd ebac b5bd c91e b5bd
000001d0: 2ccf 96bd 0f54 2bbe 8dae a5bd 7cd9 c13d
000001e0: 6655 25be 47e9 62bd 4a8b 073e 8337 553e
000001f0: ba6e 083e 2587 853d d732 f23d d3ca 0dbe
00000200: 1405 043e 8c12 863d 4d5f c83d 0a0f 0b3c
00000210: 2452 b0be 3ef3 15be cfd8 a8bd ed67 3c3e
00000220: aecd 0c3e 75d3 ffbd 1126 a8bd 5fcd 72bd
00000230: 06b9 1b3d 3065 8f3e cb85 aebe cab3 08bd
00000240: 0da8 d33c 60bf 383d 1464 a0bb b514 993d
00000250: 87ba fb3d be56 efbb 06e9 e5bd 5d18 1fbe
00000260: 96ea 893d 2d63 613b 91e9 953b a31e 08be
00000270: 7e24 8abd 623a 18be cf0e 31be c986 89bd
00000280: d85f 47be 74c6 a03e 138b d73e 5ad1 97bd
00000290: 702b 73bd 3d11 2d3e 84ed a6bd 59fb 7abe
000002a0: 1eee 0a3e d891 4b3e 8f77 843c 62dc c9bc
000002b0: c939 82bb 6783 82bd 4dc4 a13d 26ff 2cbe
000002c0: 8b0d 88bd d83d 87be 3ce2 893b b43d fdbd
000002d0: 5126 93bc 97cf 0bbe cb73 573e 4a5d 733e
000002e0: cb64 47bd 1503 8b3d 771b 463d 4606 103e
000002f0: 3351 ba3c 754f 41be 9916 6ebe 3983 983e
00000300: b8b0 59bd 883a 03bc 7343 c6bd 6faf 5b3e
00000310: f7de 51be 7b2a aebe c19e 753e 0a63 cb3c
00000320: f517 a73e 1c21 b6be e56f c03d c891 1bbe
00000330: 53f3 a2be ddd3 853e e12c 9cbe 16d8 9bbd
00000340: 629e ff3d b26b 56bc 83be 2c3d 0c41 663d
00000350: 33e0 313e d26a e7bd 7480 47be 52d9 a7be
00000360: efb9 073e 0061 96bc 0951 afbd f434 78be
00000370: b4f3 40be 844f 4bbe 0388 1ebe 985f ea3d
00000380: abc1 47bd ab91 7d3d 4d37 30be e695 753d
00000390: e357 7d3d 3848 f13c ee63 8a3d 0915 493e
000003a0: c5c8 0d3c 8338 59bc a851 86bd 9dbb 523e
000003b0: 0dab 46be e2ed 0f3d 4aea 49be 4447 9a3d
000003c0: 7309 133e f4d8 8f3d 3937 103d 5ba6 293e
000003d0: 545e 153e 1e11 d1bd 94a4 86bd ed82 a6bd
000003e0: 2305 433e af90 b7bd 4bb7 f8bd 8e8e 3abe
000003f0: 2a45 0ebe a363 f33d edf2 4ebd 8d53 b4bb

decoder.weight_hh_l0 f4 [128, 1]
-0.20132907 0.060471795 -0.34711954 -0.057009004 0.015811069 -0.35080513 0.20913456 0.01752817
-0.20268361 -0.09834599 -0.07043307 -0.08022013 -0.12621224 0.10494704 -0.08458853 -0.099124484
0.08556454 -0.34865114 -0.05198914 -0.09326819 -0.18725248 0.16691813 -0.478108 -0.23699786
0.17821513 -0.43335778 -0.37287515 -1.5659912 -0.1428781 0.11941837 0.36705297 -0.13356651
-0.52562696 0.13667087 -0.37488553 0.26104262 -0.24515136 -0.5289497 0.26628453 -0.13815556
0.016557151 -0.12037407 -0.23981646 -0.089861885 -0.31538528 -0.04770088 0.2279282 -0.062738426
-0.00837174 -0.35735223 -0.009123547 -0.252535 -0.08359441 0.30874187 0.25978225 -0.15847616
0.005358191 -0.4775604 -0.5431773 0.9921889 -0.04477982 -0.28995103 0.6382259 -0.21248744
0.09696389 0.10759607 0.036508165 -0.22455896 0.030063305 0.019925246 -0.4894573 0.008839949
0.0016864197 0.10841621 0.112150475 0.029389732 0.06396129 -0.08310352 -0.24547677 0.0042952164
0.023683805 -0.16822477 0.10652406 0.20789641 -0.08732325 0.15275893 -0.19049937 -0.1112489
-0.15898465 0.120292515 0.008930016 0.11873263 -0.108173564 -0.20659836 -0.6200378 0.18636505
-0.2822746 0.019135816 -0.49039543 -0.024599953 -0.020375533 -0.23695503 -0.06988608 -0.05511897
0.0063346913 -0.11816085 -0.24291566 -0.1294713 -0.36298457 -0.0721955 0.046324436 -0.2776679
-0.25377503 -0.18521978 -0.15682895 -0.2134157 0.09712141 0.07185087 -0.02608123 -0.28161606
0.17269932 -0.79156965 -0.4986149 0.23748882 -0.35694999 -0.08103336 0.17546694 -0.047076073
00000000: 3529 4ebe 46b1 773d a7b9 b1be 4682 69bd
00000010: 3786 813c bb9c b3be 5f27 563e 3d97 8f3c
00000020: 4b8c 4fbe 9f69 c9bd 373f 90bd 744a a4bd
00000030: c83d 01be 79ee d63d c03c adbd c701 cbbd
00000040: 763c af3d 6782 b2be 91f2 54bd 6503 bfbd
00000050: 1dbf 3fbe 96ec 2a3e 92ca f4be 91af 72be
00000060: 077e 363e 12e1 ddbe 7ee9 bebe 6672 c8bf
00000070: a34e 12be 9e91 f43d 5eee bb3e a9c5 08be
00000080: 7d8f 06bf 73f3 0b3e fff0 bfbe 61a7 853e
00000090: f508 7bbe 3f69 07bf 7256 883e a778 0dbe
000000a0: dda2 873c ae86 f6bd 7292 75be 8209 b8bd
000000b0: 2e7a a1be ff61 43bd 0366 693e 017d 80bd
000000c0: 9f29 09bc dff6 b6be ee7a 15bc 444c 81be
000000d0: 8c33 abbd 6a13 9e3e 2e02 853e 9347 22be
000000e0: c493 af3b cc82 f4be ab0d 0bbf 1700 7e3f
000000f0: 0b6b 37bd 7674 94be c662 233f 4f96 59be
00000100: 0195 c63d 545b dc3d 9689 153d c9f2 65be
00000110: 5247 f63c 453a a33c 269a fabe 6fd5 103c
00000120: db0a dd3a 5109 de3d 26af e53d bcc2 f03c
00000130: 23fe 823d 2e32 aabd 435e 7bbe e3be 8c3b
00000140: 8a04 c23c 1d43 2cbe 4929 da3d cce2 543e
00000150: 88d6 b2bd d66c 1c3e 4412 43be 77d6 e3bd
00000160: dfcc 22be ec5b f63d 344f 123c 182a f33d
00000170: 1a8a ddbd 858e 53be ccba 1ebf 7bd6 3e3e
00000180: 4c86 90be b7c2 9c3c 1c15 fbbe d785 c9bc
00000190: 97ea a6bc 57a4 72be 6f20 8fbd 6ec4 61bd
000001a0: 3e93 cf3b 51fe f1bd e2be 78be 2094 04be
000001b0: 1dd9 b9be 3cdb 93bd b1be 3d3d 7d2a 8ebe
000001c0: cdee 81be 41aa 3dbe c597 20be a589 5abe
000001d0: 97e7 c63d 8d26 933d 4ea8 d5bc fb2f 90be
000001e0: 17d8 303e 4fa4 4abf 744a ffbe 4530 733e
000001f0: 26c2 b6be d1f4 a5bd 9bad 333e d7d2 40bd

decoder.bias_ih_l0 f4 [128]
-0.047560472 0.09048598 0.116205305 -0.087742284 0.09432505 -0.068313 0.24882503 -0.028992143
0.07224997 -0.123977914 -0.053368874 -0.055012938 -0.17449391 -0.07170868 0.29278818 -0.10077651
-0.13463303 -0.024002023 0.23875634 -0.21728897 0.10550454 0.26519516 -0.06753325 -0.06932702
-0.17176579 0.043013092 0.10393904 0.00921147 0.06855655 0.22973782 0.2289775 0.009803655
-0.031080637 -0.089148976 -0.18866885 -0.03921753 -0.20573623 -0.045035593 -0.22874975 -0.23868904
0.05475321 -0.14299622 -0.19174805 -0.24405251 -0.03620287 -0.19698907 -0.04890956 -0.11718799
-0.16385172 0.020901034 -0.1146698 -0.013613546 0.09415809 0.0345093 0.39125833 -0.18205814
-0.049094517 -0.13287714 -0.4223051 1.1659856 -0.0043093767 -0.44661623 -0.22019956 -0.3209534
-0.0681047 -0.16028883 0.020191576 -0.18016101 -0.19718158 0.0773539 -0.19820605 0.23555177
0.018606212 -0.06315226 -0.007825254 0.053186357 0.022741823 0.114439264 0.26533946 -0.012534561
0.04159531 0.21755464 -0.04623118 -0.039244205 -0.059193987 -0.25195408 -0.013237114 -0.026372217
0.04128152 0.049749833 0.0010121 0.10922463 0.037721135 0.034258585 -0.18138266 -0.22486883
0.042474523 0.16452184 -0.011712765 0.12458979 0.16716255 -0.058964875 0.32474393 -0.043015476
-0.19620387 0.084406234 0.013520298 -0.13919099 -0.10604377 0.1866149 0.20334782 0.0063311155
0.07124361 0.11150205 -0.15148064 -0.24236532 0.15911368 -0.021626012 0.032790333 0.061104856
-0.062483676 0.0933372 -0.19025432 0.6918138 0.19153135 0.3069415 0.23171893 -0.08509609
00000000: c5ce 42bd b750 b93d 0cfd ed3d 3ab2 b3bd
00000010: 7e2d c13d b0e7 8bbd fdcb 7e3e ee80 edbc
00000020: cbf7 933d 22e8 fdbd 5299 5abd 3f55 61bd
00000030: 88ae 32be 00dc 92bd 55e8 953e ea63 cebd
00000040: 3edd 09be e49f c4bc 8b7c 743e 0081 5ebe
00000050: c412 d83d a9c7 873e df4e 8abd 53fb 8dbd
00000060: 5fe3 2fbe 7f2e 303d fedd d43d b5eb 163c
00000070: 6067 8c3d 6440 6b3e 1479 6a3e 829f 203c
00000080: d29c febc bd93 b6bd 6832 41be 90a2 20bd
00000090: 85ac 52be 3e77 38bd 603d 6abe e66a 74be
000000a0: e744 603d 9a6d 12be 9a59 44be e7e8 79be
000000b0: 7649 14bd 81b7 49be 6455 48bd 4200 f0bd
000000c0: bfc8 27be a538 ab3c 00d8 eabd 5a0b 5fbc
000000d0: f5d5 c03d a059 0d3d 0353 c83e 736d 3abe
000000e0: 5517 49bd f210 08be 6038 d8be 043f 953f
000000f0: ac35 8dbb e2aa e4be fe7b 61be 0154 a4be
00000100: 7a7a 8bbd c122 24be ce68 a53c 217c 38be
00000110: f8e9 49be b96b 9e3d 87f6 4abe 7c34 713e
00000120: 0e6c 983c f955 81bd 7f35 00bc f0d9 593d
00000130: 0f4d ba3c 225f ea3d 93da 873e c25d 4dbc
00000140: d85f 2a3d a5c6 5e3e e85c 3dbd 88be 20bd
00000150: 6575 72bd 2000 81be 7be0 58bc 8c0a d8bc
00000160: d016 293d 7bc6 4b3d 71a8 843a 2ab1 df3d
00000170: 7a81 1a3d bb52 0c3d 60bc 39be 0444 66be
00000180: c4f9 2d3d 6a78 283e e6e6 3fbc ef28 ff3d
00000190: a92c 2b3e 2785 71bd d644 a63e ff30 30bd
000001a0: abe9 48be 2ddd ac3d 3d84 5d3c 1588 0ebe
000001b0: 7a2d d9bd fa17 3f3e 693a 503e 3f75 cf3b
000001c0: 2be8 913d 305b e43d be1d 1bbe 9d2e 78be
000001d0: b2ee 223e 0929 b1bc 284f 063d 1649 7a3d
000001e0: e2ee 7fbd 9327 bf3d 07d2 42be b61a 313f
000001f0: cb20 443e 7027 9d3e ba47 6d3e dc46 aebd

decoder.bias_hh_l0 f4 [128]
-0.11189182 -0.012708206 -0.21926609 0.1809106 0.07312715 -0.070731185 0.10176943 0.24335063
0.015389379 -0.03543493 0.066327475 0.047130287 -0.17236331 -0.08555341 0.26283935 -0.22117259
-0.04448916 0.049180914 0.25559455 -0.16849881 0.20679803 0.16737387 -0.2043703 -0.13280675
-0.042927608 0.015550092 0.10401802 0.11682912 -0.05677749 0.30551028 0.1076031 0.20299232
-0.012651225 0.04886298 -0.18827213 -0.025283225 -0.48649958 -0.13040768 -0.120363325 -0.08716228
0.009747904 -0.16146725 0.037333816 -0.17518294 -0.13777347 -0.16197026 -0.15992783 -0.09035854
0.05351707 -0.0411455 -0.13401356 0.014180417 0.07298194 -0.10672986 0.5037 0.025649872
-0.09508048 0.09832212 -0.16546425 1.2232232 -0.045165725 -0.468202 0.020660745 -0.24848509
0.021828054 -0.2700666 -0.024073161 -0.17633027 0.052295256 0.060638666 -0.17523895 0.29301494
0.059393473 -0.037067458 0.04551263 -0.08838513 0.03905676 0.25660226 0.20899135 -0.027513467
0.05661925 0.115828656 -0.16093066 0.038875017 0.26378256 -0.20924272 0.19159554 0.21082558
0.03397607 -0.07175075 0.1390968 -0.07765354 -0.15602925 0.20074373 -0.07653828 -0.017628089
-0.14816429 0.15896896 0.03165231 0.14242272 -0.053272948 -0.22802907 0.14372821 0.049926627
-0.24671257 -0.14564416 0.03271327 -0.008780754 -0.053159308 -0.09369832 0.23989174 -0.09403832
-0.08868277 0.042231526 0.032085106 -0.06637429 -0.10277359 0.10275329 0.29211345 0.15720017
-0.031680357 -0.15286842 0.0018578296 0.7811562 0.09487035 0.16744402 0.3037723 0.15823436
00000000: 8a27 e5bd 1436 50bc 4a87 60be a140 393e
00000010: b0c3 953d 83db 90bd 7e6c d03d e830 793e
00000020: bc23 7c3c 3824 11bd b3d6 873d b00b 413d
00000030: 0280 30be a036 afbd e192 863e 117b 62be
00000040: 443a 36bd ed71 493d 4add 823e f48a 2cbe
00000050: ddc2 533e 0e64 2b3e 7346 51be 7efe 07be
00000060: dcd4 2fbd d0c5 7e3c 6607 d53d 1b44 ef3d
00000070: 838f 68bd d86b 9c3e 045f dc3d 38dd 4f3e
00000080: 1547 4fbc 8c24 483d 69ca 40be c41e cfbc
00000090: 7916 f9be 9789 05be 0c81 f6bd 2382 b2bd
000000a0: acb5 1f3c ac57 25be 58eb 183d 2863 33be
000000b0: 7d14 0dbe 88db 25be 1fc4 23be e60d b9bd
000000c0: b734 5b3d 2f88 28bd da3a 09be fb54 683c
000000d0: 8e77 953d 2f95 dabd 7cf2 003f ae1f d23c
000000e0: 8eb9 c2bd 1c5d c93d 766f 29be 9492 9c3f
000000f0: b2ff 38bd 2cb8 efbe b940 a93c e072 7ebe
00000100: bfd0 b23c 2b46 8abe 1435 c5bc ec8f 34be
00000110: 8d33 563d 4060 783d d771 33be 0e06 963e
00000120: 9246 733d 0cd4 17bd 746b 3a3d 4303 b5bd
00000130: fbf9 1f3d 5f61 833e d401 563e ec63 e1bc
00000140: 96e9 673d 9337 ed3d 02cb 24be 693b 1f3d
00000150: 820e 873e b943 56be 9f31 443e a9e2 573e
00000160: 7e2a 0b3d 0ff2 92bd 646f 0e3e d208 9fbd
00000170: 22c6 1fbe c48f 4d3e 1ac0 9cbd c868 90bc
00000180: 61b8 17be c2c8 223e daa5 013d 43d7 113e
00000190: bc34 5abd 7480 69be 7d2d 133e dd7f 4c3d
000001a0: 38a2 7cbe be23 15be 5afe 053d 27dd 0fbc
000001b0: 93bd 59bd e8e4 bfbd 2ea6 753e 2a97 c0bd
000001c0: 509f b5bd f7fa 2c3d ac6b 033d 3eef 87bd
000001d0: f67a d2bd 5170 d23d e58f 953e 15f9 203e
000001e0: 43c3 01bd 8a89 1cbe 6b82 f33a daf9 473f
000001f0: 634b c23d 7276 2b3e 0b88 9b3e 3008 223e

decoder.weight_hr_l0 f4 [1, 32]
-0.1044307 -0.15726371 0.08943956 -0.037598334 -0.16994217 -0.078276575 -0.43932912 0.123048805
-0.079956606 0.043237213 -0.046836313 -0.00032946645 0.14590777 0.156657 0.23423533 0.016630977
-0.004860782 0.14346421 -0.18481551 -0.08814868 0.07015746 -0.21303159 0.5616267 0.15043363
-0.020978276 -0.10995395 0.08477129 0.74036264 -0.10632974 0.2805819 -0.37932557 -0.060579635
00000000: c3df d5bd bd09 21be 172c b73d b600 1abd
00000010: 5205 2ebe 784f a0bd bfef e0be 0301 fc3d
00000020: 4ac0 a3bd 8119 313d 6fd7 3fbd 3dbc acb9
00000030: d968 153e b16a 203e 63db 6f3e b03d 883c
00000040: 3247 9fbb 48e8 123e 4740 3dbe 4c87 b4bd
00000050: b7ae 8f3d f424 5abe c4c6 0f3f 460b 1a3e
00000060: a2da abbc 892f e1bd 929c ad3d 6888 3d3f
00000070: 68c3 d9bd 6ea8 8f3e f636 c2be 5a22 78bd
