output/synthetic_data/models/model_hidden64_lr0.005_clip5.0.pth (torch, 141415 bytes, 9 tensors)

encoder.weight_ih_l0 f4 [256, 1]
00000000: 9bd6 53be 16fb 993c 39d4 44bd c903 d13c
00000010: 371d cd3c dbd8 5c3d 4375 c03d 37ff 8ebd
00000020: ff0e 8d3c d777 09bc f428 1a3e 6a6b 9fbc
00000030: d589 d5bc 4424 c83d 6f7f d03d 865b 8a3d
00000040: ffcc 1e3e 3fc2 113e ba6c 1f3e 8cab 473d
00000050: ed61 89bd 1e29 94be 5b0e c73d a8a0 b9bb
00000060: b75e a13d 5efe b73d fb79 4fbe 887f 813c
00000070: 796e f93c b4bc dc3b d2c1 8e3d 2660 8ebd
00000080: 5b86 f5bd 9f33 a03d c074 64be 3da7 0cbe
00000090: f93d 1bbe 5e06 85bc fd91 9a3c 1a80 e7bd
000000a0: b9e6 8d3d 517d 673e 8bd6 813c 6e68 cebd
000000b0: 04e5 2fbe 44a6 83be 577d dabd 0f2a b0bc
000000c0: 3ff5 28bc 22f3 893b d012 1a3d 9aa5 89bd
000000d0: 2693 55be 9b3c b63d 3acb 1c3d 58ce bbbd
000000e0: 4432 93bc 4052 66bd 9f8e 983b 2f00 c43d
000000f0: 4a9d 70bd 1538 c4bd 2e69 22be 01eb 843b
00000100: 4ce9 e4bd 4842 cb3b 6d87 edbd c572 0d3d
00000110: 3a53 cabb ae60 65bd db86 da3e 1d78 c5bd
00000120: 71e9 a03d 1fe5 31bd db66 f23d b5e6 883d
00000130: a1cb 49bd 99af 753c 8a33 133e dcb2 fe3b
00000140: 4226 333b cdcb e73d aa0a ccbc ef4a b73d
00000150: 336a 46bd e0dc 58bd 8159 783e 966a a93d
00000160: 3680 b73d ce52 7f3d f5d6 23be d87e 383d
00000170: 741e 6abc c5d0 22bd a2f3 ac3b 2d35 323d
00000180: 4b27 6c3e 3186 a23d f8aa cbbd 02dd 12be
00000190: da7b 1dbd 0dd6 5fbd ea97 a8bc 62e6 433d
000001a0: 5285 d6bd 64db 06bc af5f 153e ad73 12bb
000001b0: 05fb d5bd 8b70 463c 1d4c fc3d 4845 a5bd
000001c0: aea3 bcbd aa3f 0a3e 0015 aebd 9f6b 0abe
000001d0: 1f4a 5bbe f127 643d 60ac 80bb dc7e a63d
000001e0: a67b 79bc 9d24 cb3c a7b3 b9bd 2575 c83d
000001f0: a2f8 d13c 77d5 17be 5a4a 1cbe fe7b 383d
00000200: d001 df3d 4659 6f3d ede1 51be 395d b9bd
00000210: 160c 403d 5421 6d3d 8ece 24be c510 b33d
00000220: 6702 063e 129c 1ebe be46 26be 144b 1c3e
00000230: a2a2 f63c 4984 97bd d143 1a3d 63a0 71bd
00000240: 2c6d 2d3e d8c2 063b 9f70 bb3c 019d bfbd
00000250: 31e7 d13d aa20 623e ec28 273e bbea 29bd
00000260: 706b e8bd 5bb8 973d d00f b73c 02d8 793d
00000270: 04f7 38be 3488 25be 7508 30be b146 40be
00000280: 38b2 773e 408d 613e 14cc a9bd 1d79 c5bb
00000290: ddde 893d 8f55 d4bd 2c70 213e b134 f3bd
000002a0: 6587 8d3d 5876 44be d622 eebd b034 a3bc
000002b0: 5263 b3bc e08f c53d 293e 513e b8a2 933c
000002c0: 107a 1cbe 8a16 7fbd 1394 cf3c bae5 eb3d
000002d0: 0aaa 293e 3bbf 1fbe 47e2 473d 5fdb 243c
000002e0: b45b 8e3c eb96 043c 8b75 813d 0a9e e73d
000002f0: d135 873d 5623 043e 9d02 b13d 59bc f83d
00000300: 5e1f f0bd cf99 043d f1dd 4dbd bef6 173d
00000310: 57c3 0e3b fcd8 dcbd 86f7 753e b918 aabd
00000320: 2b91 823d ad8d 943c 85b6 083d a18e c73d
00000330: a71f 1a3d 9b08 4bbd 19b7 bb3d 119b 1ebd
00000340: 3da7 7c3d 6830 e43d 7331 45bd b709 babd
00000350: 1ada 36bc da55 bfbd fec6 0ebd 91f9 de3c
00000360: 64c9 53bd 9c5e ad3c d397 42be e368 18be
00000370: 4d27 023e ea03 393d ff56 363e 585b 3b3d
00000380: a13e 05be 2a2a 393e 73c9 71be 062c 523d
00000390: 8183 86bd 6f77 f93d bb2b 3c3e 6832 e03d
000003a0: adab 27bd 1bd2 803e 554d 033e 0351 b9bd
000003b0: 1a29 00bd 0c5a f9bd d0b8 fbbc d708 273d
000003c0: 6d2e bb3d 77ec b53d f97d e5bd eccb fab9
000003d0: 3a87 7bbe 3d0c 96bd 6367 64bd 9d81 81bd
000003e0: cf4a 00be 7854 88bc 68ff 0dbc 8505 dbbc
000003f0: fffb 09be c62f 36bc 3ee7 4dbd 0392 69ba
-0.20687334 0.018796485 -0.048053954 0.0255145 0.025038345 0.053917747 0.09397366 -0.06982272
0.017219065 -0.008390388 0.15054685 -0.019460399 -0.0260667 0.09772542 0.10180556 0.06755738
0.15507887 0.14234255 0.1556882 0.048747584 -0.06708131 -0.2893762 0.09719535 -0.0056649037
0.078793935 0.089840636 -0.20261376 0.015807882 0.030448185 0.0067363624 0.06970562 -0.069519326
-0.11988517 0.07822346 -0.22310162 -0.13735671 -0.1516036 -0.016238388 0.01886844 -0.1130373
0.069287725 0.22606398 0.015849372 -0.10078512 -0.17177206 -0.25712788 -0.10668438 -0.02150443
-0.0103123775 0.004209892 0.037615597 -0.06721039 -0.20856914 0.08898278 0.03827975 -0.09170216
-0.017968304 -0.056230783 0.0046556736 0.095703475 -0.058743753 -0.09581009 -0.15860435 0.004056335
-0.1117731 0.0062029697 -0.11598096 0.03453328 -0.006174472 -0.056000404 0.42681012 -0.096420504
0.078570254 -0.043431398 0.118360244 0.06684629 -0.04926646 0.014995479 0.1437513 0.0077727865
0.0027336036 0.11318169 -0.024907429 0.08949839 -0.048441123 -0.052945018 0.24252893 0.08272283
0.08960001 0.062334828 -0.15999968 0.045042843 -0.014289487 -0.03974988 0.0052780667 0.043507744
0.23061864 0.07935751 -0.09944719 -0.1434212 -0.038448192 -0.054647494 -0.02058025 0.047827132
-0.104746476 -0.008231018 0.14587282 -0.002234678 -0.10448269 0.012111793 0.12319205 -0.08069855
-0.09210907 0.13500848 -0.08500099 -0.13517617 -0.21414994 0.055702154 -0.0039267987 0.08129665
-0.015227234 0.024797732 -0.09067469 0.097879685 0.025631253 -0.14827524 -0.15262738 0.045040123
0.108890176 0.058434747 -0.2049634 -0.09050984 0.046886526 0.057893112 -0.1609442 0.08743433
0.13086854 -0.15489224 -0.16237924 0.15263015 0.030106846 -0.07398278 0.03766233 -0.058990847
0.16936177 0.0020562913 0.02288085 -0.09356118 0.102491744 0.22082773 0.16324204 -0.041483622
-0.11348617 0.0740821 0.022346407 0.060997017 -0.18062979 -0.16165239 -0.17190726 -0.18776967
0.24189079 0.22026539 -0.08290878 -0.0060264007 0.06731961 -0.103678815 0.15765446 -0.118752845
0.0691059 -0.1918577 -0.11627738 -0.019922584 -0.021897946 0.096465826 0.20433868 0.018021926
-0.15280938 -0.062277354 0.025339162 0.11518426 0.16568771 -0.15600292 0.04879978 0.010062068
0.017377712 0.008092622 0.06321248 0.113094404 0.066020615 0.12904105 0.086430766 0.121452995
-0.11724733 0.032373246 -0.050260488 0.037100546 0.0021783912 -0.10783574 0.24020204 -0.08305497
0.06375345 0.018133963 0.03337719 0.09744001 0.037627842 -0.049568754 0.091657825 -0.0387221
0.06168293 0.11142045 -0.04814286 -0.09083884 -0.011160398 -0.09342547 -0.034857742 0.027218612
-0.051705733 0.021163277 -0.19003229 -0.14883761 0.12710305 0.04516975 0.17806624 0.04574141
-0.13012172 0.1808249 -0.23612003 0.051311515 -0.06568051 0.12180983 0.18376057 0.10947114
-0.040935207 0.25160298 0.12822469 -0.09048655 -0.031289198 -0.12175378 -0.030727774 0.040779915
0.091397144 0.08882993 -0.11205668 -0.0004783565 -0.24563304 -0.07326553 -0.05576266 -0.0632355
-0.12528537 -0.01664184 -0.008666851 -0.02673603 -0.13475035 -0.0111197885 -0.050269358 -0.0008910002

encoder.weight_hh_l0 f4 [256, 64]
00000000: 9817 89bd f45c 61be af76 c93c a5b0 efbc
00000010: 9f3e 3bbd d750 d83d 3233 0a3e 7bb3 a8bd
00000020: 645c 4abe 9f68 853e a4a3 093e ed86 f4bd
00000030: e740 223e 3a2f 173e 6bd8 91be 72a9 123e
00000040: 8c2e 67bd 9834 7f3e 55da 593e dd79 20be
00000050: 9821 88be 7c23 be3c 6d69 74be f425 e03d
00000060: 4963 0ebd 754f 58be 1380 3dbd 94cb 19be
00000070: 1c57 4d3e 4494 de3d e2e1 d63c 1178 863e
00000080: 6edd 893d 7d62 6bbe 6fb6 89bd 1f45 06be
00000090: ed6d 003e 1fc2 d43d 1585 e3bd 8d85 7c3d
000000a0: 289b d03d a15c 493e 4f2c 373e d59f 2e3e
000000b0: 67cb 783d 730a f93b ddfb 35bd d3f5 f33b
000000c0: 1b65 e13d b654 36be cccc 2cbe cab3 893d
000000d0: 840f c5bc 9cd8 a53d 6881 af3d d5ae f2bd
000000e0: 249c 83bd bd8f 0ebe b4aa f6bd de52 9fbd
000000f0: b235 42be 3def 0bbe 2b29 303e 47b3 a2bd
00000100: f82b 933d 90f0 0f3e 7ffd 2ebd c762 753d
00000110: 53d1 5dbd bb7f 343d 0b55 b1be 8074 72bd
00000120: 53ab c3bd db57 20bd 5da6 7cbd 5389 a0bc
00000130: 4ad8 6c3b 3c98 0cbd 9b53 5d3d eec0 373b
00000140: 27d9 6f3d 5b8b 903d f41c a73c 3462 8dbc
00000150: e714 bd3d 2c44 183e 2916 8dbd 1cca 173d
00000160: a86e dc3d 5c72 6ebd 60c1 59bd 7912 9fbd
00000170: 5156 c53d 4aca 5b3d 09cd e8bc 6059 f5bb
00000180: 9b85 a6bd f4d8 5ebd 30d6 e13d 374d 953b
00000190: ceea 5c3d f5d4 c53d b552 983d 9b7c cebc
000001a0: d385 f5bc f0b3 91be e488 a83d 5ebf 603b
000001b0: d336 fabd 2d1d 0dbe 0585 0c3e 5c26 69bd
000001c0: b788 6f3d a7f8 a8bd a500 8ebd ee66 323e
000001d0: c85d 1fbc 430e 6bbc 32fb 85bd 23c4 f0bc
000001e0: be1c 7f3d 81ae 63bd a759 2f3d 9135 ce3d
000001f0: 207c 0fbe bf04 ac3d 68ca e33d 9058 2cbe
00000200: a8ac e6bd 7656 4abc 51bd fe3d 2fb8 b03c
00000210: fb87 fdbd b8d6 c33b 547f 9dbe 4ddc 793c
00000220: 93b2 f7bd 32e2 573d 6c10 26bc 628e 01be
00000230: e379 013d 2200 81bd 5ce1 0ebe 6676 f73b
00000240: 98c4 1a3b 9125 92bd 6923 7f3d 28a0 a73c
00000250: c773 7f3d 84a9 19be 404f 903c 2eda 113e
00000260: 635d c03d b614 123d f1ed 54be 687f ee3d
00000270: cd7f 9d3d 2a8f d9bc 3231 583d c628 073e
00000280: ebf1 8e3c bb40 cebc e905 153e 5a1d d33d
00000290: 9d21 223c ac4d 68bd c3db 92bd 8b31 81bd
000002a0: 1ac3 07be 820d c1bb 9c5a 42bc 17a7 df3b
000002b0: 022e 9abd e21c 99bd c07d 2b3c 1438 cf3d
000002c0: 374c 303e 770e 7a3c 52d4 b3bd 7007 55bd
000002d0: db49 f4bd e4eb 433c e2cb 10bd 6ccc 1c3d
000002e0: 9ea1 52be a1f2 1c3c c9f7 9c3d 6f9f bebd
000002f0: d298 67be f34e 49be cc10 523d d141 c6bd
00000300: a90f 963d 88fe a8bd 57e2 7f3d 93e1 1dbd
00000310: 27f8 35be bf50 0c3e b7fd a1bd b992 32be
00000320: ceb0 52be fe95 46bd 9c90 233e 7572 7e3c
00000330: b234 14be 6548 e6bb 3662 d13c 326b c53d
00000340: dcf4 0abe dfc6 183c 4e8e 0cbd 3fdb d4bb
00000350: 70a8 0bbe 9753 573d 1357 56be efa6 e33c
00000360: eada 4fbc b845 9abc 0530 e9bd 460e e4bd
00000370: 69e4 e03d faac c13d 2fb6 853d 8b4e 343e
00000380: f5a8 45ba 7234 84bd 155c 8fbb 5e9d a7bd
00000390: ff12 233e 6c6f f539 2b31 0ebe 587d 603d
000003a0: 68d0 fcbc 0fa8 953d 178e ce3d 06ee 063e
000003b0: c710 b8bd 1393 c83c 32dc d2bd 4da2 93bc
000003c0: 91fc 063e 9ec8 9ebc c44f c0bd 79cd 43bd
000003d0: 1603 18be fe0f 323d b764 f8bc 6ca2 e73c
000003e0: 1b59 e2bc f604 d8bd 8a38 3abd bd50 153d
000003f0: e0a8 42be abd0 093d f68e a0bd 1ac9 1bbc
-0.06693953 -0.22008115 0.024592726 -0.029259035 -0.045714017 0.10562294 0.13496092 -0.08237358
-0.19761807 0.26056382 0.1344133 -0.119397976 0.15845071 0.14764109 -0.28485426 0.14322451
-0.056440875 0.24922407 0.21274693 -0.15671487 -0.2658813 0.02321028 -0.23868342 0.10944739
-0.034762654 -0.2112406 -0.04626472 -0.15019065 0.20052761 0.10868123 0.026230756 0.26263478
0.067316875 -0.22986789 -0.067242496 -0.13112305 0.12541933 0.10388588 -0.11109368 0.0616508
0.10185844 0.19664241 0.17887996 0.17053159 0.060740855 0.0076001226 -0.04442965 0.007445076
0.110056125 -0.17805752 -0.16874999 0.06723745 -0.02405525 0.080979556 0.08569604 -0.11849753
-0.06426266 -0.1392202 -0.12044278 -0.077794775 -0.18965796 -0.13665481 0.17203204 -0.07944351
0.07186121 0.14056611 -0.04272222 0.059908655 -0.054154705 0.044067126 -0.34635195 -0.059193134
-0.09554162 -0.039146286 -0.061682094 -0.019596731 0.003613966 -0.03432487 0.05403481 0.002803858
0.058556702 0.0705783 0.020399548 -0.017258741 0.092325024 0.14869756 -0.06888992 0.03705798
0.107632935 -0.05821453 -0.053162932 -0.07767195 0.09635604 0.053659715 -0.02841808 -0.007487461
-0.08130952 -0.05440612 0.11027181 0.004556324 0.053934865 0.09659759 0.0743765 -0.0252059
-0.029971039 -0.28457594 0.08229235 0.0034293751 -0.12217488 -0.13780661 0.13722618 -0.056921348
0.05847999 -0.08250552 -0.06933717 0.17422077 -0.009726949 -0.014346662 -0.06542052 -0.0293904
0.06228327 -0.05558634 0.04281011 0.10068811 -0.14012194 0.08399343 0.1112259 -0.16830659
-0.112634 -0.012349715 0.12438453 0.0215722 -0.12379452 0.005976524 -0.30761206 0.015250278
-0.12094607 0.05270595 -0.010135751 -0.12651971 0.03161038 -0.062988535 -0.13953155 0.007551956
0.0023615714 -0.071360715 0.06228963 0.02046211 0.062366273 -0.15006071 0.017615914 0.14243385
0.09392812 0.035664283 -0.20793892 0.116453946 0.07690392 -0.026557524 0.05278129 0.13199148
0.01744934 -0.02517735 0.14553036 0.10308333 0.009895709 -0.0567147 -0.071708225 -0.06308278
-0.13258019 -0.005891503 -0.011862423 0.0068253386 -0.075283065 -0.07476212 0.010466993 0.10118118
0.17216574 0.015262238 -0.08780731 -0.052009046 -0.11928149 0.011958096 -0.035350688 0.03828089
-0.20569465 0.009579332 0.07664449 -0.09307753 -0.2261689 -0.19659023 0.05128555 -0.09680522
0.07327206 -0.08251673 0.062471714 -0.038545202 -0.17770444 0.13702677 -0.079097204 -0.17438783
-0.20575258 -0.048482887 0.15973133 0.015530218 -0.14473227 -0.007027673 0.025559526 0.096395865
-0.13569969 0.009324758 -0.0343154 -0.0064958627 -0.13638473 0.05256995 -0.20931654 0.027789561
-0.0126864705 -0.018832073 -0.11386112 -0.11135535 0.10981066 0.09456821 0.065288894 0.17608087
-0.000754013 -0.06455316 -0.0043749907 -0.08184312 0.15925215 0.00046813057 -0.13885944 0.054807037
-0.030861095 0.07307445 0.10085695 0.13176736 -0.08987575 0.024484193 -0.10295905 -0.018021727
0.13182284 -0.019382771 -0.09390214 -0.047803376 -0.14844927 0.043472283 -0.030321462 0.028275691
-0.02763038 -0.10547821 -0.045464076 0.03645395 -0.19009733 0.033646267 -0.07839768 -0.009508396

encoder.bias_ih_l0 f4 [256]
00000000: 786d 11be 81c0 1fbe a345 d239 6323 8a3d
00000010: 26a4 83bd e931 88bd e7e0 013c 3bf3 0fbd
00000020: 8ff2 8a3d 098a 23be 96cb 63bd f95c 333d
00000030: 3f63 e5bd 9734 c4bd 95a9 03be c6b4 d23d
00000040: dd4b f23d f629 9abd cee8 443d 2f4c adbd
00000050: aa8e 03be 1174 afbc a244 b83d 8681 c73c
00000060: fa28 f1bd 8de4 e43d 9973 84bd c46e b3bd
00000070: e4f7 5c3d 03d9 06bd 2d98 e63d e73a abbd
00000080: d191 26bd 73e5 85bc 63bf 0fbc 62aa 41bd
00000090: 66f5 9c3d bf4e f43c c402 b1bc b410 8dbc
000000a0: ecc4 f73c 0ac1 c03d b7ed 513e 8a21 2c3d
000000b0: 47ca 9d3c eadd 32be 2b4b 1abe 96c4 f0bd
000000c0: f177 eebd 2b4c 44bc 41d5 153e 0aa0 813c
000000d0: 3fc4 1cbe a3a9 05be 855a f5bd bc31 593d
000000e0: 1bc0 c23c 07ca 013e 55a9 9cbd c34d b13d
000000f0: a45c 493d 02e8 acbd 40f2 1abd 3de8 8fbd
00000100: 9fe5 943d 8db8 88bd 672b 80bc 41d4 39bd
00000110: 4803 73bd 6428 0d3d 84ec 753e f1b6 c6bd
00000120: 1bf4 b8bd 37ad b63c 9e88 8dbd 74e8 833d
00000130: 47a4 11be 6622 f6bd 2ee7 aa3d df16 943d
00000140: 26c6 afbd 4ad0 3d3d bae9 333d 17d8 983c
00000150: b1e6 7dbd e054 553d 0d08 a2bd 6210 5d3d
00000160: 5e5f 6f3d dcc8 ca3a b499 b9bc dfa0 033c
00000170: 055c 153d 1770 82bd d22b 0fbe c702 e73c
00000180: 88cb 8f3e 83ae 303d 06ab 2dbd 237e 4e3d
00000190: 0714 673d e94c 08be ba0f e13d 9d8f afbb
000001a0: 2353 90bd 1168 25bd 46b2 3b3c c577 0c3e
000001b0: 6463 0b3c 0ced 7a3d e980 0f3e 0ac5 b63d
000001c0: f6ed c8bd 7514 61bd 0d01 49bd 3625 1d3c
000001d0: fda3 1bbc 7063 c7bc fe19 0ebc f9b9 013d
000001e0: da80 6e3d d90f 9a3d 759c 29bb cd07 2e3d
000001f0: 7782 e63d 42dc 9f3c 6a43 bdbd 8a80 c43d
00000200: 962d b6bd decb 04bc f968 d93d 0b6f 0cbd
00000210: 448d f9bc accb 1a3d b1f9 a1bd d787 7c3a
00000220: d082 803d 1e6f 033d 8d23 7c3d c315 0d3d
00000230: faf7 d83b 3a8e adbd 0715 8bbc 6226 bfbd
00000240: 0d5c 873c 3022 8ebd e903 dbbd 0d9f 843d
00000250: ef6a 81bd 00b9 ad3d 9778 6c3d 4b7a 713d
00000260: 1a55 f03c b711 dbbb c0ff e7bb aad5 753c
00000270: 5b7d a13d 80fa 12be 2db9 a03d 6df4 083d
00000280: cb87 293d 0bcd 9c3d f8eb 20bd 1d75 c93c
00000290: 7536 13bd 966b e2bd e43a c9bc 4312 c3bd
000002a0: 5a97 dabd 7217 a13d d29d 9bbb dae6 1ebe
000002b0: 1280 e63d 48a4 06be 9c10 31bd bf62 5b3c
000002c0: 0182 85bc ff4d e83d dae0 833d 24a2 a9bd
000002d0: 4fdc 50bd ff90 503d 7c9e f0bd ab4f 98bc
000002e0: 2928 1ebe 1072 af3d e3cf 60bd 43ab d43d
000002f0: c4d6 12be 73d0 e4bd 6b50 dabc e29c c6bd
00000300: fd13 bebd 191d 37bd cac4 0bbd 99a1 4dbd
00000310: 00c1 2cbe ce31 e9bd 8e53 8b3d 9762 9e3d
00000320: 0d8c 1a3d b38a 49bd 1abf a83c fd87 adbd
00000330: 2284 9bbd d650 09be 8bf4 d6bd 3d62 443d
00000340: c840 70bc 5a8c eb3d e6f7 1abd d640 5fbc
00000350: 0aef 2c3d e0dd ff3d c4fa d13d d849 a53b
00000360: f215 cb3d 18e4 ddbd efc0 033e c1cb 273d
00000370: 1f64 99ba 236b ca3d 5528 c53c fd11 69bd
00000380: 2e7d 723d 9c41 a93d 1282 a3bd 8ae5 213d
00000390: 128d d93d ecea b6bd 2d1d b93d 670d b4bd
000003a0: 8050 9e3d fffe dd3c 8060 0d3e c111 633d
000003b0: a7fc ecbd 72f4 413b a606 f8bd 176b e53c
000003c0: 00de 13be 81d6 abbb 54e2 99bd 76a9 cdbc
000003d0: 4917 60bc 830d d6bb 8070 e6bd 4665 363c
000003e0: 4863 8f3d 9371 863d 757a 8d3b 17ea e13d
000003f0: e95b 853d 879a d93d 2e03 d3bd 1e2d afbd
-0.14201915 -0.15600778 0.00040106205 0.06745031 -0.06427793 -0.066501446 0.007927156 -0.035144072
0.06784546 -0.15970625 -0.055614077 0.043789838 -0.1120057 -0.09580343 -0.12857659 0.10288386
0.11830876 -0.07527535 0.048073582 -0.084617965 -0.12847391 -0.02141765 0.08997466 0.024353754
-0.11775394 0.11176405 -0.06467361 -0.08761361 0.053947344 -0.032921802 0.11259494 -0.08360844
-0.040666405 -0.016344761 -0.0087736575 -0.04728163 0.076639935 0.029822705 -0.021607764 -0.017219879
0.030245267 0.09411819 0.20500837 0.042024173 0.019261492 -0.17467466 -0.15067737 -0.11756246
-0.11643971 -0.0119810505 0.14632131 0.015823383 -0.15309237 -0.13052993 -0.11980156 0.053025946
0.023773244 0.12674724 -0.07649485 0.0865741 0.049160615 -0.084426895 -0.037828684 -0.07026718
0.07270359 -0.06675825 -0.015645696 -0.045368437 -0.0593293 0.034462348 0.24016005 -0.09702862
-0.090309344 0.022299392 -0.06910823 0.06440821 -0.14222823 -0.1201828 0.08344875 0.07230925
-0.08582716 0.046341218 0.04392407 0.018657727 -0.061987583 0.052082896 -0.07911692 0.053970702
0.05844056 0.0015471238 -0.0226563 0.00803396 0.03646471 -0.06369036 -0.1398156 0.028199567
0.2808497 0.043135177 -0.04239943 0.050413262 0.056415584 -0.13310589 0.10989328 -0.005357696
-0.07047107 -0.04038245 0.011456078 0.13717563 0.008507583 0.06126122 0.14014019 0.08924301
-0.098110124 -0.05495115 -0.049073268 0.009591391 -0.009499547 -0.024339408 -0.008673189 0.031671498
0.05822835 0.07522554 -0.002588061 0.04248791 0.11255353 0.019514207 -0.09241374 0.095948294
-0.088954136 -0.008105246 0.10615725 -0.034285586 -0.030462869 0.037791893 -0.07908953 0.0009633279
0.062749505 0.03208839 0.06155734 0.03444458 0.006621358 -0.08474393 -0.0169778 -0.09333493
0.016523385 -0.069401145 -0.10694105 0.06475649 -0.06319224 0.084825516 0.05773219 0.05895452
0.029337455 -0.0066854614 -0.0070800483 0.015004555 0.07885238 -0.1435337 0.078478195 0.033436228
0.041389268 0.07656296 -0.039287537 0.024591977 -0.035940606 -0.11055677 -0.024564214 -0.095249675
-0.10673399 0.078658 -0.0047490383 -0.1551775 0.11254896 -0.13148606 -0.04322873 0.013390242
-0.016297342 0.113430016 0.064393714 -0.08282879 -0.050991353 0.05091953 -0.117489785 -0.018592676
-0.15445007 0.085666776 -0.054885756 0.10384228 -0.14339739 -0.11172571 -0.026649674 -0.09697892
-0.09281156 -0.044705484 -0.03412322 -0.05020294 -0.16870499 -0.113864526 0.06803046 0.07733648
0.03773122 -0.04920454 0.020598937 -0.08473203 -0.07593562 -0.13409743 -0.104958616 0.04794525
-0.014663883 0.11501379 -0.03783407 -0.013626298 0.042220153 0.12493491 0.10252908 0.0050442033
0.09916295 -0.10834521 0.12866567 0.0409658 -0.0011702812 0.09883716 0.024067083 -0.05690192
0.059201412 0.08264467 -0.07983793 0.039525546 0.1062261 -0.089315265 0.09038768 -0.08791619
0.07730198 0.02709913 0.13806343 0.055436853 -0.11571627 0.0029595164 -0.12110643 0.028005166
-0.14440155 -0.0052440767 -0.07513872 -0.02510522 -0.013677427 -0.0065323724 -0.112519264 0.011132544
0.07001358 0.06564631 0.0043175765 0.11030977 0.06511671 0.10625177 -0.10303341 -0.08553527

encoder.bias_hh_l0 f4 [256]
00000000: 478e 9dbd 95c2 d23b d7cc ce3d 943e 863d
00000010: 717f 26be 65da dbbd f232 ad3d befc 74bd
00000020: c6a8 473d d014 78bd f2d6 453d b3c5 c2bb
00000030: c906 ccbd 1e73 77bd e5b3 613d 7442 32bc
00000040: afad d33d c4f1 ef3d da36 88bd 8700 49bd
00000050: 8baa 06be daab 87bb f30a ab3d 76ec c03d
00000060: 4293 39bd efa9 ae3d 0921 af3d 32a7 e23b
00000070: 1744 a2bc 5f69 fc3b 75b8 b3bd a23d 8cbd
00000080: 54f7 39be 7a0f ebbc 3b35 353b dc0a 06be
00000090: 13b7 36bd 765c 00be b11d 05bd 22c1 063e
000000a0: 0488 ddbd acaa b23d f93b cc3d 38fe 833d
000000b0: c362 51bd 863a 543c 8618 ac3d b00c 9ebd
000000c0: 582b a8bd 0052 94bd 5800 ae3d 5eb5 c53d
000000d0: d9d1 ecbd 6a59 f0bd 7967 593d b6ff c53d
000000e0: ae5e 78bd 516e 0b3e 43aa 07ba cd0b ed3d
000000f0: 1361 c03d 54e8 3d3c cb83 11be 0480 88bc
00000100: c009 8e3d 9995 07bd 960e afbd 8984 41bd
00000110: fb96 37bc 517e 8e3d dd2f 383e 6676 ea3c
00000120: 37a8 dfbd d535 03bc dfe6 0fbd 609c 173d
00000130: fb4f 57bd d640 8fbd a254 c5bd 161d 9fbd
00000140: cb64 21bc 4552 ebbc 8648 d63b 7a22 4c3d
00000150: e561 07bd 95c6 3b3e 0a84 cc3d 7387 85bc
00000160: 9b8f f8bd f472 85bd fe79 ae3d 9650 b9bc
00000170: 6757 dc3d 809b 2dbd 608a f6bd 9d84 4c3d
00000180: 7565 843e 294f df3d 0fea 9bbd 8b92 b23a
00000190: cba3 1e3e 6efd b43d bc65 80bd 9c4b 9dbc
000001a0: 99e5 a6bd 4963 403d e796 bebc e125 0cbd
000001b0: 606b 0cbe c5da d83d 8a46 b53d 8734 01be
000001c0: fec4 383c b109 b53d fd1c acbb 3259 bfbd
000001d0: c193 77bd 8029 abbd eb61 ca3d c530 2fbd
000001e0: 46ca eebc 57d0 18bd f6bf 07be 59fe 3cbd
000001f0: e5db 8a3d aee5 03be 8000 52bd 3415 a13d
00000200: 4aee 6dbd e3bc 0a3e 38bc 443d 6e74 7bbd
00000210: ea6f b43c 62d3 a6bd f12a 783c 287f 933d
00000220: 0b90 a33d 170d b1bd c720 b0bb 1a78 1d3d
00000230: 69f6 53bc 4487 94bd 557e e13d f54c f23c
00000240: 8bea fc3d 88ea fdbd 974c c8bd 204d ad3d
00000250: 989a 133d 35ea 80bd 37ad b7bb 7dde 9e3d
00000260: e6a8 0c3e 62f9 ab3d 00d7 1fb8 305e 5a3d
00000270: c00a 86bd bdc3 6a3b 213d d9bd eaa7 8bbc
00000280: 05f4 b33c 1b3c bb3b 25a7 36bb 1ddb 3d3d
00000290: ecfa c6bd 9a4b 85bc 4dbb 053e 13b5 3a3d
000002a0: 8527 52bd d0f2 573d 42fd d83d 9f60 ba3c
000002b0: 3066 82bd 84fe 413d 1903 a3bc 3b97 debd
000002c0: e3cc 053d 8567 d23d 815f 323e 4c5b a4bd
000002d0: 86e8 353d d4e9 adbd 3f7b c9bd 80ba c13a
000002e0: 7ba3 5a3d 0b1c c53d 83cf c23d a167 143e
000002f0: a128 d33c 83ee eabd ee18 94bd 020a be3d
00000300: 0573 97bc 6864 0dbe 4113 c03d b9d0 eabc
00000310: dc6c 25be 6cd1 97bd 9c91 733c 19f4 cf3d
00000320: 910b d1bd 9c16 953b c9fe 963d aedf 2b3c
00000330: 5265 3dbd 9a95 dabc d99d d4bd d77d 9ebd
00000340: c689 0a3e 8fa8 54bc bb2e 7b3b d06c f4bc
00000350: a1ee 8cbc 3687 023e 9de4 6d3d d02c 373e
00000360: 8490 2d3d dac2 843c a0b9 c6bd 6180 933d
00000370: c9ea e7bc 0758 903d 81aa e33d d0ce e2bb
00000380: 4af0 dcbd 4e3a d7bc ecd3 20bc 59aa 7f3d
00000390: 4147 01bc 301e a4bc f81a b6bd 893a 0a3c
000003a0: bcbd d93c f9b9 df3d 7156 403e 1166 d13b
000003b0: c175 3abe ce3f 083a 83b7 dcbc 8bcd c8bd
000003c0: dee4 6b3d cdd8 653d cba8 b43c 609a 8d3d
000003d0: 0861 11be d0b7 82bd 523a eabc a9b1 e43d
000003e0: 9417 b63a 71d5 81bd cb2f 903d 80e5 68bd
000003f0: a7d9 57bd 8891 b2bd 7fa6 d6bd d633 0abe
-0.07693153 0.0064318874 0.10097664 0.065549046 -0.16259553 -0.10735015 0.08456983 -0.059811346
0.04874494 -0.060566723 0.04830069 -0.0059439777 -0.09962232 -0.06041252 0.0551032 -0.0108801015
0.10335862 0.11716035 -0.06651087 -0.04907277 -0.13150994 -0.0041403593 0.08351698 0.09420101
-0.04530645 0.08528506 0.08551223 0.006916904 -0.019807858 0.007702991 -0.08775417 -0.06847693
-0.18160754 -0.028693903 0.0027650136 -0.1309008 -0.044608187 -0.12535271 -0.03249902 0.13159612
-0.108169585 0.08723959 0.099723764 0.06444973 -0.051119577 0.012953406 0.08403115 -0.07717264
-0.08211392 -0.07242203 0.08496159 0.09653734 -0.11563463 -0.117358044 0.053077195 0.096679136
-0.06063717 0.13616301 -0.0005175212 0.115745164 0.093935154 0.011591036 -0.14210431 -0.016662605
0.069354534 -0.03310165 -0.08547704 -0.047245536 -0.01120543 0.06957687 0.17987008 0.02862091
-0.10920756 -0.00800844 -0.035132285 0.037014365 -0.05256651 -0.06994788 -0.09635283 -0.077692196
-0.009850691 -0.028725753 0.006539407 0.049837567 -0.033052344 0.18337472 0.09986122 -0.016299939
-0.121367656 -0.06516066 0.08519362 -0.022621434 0.10758858 -0.042384624 -0.12038112 0.049931157
0.25858656 0.109037705 -0.076130025 0.0013623995 0.1549217 0.088374004 -0.06269404 -0.019201092
-0.08149261 0.046969686 -0.023265315 -0.03421581 -0.13712835 0.10588602 0.08851345 -0.12617694
0.011277435 0.08839739 -0.005252479 -0.093431845 -0.060443643 -0.08357525 0.098819576 -0.04277112
-0.029149186 -0.037308063 -0.13256821 -0.046141002 0.06780223 -0.12880585 -0.051270008 0.07865372
-0.05808858 0.13548617 0.048031062 -0.061390333 0.022026021 -0.08145787 0.015146957 0.072019875
0.079864584 -0.08645075 -0.005375001 0.038444616 -0.012937167 -0.07252362 0.11010424 0.029577712
0.12349423 -0.12398249 -0.09780233 0.08461976 0.036036104 -0.062946714 -0.0056053656 0.0775728
0.13736305 0.08397175 -3.810879e-05 0.05331248 -0.06545019 0.0035822236 -0.106073625 -0.017047841
0.021966944 0.0057139522 -0.0027870622 0.04635154 -0.09715828 -0.016271401 0.13059731 0.045582842
-0.05130722 0.0527218 0.1059518 0.02275115 -0.06367147 0.047361866 -0.019898938 -0.10868689
0.0326661 0.10273651 0.17419244 -0.08025226 0.044411205 -0.08491865 -0.098379605 0.0014780313
0.053378563 0.096244894 0.09512236 0.14492656 0.02577621 -0.11471274 -0.072313175 0.092792526
-0.018487463 -0.13807833 0.093786724 -0.02866398 -0.16154808 -0.07412991 0.014866259 0.1015398
-0.10207284 0.0045498144 0.07372815 0.010490341 -0.046239205 -0.026682664 -0.103816696 -0.07738846
0.13529119 -0.012979641 0.0038327414 -0.029837042 -0.01720363 0.12746891 0.05807935 0.17888188
0.04237415 0.016206194 -0.09703374 0.07202221 -0.028310196 0.0704804 0.111165054 -0.0069216266
-0.10788019 -0.026272919 -0.009816151 0.062418316 -0.007890523 -0.020033926 -0.08891863 0.008436807
0.02657973 0.10924143 0.18782975 0.006390341 -0.18208982 0.0005197496 -0.026942974 -0.09804829
0.05759131 0.05611496 0.022053143 0.0691421 -0.1419717 -0.06382716 -0.028592262 0.111666985
0.0013892525 -0.06339539 0.07040366 -0.056859493 -0.052697804 -0.08719164 -0.10480975 -0.13496336

decoder.weight_ih_l0 f4 [256, 64]
00000000: 2bcb 56bd c97a 1f3d 34a6 fe3c 834c c1bd
00000010: e170 8a3d bbf7 b9bd 5b4f 1abc 6aeb 253e
00000020: a178 edbd 914d 45bd f6f1 a0be 5d7a 543b
00000030: a398 3dbd 44e9 29bd 883a 0a3e b183 a43d
00000040: bc05 80bd 2130 20be 5a14 99bd e1b3 243d
00000050: 1d72 343e 0ad7 1c3d ecdd 793e 3933 c0bd
00000060: 823f aa3d 0fa8 e33d 8d78 07bd cfc3 a73d
00000070: 2601 b1bd 1c57 11be 6fb5 683d 9b29 cd3d
00000080: acf0 12be bce1 0cbc d127 a1bc 66ad 00bd
00000090: f0ea 03be 10e7 d4bc 3a04 d43d 8a13 ce3d
000000a0: cb29 ba3c f272 29bd 3756 0c3e 3722 cebd
000000b0: b972 2ab7 fd64 87be 758b b53d 6af0 45bd
000000c0: ba3c 3cbe 4a13 c53d 8e82 35bd ac1a dfbd
000000d0: ea2b 12be 5055 84bd 798a e4bd bf9d ae3d
000000e0: 1e0a 7abc 755c f0bc 531c 26bd 5f00 9f3c
000000f0: 5816 04bd f70a b23d 1bfa 6f3d 4714 ff3d
00000100: 8b40 a3bd 056b 58be fdfe 1cbe 8ad2 913c
00000110: d6ad c9bc 263f 443e 1942 de3d b463 a8bd
00000120: 9b8b 08be e1b5 7d3d f515 f73d 72c3 4cbe
00000130: 7940 623e 9b76 1c3e b53b 00be 7f1a 0e3e
00000140: 4b80 adbc ffb5 533d def7 97bc 0b2c 9ebc
00000150: 329f 0bbe 2816 e3bb 9439 6a3d 78d4 d0bd
00000160: 3f85 973c 818c 24bd 258c 02bd 2f42 64bd
00000170: 7744 a83d f8f6 2d3e 02fe 363e 1b25 943d
00000180: b661 c13d 7d6d 73bd d89e 1fbd f805 303e
00000190: 7613 603e 8bbc 15bd 208e 26bd dd18 c1bc
000001a0: 597a 8dbd 624a 343e 48ad b13d 7873 0ebd
000001b0: 40cf c23c cad7 4b3d dc65 bebd 9bbe 363e
000001c0: 6327 de3b 01f7 69bd cb50 80bd 7f0a 4e3e
000001d0: a2f5 873c fc3c ff3d ef5f cebc 0715 19be
000001e0: 3089 50bd 8c42 18bd 955b 233c 09d5 943d
000001f0: 4221 14bd 12b2 2dbe 5540 953d 36c7 bfbd
00000200: bd35 87bd 37b8 923c d30d 7fbd 1345 413d
00000210: c190 7abd 0b10 7d3d 9984 7abd 4bd6 b63c
00000220: e5ee 7abd d8da 1e3c 8851 153d 2de2 babc
00000230: 6f1e 35be 7cd8 633d eb7c b5bc acca 24bc
00000240: 7533 3c3d a48e f33d 6446 273d 9a37 b3bd
00000250: f5d2 723d 6d8d f9bd 23b4 223e 269a 3c3a
00000260: 570e 93bd 04e8 93bd a123 973d fa51 9cbd
00000270: cb63 e63c fbc1 fd3d 47fc 0ebd e84c 253e
00000280: e71d 7abd f7d3 aa3d d9e7 8b3c cab8 c2bd
00000290: 641f d3bd f145 9e3d 3d07 03be a1a5 ae3d
000002a0: 652b a63d efdc 83bb aeba a3bc b0bd 2bbb
000002b0: b327 923c 7a87 cabd 4749 9fbc a5b8 413b
000002c0: a218 16be 7e2d 293d f4c2 d13d 48ea b1bd
000002d0: f702 cfbd 9652 92bc f023 c03d cf2e b0bb
000002e0: 4421 d6bd 1369 c43d 51f2 efbb 5849 fbbb
000002f0: 72fa cbbd bee5 4ebd fbbc d33d b91e 15be
00000300: edd4 db3d 6e60 8a3d 6e04 8cbd ebde 30be
00000310: 7e14 263c b32b aa3d b1f5 14be 67ed 093e
00000320: d5cd 8f3d 10f1 8f3e 0ae0 e03c 3cbb 323c
00000330: f456 34be 3722 1f3d 45e1 e83c d297 b9bd
00000340: ed15 443d 4a36 03bd 4629 b3bd 6cb8 89bd
00000350: f0d5 c0bc 6f2c 2cbc edf8 1a3e a8cb 0d3d
00000360: 062f da3d 39d8 a63c 6a29 833d 1bc5 4b3d
00000370: 38c8 403d ba46 41bd ef33 743d 8066 b53c
00000380: 3e5a 2fbe c72a 333e dfb6 073e 09ae 213e
00000390: 28b7 f4bd 9c10 15be 912f 993d 9a0f f3bd
000003a0: 3c8f 02be 741e 32bd 2b76 c23c 58fe 84bd
000003b0: c38a 833c 26b5 d4bc daae 7abd 89a5 903c
000003c0: 7325 24be 7675 053d 8f86 a73d eeef ebbd
000003d0: aea2 ffbd ec5a a33d df6e 2cbe 7cf2 023e
000003e0: 26aa 8abd 9713 a5bb baf1 d13d 539b c93d
000003f0: 8ab7 26be be2c 86bd 0892 17bd 3df9 ec3d
-0.05243985 0.038935456 0.031085111 -0.094384216 0.06759811 -0.09080454 -0.009418334 0.16203085
-0.11595274 -0.048169676 -0.31434602 0.0032421567 -0.046288144 -0.041482225 0.1349889 0.08032931
-0.06251094 -0.1564336 -0.07474585 0.04021061 0.17621656 0.038291015 0.24401063 -0.0938477
0.083128944 0.11116039 -0.03307395 0.081916444 -0.08642797 -0.14193386 0.056813654 0.10017701
-0.14349622 -0.008598741 -0.019672306 -0.031415366 -0.1288259 -0.025989085 0.10352369 0.100623205
0.022725007 -0.041369386 0.13704763 -0.1006512 -1.0159501e-05 -0.26444235 0.0886449 -0.04832498
-0.1838254 0.0962282 -0.04431396 -0.10893759 -0.14274564 -0.064615846 -0.11159224 0.085261814
-0.015261201 -0.029340962 -0.040554356 0.019409357 -0.03224787 0.08693498 0.05858813 0.124550395
-0.07971295 -0.21134575 -0.15331645 0.017800588 -0.024619024 0.19164714 0.10852451 -0.08222142
-0.13334505 0.06194103 0.12064735 -0.19996431 0.22094907 0.1527962 -0.12522776 0.13877295
-0.021179339 0.051687237 -0.01855081 -0.01930811 -0.13634947 -0.0069301315 0.057183817 -0.10196775
0.018496154 -0.040173057 -0.031871933 -0.05572718 0.08216184 0.16988742 0.17870334 0.0723364
0.09442465 -0.059430588 -0.038969845 0.17189777 0.21882424 -0.03655676 -0.040662885 -0.023571426
-0.069081016 0.176065 0.08675629 -0.03477809 0.023780465 0.04976634 -0.09296772 0.17846148
0.0067795976 -0.057120327 -0.0626541 0.20121191 0.016596619 0.12462804 -0.02519223 -0.14949428
-0.050912082 -0.03717284 0.009970565 0.07267196 -0.03616453 -0.1696246 0.07287661 -0.09364168
-0.06602047 0.017910106 -0.062269043 0.047185015 -0.061173204 0.061782878 -0.06116161 0.02231898
-0.061262984 0.009695731 0.036454707 -0.022812927 -0.1768739 0.055626377 -0.022154292 -0.010058086
0.04594751 0.11892441 0.040838614 -0.087508395 0.059283216 -0.12185178 0.15889029 0.0007194601
-0.071804695 -0.07221988 0.073798425 -0.07632823 0.028123757 0.123905145 -0.03490856 0.16142619
-0.061063673 0.0834121 0.017078327 -0.09507902 -0.10308722 0.07728184 -0.1279573 0.08527685
0.081137456 -0.00402414 -0.019986477 -0.0026205592 0.017841196 -0.09889121 -0.019444121 0.002955952
-0.14657834 0.04130315 0.102422625 -0.08687264 -0.101079874 -0.017861646 0.093818545 -0.005376674
-0.10455564 0.09590354 -0.0073225875 -0.0076686554 -0.09959878 -0.050512068 0.103387795 -0.14562501
0.10733972 0.06756674 -0.068367824 -0.17272536 0.010136722 0.08309116 -0.14546849 0.13469468
0.07021681 0.28113604 0.02745058 0.010908898 -0.17611295 0.03885099 0.02842773 -0.090621606
0.047872473 -0.032034196 -0.08748107 -0.06724629 -0.023539513 -0.010508641 0.1513402 0.03461805
0.106535 0.020366775 0.064043835 0.04974852 0.047065943 -0.04718659 0.05961984 0.022143602
-0.17124268 0.17496787 0.13253354 0.15789045 -0.11948997 -0.14557117 0.07479776 -0.1186821
-0.12749952 -0.043486074 0.023737988 -0.06493825 0.016057378 -0.025965285 -0.061201908 0.017657058
-0.1602991 0.032582723 0.08179962 -0.11520372 -0.124822006 0.07976326 -0.16839169 0.12787813
-0.067707345 -0.0050377357 0.10251184 0.09844079 -0.16280952 -0.06551503 -0.0370045 0.11570976

decoder.weight_hh_l0 f4 [256, 1]
00000000: c02e 213e 1a08 003e 263e 22bf 0208 983d
00000010: 0a3f 063d 7ed1 013f ad3d 15be 43b5 043e
00000020: 4fd7 6bbd 7a68 dc3c d9bc 86be a6e8 e13d
00000030: a3d8 ab3e d069 d43e 7933 813e f0c7 27be
00000040: a054 ab3e ab8e d63d 4652 503e 755f 953e
00000050: 9415 893c 595b 683d b6ce e0bc be64 ee3d
00000060: 4cdd 0f3e ad30 453e 10cd 38be 404b 06bd
00000070: 1738 5e3d d716 77be a909 323e 4d86 533c
00000080: cd00 d43d 7b52 3bbe 4e03 a33e b1ea e63d
00000090: ef8b 773e cf31 133d f020 113e 50ac cd3d
000000a0: 54ff a43e 5fdc f83d 4535 ed3d 9882 163e
000000b0: 016d 503e 57c1 0e3e 57d7 bd3d 533d 50be
000000c0: 81e2 3b3d 11fe 2cbe bb31 ae3e 4d60 1d3e
000000d0: bb5f 163d 189f 1e3e 383e a03e 6d1a b13d
000000e0: e038 8abc 4e5f 883d c2cd 7e3e 5ad1 5a3e
000000f0: 010f cc3c 8235 bc3e 3469 b6bd f7bb 61be
00000100: 3676 0f3f 06b0 68bd 7f43 44bf 2751 22be
00000110: feb7 833d 89d0 2f3f 8800 7ebe 2faf bf3d
00000120: 1d7e 13be fa9e 90bd a555 1ebe 0437 d53c
00000130: 853b d73e dd09 613f c9c2 723e 5143 85bd
00000140: 9551 4f3e f1f1 cfbd ca3e 003f 6b42 93bd
00000150: 32a7 183e d49e d9bb 87c9 98bc 75f2 3cbe
00000160: 544c aa3e 7102 f43e c441 98be 36b5 68bc
00000170: c5d6 8abc 29dd 473f a1f8 913d 7f48 f9bd
00000180: bb9c 223e 11a6 243f 4d61 d53e 3cbb 45be
00000190: 313c e73d f097 c4bc 0422 0e3f 1b1d d6bd
000001a0: e6ed 1b3f 4558 b63d a90f 5e3d 69af 183f
000001b0: fb3f f03e a3ae 8f3e cd66 aabd 63a9 0f3f
000001c0: 5cf9 20bd ed75 4cbe 6151 953d 7796 b23e
000001d0: ada8 59be f44b ec3c 497e ab3d 1bcd b43d
000001e0: ad1c adbd 3984 02be f808 2c3e 28d5 d13d
000001f0: da6c d0bb 7f35 393f 5d9c 143f 2575 32be
00000200: 36f3 9b3e beb6 353e efcb efbd b933 5a37
00000210: 896d bcbd 03fc d33e cdc8 54be b945 67bd
00000220: dfdd ccbd fb68 8dbd 6a9b a03e 7763 e8bd
00000230: 9289 c5bc 35c1 c23e 4cee 13be a523 c13d
00000240: 8407 56bd f9b8 223b 2872 823e 548d 9abd
00000250: d339 1b3e b082 09be 0a76 e93d e013 a23d
00000260: 0cb4 e33c 34c1 48be d72b 7f3d 621e c03d
00000270: fa36 963d 5641 65bb 2ae2 f9bd 736b 15be
00000280: 6e63 2e3e 919c b63e b442 0c3e 0f2d ba3c
00000290: 21ba 13be 43e0 21be 3b13 d73e e121 13be
000002a0: a64a 90be 83e4 b5bd ad47 403d e055 a3be
000002b0: 4fd7 d6bd e5e6 653d 05e6 fdbd 63df da3e
000002c0: 86c0 fa3d 7b74 e5bd ee58 8f3d 9f9d 8f3e
000002d0: a4ea 49be 95a2 02be c28f ac3d 4d36 26bd
000002e0: 95b6 6b3d b1e3 833d a06b 2f3e 3214 363d
000002f0: abb7 0ebe 90e8 a1be 1c08 b9be d80d f5bd
00000300: 65dc a33e 53bf 0f3d 7cd4 31bf 170e 02bd
00000310: 0bcc 75bb a462 d33d e9bd c23d ae0a f73d
00000320: 91df 53bd 4c70 203d 59d7 fabd a79c d83d
00000330: 6e04 8d3e 5fa2 093f ac46 a33d 4c0b 12be
00000340: 7c96 a33d a872 23bd 2a9f a53e 2879 9d3e
00000350: 1c49 323e 3bd7 c73b f8a9 193e b0f2 2b3d
00000360: 0489 6d3e d75f b53d 2cd9 43be c82a 7ebd
00000370: a240 b43c b670 0c3f 2f01 4c3e 5c50 423e
00000380: 24e1 993d baa6 01bf f6e8 2e3e 566e 82bc
00000390: 6951 1f3e 9f7a 7c3e facc c03b 32a7 e23d
000003a0: 1ae7 b83e 521a 293e 4303 773d c847 a63c
000003b0: 1ea4 8c3e de35 293d bc5a 943d d952 1fbf
000003c0: 4c19 d1bc 2432 a5be 1ec6 ec3d 8b73 e13c
000003d0: 9ca1 333e b3c5 aa3d 11eb 923e dc29 cf3d
000003e0: 6a4f e7bd 3564 afbd ec48 bc3c 2559 da3d
000003f0: 3397 0f3e bfc2 9c3e c78c 133f 02b5 79bd
0.1574049 0.1250309 -0.6337608 0.07423402 0.032774962 0.50710285 -0.14574309 0.12959771
-0.05757838 0.026905287 -0.26315954 0.11030702 0.33563718 0.4148698 0.25234583 -0.16384864
0.33463 0.104764305 0.20343885 0.2917439 0.016733922 0.05672774 -0.027442317 0.11640309
0.14049262 0.1925685 -0.18046975 -0.032786608 0.05425271 -0.24129806 0.17386498 0.012910438
0.10351715 -0.18293183 0.3183846 0.112752326 0.24174474 0.035936173 0.14172721 0.100426316
0.3222605 0.121514075 0.11582426 0.14698255 0.20354082 0.13940941 0.092695884 -0.20335893
0.045870308 -0.16893794 0.34022316 0.15368767 0.03671239 0.15490377 0.3129747 0.086476184
-0.016872823 0.06658803 0.24883178 0.21368924 0.024909498 0.36759573 -0.08906785 -0.22044359
0.5603975 -0.056808494 -0.7666549 -0.1585127 0.06431578 0.68677574 -0.2480489 0.093595855
-0.14403577 -0.070615724 -0.15462358 0.02602721 0.42037597 0.87905675 0.23707117 -0.0650698
0.20245965 -0.101535685 0.5009581 -0.071904026 0.1490753 -0.0066412482 -0.018650783 -0.18451865
0.3326136 0.47658113 -0.29737675 -0.01420336 -0.016948113 0.7807184 0.071275 -0.12172031
0.158801 0.643159 0.41675797 -0.19309705 0.112907775 -0.02399823 0.55520654 -0.1045477
0.6090988 0.08903555 0.054214153 0.59642655 0.46923813 0.28062925 -0.08320389 0.5611784
-0.039300308 -0.1996686 0.072909124 0.3488042 -0.21255751 0.028844811 0.08373696 0.08828183
-0.08452735 -0.12745751 0.16800296 0.102457345 -0.0063606324 0.72347254 0.5805109 -0.174275
0.30458993 0.17745492 -0.11708819 1.3005855e-05 -0.0920058 0.41403207 -0.20779724 -0.056462977
-0.10003256 -0.06904789 0.31368572 -0.113470964 -0.02411345 0.3803803 -0.14446372 0.09430627
-0.05225326 0.002482949 0.2547772 -0.075464875 0.15158777 -0.1342876 0.11399467 0.07913947
0.027795814 -0.19604951 0.06229767 0.09380795 0.07334705 -0.003498157 -0.122013405 -0.1459177
0.17030117 0.35666326 0.1369732 0.022726564 -0.14426471 -0.15808205 0.4200686 -0.14368393
-0.28181952 -0.08881476 0.046943355 -0.31901455 -0.104902856 0.0561284 -0.12397388 0.42748556
0.12243752 -0.112038575 0.06999384 0.28049943 -0.19718415 -0.12757333 0.08425857 -0.04057913
0.05754717 0.06439913 0.171309 0.044452854 -0.13937251 -0.31622744 -0.36139 -0.11965531
0.32004085 0.03509457 -0.6946485 -0.03175172 -0.0037505652 0.103215486 0.09508879 0.12062584
-0.05172688 0.039169595 -0.122481056 0.10576754 0.27542442 0.53763384 0.07972464 -0.14262122
0.07987687 -0.039904267 0.32347995 0.30756497 0.17410702 0.0060986555 0.15006244 0.04197949
0.23196799 0.088561706 -0.19125813 -0.062052518 0.022003476 0.54859483 0.19922327 0.18975967
0.07513645 -0.5064503 0.17081055 -0.015921753 0.155584 0.24656151 0.00588381 0.11067046
0.36113816 0.16513947 0.060305845 0.0202979 0.2746896 0.041311137 0.07243869 -0.6223579
-0.025524758 -0.32264817 0.11561225 0.027520915 0.17542118 0.083384894 0.28694966 0.10115406
-0.11294444 -0.08564035 0.02298399 0.10661534 0.14022522 0.3061733 0.57636684 -0.060963638

decoder.bias_ih_l0 f4 [256]
00000000: 2073 593d 79ca d83d 3bf0 1a3d 3f0d cf3d
00000010: c688 f13c 58e2 713e 0d63 b93d 4243 843d
00000020: df87 72bc 3d5d 8a3d 3802 b83d 4b4d a2bd
00000030: c784 fb3d 72af 24bd fda2 2d3e 72ec b0bd
00000040: beb8 91bd 5a41 d3bb 59f9 17bd 4400 423e
00000050: d5b0 1ebd 3169 bfbd 403a 90bd 3d6f 293e
00000060: 8678 acbd 033e 863d 0965 e1bd 0b50 063e
00000070: c7b5 ca3d c04d cfbd 67c2 ae3c 1344 bbbc
00000080: 4dff d83d 9c0d e03d ca50 40be 6cb2 b0bd
00000090: 2168 ec3c 3cf1 353d a6c6 1d3e 2639 f13d
000000a0: 95ba e43c 6970 afbc c66f 303e 5522 fcbc
000000b0: f1fb c6bd 570d ab3c 7616 1c3e ea4c 033e
000000c0: 255d 9dbd 55d4 343d 18c4 cfbc 0443 b6bb
000000d0: 222f 783d 8334 a4bd 7f29 1c3e 9a1e b93d
000000e0: c763 adbd 0cdf ee3c d482 79bd 96c2 703d
000000f0: 1baf 333e dacf 0cbd 7ce6 16be 5ec6 8bbd
00000100: 28dc 8abd 4260 83bc df68 643d abcd d7be
00000110: fde7 5ebd 9474 98bd fbed 97be 0013 d0bc
00000120: bdd4 4abe c03b 91be 7b19 c2bd b59e a8bd
00000130: 64b9 5abd 5640 b3bc 6151 44be a9fb a7bd
00000140: e86c 43be c4b0 86be 35da 5d3d 59aa b1be
00000150: e8b3 32be 107e 4bbe facb a1be 520c b4be
00000160: 73f8 f3bc 3f9b dd3d 5a1f b1bd a69d 64be
00000170: e444 7fbe e631 ee3e 08b5 55bd 66c0 adbd
00000180: b04b 2fbd 9fe3 133f 0fa8 173e 5e5f b9be
00000190: 0b25 5bbc ecd6 53be 2a4e bcbd 2eca 01bd
000001a0: 3dc5 92bd 96ee babd 0d19 67be 134e 863d
000001b0: ed26 12bd 4cc4 8a3c f401 84bd 7734 113f
000001c0: f4d0 2fbd b0b5 aabd 6f8d 47be 92d9 9abd
000001d0: b933 0cbe 4a80 80be 47c1 50be ef3d 88be
000001e0: 6922 f33c e858 3cbd 933a 85be 0065 e23b
000001f0: 099a 0fbe 924d 3c3d fcdd 483f 9fcd 09be
00000200: a0ba b93d 2675 0abe ddef 00bd ace0 393e
00000210: 72b9 92bd fedd 11bd 19d6 f5bc 9f98 b83c
00000220: e5f4 3abd cd1d 043d 223a b6bd 4709 093d
00000230: fd78 d73d 41fe 46bd e746 18be 748c 1d3d
00000240: 67f0 20bd 261f 5fbd 6218 543d 379d 4a3e
00000250: 79d6 1f3d 9533 493d 0cb7 61bd 1e9b 25bd
00000260: eb88 9a3d be53 b03c 9834 cb3b 463b febd
00000270: d0ab 43be 1321 2d3d 5563 4c3c 615a f13d
00000280: 34c3 58bd b744 adbc efb8 00bd eb7e 0a3b
00000290: d1d0 b7bc 34a9 2fbe 4c9c 0cbd 0e61 dc3d
000002a0: 24a0 c6bd c174 4fbc e487 33be 7d0a 19bd
000002b0: a0ba 39bc 49ef 55bd 0a55 2c3e f887 d7bd
000002c0: ee3b cd3d d884 c6bc 622e 483d 862a 813d
000002d0: 111c 233e 638a f3bc c6be e03c 75d6 393d
000002e0: 4a84 30bd e461 93bd b62c fd3d 6fd2 33bd
000002f0: 2337 3dbd edc5 813d 6c32 f93b 3200 d43c
00000300: 4177 aabd d011 fd3c b7df ad3d d60c bd3c
00000310: 2e41 d4ba 432c 443e a1c6 953d e8b1 643c
00000320: 9ecb edbd 456b 013e 3b09 033e 5783 c5bd
00000330: 3378 6bbd d171 083e beae a83d 6339 903b
00000340: 68d4 533c 7e00 f1bd d94e 593d 27a0 173b
00000350: bd07 173b 6708 c53d 4276 c03d 8aa4 ee3d
00000360: b31c 05be b728 903d 87d2 4bbd b761 04bd
00000370: d57d fe3d 61e6 583e 2e97 bf3d 1c43 793c
00000380: 42ee c93d 2f8d 8d3d ec23 7e3d 9b2a debc
00000390: 3439 ad3d 3755 c43d 7fe4 123e ddad 0a3e
000003a0: 8a9e 893d c2bc 84bd c918 033c f609 083e
000003b0: d042 153d 42b0 023d 8532 86bc 0048 583e
000003c0: f962 793c e12c 5f3c 7a79 833d 99f9 003e
000003d0: 0cb4 273e b6d8 2f3c d73e 503c 4d94 19be
000003e0: 555d 843d 42bc a1bc 6eac 2a3e aa4d ee3c
000003f0: e4f2 923d 3b73 8cbd 98a3 c53e 1511 e7bd
0.053088307 0.105854936 0.037826758 0.10109948 0.029484164 0.236215 0.090520956 0.06458141
-0.014802902 0.06756065 0.08984798 -0.07924899 0.12281185 -0.04020638 0.16956706 -0.08638848
-0.07115315 -0.0064469995 -0.03710303 0.18945414 -0.03874286 -0.093462355 -0.0704236 0.1654634
-0.084214255 0.065547965 -0.11005599 0.13116471 0.098979525 -0.101222515 0.021332933 -0.022859609
0.1059557 0.10940096 -0.18780819 -0.08627781 0.028858246 0.044419512 0.1540781 0.11778478
0.027921 -0.021415906 0.17230138 -0.03077809 -0.09716023 0.020880384 0.15242943 0.12822309
-0.076837815 0.044147808 -0.02536206 -0.005562188 0.060591824 -0.08017828 0.15250205 0.0903904
-0.08466297 0.029159091 -0.060915783 0.05877932 0.17547266 -0.03437791 -0.1473636 -0.06824945
-0.06780273 -0.01603711 0.055764075 -0.421491 -0.05442046 -0.074441105 -0.29673752 -0.025399685
-0.19807716 -0.28365898 -0.09477516 -0.08233396 -0.05339946 -0.021881264 -0.19171669 -0.08202297
-0.19084513 -0.26306736 0.054163177 -0.34700277 -0.17451441 -0.19872308 -0.31600934 -0.3516565
-0.029781556 0.108206265 -0.08648558 -0.22325763 -0.24928623 0.46522444 -0.052174598 -0.08483963
-0.04279679 0.577692 0.14810203 -0.36205572 -0.013375531 -0.20687455 -0.09194596 -0.031686954
-0.071665265 -0.09127538 -0.2256815 0.0655786 -0.035681654 0.016939305 -0.06445685 0.5672068
-0.042923883 -0.083354354 -0.19487546 -0.075610295 -0.13691606 -0.25097877 -0.2038623 -0.26609752
0.029679494 -0.045983225 -0.2602125 0.006909013 -0.14023603 0.045972414 0.7846372 -0.13457344
0.09068799 -0.13521251 -0.03147875 0.18152112 -0.07164277 -0.0356121 -0.030009316 0.022533713
-0.045643706 0.032254983 -0.08897807 0.033456113 0.105211236 -0.04858232 -0.14870797 0.038464025
-0.039291766 -0.054473065 0.051781066 0.19786535 0.039022896 0.049121458 -0.055106208 -0.040431134
0.07545646 0.021524306 0.006201338 -0.12413649 -0.1910851 0.04226787 0.0124748545 0.117848165
-0.052920535 -0.02115093 -0.031426366 0.0021132778 -0.022438439 -0.1715439 -0.034328744 0.10760699
-0.09698513 -0.012662114 -0.17532307 -0.037363518 -0.011335999 -0.052230153 0.16829315 -0.10523981
0.10021196 -0.024233267 0.04887236 0.06306939 0.15928675 -0.029729074 0.027434718 0.045370538
-0.04309491 -0.071964055 0.123620436 -0.043901857 -0.04619516 0.063365795 0.0076048877 0.025879
-0.08323527 0.030892283 0.08489936 0.02307741 -0.0016193741 0.1915751 0.07313276 0.013958432
-0.116111025 0.12638576 0.1279649 -0.09644192 -0.057487678 0.13324668 0.082364544 0.0044013723
0.01292906 -0.11767672 0.05305371 0.002313623 0.0023045384 0.09620743 0.09397556 0.11652477
-0.12999229 0.07039016 -0.04976132 -0.03231975 0.12426344 0.21181633 0.09355007 0.015213754
0.09859897 0.06911694 0.062045977 -0.027119925 0.08458176 0.09586566 0.14344977 0.13542886
0.06719692 -0.06481315 0.008001515 0.1328505 0.03644067 0.031906374 -0.016381511 0.21121216
0.015221351 0.01362154 0.06419654 0.12595214 0.16377276 0.01073282 0.012710295 -0.14997979
0.06463114 -0.019743089 0.16667339 0.029089767 0.07175234 -0.06857916 0.38601375 -0.11282555

decoder.bias_hh_l0 f4 [256]
00000000: 941c 7abd 05ce fb3d fc05 29bd ec2d 303e
00000010: c6a4 c8bd 6ea2 ea3d 8f14 c7bd f652 413c
00000020: 9c98 9e3c b7fb b23c eecb fe3c 7b81 ebbd
00000030: 13f9 70bd 2de8 a6bd 4ae9 173e f11f ed3a
00000040: 5381 2cbe 71e7 493c 2578 6cbd 83f9 4a3e
00000050: e0e9 b8bd c7d0 4cbd d102 80bd 4b99 2d3e
00000060: fa0f 5c3d 8b0c 22bd bd8c 38bd 92cd f5bc
00000070: 5837 3d3e 5d2e f1bd 991a 733d 782a 2c3e
00000080: 2ea3 bd3d 4211 473d 5f8d cfbd 50e2 7a3d
00000090: 3b27 173d 68cc 6b3d 143c 553e ef8b 083e
000000a0: d346 0bbd 028b 4ebd 4256 323e 225e 383e
000000b0: b481 58bc ec1f a1bd de89 b4bd 42d1 e93d
000000c0: 4b43 9bbd 14db 89bd 9356 03be 15ee e13c
000000d0: a723 483d f1de e63d c763 5cbd e0ce 1bbe
000000e0: 65ec fabd 74a6 733d 0f79 813b 7510 683d
000000f0: 7c07 393d b87a 00be 560b f0bd b90a 153d
00000100: 4319 cdbd e7a5 6ebe 3cd2 39bc d111 84be
00000110: fa14 5dbe 8443 d03d de2a 86be ec9a ebbd
00000120: 167b 09be 9fef d8bd 1020 76be 3bce 5abe
00000130: e1ff 28be b6ac 49bd bd03 68be 6524 fbbd
00000140: 0e26 99bd c5dc 5ebd 5be2 98bd 256f 80be
00000150: 2bdf 33be 642a 28bd bae1 7cbe ad34 d3be
00000160: 9dc2 b5bd b8b4 80bc 7a94 b13b 3447 e6bd
00000170: 90e8 1cbe 71ee 023f 3853 46be a339 5ebe
00000180: 98bc b0bd f050 d63e fb0b df3d 5b78 29be
00000190: bd35 12be 6472 a2bd 3206 6e3d d3b0 7cbc
000001a0: dd2e 7a3d 34ff 643d 3fb3 b4bd 357d 91bc
000001b0: 7615 913d bc79 87bd 5d0b 24be 8666 203f
000001c0: 05d6 34be e051 28bd bf4d 42be 1d9c 2cbb
000001d0: 4cf6 aabe a8b4 21be dafb bcbd 118b f3bd
000001e0: c5ac 27bd 8a94 1cbe da5c 21be 3958 403d
000001f0: e601 69be ad83 29be bf2c 373f 2378 3cbd
00000200: 49f7 95bd d17d 653d d88f 95bc 5a43 4b3e
00000210: 404f 21bd 5b87 d73d 47e5 8a3d c48a 31be
00000220: 4888 8fbd 0748 f93d 1499 9bbd 9f2f b4bd
00000230: 34ae 053e 5997 88bd 5879 32be 6823 75bd
00000240: baf9 3dbb 7961 d93d 8c7d 8f3d 2ae3 a8bc
00000250: 274b a2bc 493f 09be 16d8 89bd 3f3f d3bd
00000260: 8552 8cbc 608e d5bd 4ede dfbd 822a a5bd
00000270: 1739 2f3c e246 643d c2a7 4d3d 5f57 fa3d
00000280: fa17 573d 3837 103d 5a9d 8aba 67d2 11be
00000290: 89c7 2ebe 4bb1 46be dfd2 7fbd 1731 133e
000002a0: 5778 bbbd ba1a 7fbd 0226 2dbe 1e30 8fbd
000002b0: b0de 21be d901 a2bd 9df4 d9bc 5dfe 853d
000002c0: 4329 b23d 5b91 8a3d 0278 79bd 4606 b93c
000002d0: 5067 d9bb 8144 21be 6e50 153e bf25 0bbe
000002e0: efcf 6f3b f3ce 5a3d ab85 1a3e caa3 f5bc
000002f0: a82a 30be 1fd4 2e3d faee 003d 8568 753c
00000300: ba84 d73d df78 ff3d b1a8 ac3d 9a64 97bc
00000310: ce99 9a3d eed6 983d 5ce3 623a fab5 e23d
00000320: 149d ae3b 8ee5 df3d f372 083d 2881 a1bd
00000330: 9e99 a23c 0ced 6f3d 31c1 d3bc 6d28 01be
00000340: 3f74 61bd ed58 4c3b 7dd7 633c 66cb 203e
00000350: 24bb 4cbc 6a44 da3c 8f55 ed3d d95c 0f3d
00000360: fda7 90bd 2655 983d 2c03 07be 22eb 83bd
00000370: a60b 39bc 6872 b53e ce09 00be 6064 663d
00000380: 8f56 ddbd fcad 553e f10e 56bc 36ba 37bd
00000390: 9ee8 33bd eb55 bd3c eb5f b639 7715 2dbc
000003a0: d7bb 4d3d 3afc 30be 7b48 7ebd 58e2 503e
000003b0: 2de6 133e 5d91 6d3c e3bc 773d 5f9f 273e
000003c0: 4b14 0b3e 17d3 3cbd f55a 7cbd 67aa 153e
000003d0: 1a85 6cbd dc86 1fbd ce5c 4cbd acb1 43bc
000003e0: 4377 f1bd 96fc e6bc 4cd9 563c 057a 833d
000003f0: 8f0d 72bd 8a5a 0cbd a1fb 003f c978 c93d
-0.06106241 0.122951545 -0.041265473 0.17205018 -0.09797053 0.11456762 -0.09720718 0.011799565
0.01935988 0.021848543 0.0311031 -0.11499306 -0.058831286 -0.08149753 0.14835086 0.0018091184
-0.16846208 0.012323246 -0.057731766 0.19821744 -0.09028983 -0.050003793 -0.06250537 0.16953008
0.053726174 -0.039562743 -0.045056093 -0.03000525 0.18478143 -0.11776421 0.059351537 0.16813076
0.0925964 0.048600443 -0.10134386 0.061250985 0.036902647 0.057567984 0.20823699 0.1333463
-0.03400309 -0.050425537 0.17415717 0.18004659 -0.013214517 -0.07867417 -0.088153586 0.11416866
-0.075811945 -0.06731239 -0.12825994 0.027579347 0.048862126 0.112729914 -0.053806093 -0.15215635
-0.1225212 0.059484914 0.003951199 0.05665632 0.045173153 -0.12546813 -0.11720912 0.03638718
-0.10014584 -0.23305474 -0.011341628 -0.25794843 -0.21590033 0.101691276 -0.2620458 -0.115041584
-0.1342586 -0.10592579 -0.24035668 -0.21367733 -0.1650386 -0.049236976 -0.22657676 -0.12262801
-0.074779615 -0.05440976 -0.07465049 -0.25084797 -0.175656 -0.04105605 -0.24695483 -0.41251126
-0.0887501 -0.015711173 0.005419311 -0.1124405 -0.1532309 0.5114508 -0.19367683 -0.21701674
-0.086297214 0.41858625 0.10890957 -0.16549818 -0.14278312 -0.079319745 0.058111377 -0.015423018
0.06107985 0.055907443 -0.08823251 -0.017759899 0.070841715 -0.06615016 -0.1601996 0.6265644
-0.17659767 -0.041093707 -0.1897497 -0.0026338168 -0.33391035 -0.15791571 -0.092277244 -0.11891759
-0.04093625 -0.15291038 -0.15758076 0.046959136 -0.2275463 -0.16554137 0.7155265 -0.04601301
-0.073225565 0.05602819 -0.018257067 0.19849911 -0.03938222 0.10523864 0.067820124 -0.17338091
-0.070084155 0.12171941 -0.07597557 -0.087981455 0.13054734 -0.06669492 -0.17429101 -0.05984822
-0.002898796 0.106142946 0.07006368 -0.020616133 -0.019811226 -0.13403048 -0.06730668 -0.103147976
-0.017129192 -0.104275465 -0.10931073 -0.08064748 0.010694764 0.05573166 0.050208814 0.12223696
0.0525131 0.03520891 -0.0010575459 -0.14240418 -0.17068304 -0.1940357 -0.06245696 0.14374195
-0.091538124 -0.062281348 -0.1690903 -0.069915995 -0.15807605 -0.07910509 -0.026605899 0.065426566
0.08699276 0.067660056 -0.060905464 0.022586 -0.0066346303 -0.15748788 0.14581463 -0.13588618
0.0036592444 0.05342002 0.15090053 -0.029985327 -0.17203772 0.042682763 0.031477906 0.014978533
0.105233625 0.12474226 0.08430613 -0.018480588 0.07548867 0.074628696 0.0008655095 0.110698655
0.0053287838 0.10932456 0.03331275 -0.07885963 0.019848641 0.058575675 -0.025848957 -0.12613077
-0.0550425 0.0031180934 0.013906357 0.1570259 -0.01249579 0.02664395 0.11588585 0.035000656
-0.07063291 0.07438116 -0.13184804 -0.064413324 -0.011294281 0.35438848 -0.1250374 0.05624807
-0.10807525 0.20867151 -0.013065086 -0.04485532 -0.043923013 0.023112258 0.0003478521 -0.0105642
0.050227966 -0.17283717 -0.06208084 0.20398843 0.14443274 0.014499989 0.06048287 0.16369389
0.1358196 -0.04609975 -0.06161018 0.14615785 -0.057744123 -0.03894697 -0.049893193 -0.011944216
-0.117903255 -0.028196614 0.013113331 0.06419758 -0.05909496 -0.034266032 0.50383955 0.09837491
