output/sp500/models/best_model_section_2.pth (torch, 58085 bytes, 9 tensors)

encoder.weight_ih_l0 f4 [128, 5]
00000000: 14d2 0dbe 7c9f 1dbe 588b 14be 6d3e 08be
00000010: 1718 473e ac42 b2be 213e 8f3e 12cb 89bd
00000020: 8ea7 9b3e d29c 9d3f 852b 7abd 8bad 88bd
00000030: dcca 1bbe 3ae6 8dbd 7487 933e 05fe 7d3e
00000040: 826f 1fbe b59d 29be df5b b1bd 348a cd3e
00000050: 7c93 99be 8837 adbe b2cf 2b3e 2cf1 1cbd
00000060: 457f 2f3d f086 9f3c c3ef bebe 0d03 34be
00000070: 4b04 f93c 4333 483e 6938 c1bd 5f94 dbbd
00000080: d8ee e43d 6bd3 b6bc 3e98 333f 9878 be3d
00000090: 8dcf 243d c5c2 dcbd 1306 5cbb 6399 9c3e
000000a0: 5b3c ad3e b337 ef3d ab18 893e 25d8 94bc
000000b0: 5b2e 843e 2527 24bd 1595 513e 231c 743e
000000c0: 1c96 083e 53fb 9f3f ef5a 38be 56ec 36bd
000000d0: a1ef 133e 85ac 14be 0ce4 d33d b424 cabe
000000e0: d677 42ba b864 98be 55b3 673d 54eb 98be
000000f0: 9493 a33e 95bd 013e 68cb 743e aee5 8f3e
00000100: bbd0 da3e 0dce c83e 670e 0d3e 9701 d33e
00000110: a1ca f5bd 081a 9f3f 7238 a03e 7340 e8bc
00000120: 4dde 07be cd12 9abd 0251 be3e 0d27 6fbd
00000130: c13c 53bb c6be 38be 6162 bf3d 6301 bc3e
00000140: 6108 283e 0d95 423e b33a 10bf 73c1 073f
00000150: 665c f540 7940 c53c 1c7c 0b3c a544 ddbe
00000160: c6f8 d7bd 5d4e 9b3e 78df 8bbe 1afc 3dbd
00000170: cc21 b5be 7460 8c3d 8195 5b3f 29e6 9fbd
00000180: b264 223b 02e3 0e3e 3fc4 a43e 6624 833f
00000190: e48f 123e bb53 933d d1af 273d 71b5 1e3e
000001a0: 5e14 003f c51a 81be c7b2 583d 73eb f0bc
000001b0: de5f 74be ac5b 653e 2175 c53d 7f97 28be
000001c0: e254 04be 81c9 523d 283f ba3e 6104 793d
000001d0: 68a6 b6bc 4c42 c7bd c56e 013d dac4 a43e
000001e0: 01eb 973e fdd7 1c3e cdaf 543e 1316 73bc
000001f0: abe4 a7bf 9e6a 713c 761f 49bd 9553 df3d
00000200: 916a 46be 0a6e 373d 6b59 86be 8e13 863e
00000210: eba0 ad3e 01a3 04bd 19ea 183f 93d3 f73d
00000220: ab06 37be a9c9 e0bd 7f41 87bd 59c0 cc3e
00000230: 6211 9dbd c806 a83d 2327 8bbe d60f 873d
00000240: 5d01 d33e 4135 b5be 67ed 06be 9336 2cbe
00000250: f6e9 92bd 16ef 5cbe e82b 873c 16b2 793d
00000260: 2f61 1cbd f440 0abe 65c4 f83e 0b0f 843b
00000270: d250 04bd bd37 a9bc 2567 8d3d fcb9 f73e
00000280: 54b8 ad3e a670 9f3e 1dd5 ef3d 1093 0e3e
00000290: f4c2 b7be 8cf3 89be 55c5 a63e 621c 493e
000002a0: 9e09 903e 011f 9e3f 9c22 9c3e 56bd dc3e
000002b0: 5fba 3b3d 0beb 803e 94f8 43be c6fb b2bd
000002c0: a234 953d d54e 953e e1b8 073e b05b d9be
000002d0: 428f 4bbe 6008 dc3d 03f3 cf3c 5beb 973d
000002e0: d79e 213e 4a1e 9abd 1c2c bb3d 6a56 8bbe
000002f0: 69a7 203f 54a5 3d3e 4823 b0bd 212e 963d
00000300: 70f8 863d 8302 753e 88e2 40bd 9eb1 86bd
00000310: 238d 30be 5be0 a5be c43a acbe 395b 9a3d
00000320: 7667 ed3e 2a4d 88bd a5a1 f43e add3 33be
00000330: 8b89 933d 8277 943e 2b22 ea3e 55a1 2e3d
00000340: 6ede b83d c928 0340 d1f8 963e d6bd 643e
00000350: 4044 963e aa15 1a3e 8248 1c3e dc62 00be
00000360: 2f50 ed3d a7a1 2e3e 0b1f 8d3e 437c 41bf
00000370: d66e 393e 4c32 a13c f024 cd3e e36b ca3d
00000380: f68e d4bf 0dfa 843e 512b 923d 3312 ae3e
00000390: 1059 043e eba0 96bd a8f6 1dbe 6013 c13d
000003a0: 07dd 913e 5301 c83e f3a1 81be edc3 473e
000003b0: 2a9b 513e 1bbf af3e 5afe bf3e a20c 49bf
000003c0: 67e6 c6bd 78ea 4bbe c8d8 af3e 2b1a 1e3f
000003d0: 4cb5 e9c0 1a36 f63e 392d a63e f74f 913d
000003e0: 76d1 e93e 5e26 a93e d6d9 1abe 728c 8c3e
000003f0: 402d 943e 51f6 ec3e 99c5 61bf b00c 81be
-0.1384967 -0.1539287 -0.1450628 -0.13305064 0.19442783 -0.34816492 0.27977088 -0.06728186
0.30401272 1.2313483 -0.06107666 -0.06673726 -0.15214103 -0.06928678 0.2881428 0.24803932
-0.1556988 -0.16564067 -0.08660101 0.40144503 -0.29995334 -0.3383143 0.16778448 -0.038315937
0.042845983 0.019473523 -0.372923 -0.17579289 0.030397555 0.19550805 -0.094345875 -0.10721659
0.11178368 -0.022317609 0.7015418 0.09300345 0.040237 -0.10779337 -0.0033572956 0.30585775
0.3383511 0.11680546 0.26776633 -0.018169472 0.25816616 -0.040076394 0.20467027 0.23838858
0.13338512 1.2498573 -0.18003438 -0.04465898 0.1444688 -0.14518936 0.10346231 -0.39481127
-0.00074183696 -0.29764342 0.05656751 -0.2986704 0.3194853 0.12669976 0.23905718 0.2810492
0.42737374 0.39219704 0.13775025 0.4121215 -0.12001539 1.2429819 0.31293064 -0.028351044
-0.13268395 -0.07523117 0.3717118 -0.05838685 -0.0032232257 -0.18041524 0.09344936 0.36719808
0.16409446 0.19002171 -0.5633957 0.53029555 7.667529 0.024078595 0.008513477 -0.43216434
-0.10545497 0.30333224 -0.2731893 -0.046383 -0.35377347 0.068543345 0.85775 -0.078075714
0.0024779257 0.13953784 0.32180974 1.0245483 0.14312702 0.07193705 0.040939156 0.15498902
0.5003108 -0.25215736 0.05290487 -0.029409146 -0.23864695 0.22398251 0.09641481 -0.16464041
-0.12923005 0.0514617 0.3637631 0.06079519 -0.022296146 -0.09729442 0.03159978 0.32181436
0.2967148 0.15316768 0.20770188 -0.014836806 -1.3116659 0.014734892 -0.04910227 0.10904614
-0.1937659 0.044782676 -0.26240095 0.26186794 0.33911833 -0.032382015 0.59732205 0.121009015
-0.17873637 -0.109759636 -0.06604289 0.399905 -0.07669331 0.082044184 -0.27178296 0.06594817
0.41211978 -0.35392192 -0.131765 -0.16817693 -0.07173531 -0.21575579 0.016500428 0.06096085
-0.03817862 -0.1350134 0.48587337 0.0040301136 -0.03230364 -0.02065646 0.06904439 0.48384082
0.33929694 0.3114063 0.1171057 0.13923287 -0.35890925 -0.26943624 0.32572427 0.19639733
0.28132337 1.2353212 0.30495155 0.43113202 0.045832034 0.25179324 -0.19137794 -0.08739428
0.072854295 0.29161707 0.1325412 -0.42452765 -0.19878867 0.10743785 0.025384432 0.07417937
0.15783249 -0.075253084 0.091392726 -0.27214366 0.6275545 0.18520099 -0.08600479 0.07333017
0.065903544 0.2392674 -0.047091037 -0.065768465 -0.1724134 -0.32397732 -0.33638585 0.075369306
0.46367997 -0.06655343 0.47779575 -0.17561217 0.072039686 0.28997427 0.45729193 0.042634327
0.090268 2.0493643 0.29486707 0.22338042 0.29348946 0.15047327 0.15262035 -0.12537712
0.115875594 0.17053853 0.27562746 -0.75580233 0.18108687 0.019677304 0.40067244 0.09883859
-1.6606128 0.25972024 0.07137168 0.3399826 0.129246 -0.073549114 -0.15426123 0.094275236
0.28488943 0.3906351 -0.2531887 0.19508334 0.20469347 0.3432549 0.37498742 -0.785349
-0.097119145 -0.19913661 0.34345078 0.6175868 -7.303381 0.4808815 0.32456377 0.0709533
0.4566762 0.33037084 -0.1512216 0.274509 0.28940773 0.46281675 -0.88192135 -0.25204992

encoder.weight_hh_l0 f4 [128, 32]
00000000: 0735 ce3e c0b1 143f 3a23 5d3e 4891 97be
00000010: 3865 c1bf 385f f9be e25f 0bbf 8b6f cb3f
00000020: b17f 1c40 316f bbbf 1c54 0c3f 6361 283f
00000030: ff06 6bbf c715 8f3f fa30 0bbf 1944 023e
00000040: 64e4 c83c 879c 96bf e3b8 71bf 9afb 09bf
00000050: 3979 0b3f 4101 093f 25ac 24bf 43da 903e
00000060: e871 9d3e cdc2 973d 4659 3fbf 9514 3a3f
00000070: d186 623e 42a6 c03f 445a 67be 9cfd b23e
00000080: 4456 143e f63a 22be 17cf 853e 6668 0fbf
00000090: 15df 583f f1a6 1c3f f844 5f3e c20c dabe
000000a0: bd71 bdbd 1def 42be 565e 9c3e 12d0 3abf
000000b0: acdd bbbd 2d9f 1f3f ed62 253f ee14 35bd
000000c0: 87f5 fc3e 29c9 ee3b 5ebd c9be e593 44bf
000000d0: df3a 263d ead2 6abe 18dc 10bd 7020 21bf
000000e0: 662f 363e aee8 bf3e dd30 e33d 53fa cb3e
000000f0: 94d0 fb3e 1a7c efbe 7ddc be3e 7228 a53e
00000100: 9d47 3f3d 86ed a73e ffc1 b2bc a349 bbbe
00000110: 4256 5bbf 6a64 623e bbee aebe 0a0e 3c3f
00000120: ea32 6d3f 74e8 d4be df56 c5bd 9611 233f
00000130: 3aff 0abf a18a c03e 3275 32bf 95f8 d13e
00000140: e3ce 473e 820d e8be 6422 b4be fd9e 3abf
00000150: beda c43c d56e 2b3f 26c1 a9be 5e98 5b3e
00000160: 9e52 9f3e 8335 a83d ce31 c3be 9939 e63e
00000170: b038 bd3d 499e 0c3f ce5d 153e d806 7e3e
00000180: 6962 09bd d517 103e 26e6 ae3d 9313 8d3e
00000190: 61e7 5abf 898a 0e3f f2d6 d13d 9a44 dcbd
000001a0: dafb d23e b3df eb3c 4ac2 a13e bc58 973c
000001b0: 29ce 78bf 73c9 c0bd 582c 2fbf 92f0 553f
000001c0: bf53 e43e d836 933e 0ebc 7e3e ad5a 92be
000001d0: b075 423e 6800 243e bcc2 4ebd 1907 7a3f
000001e0: 1c89 e4bd 54f8 193f f3bd aebd 5c58 3f3f
000001f0: ad77 2dbd 9abd a7be 6d04 bfbd b5bc 7c3e
00000200: ccae fc3e 4f6f b03e 8776 6fbe b9f0 c4bd
00000210: 4d0c 1fbd 13e0 e03e 9674 b23e b994 c83e
00000220: c1f7 ab3e 09b2 e7be c4ca 8dbd a170 963e
00000230: bdfd 543f b183 893e 6e82 f0be a474 6b3e
00000240: a4f1 a3bc 3b92 bbbe 8fd3 0cbf 16bf cebe
00000250: 8b5b ffbe fac4 033e d806 22bf 576f 1dbd
00000260: 1848 8a3e 2d63 a73d c05a edbe bd25 a1be
00000270: 1537 92be abcd fd3e dca7 83be 2ef2 42be
00000280: ccb9 933e 0f56 473e ae30 0a3e 93c5 47bf
00000290: 89eb e0be d0f6 1bbf 3a79 09be 5437 e33e
000002a0: dfa1 203f 31d4 c2bd a7a4 333e 7a09 ca3d
000002b0: 7e8c cebe 6ac2 673e 41f1 b9be cf7b f03e
000002c0: 73c6 0e3f 05d6 293b e2f1 af3e 0226 0dbf
000002d0: 2162 643e ede4 c93e 22b4 d2bc c9f0 203e
000002e0: a477 d93e 0a54 923e 1167 9cbd 9f88 d33e
000002f0: 3575 94bd 6c3f 4e3e 4f93 a3bd 5fd6 36bd
00000300: 623f c03d c687 02bb 79c7 e83e 587a 023f
00000310: 377e 8b3d 4592 e33e bbb4 063e c985 8bbe
00000320: f951 a3be c829 973e 89d2 8cbe 0144 7dbe
00000330: 61b6 c43e d99b 24be 3393 10bf 1947 7a3f
00000340: a565 c03f f436 633f fe44 803e a49b 7abf
00000350: 60a8 8d3e 9475 463f 3346 07bf 77d5 5f3e
00000360: 7bef d23d 8606 313c be45 0c3e a604 113f
00000370: 880a 12bc ea4f aebe 2539 34be e662 59be
00000380: 289b 563f 8532 bc3e 4e83 1a3f 02f2 5fbe
00000390: ac52 903d 82df dc3d 99f1 5abe 3396 0a3a
000003a0: bab4 063f e699 a9be a569 523e c076 103f
000003b0: 0b9c 6abd d0d0 8b3e af67 62be 4001 09bf
000003c0: ef72 0e3e 0f8f ef3e b033 0b3f 3937 05bf
000003d0: 6c76 31bf d52c 1b3f 8a70 8fba 2718 40bf
000003e0: 2a00 9f3e 51e1 d23e 3522 aabe dbb2 01bf
000003f0: be70 b63e 332c 2a3e 9065 c6be ab35 febe
0.40274832 0.58083725 0.21595469 -0.29603028 -1.5109015 -0.4870546 -0.5444318 1.5893415
2.4452937 -1.4643308 0.5481584 0.657736 -0.9180755 1.1178521 -0.5437161 0.1272129
0.024522968 -1.1766518 -0.9442274 -0.5389954 0.54481846 0.5351754 -0.6432517 0.2829152
0.30750966 0.07410202 -0.74745595 0.72687656 0.22121741 1.5050738 -0.22593027 0.34959114
0.14486033 -0.15842804 0.2613456 -0.56018674 0.84715396 0.6119223 0.21803653 -0.42587858
-0.092502095 -0.19036527 0.30540723 -0.7297374 -0.0917314 0.6235226 0.64604074 -0.044209413
0.49406072 0.0072871638 -0.39402288 -0.7678817 0.040583488 -0.2293202 -0.035366148 -0.6294012
0.17791519 0.37482208 0.11093304 0.3983942 0.4918257 -0.4677437 0.37277594 0.3225742
0.046699155 0.32798404 -0.02182102 -0.36579618 -0.85678494 0.22108617 -0.34166512 0.7345892
0.92655814 -0.41583598 -0.0963571 0.6369871 -0.54295695 0.37605765 -0.69710076 0.41009966
0.19512515 -0.45322806 -0.35182488 -0.72898847 0.024030086 0.6696599 -0.33155173 0.21444842
0.3111772 0.082133316 -0.38123935 0.4496582 0.09239328 0.54929024 0.14586565 0.24807298
-0.033541117 0.14071591 0.08539991 0.27553996 -0.85509306 0.5568014 0.10246076 -0.10755272
0.41207772 0.028793192 0.31593543 0.018474929 -0.97189575 -0.094134234 -0.6842704 0.83570206
0.44595143 0.2875278 0.24876425 -0.28584805 0.18990207 0.1601578 -0.050478682 0.9766708
-0.11158964 0.60144544 -0.08532324 0.747442 -0.04235046 -0.32761842 -0.09327016 0.24681361
0.4935211 0.34459922 -0.23385058 -0.09616227 -0.03883009 0.43920955 0.34854573 0.39175966
0.3358746 -0.45253018 -0.0692344 0.29382804 0.83199674 0.26858285 -0.4697451 0.22993714
-0.020012684 -0.36635002 -0.5501031 -0.40380162 -0.4987453 0.1286811 -0.6329169 -0.03843626
0.27008128 0.08173213 -0.463583 -0.31474105 -0.2855765 0.49570975 -0.25714004 -0.19037697
0.2885269 0.19466422 0.13495132 -0.7803585 -0.439297 -0.6092348 -0.1342515 0.4437815
0.62746996 -0.095131285 0.17543279 0.09865089 -0.40341562 0.22632757 -0.36316875 0.46969458
0.5577156 0.002591492 0.3436423 -0.5513612 0.22303058 0.3943247 -0.02572066 0.15716852
0.4247409 0.28579742 -0.07636846 0.4131517 -0.07248918 0.20141381 -0.07987081 -0.044638034
0.09387089 -0.0019917353 0.45464686 0.5096793 0.06811183 0.44447532 0.1315488 -0.27250507
-0.31898478 0.29524064 -0.27504376 -0.24732973 0.38420394 -0.16075076 -0.5647461 0.97764736
1.503102 0.88755727 0.25052637 -0.9789374 0.27667522 0.7752316 -0.5284149 0.21858774
0.102995835 0.010804778 0.1369848 0.5664772 -0.008913644 -0.34045345 -0.17599924 -0.21229133
0.838305 0.36757293 0.60356605 -0.21869662 0.070470184 0.10784818 -0.21381225 0.00052866637
0.52619517 -0.33125228 0.20548113 0.564312 -0.05727772 0.2730775 -0.22109865 -0.5351753
0.13911031 0.46788833 0.54375744 -0.5203739 -0.6932132 0.60615283 -0.0010943573 -0.75036854
0.31054813 0.41187528 -0.33229223 -0.50663537 0.3563289 0.16618423 -0.3874936 -0.4965032

encoder.bias_ih_l0 f4 [128]
00000000: 0e45 b0be c5eb cbbd 40f3 81be 201f 88be
00000010: 7ab9 d7be e9cd 84bd 9962 b63d e110 dc3d
00000020: 528a a6be be5e 453e 66ac bdbe 974a 34be
00000030: 129d a03e eb4f 2bbe 304a 03bd 97ce c0be
00000040: af1f 153e f6f4 c9be 5bc2 bebd 0df1 90be
00000050: 8388 39be 003c b13d 9230 31be cc97 2cbe
00000060: 039d 7c3e 9a48 afbe e285 7abe 96f4 1abe
00000070: 334b 69be 6767 babe 80b5 973d e969 fabc
00000080: dbba 883f a1f8 5cbd 15b5 4a3f 9570 e2bc
00000090: f3c2 213f 68b8 d23e 0be9 803d b213 213f
000000a0: 6a66 033f 4000 1d3f 235b e63e bd3f 993e
000000b0: d16e d23e e019 47bc 32f7 bc3e c52b 523f
000000c0: f0a7 463e 23e1 b33f af5d a03d 2f04 17be
000000d0: eddf 103c 68a0 093e 1764 d53e 4e5f e33e
000000e0: 3804 783e 7663 073f 34fa b03e d5d8 7a3e
000000f0: 5d71 db3d 1960 fe3e 0200 1c3e 2d09 93bd
00000100: 6b00 10be 1a4a b4bc 8cff 89be 5505 43bd
00000110: 120f e6bc d943 94bd 71c3 a63d 2a84 d43c
00000120: 3e30 403e 15f4 2b3e 15dc b03d adc3 76bd
00000130: 2589 48be 50d0 3bbe a969 06b9 884a 1d3d
00000140: 2e5d 2d3e 4504 55bc 50e0 9b3c fc10 52bd
00000150: c26a e3bd da9c bbbd 18af ae3d 43e5 4bbe
00000160: a964 3b3e 6911 b13d 01a8 34bd 5642 c43d
00000170: b589 733e fcce 423e 9251 9fbd a3bc 90bd
00000180: 8b0c 813f 9a93 f53c 4c40 8e3f 20c1 543e
00000190: b5f3 863e a470 203f 56ad f23e 65cc b23e
000001a0: 888e 0c3e 45f1 dbbd 4384 513e 2733 003e
000001b0: b73f 7b3e 8b37 323d 4200 9b3f f4dc dd3e
000001c0: f20a 66bd e0ac 903f 72cb 483e ebe8 aebe
000001d0: 230e a83e ce3b dabd 6dfe 133f 33f8 da3e
000001e0: 0025 303e 2c30 853f 9587 133e 6147 813e
000001f0: f18a 973d d3f4 503e b29a f03d bc4d 0b3f
-0.34427685 -0.09957079 -0.25380898 -0.26586246 -0.42133695 -0.06484587 0.08905525 0.10745407
-0.32527405 0.19274423 -0.37045592 -0.17606579 0.31369835 -0.16729705 -0.032053173 -0.37657616
0.14562868 -0.39444703 -0.09314414 -0.28308907 -0.18118481 0.08654022 -0.17303684 -0.16854781
0.2466927 -0.34235078 -0.24465135 -0.15132365 -0.22782592 -0.36407015 0.07407665 -0.03056808
1.0682024 -0.05394805 0.7918256 -0.027641574 0.63188094 0.41156316 0.062944494 0.6292068
0.51328146 0.61328506 0.44991407 0.2993144 0.4110017 -0.012152165 0.36907345 0.82098037
0.194 1.4053081 0.07830369 -0.1474769 0.008842451 0.13440096 0.41677925 0.4440865
0.2422036 0.5288614 0.3456589 0.24496777 0.10714982 0.49682692 0.15234378 -0.071794845
-0.1406266 -0.02200799 -0.2695278 -0.047612507 -0.028083358 -0.072395034 0.08142746 0.025941927
0.18768403 0.16792329 0.08635727 -0.060245205 -0.19583566 -0.18341184 -0.00012818597 0.038401157
0.16930076 -0.013001506 0.019027859 -0.05128573 -0.11104347 -0.091607764 0.0852949 -0.19911675
0.18300118 0.08645899 -0.044105534 0.09582965 0.23783 0.19024271 -0.0777923 -0.070672296
1.0081953 0.029977608 1.1113372 0.20776796 0.2635781 0.62671876 0.4739787 0.34921566
0.13726246 -0.10739378 0.2046061 0.12519513 0.24536024 0.04351 1.2109454 0.43332636
-0.056162782 1.1302757 0.19608858 -0.34162077 0.32823285 -0.10655938 0.578101 0.42767486
0.17201614 1.0405326 0.14407189 0.2524977 0.07399548 0.20405893 0.11748256 0.5441549

encoder.bias_hh_l0 f4 [128]
00000000: d86d aabe e335 4abe caaf afbd fed8 8fbe
00000010: 1a7f 29be 69d0 74be 5e0f c1bc 150b 0e3e
00000020: 5a69 45be 77d1 a13e e594 b7be 9e31 48be
00000030: c692 9c3e 7cff 77bd 2dfb 55be f1ef 89be
00000040: 739b 103e 4097 99be 1f47 28bd 2bc6 fbbe
00000050: 48b1 0a3d c0fa c03d ead4 09be d998 cfbe
00000060: b9de 893e c11b 80be 9b4e 933d 4dbd 84be
00000070: 1e84 6dbe b2b2 eebd ddd6 c2bd 6d8e 563d
00000080: c06a 7f3f 020f 67bd 39b4 1c3f c689 363e
00000090: f8e3 123f 03ee 0c3f 5069 693d e71d f23e
000000a0: c0b6 1c3f dd73 453f 53b4 f53e 43c4 f93e
000000b0: a061 423e 386d 963d 304e f53e 7e82 5b3f
000000c0: 8d07 1f3e 46e2 8d3f 19a0 40bd 8532 74be
000000d0: ed38 7bbc 8382 f53d 2a80 bf3e f9ca 3a3f
000000e0: 870d 033e 771b be3e 05ba 943d a115 533e
000000f0: 1020 0c3e af6a 213f d9f7 b9bc b3d4 263c
00000100: 5f60 13bd c547 373e 37a1 fcbd 27ae a53d
00000110: 0e75 61be 296a af3d 67bb a9bd 9de9 30bd
00000120: c84d 50bd 0af3 753e ccf0 ab3c 14c2 a4bd
00000130: 2e67 ebbc 6a67 c6bd dc06 c13d f112 fa3d
00000140: 3dae 7d3e d405 1dbc 540c a2bd acca 5f3e
00000150: 2b03 543d 89ec 0fbe a04f ba3d 36f0 07bd
00000160: bdb8 373e e39f 20be 8114 e9bd 18d5 8cbd
00000170: 623a 3abd 4446 03bd 5e68 f6bd c210 a9bd
00000180: 1c75 833f d05a 0d3e 935e 943f 6db8 7a3e
00000190: 1e66 a23e 4d87 1c3f 0396 853e 1052 9e3e
000001a0: 147e 3d3e ef33 cd3c e8d6 833e ebb6 023d
000001b0: d49b 383e e0cf dc3c bbac 8e3f 2e50 dd3e
000001c0: a6d8 423e e8e0 883f ad57 cc3d 46e0 b5be
000001d0: e0dc e03e d460 91bd 1d47 1b3f 522f a73e
000001e0: 4d31 8a3d 450a 6d3f 0e56 7f3e 440f 5a3e
000001f0: 5c81 5a3e 95b9 4e3e bff0 773e 5d79 dd3e
-0.3328693 -0.19747119 -0.08578451 -0.2809524 -0.16552392 -0.23907627 -0.023566898 0.13871415
-0.1927847 0.31605121 -0.35855785 -0.19550177 0.3058073 -0.060546383 -0.20896597 -0.26940873
0.14121799 -0.29998207 -0.04108345 -0.49174628 0.033860475 0.09422827 -0.13460127 -0.405463
0.26927736 -0.25021175 0.07192727 -0.25925675 -0.2319493 -0.11655177 -0.09513638 0.05238192
0.9977226 -0.056410797 0.612125 0.17825994 0.573791 0.5505068 0.0569852 0.4728844
0.61216354 0.7712992 0.4798914 0.48782548 0.18982553 0.073450506 0.47911215 0.8574599
0.15530224 1.1084678 -0.04702768 -0.23847397 -0.015333396 0.11987784 0.3740247 0.7296596
0.12798129 0.3713033 0.07262043 0.2061372 0.13684106 0.6305341 -0.02270119 0.010182547
-0.03598058 0.17898472 -0.12335437 0.080898575 -0.22017309 0.0856517 -0.08287697 -0.04319154
-0.050855428 0.24018493 0.020988844 -0.0804483 -0.028735723 -0.096876934 0.094251364 0.12210644
0.24773498 -0.009583909 -0.07912508 0.21854657 0.051760834 -0.14055075 0.090972185 -0.033188067
0.17941566 -0.15685992 -0.11380864 -0.06876582 -0.045465834 -0.032049432 -0.12031625 -0.082551494
1.0270114 0.13804173 1.1591362 0.24484415 0.31718534 0.6114395 0.26091012 0.30921984
0.18505126 0.025049178 0.25749898 0.031912725 0.18028194 0.026954591 1.1146463 0.43225235
0.19027957 1.0693636 0.0997766 -0.3552267 0.43918514 -0.070985466 0.60655385 0.3265329
0.06747685 0.92593795 0.24935171 0.21294886 0.21338409 0.20187981 0.24212931 0.43256655

decoder.weight_ih_l0 f4 [128, 32]
00000000: 8c18 c43f f20f 35bf a6d2 0e3f 4740 513e
00000010: 1dd6 28be 3fcf 923e 87c6 dd3e 936b dd3d
00000020: b3a2 003f d285 a23e 8ab4 5f3f 9d9a a3be
00000030: 0362 e8be b243 a8be 45f7 323f ad60 0b3f
00000040: 8c58 4c3d 3c84 b3bf b2a7 203f 87df 683e
00000050: 3345 2fbd f1d0 82be bfe5 61bf b0b0 85bf
00000060: 07ae 363e 9644 d5bd 6178 1fbe c7a3 233e
00000070: ac77 ca3d 8e44 ffbe 9150 d4be 4cca 1bbd
00000080: e32c 723d 8f3c bf3d 3506 97bd 50c9 b1bd
00000090: c88a 01bf 1d2c 76be cd6e 29bf 0251 cd3e
000000a0: fa4a e63d 5e96 4abe 831d c1be 55c7 e6bc
000000b0: 0fd5 233e fef3 a53e 430d e53e bde9 f73c
000000c0: f6c2 1ebe 8958 6e3e b3b5 543e d849 e3bd
000000d0: 0e1c 40bf 929e ef3e af82 9fbe 1a3e fabe
000000e0: d2b9 1c3d 8ff1 333f a1eb 77be 56a3 ac3e
000000f0: c7d9 243e 513b 163f 84d4 f83e b5cb 09bf
00000100: 24e9 2a3e 888e 303e 3319 8f3e 095d 98be
00000110: c919 c9be aef2 193e 08c1 a1be 394e 073f
00000120: 6eed d73d 4290 033d 8c7b 24be 0118 ea3d
00000130: fbdf 07be 859d 483e 7e27 733e c9c9 443e
00000140: 31a9 5dbc 10ab 33be 5d43 4c3e 0e39 46bd
00000150: e8fd 78bc 86c6 a23d 0d63 6abe d656 9b3e
00000160: 57bf 513e 0877 fc3e 1906 21be f941 ef3e
00000170: 405b d93e c2d8 f43d 803f a43d 55ba a03e
00000180: 8a25 1b3f 7b8b 9e3e f715 043f 9227 c1bb
00000190: b79d 673e ed5e 8e3e 39f0 2d3d edce 213f
000001a0: 2e42 f9be 60c4 873e 5faf acbe 403c 3f3e
000001b0: a5d8 7a3c ac5b 09be f193 4abe 985f 743e
000001c0: 6136 253d a381 5dbe 5842 27be 46db 523e
000001d0: beb1 993e b4bb eebe a132 8c3e 2c20 b43e
000001e0: d927 aebd f912 083e 5b7d da3d aaf4 7e3d
000001f0: ead1 8dbe fdf5 5dbf 1607 303e a009 c63d
00000200: 09f0 16bb e0b9 443f d063 51bf c10e a5be
00000210: f909 5b3d c872 b8be 0b1a 4ebf 3990 f5bc
00000220: 01f7 f93e 895a 983e 9ce6 febd d103 6b3f
00000230: 65ff e8bc 1fa4 523e 7229 303d 77f5 913e
00000240: ec3e b0bf 3cfb 593e 7b18 b13f b5a5 be3e
00000250: 4921 853f 66d9 6bbf 4d23 d3bc 0d7a ce3e
00000260: fca6 f73e 590c d1be 598f b4bf 6317 203f
00000270: 9272 76be 4001 b83f e018 9d3e 8297 8b3f
00000280: a800 143e e7c6 21bd a4a9 70bf f16c 4f3d
00000290: 488b 12bd 8e11 c73c 3525 e8be 5864 8bbe
000002a0: c3bb 1a3d dbd3 21be 168a 193f dc32 ec3a
000002b0: b153 783e 38cf 7a3e 0387 5f3e 103a 413e
000002c0: 671a 433e 2fc0 3a3e 631e aa3e c901 b03d
000002d0: 735a 273f 7415 95be 1ce3 d43e ee68 eebd
000002e0: 5fca 32be eba1 903e 8fc0 fb3d 8980 c8be
000002f0: aa9d a1bf f619 bbbd a2eb 9e3d 6b07 413e
00000300: 1944 083c 97d1 f1be 5ef1 a7be 4d90 cf3e
00000310: cb1e c7bd 6ae8 063f 2c74 413e b235 1e3e
00000320: 1a5a 56bd b23e 2f3c f6cf 9abe 2ee5 d0bd
00000330: ab11 e73e 2b62 153e 19a8 cf3d c87f 4dbf
00000340: 002b c43e e4fa 87be 14fa 17bf a3f2 623e
00000350: 3022 e8bc 5638 17be 2afd d13d ad86 8bbf
00000360: 7dc5 91be 3b5d 44bf 712c f73e e0d3 7fbd
00000370: b29b 843f 4a29 b43d 3ad9 51bf 026e 4fbf
00000380: 6652 0b3f 9de2 043e 589b 37be c770 d6bd
00000390: 25cb 06bf b64f c43d b83a cebe 63f8 b13e
000003a0: 5a57 953e 8954 10be a797 fc3d e905 0b3e
000003b0: e58f 8bbd 1103 b43e 69ab 14bd 7665 053d
000003c0: 93df 02bd 5784 8cbe bafd b4bc 1e45 cbbc
000003d0: a277 963e b812 553e 4303 5e3e 9dcf 3d3f
000003e0: 49f0 9b3e 6d99 3d3d 41a5 17bf 63bb 323e
000003f0: cf95 ee3e 344c 843e 1e51 f1bb 4566 413d
1.5319991 -0.70727456 0.55790174 0.20434676 -0.16487928 0.2867374 0.43315527 0.10811534
0.5024826 0.31742722 0.87384856 -0.31953898 -0.45387277 -0.32864147 0.69908553 0.5444439
0.049889132 -1.402473 0.6275588 0.22741519 -0.042790603 -0.25550035 -0.8824119 -1.0444546
0.17839824 -0.10413472 -0.15573265 0.15980445 0.09886107 -0.4985699 -0.41467717 -0.038034722
0.05912484 0.093377225 -0.07374231 -0.086809754 -0.5060239 -0.24040265 -0.66184694 0.40100867
0.112447694 -0.19783923 -0.37717828 -0.02817122 0.15999244 0.32412714 0.4473668 0.030262822
-0.15504059 0.23275961 0.20772438 -0.11098069 -0.7504281 0.46800667 -0.3115439 -0.48875505
0.03826315 0.70290464 -0.24210979 0.33718365 0.160987 0.5868426 0.48599637 -0.5382646
0.16690499 0.17241871 0.27948913 -0.2975848 -0.39277485 0.15033981 -0.31592584 0.52853733
0.10543333 0.032119997 -0.16062754 0.1143036 -0.13269036 0.19591339 0.23745534 0.192176
-0.013529108 -0.17545724 0.19947572 -0.048394255 -0.015197255 0.079480216 -0.22889347 0.30339688
0.20483147 0.49309564 -0.15724982 0.4673002 0.4245243 0.11955406 0.08019924 0.3139216
0.60604155 0.3096579 0.51596016 -0.0058946097 0.22618757 0.27806798 0.042465422 0.6320637
-0.48683304 0.2651701 -0.33727548 0.18675327 0.015310441 -0.13413876 -0.19782998 0.23864591
0.040335063 -0.21631484 -0.16333902 0.20591459 0.3001842 -0.4662758 0.27382377 0.35180795
-0.08503694 0.13288487 0.10668441 0.06224505 -0.27699214 -0.86703473 0.17190203 0.096698046
-0.0023031256 0.7684612 -0.81792927 -0.3223782 0.053476308 -0.3602507 -0.8050849 -0.029975997
0.48821262 0.29756573 -0.12446329 0.918027 -0.028442094 0.2057042 0.043008275 0.28507587
-1.3769202 0.21287245 1.3835596 0.372358 1.0400783 -0.921286 -0.025773669 0.40327492
0.48369586 -0.40829733 -1.4106246 0.62535685 -0.24067143 1.4375381 0.3068304 1.0905612
0.14453375 -0.03949633 -0.9400885 0.050641004 -0.03577736 0.024300363 -0.45340887 -0.27224994
0.03777672 -0.15803473 0.5997633 0.0018020528 0.24250676 0.2449311 0.21828847 0.18869805
0.1905304 0.18237375 0.33226308 0.085940905 0.6537239 -0.2911793 0.4157952 -0.116411075
-0.17460011 0.28248534 0.12292587 -0.39160565 -1.262624 -0.09135811 0.07759787 0.18850486
0.008317017 -0.47230217 -0.32801336 0.4053978 -0.0972267 0.52698386 0.18891972 0.1545017
-0.05233202 0.0106961 -0.30236787 -0.101999626 0.45130667 0.1458823 0.10139484 -0.80273104
0.38314056 -0.26558602 -0.59365964 0.22162871 -0.028336614 -0.14767584 0.10253365 -1.0900475
-0.28470984 -0.7670476 0.48276094 -0.06245792 1.0360014 0.08796938 -0.81972086 -0.81027234
0.54422605 0.12977071 -0.17930353 -0.10470729 -0.52653724 0.09585516 -0.40279174 0.34759817
0.29168206 -0.14094748 0.12333613 0.13576473 -0.06814555 0.3515859 -0.036296282 0.032567464
-0.0319515 -0.27444717 -0.022093643 -0.024813231 0.29388148 0.20807922 0.21680932 0.7414492
0.3045676 0.046288896 -0.5923653 0.17454295 0.4659867 0.25839388 -0.0073644063 0.047216672

decoder.weight_hh_l0 f4 [128, 32]
00000000: 2223 70c0 7ee5 8e3f 8d3e 033e 59dd 043f
00000010: b888 0fbd ce8d 0d3f 112a 603f e3a7 97bc
00000020: 21cd fcbf 3fc3 94bf 323b babf 0238 0e40
00000030: 0c68 29bf 4201 f13e 5b0a adbe 2018 933f
00000040: c6c9 983f 6007 293f 0114 63be 7819 803f
00000050: 0410 a13f 4b97 5b3c 98f0 dabc faa9 e2bf
00000060: b7b0 3ebf 2251 98bf 894c 6a3f 0fd6 ca3f
00000070: dfe1 6fbf 093f 573f 7b7a 103d ae16 40c0
00000080: d017 e6be f3e1 95be dc54 afbd e519 3d3e
00000090: 49c9 3ebf 57aa f63e 645f 7c3e 3c61 0a3f
000000a0: 3752 f3bd 896f 22bd 74db 753e 2a7f 0bbe
000000b0: 463a 83bd 622f 173e aeb6 dfbe fffb bd3d
000000c0: 263a ce3e d46a c53d 7132 dcbb 324d d93f
000000d0: f819 ca3e de5f 583e 112b 483f 5164 d23d
000000e0: 8a9a 3cbe 813e 0bbe b283 db3e f845 e8be
000000f0: d52f 163f abbf af3d 3d45 b9bd 283b 423e
00000100: bc6a f03b 4742 41bf 4524 54bf ef13 59bc
00000110: d1fc 01be 6539 1c3f 0edf a63d e9df 5f3e
00000120: e847 6f3e b481 8cbe 4339 a3bc 9730 0bbe
00000130: 0736 8cbe 6e9c 693e 5943 a33e 80a9 0d3e
00000140: d80a 0cbd 912f 123e d07d d4bd bba0 3f3e
00000150: d361 f33d 0d35 aabc 98d9 bdbc f1ad 29be
00000160: 29e5 2e3e 1cf4 80be 4cbe 223d 3e03 d23e
00000170: cd3f 673d 01db f83d f371 3dbe a97f 33be
00000180: 0b0f 5fbf 214e 22bf e9d1 b1bf c345 8c3f
00000190: aa68 633f eaa3 b93e 3a5f 1b3f 6049 c1be
000001a0: 7473 423f 9ae6 89bd 3790 773f 1a93 bbbe
000001b0: 6c02 983e 9375 1d3f e90b d53e 4329 be3e
000001c0: aae7 cf3e 1b08 013e cf54 37bf 0f8c 153f
000001d0: 4940 383f 4250 d9be 201b cf3e 8168 6b3d
000001e0: dea3 e33e 7da1 bcbd 4df8 903e 276e 30be
000001f0: ba2a db3e ffc6 0d3f 0130 6b3e bcee 883f
00000200: c722 c5be 5be8 84bf 6e96 313f ff01 b63c
00000210: e812 bb3f 0523 ac3f 79f0 aebc 0fe2 cfbd
00000220: 6b21 2cbe 0ea4 6b3e 236f 1b3f 2edf a0be
00000230: 1ca0 e03c 800b 45be a52e f3be 255b c6be
00000240: 2a49 f33e 4d07 9a3e eb14 3ebd e649 243f
00000250: 353b a03e 4d40 9a3e 9666 62bf 7ca2 ee3d
00000260: 0d34 bd3e b480 c8bd 7f24 063f c0d4 7f3e
00000270: 5d69 913e 2c92 f1bd 1688 babc 0d6c 90bf
00000280: d304 cbbc 029c 953e 1b4e 01bf 06c8 593e
00000290: d897 043d 8751 183e 6c1b 993d 1684 dd3d
000002a0: ddac 41bf e248 873d ace9 983f 7fea 68bd
000002b0: 30fb 26bf 0a86 3fbf 60b5 3d3e 7e41 e5bd
000002c0: 109f fd3d 742d 00be 4fce cc3e b8e2 583f
000002d0: 4fdf 063e a97e 093f ea35 263f 1287 04bf
000002e0: 0d2f da3e 2e65 1bbe 3e9b ed3e 2428 a83e
000002f0: 7a0e 1cbc e5dc 6c3e 6578 2cbf a317 46be
00000300: d12d 69bd 8013 aebf b67e 5dbf c905 53be
00000310: 29e2 cf3e bd2f 893f 7a77 943e a888 8fbe
00000320: 585c b63e 974d 973d d5e5 353f 9a79 78be
00000330: f9a6 66bf 97fc 943e 7eb5 ec3e 2308 c0bd
00000340: 49c0 9e3e ac4d f2be a5b4 243f 50ed f53d
00000350: bb6b e83d 6ac7 07bd ef96 913e 4a1a a9be
00000360: 1e31 493e f455 d9bf 16cb 443f d12e 413c
00000370: 2e73 753e c60f 633b 940b 7bbe d63a 513f
00000380: c959 96be 090b b3be 997d 07bf b45b 013f
00000390: 1f22 2d3e b79f 8c3e 2ae5 bc3e 6217 03be
000003a0: 9143 f63d f8f8 15be 0ed2 d93d 5fd5 bdbe
000003b0: f195 f0be e2f0 febd 1f82 f43e 850c 7d3e
000003c0: 939a 91be 0f57 99be 25ef 413e a76b 5e3f
000003d0: be17 27bf 6f27 1c3e 79fd 14be 94cc dcbe
000003e0: e322 01bd 9c8a dbbe 5dc0 da3d 1e90 013c
000003f0: 767b 753e 8fec 103e d40b bebd c38d 703c
-3.7521443 1.1163785 0.1281683 0.5190025 -0.035042495 0.552945 0.8756419 -0.018512672
-1.97501 -1.1622084 -1.4549315 2.2221684 -0.6617439 0.47071272 -0.33796963 1.1491737
1.1936576 0.6602688 -0.221756 1.0007772 1.2583013 0.01340277 -0.026726052 -1.7708123
-0.74488395 -1.189976 0.91523033 1.5846575 -0.93704027 0.8408056 0.035273056 -3.0013843
-0.44940042 -0.29273948 -0.085611075 0.18466909 -0.74525887 0.48176834 0.24645764 0.5405462
-0.118809156 -0.03965715 0.24009496 -0.13622728 -0.06407599 0.14764169 -0.4369406 0.0927658
0.4027874 0.096395165 -0.0067198803 1.6976683 0.39472938 0.2113032 0.78190714 0.1027304
-0.18418327 -0.13598062 0.42873913 -0.45365882 0.58666736 0.0858148 -0.09046409 0.18967879
0.0073369425 -0.75491756 -0.8286784 -0.013249381 -0.12694098 0.6102508 0.08148013 0.21862759
0.23367274 -0.27442706 -0.019924765 -0.13592754 -0.2738497 0.2281358 0.3188732 0.1383419
-0.03419003 0.14275958 -0.10375559 0.18713658 0.11883893 -0.02077725 -0.023175046 -0.1657026
0.17079605 -0.2518624 0.039732262 0.410181 0.05645733 0.12151147 -0.185005 -0.17529167
-0.8713233 -0.63400465 -1.3892184 1.095879 0.8883158 0.3625787 0.6069218 -0.37751293
0.7595742 -0.06733437 0.9670443 -0.36635667 0.29689348 0.6150753 0.4161065 0.37140855
0.40606433 0.12600748 -0.7161378 0.5841684 0.7197309 -0.42444044 0.40450382 0.05747271
0.44460958 -0.09210489 0.28314438 -0.1722952 0.42806035 0.5538177 0.22967531 1.0697856
-0.38503096 -1.0383409 0.6937016 0.022217749 1.4615145 1.3448187 -0.0213549 -0.10150539
-0.16809623 0.230118 0.60716456 -0.31420273 0.027420096 -0.19242668 -0.47496524 -0.38741413
0.47516757 0.30083695 -0.046406668 0.6417526 0.3129517 0.30127183 -0.88437784 0.11652085
0.36953774 -0.09790173 0.5239944 0.24983501 0.28400698 -0.11795458 -0.022769969 -1.1282974
-0.024782574 0.29220587 -0.50509804 0.21267709 0.032371372 0.1487485 0.074759334 0.10816209
-0.75654393 0.06605698 1.1946311 -0.056864258 -0.6522703 -0.748139 0.1852622 -0.11194132
0.123838544 -0.12517339 0.4000115 0.84720945 0.13171123 0.53708893 0.64926016 -0.517686
0.42614022 -0.15175316 0.46407503 0.32843125 -0.009524936 0.2313114 -0.6737121 -0.19344954
-0.05692846 -1.3599701 -0.8652147 -0.20607676 0.40602234 1.0717694 0.28997403 -0.28033948
0.35617328 0.07387846 0.7105382 -0.24265137 -0.9009853 0.2909896 0.46232218 -0.09376552
0.31006077 -0.47324884 0.6433814 0.120081544 0.11348673 -0.03314916 0.28435466 -0.3302787
0.19647643 -1.6979356 0.76872385 0.011790947 0.23969719 0.0034646853 -0.24516135 0.817304
-0.29365376 -0.34969357 -0.5292602 0.5053055 0.16907547 0.27465603 0.36893588 -0.12801889
0.12024606 -0.14645755 0.10635768 -0.37076852 -0.46989396 -0.124482885 0.47755525 0.24711807
-0.28438243 -0.29949233 0.18938883 0.86883014 -0.652706 0.15249418 -0.14549817 -0.4312483
-0.03152741 -0.42879188 0.10681222 0.007907895 0.23972878 0.1415274 -0.092796 0.014682236

decoder.bias_ih_l0 f4 [128]
00000000: e1f7 573d c915 78be d3a6 afbe 6f1c 07be
00000010: 1dc4 99be 5d2f 3a3e cd6f 023e cf3f babe
00000020: c184 a2be fe57 623e 5400 89bd d3bc f43d
00000030: bd24 c23d 42d4 eabc e204 91be a2dc 523d
00000040: 84b2 093e 727a a5be 8b89 1a3e f5c8 e6bb
00000050: 8a37 733c dc9e cd3d f8e0 a2bd 7ab5 8a3e
00000060: de14 0e3e 2642 2e3e e762 6bbe a6e8 31be
00000070: 73a6 51be cfa0 72be c122 88be 7a6c a4bd
00000080: 92d8 443e 6963 bc3c a13c 043f 3d35 b93e
00000090: 5a18 14bd c027 013e 4fd8 433e 6a10 ad3e
000000a0: 5e0c cd3e 1aa6 293e 4c74 533e 9848 b23e
000000b0: 6dc8 313d 9e2f 523e 244c 3e3e d4a7 d73d
000000c0: 7c34 03be 5991 0a3f 32bf 7fba 8002 d7bc
000000d0: 7dda 3d3e 37d6 f23e a634 363e 04c6 2bbc
000000e0: df0e 40be 5b90 9f3e 9f07 5e3e 14d8 fc3e
000000f0: 73a4 ad3d 329f 253e 7815 883e 435a a13e
00000100: 3dc4 1b3e d19d 2f3e b379 82bc 305b 993d
00000110: bc25 82be 8c0a 16be da76 59be 82bb 6f3d
00000120: 5e7b 1e3d a99d 0d3d 0811 c83d c545 b03d
00000130: e163 efbc 4a00 d2be 4301 593e 8e5f 2fbd
00000140: 0e64 053e 4009 8cbe 834c aeb9 dc7a 0dbe
00000150: d24f c83d 691e 623e fa87 41be f000 8a3d
00000160: 4708 ccbd b806 a6bd c26e 2abd 6e25 343e
00000170: 7c22 ee3c d4d8 2abe df0a 54be b674 f43d
00000180: cfc0 993d a28b ae3d fe7b bd3d 12c2 0f3f
00000190: 600b 91bd cfe2 063e 7b2f 68bc 4b44 b0bd
000001a0: bc85 a43d 7377 9d3e dfe2 c93e c5f1 9a3e
000001b0: 4e2f 573e 571b 48bd 9858 ed3d 5d6e 6d3e
000001c0: d48b 7e3c 4609 d7bd 2821 9ebc 5714 acbe
000001d0: b991 a93d 670e 133d 6a5b ce3d d32f 383e
000001e0: 9cac b73e 393e 3d3e 9e1d 793d 1799 463e
000001f0: 53a5 183e ddac 803d 460a 23be acc0 5f3d
0.05272663 -0.2422706 -0.34306964 -0.1319444 -0.30032435 0.1818213 0.12737961 -0.36376807
-0.31741908 0.22103879 -0.06689516 0.11950078 0.094796635 -0.028665666 -0.28324038 0.051479943
0.13447005 -0.3231998 0.15091531 -0.007042999 0.0148447845 0.10040066 -0.07953066 0.2709158
0.13875148 0.17017421 -0.22986947 -0.17373905 -0.20473652 -0.23694156 -0.26589015 -0.08028503
0.1922324 0.022996621 0.5165501 0.3617343 -0.036156036 0.1261282 0.19125484 0.33801585
0.40048498 0.16567269 0.20649832 0.3482101 0.04340403 0.20525977 0.18583733 0.105300575
-0.1281299 0.5412803 -0.00097559683 -0.02624631 0.18540378 0.47429058 0.17793521 -0.010484222
-0.18755673 0.31164822 0.21682595 0.49383605 0.08478632 0.1617401 0.2657888 0.31514177
0.15211578 0.17150046 -0.015927171 0.07488096 -0.25419414 -0.14652461 -0.21236745 0.05852843
0.03869187 0.034574185 0.097688735 0.086070575 -0.02922243 -0.41015846 0.21191888 -0.042815737
0.13026449 -0.27350807 -0.00033244872 -0.13816398 0.097808495 0.22081913 -0.18899527 0.0673846
-0.09962516 -0.0810675 -0.041609533 0.17592403 0.029069178 -0.16684276 -0.20707272 0.11936323
0.075074784 0.085227266 0.09252165 0.561555 -0.07082248 0.13172458 -0.0141714765 -0.08606776
0.0803332 0.30755195 0.394309 0.3026258 0.21014139 -0.0488542 0.115891635 0.23186632
0.015536267 -0.10499816 -0.01930292 -0.33609268 0.082797475 0.035902407 0.100760296 0.17986993
0.35873878 0.18480767 0.06081926 0.19394337 0.14906816 0.06282971 -0.15921888 0.054627106

decoder.bias_hh_l0 f4 [128]
00000000: b4fc 8c3d d13e c7bd 9ebf a7be b6a9 2dbc
00000010: cc7a c4be 6a53 24be ba7e 42be 7047 86be
00000020: 7857 0abf c55b ab3e a889 7cbe d051 97bd
00000030: 48c4 363d fda1 403d 57e0 90be 1b88 63be
00000040: 17ea 693e f142 60be 0a77 a9bd 96de 273e
00000050: 838a c03d 79c8 3bbd 585c a23d 7230 433e
00000060: 8224 3d3e c7a7 1bbe 5598 12be 3447 1a3d
00000070: e181 40be ec5a 923b acf9 d4bd 0af5 97be
00000080: f589 723e f8ba 2c3e a917 163f 0a09 d13e
00000090: 2984 a4bd b504 7d3e 3fe4 c43e 8497 2f3e
000000a0: 63b3 0d3f 68a5 313e 72b2 9f3e 8279 303e
000000b0: 52be 853e 5f82 d73e 4611 c23e 243f 753e
000000c0: e750 aabc a023 963e 91b0 4e3e 565b afbd
000000d0: e138 973e 3c11 eb3e bbc1 ce3d 7e97 cabc
000000e0: 11c1 45be 15e3 643e 22b8 b13d 1317 ce3e
000000f0: 1f1d 9b3e 9ed3 413e ce07 5f3e 949f ac3e
00000100: cea6 043e ee29 213e 8250 313e bf1e 753c
00000110: 9e37 503c 0516 9fbd 4312 39be 19e3 e1bb
00000120: a9b1 00bd 2ecf e43d 4726 783e b709 e33d
00000130: c386 0cbe f373 09be 59f0 483e 1c51 d83d
00000140: cc0a 693e d0e9 23be 4808 583e dec3 4fbe
00000150: 54b9 abbc e4db b33e 8de3 45bd 5e3d 10be
00000160: fb25 e53c 95f7 203d c296 26be 5b17 a2bc
00000170: 6d5a 05be ce10 00bd c350 c03d 31b9 91bc
00000180: cd5a 7d3e f6c3 04bd 5ee8 3a3e 7cc2 af3e
00000190: 4f40 57be 13b4 823e 19d2 513e b3a2 273d
000001a0: d07f 12be 54f1 b93d b970 5d3e af1c c63d
000001b0: 213d f43d a570 103e 1de7 263d fc3e 1c3e
000001c0: 8fed a6bd 9b2e bf3d 7f74 833d 6048 3cbe
000001d0: 9698 743c 6768 943d 59df 883d b293 b83d
000001e0: 7222 1c3e 9a5f a93d 3f21 9fbd 3ae9 e23e
000001f0: ad88 1e3e 357b 63be df58 0bbe 42ba 3e3e
0.06884137 -0.09728778 -0.3276338 -0.010599544 -0.38374937 -0.16047445 -0.18993655 -0.26226377
-0.54039717 0.33468452 -0.24661887 -0.07388651 0.044620782 0.047029484 -0.28296158 -0.22219889
0.22843204 -0.21900536 -0.08274658 0.16393504 0.09401419 -0.045845482 0.079277694 0.19061449
0.18470958 -0.1520072 -0.14315923 0.03766556 -0.18799545 0.004466405 -0.10399184 -0.29679137
0.23685439 0.16868198 0.5862985 0.4082721 -0.0803302 0.24708827 0.38455388 0.17147642
0.5535185 0.17348254 0.3119083 0.17233852 0.26121765 0.42091653 0.37903804 0.23949867
-0.02079053 0.29324055 0.20184542 -0.08562343 0.29535583 0.45911586 0.10095545 -0.02473044
-0.1931193 0.2235225 0.08677699 0.4025198 0.30295655 0.18928382 0.21780321 0.33715498
0.12954256 0.15738651 0.17315868 0.014960944 0.012708573 -0.07767872 -0.18073373 -0.006893527
-0.03141943 0.11172329 0.24233352 0.11085837 -0.13723283 -0.13423137 0.19622935 0.105623454
0.22758025 -0.16007161 0.21096909 -0.20289561 -0.020962395 0.351287 -0.048312712 -0.1408591
0.027972212 0.039298613 -0.16268447 -0.019786527 -0.13022776 -0.031266026 0.09390404 -0.017788501
0.24741669 -0.032413445 0.18252704 0.34328067 -0.21020626 0.2552801 0.20490302 0.040926646
-0.14306569 0.09079233 0.21625032 0.0967344 0.11925722 0.1410547 0.04074775 0.15258402
-0.081507795 0.09335061 0.06418704 -0.18386984 0.014928957 0.07246476 0.06683225 0.09012546
0.15247515 0.08270188 -0.07770013 0.44318563 0.15481825 -0.22214969 -0.1360812 0.18625739

reconstruction_linear.weight f4 [5, 32]
00000000: 5d4d c33e 38c8 04be e850 f03d 5ac0 2abf
00000010: 35a3 da3d c06f d3be b8c5 14bd 5496 02be
00000020: 7400 7ebe e041 5b3f b9ce fa3e 0f5b d0bd
00000030: 54e8 333e 8580 f83d 1ec5 c93c c402 22bf
00000040: 527b e1bd cf75 223e 9584 aa3d 6cb2 cebd
00000050: cd17 573e c380 53bd ee25 083e b439 46be
00000060: 6fde dcbc 5ac9 393e 7a45 f2bd 37e0 eb3e
00000070: b458 23be 4b7a 8cbe 770e ea3e 2788 8ebd
00000080: 361e f53e 58fa c1bc a08f f33d c3f5 23bf
00000090: ce58 c63d 83a5 e0be dc3d 30bd c921 3abe
000000a0: e511 d1be b55e 583f 179b 143f 869f c43d
000000b0: 6cc1 803e 9321 193e 969c c3bc 7f5f 05bf
000000c0: dd9b bd3d 00d1 1a3e 1489 93be 2e98 27be
000000d0: 308b 453e 94e6 88bd 743a b53d 7dad 4cbe
000000e0: 9996 593c c295 e73d 9776 d5bc 20c0 f33e
000000f0: c60d 3ebe 3e3e 63be 48da 5b3e 4cf8 8abc
00000100: 693a d53e 765f bb3c 0234 643e fbca 1fbf
00000110: 1b2d 883d 01fb b6be 1ff3 e8bc b0f1 1fbe
00000120: 3334 96be ebe6 703f d564 e93e 5abc afbd
00000130: 0d7d 6fbe 92bc ee3d 7785 39bc d91b 1bbf
00000140: 9ce9 783e e370 053e 18a2 b3be c45c 093d
00000150: 7afb 7c3e 91f6 f8bd a969 0b3d 88e4 5bbe
00000160: 6702 4cbd 7072 273e 47b2 bcbd 2709 203f
00000170: 4fa2 aebd 67d9 83be fe5c 5a3e fce8 a3bc
00000180: 9a34 ca3e 6e14 5f3c d3d3 353e e458 24bf
00000190: ff8a c23d a245 c5be 3b00 0dbd 924c 20be
000001a0: 98e4 b9be d9fe 743f 3606 023f 5358 633d
000001b0: a3bd 9ebc 28b0 013e 3fac f2bc 5346 00bf
000001c0: e01a a0be 36c0 193e 6cf6 b8be e8dc 0ebd
000001d0: e7eb 443e 0517 e1bd 6743 343d 34c1 38be
000001e0: db08 cfbc 936e 0b3e 86d1 38bd 9e15 113f
000001f0: 8a24 07be 287d 61be 5ab5 4d3e 5452 03bd
00000200: bba7 913e 6493 1fbe 7a46 d1bd 1487 a7bd
00000210: 4084 c63c c389 ae3c e1c9 5ebd 1fdb 213d
00000220: f7ee 203e 597c 9abe 1f94 b93d 0a3e 623d
00000230: 0592 89be 92ec 473d 9c18 1dbe 7af6 35be
00000240: edd9 24bf 6aff 073e 6d35 413e e78e 18c0
00000250: d1b1 1cbe d737 753d 5c6c a2bf 4628 1b3f
00000260: bee5 013f 4599 323e a271 a4bd 99df 323c
00000270: 3e43 b9be 369b b4bd b9d1 113e 379d bc3d
0.3814496 -0.12967002 0.11734182 -0.66699755 0.106756605 -0.41296196 -0.03632137 -0.12752658
-0.2480486 0.8564739 0.48985842 -0.10173618 0.17569095 0.12133888 0.024630126 -0.6328547
-0.110098496 0.15865253 0.08326069 -0.10092625 0.21005173 -0.05163647 0.13295719 -0.1935795
-0.026961533 0.18143216 -0.11829658 0.460695 -0.15951806 -0.27437052 0.4571416 -0.06959563
0.47874612 -0.023678944 0.11892629 -0.6404688 0.09684907 -0.43876275 -0.043027744 -0.1817695
-0.40833965 0.8451951 0.5804915 0.09600739 0.2514757 0.14954214 -0.023878377 -0.5209884
0.09258244 0.1511879 -0.2881552 -0.16366646 0.19291377 -0.06684604 0.0884904 -0.19988056
0.013280534 0.11307861 -0.026057525 0.47607517 -0.18559942 -0.22191712 0.21469986 -0.0169641
0.41646126 0.022872668 0.22285464 -0.624191 0.06649228 -0.35738376 -0.028436242 -0.1561954
-0.293367 0.9410235 0.4558474 -0.08580847 -0.23387547 0.11657061 -0.011323324 -0.6058937
0.24307865 0.13031344 -0.35084605 0.033535734 0.24705306 -0.12156404 0.034036312 -0.21473897
-0.04980698 0.16352248 -0.09213691 0.62513965 -0.08527052 -0.25751802 0.21324536 -0.020008557
0.39493257 0.013615711 0.17756586 -0.64198136 0.09499168 -0.38529688 -0.034424048 -0.1565421
-0.36307216 0.95701367 0.5079073 0.055504154 -0.019377535 0.12664855 -0.029623149 -0.50107306
-0.31270504 0.15014729 -0.36125505 -0.03487864 0.19230615 -0.10990719 0.044009592 -0.18042451
-0.025272777 0.136164 -0.045121692 0.5667361 -0.13197532 -0.220204 0.20088711 -0.032060936
0.2844828 -0.15583569 -0.102185205 -0.08180061 0.024232984 0.021305924 -0.054391745 0.03951561
0.15716158 -0.30172995 0.09061455 0.055234946 -0.26869217 0.048809595 -0.15341419 -0.17769805
-0.6439503 0.13281026 0.18868037 -2.383722 -0.15302207 0.059867706 -1.2689319 0.6060833
0.50741184 0.1744128 -0.08029486 0.010917568 -0.36184114 -0.08818667 0.14240159 0.09209674
