output/sp500/models/best_model_section_3.pth (torch, 212398 bytes, 10 tensors)

encoder.weight_ih_l0 f4 [256, 5]
0	0xbd8a9e2b	-0.067684494
1	0xbd448ed3	-0.04798777
2	0xbd327de6	-0.043577097
3	0xbd05dcc6	-0.03268125
4	0x3e501a8e	0.2032263
5	0xbe45994d	-0.19296761
6	0x3d8ec7c9	0.069717
7	0xbc16bc13	-0.009200114
8	0x3e0bcc4b	0.1365215
9	0x3ebb172d	0.3654112
10	0x3d9c9f9d	0.07647631
11	0x3e46007b	0.19336121
12	0x3dfe7d4e	0.12426244
13	0xbd2a3c14	-0.0415612
14	0xbf0b3516	-0.5437788
15	0xbd9e0194	-0.07715145
16	0x3da2d375	0.079504885
17	0x3cc35a9c	0.023846917
18	0xbcd7c934	-0.026341058
19	0x3e5e5a70	0.21714187
20	0x3bbd8866	0.005784082
21	0xbcea5f9a	-0.02861004
22	0x3e38e630	0.1805656
23	0xbe8a3f09	-0.27001217
24	0x3e1af999	0.15134276
25	0xbe038630	-0.12844157
26	0xbe7f0545	-0.24904354
27	0x3e666ef4	0.22503263
28	0xbed23593	-0.410565
29	0xbfe1dc75	-1.7645403
30	0x3d7cd15f	0.06172311
31	0xbc415b97	-0.011801622
32	0xbdf94772	-0.1217183
33	0xbdcf8daf	-0.10134446
34	0x3cbdcb71	0.023168297
35	0xbe36f01c	-0.17865032
36	0xbe6124ba	-0.21986666
37	0xbe60e7c6	-0.21963415
38	0xbe0f706b	-0.14007728
39	0xbe442107	-0.19153224
40	0x3b82e7a9	0.003994901
41	0xbc21f191	-0.009884254
42	0x3d672221	0.056429032
43	0x3ceac70d	0.028659368
44	0xbdc88c63	-0.09792402
45	0xbd2cdd6f	-0.042203363
46	0xbd1fd538	-0.0390217
47	0xbe723832	-0.2365425
48	0xbe15dc3f	-0.14634798
49	0x3dc24c18	0.0948717
50	0x3d81a2fe	0.063299164
51	0x3e2afba0	0.1669755
52	0x3dab2a82	0.08357717
53	0xbdea4ca8	-0.11440402
54	0xbcf4e50e	-0.029894378
55	0x3d9e8845	0.07740835
56	0xbd6c74de	-0.05772864
57	0x3d8eb3a9	0.06967861
58	0xbe22eb3b	-0.15910046
59	0x3e3d496c	0.1848504
60	0xbe05f6e3	-0.13082461
61	0xbd84c437	-0.064827375
62	0xbceca434	-0.028886892
63	0xbe0c9c8d	-0.13731594
64	0x3d05bb3e	0.03264927
65	0xbe1a92e4	-0.15095097
66	0xbd4feed9	-0.050764892
67	0xbda7f735	-0.08201448
68	0x3cf7e9ad	0.030262792
69	0x3ec8a7e8	0.39190602
70	0x3e79f59a	0.24410096
71	0xbe152d66	-0.145681
72	0xbd2a4397	-0.041568365
73	0xbdb1510a	-0.08658035
74	0xbd94359d	-0.072367884
75	0xbdae9dfe	-0.08526228
76	0xbdf9943b	-0.12186476
77	0x3cd2221c	0.02565103
78	0x3e1192a1	0.1421609
79	0xbed585c9	-0.41703632
80	0x3df3d662	0.11906125
81	0x3e324544	0.17409235
82	0xbd2265c5	-0.039647836
83	0x3da3eb6c	0.080038875
84	0xbdf3e8e0	-0.11909652
85	0xbe0b22d2	-0.13587502
86	0xbccdea73	-0.025136208
87	0xbdbc54a1	-0.09195829
88	0x3dbd59e4	0.09245661
89	0x3ca4f894	0.020138063
90	0xbd6e728b	-0.058214705
91	0xbc72c15d	-0.014816609
92	0x3d81fd24	0.06347111
93	0xbd9ddbd1	-0.07707942
94	0x3d8fb5b0	0.07017076
95	0x3e415e5c	0.18883651
96	0x3a62c220	0.00086501427
97	0xbe1e7a87	-0.15476428
98	0xbd765c1c	-0.060146436
99	0x3dd25cb8	0.10271591
100	0xbe1890a2	-0.14898923
101	0x3dacc3aa	0.084357575
102	0xbd759015	-0.05995186
103	0x3dbcb8f5	0.09214965
104	0xbe136772	-0.1439493
105	0xbe528739	-0.20559396
106	0xbe278084	-0.16357619
107	0xbe610069	-0.21972813
108	0x3ef8e83b	0.48614678
109	0xbe384942	-0.17996696
110	0xbd055dbe	-0.032560103
111	0xbdfc71a5	-0.123263635
112	0x3c89a0e7	0.016800357
113	0x3dcc4527	0.09974127
114	0x3d483c9a	0.04888592
115	0x3946ff98	0.00018977968
116	0xbdd05f13	-0.10174384
117	0x3d3f41e9	0.046693716
118	0x3d5b538b	0.05354647
119	0x3bb144d7	0.0054098177
120	0x3d1f0026	0.0388185
121	0x3df51a8d	0.11967955
122	0x3e146901	0.14493181
123	0x3df86d5b	0.12130233
124	0x3e358191	0.17725207
125	0xbdc94ca7	-0.098290734
126	0xbdf45531	-0.119303115
127	0x3c1a61f7	0.009422771
128	0x3b069b49	0.0020539335
129	0xbcaf02ed	-0.0213637
130	0xbe1e4782	-0.15456966
131	0xbe6145c6	-0.21999273
132	0xbea1956f	-0.3155932
133	0xbe82c348	-0.25539613
134	0xbe7d8f64	-0.2476173
135	0xbdadf4cd	-0.08493958
136	0xbe1065ad	-0.14101286
137	0xbb527a8e	-0.0032116505
138	0x3d894ad0	0.067037225
139	0x3d3ce6fb	0.046118718
140	0xbe828f2d	-0.2549986
141	0xbe2c4476	-0.16822991
142	0xbe5cda47	-0.21567641
143	0xbe03f60f	-0.12886833
144	0xbba19a0e	-0.004931695
145	0x3dfe4f3f	0.12417459
146	0x3de1e89a	0.11030693
147	0xbd25adc1	-0.040448908
148	0xbdca956c	-0.09891781
149	0x407586c0	3.8363495
150	0xbe698c4c	-0.22807425
151	0xbdd9df80	-0.10638332
152	0xbd7399e3	-0.05947293
153	0xbd009415	-0.031391222
154	0x3ccf792a	0.02532633
155	0x3de2b226	0.11069135
156	0x3d5e81d9	0.05432305
157	0xbd8f137f	-0.069861405
158	0xbd330ded	-0.043714453
159	0x3e1a6b52	0.15080002
160	0x3b2e0988	0.0026555974
161	0xbdd72f36	-0.10507052
162	0xbe3500e1	-0.17676117
163	0xbeb64109	-0.35596493
164	0x3e6af3f1	0.22944619
165	0xbd9c4809	-0.07630927
166	0x3e10ee65	0.1415344
167	0xbd0b8ef6	-0.034071885
168	0x3e3da545	0.18520077
169	0xbe779fce	-0.24182054
170	0x3c71470c	0.014726412
171	0x3c52121f	0.012821703
172	0x3cefdb50	0.029279381
173	0xbdc11dc0	-0.094295025
174	0xbd39b3ca	-0.045337476
175	0x3ddc6b64	0.10762671
176	0x3c388f0e	0.011264576
177	0xbd72842f	-0.05920809
178	0x3df8c932	0.1214775
179	0x3bc225fe	0.005924939
180	0x3d4916d3	0.049094032
181	0x3ce919e0	0.028454721
182	0xbd6b6855	-0.057472546
183	0xbd27775a	-0.040885307
184	0xbd1f6941	-0.038918737
185	0xbc5ad12a	-0.013355533
186	0xba25d1fc	-0.00063255406
187	0xbc69aa93	-0.0142618595
188	0x3dad1f8b	0.08453282
189	0x3d5684c5	0.052372713
190	0x3e0681e4	0.13135487
191	0xbd74abb5	-0.059734065
192	0xbccaa6ad	-0.02473768
193	0x3deaacbd	0.114587285
194	0x3e5236e1	0.20528747
195	0xbd027cf8	-0.03185746
196	0xbd05654f	-0.03256732
197	0x3d4edd9d	0.050504316
198	0xbcd40bc1	-0.025884511
199	0x3d94810e	0.07251178
200	0xbe807d05	-0.25095382
201	0xbebe1817	-0.37127754
202	0xbe081b84	-0.13291746
203	0xbe843544	-0.25821888
204	0xbead5ad0	-0.33858347
205	0xbe4045fd	-0.18776698
206	0xbd70ec57	-0.05881914
207	0xbe06cf71	-0.1316507
208	0x3db8d05a	0.09024115
209	0xbcd71056	-0.026252907
210	0xbe77deaa	-0.24206033
211	0xbe6167a6	-0.22012195
212	0xbe61c044	-0.22046
213	0xbe83d897	-0.25751182
214	0x3d80c67a	0.062878564
215	0xbc443bda	-0.01197716
216	0xbd5d116b	-0.05397169
217	0x3dc1870c	0.09449586
218	0xbd9d11d8	-0.07669419
219	0x3dfb0932	0.12257613
220	0xbd0f8a57	-0.03504404
221	0xbe0161df	-0.12634991
222	0xbccecefb	-0.02524518
223	0xbe338f15	-0.1753505
224	0xbb02c5f6	-0.001995442
225	0xbe2277e6	-0.1586605
226	0xbea5cbc3	-0.3238202
227	0xbed7a00b	-0.4211429
228	0xbefdbb4d	-0.49556962
229	0xbdc09e7c	-0.094052285
230	0x3d963932	0.07335128
231	0xbe62c401	-0.22145082
232	0x3d858a05	0.06520466
233	0x3c66f706	0.014096981
234	0xc00b7716	-2.1791434
235	0x3de3c7dc	0.111221045
236	0xbd33c304	-0.043887153
237	0x3b7cb65c	0.0038560843
238	0xbcde3e38	-0.027129278
239	0x3df891f1	0.12137211
240	0xbde6ea96	-0.112752125
241	0xbe1a585f	-0.15072773
242	0xbdcf1c33	-0.101128004
243	0xbd5452f7	-0.051836934
244	0xbe4de02d	-0.20105048
245	0xbe4693b3	-0.1939228
246	0xbe97b7bc	-0.29632366
247	0x3e30c524	0.17262703
248	0xbe427ff5	-0.18994124
249	0xbd03b8d1	-0.032158677
250	0xbdea069a	-0.114270404
251	0xbd0109b3	-0.03150339
252	0xbdcae010	-0.09906018
253	0xbce5a0eb	-0.028030833
254	0x3d0308ac	0.031990692
255	0xbdbb5eb5	-0.09148923

encoder.weight_hh_l0 f4 [256, 64]
0	0x3d1c1133	0.03810234
1	0x3e07215e	0.13196322
2	0xbe5ad117	-0.21368824
3	0x3dd14c62	0.10219647
4	0xbe3508b3	-0.176791
5	0x3cefa15e	0.02925175
6	0x3e0b7128	0.13617384
7	0xbd4ddf35	-0.050261695
8	0xbe86b63a	-0.26310903
9	0x3ebea383	0.37234125
10	0xbd815c55	-0.06316439
11	0x3e342791	0.17593218
12	0x3decb84c	0.11558589
13	0x3f180d3a	0.5939518
14	0x3e024bc0	0.12724209
15	0xbdb33c8d	-0.087517835
16	0x3ea73725	0.3265926
17	0x3e97bfc5	0.29638496
18	0x3c69fea0	0.014281899
19	0xbdeca6a1	-0.115552194
20	0x3e69acb4	0.22819787
21	0x3d5417bc	0.051780447
22	0x3e909fd6	0.28246945
23	0xbe8bb604	-0.27287304
24	0x3e2cb072	0.16864184
25	0x3c6c73c7	0.0144319
26	0x3e299650	0.16561246
27	0xbdd2d167	-0.102938466
28	0x3e02c5cc	0.12770766
29	0xbdde75c1	-0.108623035
30	0xbeec1d31	-0.4611602
31	0x3e0b847a	0.13624755
32	0xbbb78883	-0.0056009903
33	0x3e99265c	0.29912078
34	0xbecfd42b	-0.4059156
35	0xbe84a92f	-0.25910327
36	0xbef08ae2	-0.4698096
37	0xbe8cc690	-0.2749524
38	0x3e24e225	0.16101892
39	0x3e99111e	0.29895872
40	0x3df2d617	0.11857241
41	0xbdfa10e4	-0.12210253
42	0x3e8c2ce1	0.2737799
43	0xbf6b1b6b	-0.9183871
44	0x3e5f23c7	0.21790992
45	0xbf0f86ff	-0.5606536
46	0xbc2aff6c	-0.010436874
47	0xbda47733	-0.08030548
48	0xbd8db1ee	-0.06918703
49	0xbe4a3532	-0.19746855
50	0x3f062edd	0.5241526
51	0xbda445d3	-0.080211304
52	0xbf20b6b3	-0.62778777
53	0x3dae6d80	0.08516979
54	0x3d12f437	0.035877433
55	0x3f118a29	0.5685144
56	0x3dfc5407	0.123207144
57	0xbdd8549c	-0.10563013
58	0x3d261a98	0.040552706
59	0x3d7e6980	0.06211233
60	0xbe046233	-0.12928085
61	0x3ea84d0c	0.32871282
62	0x3cd14148	0.025543824
63	0x3f2e2ac7	0.68034023
64	0xbdda4696	-0.106579944
65	0x3f595453	0.84894294
66	0xbdaebdc7	-0.08532291
67	0xbceabbc0	-0.02865398
68	0xbeda699c	-0.426587
69	0xbf13b97c	-0.577049
70	0x3e3cba63	0.18430476
71	0xbd8f65cc	-0.07001838
72	0xbef8820f	-0.48536727
73	0xbec4e396	-0.38454884
74	0x3d433888	0.047661334
75	0xbd2ede5b	-0.042692523
76	0x3e4e064d	0.20119591
77	0x3e605265	0.21906431
78	0xbdd0c778	-0.10194296
79	0x3ea726fc	0.3264693
80	0xbe14549a	-0.14485398
81	0xbf225cea	-0.63423026
82	0xbd4efe94	-0.050535753
83	0x3e713f2f	0.23559259
84	0x3ec0a056	0.37622327
85	0xbe6dcf7c	-0.2322368
86	0x3e8a0043	0.26953325
87	0x3d6c139d	0.057635892
88	0x3dcb3c58	0.09923619
89	0xbca053db	-0.019571235
90	0x3c214e95	0.009845396
91	0xbd2fd476	-0.042927228
92	0xbe7425c8	-0.23842537
93	0x3de20327	0.110357575
94	0x3e843760	0.25823498
95	0x3e95ca01	0.2925568
96	0x3e73fcb6	0.2382687
97	0xbe0a8d9b	-0.1353058
98	0xbe3faa9a	-0.18717423
99	0xbe07c29a	-0.13257828
100	0xbe6f3a4e	-0.23362085
101	0xbde480f7	-0.111574106
102	0xbccc9e3d	-0.024977798
103	0x3eac67be	0.336729
104	0xbfd0ece0	-1.6322289
105	0xbd7b5568	-0.061360747
106	0x3e4ca17e	0.1998348
107	0x3f01ac28	0.50653315
108	0x3e22ab3b	0.15885632
109	0x3f126aa1	0.5719395
110	0x3faedbce	1.3660829
111	0x3c745bba	0.014914447
112	0xbe9e4daa	-0.30918628
113	0xbcb97af3	-0.022641635
114	0x3e59c481	0.21266367
115	0x3e3fa6dc	0.18715996
116	0x3e8aa46c	0.2707857
117	0x3e155c17	0.1458591
118	0x3c9b9dbf	0.018996118
119	0x3baed643	0.0053356006
120	0xbf2bad2e	-0.67061126
121	0x3ef37dfe	0.47557062
122	0xbe52ab20	-0.20573092
123	0xbd69c31b	-0.057070833
124	0x3eac5e38	0.33665633
125	0x3f489903	0.7835848
126	0x3cae1f66	0.021255206
127	0xbed2362f	-0.41056964
128	0x3f413959	0.7547813
129	0xbe5883d7	-0.21144043
130	0x3daadfc5	0.08343462
131	0xbf20e470	-0.6284857
132	0x3f93b35c	1.1539111
133	0xbd0886bb	-0.033331614
134	0xbf932ef2	-1.1498702
135	0x3d9b8c48	0.07595116
136	0x3e7d76fe	0.24752423
137	0x3f014099	0.50489193
138	0x3ec41241	0.38295177
139	0xbd389c4d	-0.045070935
140	0xbebc5e03	-0.36790475
141	0x3e8f8a90	0.28035402
142	0xbedfa994	-0.43684065
143	0x3d37a173	0.044831704
144	0x3daa9b8a	0.08330448
145	0x3dba9706	0.09110837
146	0x3f11163a	0.5667454
147	0xbd2270f3	-0.039658498
148	0x3d686890	0.056740344
149	0xbeb1bd83	-0.34714898
150	0x3f47a827	0.77990955
151	0xbf4db38e	-0.80352104
152	0xbee8648c	-0.4538921
153	0x3e9ccc7b	0.30624756
154	0x3f03b91a	0.5145432
155	0xbf228968	-0.63490915
156	0xbda963bc	-0.08270976
157	0xbd615799	-0.05501518
158	0xbe44432e	-0.19166252
159	0xbde8d00e	-0.11367808
160	0x3eb60bcf	0.35555884
161	0x3fc139e8	1.5095797
162	0x3e829ba5	0.25509372
163	0x3e4237fc	0.18966669
164	0xbec0356d	-0.3754076
165	0xbeeb5b00	-0.45967865
166	0x3ebc560f	0.36784407
167	0x3ed39a54	0.4132868
168	0x3e136aeb	0.14396255
169	0xbf030f23	-0.5119497
170	0xbea1a359	-0.31569937
171	0x3d0895d7	0.033346023
172	0x3f068753	0.5255024
173	0xbf04b382	-0.5183641
174	0xbddf0715	-0.10890023
175	0x3e2c8cbd	0.16850562
176	0x3e56dac5	0.20981891
177	0xbe9411b3	-0.28919753
178	0x3f1d902d	0.6154812
179	0xbed575f3	-0.4169155
180	0xbefdcd8b	-0.4957088
181	0x3f878932	1.0588744
182	0xbe9070b6	-0.28210992
183	0xbda01632	-0.078167334
184	0x3ed52a85	0.41634002
185	0x3ec0791f	0.37592408
186	0x3dfff1d6	0.124972984
187	0x3ed81719	0.42205122
188	0xbefdd473	-0.49576148
189	0xbd88130a	-0.066442564
190	0xbf3711cf	-0.7151155
191	0x3ce1efd3	0.027580177
192	0x3de49d07	0.11162763
193	0xbd91dc3a	-0.07122083
194	0x3e8f46ae	0.27983612
195	0xbe1f31f8	-0.15546405
196	0xbda51957	-0.08061474
197	0xbeb89f5e	-0.36059088
198	0xbf195491	-0.59894663
199	0x3cfefe44	0.031127103
200	0x3db477e1	0.088119276
201	0xbd0a171c	-0.033713445
202	0x3dc96b10	0.09834874
203	0x3ea0e452	0.31424195
204	0x3ece481b	0.40289387
205	0x3f989e6f	1.192335
206	0xbe5b3704	-0.21407706
207	0x3dcb1f45	0.099180736
208	0x3eada9f4	0.33918726
209	0xbd9b251e	-0.07575439
210	0xbc81b1bb	-0.015831819
211	0xbefd91d9	-0.49525335
212	0x3e0f3538	0.13985145
213	0x3cbcb586	0.023035776
214	0x3cc4ab1b	0.02400737
215	0xbead2781	-0.33819202
216	0x3be62533	0.0070234775
217	0xbdd090f2	-0.10183896
218	0xbcba1f19	-0.022719907
219	0xbd8c51fb	-0.06851574
220	0x3e8edafb	0.27901444
221	0x3e306bde	0.17228648
222	0xbd9c7250	-0.07638991
223	0xbe52e145	-0.20593746
224	0xbb5445c6	-0.003239022
225	0xbf3d8d6d	-0.74043924
226	0xbe86ec23	-0.26352033
227	0xbe8d0b6a	-0.2754777
228	0x3d705a23	0.05867971
229	0xbe85c4cc	-0.26126707
230	0xbd8055b6	-0.06266348
231	0x3efa1f55	0.4885203
232	0xbe9ca1bf	-0.30592152
233	0x3e6ddf88	0.23229802
234	0xbe86e434	-0.2634598
235	0x3f7897ec	0.97106814
236	0xbd64d054	-0.05586274
237	0xbedd18d7	-0.43183014
238	0xbc34dd49	-0.011039087
239	0xbe5fd076	-0.21856865
240	0xbe1d390d	-0.15353794
241	0x3f4ddf5f	0.8041896
242	0xbae77591	-0.0017658939
243	0x38c02f30	9.164063e-05
244	0xbecb7d53	-0.39744052
245	0xbe25e27e	-0.16199681
246	0xbe449ae1	-0.19199707
247	0x3da756f6	0.08170883
248	0xbeb103ce	-0.34573215
249	0x3e27cb39	0.16386117
250	0xbd92da7e	-0.0717058
251	0xbe203654	-0.15645725
252	0x3df6b7cc	0.12046775
253	0x3ebddbe3	0.37081823
254	0x3d30d1cb	0.043168824
255	0xbe836359	-0.25661734

encoder.bias_ih_l0 f4 [256]
0	0xbdc37762	-0.09544255
1	0xbc4629c8	-0.012094922
2	0x3ea5aba3	0.3235751
3	0x3e05a81b	0.13052408
4	0xbe6ef930	-0.23337245
5	0x3c42836c	0.011872154
6	0xbd84d303	-0.0648556
7	0xbebd4e3d	-0.36973754
8	0x3dd0943d	0.10184524
9	0xbe3f45fe	-0.18679044
10	0xbdce4a5e	-0.10072778
11	0xbe943bdd	-0.28951922
12	0xbe86fd48	-0.26365113
13	0xbe16a69c	-0.14711994
14	0x3e98906d	0.29797688
15	0x3dfe1953	0.12407174
16	0xbe69b5a8	-0.22823203
17	0xbe971d20	-0.29514408
18	0xbe48f810	-0.19625878
19	0x3d6602b1	0.05615491
20	0x3e5390d0	0.2066071
21	0x3e67aae3	0.22623782
22	0xbd89dff1	-0.067321666
23	0x3e2daa83	0.16959576
24	0x3e318bee	0.17338535
25	0xbeae8756	-0.34087628
26	0xbf086ea8	-0.5329385
27	0xbd80cb2d	-0.06288753
28	0xbed03c8c	-0.40671194
29	0x3ea02ce7	0.31284258
30	0xbe2e65b8	-0.1703099
31	0x3eba5356	0.36391705
32	0xbb9fccf9	-0.0048767296
33	0x3e96be38	0.29442
34	0x3f046cbf	0.51728433
35	0x3e335be3	0.17515521
36	0x3e72370c	0.23653811
37	0xbe4830b6	-0.19549832
38	0x3e94c020	0.2905283
39	0xbe971b79	-0.29513147
40	0xbd8c67f1	-0.06855763
41	0x3e8d6ecc	0.27623594
42	0xbf330730	-0.6993284
43	0x3e81f3d3	0.25381336
44	0xbef65dc4	-0.48118412
45	0xbe2e418c	-0.17017192
46	0xbd5ed75b	-0.054404598
47	0x3b13e6ae	0.0022567916
48	0xbf102b55	-0.5631612
49	0xbec7e2e5	-0.39040294
50	0xbe91cfdc	-0.28478897
51	0xbe3bea35	-0.18351062
52	0x3e7e79bf	0.2485113
53	0x3e3e6c64	0.18596035
54	0x3eadb659	0.33928183
55	0xbea39743	-0.3195134
56	0xbd05c14b	-0.03265504
57	0x3eb053e5	0.34439006
58	0xbeb1db30	-0.3473754
59	0x3f526d86	0.8219837
60	0x3e2ff87b	0.17184632
61	0xbeaa2bc1	-0.33236507
62	0xbe89550c	-0.26822698
63	0xbeac2842	-0.33624464
64	0x3eb03628	0.34416318
65	0x3db245ac	0.08704695
66	0xbe66c58c	-0.22536296
67	0x3e7759c2	0.24155334
68	0x3d947d0e	0.07250415
69	0xbe589aa5	-0.21152742
70	0x3e216d6a	0.15764394
71	0x3f33f6a6	0.7029823
72	0x3dc0147f	0.09378909
73	0x3e97f650	0.2968011
74	0x3c67a008	0.0141372755
75	0x3e4c9ee4	0.19982487
76	0x3f0dbd83	0.55367297
77	0x3de124fd	0.10993383
78	0x3e7894f4	0.24275571
79	0xbd96bc0b	-0.07360085
80	0x3e3e0fff	0.1856079
81	0x3e59d278	0.21271694
82	0x3e931dc8	0.2873366
83	0xbe426338	-0.18983161
84	0xbe32e0d7	-0.17468582
85	0x3db10ff8	0.08645624
86	0x3ed7dd1b	0.42160878
87	0x3e72c9f1	0.23709847
88	0x3e7a788f	0.24460052
89	0x3ef2db77	0.47433063
90	0x3f0b953d	0.54524595
91	0x3eb4855b	0.35257992
92	0x3f2305ad	0.63680536
93	0xbefde875	-0.49591413
94	0x3f08ef24	0.534899
95	0xbe3d6172	-0.18494204
96	0x3e15d7be	0.1463308
97	0x3e3f4ce2	0.18681672
98	0x3e1a37a8	0.15060294
99	0x3e755df2	0.23961619
100	0x3dcd2cbf	0.100183
101	0x3e58a3a1	0.2115617
102	0xbe88c8af	-0.2671561
103	0x3ee8d9bb	0.45478615
104	0x3ed638d8	0.41840243
105	0xbed1eafa	-0.40999585
106	0x3f7a75ac	0.97835803
107	0xbe980290	-0.29689455
108	0x3f0612b3	0.5237228
109	0x3beea4e5	0.0072828406
110	0xbef81f54	-0.484614
111	0xbdcf2abb	-0.10115572
112	0x3f274480	0.653389
113	0x3eeef8ba	0.46674138
114	0x3ec4f29e	0.38466352
115	0x3e8f111d	0.27942744
116	0xbe06630f	-0.13123725
117	0x3d26c5f5	0.04071613
118	0x3f085a9f	0.53263277
119	0x3ea68a45	0.32527366
120	0x3d5957b9	0.053062174
121	0xbebda4de	-0.37039846
122	0x3f0d8521	0.55281264
123	0x3ec0058e	0.37504238
124	0xbe326172	-0.17419985
125	0x3f043a89	0.5165182
126	0x3e995bb6	0.29952782
127	0x3e97ee3d	0.2967395
128	0xbd4c3777	-0.049857583
129	0x3e50824d	0.20362206
130	0x3d526016	0.051361166
131	0x3b348f86	0.0027551367
132	0x3d870e99	0.06594581
133	0x3dcffab0	0.10155237
134	0x3d3a5d45	0.045499105
135	0x3ded6ca0	0.11592984
136	0xbd824752	-0.063612595
137	0xbd776c28	-0.06040588
138	0xbdb80509	-0.089853354
139	0xbcefee8c	-0.029288553
140	0xbaa5ae86	-0.0012640513
141	0x3cbd0f4b	0.023078581
142	0xbe0c19b4	-0.1368168
143	0x3e0e2954	0.13882953
144	0x3d9fedb1	0.07809008
145	0xbe1a37ec	-0.15060395
146	0x3ca8fbfd	0.02062797
147	0xbd3fe11e	-0.046845548
148	0xbdb54ae8	-0.08852178
149	0xbe3add7c	-0.18248552
150	0x3d4514b0	0.048115432
151	0x3d828bb3	0.06374302
152	0x3e068498	0.13136518
153	0x3d5f9935	0.05458947
154	0x3ddce68e	0.10786162
155	0x3d92ac81	0.07161809
156	0x3d2cee06	0.042219184
157	0x3e46e93a	0.19424906
158	0x3d936c5c	0.07198402
159	0x3e3a89e6	0.18216667
160	0x3e5dd114	0.21661788
161	0x3cb75e11	0.022383722
162	0xbe6f9a24	-0.23398644
163	0xbd797921	-0.060906533
164	0xbdf61e33	-0.12017479
165	0xbd4c0067	-0.04980507
166	0xbdc1592e	-0.09440838
167	0x3d59280a	0.0530167
168	0xbdf849c1	-0.121234424
169	0xbd2022c3	-0.03909565
170	0x3d1f82b2	0.038943
171	0x3df720e9	0.12066824
172	0xbda80ef2	-0.082059756
173	0xbe395dfd	-0.1810226
174	0x3d5a075e	0.053229682
175	0x3d492a61	0.04911268
176	0xbd6bba4e	-0.05755072
177	0xbd7e78f4	-0.06212707
178	0x3d9ace60	0.07558894
179	0xbd14a525	-0.036290307
180	0x3e4657c8	0.19369423
181	0x3d702c03	0.058635723
182	0x3dabf39c	0.08396074
183	0x3dfce1a6	0.123477265
184	0x3d4f0cae	0.0505492
185	0x3e5965c3	0.21230225
186	0x3d0b4f56	0.034011208
187	0xbdc4c793	-0.09608378
188	0xbe11ed02	-0.14250568
189	0x3d029157	0.031876888
190	0xbd1eebfc	-0.03879927
191	0xbca928bc	-0.020649306
192	0xbe15340f	-0.1457064
193	0x3e6d7b4b	0.23191564
194	0x3e71f81c	0.23629802
195	0xbd9cc2a4	-0.07654312
196	0x3e33e343	0.17567162
197	0xbda05d75	-0.078303255
198	0x3eac8455	0.3369471
199	0x3ec24fff	0.37951657
200	0x3dee06f3	0.11622419
201	0x3ef44318	0.47707438
202	0x3e3dae7e	0.18523595
203	0x3f006d43	0.5016672
204	0x3ecfa01c	0.4055184
205	0x3de35e98	0.11102027
206	0x3db58e8e	0.08865081
207	0x3cd03bc8	0.02541913
208	0x3d69eb9d	0.057109464
209	0xbe4d6427	-0.20057736
210	0x3e4e2c0e	0.20133993
211	0x3de2951e	0.11063598
212	0x3ea50aa5	0.32234684
213	0x3d9ec0fa	0.07751651
214	0x3e43ecae	0.19133255
215	0x3eaf15be	0.34196275
216	0x3e3b890d	0.18314
217	0x3e9772fd	0.29579917
218	0x3f5af919	0.8553634
219	0xbda8262b	-0.08210405
220	0x3e9ff6fb	0.3124312
221	0x3d97859c	0.07398531
222	0x3f29fd4f	0.66402143
223	0x3e482778	0.19546306
224	0x3e26e5cc	0.16298598
225	0x3eeb63a7	0.45974466
226	0x3f1b6924	0.60707307
227	0x3f085fa3	0.5327093
228	0x3f2d9051	0.67798334
229	0x3ed5bcc1	0.4174557
230	0x3e841090	0.25793886
231	0x3eb91fca	0.36157066
232	0x3ecd8fbf	0.40148732
233	0x3ea1387f	0.31488416
234	0x3f606e3e	0.87668216
235	0x3e90e76f	0.2830157
236	0x3eaf9183	0.34290704
237	0x3e415f44	0.18883997
238	0xbd780bbf	-0.060558077
239	0x3eb991d8	0.36244082
240	0x3f54fd25	0.8319877
241	0x3ea4e73b	0.32207665
242	0x3ede2ed5	0.43395105
243	0x3e807b7c	0.2509421
244	0x3f38828a	0.72074187
245	0x3e2eb40d	0.17060871
246	0xbdb1623a	-0.08661313
247	0x3ea0bbf0	0.31393385
248	0x3e9fe9d7	0.31233093
249	0x3eaa0108	0.33203912
250	0xbdffc7b6	-0.12489264
251	0x3cdf8d3d	0.027289027
252	0x3ee605ef	0.44926402
253	0x3eefa92f	0.46808764
254	0x3eb1eb7b	0.3474997
255	0x3e8cd1a5	0.27503696

encoder.bias_hh_l0 f4 [256]
0	0xbdfb4902	-0.122697845
1	0xbd965648	-0.073406756
2	0x3e9ec63e	0.31010622
3	0x3e075e59	0.13219585
4	0xbde8d8f2	-0.11369504
5	0xbdb963ef	-0.09052264
6	0xbe0fcc10	-0.14042687
7	0xbeb510d9	-0.35364416
8	0x3e65c718	0.2243923
9	0xbe7299aa	-0.2369143
10	0xbdb20ef8	-0.08694261
11	0xbe8bfb84	-0.2734033
12	0xbedbc910	-0.42926836
13	0xbe3c7e2f	-0.1840751
14	0x3df0d4f8	0.117593706
15	0x3e7c2998	0.24625242
16	0xbe96bdc5	-0.29441658
17	0xbea714e6	-0.32633132
18	0xbd60fc8f	-0.05492836
19	0xbd500454	-0.050785378
20	0x3e9ee4af	0.31033847
21	0x3dbc16e7	0.09184056
22	0xbe80c81e	-0.25152677
23	0x3e462430	0.19349742
24	0x3e0e7651	0.13912322
25	0xbefea9f6	-0.49739045
26	0xbeaeb176	-0.34119767
27	0x3bf10d77	0.0073563415
28	0xbef97ac1	-0.48726466
29	0x3e645047	0.22296248
30	0xbe1b9858	-0.15194833
31	0x3e91f2af	0.28505465
32	0xbd637f5a	-0.055541374
33	0x3e902575	0.28153577
34	0x3ea9ca35	0.33162084
35	0x3da309fe	0.0796089
36	0x3d3a362e	0.045461826
37	0xbc39779c	-0.011320021
38	0x3ea1efcb	0.3162826
39	0xbeefddac	-0.4684881
40	0xbd4c4636	-0.049871646
41	0x3e3304ac	0.17482251
42	0xbf1bf14b	-0.6091506
43	0x3e4046ec	0.18777055
44	0xbefde28d	-0.49586907
45	0x3ce22c07	0.027608884
46	0xbd4d93cb	-0.050189774
47	0xbcde318a	-0.027123231
48	0xbec624ea	-0.38700038
49	0xbee69b1d	-0.45040217
50	0xbe55f3e8	-0.20893824
51	0xbe894b4e	-0.26815265
52	0x3ed1b6c2	0.40959746
53	0x3de6a078	0.11261076
54	0x3ec82cc8	0.39096665
55	0xbe89c14c	-0.26905286
56	0xbd46866d	-0.048468042
57	0x3ec2a2d2	0.38014847
58	0xbef51ba4	-0.4787265
59	0x3f7da558	0.9908042
60	0x3e3fe619	0.18740119
61	0xbe8ce097	-0.27515098
62	0xbda5def8	-0.080991685
63	0xbe13e5e9	-0.14443173
64	0x3e91dd38	0.2848909
65	0x3e4261bd	0.18982597
66	0xbe72a385	-0.2369519
67	0x3eb2122a	0.34779483
68	0x3ddd14b4	0.107949644
69	0xbe970905	-0.2949907
70	0x3eb51528	0.35367703
71	0x3f2f9834	0.6859162
72	0x3dff6377	0.12470143
73	0x3eb9fb86	0.3632471
74	0x3babee2d	0.0052468986
75	0x3e4cc4ea	0.19996992
76	0x3ecdaaa5	0.40169254
77	0xbdf72f02	-0.12069513
78	0x3e752f65	0.23943861
79	0xbde5b27e	-0.11215685
80	0x3e8de59b	0.27714238
81	0x3de0ff60	0.10986209
82	0x3e70fc7e	0.23533818
83	0xbde33b2c	-0.110952705
84	0xbe9c301c	-0.30505455
85	0xbcb80351	-0.022462519
86	0x3e4d60b1	0.20056416
87	0x3eacb496	0.33731526
88	0x3eca2e9e	0.3948869
89	0x3e8a5449	0.2701743
90	0x3f17c956	0.5929159
91	0x3f08d3fb	0.53448457
92	0x3f3186a3	0.69346064
93	0xbefa5ab5	-0.4889733
94	0x3f0da15e	0.5532435
95	0xbe86a051	-0.26294187
96	0x3e563b79	0.20921125
97	0x3e4baae6	0.19889411
98	0x3e10d389	0.14143194
99	0x3e3cb4aa	0.18428293
100	0x3e5fb4da	0.21846333
101	0x3e4659f3	0.1937025
102	0xbe602b7a	-0.21891585
103	0x3e9d6d08	0.30747247
104	0x3ec517aa	0.38494617
105	0xbea43a5c	-0.32075775
106	0x3f797ff7	0.97460884
107	0xbe6a314a	-0.22870365
108	0x3f0ebeca	0.5575987
109	0xbc9f3586	-0.019434702
110	0xbf02d803	-0.5111086
111	0xbdf2ce5d	-0.11855767
112	0x3efd93ed	0.4952692
113	0x3eef1bbd	0.4670085
114	0x3ee910d8	0.45520663
115	0x3ec1fd7c	0.37888706
116	0xbe93eac2	-0.28890043
117	0xbe09c8a5	-0.13455446
118	0x3ec7d85b	0.39032254
119	0x3ed6899c	0.41901863
120	0x3e24fc49	0.16111864
121	0xbe93bdb1	-0.2885566
122	0x3f14c088	0.5810628
123	0x3e3492da	0.17634144
124	0xbe56848e	-0.20949003
125	0x3ee3876e	0.44439262
126	0x3eb59826	0.35467643
127	0x3ed9849a	0.4248398
128	0xbce13543	-0.027491217
129	0xbbb403c4	-0.005493613
130	0x3daec84f	0.085342996
131	0xbd8d0b89	-0.06886966
132	0x3d171ab3	0.036890697
133	0x3d0ef180	0.03489828
134	0xbba280b2	-0.0049591893
135	0x3df658a7	0.12028628
136	0x3cb120a2	0.021622006
137	0xbda6e2a2	-0.081486955
138	0xbe832e9c	-0.25621498
139	0xbcfa89ed	-0.030583346
140	0x3debe1fe	0.11517714
141	0xbd8e850f	-0.06958973
142	0xbe588292	-0.21143559
143	0xbd9d2d3f	-0.07674646
144	0x3da5ead8	0.081014335
145	0xbe57e5ad	-0.21083708
146	0xbd712100	-0.058869362
147	0xbb0a6dee	-0.0021122652
148	0xbe6bd222	-0.23029378
149	0xbe551312	-0.20808056
150	0xbc0afe34	-0.008483458
151	0xbd93551d	-0.071939684
152	0x3d8399e4	0.06425837
153	0x3d1471d2	0.03624136
154	0x3d85e648	0.06538063
155	0x3e185ef4	0.14879972
156	0x3d063c19	0.032772157
157	0x3e8ef3a1	0.2792025
158	0x3e1ef4a1	0.15523006
159	0x3e0569ec	0.13028687
160	0x3e461082	0.19342235
161	0xbc7faacd	-0.015604687
162	0xbe45f59b	-0.19331972
163	0xbd6ffb4d	-0.05858927
164	0xbda26f59	-0.07931394
165	0x3e00e184	0.12586027
166	0xbd93e64a	-0.072216585
167	0x3dde5511	0.10856069
168	0xbe63b96b	-0.222387
169	0x3d57d5c5	0.0526941
170	0x3da12ed8	0.07870263
171	0x3cbfeb1b	0.023427537
172	0xbd6d0aa7	-0.057871487
173	0xbc8da3c4	-0.017290004
174	0xbc5bfb5f	-0.013426631
175	0x3da0509d	0.07827876
176	0x3d6f604d	0.05844145
177	0xbcb54b8c	-0.02213075
178	0xbe08480a	-0.1330873
179	0x3cdae606	0.026721012
180	0x3b4da25f	0.0031377298
181	0x3e3236a3	0.17403655
182	0x3d36434a	0.044497766
183	0x3c9b81f6	0.018982869
184	0xbd391cf5	-0.04519363
185	0x3db9adc9	0.0906635
186	0xbe0d02be	-0.13770577
187	0xbe94065e	-0.28911108
188	0xbe4c3e29	-0.19945587
189	0x395c01ae	0.0002098146
190	0xbcc7c47a	-0.02438568
191	0x3d1923a3	0.0373875
192	0xbe4b7b1a	-0.19871178
193	0x3e599957	0.21249901
194	0x3e820d37	0.25400707
195	0xbd921e56	-0.07134692
196	0x3eaaab6c	0.3333391
197	0xbdd3faf7	-0.10350602
198	0x3e589983	0.2115231
199	0x3f044067	0.5166077
200	0x3da9dcdd	0.082940795
201	0x3ebc5e25	0.36790577
202	0x3e61fd45	0.22069271
203	0x3f123bb6	0.5712236
204	0x3ec2ae18	0.38023448
205	0x3e8265dc	0.25468338
206	0xbd9e0f18	-0.07717723
207	0x3de3beb2	0.111203566
208	0xbd45fa36	-0.048334323
209	0xbdd4ec18	-0.10396594
210	0x3e2e1566	0.1700035
211	0x3e98ea06	0.29866046
212	0x3e7da7e3	0.24771075
213	0x3e409bab	0.18809383
214	0x3e5143d2	0.20436028
215	0x3eaf17a9	0.3419774
216	0xbc81fdf0	-0.015868157
217	0x3eb9e71d	0.36309138
218	0x3f2613c3	0.64873904
219	0xbdaef766	-0.08543281
220	0x3ecb0f98	0.39660335
221	0x3c19446b	0.009354691
222	0x3f0d353d	0.5515936
223	0x3e6c444c	0.23072928
224	0x3e355490	0.1770804
225	0x3ef60ae3	0.4805518
226	0x3f0cab09	0.5494848
227	0x3f430d01	0.7619172
228	0x3ef13248	0.47108674
229	0x3eafe03e	0.3435077
230	0x3ea2249a	0.3166855
231	0x3e32ab6f	0.17448209
232	0x3eaea79a	0.34112245
233	0x3ebb5539	0.36588457
234	0x3f4e04b2	0.80475914
235	0x3e403c79	0.18773068
236	0x3e9aea28	0.30256772
237	0x3e9510ca	0.29114372
238	0x3cc7b4d6	0.024378221
239	0x3eea22af	0.45729586
240	0x3f52094a	0.82045424
241	0x3e8b3100	0.27185822
242	0x3f09c056	0.53809106
243	0x3eb05008	0.3443606
244	0x3f3e6ebd	0.74387723
245	0x3d015c74	0.03158231
246	0xbe04d9b4	-0.12973672
247	0x3e97cb13	0.2964712
248	0x3eeb5026	0.45959586
249	0x3e95fa20	0.29292393
250	0xbe035516	-0.12825426
251	0x3d1a75ba	0.03770993
252	0x3e9ffca5	0.3124744
253	0x3f1b6205	0.6069644
254	0x3ea9dda7	0.3317692
255	0x3e06aab3	0.13151054

decoder.weight_ih_l0 f4 [256, 64]
0	0x3ddb6871	0.1071328
1	0xbefdb9b0	-0.4955573
2	0xbebab85c	-0.3646878
3	0xbe316e41	-0.17327215
4	0x3e329060	0.17437887
5	0x3e6cf18d	0.2313902
6	0x3dc8d8a1	0.09806944
7	0xbc35d777	-0.011098734
8	0xbed0d7be	-0.40789598
9	0x3e4bb8f2	0.1989477
10	0x3d2112b3	0.039324474
11	0x3e909acd	0.28243104
12	0x3fb59f38	1.4189215
13	0xbd91b485	-0.071145095
14	0x3e5dad86	0.21648225
15	0xbe4e7606	-0.2016221
16	0xbe16ca40	-0.1472559
17	0xbdd35d7d	-0.10320566
18	0xbe00518f	-0.12531112
19	0xbeb0ad0f	-0.34507033
20	0x3e0d3b9f	0.13792275
21	0x3bb5bf23	0.005546467
22	0x3d6737f2	0.056449838
23	0xbf154271	-0.58304507
24	0x3f2a4e5f	0.66525835
25	0x3e38991f	0.18027161
26	0x3e0cc940	0.13748646
27	0x3e196fa0	0.14983988
28	0xbeea647d	-0.4577979
29	0xbe681534	-0.22664338
30	0xbf627b13	-0.88469046
31	0x3e394ddd	0.18096109
32	0xbf24fda0	-0.644495
33	0xbf0bd48e	-0.5462121
34	0x3caad5d1	0.020853909
35	0x3e4c53ab	0.19953792
36	0xbcc768eb	-0.024342021
37	0x3efc7613	0.49308833
38	0x3ec66cc7	0.38754866
39	0xbdf3ffb9	-0.119140096
40	0x3c68304f	0.014171674
41	0x3e50807e	0.20361516
42	0x3dcd4109	0.1002217
43	0xbe65c2c7	-0.22437583
44	0xbd1cf0b7	-0.0383155
45	0x3e8796da	0.26482278
46	0xbe1be27a	-0.15223113
47	0x3e1abb1b	0.15110438
48	0xbf000f4b	-0.50023335
49	0xbe4320db	-0.19055502
50	0xbf641890	-0.8909998
51	0x3f0fe862	0.56213963
52	0x3e95edf5	0.2928311
53	0xbd973dbf	-0.07384824
54	0x3d91df41	0.071226604
55	0x3e977c6a	0.29587108
56	0x3f139857	0.5765433
57	0xbf4b1ebb	-0.79343766
58	0xbdf7242e	-0.120674476
59	0xbdb59df2	-0.08868016
60	0xbeef0816	-0.46685857
61	0x3dc00f22	0.09377886
62	0xbe892b79	-0.2679098
63	0x3c201cc9	0.009772488
64	0x3ebc7d31	0.36814263
65	0xbedea091	-0.43481877
66	0x3e2ec08c	0.17065638
67	0xbedee26f	-0.4353213
68	0xbd9a85c8	-0.07545048
69	0x3eb42757	0.35186264
70	0xbe50923b	-0.20368282
71	0x3e622991	0.22086169
72	0xbe01f544	-0.12691218
73	0xbe2d63c8	-0.16932595
74	0x3ee8c507	0.4546282
75	0xbd984674	-0.07435313
76	0xbfe1c276	-1.763747
77	0x3e6ff7f9	0.23434438
78	0xbe4a2949	-0.19742312
79	0x3c33c9c5	0.010973399
80	0xbcb92f41	-0.02260554
81	0x3f097738	0.5369754
82	0xbe14b409	-0.14521803
83	0x3f0287ac	0.5098827
84	0xbd86e509	-0.06586654
85	0xbe750d0b	-0.23930757
86	0xbe57bb7a	-0.2106761
87	0xbe9aa942	-0.30207258
88	0xbe87bdd6	-0.2651202
89	0xbd2a4c54	-0.0415767
90	0x401199f2	2.275021
91	0xbe7d5dbd	-0.2474279
92	0xbf5cd134	-0.8625672
93	0x3e873a50	0.26411676
94	0xbe670373	-0.2255991
95	0xbeac0b95	-0.33602586
96	0xbd8a0c48	-0.06740624
97	0x3e949909	0.29023007
98	0xbdc5f6a1	-0.09666181
99	0x3ec9d66c	0.39421403
100	0xbe634851	-0.22195555
101	0x3e5355c8	0.20638192
102	0x3eb43671	0.35197785
103	0xbd3a49dd	-0.045480598
104	0x3fa35ce4	1.2762723
105	0xbe3a0b0b	-0.18168275
106	0xc07f058b	-3.9847133
107	0x3e90ba7d	0.2826728
108	0xbf3b56dd	-0.7317942
109	0xbf21e637	-0.63241905
110	0xbf13f3f0	-0.57794094
111	0x3eafddd7	0.34348938
112	0xbf44afd6	-0.76830804
113	0x3f4f7543	0.810383
114	0xbf5f158b	-0.87142247
115	0xbf812321	-1.0088845
116	0x3c15a6a9	0.009133973
117	0xbebff4ce	-0.3749146
118	0xbc047e28	-0.008086719
119	0x3deec74f	0.11659109
120	0x3e222e08	0.15837872
121	0xbee5d23d	-0.44886962
122	0x3da1f985	0.0790892
123	0x3e438825	0.19094904
124	0xbd97d6ab	-0.074139915
125	0xbf0daa70	-0.5533819
126	0x3ef1937c	0.47182834
127	0xbf6ba8ee	-0.9205464
128	0x3ef2b80b	0.4740604
129	0xbc9034f4	-0.017603375
130	0x3db530df	0.08847212
131	0xbeb55d26	-0.3542263
132	0x3f2aca5f	0.66715044
133	0x3e819cd0	0.2531495
134	0xbf1a8d15	-0.60371524
135	0x3e93292e	0.28742355
136	0x3ebfbd2c	0.37449014
137	0xbeba681e	-0.3640756
138	0x3e4cf493	0.20015173
139	0x3df80413	0.12110152
140	0x3fd0a96e	1.6301706
141	0x3e3b7d68	0.18309557
142	0xbe589b27	-0.21152936
143	0xbea3988c	-0.31952322
144	0x3b63cc70	0.0034759305
145	0x3e09e9f8	0.13468158
146	0x3ea81c75	0.3283421
147	0x3e2c35b7	0.16817366
148	0x3e89d298	0.26918483
149	0xbe8c6077	-0.27417347
150	0xbfe7fec6	-1.8124626
151	0xbd9e0cea	-0.07717307
152	0xbf0e2de3	-0.5553877
153	0x3f81ca1f	1.0139807
154	0xbf307017	-0.68921036
155	0xbf104d43	-0.5636789
156	0x3f94438c	1.1583114
157	0x3ee24133	0.44190368
158	0x3f75352f	0.95784277
159	0xbe466935	-0.19376071
160	0xbf62d00c	-0.88598704
161	0x3eb9b75c	0.36272705
162	0x3e73c93a	0.2380723
163	0x3f0e2487	0.55524486
164	0xbf1bc954	-0.6085408
165	0xbe050ade	-0.12992427
166	0xbe0b0882	-0.13577464
167	0xbe71438d	-0.23560925
168	0xbad7597b	-0.0016429865
169	0x3f0b4b2b	0.5441157
170	0xbfa02684	-1.2511754
171	0x3d89a718	0.06721324
172	0xbf249400	-0.6428833
173	0x3e9e0860	0.30865765
174	0x3f23b79f	0.6395206
175	0x3dd00251	0.10156692
176	0x3f74cd8c	0.9562614
177	0xbe1279d2	-0.14304283
178	0x3f8519c2	1.0398486
179	0x3de5a76d	0.112135746
180	0xbe648a0d	-0.22318287
181	0x3e23d083	0.1599751
182	0xbe8a28ea	-0.2698434
183	0xbe902c21	-0.28158668
184	0x3e0bc789	0.13650335
185	0x3f32be0f	0.69821256
186	0x3e3577be	0.1772146
187	0x3dc06ccb	0.093957506
188	0x3dba38f0	0.09092891
189	0x3f08d219	0.53445584
190	0x3d79ff8a	0.061034717
191	0xbe3196ef	-0.17342733
192	0xbad62a18	-0.0016339449
193	0xbd85fe9d	-0.06542704
194	0xbdf2e2a6	-0.11859636
195	0x3d7428ca	0.059609212
196	0xbe67919a	-0.22614136
197	0x3cffc8ee	0.03122374
198	0xbda50d4a	-0.08059175
199	0xbc509a30	-0.012732074
200	0x3f10cb2f	0.56560034
201	0xbe99086c	-0.29889238
202	0x3ec470d2	0.38367325
203	0x3e95d2ac	0.29262292
204	0x3ee0d382	0.43911368
205	0xbf0b80b3	-0.54493254
206	0xbdadf405	-0.08493809
207	0x3cbba775	0.022906998
208	0x3e7ace42	0.24492744
209	0xbee0f742	-0.43938643
210	0xbd0205c3	-0.031743776
211	0x3f1650ed	0.5871723
212	0xbd15d4e3	-0.036579978
213	0xbe83c2c5	-0.25734535
214	0x3e916e51	0.28404477
215	0xbf015627	-0.50522083
216	0xbdade0a4	-0.084901124
217	0x3e883652	0.26603943
218	0x3e0c4f9a	0.1370224
219	0xbe12e520	-0.14345217
220	0x3e8e6b5b	0.2781628
221	0xbe6c173c	-0.23055738
222	0x3cf939e2	0.030423108
223	0xbe056d75	-0.13030036
224	0xbe9bf451	-0.30459836
225	0x3e6e2380	0.2325573
226	0x3bfb4004	0.0076675434
227	0x3dee2dd0	0.11629832
228	0x3e6f3f24	0.2336393
229	0xbe4e8b07	-0.20170222
230	0x3e53890b	0.20657746
231	0x3ec59476	0.3858983
232	0x3daae9ed	0.08345399
233	0x3e7b2051	0.24524046
234	0xbed1b3e3	-0.40957555
235	0xbe14a608	-0.14516461
236	0x3ebe7d2a	0.37204868
237	0x3dc74143	0.097292446
238	0xbd5ac157	-0.05340704
239	0x3e540fc0	0.20709133
240	0x3d3475d9	0.0440577
241	0x3ead7be1	0.33883575
242	0x3dbfdab3	0.093678854
243	0x3e20c1a4	0.15698868
244	0xbe498076	-0.1967791
245	0x3eb43ecc	0.3520416
246	0xbe0d9bf6	-0.13829026
247	0x3f0b6176	0.5444559
248	0x3dbfc5b8	0.09363884
249	0x3dcfa532	0.101389304
250	0x3d98b3d3	0.07456174
251	0x3db69d99	0.08916778
252	0x3ea9bbea	0.3315118
253	0x3d77444b	0.060367864
254	0x3ec2927a	0.38002378
255	0x3f0a17b3	0.5394241

decoder.weight_hh_l0 f4 [256, 64]
0	0xbeaa1c4f	-0.33224723
1	0x3e215631	0.15755536
2	0xbea4bee2	-0.32176882
3	0x3d1d1565	0.03835048
4	0xbd097996	-0.03356322
5	0xbd9bfbd1	-0.076163895
6	0x3dc4038b	0.09570988
7	0x3e2d9aed	0.16953631
8	0x3e4b9f5f	0.19885014
9	0xbd40b532	-0.0470478
10	0x3f0b07b1	0.5430861
11	0xbe83defa	-0.25756055
12	0xbd8b20f8	-0.06793398
13	0x3f09a3ba	0.5376545
14	0xbda3fb32	-0.08006896
15	0x3cb67ea7	0.02227719
16	0xbe3e649f	-0.18593071
17	0xbe8fcc2e	-0.28085464
18	0x3c9b31be	0.018944617
19	0xbd08feda	-0.03344617
20	0xbeebc67f	-0.46049878
21	0xbd1929fc	-0.037393555
22	0x3dd1fc64	0.10253218
23	0x3d9ea8a8	0.077470124
24	0xbc1cfd58	-0.009581886
25	0x3e9346fe	0.287651
26	0x3e3a2e21	0.1818166
27	0xbca4c4b3	-0.020113325
28	0xbe0fcc40	-0.14042759
29	0xbdc7a9ca	-0.097491816
30	0x3f055247	0.5207867
31	0x3cfb7555	0.030695597
32	0xbf1757ac	-0.5911815
33	0xbd5b797e	-0.05358266
34	0xbe81fe4c	-0.25389326
35	0xbdb44668	-0.088024914
36	0x3e555d6c	0.20836419
37	0x3c700434	0.01464944
38	0xbec88041	-0.3916035
39	0x3e45c67f	0.19314002
40	0xbe914819	-0.2837532
41	0xbeafcaf4	-0.34334528
42	0xbebdc953	-0.3706766
43	0x3ee005a8	0.43754315
44	0x3df299df	0.11845755
45	0x3e49cb1b	0.19706385
46	0xbedf54d2	-0.436194
47	0x3ef879d7	0.48530456
48	0x3d289251	0.041155163
49	0xbeb29e2c	-0.348863
50	0xbe9c3230	-0.3050704
51	0xbea6a785	-0.32549682
52	0x3e32f119	0.17474784
53	0xbd2c68a4	-0.04209198
54	0xbda6299b	-0.08113404
55	0xbd074c69	-0.033031855
56	0xbc05cf50	-0.008167103
57	0x3d9b491c	0.07582304
58	0xbd13271f	-0.03592598
59	0x3efa5104	0.48889935
60	0xbe534a46	-0.20633802
61	0x3e884fdf	0.26623437
62	0xbe363dd4	-0.17797023
63	0xbe1f57c6	-0.15560827
64	0xbf34065c	-0.70322204
65	0x4000f74e	2.0150943
66	0xbe1dc699	-0.1540779
67	0xbf377e52	-0.71677125
68	0x3f26ba0b	0.6512763
69	0x3ea8a741	0.32940105
70	0xbf5162c9	-0.8179136
71	0xbe7e6c40	-0.24845982
72	0x3fe6eaa8	1.8040361
73	0x40022afc	2.0338736
74	0xbfa5890d	-1.293245
75	0xbf993648	-1.196969
76	0xbf489167	-0.78346866
77	0xc022de0e	-2.5448031
78	0xbed92089	-0.42407635
79	0xbe9f9443	-0.31167802
80	0x3f2a5197	0.66530746
81	0xbd009960	-0.03139627
82	0x3e761a8c	0.24033564
83	0x3f4dfac6	0.80460775
84	0x40449a5e	3.0719218
85	0x4013af0a	2.3075585
86	0xbdee208a	-0.116273
87	0x3e80d568	0.25162816
88	0xbe97d05f	-0.29651162
89	0xbe58218c	-0.21106547
90	0xbeb863c5	-0.36013618
91	0xbef210af	-0.47278354
92	0x3f281db0	0.656703
93	0xbdf92658	-0.121655166
94	0xc08b1d6a	-4.3473406
95	0x3f618d7d	0.8810652
96	0xbf1e0016	-0.6171888
97	0x3f973786	1.181382
98	0x3f7c6303	0.9858858
99	0xbe8ae2ff	-0.2712631
100	0xbe687031	-0.22699048
101	0x3fb688cf	1.4260501
102	0x3e4d50b9	0.20050324
103	0xbef4df34	-0.4782654
104	0xbf211d15	-0.62935
105	0x3f68aa86	0.908852
106	0xbeb5845c	-0.35452545
107	0x3f04329a	0.5163971
108	0xbe62cae2	-0.22147706
109	0xbca1a472	-0.019731734
110	0x3f4172d1	0.7556582
111	0xbe5ae68b	-0.21377008
112	0x3edb53c4	0.42837346
113	0x3ea04658	0.31303668
114	0x3fae3aef	1.3611735
115	0xbe93a737	-0.28838512
116	0x3f9fd1e5	1.248593
117	0x3fa271b6	1.2690952
118	0xbe160ef7	-0.14654146
119	0x3f6bc35d	0.92094976
120	0x3ef71c14	0.4826361
121	0xbe25bbdf	-0.16184948
122	0xc045da5d	-3.0914528
123	0x3fc03b26	1.5018051
124	0xbfae2e9b	-1.3607973
125	0xbd23d026	-0.039993428
126	0xbface088	-1.3506021
127	0x3e9af9ec	0.302688
128	0x3dd81521	0.10550905
129	0x3fb6db51	1.428568
130	0x3f643877	0.8914866
131	0x3ebb9038	0.36633468
132	0xbd9c55a5	-0.07633523
133	0x3e50615c	0.2034964
134	0xbf8f1abf	-1.1180037
135	0x3efe31a8	0.4964726
136	0xbe27659f	-0.16347359
137	0x3e954dd7	0.2916095
138	0x3e84586f	0.2584872
139	0xbf4724ca	-0.7779051
140	0xbdbccb1c	-0.092184275
141	0xbf45fba5	-0.77337104
142	0xbcf86401	-0.030321123
143	0x3f193dc4	0.5985987
144	0xbe7bd3d6	-0.24592528
145	0x3ee79e62	0.45238024
146	0x3ea72878	0.32648063
147	0x3f267cad	0.6503399
148	0xbe76d9c2	-0.24106506
149	0x3e6b880c	0.23001117
150	0xbf3132e3	-0.6921827
151	0x3f22b8fc	0.63563514
152	0x3e2da576	0.1695765
153	0x3f0eac11	0.557313
154	0x3d83f2da	0.06442805
155	0x3f485504	0.78254724
156	0xbeace0c7	-0.33765242
157	0xbeac71ed	-0.33680668
158	0x3e136ede	0.14397761
159	0x3e9ebf42	0.31005293
160	0x3fbee35b	1.4913133
161	0x3f130e27	0.5744347
162	0x3f36378d	0.71178514
163	0xbe8d4ca1	-0.27597526
164	0x3f261bed	0.6488636
165	0x3d542432	0.05179233
166	0xbe6469a1	-0.22305919
167	0x3e86811d	0.2627038
168	0x3cbf9c6a	0.023390014
169	0xbdec3f45	-0.11535505
170	0x3e8601d5	0.26173273
171	0x3dc22412	0.09479536
172	0x3ec90ce5	0.3926765
173	0xbee90731	-0.455133
174	0x3f1c92ef	0.611617
175	0x3f0ab3bd	0.5418051
176	0x3dd0cddb	0.10195514
177	0x3cf307ca	0.0296668
178	0xbc2cf058	-0.010555349
179	0xbb2bf2e6	-0.0026237308
180	0x3c06076a	0.008180479
181	0x3f80e2cc	1.0069213
182	0xbd1efe8c	-0.038816974
183	0x3e9aff7c	0.30273044
184	0x3ec05499	0.37564543
185	0xbc3f88ed	-0.0116903605
186	0x3eb5e6c6	0.3552763
187	0xbf86aa7b	-1.0520777
188	0x3f1bbbeb	0.60833615
189	0x3e6b3a89	0.22971548
190	0xbd9be7a8	-0.07612544
191	0x3e0427a7	0.12905751
192	0xbe7fb03b	-0.2496957
193	0xbd80ea09	-0.06294639
194	0xbf05c81a	-0.52258456
195	0x3f623a15	0.88369876
196	0xbf42b042	-0.760502
197	0x3eb2db32	0.34932858
198	0xbe6380c2	-0.22217086
199	0xbe1c1d88	-0.1524564
200	0xbeb81d49	-0.35959843
201	0xbf14a5cf	-0.58065504
202	0xbec90c97	-0.39267418
203	0xbecc89fa	-0.39949018
204	0x3e92a745	0.28643242
205	0xbe9a7da0	-0.3017397
206	0xbe5b490c	-0.21414584
207	0x3e53fbe5	0.20701559
208	0x3ebbca03	0.3667756
209	0xbf460431	-0.77350146
210	0xbede156f	-0.43375728
211	0x3edea015	0.43481508
212	0xbf00fa1d	-0.5038164
213	0x3e0a4ed5	0.13506635
214	0xbece66ca	-0.40312797
215	0xbf31152e	-0.6917294
216	0xbead8657	-0.33891556
217	0xbef9bbe4	-0.48776162
218	0x3ee17a6c	0.44038713
219	0xbe8edf19	-0.27904585
220	0x3f235f6d	0.63817483
221	0xbf34b22b	-0.7058436
222	0xbf86559e	-1.0494878
223	0x3e32bc2d	0.17454596
224	0x3f98e8e0	1.1946068
225	0xbcaa5f38	-0.020797357
226	0x3fa6f744	1.304421
227	0x3cb0d5c5	0.021586308
228	0x3d8b87fb	0.068130456
229	0x3e8c9217	0.27455208
230	0xbd709604	-0.058736816
231	0xbf801b8a	-1.0008404
232	0xbf6bb444	-0.9207194
233	0x3c3c976e	0.011510713
234	0x3fbedba4	1.4910779
235	0x3ed3b64b	0.41350016
236	0xbecca097	-0.3996627
237	0xbe5bb1af	-0.214545
238	0x3ea895a9	0.32926682
239	0xbec339a7	-0.38129923
240	0xbe2ab122	-0.16669133
241	0xbf4d0fb1	-0.8010207
242	0xbd6b2942	-0.057412393
243	0xbec8a9b7	-0.39191982
244	0xbef9970f	-0.4874806
245	0xbdb3715d	-0.08761857
246	0xbf8751b9	-1.0571815
247	0x3e8386f4	0.256889
248	0x3e8dd486	0.27701205
249	0x3e6b8bae	0.23002502
250	0xbdff94e7	-0.12479573
251	0x3e6b5bb1	0.22984196
252	0xbd784a1a	-0.060617544
253	0xbd696742	-0.05698324
254	0x3e92b653	0.28654727
255	0xbde20dd7	-0.11037796

decoder.bias_ih_l0 f4 [256]
0	0xbe5a0b43	-0.21293359
1	0x3e30ea1d	0.17276807
2	0x3eb135ff	0.34611508
3	0x3e6c48cf	0.2307465
4	0xbe068bde	-0.13139293
5	0xbdd46362	-0.10370518
6	0x3e341250	0.1758511
7	0x3ddf1978	0.1089353
8	0xbe3e3185	-0.18573578
9	0x3d86b809	0.06578071
10	0x3d2bb9b3	0.041925143
11	0xbe8b717e	-0.27235025
12	0xbda6d049	-0.08145196
13	0xbea597e9	-0.3234246
14	0x3e98e802	0.29864508
15	0x3e7e8781	0.24856378
16	0x3cddee8f	0.027091293
17	0xbdbeb120	-0.09311128
18	0xbe898007	-0.2685549
19	0x3e2df276	0.16987023
20	0x3d5f6240	0.054537058
21	0x3e7ec572	0.24880007
22	0xbe9d4a3f	-0.30720708
23	0x3c9ac604	0.01889325
24	0x3de2990c	0.110643476
25	0xbe6eef50	-0.23333478
26	0xbe081889	-0.1329061
27	0x3c27a841	0.010232986
28	0xbe2c4b12	-0.16825512
29	0xbea5e398	-0.32400203
30	0xbd9f590d	-0.07780657
31	0xbec31a11	-0.38105825
32	0xbd1711a0	-0.036882043
33	0xbe6cbc77	-0.23118769
34	0x3d11e3c6	0.035617612
35	0xbea76d3f	-0.32700536
36	0xbe93ed71	-0.2889209
37	0x3c978cc9	0.018499749
38	0x39fe9fce	0.0004856572
39	0xbe2fb753	-0.17159776
40	0x3e22f350	0.15913129
41	0x3eff8c62	0.4991179
42	0x3ca5c4bf	0.020235417
43	0xbe699c95	-0.22813638
44	0xbd17739a	-0.03697548
45	0xbe145fb0	-0.14489627
46	0x3dcf3097	0.1011669
47	0x3c175ba4	0.009238157
48	0xbdcfa18f	-0.10138237
49	0xbdb13520	-0.08652711
50	0x3e368224	0.17823082
51	0x3d03833c	0.032107577
52	0xbe89a097	-0.26880333
53	0xbe7ce82e	-0.24697945
54	0x3da78368	0.08179361
55	0x3eb8a742	0.36065108
56	0xbe877ee3	-0.26463994
57	0xbd2c757a	-0.042104222
58	0x3b500c9c	0.0031745797
59	0xbcbf635f	-0.023362814
60	0xbe8408a8	-0.25787854
61	0x3dfc4b39	0.12319035
62	0x3d836e3b	0.06417509
63	0x3c606ab2	0.013697313
64	0x3e6936f7	0.22774874
65	0xbe53fdf2	-0.20702341
66	0x3d0649c7	0.032785203
67	0x3e679258	0.2261442
68	0x3e1940a5	0.14966066
69	0x3d3c175d	0.04592072
70	0xbd1a10d6	-0.037613712
71	0x3d8ab0dd	0.06772015
72	0x3d4abdb6	0.04949733
73	0x3e821458	0.25406146
74	0x3d92c34c	0.07166156
75	0x3e8eb15e	0.27869695
76	0xbcbeb799	-0.023280906
77	0x3eec8db3	0.46201858
78	0xbe1d2449	-0.15345873
79	0x3dd6f137	0.10495227
80	0x3e9ea8c3	0.3098813
81	0x3e962c4b	0.29330668
82	0x3e5beb9d	0.21476598
83	0x3e83973c	0.2570132
84	0xbb344c2b	-0.002751122
85	0xbe1ab804	-0.15109259
86	0x3e48c149	0.19604982
87	0xbdc5d809	-0.09660346
88	0x3d562080	0.05227709
89	0x3e9b67af	0.30352542
90	0x3cc7f7f7	0.024410231
91	0x3da0078b	0.07813939
92	0x3da927a9	0.08259518
93	0xbdc5e893	-0.09663501
94	0x3d287a65	0.04113235
95	0x3e6bd477	0.23030268
96	0xbd1eb5c6	-0.03874757
97	0x3d074bf7	0.03303143
98	0x3cf14d2d	0.029455746
99	0x3e928235	0.28614965
100	0x3dad293a	0.08455129
101	0xbdc7e3a4	-0.09760216
102	0x3e25853a	0.16164103
103	0x3df15999	0.117846675
104	0xbd0bd5bc	-0.03413938
105	0xbde8d9b7	-0.11369651
106	0x3e78cb9f	0.24296425
107	0x3d88755c	0.066630095
108	0x3e217c30	0.1577003
109	0x3e01ed52	0.12688187
110	0x3de85437	0.11344188
111	0x3d77cfdd	0.06050097
112	0x3e7a722b	0.24457614
113	0x3e858f66	0.26085967
114	0xbf0249dd	-0.50893956
115	0x3d513154	0.051072434
116	0x3d468f27	0.048476364
117	0x3e2cc51c	0.16872066
118	0x3cbdb339	0.02315675
119	0x3d2a148d	0.041523505
120	0x3e476ffe	0.19476315
121	0x3e95da94	0.29268324
122	0xbdbe5a78	-0.09294599
123	0xbd323010	-0.043502867
124	0x3e219d45	0.1578265
125	0x3dc2ffd7	0.09521454
126	0x3e4f2d02	0.20232013
127	0xbbe713ca	-0.0070519196
128	0x3dc8286f	0.09773337
129	0xbd3dbc67	-0.046322253
130	0x3d54d33b	0.051959258
131	0xbe1bb4b8	-0.15205657
132	0xbce2cd7f	-0.027685879
133	0xbdb9fdb6	-0.09081595
134	0xbcecfb0e	-0.028928306
135	0xbceae2ae	-0.028672542
136	0xbdb37885	-0.08763222
137	0x3dac966f	0.084271304
138	0xbd960c4d	-0.07326565
139	0x3e314144	0.17310053
140	0x3d2848a0	0.041084886
141	0xbd1852cc	-0.037188336
142	0xbdf94eb7	-0.12173217
143	0x3e01c85b	0.12674086
144	0x3deaff2d	0.11474452
145	0x3da3b7e2	0.07994057
146	0xbd27d21b	-0.040971857
147	0xbdb4b968	-0.08824426
148	0xbdf0d34c	-0.11759052
149	0x3c94a272	0.018143866
150	0x3e5044e5	0.20338781
151	0xbd2f15f4	-0.042745546
152	0xbe5108ac	-0.20413464
153	0xbe4ce87e	-0.20010564
154	0xbc974810	-0.01846698
155	0x3e6e8bae	0.23295471
156	0xbcdc64da	-0.026903559
157	0x3e2c6f1b	0.16839258
158	0xbdce3a01	-0.10069657
159	0xbd9c2fe3	-0.07626321
160	0x3cb90294	0.022584237
161	0x3cd1a301	0.025590422
162	0x3da3f80a	0.08006294
163	0x3d21ab34	0.039469913
164	0xbe25736d	-0.16157313
165	0xbe1b2c5b	-0.15153639
166	0x3d7d2119	0.061799143
167	0x3e1f091a	0.15530816
168	0x3e01f2da	0.12690297
169	0x3e1c5d6c	0.15270013
170	0xbe68e2f7	-0.2274283
171	0xbe74e765	-0.23916395
172	0x3d27977b	0.040915947
173	0x3d646262	0.055757888
174	0x3e4a6307	0.19764338
175	0x3ddc947d	0.107705094
176	0x3cb19360	0.02167672
177	0x3e08e055	0.13366826
178	0xbc829699	-0.015940951
179	0x3d98f4a3	0.07468536
180	0x3e497aed	0.19675799
181	0xbda128a9	-0.078690834
182	0x3d1e136c	0.03859274
183	0xbe7d91b7	-0.24762617
184	0xbdcf9300	-0.1013546
185	0x3d88aa03	0.06673052
186	0x38c93465	9.594186e-05
187	0x3e3a49fa	0.18192282
188	0xbe032e42	-0.12810615
189	0xbe46c5b6	-0.19411358
190	0x3a1faba8	0.00060909474
191	0xbd19dbb4	-0.03756304
192	0xbe227d8e	-0.15868208
193	0x3e132edc	0.14373344
194	0x3d33c57a	0.0438895
195	0xbe3b5640	-0.1829462
196	0x3d6aee28	0.05735603
197	0x3c9feeda	0.019523073
198	0x3d595d7e	0.053067677
199	0x3e98efa5	0.29870334
200	0x3c74bd03	0.014937642
201	0x3e423300	0.18964767
202	0xbd97b886	-0.07408242
203	0xbe5af0e3	-0.21380953
204	0x3e246597	0.16054378
205	0x3e3a9247	0.18219863
206	0x3f5f262a	0.8716761
207	0x3d05693d	0.032571066
208	0xbd18945f	-0.037250873
209	0x3c760657	0.01501616
210	0xbe156f61	-0.14593269
211	0x3dad4040	0.0845952
212	0xbe61416d	-0.21997614
213	0x3db7c705	0.08973507
214	0xbe900af3	-0.28133354
215	0x3db5ce6f	0.08877265
216	0x3dcd29d2	0.10017742
217	0x3caa200b	0.020767232
218	0x3e942d25	0.28940693
219	0x3e44bc20	0.19212389
220	0x3cc0bada	0.023526598
221	0xbe47e74e	-0.1952183
222	0x3c8d99a7	0.017285181
223	0x3e19d009	0.15020765
224	0x3db87279	0.09006209
225	0xbce34250	-0.027741581
226	0xbbe69c4d	-0.0070376755
227	0xbca4d4c6	-0.02012099
228	0xbe073720	-0.13204622
229	0x3da231ab	0.0791963
230	0xbd2d4cd0	-0.042309582
231	0xbdaf23dd	-0.08551762
232	0x3ea9d81b	0.33172688
233	0xbe004096	-0.12524638
234	0x3e440555	0.19142659
235	0x3d961d2d	0.073297836
236	0x3d41a86d	0.047279764
237	0x3d1fa5a5	0.03897633
238	0x3ea3f434	0.3202225
239	0x3d82465c	0.06361076
240	0xbe30734a	-0.1723148
241	0xbd89d7f7	-0.06730645
242	0x3ea0de44	0.31419575
243	0xbe1f230b	-0.15540712
244	0x3bfa6d34	0.0076424126
245	0xbd1b1ea0	-0.037871003
246	0x3e3f140f	0.18659995
247	0x3dc4ad04	0.096033126
248	0x3d816756	0.06318538
249	0xbdadde42	-0.08489658
250	0xbded29dd	-0.115802504
251	0x3e17c9ce	0.14823076
252	0x3b5bdf8d	0.0033549995
253	0xbd8cd884	-0.068772346
254	0x3de08c22	0.10964228
255	0x3cb1ab72	0.021688197
