output/sp500/models/best_model_section_3.pth (torch, 212398 bytes, 10 tensors)

encoder.weight_ih_l0 f4 [256, 5]
00000000: fd09 ad3c c1cd c6bb 73ba 0dbd 7322 85bc
00000010: 8625 32bd 0d2a 7fbd 1a0c c73c 3d11 e13d
00000020: e955 a63d 3c6b 9a3d 81db 8f3d c545 d03d
00000030: 2a44 413d a45b de3d 55d0 94bd 05f3 bf3c
00000040: 7dfa b03c 0b6a afbd 4d79 33bd acd0 25bd
00000050: f8f5 013e 626e 89bd b2f0 5e3d c1ce 08bd
00000060: 389c fbbc a7ea 8fbd 9bf5 03bd bc74 96bc
00000070: 618e f5bc 439d d6bc 5860 88bd 4be3 843c
00000080: c2a0 3b3d b8e7 c8bc 0ddd fdbd 3520 043d
00000090: 7dbe 053e cbab b6bd fe01 7abd fef5 c9bd
000000a0: a915 a3bc aed8 d03d f110 00bd 6b39 b43d
000000b0: ea73 113d c6f3 013d 20cb ef3d 7b26 cd3d
000000c0: d97f c53d 6ccf 8b3d 9f7c b0bd 432e fc3d
000000d0: 94d8 143d f16a 71bd 3fc6 8cbd c666 6ebd
000000e0: 0b18 a23d 382e 053e 80c2 73bd 6542 a53c
000000f0: 813e 5a3c 3745 5c3d 99c1 ccbc 444a 21bd
00000100: 923c 61bc 8efb 88bb b478 d43d 4957 36bc
00000110: 03ae acbd 8a7b ef3c e5af 98bd 3a60 6e3d
00000120: e3b8 b1bd 1aa2 423c 46d9 b4bc 3739 003e
00000130: 02d4 aabd 9458 a73d 78fb 043d fde3 d1bc
00000140: 7b11 36bd e5a2 43bb 4958 44bc f709 bc3d
00000150: 4b23 37bc 11a6 de3d b1e8 b23d 2ac5 bd3c
00000160: 3dd2 cd3d 67c0 6ebd 78d8 0abd f283 9e3c
00000170: 172f 403d c59b 7e3c 8b2d 15be 389c 6bbd
00000180: 9371 5cbe ba0c 28bd 953b 51be eafe 143e
00000190: e988 d7bc d173 073e eb7b cabd 4814 a83c
000001a0: 547a 993d d021 383d ec35 fe3d 70b1 52bd
000001b0: 5564 533d f386 af3d 1b86 d7bc 970c bbbc
000001c0: 13df 40be d570 4bbe 7d44 1bbd 072e 0d3e
000001d0: 72aa 6bbd 2f60 0b3d 8440 f33c 81a7 6c3d
000001e0: a3b8 103d 949f acbc b6f4 54bd 6fa9 093e
000001f0: b405 47bd ad32 163d 98db 9f3d 064f 35bc
00000200: adf3 1e3c 06ea d9bd 86c9 8a3d 7835 0a3e
00000210: df0a 6f3d 5747 843d 67b4 97bd 27b2 b3bd
00000220: 37f2 d13d 33bc f43d 7c04 cb3d 1448 8f3d
00000230: 58cd ddbd 8af0 dabd ab02 d1bc 6a98 dbbd
00000240: 14fe 1f3e cea9 0d3d 8a67 553d 510a 3e3d
00000250: 48e2 b43c fc63 c63d 0e1b 903d b092 afbd
00000260: 46a6 4bbd cbe7 c23d b150 643d 3b7a f63d
00000270: 2475 043e 2714 093d 252a cdbd 0e03 1e3d
00000280: c646 2abd 360a 9bbc 18d9 62bd 5f3d d73d
00000290: 66c6 f73b 2fba 4e3a ebc8 b5bc 0feb 8cbc
000002a0: a057 67bd 2833 8c3d 1c33 be3d bb60 18bd
000002b0: b8dd e0bd b3a6 203c dba7 2a3d 2c66 9a3c
000002c0: bcb4 a3bd c4e6 86bc 991f 35be 7b4d 2f3e
000002d0: 5d07 38bd eca9 613c dfe5 83bd f5b3 b43d
000002e0: 5d88 a33d af54 253c 1a79 5d3d b9c7 21bd
000002f0: 5bfd be3c 47fe 493d 2108 703d a202 763d
00000300: f617 fd3d 3223 863d c8be 813c 0b8b 8c3d
00000310: fa66 85bd eedc ad3d 6e75 3cbd dcc1 8cbd
00000320: 215d ef3d 18e8 963a 1875 af3d 762d de3d
00000330: 9f88 ca3d 30e9 1a3d bef0 8a3a 66fb 62bd
00000340: d6e1 a5bc 71c9 513d 02a0 bebd abaf c43d
00000350: 8aeb f43d d7c5 893c 4aca a63d 237d c2bd
00000360: 2b1e 973d db5b fabc 66f4 1b3d a4f2 d63d
00000370: e6fd f6bc 1dae cabd 2f5c 28be 8587 9ebd
00000380: 7a54 6abd 04c1 e7bd c0ed c83d 0db3 bc3d
00000390: 22a9 aabd 9cfa edbc 4a67 573d aba9 c13c
000003a0: b9c1 d43d cc78 8abd b511 873d 644a e43d
000003b0: 0f25 dd3d 08ca edbd ade1 d43d 3236 7fbd
000003c0: bfc9 493c 1f7e a13d 9759 5e3d 0b64 14bd
000003d0: e61d 11be 4898 1abd 4192 e5bd aa0b 033d
000003e0: bdc5 f33b ff1d 063e 855c 373d dfa2 b43d
000003f0: 35be 053e 4086 453a d83e 783c a0b1 713b
0.021122927 -0.0060670082 -0.03460164 -0.016251778 -0.043492816 -0.062295962 0.024297763 0.10989616
0.08121855 0.075399846 0.07024289 0.101695575 0.047184147 0.10857323 -0.07266299 0.02343131
0.021603817 -0.08565148 -0.043816853 -0.040482208 0.12691486 -0.06710507 0.054428764 -0.0334003
-0.03071414 -0.07027178 -0.03221665 -0.01836621 -0.029975118 -0.026198035 -0.06659001 0.016221663
0.045807607 -0.024524555 -0.12395678 0.032257278 0.13060947 -0.08919486 -0.061037056 -0.098613724
-0.01990779 0.10197578 -0.031266157 0.08800014 0.035510935 0.03172662 0.11708665 0.10017105
0.09643526 0.06826672 -0.086175196 0.12313511 0.036339357 -0.058939878 -0.0687375 -0.05820348
0.07914742 0.13005912 -0.05951166 0.020173261 0.013320566 0.053776946 -0.024994658 -0.039377466
-0.013747351 -0.0041803783 0.10374585 -0.011129209 -0.084316276 0.029233713 -0.07455424 0.058197238
-0.086778425 0.011879468 -0.02207626 0.12521826 -0.083412185 0.08171192 0.03246638 -0.025621409
-0.044450264 -0.0029851731 -0.011983939 0.09181588 -0.011177848 0.108715184 0.087357886 0.023165304
0.100498654 -0.058288958 -0.033897847 0.019350026 0.04691991 0.015540068 -0.14568155 -0.05752203
-0.215277 -0.041027762 -0.20432885 0.14550367 -0.026310401 0.13227774 -0.09886917 0.020517483
0.07494035 0.04495412 0.124126285 -0.05143875 0.051609356 0.085706614 -0.026309064 -0.022833152
-0.18835096 -0.19867261 -0.037907112 0.1378709 -0.057535596 0.034027275 0.02969385 0.05777693
0.035332333 -0.021072187 -0.051991187 0.1344354 -0.048589423 0.036669422 0.07805556 -0.011066204
0.0097016515 -0.106403396 0.06776719 0.13496959 0.058359977 0.064589195 -0.07407456 -0.08774214
0.10251277 0.11949959 0.09912965 0.0699617 -0.10830182 -0.106904104 -0.025513967 -0.1072243
0.15624267 0.034585766 0.052100696 0.046396557 0.022080556 0.09687039 0.0703641 -0.085729
-0.049719118 0.09516867 0.055741016 0.12035032 0.1293531 0.033466484 -0.10017804 0.038577132
-0.0415714 -0.018925767 -0.055382818 0.105097525 0.0075614927 0.000788602 -0.022190532 -0.017201928
-0.05648005 0.06845695 0.09287092 -0.037201624 -0.109797895 0.009805369 0.041663986 0.018847547
-0.07993457 -0.01646746 -0.17687835 0.171194 -0.044928897 0.013773423 -0.06440329 0.088233866
0.079849936 0.010090991 0.05407057 -0.03949711 0.023314169 0.049314763 0.058601502 0.060061105
0.12358086 0.06549682 0.015838042 0.06862458 -0.06513782 0.084894046 -0.046010427 -0.06872913
0.11687685 0.0011513261 0.08567256 0.10848515 0.0988934 0.03782004 0.0010600311 -0.055415533
-0.020249289 0.0512175 -0.09307863 0.096038185 0.11958988 0.01681797 0.08144052 -0.09496524
0.07378801 -0.030561378 0.038074873 0.10495499 -0.030150365 -0.09896491 -0.16441415 -0.07740692
-0.05720947 -0.11316112 0.09810972 0.09213839 -0.08333041 -0.029050164 0.05258874 0.023640474
0.10388512 -0.067613214 0.06595174 0.111470014 0.10798084 -0.116108 0.10394607 -0.062307544
0.012316166 0.07885384 0.05428466 -0.03622822 -0.14171562 -0.037742883 -0.11209536 0.031993546
0.0074393437 0.1309738 0.044765968 0.08820128 0.1306084 0.00075349584 0.015151702 0.0036879554

encoder.weight_hh_l0 f4 [256, 64]
00000000: 54f5 023e eb8d 723d 6d40 f73d 97a3 a73c
00000010: 8f35 e8bd f64a e9bd 3ce1 74bd 3e7c b53d
00000020: 6bfe 363d 86cf d73c c321 fc3d 3f44 21bd
00000030: b06f fd3c 625f b8bd 7eeb c8bd 0be3 783c
00000040: 1c3f 893d d472 003e 4c34 573d b7b5 07bd
00000050: 56c6 b3bd f66e 2abd 2e66 6bbd abee 2cbd
00000060: 1814 02bd c497 a43c d23c 58bd 4c44 cc3b
00000070: 01d0 083e ab84 c0bd d49a 1abc 78a9 de3c
00000080: 44a0 9cbd bbd6 5bbd 33e6 8d3b 6efa 113e
00000090: 86fe d13d e2b9 a03d 18a1 dcbd f064 30bd
000000a0: 4562 9abd 0663 9e3d fd61 443d 81f8 52bd
000000b0: 4a3d 1cbd 2f72 a73d ec9b 523c c218 bf3b
000000c0: 8b2d d13d 6b90 e43c 7d8e 5ebd ad5a 463d
000000d0: 8756 4f3d 8350 a7bc 5919 52bc f6b1 06bb
000000e0: 23e9 513c c071 86bc b8de f33d 8342 a7bd
000000f0: 26ad 083e 2f93 9fbd ef2b a4bd ec41 babd
00000100: f213 bcbd 0dcb f9bd abf7 9cbd 49a2 d6bd
00000110: 5fa6 75bd 50d7 713d 4152 073b ea12 99bc
00000120: be98 b2bd 15b9 86bd eeaf d2bd 3038 803d
00000130: a59c fbbb 0fdf 82bd 1038 0f3d 0d42 15bd
00000140: d605 ecbd 9adb af3d 5b2d cfbd 57ab d03d
00000150: 0328 8ebd 1143 b9bb 22de 40bc c6af b43d
00000160: f3b7 bfbd d20a 013e deb7 b23c d918 a9bd
00000170: 207f f9bc 1bdf 48bd 78cc 57bd c5c6 c73c
00000180: b819 323c 1d41 a53c 7d66 09bd 1902 7fbd
00000190: 9874 573d 3355 dfbc 1584 59bd dfae 773d
000001a0: 326c b53d d7cf ccbd ee0c e83c 0f2c bcbd
000001b0: 49ff cfbd 9ab2 073e 1c6d edbb e7b9 5bbc
000001c0: 5777 8fbc 0ce6 553d 26b8 cfbd 80dd 6fbc
000001d0: a41e 663c ae87 5b3d cc1f 4dbd d795 a7bd
000001e0: f97f 84bd 6db9 85bd 8b51 90bd acc8 6b3d
000001f0: a8a5 54bd b163 e7bc 040d b2bd 34d3 bd3d
00000200: 53f9 993d b28a 06be d948 edbc 5d83 61bc
00000210: 11d5 b4bd a50c 30bd 3da9 b23c aff3 fb3d
00000220: 4490 f2bd 0753 613d 7df9 97bd d5db 8bbc
00000230: 3d51 563d 8631 493b d8e7 863d 0f7b a53d
00000240: c693 07bd 793b d03c a7d0 0e3d 1835 01be
00000250: 8d92 123d 2da0 96bb 8ebc b83d 81ea b0bd
00000260: e160 eb3d f6fe b7bd 3f0c e6bd f004 aa3b
00000270: 604a d13c 9a2d 70bc 1a90 11bd a651 c03b
00000280: bca5 94bd 14dd f63c 3a51 5b3d b066 a43d
00000290: 5c96 87bb b4e3 debd 4d9b 0b3e 366c 943d
000002a0: 987d 293c 2137 d1bc 0440 303d d28e 2dbd
000002b0: 84a2 f0bc 968d 0e3e 4ac2 92bc 7239 26bd
000002c0: 2c37 ad3d 29c3 1abd 3eab 1abc 4a6f a5bd
000002d0: 0dfd 89bd 1b11 c8bd 52a4 7b3d 4f85 b73c
000002e0: 50cc 6ebd 9644 153e ba2f d73c 620a 78bd
000002f0: 2256 6cbc c9fe a7bd 850e c4bd cb2d b63d
00000300: cdeb b43d 2008 d4bd 1451 613d 6920 263d
00000310: 6e05 943d 57b0 6e3d c92d 943d 7cbb 96bb
00000320: 4de9 a7bd ab15 013d 6671 5a3d 104b 88bd
00000330: 7f61 663d 5c13 97bd aa4b 4dbc 3a80 803c
00000340: da28 14bd 52f2 0d3e 0eca 083d 64ca a0bd
00000350: 0a3a 07bc 858b fa3d 10df a4bd 8693 c9bc
00000360: 2afa ed3d e4d0 8d3c 6c3d 1cbc 0ed3 a23d
00000370: 3782 c53d 2814 2b3c 77af a43d cd33 f0bc
00000380: 30e5 0b3e 96e5 5fbc 835e e53d 8e5e 46bd
00000390: 903e d93c 04a6 f73c 8d73 423d 7ad0 4e3d
000003a0: 717e 033e 712c 373d 9117 2bbd 079c 533d
000003b0: 4b13 0ebd 6e14 bbbd 9b55 083d dbe7 cdbd
000003c0: 7982 d6bd bb3a ed3d 3e32 00be 3fa0 a0bd
000003d0: aedb efbd bb5e 863d 06fa bfbc fd80 9d3c
000003e0: dead 283d ab30 08be d28f e43d 858c 613d
000003f0: 97ff 2fbd 3b13 9f3d 2bac ef3d 627b abbd
0.12788898 0.059217375 0.12072835 0.020463748 -0.113383405 -0.11391251 -0.059785113 0.08861588
0.044676226 0.026344072 0.12311127 -0.039371725 0.030937046 -0.09002568 -0.098105416 0.01519085
0.0670149 0.12543803 0.05254011 -0.03313228 -0.08778064 -0.041609727 -0.057470493 -0.0422198
-0.031757444 0.020091899 -0.052792378 0.0062337276 0.13360597 -0.094003044 -0.009436328 0.027180418
-0.07647756 -0.05367158 0.0043304204 0.14255688 0.102536246 0.07847954 -0.10772914 -0.04306501
-0.07538275 0.07733731 0.04794501 -0.051506523 -0.038144387 0.08176076 0.0128545575 0.005831809
0.10213765 0.027900895 -0.054335106 0.04842632 0.05061963 -0.020424133 -0.012823426 -0.002055285
0.012811932 -0.016411662 0.119077146 -0.08166983 0.13347301 -0.07791745 -0.08016192 -0.09094605
-0.09183492 -0.12196932 -0.076644264 -0.10480172 -0.059973117 0.05904323 0.0020648392 -0.018685777
-0.087205395 -0.0657827 -0.10287462 0.06260717 -0.0076785856 -0.06390201 0.034965575 -0.036439944
-0.115245506 0.085868075 -0.10116073 0.101889305 -0.069412254 -0.005653747 -0.011771711 0.088225886
-0.093612574 0.12601784 0.02181619 -0.082566924 -0.030456126 -0.049040895 -0.05268523 0.024386773
0.01087039 0.02017265 -0.033545006 -0.06225786 0.052601427 -0.027262306 -0.05310448 0.060469504
0.08858527 -0.1000058 0.028326478 -0.09188091 -0.10156114 0.13251725 -0.007245673 -0.013411022
-0.01751296 0.052221343 -0.101425454 -0.014640212 0.014045391 0.05359619 -0.050079152 -0.081828766
-0.06469721 -0.06529508 -0.07046803 0.057564422 -0.051915795 -0.028245779 -0.08693889 0.092687994
0.07518258 -0.13138846 -0.0289654 -0.01376423 -0.08829702 -0.04298081 0.021809215 0.12302338
-0.11843923 0.05501082 -0.07420633 -0.017072598 0.05232357 0.0030699684 0.065871894 0.08080112
-0.033099912 0.025418984 0.034866955 -0.1261791 0.035784293 -0.004596731 0.09020339 -0.08638478
0.114930876 -0.08984177 -0.112328045 0.005188577 0.02554816 -0.01465931 -0.035537817 0.0058691083
-0.07258174 0.030134715 0.05354426 0.080273986 -0.0041377973 -0.10883275 0.13633461 0.07247202
0.010344885 -0.025538983 0.0430298 -0.042372532 -0.029374368 0.13921198 -0.01791491 -0.040582128
0.08457789 -0.037783775 -0.009440241 -0.08077867 -0.06737719 -0.097688876 0.061436005 0.022402434
-0.058300316 0.14576945 0.026267875 -0.060556777 -0.014424833 -0.08202893 -0.09573082 0.08895453
0.08834038 -0.10353112 0.055008963 0.040558252 0.07227598 0.05827364 0.07235295 -0.0045999866
-0.081987955 0.031514805 0.0533308 -0.06654942 0.056245323 -0.073767394 -0.012530247 0.015686143
-0.03617177 0.13861969 0.03339582 -0.07851103 -0.008253584 0.122336425 -0.08050358 -0.024606477
0.11619981 0.01731152 -0.0095361285 0.07950412 0.09643977 0.010441817 0.0804128 -0.029321576
0.13661647 -0.013665577 0.11199667 -0.048430018 0.02651909 0.03023053 0.04747348 0.050491787
0.12841202 0.044720117 -0.04177052 0.05166247 -0.034686368 -0.09134756 0.033284765 -0.100539885
-0.104741044 0.115834676 -0.12519166 -0.078430645 -0.117118225 0.06561037 -0.02343465 0.019226545
0.041181438 -0.13299815 0.11160244 0.05506565 -0.04296836 0.0776734 0.1170276 -0.08373143

encoder.bias_ih_l0 f4 [256]
00000000: 0963 3d3c 77c5 853d 0e1f bd3c e705 f5bd
00000010: 623f 7cbd b07b 0bbc bef2 eabd 72df eb3d
00000020: 020e d7bc c7bd 703c 538b 6abd 255e d5bd
00000030: bdd0 e9bd beff 683d 66c7 a6bd 9808 e13d
00000040: 68d5 c73d 7a1f 0d3c b3eb 9d3c 7462 143e
00000050: af02 d5bd 97b9 ba3d dd8d c23d 72ad e13d
00000060: 3bac 18bc 6cc9 4fbd 71cd 6f3d b122 d93d
00000070: 6f97 bf3d 4ec8 cfbd 9424 5c3d 9844 cdbb
00000080: c910 a73c 4b8c f2bd ead1 79bd b76f 8d3d
00000090: f985 ef3d 7acc 853d 4673 503d c49c bfbd
000000a0: cc56 eabd e237 903d d334 903d 5148 d93d
000000b0: 9584 933d 13f2 cfbd 2ff8 95bc 7ade 48bc
000000c0: 0492 11be 3c69 d83d ef96 66bd 4e3e 653c
000000d0: 070c ad3d 6e46 babd 23b4 dc3d c856 123e
000000e0: 4c04 3d3d 93ba c43d 4b3a 10bd 9990 fd3c
000000f0: 3738 ae3d 1c2e c63d b7a2 5fbd 5c85 25bd
00000100: b160 0a3d cc4d 383d 8c61 ac3c 1ccd 893d
00000110: 0b4e 833c 24ed 5ebc 25e8 46bd 07dc e4bc
00000120: 7f3e e9bc 797c 063e 92cd df3d a8f6 9ebd
00000130: 2d6b e03d 2d2c 173e dcc5 abbc d87c 65bc
00000140: f35b 90bd 85b8 6c3d 47e7 a33d 37c2 033e
00000150: 3494 3fbd 1c9b 0fbd 3ea7 533e 93f0 8bba
00000160: a762 8fbd 417c 92bc 8beb 983d 48f0 ecba
00000170: f390 473d 2bdf 153e a6f3 f93c a5ce 5dbd
00000180: 22d0 debd 55d2 7dbd d61b b23d 4373 793e
00000190: 8858 823d 0103 a1bd fdb3 b23d 2940 eabc
000001a0: 97de e5bd 3977 c93d b781 bdbd f312 c43d
000001b0: 8d70 67bc 2d15 b7bd 4ff4 3cbd cba4 d43c
000001c0: 064e 5ebd a447 55bd d2b4 373d a849 bc3c
000001d0: 6267 26bd de5b ea3d b92d 08bd 879d 8a3e
000001e0: e372 583d 51e1 043e 20c0 e83d e11d 3dbc
000001f0: 3bec bc3d a3a8 763d 880e 99bd c075 b4bd
00000200: 04ed 56bd f507 9c3d 936c 4e3d c2c1 833d
00000210: 60e1 68bd b5d4 bcbc a72e f53d 029f a8bc
00000220: f4d3 f2bc bc17 7d3d 2177 003e 844e 093d
00000230: cccb f3bd f5b6 f83d d611 ab3d f1be 173c
00000240: 58bf e93c 1801 c9bd d4ba afba fd82 0abd
00000250: 64c4 693d 7b2e aa3d 74a1 bebd ef7b ac3d
00000260: 486c 9fbd 1762 e73d ba30 a33d 5427 9fbd
00000270: 4f3e ab3d a04d 233c 5f27 44bd 1f81 ea3d
00000280: ca5e a43c 74c1 f1bd a099 18bd e56d b43d
00000290: 3c80 5d3c 9f28 60bc 2d49 4c3d 47c4 7cbd
000002a0: d0b1 933d ae52 a1bc 38ff 083c a0a5 dd3d
000002b0: dacb f5bd a7be f33d 4360 ee3d 046a b83d
000002c0: ea87 41bb 544f 393d 7503 18bd a7fd 8bbc
000002d0: f4a6 dfbd 702a 8f3d 6924 78bd 8f40 1e3d
000002e0: 65c2 2a3d 99c9 8abd 8b1f b93d 25a5 abbd
000002f0: d366 e23d f472 c93d 81d0 d23d ca66 fb3a
00000300: 39a9 81bd b098 9abb 392f 4f3d 2a74 c93d
00000310: 4406 2a3d 9c39 fe3d c828 273c d6b4 b63c
00000320: 373e c73d df8c 3a3d 00ec 9dbd cd1c c5bd
00000330: 5e52 08bd e63f dabd bf6d 0d3e 2790 d0bd
00000340: b8f5 1bbd 62a9 903d ef97 c13d 4022 9c3d
00000350: 82c3 53b9 2d94 fc3c 1a52 29bd afce ea3d
00000360: 7e73 7a3d 99f5 4fbd 496d 4cbd 10ff 65bb
00000370: b9b0 f33b 38f3 c83d 33aa fb3a 566f d73d
00000380: d2d8 04bd 7295 d53d db01 e53d fef7 de3d
00000390: 905b 44bd 5152 673d 9ed3 d53d 8612 bdbd
000003a0: 5627 943d cecf d1bd 855a d43d 35ef 08bd
000003b0: 0511 163d bb47 e9bd ac49 213e 9de8 d83d
000003c0: 684b 26bd ae26 e33d 7b04 753d aca0 4f3b
000003d0: 182a 8c3d f583 b13d ab3c c73c 17c5 483e
000003e0: e136 0cbd a7a5 6a3d dd28 98bd 19e0 b93d
000003f0: aa97 aabd 7eac ca3d 9e9d a1bd 520f fb3d
0.011559256 0.06531804 0.023086097 -0.119640164 -0.061583884 -0.008513376 -0.11472081 0.11517228
-0.026251797 0.014693684 -0.057261776 -0.10418347 -0.11416767 0.05688452 -0.08143501 0.10987967
0.09757501 0.008613462 0.01927743 0.14490682 -0.104009025 0.0911743 0.094997145 0.1101941
-0.009318407 -0.0507292 0.058545534 0.1060232 0.093550555 -0.10145627 0.05374582 -0.0062642805
0.020393746 -0.11843165 -0.060991205 0.069060735 0.11695475 0.065331414 0.050891183 -0.093560725
-0.114423364 0.07041909 0.070413254 0.106094964 0.072030224 -0.10153594 -0.01830682 -0.012260074
-0.14215857 0.10566947 -0.056296285 0.013991905 0.0844956 -0.09095465 0.10776546 0.14290917
0.046146676 0.09605899 -0.035211843 0.030952739 0.08506816 0.096767634 -0.054598536 -0.040410385
0.03378362 0.044996068 0.021042608 0.06728575 0.016028425 -0.013606343 -0.048561234 -0.027936948
-0.028472183 0.1313342 0.10927881 -0.0776189 0.10957942 0.14762945 -0.02096837 -0.014006816
-0.07048788 0.05779316 0.08003097 0.12867056 -0.046772197 -0.035060033 0.20669267 -0.0010676555
-0.07001238 -0.017881515 0.07466801 -0.001807698 0.04872222 0.14635913 0.030511688 -0.05415215
-0.10879542 -0.061968166 0.086967155 0.24360375 0.06364542 -0.07861901 0.08725736 -0.028595047
-0.11224096 0.09837193 -0.09253257 0.09573927 -0.014125955 -0.08939586 -0.04613143 0.025957486
-0.054273628 -0.052070275 0.044850178 0.02298434 -0.040625937 0.114433035 -0.03324673 0.2707331
0.05284394 0.12976576 0.1136477 -0.011542768 0.09224745 0.06021942 -0.07473475 -0.088115215
-0.05247213 0.07618705 0.050396513 0.06433441 -0.05685556 -0.023050645 0.11971789 -0.020583633
-0.029642083 0.061790213 0.12545444 0.033522144 -0.119041055 0.12144271 0.08353011 0.009261833
0.028533623 -0.09814662 -0.001340712 -0.033816326 0.05707206 0.08309647 -0.093081385 0.08422076
-0.07784325 0.11298006 0.07968278 -0.07771173 0.08361494 0.009967238 -0.04788911 0.11450409
0.02006473 -0.118044764 -0.037255883 0.08810023 0.013519343 -0.01368156 0.049874473 -0.061710622
0.072116494 -0.019692745 0.00836163 0.10822606 -0.12001772 0.119015984 0.11639454 0.09004596
-0.0029530474 0.04524167 -0.037112672 -0.017088724 -0.10920516 0.06990516 -0.0605816 0.038635787
0.041689295 -0.06776733 0.090392195 -0.08381108 0.110547684 0.09836379 0.10293675 0.0019180414
-0.06331105 -0.004717909 0.050582144 0.0983661 0.04150988 0.12413332 0.010202594 0.022303026
0.097286634 0.0455445 -0.07711029 -0.09624634 -0.033281676 -0.10656719 0.13811396 -0.10183745
-0.038076133 0.07063557 0.09452807 0.0762372 -0.0002019536 0.030832374 -0.041338064 0.11465203
0.0611453 -0.05077133 -0.04990891 -0.0035094656 0.0074368385 0.09812015 0.0019200504 0.105192825
-0.03243334 0.10428895 0.111819945 0.108871445 -0.047938883 0.056474987 0.104407534 -0.09232049
0.07234065 -0.10244714 0.10368828 -0.03343125 0.036637325 -0.113906346 0.1575076 0.105912425
-0.040599257 0.11091362 0.059818726 0.0031681461 0.06843966 0.08667747 0.02432092 0.19606434
-0.034232024 0.057286885 -0.07429669 0.09075946 -0.08329709 0.098961815 -0.07891391 0.122587815

encoder.bias_hh_l0 f4 [256]
00000000: 1473 0b3e 6aba 103d 269b a33a c718 9d3c
00000010: 2fa9 ffbc bb7a 3fbd 6cd5 3abd adcd aebd
00000020: ba9a ec3d 87df a5bd 301c 74bd d601 8abd
00000030: ec60 d5bd 6c5a f4bc 3a0d 2e3d 775f 12bc
00000040: 9c9c 19bd c022 1b3c 04d6 923c f678 043d
00000050: efd0 eabd e5f0 53bd f6f8 ce3d f136 60bd
00000060: f379 d53d dbf5 95b9 a4c5 efbd 885d f0bd
00000070: 8889 efbc 7354 a03d 794b f5bd 5d87 fbbd
00000080: 0a98 83bd f709 5f3d 38be af3c 45ce db3d
00000090: 02a7 ba3d 7cdf 6cbd fa31 b9bb 5769 a9bd
000000a0: 3642 ec3d 2d9b f7bd e214 f33d baf3 ba3d
000000b0: d189 4bbd 87f5 bfbd cdd2 c03c 52f7 debd
000000c0: cbe4 303d 1050 dbbd 88ff ca3d c494 00bd
000000d0: 9e61 97bd 6477 14bd 0d39 953c bbb8 eabc
000000e0: a442 58bd 23ce 913d b554 1a3c 72e4 38bd
000000f0: 626e bcbd cbd8 b53d ced2 e4bc 4d2e cbbc
00000100: c25c a53c 2dc1 a0bc 33c7 2dbd 572f 92bd
00000110: ea26 243e 6d01 b3bd 8fc2 edbd 2683 b3bd
00000120: 744d 7a3d b851 1c3d 93f5 183d 420f 1bbd
00000130: 1a24 ad3d d298 fa3d f460 1e3d 9d6a dc3d
00000140: e709 783d 253d bb3c 84cb 26bd 2dcc f33c
00000150: da61 003e 0b49 8ebd 086a 013e f745 babd
00000160: 47c9 f63d 93c5 d13d 4614 bd3d ba11 933d
00000170: bd0e e53d 6a3b 1cbd 0ab4 8ebd e63b d6bd
00000180: e2ad c9bd c9a6 b5bd e18a ce3d f4a6 7b3e
00000190: 313d e4bb ffb8 943d 16d9 f73d cdb3 043e
000001a0: 9e88 ab3c b06b 6f3d f00f 813d 6f36 9b3d
000001b0: 6e1d fe3d 4a2c ae3c b102 73bd 54c9 cd3d
000001c0: 29fb b33d 773c 793d 06ed 2a3d b716 f73d
000001d0: 6f7c 6d3c 02b8 b53d a9dd 153e 2323 1b3e
000001e0: 9cbe 923d f35f 813b 0790 003d 0d46 113c
000001f0: 4a59 ea3d 6644 0a3d 4c3d b4bd 6ee0 a5bd
00000200: fffa a53d 428f 31bd 5ad8 d5bd b0f1 8dbd
00000210: 4f90 9b3d 077f e4bd b595 873d 6f5a 3c3c
00000220: fe71 df3c ba3a 9c3b 6da2 8f3d cbf5 eab9
00000230: 0ac5 863d e312 093e 3b19 54bd a69e dc3d
00000240: 5407 efbd b033 973d ef67 6dbd 806a 06be
00000250: b52a a73c 6eeb e0bd 124f 06bc ee35 893c
00000260: de12 cd3d d4ce 873d 5ec2 49bd 24ab 8ebb
00000270: 4c58 d2bc ae14 a83d 7110 b4bd 2dd7 24bd
00000280: 2591 0bbd 8501 9dbd 903a ddbd f432 213d
00000290: 0391 bfbc acb6 b2bd db5e 843b 8ee9 e43d
000002a0: 6206 ac3d d54f 0c3e b782 d63d 444e a3bd
000002b0: 42fd 4f3d aa54 0a3e d943 4ebd 4cb4 b0bd
000002c0: b0d6 8c3c 400a 5abd 3628 dbbc 4101 e63d
000002d0: 0cca 083e a06f 7cbb 452a b13d f343 75bd
000002e0: e101 cf3d 42b6 813c ac06 5ebd 441a 9dbd
000002f0: f4b6 3c3b 0ded 6d3d ba96 c4bd ad38 013e
00000300: 05e2 87bd b976 fe3c fb40 9f3d b505 84bd
00000310: eb64 c93d 5845 c5bc 5351 a63d ae6f 293d
00000320: 9a8d 513d 7d65 ad3d ace5 88bd 52c1 8ebd
00000330: 5908 da3d 467f babc 37a5 343d 20cb 60bd
00000340: 4774 053e 0016 c53d 7b43 0abd 66f4 dd3c
00000350: 28d6 ce3d caf7 023e 3564 74bd afbe c4bd
00000360: 0d55 0bbd ad86 c33b 34e7 17bd 3687 8ebd
00000370: d095 0d3d ea0f 17bd 8282 5abd 62db e83c
00000380: 061e 3b3d 9d03 943d 8aac 0bbd 62a7 303e
00000390: 11d1 9abd 79a2 2f3d ce87 cebd 15e5 ee3d
000003a0: c7ec c53d b81c bdbc 1a44 46bb 781f fe3c
000003b0: 13b8 3f3d 2676 a0bd 8071 5e3c 0d47 21bd
000003c0: f35f dfbd c3af 373c ec83 85bd e51f 76bb
000003d0: b1b7 073e c4ec ff3d 75ac 4c3d d7b4 ed3d
000003e0: f8f5 9fbd a7c2 c53d 74bb 2cbd 140e 2fbb
000003f0: e7b5 71bd 4b90 26bd 270d 483d 5c65 ed3d
0.13618118 0.03533403 0.0012482151 0.019176854 -0.031208603 -0.046747904 -0.04561369 -0.08535323
0.11552949 -0.08099275 -0.059597194 -0.067386314 -0.10418877 -0.029828273 0.042493083 -0.008933893
-0.03750287 0.009468734 0.017924316 0.03234192 -0.11465632 -0.051743407 0.10106079 -0.054739896
0.104236506 -0.0002860267 -0.11707619 -0.1173659 -0.029240385 0.078286074 -0.11977286 -0.12281678
-0.064254835 0.054452863 0.021453008 0.10732702 0.091138855 -0.05783032 -0.0056517096 -0.08272045
0.11536066 -0.12090144 0.118692175 0.091285184 -0.04969198 -0.093730025 0.023538018 -0.10887016
0.043186944 -0.1070863 0.0991202 -0.031391874 -0.07391666 -0.036246672 0.01821568 -0.02865254
-0.05279793 0.071193956 0.00941961 -0.045139737 -0.09200741 0.088792406 -0.02793255 -0.024802351
0.020185832 -0.019623363 -0.0424263 -0.071379356 0.1603047 -0.08740506 -0.11609375 -0.08765249
0.06110902 0.03816387 0.037343573 -0.037856348 0.084541515 0.122361794 0.03866668 0.10762522
0.06055632 0.022856304 -0.04072143 0.029760445 0.12537327 -0.069475256 0.12638104 -0.09095376
0.12050109 0.102427624 0.092323825 0.071811154 0.11184452 -0.0381426 -0.069679335 -0.104606435
-0.09847619 -0.08869702 0.10085083 0.24575406 -0.0069653024 0.07261848 0.12101953 0.12959214
0.020939168 0.05845231 0.06301868 0.07578742 0.12407957 0.021261353 -0.05932874 0.10048166
0.087881394 0.06084868 0.04172995 0.120648794 0.014494999 0.08872987 0.14635338 0.15150122
0.07165262 0.0039482056 0.031387355 0.008866799 0.11442812 0.033756636 -0.08800754 -0.08099447
0.08104514 -0.043349512 -0.104416564 -0.06930864 0.07595884 -0.11157041 0.06620351 0.01149617
0.027276035 0.004767743 0.07013402 -0.00044815088 0.06580551 0.13386111 -0.051781874 0.10772447
-0.116713196 0.073829055 -0.057960447 -0.13126564 0.020406106 -0.10982405 -0.008197563 0.016749348
0.10013364 0.06631246 -0.04925763 -0.0043538976 -0.025676869 0.08207069 -0.087921984 -0.04024427
-0.034073967 -0.076663055 -0.108021855 0.039355233 -0.023384577 -0.08726248 0.004039628 0.111773595
0.08399655 0.13702329 0.10474151 -0.07973912 0.050778635 0.1350886 -0.050357673 -0.08628139
0.017192215 -0.05323243 -0.026752573 0.11230708 0.13358325 -0.0038518682 0.086506404 -0.059879255
0.1010778 0.015833978 -0.05420558 -0.076710254 0.0028795572 0.058087397 -0.09599061 0.12619276
-0.06634907 0.03106247 0.07776066 -0.06446401 0.09833702 -0.024080917 0.0812098 0.04136627
0.051160432 0.08466623 -0.066844314 -0.06970467 0.106461234 -0.022765767 0.044102874 -0.054881215
0.13032638 0.09623337 -0.03375576 0.027094077 0.10099441 0.12789837 -0.059665877 -0.096066825
-0.034016658 0.0059669823 -0.037085727 -0.06959383 0.0345667 -0.03688041 -0.05334712 0.028424922
0.04568293 0.07227252 -0.034100093 0.17251351 -0.075594075 0.042879555 -0.100844964 0.11664788
0.09664302 -0.023084983 -0.0030252994 0.031020865 0.046806406 -0.07835035 0.013576865 -0.0393744
-0.10906973 0.011211338 -0.06519303 -0.0037555632 0.13253666 0.12496331 0.049969155 0.11606758
-0.07810587 0.096562676 -0.042170957 -0.0026711272 -0.059011366 -0.040664952 0.048840668 0.115915984

decoder.weight_ih_l0 f4 [256, 64]
00000000: 5d6a 6ebd 4a94 d53c f476 163e 0fb9 5bbc
00000010: 97d6 fc3d 51c9 02bb fe16 833d 894e 7d3c
00000020: acf5 23bd 1aa1 30bd 8185 533d 4b74 babd
00000030: a144 22be 5b80 59bd 9694 b5bd dfac b63d
00000040: 2164 8f3d f35b 123a a793 1e3e 2329 96bd
00000050: 1629 aa3d b2f6 dd3d 6ee8 b33c 740d e33d
00000060: 47bb 4abd 38a8 36bc ef2c 173d bc3b 36bd
00000070: 822c 95bd 972d bebd 118d fcbc e6fe 243b
00000080: 0377 c63d 9a2d 3e3b ce02 cdbd 117d 713b
00000090: 60c6 183d fd8b cc3c b9d3 a43d d8a2 7d3d
000000a0: 1d17 ab3d 54c9 3bbc bfc3 a0bd d9ff d4bd
000000b0: 3628 1cbe b006 2cbb db60 cb3d 046f cabd
000000c0: 141a 97bd 23f6 2f3d f4a3 9d3d 68eb c53d
000000d0: 5136 c03d bfef 4dbd f0a4 dbbd 26d3 783c
000000e0: 897e 5d3d 1720 ebbd 0392 0b3e e915 703d
000000f0: 01f9 b33d fbe5 2f3d a241 533d d9cc dd3d
00000100: 2318 e4bd a41b 7fbd 56d7 acbd 957c 0f3c
00000110: dcee f03b f747 203e f05e 20bd 150c 22bd
00000120: afcf 60bc a90a 783c ad8d a6bd 11e1 523d
00000130: 8ac6 ad3d e476 1ebd 8372 f8ba 8dea 7e3d
00000140: aeeb a53d cc77 01be d63f 1abc c109 f4bd
00000150: f880 adbc 08f2 8bbd ed6d 0d3e eac1 18be
00000160: 1425 92bd a828 553d 411e 793d 9866 923d
00000170: 9a72 123c 6629 c33d a25a e63d d24a 723d
00000180: 9f29 0bbe 54c5 373c 069e 7abc 3456 babd
00000190: b4dc a43c 1d5e 9abd b72b 92bd 8d25 8e3d
000001a0: fea8 a23d 0177 b33d 27cf be3d f46b 2ebd
000001b0: 6fbd b4ba 8e3a 18bc 9b5d c8bb f995 e2bd
000001c0: 6e40 26bd ba97 533d 40cd 87bd 8ba1 a0bc
000001d0: ed8a ae3d defa bd3d 884b cb3d 027a 3bbe
000001e0: 2068 483d 4465 63bd f3d9 ba3d f163 b63d
000001f0: 02db fdbc 7b46 8c3d dbd0 e03c 3f8c 0dbe
00000200: 835a 10bd 1445 02bd 8ec2 d33d 68b7 e8bd
00000210: 3956 a43d 8606 b6bd 1634 bebc 3fb2 b2bd
00000220: dae6 95bd ae89 a0bc 2f22 ab3c 785e cc3d
00000230: 6861 5d3d e256 eabd 8a28 edbd 154e 483d
00000240: fc51 973c d2a1 e03d 0562 873d 3c3c a1bd
00000250: 4927 9c3d 2fc8 a83c d6ec 1ebc 3bdb 36bd
00000260: d10d 823d b6ea ad3d 3d55 ad3d c4cf 0bbd
00000270: bdb5 8e3d a28c 7a3c adae 8ebc dcfa a33d
00000280: 373d d4bd 37d8 3ebd fee2 70bb 501d b0bd
00000290: 947c 623d dcfa 2ebd d1ab 8c3d fe83 78bc
000002a0: 9be3 403d b155 c43d 2ccd 03bd 84e5 9e3c
000002b0: 0c9d a6bd f8d8 a93d 6b1d aa3d 5cff 443d
000002c0: 16a5 1d3d 9beb f6bb 7b26 ce3d 5630 ac3d
000002d0: 70da f63a 1dc2 9c3d ffe9 16bd 48f1 46be
000002e0: 2d03 c9bd 123c 03bd 24c7 b43d 7bd8 673d
000002f0: 10b3 cebd a41b bb3d 3fe9 d2bc 0243 523c
00000300: e052 67bd 5424 953d f928 9cbd 2a3a 0dbd
00000310: 8bec 8e3d 0971 853d 5cab 6c3c ab49 bfbd
00000320: ce4f 983d f443 96bc 560d 95bd 53ae 083d
00000330: a025 a5bd 2656 b73b 7d1a 533d 778e 7c3d
00000340: fc79 b2bd b943 bf3d dd8a 953d 36f2 8e3d
00000350: 4e7e 8c3d 9dba 183e d04c a5bd a18c 823d
00000360: 5911 c1bd 0cf9 6a3d 7ff0 d5bd 2f98 123d
00000370: e239 51bd 2bdc 2d3d 4d55 fbba 9cdf ed3c
00000380: 0084 f73d 6152 7b3d 32b3 c03d 8189 ca3d
00000390: 55ad 933c 4876 9ebc a3ff 333d 6719 e3bd
000003a0: a08a 823a c6ae e9bd 64e8 bc3d 1c90 9cbd
000003b0: 71e2 3a3d e45b 9fbd 6aac c03d 72a0 003e
000003c0: efca d8ba 1e0d 9dbd f1aa 3bbd ade0 cf3d
000003d0: ec3b bf3d 14c4 273d 6d16 66bd f509 193d
000003e0: 8902 b53d 6148 a3bc e235 123d 0bb3 d8bd
000003f0: b3d0 4c3d 1ea5 843d c75e 7abd 55ef f03d
-0.058206905 0.026071686 0.14693815 -0.013410821 0.12345617 -0.001995642 0.0640087 0.015460619
-0.040029213 -0.04312239 0.05164099 -0.091042124 -0.15846492 -0.053100925 -0.08866231 0.08919691
0.0700152 0.00055831595 0.15486012 -0.07332065 0.08308618 0.10838069 0.021961417 0.1108655
-0.049495008 -0.011148505 0.036908086 -0.04449056 -0.0728388 -0.09286039 -0.030828984 0.0025176345
0.096906684 0.002901888 -0.100103006 0.0036848227 0.03729856 0.024969095 0.080481954 0.061922878
0.08354018 -0.011461575 -0.078498356 -0.104003616 -0.15249714 -0.0026249103 0.09930583 -0.09884456
-0.07378021 0.042959344 0.07697287 0.09664041 0.0938536 -0.050277468 -0.10724819 0.01518706
0.05407575 -0.1148073 0.13629918 0.058614645 0.08787728 0.042943936 0.051576264 0.10830087
-0.11137416 -0.06228222 -0.084395096 0.00875773 0.007352693 0.15652452 -0.03915304 -0.039562304
-0.013721391 0.01513926 -0.08132491 0.05148417 0.08485134 -0.0386876 -0.0018955026 0.062235404
0.08101593 -0.12643355 -0.009414634 -0.11915923 -0.021179661 -0.06833273 0.13811465 -0.14917722
-0.07135978 0.052040726 0.060819868 0.071484745 0.008938456 0.095293805 0.112477556 0.059153385
-0.13590096 0.01121648 -0.015296465 -0.09098473 0.02012477 -0.07537482 -0.07137244 0.06940756
0.07942389 0.087629326 0.09316855 -0.04258342 -0.0013789366 -0.009291304 -0.0061146743 -0.11063761
-0.04058879 0.05165837 -0.06630945 -0.01960828 0.08522592 0.09276365 0.09926516 -0.18308261
0.048927426 -0.055516496 0.09123602 0.08905781 -0.03098822 0.068493806 0.02744334 -0.13823031
-0.03524257 -0.03180416 0.10339843 -0.11363107 0.08024258 -0.08887963 -0.023218196 -0.08725404
-0.07319422 -0.0195969 0.020890323 0.09978956 0.054047972 -0.11442353 -0.11579998 0.04890259
0.01847171 0.10968365 0.066104926 -0.07872817 0.076246805 0.020603267 -0.009700021 -0.04464267
0.063502915 0.08492033 0.084635235 -0.034133688 0.069682576 0.015292319 -0.017417276 0.08006832
-0.10363238 -0.046592917 -0.0036756392 -0.08599341 0.05529459 -0.042719707 0.06868709 -0.015168188
0.04709206 0.09586657 -0.03217809 0.019396551 -0.08135423 0.08293337 0.08306392 0.048095092
0.038487516 -0.0075354106 0.10065933 0.08407657 0.001883341 0.07654212 -0.03684425 -0.19427979
-0.09815059 -0.03203971 0.088270456 0.056602936 -0.10092747 0.091361314 -0.025745986 0.012833359
-0.05647552 0.0728232 -0.076250024 -0.034479298 0.06978711 0.065157 0.014445152 -0.09340223
0.074370965 -0.01834295 -0.07277934 0.033369374 -0.08063817 0.0055949865 0.051538933 0.061659303
-0.08714673 0.09339089 0.07301877 0.06979792 0.06860028 0.14914937 -0.080712914 0.06374479
-0.09427137 0.057366416 -0.104462616 0.035789665 -0.051080592 0.042446297 -0.0019175202 0.02903729
0.12085724 0.06135786 0.09409179 0.09889508 0.018026987 -0.01934351 0.043944966 -0.110888295
0.0009959526 -0.114102885 0.092240125 -0.07644674 0.045626108 -0.077811986 0.094078854 0.12561205
-0.0016539971 -0.076685175 -0.04581732 0.101502754 0.09337601 0.04095848 -0.05617373 0.03736301
0.08838374 -0.019931974 0.035695918 -0.10581025 0.05000372 0.06476806 -0.061125543 0.11764399

decoder.weight_hh_l0 f4 [256, 64]
00000000: 6cfb 433d 0321 8f3d eaec c4bd 1df6 2d3c
00000010: 0400 7f3d 4cfd 0e39 6b3b 2abc 0526 91bd
00000020: cd63 853d da3c a3bd cf42 9d3d aa9a d73c
00000030: b9de ab3d 945c c3bd d90a 05bd aa73 523d
00000040: a3b3 c8bb 8145 f23c 619b 21bc 8e31 e13d
00000050: 4180 473c ff2d 57bd fe29 923d acbe a43d
00000060: 2749 873d c3de a23d 255f c83d ae74 47bd
00000070: 1a24 8a3d 6225 003e e950 64bd 8ca6 03be
00000080: 1411 92bd 7c74 34bc daea 05bd fb74 86bd
00000090: 3ee1 ba3c b9dc e53c a8c3 acbb baf0 86bd
000000a0: 4594 80bd 046c f83c 3f96 19bd c068 d23d
000000b0: 2613 84bd 1e38 b9bd 1436 f83d 0359 6fbd
000000c0: 26d7 883d cf21 3fbd 54d4 95bc 88d8 823c
000000d0: faec 853d d035 803d e25f 34bd e678 e83d
000000e0: 4ef5 d23d 53cc fabd 9f31 793d 387d c8bd
000000f0: 5092 bbbd a25f 8a3d 2548 06be 8ca1 be3b
00000100: 79c0 b43d b0b7 003e 1184 1fbe 9102 523d
00000110: 1d45 e8bd 5c14 e33d ebbe a53d ec73 1c3e
00000120: 81d0 a33d b4bc 25bc bb5f 763d a7fd debc
00000130: d639 4abc c9d8 883d 2a6a 5bbd 91b5 11be
00000140: a4a1 0d3e ca53 3c3d 62be 34bd c836 09be
00000150: 64df b03d f1cd 903d 4f74 adbd 434e 57bb
00000160: e3b2 7c3d 102c a0bd 4632 9bbc d656 09be
00000170: e4d5 0b3d cba8 c0bd 669b d83c e3c6 ba3d
00000180: e449 ddbd 49d1 24be 6b2c d43c 22d2 4dbd
00000190: 6911 acbd 0632 a83d feda cbbc db66 a3bd
000001a0: 42a4 13bc 500e 2d3d 3ecb a43d ad62 56bd
000001b0: 1867 69bc d2ea a93a 54a9 eabc d6b4 09bd
000001c0: 1d55 87bc 22c9 e33c 908f 043d 22df 323d
000001d0: cb04 e5bd ebb7 3bbd 3910 103d 0c3c b43d
000001e0: 9e71 4a3d 4aa6 9bbd 5cf1 623d 76e2 09bd
000001f0: 7e3e 3dbd 2323 12bd eeb7 91bd 2969 9e3d
00000200: bcd1 cf3d 7728 33bc a242 91bd cc87 cd3c
00000210: 9f11 823c ad67 0bbc 4ec8 00be f640 afbd
00000220: 556f 86bd 5d29 0cbe ae1b ee3c 2644 e83d
00000230: b11e 19bd baeb ce3d b9bf 053e c0bc 013e
00000240: cf3c ed3c 3ae1 82bd f3fc 863d 1007 c9bd
00000250: 8711 cc3d d89f d03d 2d29 03be 354b dabd
00000260: 4a9e f03c edf6 a9bd 56b5 9a3d dbf1 6dba
00000270: cc69 1c3d 4deb de3d 8732 fa3d 2633 5f3d
00000280: b971 8e3c a53a b1bd 72bc 563d 8878 44bd
00000290: 26b2 083e 6aad 9ebc f061 91bd e9fe 303b
000002a0: 62bb 793d 984b abbd ca6a 27bc 2d6c c7bd
000002b0: fa3e 943d b267 d03d be7c 86bd 304a db3d
000002c0: b972 d83d 86d5 fabd 4468 f23d c856 b13d
000002d0: da10 5bbd 3141 23bd d3f2 483c f98d ddbd
000002e0: ce46 2fbd ffcb f0bd dd5c aa3d 29ea f4bb
000002f0: a990 febd 2fab 973d 6168 59bd 742a d33d
00000300: 2ea9 d1bd a6d6 93bd 5b73 0f3d 97b0 d6bc
00000310: 85af 6a3c 670b 403c 3ab2 eeb9 87f1 c0bd
00000320: aa6e e63d 71f8 02bd 525a 9abc 40fe adbd
00000330: b6aa ab3d bbdb 87bd f071 9e3d 309c d03d
00000340: 6415 953d 0fbd 703d dfd4 91bd ea65 503c
00000350: d802 73ba b9a0 143d 5fa0 e5bd a166 e33c
00000360: 6449 b9bb 84e7 5ebd 339a e0bd 2aeb 7fbd
00000370: 5325 063e 5fdf cebd 9f5b d2bd 2493 913c
00000380: be5d 86bd 8961 0ebd e28c 19be dd53 c3bd
00000390: 9976 3e3d 1517 2cbc e711 ea3c c9c3 e23c
000003a0: 03ab c33d fce1 e2bd 327f 6a3c 0667 433d
000003b0: 13c4 f3bd bbe4 46bc 95ed b33d 12b3 993d
000003c0: 8be2 ee3d a882 18be 8050 853d 6b55 b1bd
000003d0: 43de 94bd 1ffc 88bd ea44 5bbd 7d5c 1dbe
000003e0: cf93 a13b 46c3 b5bd 8ccc f6bc fb57 82bd
000003f0: 6899 8dbd f8d6 323d 1bc8 74bd 55a4 1a3d
0.047847196 0.06988718 -0.096155 0.01061776 0.062255874 0.00013636536 -0.010390143 -0.0708733
0.06513176 -0.07970591 0.07678758 0.026318867 0.0839209 -0.09539142 -0.03248105 0.051379837
-0.00612493 0.029574158 -0.009863705 0.1099578 0.012176574 -0.0525341 0.071369156 0.0804418
0.066057496 0.07952645 0.097837724 -0.04869526 0.06745167 0.1251426 -0.055741224 -0.12856501
-0.07132164 -0.0110141 -0.032694675 -0.06565281 0.022812482 0.02805935 -0.0052723475 -0.06588884
-0.0627828 0.030324943 -0.0374968 0.10273886 -0.06448965 -0.09043907 0.121196896 -0.058434498
0.06681661 -0.0466631 -0.018289723 0.01597239 0.0653934 0.06260264 -0.044036753 0.113511845
0.103006944 -0.12246003 0.060838338 -0.097895086 -0.09158766 0.06756522 -0.13113458 0.0058175977
0.08825774 0.12570071 -0.15577723 0.05127198 -0.11341307 0.110878676 0.08093055 0.15278596
0.07998753 -0.010115791 0.06014989 -0.02722056 -0.012342891 0.066819735 -0.053568043 -0.14229418
0.13831192 0.045978345 -0.044126876 -0.13399804 0.086363584 0.0707053 -0.0846945 -0.0032853044
0.061694037 -0.07820904 -0.01894487 -0.13412032 0.03413953 -0.09407195 0.026441287 0.09119966
-0.10805109 -0.16095461 0.025900086 -0.050249226 -0.08401758 0.08212666 -0.024884697 -0.079786025
-0.00901133 0.042249978 0.08046578 -0.0523402 -0.014245771 0.0012963659 -0.028645195 -0.033619724
-0.016520077 0.027805869 0.032363474 0.043669827 -0.11182555 -0.045829695 0.03517172 0.088005155
0.04942476 -0.076000765 0.05540596 -0.033663236 -0.046202175 -0.03567804 -0.0711516 0.077349015
0.101474255 -0.010934941 -0.07092787 0.025089167 0.015877543 -0.008508605 -0.1257641 -0.08557312
-0.06564204 -0.13687654 0.029065933 0.11341123 -0.037382785 0.10103555 0.13061418 0.12669659
0.02895966 -0.06390615 0.06591215 -0.098158 0.099642806 0.10186738 -0.12808676 -0.10658876
0.029372353 -0.082990505 0.07554118 -0.0009076872 0.038186833 0.10884724 0.122166686 0.05449214
0.017388212 -0.08653764 0.05242581 -0.04796651 0.13349208 -0.0193698 -0.07098758 0.0027007407
0.060969718 -0.08364028 -0.010218332 -0.0973743 0.07238574 0.10176028 -0.065667614 0.107075095
0.105687566 -0.122477576 0.11836293 0.0865913 -0.053482868 -0.039857093 0.012264925 -0.10818095
-0.042792134 -0.11757659 0.083184935 -0.007474203 -0.124299355 0.074056976 -0.05307806 0.10310832
-0.102373466 -0.07218675 0.03502212 -0.026207251 0.014324074 0.0117214685 -0.00045527687 -0.09421068
0.11251576 -0.031975213 -0.018841896 -0.0849576 0.0838217 -0.06633707 0.077365756 0.101860404
0.072794706 0.05877405 -0.0712068 0.012719611 -0.0009270138 0.03628609 -0.11212229 0.027758898
-0.005654501 -0.05442001 -0.10966911 -0.06248013 0.13100176 -0.101011984 -0.102713816 0.017770357
-0.06560849 -0.034760986 -0.14995149 -0.0953748 0.046499822 -0.01050355 0.02857299 0.027681248
0.09554102 -0.11078259 0.014312552 0.047705673 -0.119026326 -0.0121394945 0.087855496 0.07504858
0.116643034 -0.14893591 0.06509495 -0.0865887 -0.072689556 -0.06688713 -0.05353252 -0.15367313
0.0049309502 -0.08875136 -0.030126832 -0.06364437 -0.069140255 0.04366204 -0.059761148 0.037754375

decoder.bias_ih_l0 f4 [256]
00000000: a6db 713d 7c32 a33d e30c 8b3d 7f0a 20bc
00000010: c346 213c bfd2 e63d 7f54 fdbd 9955 083d
00000020: b532 8bbc 830b a23d 1872 aebd e14b c1bd
00000030: e55a d43d afef a23b c9a2 c4bd ae23 f9bd
00000040: 434b 5e3d 834c 163c 3df3 8a3c 2524 95bc
00000050: c473 943d 1af7 5f3c 787f 73ba b686 463d
00000060: a733 d13d 7e55 2bbd 8f81 c63d 5442 0fbd
00000070: b251 013d 1689 6f3c 5f43 3d3d dbae fc3d
00000080: 8b19 983d 2571 053b d40a f1bc 3e9a dc3d
00000090: 5d8d 92bd cdce cbbd bf0d 783d 7a6c 273d
000000a0: 0d2f 413d 3ec5 c23d 3801 8cbd 636d 91bd
000000b0: 0c93 b33c 2ace 76bd 1499 483d e148 15bd
000000c0: f19a 1d3c 899c f33d 4b43 8a3d 9344 64bc
000000d0: 5597 3d3d 61c3 703d b96a 3bbd aeb2 efbd
000000e0: ef02 343d ba90 ac3d 61b5 90bd 1ae5 9b3d
000000f0: 1465 073e 2d66 d6bc 96f8 39bd 35c4 fb3c
00000100: e15b a9bd ba8d 153d f8ea 45bd 86e0 c2bd
00000110: 27b0 bfba aabb 5cbd 8c4e 043a 0014 a7bc
00000120: 45a5 c23d 9dcb 9d3d 100f 74bd f15d 9c3d
00000130: 40c3 34bc e0bd 9ebd 3a29 22bd 4783 de3c
00000140: 03ad 37bd 51e0 44bb e61b 9fbc c005 e1bd
00000150: cf94 17bd d777 9ebd 4dd6 453d aec6 16bc
00000160: bbe4 373d 4ca0 d0bd 2ea6 303c a984 4d3d
00000170: aeaf 483d 2c95 c3bd c4be d03c 7ad2 993c
00000180: dd8e b5bd bed6 b0bd 23bb f3bb a809 9b3c
00000190: be51 32bd 7382 1bbe 423c 62bd 2964 a13c
000001a0: 36f5 d33c 904d eb3d 950c 8a3d 086c c03c
000001b0: 0a7c 12bb 49c6 01be bbf7 383d 56a0 c1bd
000001c0: 23b4 903d 560e 543b b0ad 70bd 38f4 05bd
000001d0: 129b 44bd 77c6 70bb c3ce 4cbc b025 00be
000001e0: 891b b93d 5307 4abd a4d3 86bc 5a7d 4dbc
000001f0: d926 d6bd 6e34 88bd 64ef d3bb 2175 8abc
00000200: acbb 8abd d9e4 9abd 569d e23d 77cf c73d
00000210: fb2b c9bd cc41 e03b e8c0 ea3c f557 2d3d
00000220: 4c29 77bd 61a6 04bc 1c41 863b 53d9 033d
00000230: 702f 94bc c24d 90bd 2f5a bf3d de8d 753c
00000240: 0563 123d 68df fbbd d96e fb3c eb9a c13d
00000250: 467a 92bd 13ab e9bd 7b72 c73d 7d8d e6bd
00000260: cb72 c1bc bb7c 6c3d 9a64 673d 3b18 3d3b
00000270: 98da 823d 27e2 ba3c c676 b4bb 5826 903d
00000280: 57ef 9bbd 69e4 c43d 2697 d53b ee84 953b
00000290: 5ae7 933d 71be 94bd dc5c c1bd e521 d2bd
000002a0: be4f 9aba f974 1ebc b705 5c3d 02d4 653d
000002b0: 56b0 7bbd a24b 1b3b ce84 973d a7ac f93d
000002c0: 716e a73d 6411 b73d 0644 d0bc 0a4c 243e
000002d0: e82d eb3d 0de7 0a3e 04ae 00be d53b 223c
000002e0: 5db9 a5bd 0d77 0a3e 1507 713d e5ca b7bd
000002f0: 9734 7dbd 7574 c9bd ea98 d43c 0361 4a3b
00000300: 1d57 193d 606d a83d 890d 423c 4834 793d
00000310: 2554 493c 84b4 d7bd 5e96 ba3d 3e68 87bd
00000320: c061 cc3d 67dc 7ebc a5d6 07be 723b cfbc
00000330: 0e94 4cbd 579f e63d 61b0 483c 8325 aabd
00000340: 7137 b0bd ec67 6a3d c15a 643d 62d1 d93b
00000350: 89bb 46bd d629 f63c 441f e03d bfcc 423d
00000360: 8856 54bd 51b2 ba3d 22f6 d7bc dbf3 5dbd
00000370: 9906 31bd adf3 703d f055 623d 3899 4cbd
00000380: 298b e93d 4c71 cdbd 31bb 8cbd c989 afbd
00000390: f458 abbd 0dc6 8b3d 1a99 d53d 1c95 b3bc
000003a0: eb68 ac3d aabf e9bd 5ca7 043d 1405 94bd
000003b0: 67ac 34bd f59b 9f3d f7e0 e63c 86dc 093e
000003c0: a608 2e3d 200e b3bc 2819 f4bc c718 d53d
000003d0: 133a ab3d 8e49 a13c 5942 223d a46a d1bd
000003e0: 96f6 08bc ef6a aebd 912b e1bd eee1 883d
000003f0: f81a 99bd c803 50bd 5cca 913d e7df c5bd
0.059047364 0.079686135 0.06789567 -0.009768127 0.009843531 0.112706654 -0.12369632 0.033284757
-0.016991952 0.07912352 -0.085178554 -0.09438301 0.10368899 0.00497242 -0.09601361 -0.121650085
0.054270994 0.009173515 0.016961688 -0.018205712 0.07248643 0.013669753 -0.00092887087 0.048468314
0.1021493 -0.04182958 0.0969268 -0.034975365 0.03157205 0.014620086 0.04620683 0.123380385
0.07426747 0.002036163 -0.029424109 0.10771607 -0.07155869 -0.099515535 0.060559984 0.040874936
0.04716401 0.09510277 -0.0683617 -0.07100942 0.021920703 -0.060255207 0.04897411 -0.036446456
0.00961946 0.11895091 0.06751116 -0.013932365 0.0462869 0.058780078 -0.045756076 -0.11704002
0.04394811 0.08426042 -0.07065845 0.07612057 0.13222152 -0.026171768 -0.045403086 0.030733207
-0.08269478 0.036512114 -0.048319787 -0.09515481 -0.0014624641 -0.053889908 0.0005047105 -0.020395279
0.09504179 0.07704852 -0.059584677 0.076351054 -0.011032879 -0.077510595 -0.039590098 0.027162207
-0.04484273 -0.003004093 -0.019422483 -0.10987425 -0.03700715 -0.077377014 0.048300076 -0.009202642
0.04489587 -0.10186824 0.010781808 0.050175343 0.048995666 -0.09549937 0.02548159 0.01877712
-0.0886514 -0.08634709 -0.00743808 0.018925503 -0.043534987 -0.15186481 -0.055233248 0.01970108
0.025873762 0.11489403 0.06740681 0.023489013 -0.0022351765 -0.12673296 0.04515813 -0.0945441
0.07065608 0.0032357178 -0.05875939 -0.03270361 -0.04799945 -0.0036739388 -0.012500468 -0.12514377
0.09038455 -0.04932339 -0.01645834 -0.012542093 -0.10456628 -0.06650625 -0.0064677466 -0.016901555
-0.06774077 -0.075631805 0.11065166 0.09756368 -0.09822842 0.006843781 0.028656438 0.04232021
-0.06034212 -0.008096308 0.004097117 0.03218968 -0.018089026 -0.07046081 0.09343373 0.014987437
0.035738964 -0.12298471 0.030692505 0.094533764 -0.07152228 -0.11409583 0.09738632 -0.112574555
-0.023614308 0.05773614 0.056492426 0.0028853554 0.0638935 0.022812916 -0.005507323 0.070385635
-0.0761401 0.09613878 0.0065182624 0.0045629656 0.07221861 -0.07262886 -0.0944154 -0.10260371
-0.0011773033 -0.009671443 0.053716388 0.05611039 -0.061447464 0.0023696204 0.07398377 0.12191134
0.08175362 0.08938864 -0.025423061 0.16044632 0.11483365 0.13564701 -0.12566382 0.00990196
-0.08091996 0.13521977 0.058844645 -0.08974246 -0.06181773 -0.098366655 0.025951821 0.0030880577
0.037436593 0.082239866 0.011844047 0.060840875 0.012288128 -0.105324775 0.091107115 -0.066116795
0.09979582 -0.015555478 -0.13265474 -0.0252969 -0.049945883 0.112608604 0.012249083 -0.08307936
-0.086043246 0.057228014 0.055750612 0.006647275 -0.04851869 0.030049246 0.109434634 0.047558542
-0.051840335 0.091160424 -0.026362482 -0.054187637 -0.043219183 0.058826137 0.055257738 -0.04995081
0.11403496 -0.10031375 -0.068716414 -0.08571202 -0.08366576 0.068248846 0.104295924 -0.021921687
0.08418449 -0.1141351 0.03238617 -0.07227531 -0.04410973 0.07793418 0.028183443 0.1346303
0.042488717 -0.021857321 -0.029797152 0.104051165 0.08360686 0.019688394 0.039614055 -0.10225418
-0.008359572 -0.0851649 -0.10994638 0.06683718 -0.07475847 -0.050784856 0.07118675 -0.096618466
