output/mnist/models/lstm_autoencoder_mnist_classification.pth (torch, 875740 bytes, 10 tensors)

encoder.weight_ih_l0 f4 [512, 28]
0	0x3df99bd2	0.121879235
1	0xbe2b6157	-0.16736351
2	0x3e35355b	0.17696135
3	0x3e40d59b	0.18831484
4	0x3c0fa318	0.008766912
5	0xbd768bdd	-0.060191978
6	0x3d70cfe4	0.05879201
7	0x3dcc7892	0.099839345
8	0x3e37a418	0.1793369
9	0x3e10f4aa	0.14155832
10	0x3d0b8798	0.03406486
11	0x3e1950ad	0.14972182
12	0x3d1cefe2	0.038314708
13	0x3deebb74	0.116568476
14	0x3dc16929	0.09443886
15	0x3e2a38eb	0.16623275
16	0x3da802dc	0.082036704
17	0x3dddc28f	0.10828125
18	0x3d36e924	0.044655934
19	0x3dc5760a	0.09641655
20	0x3d6b2fb0	0.057418525
21	0x3c5c1eea	0.013435105
22	0x3bcd32a3	0.00626214
23	0x3cbdc36e	0.023164477
24	0xbcd25783	-0.025676494
25	0x3d9f4db0	0.077784896
26	0x3dcea1af	0.100894324
27	0x3d8bcd2f	0.06826245
28	0xbdee61db	-0.11639758
29	0xbe1821ea	-0.14856687
30	0x3b37e9ca	0.0028062933
31	0xbdc847bf	-0.097793095
32	0xbd88809f	-0.066651575
33	0xbd025851	-0.031822506
34	0x3d3ba116	0.04580792
35	0xbd1efb07	-0.038813617
36	0xbe455b1d	-0.19273038
37	0xbe165a8e	-0.14682981
38	0xbe065f4b	-0.13122289
39	0xbdb14329	-0.08655388
40	0x3dc365bc	0.09540889
41	0x3e06dad0	0.13169408
42	0x3e162ff6	0.14666733
43	0x3e08e134	0.13367158
44	0x3e347834	0.17623979
45	0x3e16b242	0.14716437
46	0x3d49ab05	0.049235363
47	0x3b922cee	0.0044609224
48	0x3ce750c3	0.028236752
49	0xbd06abe9	-0.03287879
50	0xbd284987	-0.041085746
51	0x3d13e66e	0.036108427
52	0x3daaff8d	0.08349524
53	0xbcbc5ad3	-0.022992527
54	0x3d12c294	0.035830095
55	0xbd73e6e1	-0.059546355
56	0x3d8ba778	0.068190515
57	0x3daec79d	0.08534167
58	0x3e18123a	0.14850703
59	0x3e0a3f7b	0.13500778
60	0x3e04fff7	0.12988268
61	0xbb0e58bf	-0.0021720377
62	0x392f2b39	0.00016705402
63	0xbb3e50d0	-0.0029039867
64	0xbda8c145	-0.08239988
65	0xbd56c45b	-0.052433353
66	0xbe024b9c	-0.12724155
67	0xbe4ac50e	-0.19801733
68	0xbe2662d9	-0.16248645
69	0xbe03b8d4	-0.12863475
70	0xbdd0b74a	-0.101912096
71	0xbd07f040	-0.033188105
72	0xbd6e684d	-0.058204938
73	0x3c9cbc45	0.019132743
74	0x3cc60275	0.024171093
75	0x3c06ca98	0.008227013
76	0x3e29e9a4	0.16593033
77	0x3e40348a	0.18770042
78	0x3e1f5189	0.15558447
79	0xbb517474	-0.003196028
80	0x3d9383c6	0.07202868
81	0x3e4eff17	0.20214497
82	0x3d9fdc74	0.0780572
83	0x3da168f4	0.07881346
84	0x3d78bb0d	0.06072526
85	0xbdc7a1f6	-0.097476885
86	0x3c376f8a	0.011196027
87	0x3cbdbd3d	0.023161525
88	0x3e3225c7	0.17397223
89	0x3d9f6875	0.077835955
90	0x3d4aa8a8	0.04947725
91	0x3e3630a4	0.17791992
92	0x3e183f53	0.14867906
93	0x3e0a9846	0.1353465
94	0x3e576856	0.21035895
95	0x3e467124	0.19379097
96	0x3e5c4414	0.21510345
97	0x3e3d951d	0.18513913
98	0x3d480f66	0.04884281
99	0x3e1b415b	0.1516165
100	0x3dbbf999	0.09178466
101	0x3dd46b6c	0.103720516
102	0x3ddb6adf	0.107137434
103	0x3d6bd4c0	0.05757594
104	0x3e05bd78	0.13060558
105	0x3e1a75a8	0.15083945
106	0x3e4ba2f1	0.19886376
107	0x3e0b6aec	0.13615006
108	0x3dc9e929	0.09858925
109	0x3e014482	0.1262379
110	0x3d0e898d	0.034799147
111	0x3bcba3f6	0.006214614
112	0xbdc38ac7	-0.09547954
113	0x3d0d8e5b	0.03455959
114	0xbd5476f1	-0.051871244
115	0x3e5adf59	0.21374263
116	0x3eafd43b	0.34341606
117	0x3e1fd7ab	0.15609615
118	0xb940bc5a	-0.00018380713
119	0xbd60a1b1	-0.0548417
120	0x3dc291bd	0.095004536
121	0x3e0f0bbb	0.13969319
122	0x3e4cadb9	0.19988145
123	0x3dddf755	0.108381905
124	0x3df632c7	0.12021404
125	0x3dfb290c	0.122636884
126	0xbd14913a	-0.03627131
127	0xbd4927a6	-0.049110077
128	0xbe21e6f9	-0.15810765
129	0xbe059cdf	-0.13048123
130	0xbde4ae8e	-0.11166106
131	0xbd88ac05	-0.06673435
132	0xbc9f4779	-0.01944326
133	0xbd293754	-0.04131253
134	0x3ca1524b	0.01969256
135	0x3d47528b	0.048662703
136	0x3dfe6bf6	0.12422936
137	0x3d6033db	0.054736953
138	0x3e0a0070	0.1347673
139	0x3dcc7316	0.099828884
140	0x3c69b057	0.014263234
141	0xbe54d24f	-0.20783351
142	0xbd5ce993	-0.05393369
143	0xbd019fcc	-0.031646535
144	0x3e4320b1	0.1905544
145	0x3e2b65ea	0.16738096
146	0x3de30b72	0.110861674
147	0x3be3fff2	0.0069580013
148	0x3d78b86a	0.060722746
149	0xbbd9c4e9	-0.006645788
150	0xbdb52e36	-0.08846705
151	0xbd93cfc9	-0.07217366
152	0xbe2039c8	-0.15647042
153	0xbe3c42d4	-0.18384868
154	0x3ca55b15	0.020185033
155	0x3db84204	0.089969665
156	0x3db3e5c9	0.087840624
157	0xbd5cd04e	-0.053909592
158	0xbe4e4f2f	-0.20147394
159	0xbe419afb	-0.18906777
160	0xbcb240df	-0.021759449
161	0x3cf68004	0.03009034
162	0x3de57b5f	0.11205172
163	0x3d3b4fae	0.045730285
164	0xbc696705	-0.014245753
165	0xbca22f53	-0.019797957
166	0x3e7a4193	0.24439077
167	0x3e56ea71	0.2098787
168	0x3dddee01	0.10836411
169	0x3da2cddb	0.0794942
170	0x3e8300c4	0.25586522
171	0x3dcd3205	0.10019306
172	0x3e3863b8	0.1800679
173	0x3c057698	0.008145951
174	0x3ca119c1	0.0196656
175	0xbd517dd6	-0.051145397
176	0x3ce5f8d3	0.02807275
177	0xbdbd8cb0	-0.0925535
178	0xbcd849c8	-0.02640237
179	0x3d6a81a6	0.05725255
180	0x3e5aadb6	0.21355328
181	0x3d9889af	0.07448136
182	0x3e010ff2	0.12603739
183	0xbc3a21d4	-0.011360604
184	0xbd174188	-0.03692773
185	0xbd6cea45	-0.057840604
186	0xbdbb7a6a	-0.09154208
187	0x3d17daa8	0.03707376
188	0x3d4021c8	0.046907216
189	0x3da6eb46	0.081503436
190	0x3de87415	0.11350266
191	0x3bec3674	0.0072086398
192	0x3db6f034	0.08932534
193	0x3dde2b63	0.10848119
194	0xbc9407bc	-0.018070094
195	0xbcbf97ec	-0.023387872
196	0xbcbb8845	-0.022892127
197	0x3d71d0a1	0.059036855
198	0xbd8f74a0	-0.07004666
199	0x3e058127	0.13037549
200	0x3dcf0bb0	0.10109651
201	0x3dac4426	0.08411436
202	0x3d5eb42c	0.054371044
203	0x3e6017eb	0.21884124
204	0x3e4c53e7	0.19953881
205	0x3e1a0384	0.15040404
206	0xbca199e1	-0.019726695
207	0xbbd08288	-0.006363217
208	0xbc704778	-0.014665477
209	0x3d9b5df7	0.07586282
210	0x3e80fa2c	0.25190866
211	0x3e51e1fa	0.2049636
212	0x3e14a5dc	0.14516395
213	0x3db2b8fc	0.08726689
214	0x3d35e8ba	0.0444114
215	0x3e24ce28	0.16094267
216	0x3eab2aca	0.33431083
217	0x3e76ac6a	0.24089208
218	0x3e59b676	0.2126101
219	0xbb6e6ddf	-0.0036381406
220	0x3d023528	0.031788975
221	0x3d3edc1c	0.04659663
222	0xbe78759e	-0.24263617
223	0xbb29deb1	-0.0025920088
224	0x3d4dd6b9	0.050253604
225	0x3d328b19	0.043589685
226	0x3e110176	0.14160714
227	0xbe540e05	-0.20708473
228	0xbe440716	-0.19143328
229	0xbcf37d2c	-0.029722773
230	0xbcd4075f	-0.025882421
231	0x3ce7fafc	0.02831792
232	0x3d8037ff	0.062606804
233	0x3d10a14f	0.035310086
234	0x3dac6932	0.08418502
235	0x3e0aff11	0.13573863
236	0x3e542cb4	0.20720178
237	0xbcdbb587	-0.026819957
238	0xbe00fe6b	-0.12597053
239	0xbe267fef	-0.1625974
240	0xbcf017cf	-0.029308228
241	0xbd39ef71	-0.045394365
242	0xbceb407c	-0.028717272
243	0x3b7eb622	0.0038865884
244	0x3dbc5671	0.09196175
245	0xbca2c1c3	-0.019867783
246	0x3d95c109	0.07312209
247	0xbca4959b	-0.020090869
248	0xbd5c12e7	-0.053728964
249	0x3db3b6a6	0.08775072
250	0x3d2b2d4a	0.041791238
251	0x3de254c4	0.11051324
252	0xbd6fbcea	-0.058529772
253	0x3c2ee381	0.010674358
254	0xbc5233d6	-0.012829741
255	0x3cabee18	0.020987555

encoder.weight_hh_l0 f4 [512, 128]
0	0xbe38add6	-0.18035063
1	0xbcd0b5b2	-0.025477264
2	0x3d32bb7d	0.043635834
3	0xbda0b818	-0.07847613
4	0xbd0b1b36	-0.033961497
5	0xbe09b389	-0.13447393
6	0xbd7e9896	-0.062157236
7	0xbc0d12d6	-0.008610448
8	0x3dfa2162	0.122133985
9	0xbe355408	-0.17707837
10	0x3db709f9	0.08937449
11	0x3cfeb452	0.031091843
12	0x3a88124c	0.001038143
13	0x3e44516f	0.1917169
14	0x3d26d1e3	0.040727507
15	0x3df1e7db	0.11811801
16	0xbd56c3cc	-0.05243282
17	0x3cd7fed1	0.026366623
18	0xbd90212b	-0.07037576
19	0xbc26159a	-0.010136986
20	0x3cd61f42	0.026137952
21	0x3c61e918	0.013788484
22	0xbda5c4b6	-0.0809416
23	0x3d993876	0.07481472
24	0x3d065dd3	0.03280432
25	0xbd9b0441	-0.07569171
26	0x3dbcc602	0.092174545
27	0x3d42fdbf	0.047605272
28	0xbdd7ec38	-0.10543102
29	0xbc3d68ee	-0.011560662
30	0x3e47d414	0.19514495
31	0xbd97689b	-0.07392999
32	0x3b88a0de	0.0041695675
33	0xbcb434a4	-0.021997757
34	0xbe007abb	-0.12546818
35	0xbd0cdd6f	-0.034390863
36	0xbe0a2238	-0.13489616
37	0x3a1946f1	0.0005847058
38	0x3e192e6e	0.14959118
39	0xbd721412	-0.05910117
40	0x3e5e11c7	0.21686469
41	0x3d1487c5	0.036262292
42	0xbd0b49ce	-0.034005933
43	0x3d98310e	0.074312314
44	0xbdabbfb6	-0.08386175
45	0xbdbca929	-0.09211952
46	0x3e38d0e1	0.18048431
47	0xbd9ca9bd	-0.076495625
48	0x3c5f23f4	0.013619412
49	0xbda78c45	-0.08181051
50	0x3e7e054f	0.24806713
51	0x3d2c16cf	0.04201394
52	0xbd96433f	-0.07337045
53	0xbd675d09	-0.05648521
54	0x3e294ef3	0.16534023
55	0x3d913605	0.070903815
56	0xbd39dcd3	-0.04537661
57	0x3d48c633	0.049017143
58	0xbe215b8b	-0.15757577
59	0xbe199913	-0.149998
60	0xbd0799ee	-0.033105783
61	0x3d508ef4	0.05091758
62	0xbe056c9a	-0.1302971
63	0xbbed45ca	-0.0072409855
64	0x3c4aeab8	0.012385063
65	0x3e00e834	0.12588578
66	0x3dc2bc8d	0.095086195
67	0x3d706b82	0.058696277
68	0x3d3080f0	0.043091714
69	0xbd5ac7f0	-0.05341333
70	0xbdac8c74	-0.08425227
71	0x3d1da765	0.038489718
72	0x3e886896	0.26642293
73	0xbce81b4e	-0.028333332
74	0xbc9e4774	-0.01932118
75	0x3d04a9c8	0.03238848
76	0x3cca940d	0.0247288
77	0xbdf9452e	-0.12171398
78	0xbdb67279	-0.08908553
79	0x3d77ca15	0.060495455
80	0x3e95a592	0.29227883
81	0x3dc51fd4	0.09625211
82	0xbde815cd	-0.11332283
83	0xbd5e8781	-0.054328445
84	0xbcc92824	-0.024555273
85	0xbd238e07	-0.03993037
86	0xbe0b8e9f	-0.13628624
87	0x3d797a01	0.060907368
88	0x3db79ccc	0.089654535
89	0x3db21ca4	0.08696869
90	0x3d6ca30b	0.057772677
91	0x3e01209f	0.126101
92	0xbe34230d	-0.17591496
93	0xbdd2bd39	-0.102899976
94	0x3d1e3a0a	0.03862957
95	0x3dbb39a0	0.091418505
96	0xbb4c4eee	-0.0031174975
97	0x3d381427	0.044941094
98	0x398d04d3	0.0002689721
99	0xbe9ed2bd	-0.31020156
100	0xbd8b4a75	-0.06801311
101	0xbc530c46	-0.012881344
102	0xbe072b7b	-0.1320018
103	0xbe2b6517	-0.16737781
104	0x3e56c78c	0.20974559
105	0xbd8d2f69	-0.068938084
106	0x3d3372c7	0.043810632
107	0xbe3d1574	-0.18465215
108	0x3cd607cc	0.026126765
109	0x3d7b8c9b	0.06141339
110	0x3cd29e12	0.02571014
111	0x3c64bf04	0.013961557
112	0xbc976e24	-0.018485136
113	0xbddf3fe4	-0.10900858
114	0x3d072f93	0.033004355
115	0xbdc853a3	-0.097815774
116	0x3dbfc969	0.09364588
117	0xbd83cc33	-0.06435432
118	0xbe37fbd0	-0.17967153
119	0x3d6e186c	0.05812876
120	0xbdb29e6a	-0.08721621
121	0x3e31767b	0.17330353
122	0x3d51fa93	0.051264357
123	0x3d0e2c33	0.03471012
124	0xbdcdc371	-0.10047043
125	0x3e3c94cf	0.18416141
126	0x3e40f1c9	0.18842234
127	0x3c88a445	0.016679892
128	0x3e816a7d	0.25276557
129	0x3d600c1b	0.054699045
130	0xbe0a1b6d	-0.13487025
131	0x3e04fd4c	0.1298725
132	0x3db8557a	0.09000678
133	0x3dfbe21e	0.12298988
134	0xbe32cae5	-0.1746021
135	0x3e3cf7de	0.18453929
136	0xbbf7770e	-0.007552034
137	0x3dac2912	0.08406271
138	0xbb305268	-0.0026904587
139	0x3d09a77d	0.033606995
140	0x3d133f84	0.035949245
141	0xbdc63846	-0.09678702
142	0xbd70f976	-0.058831654
143	0xbdfcdfab	-0.12347349
144	0xbd7c25ce	-0.06155949
145	0xbc010f49	-0.007877179
146	0xbdb162f8	-0.08661455
147	0xbbac3c54	-0.005256215
148	0xbe821e83	-0.25413904
149	0x3dee3998	0.11632079
150	0x3d5f1439	0.054462645
151	0x3d1949c0	0.03742385
152	0x3d918650	0.07105696
153	0x3d3a4c5c	0.04548298
154	0x3d9bf2c6	0.07614665
155	0x3d761436	0.06007787
156	0xbdf1c672	-0.118054286
157	0x3c0ce9fa	0.008600706
158	0x3e2eb0ee	0.17059681
159	0xbdd65687	-0.104657225
160	0xbe244361	-0.16041328
161	0x3e4bad2b	0.19890277
162	0x3deeeecb	0.1166664
163	0xbe24b339	-0.16083993
164	0x3d87e17c	0.066348046
165	0x3db01ec2	0.085996166
166	0x3e03b939	0.12863626
167	0xbd8b2302	-0.067937866
168	0x3d3711d2	0.04469473
169	0xbdd6abd8	-0.10481995
170	0xbc4f9dfd	-0.012671945
171	0x3da3f970	0.08006561
172	0xbe6f5a99	-0.23374404
173	0xbcf70168	-0.030152038
174	0x3e09ab52	0.1344426
175	0x3d38d96f	0.045129236
176	0x3daaeda2	0.08346106
177	0xbe1baae2	-0.15201905
178	0xbcb25ec0	-0.021773696
179	0x3d9b50e6	0.075837895
180	0xbc294fae	-0.0103339385
181	0xbd6e8119	-0.058228586
182	0x3d0ef313	0.034899782
183	0x3db2f52c	0.08738169
184	0x3ddb6e11	0.10714353
185	0xbdc49e2e	-0.09600483
186	0x3d215405	0.039386768
187	0x3cad515f	0.021156965
188	0xbdaddd86	-0.08489518
189	0xbdab23a3	-0.083564065
190	0xba7917b3	-0.00095021277
191	0xbd070f25	-0.032973427
192	0xbe18e04e	-0.14929315
193	0x3da811c3	0.08206513
194	0x3df781f6	0.12085335
195	0x3dc99278	0.0984239
196	0xbd9dbac3	-0.077016376
197	0x3ddc0b00	0.107442856
198	0x3e011b60	0.12608099
199	0x3d23fcab	0.040035885
200	0xbd44174f	-0.04787379
201	0xbdfafce4	-0.12255266
202	0x3c34b2d1	0.011028961
203	0xbcc9b73a	-0.024623502
204	0x3df1d4cd	0.11808167
205	0xbdf89f2a	-0.12139733
206	0xbd37ce55	-0.044874508
207	0xbe4e6eee	-0.20159504
208	0xbd2d4cdd	-0.04230963
209	0x3e1048c5	0.1409026
210	0x3e032af7	0.12809359
211	0xbde5ad7b	-0.112147294
212	0x3e03a0f7	0.12854372
213	0x3db74aa0	0.089497805
214	0xbd37536e	-0.0447573
215	0xbe903d65	-0.2817184
216	0x3e01c4be	0.12672707
217	0x3d7e0f0d	0.062026072
218	0x3c288c28	0.010287322
219	0x3cacb7c4	0.02108372
220	0x3e06f7f3	0.13180523
221	0xbe5c2a42	-0.21500495
222	0xbcb9c690	-0.02267769
223	0xbd15c995	-0.036569197
224	0xbdb7fc5f	-0.08983683
225	0x3db140c0	0.08654928
226	0xbc9a380c	-0.018825553
227	0x3d6b24ad	0.057408024
228	0x3e0bc472	0.13649157
229	0x3cf3f7bd	0.029781217
230	0x3c33816e	0.010956151
231	0xbd8e990d	-0.06962786
232	0x3d33d67a	0.043905713
233	0x3c89241b	0.01674085
234	0x3d8d3e18	0.06896609
235	0x3e69428b	0.2277929
236	0xbe0e46f5	-0.13894255
237	0xbde49c99	-0.11162681
238	0x3d2dcdcc	0.04243259
239	0x3e44b315	0.1920894
240	0xbd9c4519	-0.07630367
241	0x3df1e8e4	0.118119985
242	0x3d27f6ae	0.041006736
243	0xbe386172	-0.18005922
244	0xbe079c50	-0.13243222
245	0xbc84f0d2	-0.016228113
246	0xbdd3583f	-0.10319566
247	0x3cb18cc9	0.021673577
248	0x3d93a453	0.07209077
249	0xbce2a737	-0.027667625
250	0x3cf5e1d2	0.030014906
251	0x3dc011f0	0.09378421
252	0x3d8b4e4f	0.068020456
253	0xbc82c67d	-0.015963787
254	0x3c9f45f7	0.019442542
255	0x3d114369	0.035464678

encoder.bias_ih_l0 f4 [512]
0	0x3dfeced1	0.12441791
1	0x3dfcf817	0.12352007
2	0x3dd09359	0.10184354
3	0x3c7ea51f	0.015542298
4	0x3ca79bb3	0.020459985
5	0x3c7e39e9	0.015516737
6	0xbdc87b1a	-0.09789105
7	0x3d3114ff	0.043232914
8	0x3d25c77c	0.040473446
9	0x3b4aa607	0.0030921714
10	0x3e635a15	0.22202332
11	0xbd77d9c0	-0.060510397
12	0xbd02abad	-0.031902004
13	0x3d56c00f	0.052429255
14	0xbc471cb9	-0.012152844
15	0x3dbc0f14	0.091825634
16	0x3d9881d8	0.07446641
17	0x3c87d210	0.016579658
18	0x3c8fa675	0.017535428
19	0xbced7dcb	-0.028990647
20	0x3d727758	0.059195846
21	0x3dc90496	0.09815328
22	0xbbfe1a42	-0.007754595
23	0xbe2ae90f	-0.16690467
24	0x3dbe48f3	0.09291258
25	0xbd4d2def	-0.050092634
26	0x3d8dda58	0.069264114
27	0xbc2b2967	-0.010446883
28	0x3d062497	0.03274974
29	0xbdab2e9b	-0.08358499
30	0x3e089f8f	0.13342117
31	0xbd627fb9	-0.055297587
32	0xbba63052	-0.005071678
33	0xbd7ee6d3	-0.06223185
34	0x3e31a1b8	0.17346847
35	0x3e24f94f	0.16110729
36	0x3c9afc80	0.01891923
37	0x3d03dcba	0.032192923
38	0x3cad438f	0.021150379
39	0x3d35d939	0.044396613
40	0xbd2e4ba1	-0.042552594
41	0x3c95edbf	0.018301843
42	0xbd7c327a	-0.061571576
43	0xbdd01279	-0.101597734
44	0x3db392a7	0.08768206
45	0xbd933813	-0.0718843
46	0xbd433a3a	-0.04766295
47	0x3db2748b	0.08713635
48	0xbb764184	-0.0037575671
49	0xbdc4e5b9	-0.096141286
50	0x3c906900	0.017628193
51	0x3dd6a14e	0.10479985
52	0xbdc66a1e	-0.09688209
53	0xbc9e0333	-0.019288635
54	0x3dc54066	0.09631424
55	0xbda396cf	-0.07987749
56	0xbd3a9189	-0.04554895
57	0x3d9e091a	0.0771658
58	0x3d650fd7	0.05592331
59	0xbb34a7a3	-0.002756574
60	0x3dc87ec5	0.09789804
61	0xbcaf1a8b	-0.021374961
62	0xbda402f8	-0.08008379
63	0x3dc2b9d4	0.095081
64	0x3c125562	0.00893149
65	0x3de6385a	0.11241217
66	0x3cfb1875	0.03065131
67	0x3d38a8b1	0.04508275
68	0xbd8d45c4	-0.06898072
69	0x3ae62f2a	0.0017561663
70	0x3d071f2c	0.032988712
71	0x3dd3a884	0.10334876
72	0x3daba32e	0.083807334
73	0xbd3152fb	-0.043292027
74	0xbc3d936e	-0.0115707945
75	0x3c9ac695	0.01889352
76	0x3d23619e	0.039888017
77	0x3e251abd	0.16123481
78	0x3d23ff69	0.0400385
79	0x3d39f4b6	0.04539939
80	0x3d2dad24	0.042401448
81	0x3b3f3183	0.0029173798
82	0xbd2cb075	-0.04216047
83	0xbd067980	-0.032830715
84	0xbd10de71	-0.035368387
85	0xbd95ed89	-0.07320697
86	0x3cb17bcb	0.021665474
87	0x3c75b0a4	0.014995728
88	0xbbcfb14d	-0.0063382746
89	0x3cab3691	0.020900043
90	0xbd3b55f1	-0.045736257
91	0xbdc1e6ba	-0.09467836
92	0xbe4a1e0c	-0.19738024
93	0x3c4ee484	0.012627725
94	0xbd0b1d4a	-0.03396348
95	0x3dbcdb73	0.09221544
96	0x3d29dba6	0.04146924
97	0x3cce6acb	0.025197407
98	0xbccba18c	-0.024857305
99	0x3c3e9c93	0.01163401
100	0xbd9aada9	-0.07552654
101	0x3dba8cec	0.0910891
102	0xbe02b8b3	-0.1276577
103	0x3e30d42c	0.17268437
104	0x3d6d6286	0.057955287
105	0xbc88f5df	-0.016718803
106	0xbab6d48e	-0.0013948844
107	0x3d812945	0.063067
108	0xbd8d8f20	-0.069120646
109	0x3d05ab6f	0.032634195
110	0xbd10561f	-0.03523838
111	0xbcc59c2c	-0.02412232
112	0x3d76148f	0.0600782
113	0xbd51498e	-0.051095538
114	0x3d002c52	0.031292267
115	0x3daab692	0.08335604
116	0xbd3516b6	-0.044211112
117	0x3d3c6c0c	0.04600148
118	0x3d19a531	0.037511054
119	0x3df09f67	0.117491536
120	0x3bc8a583	0.006123246
121	0xbd0c343b	-0.0342295
122	0x3da1bf65	0.07897834
123	0x3d74b31c	0.059741125
124	0x3dddb7a7	0.108260445
125	0x3e0dc001	0.13842775
126	0xbdd25e93	-0.10271945
127	0xbd9565ca	-0.07294805
128	0x3db7059a	0.08936615
129	0xbd6cb514	-0.057789877
130	0x3d16114c	0.03663759
131	0x3c588c19	0.013216996
132	0x3dcc250e	0.09968005
133	0x3e53aefa	0.20672217
134	0xbd511abc	-0.051050887
135	0x3d5303b9	0.051517222
136	0x3cec57ff	0.028850554
137	0xbcc757e0	-0.024333894
138	0x3e00ec2f	0.12590097
139	0xbbbf98d0	-0.005847074
140	0x3dbc1e1b	0.0918543
141	0x3e034026	0.1281744
142	0x3d473a2a	0.048639454
143	0x3e0764fa	0.13222113
144	0x3d78b291	0.06071717
145	0x3e14c9c3	0.14530091
146	0x3d21ca4b	0.039499562
147	0x3d907af0	0.070546985
148	0x3d99f012	0.07516493
149	0x3e3b2415	0.18275483
150	0x3d71f919	0.05907545
151	0xbd56b579	-0.05241916
152	0xbc899f77	-0.016799672
153	0x3dde7557	0.108622245
154	0x3d0b798d	0.034051467
155	0x3e359be8	0.17735255
156	0x3d6a66af	0.057226833
157	0x3db053a6	0.08609705
158	0x3d82d2a0	0.0638783
159	0x3cbc6830	0.0229989
160	0x3d1fca04	0.039011016
161	0x3e54260c	0.20717639
162	0x3e0f4a0a	0.13993087
163	0x3e2b08be	0.16702554
164	0x3c4ca7fd	0.012491223
165	0x3d570a31	0.052499954
166	0x3d396d38	0.045270175
167	0x3e0e5583	0.13899808
168	0x3d92755f	0.07151293
169	0x3e1cb40f	0.15303062
170	0x3d9984d1	0.07496036
171	0x3cde033b	0.02710115
172	0x3cff1f6d	0.031142915
173	0x3d556716	0.052100264
174	0x3e1ddfec	0.1541745
175	0x3dc46825	0.095901765
176	0x3c244caf	0.010028048
177	0xbd2f4bd5	-0.04279693
178	0x3e304a9d	0.17215963
179	0x3d93ce67	0.072171025
180	0x3db87223	0.09006145
181	0x3df2b952	0.11851753
182	0x3e56f3cc	0.20991439
183	0x3dabe8fc	0.083940476
184	0x3e035e09	0.1282884
185	0xbb1f6b28	-0.0024325345
186	0x3dd4bf8a	0.10388096
187	0x3e0adb5b	0.1356024
188	0x3d0f15f9	0.034933064
189	0x3be12098	0.0068703406
190	0x3d77f355	0.060534794
191	0xbcc06616	-0.023486178
192	0xbd33b512	-0.043873854
193	0x3d41f709	0.04735473
194	0x3e068172	0.13135317
195	0x3c20765b	0.009793843
196	0x3d3fe689	0.046850715
197	0x3dbca2c5	0.09210733
198	0x3cc416e5	0.023936698
199	0x3e1eb0e1	0.15497161
200	0x3d1d6b0e	0.038432173
201	0x3dcb5b28	0.09929496
202	0x3ce7480a	0.028232593
203	0x3d71792f	0.05895346
204	0x3dc5bb85	0.09654907
205	0x3c38a3ad	0.011269492
206	0x3e414a80	0.18876076
207	0x3dedef1f	0.11617874
208	0x3cbbef9b	0.022941401
209	0xbcb16e42	-0.02165902
210	0x3e64e1a5	0.22351702
211	0x3d86acf1	0.06575955
212	0x3d7ef69b	0.0622469
213	0x3d864a5b	0.06557151
214	0x3e114ebd	0.14190193
215	0x3dd5ed5f	0.104456656
216	0x3d424a32	0.04743404
217	0x3ccc7b0b	0.024961015
218	0x3db8689b	0.09004327
219	0x3d9be85a	0.07612677
220	0x3d99a5ec	0.0750235
221	0x3b51232a	0.0031911829
222	0x3d9e430d	0.07727633
223	0x3d74fdd2	0.059812374
224	0xbcdf4909	-0.027256506
225	0x3da444b0	0.080209136
226	0x3c869056	0.016426247
227	0x3de063b0	0.10956514
228	0x3d22fbce	0.03979092
229	0x3e1cb768	0.15304339
230	0x3ca18193	0.019715106
231	0x3e46ef69	0.19427265
232	0x3e146d3c	0.14494795
233	0x3e44dd4e	0.19225046
234	0x3d90ada1	0.07064367
235	0x3e0c47b7	0.13699232
236	0x3e09f87e	0.13473698
237	0x3da132ee	0.07871042
238	0x3d943442	0.0723653
239	0x3db1c841	0.086807735
240	0x3cac6c5b	0.021047762
241	0x3df5d97e	0.12004374
242	0x3d8e677d	0.069533326
243	0x3d9da9ad	0.07698379
244	0x3e1d714f	0.15375255
245	0x3e14b952	0.14523819
246	0xbc049b57	-0.0080936765
247	0x3db5f47a	0.08884521
248	0x3c892340	0.016740441
249	0x3d95ee35	0.07320825
250	0x3e120da5	0.14263017
251	0xbce80abb	-0.02832543
252	0x3e0e6c74	0.13908559
253	0x3e0c89dd	0.13724466
254	0x3cc9401f	0.024566708
255	0x3b71f8fe	0.0036922093

encoder.bias_hh_l0 f4 [512]
0	0xbd01a9d5	-0.031656105
1	0x3e01a7dd	0.12661691
2	0x3d76d1fd	0.060258854
3	0x3d412752	0.04715664
4	0x3da2620c	0.07928857
5	0xbca856f3	-0.020549273
6	0x3d64a874	0.055824712
7	0xbc2092f9	-0.009800666
8	0xbcb4914f	-0.022041945
9	0x3dbf88a0	0.09352231
10	0x3e5cad01	0.21550371
11	0x3d0c2d0b	0.034222644
12	0x3dd7c523	0.10535648
13	0x3db722b0	0.08942163
14	0x3da55e34	0.080746084
15	0xbcd2ddc9	-0.025740521
16	0x3d58b83c	0.052910075
17	0x3d3948a3	0.045235287
18	0xbc9dbcdb	-0.019255092
19	0xbd9eaffa	-0.077484086
20	0xbd918beb	-0.07106765
21	0x3de2f874	0.11082545
22	0x3dd1fae9	0.102529354
23	0xbe4c46d0	-0.19948888
24	0xbccf3c5e	-0.02529734
25	0xbd7683ae	-0.060184173
26	0x3cddfb55	0.027097384
27	0x3d064b01	0.032786373
28	0x3d6921cc	0.056916997
29	0x3cfb3253	0.030663645
30	0x3deb360c	0.11484918
31	0xbd8e1fec	-0.06939682
32	0x3aa7bc3f	0.001279719
33	0x3d6b672a	0.05747143
34	0x3dc127fc	0.094314545
35	0x3d7889e0	0.060678363
36	0xbd799fc3	-0.060943376
37	0x3dadcc57	0.0848624
38	0x3d75a4e2	0.059971698
39	0x3def9439	0.11698193
40	0x3d914f56	0.0709521
41	0x3de60be9	0.112327404
42	0xbdc4f368	-0.096167386
43	0xbd830fde	-0.06399511
44	0x3d9d8a39	0.076923795
45	0x3d466bc1	0.048442606
46	0xbd1eb426	-0.03874602
47	0x3c323053	0.010875779
48	0xbd632abd	-0.05546068
49	0xbdb55e14	-0.088558346
50	0x3ba4f8de	0.00503455
51	0xbb25d195	-0.0025301923
52	0xbd831317	-0.064001255
53	0xbe1132ba	-0.14179507
54	0x3e70e7d7	0.2352594
55	0x3d32c616	0.04364594
56	0xbda5d66e	-0.0809754
57	0x3b9a48d4	0.004708389
58	0xbd25b931	-0.040459815
59	0xbd55baac	-0.052179977
60	0x3d0af6cd	0.033926774
61	0xbd909fdc	-0.07061741
62	0xbcefcfe3	-0.029273933
63	0x3e0018e2	0.12509492
64	0x3ddff345	0.10935072
65	0x3d1ebf8d	0.038756896
66	0x3dc5ae49	0.09652383
67	0x3dcfe692	0.101514
68	0xbd716173	-0.058930825
69	0x3d217ac8	0.039423734
70	0x3d978679	0.073986955
71	0x3ce9df40	0.028548837
72	0x3dc2f6f7	0.09519761
73	0x3c02e0c3	0.007988158
74	0x3dbe60ed	0.09295831
75	0xbcec3e58	-0.028838322
76	0xbc98996b	-0.018627843
77	0x3cfbb4b1	0.030725809
78	0xbcc0130f	-0.023446588
79	0xbc407bb1	-0.01174824
80	0x3d943497	0.07236593
81	0xbd9162c2	-0.07098915
82	0x3d43b599	0.047780607
83	0xbc987e85	-0.018615017
84	0xbde299fa	-0.11064525
85	0xbbe94c18	-0.007119667
86	0x3da41c89	0.08013255
87	0x3cb3a67b	0.02192997
88	0x3d085d7e	0.033292286
89	0x3db7ef91	0.089812405
90	0x3cdad9bf	0.026715158
91	0x3c5480db	0.012970175
92	0xbe3e2859	-0.18570079
93	0xbd2fe5c7	-0.042943742
94	0x3c98b050	0.01863876
95	0xbc17a127	-0.00925473
96	0x3d93fe23	0.07226207
97	0xbc6af185	-0.014339809
98	0xbd03f127	-0.032212403
99	0x3ddc840f	0.10767376
100	0x3d5694ab	0.052387875
101	0x3d0ee9b3	0.03489084
102	0xbd08a2d4	-0.03335841
103	0x3c8ff0c7	0.017570866
104	0x3de478f7	0.11155885
105	0x3d207a2e	0.03917902
106	0xbd951838	-0.0728001
107	0x3d8fde4f	0.07024824
108	0x3abb633b	0.0014296541
109	0x3d054dc4	0.032544866
110	0xbd5b981f	-0.05361187
111	0xbd79ab45	-0.06095435
112	0x3e3b3a23	0.18283896
113	0xbbd224f3	-0.006413096
114	0xbd5390cf	-0.051651772
115	0x3df333b6	0.118750975
116	0x3cbe28fc	0.023212902
117	0xbd56fc99	-0.05248699
118	0x3d376a96	0.044779383
119	0xbd1a522f	-0.037676033
120	0xbcca47c7	-0.02469243
121	0x3daf8087	0.085694365
122	0x3d8b327b	0.06796738
123	0x3d9d2731	0.07673491
124	0x3d30f723	0.043204438
125	0x3d9e2145	0.077211894
126	0xbd594cb4	-0.053051665
127	0xbd2536e0	-0.040335536
128	0x3e1a1c57	0.15049873
129	0x3db81db6	0.08990042
130	0xbd1b59ad	-0.03792732
131	0xbcfb85af	-0.030703394
132	0x3dcc0ecc	0.0996376
133	0x3de3060c	0.11085138
134	0xbc9a74a3	-0.018854445
135	0x3e16bf0c	0.14721316
136	0x3dfaca1e	0.12245582
137	0x3dc9d8af	0.09855782
138	0x3e28f72b	0.16500537
139	0x3de0e253	0.10980668
140	0x3d960757	0.07325619
141	0x3e24a1aa	0.16077295
142	0xbc4bd687	-0.012441284
143	0x3d8197a3	0.063277505
144	0xbd9f36b9	-0.077741094
145	0x3e1c7e59	0.15282573
146	0xbc11f17b	-0.008907671
147	0xbac358f3	-0.0014903828
148	0x3dc3d0b6	0.09561293
149	0x3e48112f	0.19537805
150	0x3dc95193	0.09830012
151	0x3deab781	0.11460782
152	0xbc65e5a5	-0.014031802
153	0x3e27f854	0.16403323
154	0x3db9ecb7	0.09078353
155	0x3dfff902	0.12498666
156	0x3d760ba5	0.0600697
157	0x3cfc0e7c	0.030768625
158	0x3dde457c	0.10853097
159	0x3db3a32c	0.08771357
160	0xbd08b0b2	-0.033371635
161	0x3da35d43	0.07976773
162	0xb9c5a773	-0.00037699527
163	0x3d6fad48	0.058514863
164	0x3d975835	0.07389871
165	0x3e09a1bd	0.13440605
166	0x3e17989d	0.14804311
167	0x3df8cf1d	0.12148879
168	0x3db7e423	0.089790605
169	0x3e17bb37	0.1481751
170	0x3df40abb	0.11916109
171	0xbd2bec3b	-0.041973334
172	0x3d0699f5	0.03286167
173	0xbd966756	-0.073439285
174	0x3d653817	0.055961695
175	0x3d1eceb6	0.038771354
176	0xbd38f015	-0.045150835
177	0x3cec532b	0.028848251
178	0x3e908c1e	0.282319
179	0x3e5280e8	0.20556986
180	0x3e2c87bb	0.16848652
181	0x3df1c751	0.11805595
182	0x3d4caa2a	0.04996697
183	0x3d89411b	0.06701871
184	0x3c57c808	0.01317025
185	0x3c1d1e89	0.0095898
186	0x39112ea5	0.00013845654
187	0x3d9be089	0.07611186
188	0x3d1bcfd8	0.038040012
189	0xbd3c2d1d	-0.04594146
190	0xbc26cc60	-0.010180563
191	0xbcc0022d	-0.023438537
192	0x3d9991f9	0.07498545
193	0x3c978543	0.018496161
194	0x3e302e2f	0.17205118
195	0x3ceceace	0.028920557
196	0x3d89836f	0.06714522
197	0x3e1918b2	0.14950827
198	0xbc2dd5b9	-0.0106100375
199	0x3d0dfd45	0.034665365
200	0x3de4c98f	0.11171257
201	0x3e00e190	0.12586045
202	0x3dc513b0	0.09622896
203	0x3d7c33a0	0.06157267
204	0x3de729e7	0.11287289
205	0x3e098070	0.13427901
206	0x3d729257	0.05922159
207	0xbac3e06d	-0.0014944203
208	0x3c317e89	0.010833391
209	0x3dc48230	0.09595144
210	0x3df518fd	0.11967657
211	0x3d852c3c	0.06502578
212	0x3e5581c2	0.2085028
213	0x3e069b4f	0.13145183
214	0x3d8ea6fe	0.06965445
215	0x3e222fcb	0.15838544
216	0x3d3e39b4	0.04644175
217	0x3d5ef547	0.054433133
218	0x3ce67dce	0.02813616
219	0x3d3c68cb	0.045998376
220	0x3d730781	0.05933333
221	0x3d6bbf01	0.057555202
222	0x3a83b467	0.0010048271
223	0x3e0a5a6f	0.1351106
224	0x3e0e875b	0.13918822
225	0xbb8daa8f	-0.0043233107
226	0x3c722f31	0.014781759
227	0x3e111d8a	0.14171425
228	0xbcb232c9	-0.021752732
229	0xbad4924d	-0.0016217917
230	0x3dcee484	0.1010218
231	0x3e5aa1b4	0.21350747
232	0x3de6d09a	0.11270256
233	0x3dbf6dac	0.0934709
234	0xbbde84c4	-0.0067907292
235	0xbc0ab81f	-0.008466749
236	0x3e3eb9d2	0.18625572
237	0x3d54eae1	0.05198181
238	0x3d2b673e	0.041846506
239	0xbbc10725	-0.0058907443
240	0x3e2be7c0	0.16787624
241	0x3e7a366b	0.24434821
242	0x3952839a	0.00020076186
243	0x3dee35b8	0.1163134
244	0x3d705d2c	0.058682606
245	0x3d95ddeb	0.07317718
246	0xbb6c8947	-0.0036092566
247	0x3daca7d8	0.08430451
248	0x3c87f1b7	0.01659475
249	0x3dbd2845	0.092361964
250	0x3deb439d	0.114875056
251	0x3ce9b77e	0.028529879
252	0x3e2f6720	0.17129183
253	0x3d16892b	0.036751907
254	0x3d1d9ee7	0.03848162
255	0x3d4f2e93	0.050581526

decoder.weight_ih_l0 f4 [512, 128]
0	0xbd06c62e	-0.032903843
1	0x3dc11499	0.09427757
2	0xbb5b5190	-0.0033465363
3	0x3c95c4b9	0.018282281
4	0xbc594a41	-0.013262332
5	0x3e25e33a	0.16199961
6	0xbd04fd3a	-0.03246806
7	0x3dd2c8fa	0.102922395
8	0x3d75d7cb	0.06002025
9	0xbd033c1c	-0.032039747
10	0xbdbe8cb3	-0.0930418
11	0xbd086280	-0.033297062
12	0x3db962a5	0.09052018
13	0xbdb76994	-0.08955684
14	0xbd40be50	-0.047056496
15	0xbdbdfba7	-0.092765145
16	0xbe1e3743	-0.15450768
17	0xbcbd4efe	-0.023108955
18	0x3d3718a3	0.04470123
19	0xbd96c343	-0.07361462
20	0xbe153779	-0.14571942
21	0xbd83d523	-0.06437137
22	0x3d9602b2	0.07324733
23	0x3c85818d	0.016297126
24	0x3c9be31f	0.019029198
25	0x3d9cea20	0.07661843
26	0xbd507817	-0.050895777
27	0xbda53a70	-0.08067787
28	0xbd9d8fb6	-0.07693426
29	0x3e225189	0.15851416
30	0x3b9ae5df	0.00472711
31	0x3d0d1b1d	0.034449685
32	0xbd3ee80a	-0.04660801
33	0x3e07319b	0.13202517
34	0x3d560fe4	0.05226125
35	0xbd5141bf	-0.05108809
36	0x3d568f38	0.052382678
37	0x3d7bc0be	0.06146311
38	0x3d4dc36c	0.050235197
39	0xbe2b215e	-0.16711947
40	0x3e1dc35e	0.15406558
41	0xbdc206f1	-0.0947398
42	0xbd755440	-0.0598948
43	0xbce81968	-0.028332427
44	0xbc9f913d	-0.019478435
45	0xbd795351	-0.060870472
46	0x3d3b04f1	0.04565901
47	0x3dec44df	0.115365736
48	0x3de25605	0.11051563
49	0xbe194855	-0.14968999
50	0x3dab9c44	0.08379415
51	0xbdb64fbc	-0.08901927
52	0x3c8b2640	0.016986012
53	0x3df3d68e	0.119061574
54	0xbe100620	-0.14064837
55	0x3b905e09	0.004405741
56	0x3e4e2d4a	0.20134464
57	0x3d60b150	0.0548566
58	0x3d25870c	0.040411994
59	0x3d5f04fe	0.05444812
60	0xbe13eb9e	-0.1444535
61	0xbd8939c7	-0.06700473
62	0x3dda57d4	0.10661283
63	0x3d98efac	0.07467589
64	0xbe2c693c	-0.16837019
65	0xbda9580f	-0.08268749
66	0x3c35fb67	0.011107302
67	0x3d70f03f	0.058822867
68	0xbd0f89e5	-0.035043616
69	0xbce39a15	-0.027783433
70	0xbd6ff9f5	-0.058587987
71	0x3cd59e50	0.026076466
72	0xbdced40c	-0.100990385
73	0xbe5069d0	-0.20352864
74	0xbd778f3f	-0.060439344
75	0xbd7c70c1	-0.061630968
76	0xbe45aac3	-0.19303422
77	0xbcab2a2c	-0.020894133
78	0xbd0cd4e2	-0.03438271
79	0xbc995abe	-0.018720027
80	0xbd88b776	-0.066756174
81	0x3e3dc56f	0.18532346
82	0x3e23091e	0.15921447
83	0x3d53ef22	0.051741727
84	0xbdb97904	-0.09056285
85	0x3e1dfd0b	0.1542856
86	0xbc3bb3d1	-0.011456446
87	0xbe11f498	-0.14253461
88	0xbe6e3378	-0.23261821
89	0x3d235c41	0.039882902
90	0x3cf687f5	0.030094126
91	0xbdd0896d	-0.10182462
92	0xbc47898a	-0.012178788
93	0xbd954ed9	-0.072904296
94	0xbe395bc8	-0.18101418
95	0xbb6adb45	-0.0035836261
96	0xbd7adbfd	-0.061244953
97	0x3e0c9fde	0.1373286
98	0x3c269a4e	0.010168625
99	0xbdcbdc49	-0.099541254
100	0x3bf1f8a7	0.007384378
101	0xbd111ade	-0.035426013
102	0x3ca08555	0.019594828
103	0xbd87f550	-0.066385865
104	0x3bbc1b42	0.005740554
105	0x3da4085c	0.08009407
106	0xbddb8566	-0.10718803
107	0xbdbf5b22	-0.09343554
108	0xbd8e1e03	-0.06939318
109	0xbddbb948	-0.10728699
110	0xbcf210c6	-0.029549014
111	0xbd35dcdb	-0.044400077
112	0x3c31e3ea	0.010857562
113	0x3d6a659a	0.0572258
114	0x3dafad82	0.08578016
115	0xbd1c7baf	-0.03820389
116	0x3dc0d8aa	0.094163254
117	0xbd841b1b	-0.064504825
118	0xbd36d298	-0.04463443
119	0x3c5bca3d	0.013414917
120	0xbd818bb3	-0.06325474
121	0x3e2e2dfb	0.17009728
122	0x3dfe357c	0.12412545
123	0x3ba697be	0.005084007
124	0x3d8c98f0	0.06865108
125	0x3d3d58c2	0.046227224
126	0xbc8293a4	-0.015939541
127	0x3d89b87b	0.0672464
128	0x3dde7cd7	0.10863655
129	0x3d2ebee4	0.042662516
130	0x3d271c51	0.04079849
131	0xbcd031f3	-0.025414443
132	0xbe135adb	-0.14390127
133	0xbdfd6635	-0.1237301
134	0xbd0cd524	-0.034382954
135	0xbc8529be	-0.016255256
136	0x3ceef618	0.029170081
137	0xbdd8b0c6	-0.10580592
138	0xbd6493e8	-0.055805117
139	0x3cdb954b	0.026804587
140	0xbda22c5f	-0.07918619
141	0xbd8669e6	-0.06563167
142	0xbd566b9b	-0.052348714
143	0xbcdce31b	-0.026963761
144	0x3c7b1ab3	0.01532619
145	0x3cc92849	0.024555342
146	0xbd7b0de5	-0.061292548
147	0xbdb984dd	-0.09058545
148	0xbc65f7c3	-0.014036122
149	0xbd1a2423	-0.03763212
150	0x3d9571fe	0.07297133
151	0x3e88232b	0.2658933
152	0xbb2b764f	-0.0026163047
153	0x3df7536c	0.12076458
154	0xbdcbb219	-0.09946079
155	0x3cae4808	0.021274582
156	0x3da87e6d	0.08227239
157	0x3cb2c018	0.021820113
158	0x3d54d78d	0.051963378
159	0xbdfaca1d	-0.12245581
160	0x3b9cd1e7	0.0047857645
161	0xbcb3a890	-0.021930963
162	0x3d9bc1f0	0.0760535
163	0x3e42064d	0.18947716
164	0xbdcd2a70	-0.1001786
165	0xbd67ccd7	-0.056591835
166	0xbd91a107	-0.07110792
167	0xbd82165f	-0.06351923
168	0xbe39c268	-0.18140566
169	0x3d081476	0.033222638
170	0x3d15ada7	0.03654256
171	0xbc523c4a	-0.012831757
172	0xbdab23ad	-0.08356414
173	0xbd380a3e	-0.044931643
174	0xbda874c0	-0.08225393
175	0x3d134730	0.03595656
176	0x3da62001	0.08111573
177	0x3d316f4d	0.043319035
178	0xbe86d48a	-0.2633403
179	0xbe05816b	-0.1303765
180	0x3cd4d11d	0.02597862
181	0xbd671f7a	-0.056426503
182	0xbbd1c7e8	-0.0064020045
183	0x3b642bfd	0.0034816258
184	0x3bed5b2e	0.0072435355
185	0xbe2bfc7f	-0.16795538
186	0xbd837548	-0.06418854
187	0x3db8dcd0	0.09026492
188	0x3d66131f	0.05617058
189	0xbde2083a	-0.11036725
190	0xbabc8808	-0.0014383802
191	0xbcccabfd	-0.024984354
192	0xbe064e40	-0.13115788
193	0xbcd2450f	-0.025667695
194	0xbc2d079a	-0.010560894
195	0xbbf3bf2a	-0.00743856
196	0xbd013a7e	-0.031549923
197	0x3cec0c88	0.02881457
198	0xbd4b7044	-0.04966761
199	0xbe05707a	-0.13031188
200	0xbd1be48c	-0.038059756
201	0x3d61496c	0.05500166
202	0xbd2d136e	-0.042254858
203	0x3ddcf48c	0.10788831
204	0x3c22b25e	0.009930221
205	0x3d15f38e	0.036609225
206	0x3d58612f	0.052827056
207	0x3da1611f	0.078798525
208	0x3d954500	0.07288551
209	0xbe023790	-0.12716508
210	0x3e31ce9b	0.1736397
211	0xbace8c97	-0.0015758452
212	0x3d4bafc0	0.049728155
213	0x3e728363	0.23682933
214	0xbddb805f	-0.10717844
215	0xbd58db19	-0.052943323
216	0x3db67752	0.08909477
217	0xbdcdea86	-0.100544974
218	0xbe41a940	-0.1891222
219	0xbd56d98b	-0.05245356
220	0x3dfa20aa	0.122132614
221	0xbdb593bd	-0.088660695
222	0x3d91a9d4	0.0711247
223	0x3d2f720a	0.042833365
224	0xbcd644a3	-0.026155775
225	0x3d84f52b	0.064920746
226	0xbd38521c	-0.04500018
227	0xbdc6d240	-0.09708071
228	0xbd189bd9	-0.037258003
229	0x3daaaac3	0.083333515
230	0x3ceffc0e	0.029294994
231	0x3de3a28a	0.11114986
232	0xbe0a618d	-0.13513775
233	0x3dd240cf	0.102662675
234	0xbdb9f6b1	-0.09080256
235	0x3dbac448	0.09119469
236	0xbdf0491f	-0.11732697
237	0xbc503d48	-0.012709923
238	0xbd99f3a9	-0.075171776
239	0x3dfb4eb9	0.122708745
240	0x3daa1d85	0.08306412
241	0x3dfd8f91	0.12380899
242	0x3daec677	0.08533948
243	0x3d6f42ea	0.058413424
244	0xbd76f312	-0.060290404
245	0xbd5d6c47	-0.05405834
246	0xbc9d7f77	-0.019225819
247	0x3d4bbb70	0.0497393
248	0xbd309cbf	-0.043118235
249	0xbe1a58cb	-0.15072934
250	0x3c8ce782	0.017200235
251	0x3ccf87fd	0.025333399
252	0xbc813d4a	-0.015776295
253	0xbe10bf56	-0.14135489
254	0xbe0b705e	-0.13617083
255	0x3c09d50b	0.00841261

decoder.weight_hh_l0 f4 [512, 128]
0	0xbdfe2895	-0.12410084
1	0x3d80d700	0.06291008
2	0x3de4b1fb	0.111667596
3	0xbe0414d1	-0.12898566
4	0xbd4bb957	-0.0497373
5	0xbc7da343	-0.015480819
6	0xbd83d22c	-0.064365715
7	0xbdcade77	-0.09905713
8	0x3d8777dd	0.06614659
9	0xbd12659d	-0.035741437
10	0xbe5af771	-0.21383454
11	0x3c76d965	0.015066479
12	0x3cd4a2db	0.025956562
13	0x3dbe2fe9	0.09286482
14	0xbc687ba9	-0.014189639
15	0xbd6cf356	-0.05784925
16	0x3d993b9a	0.07482071
17	0xbd5eb93d	-0.054375876
18	0x3cc4d760	0.02402848
19	0x3d82b15a	0.063814834
20	0x3d833312	0.06406225
21	0xbd0d2027	-0.03445449
22	0xbccd2503	-0.025042063
23	0x3d27cb7c	0.040965542
24	0x3dfb4462	0.12268902
25	0x3cacab17	0.021077676
26	0x3d165097	0.03669795
27	0xbde1546f	-0.110024326
28	0x3c684303	0.014176133
29	0x3da6c847	0.081436686
30	0x3d4df96e	0.050286703
31	0x3dc682fa	0.096929505
32	0xbd55d29f	-0.052202817
33	0x3e362b14	0.1778987
34	0xbd074542	-0.033025034
35	0xbb87de4a	-0.004146372
36	0xbd388300	-0.045046806
37	0xbddc2d62	-0.107508436
38	0xbbe66913	-0.007031569
39	0xbc195f69	-0.009361126
40	0x3dc301f4	0.09521857
41	0xbc4b6b45	-0.012415712
42	0xbc649cbb	-0.013953383
43	0x3cbd8a25	0.023137162
44	0xbccd7974	-0.025082327
45	0x3d19e3c8	0.037570745
46	0x3d469587	0.048482444
47	0x3da984e9	0.08277304
48	0xbc11dcda	-0.008902753
49	0xbdeed361	-0.11661411
50	0x3d24380d	0.040092517
51	0x3d0d347f	0.034473892
52	0x3df5b1c6	0.11996798
53	0xbd7629db	-0.06009851
54	0xbd0c7abc	-0.034296736
55	0xbcf812a6	-0.03028233
56	0x3db63a9a	0.08897896
57	0x3ca0f701	0.01964903
58	0x3da89053	0.08230653
59	0xbc4ebc5b	-0.01261815
60	0xbdd1e16b	-0.10248073
61	0x3d84adeb	0.06478485
62	0x3dc6b556	0.09702556
63	0x3c0ee80e	0.008722318
64	0xbd79129a	-0.060808755
65	0xbd94d7b8	-0.072677076
66	0xbb0772b5	-0.0020667736
67	0xbbbed378	-0.005823549
68	0xbe32527f	-0.17414282
69	0x3ba86583	0.0051390543
70	0x3d4115be	0.047139876
71	0xbcad798c	-0.021176122
72	0x3c5a631a	0.013329292
73	0xbe32c662	-0.1745849
74	0xbd8ee0aa	-0.06976445
75	0xbdc885a8	-0.09791118
76	0xbd5166b1	-0.051123325
77	0xbc22a882	-0.009927871
78	0xbe099dba	-0.13439074
79	0x3d1294ac	0.035786316
80	0xbcddcdc5	-0.027075658
81	0x3d608e76	0.05482336
82	0x3d8b7151	0.06808723
83	0x3d50b550	0.050954163
84	0xbd51e01e	-0.051239125
85	0xbaa5ccba	-0.0012649514
86	0xbc5bdab4	-0.013418842
87	0x3cbbe7ac	0.022937618
88	0x3a7680a6	0.00094033254
89	0xbd39ac2b	-0.045330208
90	0x3db50df2	0.088405505
91	0x3d86f235	0.06589166
92	0xbc9b8761	-0.018985452
93	0xbc8d0fe5	-0.017219493
94	0x3d65d7ad	0.056113888
95	0x3dad692d	0.08467326
96	0xbd28a783	-0.041175377
97	0xbd923eb6	-0.071408674
98	0x3db084fd	0.086191155
99	0xbdbac789	-0.091200896
100	0x3d20c4a7	0.039250042
101	0x3ca61e5e	0.020278152
102	0x3caee92d	0.021351421
103	0xb8a73da2	-7.9746605e-05
104	0xbcead891	-0.02866772
105	0x3ddc25b1	0.107493766
106	0x3d3a4808	0.04547885
107	0x3d45f964	0.04833354
108	0xbdd31bb3	-0.103080176
109	0x3ca795b3	0.020457124
110	0x3bc5423d	0.006019859
111	0x3e028d70	0.12749267
112	0x3d603df2	0.054746576
113	0xbd22e544	-0.039769426
114	0x3d77d0a4	0.06050171
115	0x3d4365d6	0.04770454
116	0xba10cca9	-0.0005523661
117	0x3d3651da	0.044511653
118	0x3d71f9de	0.059076183
119	0x3d52996f	0.051415857
120	0x3d8bb28c	0.068211645
121	0xbe0f7b1d	-0.14011808
122	0xbd82afe4	-0.06381205
123	0x3d4e1057	0.05030855
124	0xbd12b563	-0.035817515
125	0xbcc118f9	-0.023571478
126	0xbd0ebf61	-0.034850482
127	0xbd3b91ee	-0.045793466
128	0x3df236c0	0.11826849
129	0x3d02fc25	0.031978745
130	0xbd733052	-0.059372254
131	0x3cbf0515	0.023317853
132	0xbdfc724d	-0.12326489
133	0xbd3e2ee8	-0.046431452
134	0x3c2f750e	0.01070906
135	0x3a6caf7e	0.0009028836
136	0x3dd64c72	0.104637995
137	0xbca93c83	-0.020658737
138	0xbc074a72	-0.008257495
139	0xbdd7a6a1	-0.10529829
140	0xbd84eec4	-0.064908534
141	0x3cb86215	0.022507707
142	0xbceaf26d	-0.02868005
143	0x3d89e742	0.06733562
144	0xbe0a7a61	-0.13523246
145	0xbc03e18d	-0.008049381
146	0x3d807e2c	0.062740654
147	0x3c4690df	0.012119501
148	0x3da627b9	0.08113045
149	0xbd99fa16	-0.07518403
150	0xbbcdc226	-0.006279248
151	0xbb090171	-0.00209054
152	0xbd30982e	-0.04311388
153	0x3df871be	0.121310696
154	0xbdcc39e4	-0.09971979
155	0x3d359975	0.0443358
156	0x3d685ccb	0.05672912
157	0x3d803e96	0.06261937
158	0xb9b57bf2	-0.00034615357
159	0x3d967551	0.07346595
160	0xbd5511e1	-0.052019004
161	0x3d806b7f	0.06270503
162	0xbdceb2a9	-0.100926705
163	0x3c613fc3	0.013748112
164	0xbcd8a407	-0.026445402
165	0x3d961709	0.07328612
166	0x3d6cd7cf	0.057823
167	0x3d5aff43	0.053466093
168	0x3d6cb4aa	0.057789482
169	0xbd9644a7	-0.07337313
170	0x3d715bf9	0.058925603
171	0x3d03180a	0.032005347
172	0xbcf5202d	-0.02992257
173	0x3da37184	0.07980636
174	0xbd442720	-0.047888875
175	0xbdbd0aed	-0.092305996
176	0xbc11db1a	-0.008902336
177	0x3d26d0a8	0.040726334
178	0xbca8f696	-0.020625394
179	0x3ca9c171	0.020722123
180	0xbd044e16	-0.03230103
181	0x3b192abd	0.0023371421
182	0xbb5142f6	-0.003193078
183	0x3ddac51a	0.106821254
184	0x3dfd24ae	0.12360512
185	0x3d8c35a9	0.06846172
186	0xbc5d0e13	-0.013492125
187	0x3da0a24e	0.07843457
188	0xbd8d7b09	-0.06908233
189	0x3dfc3644	0.12315038
190	0x3d2e3b3f	0.04253697
191	0xbdaff0bc	-0.08590838
192	0xbd3184c1	-0.043339495
193	0x3d391f8d	0.045196105
194	0x3d1dec84	0.038555637
195	0xba2a2c42	-0.000649158
196	0xbd840bf8	-0.06447595
197	0xbd17bcf3	-0.03704543
198	0xbd3a5e26	-0.045499943
199	0x3c719f86	0.014747506
200	0x3df73028	0.12069732
201	0xbb098945	-0.002098636
202	0xbd54ff11	-0.052001063
203	0xbd350b47	-0.044200208
204	0xbd848742	-0.06471111
205	0xbd0a1633	-0.033712577
206	0xbd55ebc0	-0.05222678
207	0x3d11ab47	0.035563733
208	0xbd7dcfb6	-0.061965667
209	0xbd430779	-0.04761455
210	0xbda23a06	-0.07921223
211	0xbd84a150	-0.064760804
212	0xbd0e0b7a	-0.034678914
213	0xbcc4a2f6	-0.024003487
214	0x3de3e094	0.11126819
215	0xbd8d5474	-0.06900874
216	0x3cafe5fc	0.02147197
217	0xbd6c125c	-0.057634696
218	0xbd9917c4	-0.07475236
219	0x3d856445	0.065132655
220	0x3cc2e2cd	0.023789788
221	0xbd335ffa	-0.043792702
222	0x3bb77b2c	0.0055994
223	0x3c5f980a	0.013647089
224	0x3d83e5f6	0.06440346
225	0x3bf34c45	0.0074248635
226	0xbdb5641e	-0.088569865
227	0x3d2fa400	0.042881012
228	0xbdb7f110	-0.08981526
229	0x3b1ed9a0	0.0024238601
230	0xbd7d8d26	-0.061902188
231	0xbd54c653	-0.05194695
232	0x3d9237c8	0.07139546
233	0xbc9f550b	-0.019449731
234	0xbdfac84a	-0.12245233
235	0xbd80ce9a	-0.06289406
236	0xbd8faaf1	-0.07015026
237	0xbbba9cc4	-0.0056949575
238	0x3cd4cbfd	0.025976175
239	0x3b980e7c	0.0046403985
240	0x3d612921	0.054970864
241	0x3d5af2f8	0.05345437
242	0xbc5d1679	-0.013494127
243	0xbd24a74a	-0.0401986
244	0x3cda3d55	0.026640574
245	0xbd03fdd9	-0.03222451
246	0xbe82e03f	-0.2556171
247	0x3d8a4485	0.0675135
248	0xbdaccb65	-0.08437232
249	0xbd253de7	-0.040342238
250	0xbc9a2910	-0.018818408
251	0x3ddbb517	0.107278995
252	0xbcd6ea27	-0.0262347
253	0xbdc8ecd4	-0.098107964
254	0xbdc3d13a	-0.09561391
255	0x3cfb690e	0.030689742

decoder.bias_ih_l0 f4 [512]
0	0xbce3096d	-0.027714456
1	0x3e10a2a6	0.14124545
2	0x3e0b0e14	0.13579589
3	0xbbd455be	-0.006479948
4	0xbcf83100	-0.030296803
5	0x3e437502	0.19087604
6	0x3cc4e827	0.02403648
7	0xbc0c2ad3	-0.008555132
8	0x3dc3e5c9	0.095653124
9	0x3cdb8c4f	0.026800303
10	0x3d8d1d2a	0.06890328
11	0x3dbdaea1	0.092618234
12	0x3d1ef8ff	0.03881168
13	0x3d8833f1	0.06650532
14	0x3d80741a	0.062721446
15	0x3c0a5c0c	0.008444797
16	0x3c996c3e	0.018728372
17	0x3db2b42a	0.0872577
18	0x3bb24fbd	0.0054416345
19	0xbd6e51b3	-0.058183383
20	0x3c8bff12	0.0170894
21	0xbd8230b6	-0.06356947
22	0x3d9578e5	0.072984494
23	0x3e181a36	0.14853749
24	0x3d9b6686	0.07587914
25	0x3bc8a218	0.0061228387
26	0xbd5fa854	-0.05460389
27	0xba8a2dfa	-0.0010542267
28	0x3db6859c	0.08912203
29	0x3d877a60	0.06615138
30	0x3df83fcd	0.12121544
31	0xbb5c8895	-0.0033650745
32	0x3d480718	0.04883489
33	0x3e0e3eeb	0.13891189
34	0x3daec83b	0.08534285
35	0x3d8bf296	0.06833379
36	0xbd089708	-0.03334716
37	0x3dcf2217	0.10113924
38	0x3d84d626	0.06486158
39	0x3bb9a35c	0.005665226
40	0x3d4d055a	0.05005393
41	0x3e01511a	0.12628594
42	0xbc2fe985	-0.010736828
43	0xbc09d52d	-0.0084126415
44	0x3d82c13d	0.063845135
45	0xbd7cf91b	-0.061761003
46	0xbe0a36ab	-0.13497417
47	0xbd5a3464	-0.05327262
48	0x3dd0a640	0.1018796
49	0x3db55584	0.088542014
50	0xbba35c9f	-0.0049854065
51	0x3d257acb	0.040400308
52	0x3e0965a7	0.13417684
53	0xbb89c842	-0.004204781
54	0x3c8882ef	0.016663997
55	0xbd5f0f00	-0.054457664
56	0x3ca95d9e	0.020674523
57	0x3e1ea9cf	0.15494464
58	0x3d78babe	0.060724966
59	0xbd447726	-0.04796519
60	0x3d77066a	0.06030885
61	0x3da01ca2	0.07817961
62	0x3d95ba29	0.07310898
63	0x3cc4c7c1	0.024021031
64	0x3def271d	0.11677382
65	0xbd93af19	-0.072111316
66	0x3d6f0c68	0.05836144
67	0x3d59ca95	0.053171713
68	0xbb3e8be5	-0.0029075083
69	0x3d1a517f	0.037675377
70	0x3dcfcce9	0.101465054
71	0xbc555b25	-0.013022219
72	0x3d9d8893	0.07692065
73	0x3d6f2db3	0.05839319
74	0x3e3c750b	0.18404023
75	0x3e17232a	0.14759508
76	0xbc1275a3	-0.00893918
77	0x3debd1c6	0.115146205
78	0x3db38eb9	0.087674566
79	0xbce1ad6b	-0.027548512
80	0xbd60ee91	-0.054915015
81	0x3aaa2add	0.0012982745
82	0x3cb190bf	0.021675466
83	0x3d4bce2d	0.04975717
84	0x3e0a973f	0.13534258
85	0x3df67fb3	0.120360754
86	0x3dc338ad	0.095322944
87	0x3c7daede	0.015483586
88	0x3d005f6f	0.031341013
89	0x3dc664a4	0.096871644
90	0x3ca825fe	0.020525929
91	0x3d787306	0.06065657
92	0x3d0c5827	0.034263756
93	0xbcc3baea	-0.023892839
94	0x3e0102e5	0.1259876
95	0xbc8c1acd	-0.017102623
96	0x3d346e28	0.044050366
97	0xbd7ae987	-0.061257865
98	0x3d8efa71	0.06981362
99	0x3cd2fc22	0.025754992
100	0x3d3ceafc	0.046122536
101	0x3d0e3f5a	0.034728386
102	0x3c780ab8	0.015139274
103	0x3d1ef3cc	0.03880672
104	0x3d95a019	0.07305927
105	0x3cd385f7	0.025820715
106	0x3db7aef0	0.089689136
107	0x3e11b338	0.14228523
108	0x3c896df9	0.016776072
109	0xba95fc4b	-0.0011442987
110	0x3ce86e9f	0.02837306
111	0x3d4f5b4e	0.050624184
112	0x3d4245b1	0.047429744
113	0xbc8d10d8	-0.017219946
114	0x3d45b2a2	0.04826606
115	0x3d11fcf7	0.035641637
116	0x39b8066a	0.00035099994
117	0xb9ad1696	-0.0003301396
118	0x3d44fc19	0.04809198
119	0xbd9ef0d3	-0.07760777
120	0xbdc01304	-0.09378627
121	0x3e463bbf	0.19358729
122	0xbda67859	-0.08128423
123	0xbda3943e	-0.07987259
124	0x3da3937e	0.07987116
125	0x3d82fe25	0.063961305
126	0x3dc8b382	0.097998634
127	0xbd22eeb3	-0.039778423
128	0x3cef3cf3	0.029203868
129	0x3c1964ec	0.009362441
130	0x3ddd8c3c	0.10817763
131	0x3c6cece3	0.014460775
132	0xbd8d90c6	-0.06912379
133	0x3e15dd38	0.1463517
134	0x3dabb088	0.0838328
135	0x3bb44767	0.005501676
136	0x3bde3841	0.0067816083
137	0xbbc905e7	-0.006134737
138	0xbce733b5	-0.028222898
139	0x3c9dccf5	0.01926277
140	0x3c4b16bf	0.01239556
141	0x3d9ebdf6	0.07751076
142	0xbc6d66c5	-0.014489834
143	0x3d9dc00a	0.07702644
144	0xba8cd2d9	-0.001074399
145	0x3cc35436	0.023843866
146	0x3c95a713	0.018268144
147	0xbca738ef	-0.02041289
148	0x3b60b19b	0.0034285549
149	0xbccd790b	-0.025082132
150	0x3dc6b566	0.09702568
151	0xbc598716	-0.013276836
152	0x3bd9cec6	0.006646964
153	0x3dedc8e0	0.116105795
154	0x3d898177	0.067141466
155	0x3dd3bde2	0.10338952
156	0x3d7f8715	0.062384684
157	0xbdc6b934	-0.097032934
158	0xbd2651a4	-0.040605202
159	0x3ce3a7af	0.027789919
160	0xbc48b3f8	-0.012249939
161	0x3d509d18	0.050931066
162	0xbc2bdb78	-0.010489337
163	0x3ace239b	0.0015727164
164	0xbdc2d1be	-0.095126614
165	0x3d8e5445	0.06949667
166	0x3d1cddf1	0.038297597
167	0x3d5f4f5d	0.054519046
168	0x3dcda48a	0.10041149
169	0x3d035346	0.032061838
170	0x3da5093e	0.080584034
171	0x3dee544b	0.11637171
172	0xbc8b83f6	-0.017030697
173	0x3d74d9f1	0.059778158
174	0xbd39cea9	-0.045363102
175	0x3dc3c53c	0.09559104
176	0xbb93fd96	-0.004516314
177	0x3df45c82	0.11931707
178	0xbd43b769	-0.047782335
179	0x3da2032f	0.079107635
180	0xbadd2d87	-0.001687453
181	0x3ce858ed	0.028362716
182	0xbd900c1a	-0.07033558
183	0x3cc6c5bd	0.02426421
184	0xbc61c5e4	-0.013780091
185	0x3e0a5dcd	0.13512345
186	0x3d4f4d5a	0.050610878
187	0x3dbca0d9	0.09210367
188	0xbcb6cb40	-0.022313714
189	0x3c8f5a0b	0.01749899
190	0x3d500dcd	0.05079441
191	0x3cbcff77	0.023071034
192	0x3dc611d5	0.0967137
193	0xbc911bee	-0.017713513
194	0xbd6eba9d	-0.058283437
195	0xbd85f70f	-0.06541263
196	0xbd1a48a5	-0.037666935
197	0x3bcec497	0.0063100564
198	0xbcb8c6da	-0.022555757
199	0x3d1932bd	0.037401903
200	0xbd30ddde	-0.04318034
201	0x3ccc6891	0.024952205
202	0x3d5b3693	0.053518843
203	0x3ddbce40	0.107326984
204	0xbdbf8d53	-0.09353127
205	0xbcbde06b	-0.0231783
206	0xbd32463f	-0.043524023
207	0x3dd7b665	0.10532836
208	0xbd12c1ad	-0.035829235
209	0x3d10a7fb	0.03531645
210	0x3d934009	0.07189948
211	0x3d489d7a	0.048978306
212	0xbcd4d96a	-0.025982577
213	0xbd31f4e7	-0.043446448
214	0x3d04c97e	0.03241872
215	0x3d1efe39	0.038816664
216	0xbcb8de78	-0.022567019
217	0xbd4604fa	-0.04834459
218	0x3cfd64f5	0.03093193
219	0x3dce9370	0.10086715
220	0x3dcc951c	0.09989378
221	0xbd6527d8	-0.0559462
222	0x3dce717a	0.10080238
223	0x3dc064cf	0.09394228
224	0x3d66f6e9	0.056387816
225	0x3a91c8ef	0.0011122505
226	0x3c5da54f	0.013528182
227	0x3d845c51	0.064629205
228	0xbd5a27c1	-0.05326057
229	0xbc49297c	-0.012277957
230	0x3db7ad17	0.08968561
231	0x3d670fbc	0.05641149
232	0xbd67d060	-0.056595206
233	0xbd672b98	-0.05643806
234	0xbcba6434	-0.022752859
235	0x3da5496f	0.08070647
236	0xbd5c744d	-0.05382185
237	0x3cd00560	0.025393188
238	0xbd8a5695	-0.067547955
239	0xbc555e82	-0.013023021
240	0xbd9122e9	-0.07086737
241	0x3d3da15b	0.04629646
242	0x3ded18ba	0.11576982
243	0xbd997f19	-0.07494945
244	0xbbae8daf	-0.0053269486
245	0xbd924490	-0.071419835
246	0x3cfaee5d	0.030631239
247	0x3db7cd9c	0.08974764
248	0xbb9b85e7	-0.004746187
249	0x3d5a3304	0.05327131
250	0x3b9022f9	0.0043987003
251	0xbd2593c3	-0.04042412
252	0x3da04e9c	0.078274935
253	0xbd589596	-0.05287703
254	0xbd8d8e2f	-0.06911885
255	0x3ce34fea	0.027748067
