output/mnist/models/lstm_autoencoder_mnist.pth (torch, 870015 bytes, 9 tensors)

encoder.weight_ih_l0 f4 [512, 28]
000000 b5 f3 60 bd ce 6a 48 bd 9d 05 5c 3d 1d 0e 26 3e
       -0.054919917 -0.048929982 0.05371629 0.16216321
000010 8a 11 db bd 25 6a 8f bd 93 c4 d9 3d 6b 10 a6 3d
       -0.10696705 -0.07002667 0.10633197 0.081086
000020 29 ce d0 bc 62 be 08 3d a1 da c2 3d 76 47 63 bd
       -0.02548893 0.03338469 0.095143564 -0.055488072
000030 8f cd 52 3d b1 d7 2f 3d 75 e2 bc 3b c1 b8 05 3d
       0.051465567 0.04293031 0.0057643005 0.0326469
000040 bb 99 8b 3d 99 9d fe 3d 59 2d 8d 3d 7f 76 f2 3d
       0.06816431 0.12432403 0.06893415 0.118390076
000050 3e 90 53 3c a2 ea 48 3c 1b 40 c0 3d 4f 55 a5 3d
       0.012912808 0.012262972 0.09387227 0.08072912
000060 e3 b6 9e 3d 14 96 4b 3d 12 40 1c bd 81 7d 9b bd
       0.077497266 0.049703673 -0.03814704 -0.07592297
000070 1f 7b f8 3c c8 9b db 3d ed eb 33 3c ea f1 dc 3c
       0.030332146 0.10723072 0.010981542 0.026970822
000080 27 7b 0c bd 85 cd 31 3d b8 85 2c 3d 4d e7 0d 3e
       -0.034297135 0.04340889 0.04211971 0.13857765
000090 94 2b d4 3d 1b ff f0 3d 97 db 86 3d ce aa b1 3d
       0.10359874 0.117674075 0.06584852 0.086751565
0000a0 7a 6e 4b bb 1f c4 07 bc 0c 3a d0 3d b5 40 e5 3d
       -0.003104119 -0.008286505 0.101673216 0.111939825
0000b0 0f 0b 05 3e 40 24 da 3d 06 27 77 3d 81 a0 e6 bc
       0.129925 0.106514454 0.06033995 -0.028152706
0000c0 f8 81 ba bc 4f b8 02 3e 20 af d5 3d 38 8f ab 3d
       -0.022767052 0.1276562 0.10433793 0.08376926
0000d0 6c 98 11 3e 15 18 7b 3d f2 92 a5 bd 8e be 0f be
       0.142183 0.061302263 -0.08084668 -0.14037535
0000e0 61 a2 1b bd 99 76 8b bd 7f ab 81 bd 3a 71 5e bd
       -0.037996653 -0.0680973 -0.063315384 -0.0543072
0000f0 e6 8d 10 3d b9 56 5c 3b 1a 5c 57 bc 6b df 32 bd
       0.035291575 0.0033621027 -0.013144517 -0.0436701
000100 6f 36 c6 3b 70 ce 9c bd 76 4e 80 3d c6 f8 39 3d
       0.0060489695 -0.07656562 0.06264965 0.045403264
000110 5c da b0 3d 79 24 07 3e e8 82 4c 3d 8c 60 20 bd
       0.08635399 0.13197507 0.04992953 -0.039154574
000120 78 07 b8 bb 95 f6 f0 bd 67 79 24 3d d6 ff 12 3c
       -0.0056161247 -0.11765782 0.04015484 0.008972129
000130 be 55 e6 3c b5 e4 6e 3c 41 83 d0 bc e3 64 5a 3c
       0.028117057 0.014580895 -0.025453212 0.013329717
000140 96 90 21 bd 96 67 b0 3d ea fe 1c 3e bf 54 bb bd
       -0.03944453 0.086135074 0.15331617 -0.091470234
000150 b5 42 1e bc 04 ba d3 bd 05 94 b2 bd b2 de 9d be
       -0.009659459 -0.10338214 -0.08719639 -0.30833966
000160 98 21 8e be d9 30 11 bd 05 f3 00 bc 37 01 95 bd
       -0.27760005 -0.035446975 -0.00787044 -0.07275622
000170 4f b4 6b bd 4b 5e 65 3b cc 6b 96 3d fe de 04 bd
       -0.057545003 0.003499883 0.07344779 -0.032439224
000180 3d fc 3c 3d cc 38 bb 3d 32 26 08 bd 1f f3 63 3d
       0.04613899 0.091416925 -0.03323955 0.05565178
000190 6a 57 b9 3d e4 2e f2 3d 25 f7 c7 3d b4 9d d4 3c
       0.09049876 0.1182535 0.09763936 0.025954105
0001a0 9d 4e 0c 3e c9 50 fa bc c0 ce 0f 3e 0d 7a f4 3c
       0.13701864 -0.0305561 0.14043713 0.029843355
0001b0 25 94 cd 3d aa 68 85 3d fa 59 58 be fd fd 41 bc
       0.10038022 0.06514104 -0.21128073 -0.011840341
0001c0 41 91 dc bd 13 a6 16 be 8e 37 75 bc 35 45 88 bd
       -0.107698925 -0.1471179 -0.014966859 -0.06653825
0001d0 e2 e9 28 3d c6 fc 74 bd 92 8d a4 bd 19 e5 16 bc
       0.041238673 -0.059811376 -0.08034815 -0.009209895
0001e0 b8 a0 b9 bd 31 5e 59 3d 40 3f 8f bd 52 fb be 3d
       -0.09063858 0.053068344 -0.06994486 0.09325279
0001f0 ba 32 51 3c 4f 07 bc bc 1d d0 79 3c 10 ef 0b 3d
       0.012768442 -0.022952704 0.015247372 0.034163535
000200 d6 32 05 bd 22 72 69 bd 72 39 e4 bc dd fd b3 3d
       -0.032519184 -0.05699361 -0.027859423 0.08788655
000210 ef 47 b3 bd 2c 20 d8 bd bb b6 e9 bd 62 2f 96 bd
       -0.087539546 -0.10553011 -0.11411806 -0.07333256
000220 42 82 fe bc f9 8b f3 bd e1 b3 8d bc b0 5e 76 bc
       -0.031067971 -0.11891932 -0.017297687 -0.015037224
000230 2f 61 1e be b2 15 5d 3d e0 49 59 bd 3d 11 a0 bd
       -0.1546676 0.05397577 -0.05304897 -0.07815788
000240 3a e2 c5 bc 85 e9 b7 3d b7 26 ff 3c 5c 7e 28 3d
       -0.024155725 0.08980087 0.03114639 0.04113613
000250 47 7d 49 bd 18 43 1a bd 7b 4e 62 bd ae 3d 61 3d
       -0.04919174 -0.03766164 -0.055250626 0.054990463
000260 37 21 a1 bd aa 3b 1b 3d 52 9a 04 3e b1 bd 4f 3c
       -0.07867663 0.037898697 0.12949494 0.012679503
000270 7c d2 e4 3c de b4 6b 3d f6 ee 53 bc e2 d0 27 bc
       0.027932398 0.057545535 -0.012935391 -0.010242673
000280 14 49 a4 bd 57 57 b3 bc 27 55 c4 bd bf e0 3d bd
       -0.08021751 -0.021892233 -0.09586554 -0.046356913
000290 39 da fe bd 95 39 2f be d8 e9 08 be 4b e1 01 3e
       -0.124439664 -0.1711181 -0.13370454 0.12683599
0002a0 35 53 a8 3c 9e 79 a2 3b 64 9c 6a 3d 41 2d 04 bc
       0.020547489 0.0049583456 0.057278052 -0.00806743
0002b0 62 c4 c1 bd 0a 47 d7 3d c2 79 ae 3d 47 38 cf bc
       -0.09461285 0.105115965 0.08519317 -0.02529539
0002c0 61 9b 35 ba 94 68 c9 bd 69 b2 3c 3d e0 d2 63 3d
       -0.00069277553 -0.098344 0.046068583 0.055621028
0002d0 0b 73 28 bd 5c 3b f4 3b e7 85 01 3e 88 c7 0f 3e
       -0.04112534 0.0074533653 0.12648736 0.14040959
0002e0 a9 63 8b bc 5d 7b 63 bd 47 bb 82 bd ba 30 82 bd
       -0.017015295 -0.05553757 -0.063833766 -0.0635695
0002f0 de 59 48 3d 7e f1 50 3d 0b 34 a2 3d d3 ca 60 bd
       0.04891383 0.051011555 0.07920083 -0.05488093
000300 c9 08 20 bd e5 ec 52 bd 45 51 2f be 20 1e 6f 3d
       -0.03907088 -0.05149545 -0.17120846 0.05837834
000310 94 52 28 3d da c2 f3 bc 57 57 c1 3d 74 f2 b1 3c
       0.041094378 -0.029755998 0.09440487 0.021722056
000320 f6 18 e0 bc 58 15 3b 3d 8c 03 27 3d 22 4d d4 bb
       -0.027355652 0.04567465 0.040774867 -0.0064789215
000330 ae bd 42 bd 7b e3 85 bd 1b c3 a1 bc 21 e5 78 bd
       -0.047544174 -0.06537529 -0.019746354 -0.06076539
000340 d7 92 a7 3d a5 73 71 3d 34 24 d1 3d 61 00 c8 3d
       0.08182304 0.058948178 0.10211983 0.09765697
000350 9f e0 be 3d 83 d9 90 3c 7a c9 66 3d f3 ef b8 3d
       0.09320187 0.017681843 0.056344487 0.09030142
000360 72 7d a9 3d e4 85 2e bd cc 11 bb 3d 53 41 6b 3c
       0.0827588 -0.042608157 0.09134254 0.014358836
000370 ef 44 85 3c 67 4c 1a 3e f0 2f 0e 3e 1f 83 1e bd
       0.016268222 0.15068208 0.13885474 -0.038699266
000380 69 12 e2 bd d2 10 f9 bd a4 82 13 bd f4 7c 6b bd
       -0.11038668 -0.12161411 -0.03601326 -0.05749221
000390 58 69 15 ba 85 54 6d bd 8d 97 5c 3c 5b cc 38 3d
       -0.00056995964 -0.057941932 0.013463867 0.045116764
0003a0 c8 ee 2e 3c 2b 43 e8 3d 2b d2 b5 3d 2b 03 0c 3e
       0.010677047 0.11340936 0.08877977 0.13673083
0003b0 3e 2b 95 3d ad ec b0 3d 2e 62 1b 3e 8b ec c9 bc
       0.072836384 0.08638892 0.15174171 -0.024648925
0003c0 e6 20 91 3d 6b fb ee 3d e2 48 34 3d 36 f3 49 3d
       0.07086353 0.11669048 0.04401482 0.04930421
0003d0 e7 c8 a0 3c 67 57 55 3d 9d 58 73 3c e1 95 ff 3d
       0.019627048 0.052085306 0.01485267 0.12479759
0003e0 49 94 24 3d c2 d4 ca bd 3a cf 06 be db 5b 92 3c
       0.04018048 -0.099038616 -0.13164988 0.017866066
0003f0 84 27 fc bb de b6 13 3d a4 e8 4d bd 81 11 01 bd
       -0.0076951403 0.036063068 -0.05027069 -0.031510834

encoder.weight_hh_l0 f4 [512, 128]
000000 88 70 cc 3d 9e 90 15 bc 01 7a bc 3d 6c 10 60 3d
       0.09982401 -0.009128718 0.09202958 0.05470316
000010 c0 15 ed 3c f9 b9 ba 3d 09 73 3c 3d 20 9b d3 3d
       0.028941035 0.09117503 0.046008144 0.10332322
000020 3b e8 a4 bc d7 b8 5c bd 4f 84 1d be b0 3a b7 3c
       -0.020130267 -0.053887215 -0.15382503 0.022366852
000030 19 10 b5 bd 3c 5c 48 bd fe 23 be 3d 25 68 2a bd
       -0.08840961 -0.048916087 0.09284209 -0.041603226
000040 56 2b 61 3d 59 f8 cb bc 48 f8 df 3d e3 2f 72 3c
       0.05497297 -0.024898695 0.10936028 0.014781925
000050 5d f3 ea 3d d7 79 f8 3c 02 1c 87 bd ba 2d 3f 3d
       0.11472199 0.030331535 -0.06597139 0.046674468
000060 ee c9 90 3d 92 33 0c be 26 31 55 3d 87 76 2b bd
       0.07069765 -0.13691548 0.052048825 -0.041861083
000070 f5 b7 5a 3d 78 3c 66 bc cf e2 ca bd 0e 2d 07 3d
       0.05339809 -0.014052503 -0.099065416 0.033001952
000080 b4 9c f1 3d 94 de 45 3d 2c 82 21 bc 73 1a 06 3c
       0.11797467 0.04830797 -0.009857696 0.008185017
000090 00 59 2e ba 00 24 91 3d 83 ad 9d 3a 5d 99 12 3e
       -0.0006650835 0.070869446 0.001202986 0.14316316
0000a0 6b 4e 08 3d 9b b1 d9 3d 3f 3f ca 3c 74 b4 d0 3c
       0.03327791 0.10629579 0.024688361 0.025476672
0000b0 e1 53 89 3e 07 da cd 3b cd bc a2 bd b7 ed a5 bd
       0.26821807 0.0062820944 -0.07946167 -0.08101981
0000c0 35 78 84 3c f9 15 81 3c 5e c0 4e 3d b6 60 d1 3c
       0.0161706 0.015757548 0.050476424 0.02555881
0000d0 22 d6 6f 3a 02 d8 97 bc bb d7 2a be 81 e6 13 be
       0.0009149035 -0.018535618 -0.16683857 -0.14443399
0000e0 67 3b b1 3d a2 cb c8 3c bd 90 9b bd f0 95 bd 3d
       0.08653908 0.024511162 -0.07595966 0.09257114
0000f0 06 b5 a2 bd 76 92 ad 3d b7 f4 86 bd 82 2b bf bc
       -0.07944684 0.08475201 -0.065896444 -0.023336176
000100 19 88 80 bd 12 59 dc 3d 37 05 e8 bd 37 03 fd bd
       -0.062759586 0.10759176 -0.1132912 -0.12354129
000110 94 57 d2 bd 32 37 56 bc 39 2f fc 3d 61 c1 d0 bc
       -0.102706105 -0.013074683 0.123136945 -0.025482835
000120 e7 39 5f bd 68 ba cb 3d 8d 1d 31 3d e1 c1 1b 3c
       -0.05449858 0.099476635 0.043241072 0.009506674
000130 c2 0a 4e 3c 01 14 32 3e 83 38 a8 3d dc 2c 6b 3d
       0.012575807 0.17390443 0.08213904 0.057415828
000140 de 33 93 3d 03 99 ac 3d 57 5a 67 3c 63 6f c2 bd
       0.07187627 0.08427622 0.01412066 -0.094939016
000150 9f 6f a7 bc 0a 2a c5 3c a1 72 99 bd 3a 16 19 be
       -0.020438967 0.024067897 -0.07492567 -0.14949885
000160 4a fd 15 3e b3 cd 07 3d fd 2d 8e bd 6c ff 34 bd
       0.14647403 0.033155154 -0.06942365 -0.0441889
000170 a0 03 98 bc 89 0e 35 3d e6 63 b5 3d c7 74 91 3d
       -0.018556416 0.044203315 0.08856945 0.07102352
000180 b7 95 f9 bd 2d f7 bd bc f3 4d 98 be d5 f8 14 3e
       -0.12186759 -0.023189152 -0.2974697 0.14548047
000190 ad 21 f6 3c d6 bc 58 bd bd cd 28 be 4d f8 1a be
       0.030045355 -0.052914463 -0.16484733 -0.15133782
0001a0 c2 04 77 3e d7 f3 70 bd 1d ef f1 3c e5 c3 96 3d
       0.24122909 -0.058826294 0.029532963 0.07361583
0001b0 ac a2 b2 bd 7c 17 bd 3d 68 3d 9b be 6f 40 73 bc
       -0.087224334 0.09232995 -0.30320287 -0.014846905
0001c0 3e 3b cd bc 26 e8 d6 3d 00 72 3f 3d 70 30 98 3c
       -0.025052663 0.104934976 0.04673958 0.018577784
0001d0 33 dd d4 bd f2 6e 6d bd e1 22 f2 3d bc 3d 21 bc
       -0.10393753 -0.057967134 0.11823059 -0.009841379
0001e0 15 67 a8 3c 11 0e db bc 96 3a 84 bd 7e 89 b1 3d
       0.020556966 -0.026740106 -0.06456487 0.08668803
0001f0 cb a8 88 bd 1f 7b dd bc af e5 1e 3d 6e 8d 05 bc
       -0.0667282 -0.027036248 0.038793262 -0.008151395
000200 f5 7b ff bd 3e 0c bd 3a 1f 31 dd 3d 53 7c 26 3d
       -0.12474815 0.0014423204 0.10800385 0.04064591
000210 4f 5c 06 be dc 67 9c 3d 02 1a 22 3d 12 85 57 3d
       -0.1312115 0.07636997 0.039575584 0.05261714
000220 f9 8e 79 3d e9 e3 68 3d 5a 29 b5 bc 7c cb a6 3d
       0.060927365 0.056857977 -0.022114445 0.0814428
000230 c9 61 15 bc 4f cb 8d bd 30 e9 00 be 85 db 99 3c
       -0.009117552 -0.06923544 -0.12588954 0.018781433
000240 55 6b 11 be 16 ec e3 bc 1c cc 05 3c 09 53 86 3c
       -0.142011 -0.027822535 0.008166339 0.016397016
000250 45 eb 34 3d f1 52 e6 bd b0 68 84 bc 1a 9e e3 3d
       0.044169683 -0.112462886 -0.0161632 0.1111414
000260 7d 9d b7 3c 8d 2b a7 bd 76 a7 c4 3d a1 5f b7 bc
       0.022413963 -0.081626035 0.09602253 -0.022384467
000270 78 14 10 3d 97 fe 74 3d c1 90 06 be 9d ca d3 bd
       0.03517577 0.05981311 -0.13141157 -0.1034138
000280 b7 6c 6b 3d 65 b6 19 3d e5 83 0a 3d f0 3e 20 be
       0.057476725 0.03752746 0.03381719 -0.15649009
000290 b9 01 bf bc 15 ec ea ba cd 39 0d 3d 48 17 8e bc
       -0.023316251 -0.0017923141 0.03447895 -0.017345086
0002a0 2e 55 72 3c 94 69 ed 3c 0b 02 a2 3c 26 b1 f3 bd
       0.014790816 0.028981008 0.019776365 -0.11899023
0002b0 b4 68 13 3e 02 1f 8b bd 42 33 cb bd 15 5e 21 bd
       0.1439541 -0.06793024 -0.09921886 -0.039396364
0002c0 6c f7 1d bc 80 f7 89 3d e5 74 44 3d 03 2c 25 bd
       -0.0096415095 0.0673666 0.04796304 -0.040325176
0002d0 b7 3c af bd 0e db e8 3c e7 6a a7 bc 89 c9 8c bb
       -0.08556502 0.028424766 -0.020436717 -0.004296486
0002e0 95 4d 37 3d 4e 90 0f 3d 3d 26 9f bd 46 a1 24 bd
       0.044751722 0.03504973 -0.07770965 -0.040192865
0002f0 e8 a7 95 3d 2a bb 83 bd 3d 99 e9 3d 64 9e 86 3d
       0.07307416 -0.06432183 0.11406181 0.06573179
000300 7d b6 aa bd a5 99 14 bd ce 8d 0d be 56 24 67 3c
       -0.08335588 -0.03627934 -0.13823625 0.014107784
000310 40 22 9f 3d 95 34 6a bc fa 44 a4 3d 49 d9 6b bd
       0.077702045 -0.014294763 0.08020969 -0.057580266
000320 51 ab da bc 5b dc 10 3e a4 5d b0 3d 76 33 a1 bd
       -0.026693018 0.14146559 0.086116105 -0.078711435
000330 83 c8 72 3d 6d d4 ef bc e0 04 5b be da 25 cb bc
       0.059273254 -0.029276097 -0.21388578 -0.024798322
000340 6b 20 09 be 39 36 da 3c 80 65 54 bc 66 20 92 3d
       -0.13391273 0.026637184 -0.012963653 0.07135086
000350 50 6c ee bd d4 98 b2 3c ba 66 96 bd 62 f3 e8 bd
       -0.11641753 0.02180139 -0.07343812 -0.113745466
000360 85 45 72 bd a8 54 55 bd 52 0e 2d 3d 3a 5b 0b 3e
       -0.05914833 -0.052082688 0.042249985 0.13609019
000370 63 75 3d bc 89 d5 27 bc 66 73 d0 bd 52 f0 cb 3d
       -0.011563632 -0.010243782 -0.101782605 0.09957947
000380 f1 34 0d 3e 1d 09 d4 bd 95 59 05 be 7c 40 1c 3d
       0.13789727 -0.10353301 -0.13022454 0.038147435
000390 be c4 5d 3c c0 71 ac bd 2b 6e aa bd f9 ae 11 bd
       0.0135356765 -0.084201336 -0.08321794 -0.035567258
0003a0 eb ff 33 be c4 5d 28 bd 95 c0 85 bb f1 d6 82 bd
       -0.17578094 -0.041105047 -0.0040817955 -0.06388653
0003b0 9f 0e 93 3d f3 c7 80 bd 86 76 b6 3d c8 49 de bd
       0.07180523 -0.06288137 0.08909325 -0.108539164
0003c0 92 77 e5 bd 02 f1 9b 3d f1 df 79 bd 91 f4 72 3d
       -0.11204447 0.07614328 -0.061004583 0.059315268
0003d0 8d 05 ae bd bc dd 30 3d 1b 82 ee bc 25 b5 a4 bd
       -0.084971525 0.043180212 -0.029114773 -0.08042363
0003e0 39 43 be bd 7f be 1e 3d c6 8c 23 3c 2d 0e 47 bd
       -0.092901655 0.03875589 0.0099822935 -0.048597503
0003f0 cf 0f 02 bd 30 8e d9 bd a8 72 dc 3b fc 1c a0 3d
       -0.031753357 -0.10622823 0.0067275353 0.07818028

encoder.bias_ih_l0 f4 [512]
000000 90 86 ba bd 85 b2 22 3c 85 48 bf 3c fb 8d fc 3c
       -0.09107697 0.009930258 0.02335001 0.03082942
000010 cf 67 c8 3d cf 48 25 bd 62 ce 9f bd 9f d2 4b 3d
       0.09785425 -0.04035264 -0.07803036 0.04976141
000020 c7 db fa bc 89 36 31 3d 8b 4a e5 3c 8c d4 47 bd
       -0.030622376 0.0432649 0.027989646 -0.048786685
000030 82 59 76 3d 76 9b 51 3d ca 30 66 3d 1f ec 55 bd
       0.060143955 0.05117365 0.056198873 -0.052227136
000040 5d e2 00 bc ae c1 a8 3a 7a 30 f4 3c 7c 25 96 3d
       -0.007866469 0.0012875104 0.029808272 0.07331368
000050 7f 83 ae 3d 3b 6e 43 bc e3 e4 eb 3c 1f 3b 4b bd
       0.08521175 -0.011928136 0.028795665 -0.04961693
000060 57 2a 84 bc 90 58 03 3d 11 bb 9c 3c 24 cb 15 3d
       -0.01613347 0.03206688 0.019132169 0.036570683
000070 3f 86 25 3d e9 65 a5 bc c3 c6 81 3d 58 82 de 3a
       0.04041123 -0.020190196 0.06336739 0.0016976101
000080 f3 56 a8 bd a4 59 46 bb bb b4 89 3d 5d b1 49 bc
       -0.08219709 -0.0030265832 0.06723925 -0.012310353
000090 e0 1c 80 3d bf 6b a3 3d 6b 7e 5a 3d 25 e4 a8 3d
       0.062555075 0.07979535 0.053343218 0.0824664
0000a0 82 89 69 3d 2a ad a2 bd 07 3c 54 bd 10 b3 93 3c
       0.057015903 -0.07943185 -0.05181506 0.01802972
0000b0 84 c1 85 bd 70 8d 3c 3e 40 35 60 bc 17 b7 83 3d
       -0.06531051 0.18413329 -0.013684571 0.06431406
0000c0 1b 24 9c bb dd 7c a8 bc 8f 7b 6c 3c 7a 0d 6c 3d
       -0.0047650463 -0.020567352 0.014433756 0.05763004
0000d0 eb a0 60 bd 48 e4 00 3d e0 29 f6 bc 05 cd da bc
       -0.054840963 0.031467706 -0.030049264 -0.026709089
0000e0 7a 32 08 bd 93 fd af 3d f2 cf 41 3e 6b ac 3f bd
       -0.033251263 0.08593287 0.18926981 -0.04679529
0000f0 4d fe bb bc 74 68 36 bd 7a 96 b7 3c 31 da 14 3e
       -0.022948408 -0.044533208 0.02241062 0.14536358
000100 6e 5e 7c bd 2c eb bb 3b ee 0f 9a 3c 7d a1 09 bc
       -0.061613493 0.005734822 0.018806424 -0.008400318
000110 56 59 c6 3d 64 8d 5a 3d 4d 2a b4 bd 2a ce 1b bd
       0.09685008 0.053357497 -0.08797131 -0.03803841
000120 5b b5 9d 3d f2 c2 a2 bc cf 50 17 3e 7a 3f c0 bd
       0.077006064 -0.019868348 0.1477692 -0.09387107
000130 34 b8 8c 3d 9f e5 c9 3d 2e 83 a6 3c 5e 32 c7 bc
       0.068710715 0.0985825 0.020326223 -0.02431601
000140 aa 9e 44 bc 5a 12 ad bb 58 84 29 3d 7e 68 af 3d
       -0.012000719 -0.0052817287 0.04138598 0.08564852
000150 d9 0b 55 3d 97 aa d6 3d d3 20 5a bd f1 78 8e bd
       0.052013252 0.10481756 -0.05325396 -0.069566615
000160 37 ca c2 3a 18 95 a2 3b 9d 51 16 bd 85 29 ca 3c
       0.001486129 0.004961621 -0.036698926 0.024678001
000170 d6 f8 a4 ba 6a 87 14 bd f2 d0 1e 3d 1c 12 7b bd
       -0.0012586366 -0.036261953 0.038773485 -0.061296567
000180 84 47 1a 3d ee 3a e2 3d 2b 9f b1 bd a5 2b 18 bd
       0.03766586 0.11046396 -0.08672937 -0.037150998
000190 77 d4 78 bc bd 7a 48 3d 52 50 8b bd f7 e9 cd bc
       -0.015187374 0.048945177 -0.06802429 -0.025135977
0001a0 c4 59 20 3d a6 8e 9c bd 30 86 24 3b b1 1e f9 3c
       0.039148107 -0.076443955 0.0025104396 0.030410143
0001b0 bc f3 54 bc c1 2b 15 3d 56 90 d4 3d 9d 3c db 3d
       -0.012997564 0.03641868 0.103790924 0.107049204
0001c0 63 a5 3b bd bb 47 be 3c ab 13 21 3d 40 f3 eb 3c
       -0.045812022 0.023227563 0.039325397 0.028802514
0001d0 3d f3 9a bd 78 3c 51 3d 75 a0 45 bb 45 3e 8e 3d
       -0.07565925 0.051083058 -0.0030155454 0.06945471
0001e0 99 79 97 bd 44 f2 9c 3d 27 c8 5f 3d 05 51 92 bb
       -0.0739624 0.07663396 0.05463424 -0.0044652247
0001f0 29 f1 b4 bb 9b 24 3b bd f6 31 e8 3b 09 f0 bd ba
       -0.0055219126 -0.045689207 0.007086034 -0.0014491092
000200 dc 1b 94 3d df 7b 1d bc 6d 24 c4 3d f3 2f f2 3d
       0.07231876 -0.009612053 0.0957726 0.11825552
000210 9d d3 8d 3d 25 31 b9 3d 00 95 6b 3c 36 b7 14 3e
       0.06925128 0.09042577 0.014378786 0.14523014
000220 56 aa 37 bd 7b 25 b5 bc 8e 00 19 3c 94 cd 54 3d
       -0.04484018 -0.022112599 0.009338511 0.051953867
000230 9e 00 2f 3d da 4f 3f 3d 45 c1 1c 3d bd b7 05 bc
       0.042725198 0.04670701 0.038270254 -0.008161482
000240 fe 4d 87 bc 3f 62 f0 3d d9 44 c7 3c 3b 4f c3 3d
       -0.016516682 0.11737489 0.024324821 0.095365964
000250 fc 1a 12 3e 7d c2 11 3e 00 d1 f8 3d bd 5d 1b 3d
       0.14268106 0.14234348 0.121492386 0.037931193
000260 99 fc 28 3c 14 ec 81 bc 93 68 03 bc 98 5d 96 3b
       0.01031413 -0.015859641 -0.008020538 0.004588794
000270 03 42 b6 3d 84 c1 cb 3c bb 2d 1c 3b cf 46 ba 3d
       0.088993095 0.024872549 0.0023830968 0.09095537
000280 c2 18 79 3e a6 6e 2b 3d 20 09 07 bd 1d cc cd 3d
       0.2432585 0.04185357 -0.032967687 0.10048697
000290 bf bb b6 3d ac be f0 3d 94 5e 70 3e f0 de 3a 3d
       0.089225285 0.11755118 0.23473579 0.045622766
0002a0 9a 47 92 3d 4d be 25 3e bd 75 d2 3d 18 06 9d 3d
       0.07142563 0.16185875 0.10276363 0.07667178
0002b0 0a 2c c3 3d dc 93 4b 3d 20 7e 51 ba e9 70 84 3d
       0.09529884 0.049701557 -0.00079915114 0.064668484
0002c0 00 d1 00 3e b9 6b 82 3d 43 a9 9c bc e1 92 bf 3d
       0.12579727 0.06368203 -0.019123679 0.09354187
0002d0 36 20 01 3e 22 70 7e 3d 44 d4 0c 3e 0d c1 94 bc
       0.12609944 0.062118657 0.13752848 -0.01815846
0002e0 00 3f 81 3d 97 18 5b 3c 7a bc 1c 3e 58 ed f6 3d
       0.063108444 0.013372562 0.15306273 0.120569885
0002f0 95 2a 99 3d 14 ff fc 3c 6f 7c 76 3d 10 64 2d 3e
       0.07478825 0.03088335 0.060177263 0.16932702
000300 9f eb 80 3d 25 3c c6 3d 1b a6 c1 39 e0 e6 98 3d
       0.06294941 0.096794404 0.00036935587 0.07465911
000310 d0 e6 8e 3d 21 5d 11 3e 34 48 77 3e 6e 97 8d 3d
       0.06977618 0.14195682 0.24148637 0.069136485
000320 82 61 0d 3e dd 40 78 3c 5d ad a5 3d ed 0a 9b 3d
       0.13806728 0.015152183 0.08089707 0.07570443
000330 dd 3b 97 bc 9b 78 b9 3d cb 9b 97 3d a0 9a 62 3d
       -0.018461162 0.09056207 0.07402762 0.055323243
000340 d8 55 30 3d 4a 15 2d 3e 93 57 cd bc 40 b0 0a 3e
       0.043050617 0.16902652 -0.025066173 0.13543797
000350 e9 07 6f 3d 5f d7 76 3d b2 51 a4 3d 0b aa 04 3e
       0.058357153 0.060263988 0.08023395 0.12955491
000360 b8 46 8a 3d 54 ba 13 3d dc 91 0a 3e 47 66 3a 3d
       0.0675177 0.03606637 0.13532203 0.045507696
000370 13 3c 70 3e 2d 2e cc 3d 83 19 1a 3e b9 35 cf bb
       0.23460416 0.09969745 0.15048794 -0.006323543
000380 42 40 0b 3d 49 3e f5 3d 97 d3 53 3e 18 e2 d4 3d
       0.033996828 0.119747706 0.20686184 0.103946865
000390 49 b0 17 3e 21 56 ed 3d 68 bf 4d 3d 5b 9a e5 3d
       0.14813341 0.115886934 0.050231367 0.112110816
0003a0 1c 0c 8b 3d b0 01 1a 3e e4 31 01 3e 67 00 34 3e
       0.06789419 0.15039706 0.12616688 0.17578278
0003b0 ad ae 82 3d 57 58 91 3d ba 9a 12 3e 9f 4c a1 3c
       0.06380973 0.070969276 0.14316836 0.019689856
0003c0 47 05 3b bc f5 bd 1e 3e 6e 8d 54 3e 12 19 4e 3d
       -0.011414832 0.1550215 0.20757076 0.050316878
0003d0 ee 03 f1 bc 0f 09 c5 3d 22 fa dc 3d 27 da dc 3d
       -0.02942082 0.096208684 0.107898965 0.10783797
0003e0 69 0d 29 3d 0d 04 94 3d 03 01 74 3d 16 2b 70 3d
       0.041272555 0.07227335 0.059571277 0.05863484
0003f0 15 4e 89 3d 68 1d c8 bc 1f 4b 82 3d 63 26 07 3e
       0.06704346 -0.024428084 0.063619845 0.13198237

encoder.bias_hh_l0 f4 [512]
000000 f7 48 f0 bc 3b 66 20 3e 66 e2 12 bc 34 c2 56 3c
       -0.029331667 0.15663998 -0.00896511 0.013107825
000010 cd f9 22 bd 6a ea a0 bd da 6d ce bc de 85 79 3c
       -0.03978901 -0.07857211 -0.025198866 0.01522967
000020 72 2d ad 3d 3d fa 55 bd fd c9 1f bd bb 85 f0 3d
       0.08455934 -0.0522406 -0.03901099 0.11744257
000030 97 58 26 bd 18 cb 79 3d 98 89 15 bc b6 39 37 bd
       -0.04061183 0.0609847 -0.009127043 -0.04473277
000040 9c 7b 48 3d 31 18 9f bc f8 78 e5 3c 5f 15 77 3c
       0.048946008 -0.019420715 0.028011784 0.015080779
000050 b8 b0 19 bd cb ee 78 bd 61 3b 53 bd 10 85 b7 bd
       -0.037522048 -0.060774606 -0.0515703 -0.089609265
000060 1a 03 22 bd 33 b5 84 3d e0 8c 13 bd a3 97 31 3d
       -0.03955374 0.064798735 -0.03602302 0.043357503
000070 5a 09 0e 3d dd 54 9a 3d 5f f2 17 3e 90 84 95 3c
       0.034676887 0.07535718 0.14838551 0.018251687
000080 8b 77 3f bc f3 a3 37 bd 94 ee 6d bb df 74 af 3d
       -0.011686216 -0.04483409 -0.0036305534 0.08567213
000090 30 bc a3 3d 84 52 23 3d 4e 22 04 bd f5 be 0e 3c
       0.07994878 0.039873615 -0.032259278 0.00871252
0000a0 f8 c6 02 bb ef ff f3 bc ce 0d 76 bc 29 43 8e 3d
       -0.001995502 -0.029785125 -0.01501794 0.069464035
0000b0 4b 8d 88 bc 52 4e 0c 3e 3c b0 ae bc a5 90 64 bc
       -0.016668936 0.13701752 -0.02132427 -0.013950502
0000c0 30 c8 80 3d 0c 83 5d 3d 67 0f d2 3c 98 4d 7b 3a
       0.06288183 0.054080054 0.02564211 0.00095864525
0000d0 24 c2 e2 3c dd 50 eb bb 28 5b c5 bc 1d 71 d4 3c
       0.027680464 -0.0071812705 -0.024091318 0.025932843
0000e0 be bc 37 3d 76 54 88 bb 96 68 1e 3e 13 57 ba 3d
       0.044857733 -0.004160459 0.15469584 0.09098639
0000f0 66 2a d9 3d 50 da 9a 3d 41 bb 26 bd 52 ae a4 3d
       0.1060379 0.07561171 -0.040705923 0.080410615
000100 ae 81 55 3d 25 05 07 3e 8b 2c cb 3d 37 55 ef 3d
       0.052125625 0.13185556 0.09920605 0.11686175
000110 e7 9d 04 3e 73 a8 12 3d 4f 7e da bd 30 d5 98 3d
       0.1295086 0.035805177 -0.10668623 0.07462537
000120 3d 15 09 bc f9 82 28 3d b5 be 51 3d 80 c1 ab bd
       -0.00836688 0.04114053 0.051207263 -0.083865166
000130 2c 6e c7 3d 84 18 c7 b8 fa d5 8f bc 9f 7b 39 bb
       0.097378105 -9.493626e-05 -0.017558087 -0.0028302444
000140 87 12 77 bc 34 e0 70 bd fd 82 e6 3c 93 48 2b 3e
       -0.015080101 -0.058807567 0.028138632 0.16726904
000150 d2 59 fe 3d 22 f8 89 3d 44 ce c9 bb a4 d0 e3 3b
       0.124194756 0.06736781 -0.006158622 0.006952362
000160 56 91 3d 3d 64 3e da 3c c6 b5 c0 bc 52 bc 00 bd
       0.04628118 0.026641078 -0.023524176 -0.031429596
000170 92 77 85 3c c2 54 a5 bd d3 d2 99 3d 80 4f b9 3d
       0.016292367 -0.08072807 0.07510915 0.090483665
000180 e8 07 9e 3d 92 08 e1 3d 98 5a 00 bd 94 cc 67 bd
       0.07716352 0.10987963 -0.031336397 -0.056591585
000190 56 4f 89 bd 63 4c 1e 3d 7f c8 07 bd 54 c7 b4 bc
       -0.06704585 0.038647067 -0.033150192 -0.022067703
0001a0 6f 52 81 bd 8b cb 46 bc 0b 66 0b 3e a1 3c df 3b
       -0.06314551 -0.012133489 0.13613145 0.0068126475
0001b0 a4 1d 63 3d 05 a7 07 3e f1 a9 92 3d ef a0 22 3e
       0.05544819 0.13247307 0.0716132 0.15881704
0001c0 8b cc 36 bd 4b e4 51 bd 6e 9a 24 3d d5 23 2b 3a
       -0.04462866 -0.051243108 0.040186338 0.0006528472
0001d0 1e 68 2f bd 81 39 20 bd c7 25 29 3a c0 53 41 bd
       -0.042823903 -0.03911734 0.00064524676 -0.04719901
0001e0 79 4b a7 bd 40 87 a4 3d ff 91 04 bd ca 73 88 3d
       -0.08168692 0.080336094 -0.032365795 0.0666271
0001f0 1b 15 7d 3b f2 da b2 3c d2 ec 41 3c b9 a5 e6 b9
       0.0038617316 0.021832917 0.0118362475 -0.00043992492
000200 d0 3a d1 3d b1 3a f9 3d dc bd 44 3e 4d 1a d8 3d
       0.10216296 0.121693976 0.1921305 0.105518915
000210 87 ac 5a 3d cb ed c2 3c 5e 8e 00 bd f9 2f 39 3e
       0.05338719 0.02379503 -0.031385772 0.18084706
000220 ce a7 7f bd 04 17 db 3d ef fd 4a 3d bb 5a e1 bc
       -0.06241589 0.10697749 0.049558576 -0.027509084
000230 3f 32 80 3c c9 f9 b2 3c f4 16 e3 3d d6 3f 0d 3e
       0.01564896 0.021847622 0.11088362 0.13793883
000240 63 2f 70 3d ae a4 53 3d f6 68 81 3d c3 8a 00 3d
       0.05863894 0.051670723 0.06318848 0.031382333
000250 e3 e7 df 3d 04 d5 11 3e 9b 09 de 3d 6f d9 95 3c
       0.10932901 0.14241415 0.10841676 0.018292157
000260 50 f0 9d bb 2a c1 17 3e 77 fb 83 3d 1e 53 0d 3c
       -0.0048199072 0.1481978 0.064444475 0.008625774
000270 42 d8 e2 3d b2 fa da bc 36 cb 8b 3d 30 b4 75 bc
       0.11076404 -0.026730869 0.06825869 -0.014996573
000280 eb 35 7c 3e 80 cf 6e 3d 0f c9 5e bc 97 4b 9c 3c
       0.24629943 0.058303356 -0.013597741 0.019079013
000290 9e 96 a0 3c 2c 20 cf 3d de cf a7 3d fe e5 d9 3c
       0.01960307 0.10113558 0.081939444 0.026598927
0002a0 c3 a2 93 3c 36 08 08 3e 9a ed f5 3d 3e 29 e5 3c
       0.018021947 0.13284382 0.120082095 0.027973767
0002b0 03 99 28 3e a7 28 68 3d d0 f6 5b 3d d2 84 c3 3d
       0.1646462 0.056679394 0.053702176 0.09546818
0002c0 23 63 0f 3d 6b 75 9c bc 4d d6 a5 3d 02 dc c6 3c
       0.035006654 -0.019098958 0.08097515 0.02427483
0002d0 4e f3 32 3c d5 63 fb 3d e4 58 ae 3d 83 bb 93 3d
       0.010922266 0.12274901 0.08513048 0.072134994
0002e0 b8 e6 4e 3d c3 ea bb 3d 25 80 45 3e 05 34 9a 3c
       0.050513 0.091756366 0.19287165 0.018823633
0002f0 e4 48 7c 3c dd 42 05 bc 26 74 18 3d da 04 c9 3d
       0.015398238 -0.008133617 0.037220143 0.098153785
000300 c5 81 bd 3d ed 68 b9 3d c5 b7 ac 3d 59 0c cd 3d
       0.09253267 0.09053216 0.08433489 0.10012121
000310 b5 c9 40 3e b8 0f 06 bc b7 9a 44 3e 0d ea 79 bc
       0.18826945 -0.008182459 0.19199644 -0.015253556
000320 ce 8e cb 3d 45 fb a4 3c b1 fa ba 3d 8f 0e 0b 3e
       0.09939347 0.020139346 0.09129847 0.13579772
000330 a4 b5 98 3c 4e 4b 7a bc db 3d 9c 3d b4 86 50 3d
       0.0186413 -0.015276743 0.076289855 0.050909713
000340 5b 8e 37 3d aa 1c 06 3e da f6 54 3d 93 3c 8f 3d
       0.044813495 0.13096872 0.05199323 0.069939755
000350 ca 9f 16 3e 8a d7 cc 3c 23 71 0a 3e 5a c5 09 3e
       0.14709392 0.02500512 0.1351972 0.1345419
000360 46 3b b8 3d 57 30 1a 3d 26 b4 09 3e 46 9a 50 3a
       0.089956805 0.037643757 0.13447627 0.0007957559
000370 ff da 7c 3e 7b c0 16 3e c7 a0 2c 3d a2 fe d7 3d
       0.24692915 0.14721863 0.042145517 0.10546614
000380 ba b0 c2 3c b1 d5 3e 3d 08 1f 31 3e e8 e1 21 bc
       0.02376591 0.04659051 0.17296994 -0.00988052
000390 ae 9c d2 3d 62 84 05 3c cb 53 ea 3d aa be fc 3c
       0.102837905 0.008149238 0.114417635 0.030852634
0003a0 c1 c2 29 3d c2 ec a8 3d f3 f4 9f bb f4 d9 01 3e
       0.041445497 0.08248283 -0.004881495 0.12680799
0003b0 a6 b7 14 3e 10 bd 8e 3d b8 83 14 3d 0a ce 13 3e
       0.14523181 0.069696546 0.03625843 0.14434066
0003c0 c2 5e ea 3c fe 11 4c 3d 95 8a f8 3d 51 04 97 3d
       0.028609637 0.049821846 0.121358074 0.0737387
0003d0 64 bd b6 3d a8 df 00 3e c5 18 13 3e e6 ee e8 3d
       0.08922842 0.12585318 0.14364918 0.11373691
0003e0 43 31 8c 3d 33 1b 0d 3d b1 50 d1 3d 0a 2b 16 3e
       0.068453334 0.034449767 0.10220469 0.14664856
0003f0 1a 39 33 3d b5 52 c1 3d 8b 50 b3 3b 6b 17 0d 3d
       0.04375563 0.09439603 0.005472248 0.03444616

decoder.weight_ih_l0 f4 [512, 128]
000000 e9 c1 b2 3d df 47 a6 3d 24 fc d9 bc 88 67 36 bd
       0.08728392 0.08119177 -0.026609488 -0.04453233
000010 d1 fc 24 bd 81 9d e3 3d d2 ad 96 bd c1 bb 87 bd
       -0.040280167 0.11114026 -0.07357372 -0.06627608
000020 05 b9 80 3d b8 d1 ba 3d fe 67 b8 39 8c 14 2e bd
       0.0628529 0.09122032 0.00035172695 -0.042500064
000030 09 78 08 bd 93 da c2 bc dd a1 9a 3d 11 2f 26 3d
       -0.0333176 -0.023785865 0.07550404 0.04057223
000040 df 8e 63 bc f7 c9 21 3d fa 89 23 be 58 73 03 3d
       -0.013889044 0.03949925 -0.15970603 0.032092422
000050 4f 5a 75 bd 8a ff 3d 3e 03 e7 87 3d 2a 6f fa 3d
       -0.059900578 0.18554512 0.06635859 0.12228234
000060 96 80 20 bd 72 19 e6 3d 37 ef 8e bd 53 6b 02 bc
       -0.03918513 0.11235322 -0.0697922 -0.007960158
000070 c4 47 9b bd f9 eb 7e 3d 34 01 d7 bc 70 c2 53 bd
       -0.075820476 0.06223676 -0.02624569 -0.051699102
000080 eb 7d ac bb c3 3f ab bb ae 6b ba bd bb a3 1f bd
       -0.005264034 -0.005226107 -0.091025695 -0.038974505
000090 24 38 6b 3d 7e 15 6d 3c 91 4e 1a 3e 72 84 9f bc
       0.057426587 0.014470456 0.15069033 -0.019472335
0000a0 ad fc f7 3d ad 5d 15 bd 9e a4 d7 3d d0 3b 06 3e
       0.12108741 -0.03646629 0.10529445 0.13108754
0000b0 5e 32 0a 3d 15 41 68 3d 31 df dc 3c 64 03 f9 3d
       0.03373944 0.056702692 0.026961895 0.1215885
0000c0 77 01 87 3c b1 72 ea 3c 5a a3 6e 3d 9a e8 94 bd
       0.01648019 0.028619142 0.058261253 -0.07270928
0000d0 80 4f c6 bd af 1e 7f 3d 03 c3 46 bc a2 79 61 3d
       -0.09683132 0.06228512 -0.012131455 0.05504764
0000e0 c7 a1 ce bc 77 2b 98 3b c4 b8 5b 3c 5a 7a 80 bd
       -0.025223626 0.0046438533 0.013410751 -0.06273337
0000f0 c8 d8 54 bc 1d f5 99 bd 0c 2e 8a bd 90 23 24 bd
       -0.012991138 -0.07517455 -0.06747064 -0.040072978
000100 1e e3 82 bd 8f 31 9a 3d 51 c2 8e bd 5a cb 86 3b
       -0.063909754 0.07528984 -0.06970657 0.004113597
000110 1f 50 96 3d 98 ab 44 3c 83 5d bc 3d 86 07 a9 bd
       0.07339501 0.012003802 0.091975234 -0.08253388
000120 94 66 fe 3d 5d 77 3e bd 5e 11 a1 bd 85 40 57 3d
       0.12421909 -0.046500552 -0.07864641 0.052551765
000130 8b ab be bc 47 55 fd bc 11 a8 ff 3b 87 59 9c 3d
       -0.023275157 -0.030924452 0.0078020175 0.076342635
000140 4a 6e 0f be 35 24 cf bd fb 25 78 3c af e6 2a bc
       -0.14006916 -0.10114328 0.015145774 -0.010430976
000150 90 ab bf 3d 1b 61 87 3d 6b f3 b5 3d 5e 26 87 be
       0.09358895 0.06610318 0.08884319 -0.2639646
000160 5a 39 2b 3c 07 74 b4 3c ac d5 15 bd 7f 13 27 3d
       0.010450685 0.022027982 -0.036580727 0.040790077
000170 6e 04 b9 3c 89 b5 51 3d 01 19 9d bd dc 06 2f 3c
       0.02258512 0.051198516 -0.07670785 0.010682788
000180 ad 8a 62 bc 83 fe 6f 3c 2f f9 b2 bd 01 c2 7d 3d
       -0.013827008 0.014648083 -0.08738934 0.061952595
000190 73 5d e4 3b 6c 2b 95 bd 4e 54 9b 3d bb dd 83 3d
       0.006969148 -0.07283673 0.07584439 0.06438776
0001a0 c3 46 36 be 93 92 04 bc 49 3e 58 bd 8a e1 28 be
       -0.17800431 -0.008091587 -0.052793775 -0.16492286
0001b0 f4 1e f4 bc 28 9b e3 bd 5f fe 10 bd d2 24 f9 3c
       -0.029799916 -0.11113578 -0.035398837 0.030413065
0001c0 53 f2 6b bd 6a 36 85 bd 11 fd c4 bd 8c 9a 0f be
       -0.057604145 -0.06504519 -0.09618581 -0.14023799
0001d0 3a a8 ee bd f7 fc bb 3d 7e aa 12 3d 84 59 c9 3d
       -0.116531804 0.091791086 0.035807125 0.09831527
0001e0 65 f9 a4 bc ae 85 f9 bc bc 98 d1 bd cb 48 9b bd
       -0.020138452 -0.030459251 -0.1023421 -0.075822435
0001f0 97 b0 89 bc 36 2b a9 bd 1b e3 a5 3d a7 4d d2 bd
       -0.016807837 -0.08260195 0.080999576 -0.10268717
000200 9a 25 f1 bd 0d 36 26 3d c8 70 b1 3e 46 50 66 3c
       -0.1177475 0.04057889 0.34656358 0.014057225
000210 98 5b 0e 3c cd 8d 10 3e a9 a9 cf 3b a0 9b 9f 3d
       0.00868883 0.14116593 0.0063373637 0.07793355
000220 76 2f a0 3d 47 8d c7 bd 59 19 15 3d 9d bb 1e 3e
       0.078215525 -0.097437434 0.036401127 0.15501256
000230 ea 2e ed bc 9f 79 9e bd dd 49 37 3d aa e3 c7 3b
       -0.028953034 -0.07738041 0.044748176 0.0061001377
000240 a1 12 df 3d 4e 05 3b 3d e4 9e 02 bf ae 85 9a 3d
       0.10892225 0.045659356 -0.510237 0.075450286
000250 30 96 a1 bd a7 90 7a 3e f0 7f b3 3d 0a 9d ab 3d
       -0.07889974 0.24469243 0.087646365 0.08379562
000260 8e 76 3e bc 6a 5a 22 3e 8f 1b 77 be 6a 77 0f be
       -0.011624945 0.15854803 -0.24131607 -0.14010397
000270 cc 39 4c bd 80 3d 7d bd f2 53 d8 bd 82 ac 1d 3e
       -0.049859807 -0.06182623 -0.10562886 0.15397838
000280 f1 c3 99 b9 65 a6 c6 3d 09 e7 c2 3b b0 0d f6 bd
       -0.00029328422 0.09699706 0.0059479517 -0.120143294
000290 d7 68 e9 3d 1f f1 87 bd 7f 32 8f 3e 22 f9 ae be
       0.1139695 -0.06637787 0.27968213 -0.34174448
0002a0 5c 22 3e 3e be bf cf 3d af 0c 76 3e 9b f8 ab 3d
       0.18567795 0.10143994 0.24028276 0.08397027
0002b0 60 3c 61 3e 48 83 b4 bb 82 a2 bb bc d5 72 71 3e
       0.21995687 -0.005508814 -0.022904638 0.23578961
0002c0 ab 6e 31 be 2e a0 3f bd 4e 2d 03 3e 0e 58 ac bd
       -0.17327373 -0.04678362 0.12810251 -0.084152326
0002d0 b5 60 01 be 48 59 13 bd fc be fd bd d4 10 9b 3d
       -0.12634547 -0.035973817 -0.12389943 0.07571569
0002e0 c6 3b 0b 3d 86 12 be 3d 61 5f d7 bd bf e5 e6 3d
       0.03399255 0.09280877 -0.10516239 0.11274289
0002f0 4f 0f b7 3d 74 cf 79 3d 23 36 95 bd f5 42 11 be
       0.08938467 0.06098886 -0.072857164 -0.14185698
000300 af 3b cb bd 9a c6 91 bc d5 b0 77 bd 5c 67 60 3d
       -0.09923493 -0.017794896 -0.060471375 0.05478607
000310 5e d9 81 be 46 57 89 bd 6b 85 9e be 9a 90 91 bd
       -0.2536115 -0.06706099 -0.30961165 -0.07107659
000320 9a 1d d7 bd 49 ac ad bd 61 2b a7 bd 06 ce c0 bd
       -0.10503693 -0.084801264 -0.08162571 -0.09414296
000330 df 12 ac bd a1 47 e5 3d 95 9b 2e be 45 c2 f3 bb
       -0.08402037 0.11195303 -0.17051537 -0.00743893
000340 d2 1f fd bd 2a cf 58 3e 2e 47 24 3d 38 1a 61 be
       -0.12359585 0.21172777 0.040106945 -0.21982658
000350 1b f7 99 3b f7 08 5a 3d f5 79 4f 3d af 1f fc bd
       0.0046986467 0.053231206 0.050653417 -0.12310731
000360 ea 78 96 ba 4b f3 03 3e 31 e3 67 be 4e 4a ee bd
       -0.0011480127 0.12885778 -0.2264526 -0.11635266
000370 23 e2 8f 3e d7 7d 40 3e c4 97 33 3d e5 e7 c7 bc
       0.28102216 0.18798004 0.043845907 -0.024402568
000380 f6 c2 46 bd 40 ea ef bd 67 75 56 3d 6e fb e2 3d
       -0.048525773 -0.117146015 0.052358057 0.11083113
000390 f5 88 08 3e e1 98 85 3d 6a e1 8b be 3c a7 ab bd
       0.13333495 0.065233 -0.27320415 -0.08381507
0003a0 1f a7 9b bd f4 ef 07 be c2 40 de bb ac c6 07 be
       -0.07600235 -0.13275129 -0.006782622 -0.13259381
0003b0 53 44 79 3c f5 31 89 be bc 47 e1 bd cf 3d 05 bd
       0.015214044 -0.26795927 -0.1100001 -0.03252965
0003c0 ed 2a e4 3d 05 81 50 3e de d4 90 bc dc 72 1e bd
       0.11141 0.20361717 -0.017679628 -0.038683757
0003d0 42 ab 11 3e e2 f4 08 be df 88 93 3d e3 e8 fd 3c
       0.14225486 -0.13374665 0.072038405 0.030994838
0003e0 63 4f c1 be 34 b0 5a 3d 15 58 4f bd c2 40 b9 3a
       -0.3775588 0.053390697 -0.05062111 0.0014133679
0003f0 ae 35 a0 3d 1a 54 d8 3c e3 80 9d 3d 90 b3 ce 3d
       0.078227386 0.02640729 0.07690599 0.100928426

decoder.weight_hh_l0 f4 [512, 128]
000000 01 6f d9 3d fc 3e b7 be b4 47 72 bd 4e af 0f 3e
       0.106168754 -0.3579024 -0.059150413 0.14031717
000010 84 48 84 3e 70 45 b1 3d 7b d0 34 3d 10 5b 95 3e
       0.25836575 0.08655822 0.044144135 0.29171038
000020 2c f5 15 bc 28 15 e6 bd 18 01 87 be e1 a9 3c 3e
       -0.009152692 -0.11234504 -0.26368022 0.18424179
000030 a9 3f c9 bc d6 5f 4f 3d 67 1d b5 3d d6 b1 a4 3d
       -0.024566488 0.050628506 0.08843499 0.08041732
000040 f9 ca 61 bc e3 39 49 be 97 96 4b bd 68 29 6b bc
       -0.013781303 -0.19650988 -0.04970416 -0.014353134
000050 a2 b0 0a 3c 0c 7a bd bd 45 fc ba 3d 60 32 0a be
       0.008464964 -0.09251794 0.09130148 -0.13495779
000060 79 7e 6e 3b 11 cb 1c 3e 0c 5a 9e 3d d7 2e fb 3c
       0.0036391302 0.15311839 0.07732019 0.030661983
000070 06 2e b6 be 72 d1 9f bd 40 32 e4 bd 99 b2 cc bd
       -0.35581988 -0.078036204 -0.11142397 -0.09995002
000080 38 3b 2b 3d 10 40 69 bd 3f 4a 46 3e 0d 9c 97 3d
       0.041804522 -0.05694586 0.1936426 0.07402811
000090 52 93 81 3d 8d 60 07 be a2 15 1e bd 22 11 87 3e
       0.06326927 -0.13220425 -0.03859485 0.2638026
0000a0 11 b9 21 be ba c6 cc bd 1d ad 8b 3c 78 ed 0b 3e
       -0.15793253 -0.099988416 0.01705032 0.13664806
0000b0 a6 ae cf bd 71 3c 17 be 63 a3 56 3e 76 c6 4a 3d
       -0.101407334 -0.1476915 0.20960765 0.049505673
0000c0 f6 0a 2a 3d e4 0b 37 be 75 51 03 be d7 f0 c0 bd
       0.04151436 -0.1787563 -0.12824042 -0.094209366
0000d0 2a e1 c6 be 4c fe 86 3e 69 f4 86 3d 08 a9 dc bd
       -0.38843662 0.26365888 0.06589586 -0.10774428
0000e0 ad 74 40 bc 77 1d 0c 3e 63 09 ed bd af 17 a6 3e
       -0.011746568 0.13683115 -0.11574056 0.32439944
0000f0 1e f1 10 3e 43 4b 5a be 76 f5 bd bd 8a bf 3f be
       0.14154479 -0.21317773 -0.092753336 -0.1872541
000100 e4 c9 8c be bb b9 b2 3c 7b 10 ba bd be a0 22 bc
       -0.2749778 0.021817079 -0.09085175 -0.009926019
000110 6e 54 94 3d b7 95 31 3c fd f4 07 bd 58 03 ca 3c
       0.07242666 0.010838917 -0.033192623 0.024659798
000120 a5 e3 cc 3e 86 e6 96 3d ce 48 27 3e eb 80 ae 3d
       0.4001743 0.073681876 0.16336367 0.08520683
000130 79 2b 8b bd 4a 81 12 be 38 34 2b 3e 39 d2 5b bd
       -0.06795401 -0.14307132 0.16719139 -0.05366728
000140 fd bb 9a bd b7 ff 7a bb 4a b7 05 3d c3 26 b6 3d
       -0.07555387 -0.003829939 0.0326455 0.08894112
000150 a9 39 20 3d b6 18 52 bd 32 2f 8f bd 73 32 27 be
       0.03911749 -0.051293097 -0.06991424 -0.16327839
000160 17 48 a6 bc ef 37 64 3d 86 99 76 be fd e6 38 bd
       -0.020298047 0.055717405 -0.24082002 -0.045142163
000170 95 46 84 bd 05 fa 28 3e 6e c6 29 be 02 92 76 3d
       -0.06458775 0.16501625 -0.16579601 0.060197838
000180 55 70 45 bd 47 0f 59 3e 09 79 24 bd 75 ec 1c be
       -0.04820283 0.21197234 -0.04015449 -0.15324576
000190 e6 7b 85 3d 4e 43 91 bc 9a 9f a7 3e e2 ef 75 bd
       0.065177724 -0.017732289 0.32738954 -0.060043223
0001a0 af 91 3a be 49 3f f2 3c 70 2d e1 bc 41 a9 ad 3d
       -0.18219636 0.029571192 -0.027487487 0.08479548
0001b0 50 ec 19 be 65 03 a3 3d 4e 9a 0c ba 53 d8 d6 bd
       -0.15031552 0.07959632 -0.00053635694 -0.10490479
0001c0 9b 28 70 bd c1 86 62 bd 8e 24 34 3d c2 fe 6a 3c
       -0.058632474 -0.055304293 0.043980174 0.014342966
0001d0 7a b5 d9 3d f6 97 6c bd 85 03 b2 bc b9 21 3a bd
       0.10630317 -0.05776211 -0.021730194 -0.045442317
0001e0 85 25 39 be 04 58 c8 be 02 42 4d bd db 6a 54 be
       -0.18080719 -0.3912965 -0.050111778 -0.20743887
0001f0 e0 4b 30 be 71 c6 95 3e d2 ed 83 3d 31 eb 9f bc
       -0.17216444 0.2925296 0.06441845 -0.019521328
000200 a6 6c 06 3e d8 cb 08 3e cb 07 97 3d 77 2d 9f be
       0.13127384 0.1335901 0.07374533 -0.31089374
000210 2d 41 89 3d be 31 60 3d 52 cc 2d 3d c7 c8 0e 3f
       0.067018844 0.054734938 0.042431183 0.5577511
000220 86 90 08 be 42 06 0b be b5 e6 4f be 08 9e 35 3e
       -0.13336381 -0.13576606 -0.20302851 0.17736065
000230 0f e3 40 bf 54 c1 21 3e 9a 26 a2 be 63 aa d7 3b
       -0.75346464 0.15796405 -0.31670076 0.006581591
000240 fc 46 8a be 5a 13 88 be df 90 4f 3e 44 22 bf bd
       -0.27007282 -0.26577264 0.20270108 -0.093327075
000250 81 bd 74 bd f3 17 48 be 64 51 a4 3d a4 20 8a bd
       -0.059751038 -0.19540386 0.080233365 -0.06744507
000260 ba 7d 07 3e 55 55 67 3d 4d a1 95 3c 34 54 4c 3e
       0.13231555 0.056477863 0.01826539 0.19953996
000270 fa c2 05 bf 9f d9 f5 bd ae 0e b1 be 2d 91 28 be
       -0.52250636 -0.120043986 -0.34581512 -0.1646163
000280 42 7c 04 3d b6 05 c3 bb 2b 7b 8c 3c f5 2b f9 3d
       0.032345064 -0.0059516085 0.017148575 0.12166587
000290 6b 1a d2 bb b9 c5 e1 bd e7 35 57 3e b2 dc 34 3e
       -0.0064118407 -0.11024041 0.21016656 0.17662314
0002a0 6a 36 19 be 34 d5 e5 be 0d bf ec 3d 36 c0 e4 bc
       -0.14962164 -0.44889224 0.115598775 -0.027923685
0002b0 37 ca 3e 3c 7f 4d 32 bf 38 03 91 3e bc ff 0c be
       0.011644891 -0.696495 0.28322768 -0.1376943
0002c0 bc fb 49 3c 71 33 7d be 66 f7 99 be 11 17 b3 bd
       0.012328085 -0.24726655 -0.30071563 -0.08744634
0002d0 5c 84 c6 bd ea 51 0b bd 31 9d 98 be 55 df 63 bd
       -0.09693214 -0.034013666 -0.29807428 -0.055632908
0002e0 46 36 69 be 75 d1 9a 3e 0b c0 23 3d b1 96 59 3e
       -0.2277461 0.30237928 0.03997807 0.2124889
0002f0 11 71 b1 bd 87 f4 6b bf bb e1 6a 3d 4a 84 95 3d
       -0.08664144 -0.92169994 0.05734418 0.07300623
000300 85 e9 16 bf 7c de 57 bd 09 37 62 be ef f2 af 3d
       -0.5895007 -0.052702412 -0.22091307 0.08591258
000310 96 65 98 3d bd 0c 08 bd 51 69 1d be c6 af d3 bc
       0.07441251 -0.033215273 -0.15372206 -0.025840651
000320 8a 82 04 3f 43 f0 cb 3d fe 67 65 be 91 ca e1 bd
       0.51761687 0.09957936 -0.22402951 -0.110249646
000330 86 c8 7a be be f2 56 be 07 85 ba 3d 78 36 bb 3d
       -0.24490556 -0.20991036 0.09107404 0.091412485
000340 7b 06 07 3e 41 7d a6 bd db c0 e9 bd 82 38 f0 3d
       0.13186066 -0.08129359 -0.114137374 0.11729528
000350 34 e0 f7 3d 56 7a 00 bd 93 dc c5 be 79 9a be be
       0.1210331 -0.03136667 -0.38644847 -0.37227228
000360 df 71 27 3b 0e 2a 3f 3e 30 cc 46 be 3a b2 37 be
       0.002555005 0.18668386 -0.19413829 -0.17939082
000370 37 b0 b5 bc 9a 24 f6 3d 49 c9 e3 3c ff d4 3a be
       -0.022178752 0.120187 0.027805941 -0.18245314
000380 52 f1 74 3d ee 83 1c 3f 08 aa df bd be 8d db bd
       0.059800453 0.6113881 -0.10921103 -0.107203946
000390 ab 1d 74 3c ad b7 b9 bd 68 54 d1 3d 1d e3 59 3d
       0.0148996515 -0.090682365 0.10221177 0.053195108
0003a0 d0 25 1d be 96 2d b3 3d 9e fb 5c bd 60 d2 31 3d
       -0.15346456 0.08748929 -0.0539509 0.04341352
0003b0 90 f6 bd bd 3f ec b7 3e da 40 58 bd 4c da 1f bd
       -0.09275544 0.3592243 -0.052796222 -0.039026543
0003c0 bf 84 50 3d ad 11 83 be bc 97 a3 bd f4 05 60 3d
       0.050907847 -0.25599423 -0.079879254 0.054693177
0003d0 09 ec e6 3d 03 c7 c2 3d 29 08 18 3d 02 16 5e 3d
       0.11275489 0.09510615 0.037117157 0.054220207
0003e0 24 24 69 be 45 ae 28 bd 91 3c 8c 3d 93 94 23 be
       -0.22767693 -0.04118182 0.068474896 -0.15974645
0003f0 40 92 2c bd a4 de 82 3d b4 28 aa 3e 9b 61 32 3b
       -0.042131662 0.063901216 0.3323418 0.0027218822

decoder.bias_ih_l0 f4 [512]
000000 7e 06 b6 3c dd d0 a4 bd 39 86 44 3d 8b 64 7b bb
       0.022219893 -0.0804765 0.047979567 -0.0038359489
000010 10 88 33 3c ca 6b 06 bd 24 b2 64 bc 76 24 27 3c
       0.010957733 -0.03281764 -0.013958488 0.010201564
000020 31 59 62 bd b1 a1 8c 3d da 23 91 ba f4 f2 a7 3d
       -0.05526084 0.06866778 -0.0011073307 0.082006365
000030 d0 36 18 3d 64 49 80 3d 1d d4 92 bd 50 6a c6 bb
       0.03716165 0.06263998 -0.07169364 -0.006055154
000040 d1 7d bb bb 4a 6a 5a bc 1d ff c2 bc 19 3b 74 bd
       -0.0057217856 -0.013331005 -0.023803288 -0.059626672
000050 fa 16 45 3d 14 7d 44 3c b2 fc 67 bc b9 6f 40 bd
       0.048117615 0.011992712 -0.014159368 -0.046981547
000060 30 33 a5 bc 10 4e aa 3c 79 2d bc 3a 18 2a bb 3c
       -0.02016601 0.020789176 0.0014356814 0.02284722
000070 7f 14 34 bd 5f 4e 63 3d f6 81 a6 bc c2 ec 61 3c
       -0.04396486 0.055494662 -0.020325642 0.013789358
000080 b3 26 d8 3c b9 e1 95 3d 3e 6d 0d 3b 2e c3 f4 3d
       0.02638564 0.07318444 0.0021580006 0.1195129
000090 ec 39 1c bd ec a0 a8 bd 69 71 ed 3a 6b 45 8b bc
       -0.038141176 -0.082338184 0.0018115464 -0.017000875
0000a0 b7 1b b5 3d 45 2d a0 3d e8 fc 31 bc 32 4c 94 3c
       0.08843177 0.078211345 -0.01086352 0.018102739
0000b0 c7 7c 23 bd e7 c3 ec bc c7 d8 ed 3c cb 17 7e bd
       -0.03991392 -0.028902007 0.029034032 -0.06203441
0000c0 91 1e e3 3c bc 1a 4a 3d d8 d0 2a 3d e4 71 2f bd
       0.027724536 0.049341902 0.041703075 -0.042833224
0000d0 32 30 89 3d 80 e3 4e bc 70 24 ca 3c db 62 d5 3d
       0.06698646 -0.012627482 0.024675578 0.10419246
0000e0 77 fb 30 ba 69 c9 34 bd a7 fc db bc f6 43 90 bc
       -0.00067513384 -0.044137392 -0.026853872 -0.017610531
0000f0 90 cd 03 3e 04 fd e9 3d 0c a6 a2 bc 89 f9 34 3d
       0.12871385 0.11425212 -0.019854568 0.044183288
000100 a8 b1 32 bc fe a6 bb 3c ed 8f 1d bd 02 b6 6e bd
       -0.010906614 0.022906777 -0.038467336 -0.058279045
000110 fb 62 c4 bc ef 33 7e 3d af ae d2 3c ed 2f b9 3d
       -0.023972979 0.062061246 0.025718061 0.09042344
000120 78 e3 29 bd b0 a3 9b bd 70 3b 72 bd 3e 66 ca bc
       -0.041476697 -0.0759958 -0.059138715 -0.024706956
000130 cf c1 62 bd 16 80 ce 3d 84 1d 79 bd cf f3 1b bd
       -0.05536061 0.10083024 -0.060819164 -0.03807431
000140 ca 93 55 3d fe 0b c3 3d f4 0b cf 3d fd 29 85 3b
       0.052142896 0.09523772 0.10109702 0.0040638433
000150 db 28 cc 3d 40 eb 82 3d d9 f7 91 bd 03 73 c0 3c
       0.0996873 0.063925266 -0.07127351 0.023492342
000160 b2 71 89 3d 24 5a 9d 3d 8b c2 8c ba 2a b8 c6 3c
       0.06711139 0.076832086 -0.0010739131 0.024257738
000170 9f 2e 45 3d f9 29 9e bc 81 dc 51 3b 3c 97 6f 3d
       0.048140164 -0.019307123 0.00320223 0.058493838
000180 b6 d3 a0 bc e7 df d9 3c 18 bc 97 3d e0 17 94 3d
       -0.019632202 0.026596023 0.07408923 0.07231116
000190 44 b2 03 bd d1 fd 77 3d db 23 9c 3d f8 df 8b 3d
       -0.03215243 0.060544793 0.076240264 0.06829828
0001a0 65 e9 cd 3c 60 1a c3 3b b3 44 55 3d 0a ee c7 3d
       0.025135705 0.005954072 0.05206747 0.09762199
0001b0 53 2f 86 3d 07 28 b2 3d 23 3a e4 3b fc 16 af 3d
       0.06551995 0.08699041 0.0069649382 0.08549306
0001c0 f8 7a fd 3d e0 e6 c2 bd a9 d4 64 bd 19 de a1 3d
       0.1237697 -0.09516692 -0.05586687 0.0790369
0001d0 19 94 0c 3e b7 5c f6 3c 15 5c 9a bd 32 71 77 bd
       0.1372837 0.030073507 -0.075370945 -0.060410686
0001e0 24 71 dc 3d fe dc 88 3d 7c 4f 57 bd 09 4f 9c bd
       0.10763767 0.06682776 -0.052566037 -0.07632262
0001f0 27 61 bb ba b7 df 21 bb c8 73 89 3d a7 fe 71 bd
       -0.0014295921 -0.0024699995 0.06711537 -0.059080746
000200 38 4f 2e 3c 7d 3a 37 3d 9f 39 1c 3d f1 ed 91 bd
       0.010639004 0.044733513 0.03814089 -0.07125462
000210 34 46 81 3d 0e 11 e9 3d f9 66 b4 3d 45 5c fc bc
       0.06312218 0.11380206 0.08808703 -0.030805716
000220 8a 39 2f bd 0d 1e 1c 3d f7 75 83 3d e7 46 41 bd
       -0.042779483 0.038114596 0.064189844 -0.04718676
000230 60 d6 14 3d de a1 88 3d bc aa b9 3b 08 c9 0c 3c
       0.036337256 0.06671499 0.005666105 0.008592851
000240 97 b3 4d bd 32 88 55 3d 4c be 90 3c 33 72 b2 3d
       -0.0502201 0.05213184 0.017668866 0.08713188
000250 1f c4 9e 3d b2 ab 2e bd f9 20 84 3d 85 6d b5 3d
       0.07752251 -0.04264421 0.064516015 0.0885878
000260 f5 38 df 3c bb 39 cb b9 4a f6 96 3d 7e 14 8f bc
       0.027248839 -0.0003876219 0.07371195 -0.017465826
000270 0a 6b 01 3e 3a 56 a5 3d 40 ef 3d ba 68 06 d9 3c
       0.12638488 0.08073087 -0.0007245429 0.026492313
000280 3f c9 ce 3d 0a 88 c1 3d f3 36 dc 3d c4 4d 35 3d
       0.100969784 0.094497755 0.10752668 0.044263616
000290 80 14 e3 3c 89 fb 0a bd c3 39 bf 3a 48 2c 8c 3d
       0.027719736 -0.03393129 0.0014589358 0.068443835
0002a0 a8 e9 88 3d b7 48 c6 bc 86 95 97 3c a1 5d 4e bb
       0.066851914 -0.024204595 0.018503916 -0.0031488913
0002b0 58 42 cb 3d 5f 76 91 3d 91 44 d5 bb 59 6e 5c bd
       0.099247634 0.071026556 -0.006508418 -0.053816173
0002c0 4d a6 1c bd de 71 9a bc 40 2e bc 3d 4b bb 9f 3d
       -0.038244534 -0.018853124 0.09188509 0.07799395
0002d0 89 d9 7a bd 19 2b 99 3d a1 bb 42 3d 18 0d b1 3d
       -0.061242614 0.07478923 0.047542218 0.086450756
0002e0 37 55 41 3d 46 42 1c 3d a0 9b 67 3d c5 e3 ad 3d
       0.047200408 0.03814914 0.0565449 0.08490709
0002f0 aa 63 32 3d 1a c6 13 bd 7f 2b a1 3d 4b bb 07 bd
       0.04355208 -0.036077596 0.07869624 -0.0331376
000300 69 c8 3b bc 45 53 62 bd f9 fa 29 bd c5 c9 bd 3c
       -0.011461356 -0.055255193 -0.04149911 0.0231675
000310 56 aa 5f bc 46 95 cb 3d a8 9f b7 3c 28 46 93 3c
       -0.013651451 0.09940581 0.022414997 0.017977789
000320 40 d2 1b bd a2 cb 69 3d de 2a 0b 3c 66 f5 c0 3d
       -0.038042307 0.057078965 0.008494107 0.09421806
000330 fd cd f2 3a fb a5 88 3b 5e c7 90 3b 50 59 03 3d
       0.0018524524 0.004170177 0.0044182977 0.032067597
000340 7d bc c8 bc a3 6e 33 3d a0 f0 91 3d 50 c4 b2 3d
       -0.02450394 0.043806683 0.07125974 0.0872885
000350 b0 54 49 bc e1 2c 22 3b cb ae 51 3d 88 0b b9 3c
       -0.0122882575 0.0024745988 0.051192086 0.022588506
000360 9a 47 41 bc 5f 18 a5 bc 80 fe 00 3d 90 48 ab 3c
       -0.011796856 -0.020153223 0.03149271 0.020908624
000370 c5 62 fe 3c 19 ad 40 3d 68 8f 96 3d d7 9d 9e bd
       0.031052956 0.04704008 0.07351571 -0.07744949
000380 d1 c3 16 bd 7e 24 40 bc e5 51 c6 3d 89 2c 86 bc
       -0.03680784 -0.01172745 0.09683589 -0.016378658
000390 68 ff 66 3d 38 1b c7 3d 8d 1d 98 3d 57 84 b1 3d
       0.056395918 0.097219884 0.07427511 0.0866782
0003a0 c8 ab 85 bb 0b da c6 3d 03 ea 8e 3d f4 4b 04 3c
       -0.004079316 0.09709557 0.06978228 0.008074749
0003b0 73 f2 7e 3d 6e 2f 9a bb ec 58 a1 bd 93 18 26 3c
       0.062242936 -0.004705361 -0.078782886 0.010137695
0003c0 63 0e 6f bd ae fc 69 3c e5 ed 86 bd 2d 2e 0a bd
       -0.05836333 0.014281435 -0.065883435 -0.033735443
0003d0 ca 11 a4 3c 23 a3 c1 3d 1d 64 e1 bc d6 6f 0e 3e
       0.020028014 0.09454944 -0.027513558 0.1390985
0003e0 04 87 8e 3d 59 be a0 3d 3e 95 34 bd 56 f0 ba 3d
       0.06959346 0.07848806 -0.04408764 0.09127872
0003f0 fa 45 aa 3c 85 bc 8f 3c d8 e4 06 3e bf 8e 75 3d
       0.02078532 0.017545948 0.13173234 0.059950586
