output/mnist/models/lstm_autoencoder_mnist_classification.pth (torch, 875740 bytes, 10 tensors)

encoder.weight_ih_l0 f4 [512, 28]
0	0xbd761896	-0.06008204
1	0x3d847ef3	0.06469526
2	0x3dbb350f	0.091409795
3	0x3d439acc	0.047755048
4	0x3d410367	0.047122385
5	0x3e32bead	0.1745555
6	0x3df5aa34	0.11995354
7	0x3e1b653f	0.15175341
8	0x3d2b53c8	0.041827947
9	0xbd490603	-0.049078
10	0xbc46daf0	-0.01213716
11	0x3da3ce79	0.07998366
12	0xbce2c497	-0.027681632
13	0xbe020dc1	-0.12700559
14	0xbd610583	-0.054936897
15	0xbb810894	-0.00393779
16	0xbc914901	-0.017735006
17	0x3cf58cff	0.029974459
18	0xbd688568	-0.05676785
19	0x3d85956f	0.06522643
20	0xbe00c77c	-0.12576097
21	0x3da0c6f3	0.078504466
22	0x3dbe9446	0.09305625
23	0x3d27ad02	0.040936477
24	0xbd26422e	-0.040590458
25	0x3d1e8ae0	0.03870666
26	0x3e33477e	0.17507741
27	0x3df8c539	0.12146992
28	0x3d8b9f1a	0.068174556
29	0x3dc79811	0.09745801
30	0x3dab2e56	0.08358447
31	0x3d1979b3	0.037469577
32	0x3e35e9d0	0.17764974
33	0x3e258727	0.16164838
34	0x3df12b73	0.117758654
35	0x3d9fa0d8	0.077943504
36	0x3c9017be	0.017589446
37	0xbc2816cb	-0.0102593405
38	0xbbf4a163	-0.007465528
39	0x3e67ca10	0.22635674
40	0x3e8333d5	0.25625482
41	0x3e39b064	0.18133694
42	0x3dc65502	0.09684183
43	0x3dfcbcd3	0.12340703
44	0x3df39c18	0.11895007
45	0x3dcbc7df	0.09950232
46	0x3d5dcc43	0.054149877
47	0xbd7a8d2d	-0.061169792
48	0xbdc538a2	-0.096299425
49	0x3c9365ef	0.017992942
50	0x3d001280	0.031267643
51	0x3d7152f6	0.05891701
52	0x3b57915c	0.0032893037
53	0xbc846cc4	-0.016165145
54	0x3d6fc0b1	0.058533374
55	0x3e2bea80	0.16788673
56	0x3de80862	0.11329724
57	0x3dad6ea1	0.084683664
58	0xbd847a81	-0.06468678
59	0xbe57fed2	-0.210933
60	0xbe81394c	-0.25239027
61	0xbe868d21	-0.26279548
62	0xbecdfe7a	-0.40233213
63	0xbea5ab9a	-0.32357484
64	0xbf0ac1c1	-0.54201895
65	0xbf2b6058	-0.66943884
66	0xbeed1557	-0.46305344
67	0xbeaa27e8	-0.3323357
68	0xbe9fee3f	-0.31236455
69	0xbdadde1e	-0.08489631
70	0xbe25c12c	-0.1618697
71	0x3c19df78	0.009391658
72	0x3e008a56	0.12552771
73	0x3e039adc	0.12852043
74	0xbc1d3636	-0.009595444
75	0xbde2e234	-0.11078301
76	0xbdae4d87	-0.08510881
77	0xbbd1d8b6	-0.006404008
78	0xbb650f6f	-0.0034951826
79	0x3d3eee88	0.0466142
80	0x3dd631af	0.10458695
81	0x3e53ba00	0.20676422
82	0x3dc9f846	0.098618075
83	0xbda1da10	-0.0790292
84	0xbda490d8	-0.08035439
85	0x3e0e7858	0.13913095
86	0x3dc212fb	0.094762765
87	0x3e6c3e83	0.23070721
88	0x3ec5a740	0.38604164
89	0x3e47101d	0.1943974
90	0x3eab61a5	0.33472934
91	0x3e7de468	0.24794161
92	0x3e55a81b	0.20864908
93	0x3e4c84c0	0.19972515
94	0xbbf138a7	-0.00736149
95	0xbd8e4e4a	-0.06948526
96	0xbc7d3e8e	-0.015456809
97	0xbc78505e	-0.01515588
98	0xbdbea0e7	-0.093080334
99	0xbe656759	-0.22402705
100	0xbe253d86	-0.1613675
101	0xbe173d0c	-0.14769381
102	0x3d54272d	0.051795173
103	0x3d7d5c1d	0.061855424
104	0x3e057215	0.130318
105	0x3d2bee33	0.04197521
106	0x3cec70b7	0.02886234
107	0xbd992953	-0.07478585
108	0xbcb4a9a4	-0.022053547
109	0x3da3fae0	0.08006835
110	0x3caf1b85	0.021375427
111	0x3de0241d	0.10944388
112	0xbc61edb9	-0.013789588
113	0x3c8ebbb3	0.017423486
114	0xbd3960b6	-0.045258246
115	0xbcddfb2e	-0.02709731
116	0xbe584c32	-0.21122816
117	0x3ce50845	0.027958045
118	0x3de787e0	0.11305213
119	0x3dd9a982	0.10628034
120	0x3c51ef2b	0.01281337
121	0x3d7ff45d	0.062488902
122	0x3e292212	0.16516903
123	0x3de8a65d	0.11359856
124	0x3da0f96c	0.078600734
125	0x3e1d2eaa	0.15349832
126	0x3d8490b6	0.06472914
127	0x3e2a4c88	0.16630757
128	0x3d692b76	0.056926213
129	0x3d83e5cc	0.06440315
130	0x3d2f9109	0.042862926
131	0xbccb9043	-0.024849063
132	0xbcdda79b	-0.02705746
133	0xbddb0547	-0.10694366
134	0xbe459cf1	-0.1929815
135	0xbe2cfa25	-0.16892298
136	0xbe2dab4f	-0.1695988
137	0xbe80db3e	-0.2516727
138	0xbe24421e	-0.16040847
139	0xbd4085ac	-0.04700248
140	0xbccc81a6	-0.024964165
141	0x3e0bf2e5	0.13666876
142	0xbdfb4dc2	-0.122706905
143	0xbd465b2b	-0.04842679
144	0xbe1a78ce	-0.15085146
145	0x3c86be48	0.016448155
146	0xbd14a2b5	-0.036287982
147	0xbbc0bd66	-0.005881953
148	0x3df6b17d	0.12045572
149	0x3d2fa339	0.04288027
150	0x3e239c3b	0.15977566
151	0x3dd94c4c	0.106102556
152	0xbd45b139	-0.048264716
153	0xbd78bb55	-0.06072553
154	0x3dc5cf04	0.09658626
155	0x3dabc3be	0.08386944
156	0x3e6f31ab	0.2335879
157	0x3e3cd77c	0.18441576
158	0x3e53b78e	0.2067549
159	0x3d2eb870	0.042656362
160	0x3b8a49d2	0.004220226
161	0x3ad4e0c6	0.0016241304
162	0xbbb2e2ff	-0.005459189
163	0xbe39b6bc	-0.18136114
164	0xbe3bf1e4	-0.18353993
165	0xbd8230c7	-0.0635696
166	0x3c05c0ac	0.008163612
167	0xbe25f12f	-0.16205285
168	0x3d47f433	0.04881687
169	0xbd0c5444	-0.03426005
170	0x3d3da324	0.04629816
171	0x3e3009d6	0.17191252
172	0x3e27fe4a	0.16405597
173	0x3df33e28	0.1187709
174	0x3cc710e3	0.024300044
175	0x3dbcde96	0.092221424
176	0x3e89710f	0.2684407
177	0x3e0b8001	0.13623048
178	0x3da594e6	0.08085041
179	0x3db11153	0.086458825
180	0xbd60dc11	-0.05489737
181	0xbd9ea0ed	-0.07745538
182	0xbd2712e4	-0.0407895
183	0xbbdb57fa	-0.0066938372
184	0xbe1669d8	-0.14688814
185	0xbe13594a	-0.1438953
186	0xbe20975e	-0.15682742
187	0xbdc2b483	-0.09507086
188	0x3d9a7a1f	0.07542824
189	0x3dcc2c24	0.09969357
190	0xbc1f58fa	-0.0097258035
191	0xbd174ab3	-0.036936473
192	0xbddbc5d2	-0.107310906
193	0xbd874fb7	-0.06607001
194	0xbd9665d8	-0.07343644
195	0xbda16f6c	-0.0788258
196	0x3dc0034b	0.09375628
197	0x3d986605	0.07441334
198	0x3eaa328e	0.33241695
199	0x3e8b35b4	0.2718941
200	0x3e84ac0a	0.25912505
201	0x3e213ce6	0.15745887
202	0xbc7fb652	-0.015607433
203	0xbd7e58e2	-0.062096484
204	0xbd47bb9e	-0.04876291
205	0x3d2447d9	0.04010758
206	0x3d10d9a4	0.03536381
207	0x3e411e07	0.18859111
208	0x3dfa799a	0.12230225
209	0x3c7cd68d	0.015432012
210	0x3e136bb0	0.14396548
211	0x3bb9f709	0.005675201
212	0x3d40a69e	0.0470339
213	0x3e088261	0.13330986
214	0x3e09f9ff	0.13474272
215	0x3e4896eb	0.1958882
216	0x3e9e2e3a	0.30894643
217	0x3ea819d8	0.32832217
218	0x3e93cb87	0.28866217
219	0x3e99bea1	0.3002825
220	0x3dc0c60c	0.094127744
221	0x3d9dda42	0.07707645
222	0x3dd2750e	0.10276233
223	0xbd431d72	-0.047635503
224	0x3d7e6714	0.06211002
225	0x3db56da9	0.08858807
226	0x3c07abc6	0.0082807
227	0x3da579a1	0.080798395
228	0x3e5759d8	0.21030366
229	0x3e0317f2	0.12802103
230	0x3e5e15ea	0.21688047
231	0x3e3e3d6b	0.18578117
232	0x3ddc3bf7	0.10753625
233	0xbda3c5e6	-0.079967305
234	0xbd806638	-0.06269497
235	0xbda5f1ab	-0.08102735
236	0xbe33237f	-0.1749401
237	0x3ce44efa	0.02786969
238	0xbc699fdc	-0.014259305
239	0x3da77622	0.08176829
240	0x3e5705a9	0.20998253
241	0x3e588ed4	0.21148235
242	0x3dcaaf33	0.09896698
243	0x3e0ec341	0.13941671
244	0x3d69cdf4	0.057081178
245	0x3de67859	0.11253423
246	0x3d25f60f	0.040517863
247	0xbda92760	-0.08259463
248	0xbd9b3ef8	-0.0758037
249	0x3cff8c06	0.031194698
250	0x3dbb9793	0.0915977
251	0x3e7752e2	0.24152711
252	0xbd329d05	-0.043606777
253	0x3e1f7954	0.15573627
254	0xbbbac992	-0.0057002986
255	0x3e78389a	0.24240342

encoder.weight_hh_l0 f4 [512, 128]
0	0x3d2bfc4f	0.041988667
1	0xbda8f7f3	-0.082504176
2	0xbe673087	-0.22577105
3	0x3cd460ca	0.025925059
4	0x3e26bd5b	0.16283171
5	0x3d89eed1	0.06735004
6	0xbd3df191	-0.046372954
7	0xbd558a6d	-0.052133966
8	0xbde4bb7c	-0.11168572
9	0xbd687185	-0.056748886
10	0x3d33f145	0.043931264
11	0x3dbe0153	0.09277596
12	0x3db1ba99	0.08678169
13	0x3d8fa1b0	0.07013261
14	0x3d8fa029	0.0701297
15	0x3d2f6b46	0.042826913
16	0xbcd288bd	-0.025699968
17	0x3ca63cbe	0.020292636
18	0xbd9dd65d	-0.07706902
19	0x3ceb8680	0.028750658
20	0x3dc01dd8	0.09380692
21	0x3e087fce	0.13330004
22	0xbd346d81	-0.044049744
23	0xbcc8d342	-0.024514798
24	0xbdfa0a0d	-0.12208948
25	0x3cfcc274	0.030854441
26	0x3b9da238	0.0048105977
27	0xbdce0ec1	-0.10061408
28	0x3dca726d	0.09885106
29	0x3df8faa7	0.12157183
30	0x3c7158f7	0.0147306835
31	0x3d3fc9a6	0.046823166
32	0x3db70aeb	0.08937629
33	0x3e0525b0	0.13002658
34	0xbd4816b9	-0.048849795
35	0xbd8d03ac	-0.06885466
36	0xbd9ccaa0	-0.07655835
37	0xbdad9326	-0.08475332
38	0xbe19619f	-0.14978646
39	0x3be3a072	0.006946617
40	0xbdc4e446	-0.09613852
41	0xbd0bb447	-0.034107473
42	0x3d06a664	0.032873526
43	0xbd3b2620	-0.045690656
44	0xbdfea1fc	-0.1243324
45	0x3dcb89f8	0.09938425
46	0x3d8efdee	0.06982027
47	0xbca2f806	-0.019893657
48	0x3e8533b3	0.26016006
49	0xbd355e83	-0.044279587
50	0x3bdbe740	0.0067109168
51	0x3c013108	0.007885225
52	0xbcebc1ff	-0.028779028
53	0xbcb68be2	-0.022283498
54	0xbcb45489	-0.022012966
55	0x3cfc2c57	0.030782862
56	0xbe04e37d	-0.12977405
57	0x3d243def	0.040098127
58	0x3e1be2a0	0.1522317
59	0xbcfc02e2	-0.030763093
60	0xbe30ec84	-0.17277724
61	0xbda46cae	-0.080285415
62	0xbd22a01a	-0.039703466
63	0x3d880f34	0.06643525
64	0xbcb36011	-0.021896394
65	0x3d74f58e	0.05980449
66	0x3a8de208	0.0010824809
67	0xbdaac3e3	-0.08338144
68	0xbd8986b0	-0.06715143
69	0xbdfbcfb3	-0.12295475
70	0x3c060d7d	0.008181927
71	0xbd86fd19	-0.06591243
72	0xbd4d0cc0	-0.050060987
73	0xbe6fe08d	-0.23425503
74	0x3da485b6	0.08033316
75	0x3d787608	0.06065944
76	0xbd3f1091	-0.04664666
77	0x3d507eec	0.050902292
78	0x3cde2841	0.027118804
79	0x3d3c207f	0.04592943
80	0xbcb464ef	-0.022020785
81	0xbb42d1dc	-0.0029727137
82	0x3d864c1d	0.06557486
83	0xbc89993b	-0.016796699
84	0xbdede22a	-0.11615403
85	0xbd4db63d	-0.050222624
86	0xbdeb4b83	-0.11489012
87	0x3c30ae83	0.010783794
88	0xbddd4692	-0.10804476
89	0xbcf1987e	-0.02949166
90	0x3d7fa384	0.0624118
91	0x3ca1fffb	0.019775381
92	0x3da30788	0.07960421
93	0xbd63e401	-0.055637363
94	0xbd8af07c	-0.0678415
95	0x3c91ebb5	0.01781259
96	0xbda2e397	-0.079535656
97	0x3ddc87d3	0.10768094
98	0x3d8ebaf0	0.06969249
99	0xbc898fd7	-0.016792221
100	0xbd0fc612	-0.035101004
101	0xbdbec0b5	-0.093141
102	0xbd6de000	-0.05807495
103	0x3daf7154	0.085665375
104	0x3d78d01c	0.060745344
105	0xbde623d6	-0.11237304
106	0x3dd2c901	0.10292245
107	0x3d5d6cf9	0.054059003
108	0x3d80f794	0.06297222
109	0xbda0503e	-0.07827805
110	0xbe1e50f1	-0.15460564
111	0xbcadf746	-0.021236073
112	0xbdb5f344	-0.0888429
113	0x3cd8d69b	0.02646952
114	0x3d058e03	0.032606136
115	0x3d99ad4a	0.075037554
116	0xbdfce613	-0.12348571
117	0x3db357b0	0.087569594
118	0x3c878bed	0.016546214
119	0xbca3a0ef	-0.0199742
120	0x3e10a360	0.14124823
121	0xba4c21e2	-0.00077870314
122	0xbd29a5f4	-0.04141803
123	0x3d8c7a2c	0.0685924
124	0x3ce2f2d5	0.027703682
125	0xbdb4e11d	-0.088319995
126	0xbd2c0df5	-0.042005498
127	0xbe10b5b5	-0.14131816
128	0xbdf15056	-0.11782901
129	0xbd028de5	-0.031873602
130	0xbe01d544	-0.1267901
131	0xbd640b90	-0.05567509
132	0xbd84bbb8	-0.06481117
133	0xbcc611b4	-0.024178363
134	0xbdd6a3d1	-0.10480464
135	0xbdc42555	-0.09577433
136	0xbd91a726	-0.07111959
137	0x3cd44553	0.025911963
138	0x3d87d541	0.06632472
139	0x3d439083	0.04774524
140	0x3d6f6640	0.058447123
141	0xbc85e399	-0.016343879
142	0xbab9e804	-0.0014183526
143	0xbb36d9f3	-0.0027900904
144	0xbd053e21	-0.032529954
145	0x3dfaea50	0.12251723
146	0x3e1a8f2c	0.15093678
147	0xbdac5796	-0.08415143
148	0xbe27df29	-0.16393723
149	0xbd6c4cd1	-0.057690445
150	0xbd8365e3	-0.06415918
151	0xbc9c8ee4	-0.019111104
152	0xbe62543b	-0.22102444
153	0x3d7a89bb	0.061166506
154	0x3d79a361	0.060946826
155	0x3d550e29	0.052015457
156	0x3d07540f	0.03303915
157	0x3d71f5c1	0.05907226
158	0xbd6c969d	-0.057760824
159	0x3d955408	0.07291418
160	0x3df0ba02	0.11754228
161	0x3d0f7f8b	0.035033744
162	0xbdcf1081	-0.1011057
163	0x3d6a7131	0.057236854
164	0x3cd20603	0.025637632
165	0xbd5d8d27	-0.05408969
166	0x3df51317	0.11966532
167	0x3d8852c6	0.06656413
168	0xbda1814c	-0.078859895
169	0xbdf6c4c1	-0.120492466
170	0x3dfefe62	0.124508634
171	0x3e287d66	0.16454086
172	0xbdfe3692	-0.12412752
173	0x3e27195d	0.16318269
174	0xbd0ef395	-0.034900267
175	0x3d470b7b	0.048594933
176	0xbe190787	-0.14944278
177	0x3c8df60f	0.017329244
178	0xbe0541bb	-0.13013355
179	0x3d423398	0.047412485
180	0x3d60c484	0.054874912
181	0x3d22dc82	0.039761074
182	0x3d927016	0.07150285
183	0x3c4ed99c	0.012625124
184	0xbd0e64fd	-0.03476428
185	0xbda199f8	-0.07890695
186	0xbc1525e2	-0.00910327
187	0xbe0bce53	-0.13652925
188	0xbdbda4b5	-0.09259931
189	0xbc6065ce	-0.013696147
190	0x3c8c728d	0.017144466
191	0x3d9a14f2	0.07523526
192	0xbdfbcd5e	-0.1229503
193	0xbe78a311	-0.24280955
194	0xbc0a647b	-0.008446808
195	0xbde6f0bc	-0.11276385
196	0xbb00cbdf	-0.0019652767
197	0x3cea43b5	0.028596738
198	0x3c4e5921	0.012594492
199	0x3df10b3c	0.11769721
200	0xbd1f856d	-0.038945604
201	0x3e20c2cd	0.1569931
202	0x3da1a867	0.07893448
203	0x3dd06048	0.10174614
204	0xbddc41d7	-0.107547455
205	0x3e01c1de	0.1267161
206	0x3bc23341	0.00592652
207	0xbd44bb2d	-0.048030067
208	0xbdb2c68c	-0.08729276
209	0xbdbfc756	-0.09364192
210	0xbc28d034	-0.010303546
211	0xbd529d3b	-0.051419478
212	0xbd8b0d6b	-0.06789669
213	0xbd647658	-0.055776924
214	0xbdc6606b	-0.09686359
215	0x3cf5afcc	0.029991053
216	0xbd00a462	-0.031406768
217	0x3b3c9524	0.0028775418
218	0xbdc0d19c	-0.0941498
219	0x3d822e07	0.06356435
220	0x3d3dc2ed	0.046328474
221	0x3cb72749	0.0223576
222	0xbc86bdd0	-0.016447932
223	0xbbe6f023	-0.0070476695
224	0xbdcdb517	-0.10044306
225	0xbdfa952c	-0.122354835
226	0x3cc414fb	0.023935786
227	0x3d308bb7	0.043101992
228	0x3d2c5474	0.04207273
229	0x3d570caa	0.05250231
230	0xbc496e1c	-0.0122943185
231	0x3c71656d	0.014733654
232	0xbd9a84c9	-0.07544858
233	0xbe0a2132	-0.13489226
234	0x3d96e622	0.07368113
235	0x3d4968cc	0.049172208
236	0x3cf078f6	0.029354554
237	0x3dab7e3c	0.08373687
238	0x3d1a7ce9	0.03771678
239	0x3db6e7bb	0.08930918
240	0xbd2664a6	-0.04062333
241	0x3d9ad63d	0.07560394
242	0x3d88336f	0.06650435
243	0xbd514978	-0.051095456
244	0xbcc1e059	-0.023666548
245	0xbe0406e6	-0.12893257
246	0xbd42e73c	-0.047583804
247	0x3d343a56	0.044000946
248	0x3e0a174a	0.13485447
249	0x3cde4d1b	0.027136376
250	0xbe1d3592	-0.15352467
251	0xbdbe8ef9	-0.093046136
252	0x3ad310be	0.0016103012
253	0xbe55bd08	-0.20872891
254	0x3c77209e	0.01508346
255	0x3c5ff000	0.01366806

encoder.bias_ih_l0 f4 [512]
0	0xbe0a3c36	-0.13499531
1	0xbc9c5ba8	-0.019086674
2	0x3e165fea	0.14685026
3	0x3e20e739	0.15713204
4	0x3cd40b8e	0.025884416
5	0xbc56462f	-0.0130782565
6	0xbd83faee	-0.064443454
7	0x3d005497	0.03133067
8	0xbdcf66e6	-0.10127048
9	0x3d13eb6a	0.03611318
10	0xbc68c0c5	-0.014206116
11	0x3b9251d5	0.0044653215
12	0x3dc22420	0.094795465
13	0xbd9c7c66	-0.076409146
14	0xbdd45056	-0.10366885
15	0x3d00ef03	0.03147794
16	0x3cc2d5d9	0.023783611
17	0x3d920629	0.07130081
18	0x3d9824d2	0.07428898
19	0xbd8705a3	-0.06592872
20	0xbd894977	-0.067034654
21	0xbcf49f2b	-0.029861053
22	0xbddf9fbc	-0.10919139
23	0xbd25c614	-0.040472105
24	0x3c9d529e	0.019204434
25	0x3db6b7f3	0.08921804
26	0x3ca3d3b2	0.019998405
27	0x3d4ef11c	0.05052291
28	0x3d02ce84	0.03193523
29	0xbd1e83d7	-0.03869995
30	0x3d849fbe	0.06475781
31	0x3cf06ddb	0.029349258
32	0x3da74f40	0.081694126
33	0xbdc7980f	-0.097458
34	0x3de1b807	0.110214286
35	0x3da1f4f7	0.079080515
36	0x3d9af1b0	0.075656295
37	0xbb4cd892	-0.0031257016
38	0x3d8f39ff	0.06993484
39	0xbce549df	-0.027989326
40	0x3d6f2543	0.058385145
41	0x3d17253a	0.036900736
42	0xbdb4736b	-0.08811077
43	0x3c12a2f9	0.0089499885
44	0x3dcbee81	0.099576004
45	0x3d66e1f8	0.056367844
46	0x3e014cdf	0.1262698
47	0xbd47e455	-0.04880174
48	0x3d120f11	0.0356589
49	0x3ae6142e	0.0017553621
50	0x3d86ba3a	0.06578489
51	0x3cbf5468	0.023355678
52	0x3d190035	0.037353713
53	0x3d819708	0.06327635
54	0x3cbdfe17	0.023192449
55	0xbc40e6f0	-0.01177381
56	0xbc909ec3	-0.017653828
57	0xbc8bf993	-0.01708678
58	0xbca96722	-0.02067906
59	0x3cdcde40	0.026961446
60	0xbcb6cc5e	-0.022314247
61	0x3d95d36a	0.07315715
62	0x3d8c60c0	0.06854391
63	0x3d36d9cd	0.044641305
64	0xbb5f8abd	-0.0034109794
65	0xbce152cd	-0.027505303
66	0x3cfcf541	0.030878665
67	0x3ceae212	0.028672252
68	0x3e102535	0.14076693
69	0x3e05e1d5	0.1307443
70	0xbdd0db54	-0.101980835
71	0xbd62737f	-0.055285927
72	0x3db3e43f	0.08783769
73	0xbd4c6f9a	-0.04991112
74	0xbdb3496d	-0.08754239
75	0x3d8bee7f	0.06832599
76	0x3c0ca1af	0.00858347
77	0xbdb7d5ae	-0.08976303
78	0x3df6194f	0.12016546
79	0x3c816348	0.015794411
80	0x3d27ecbd	0.040997256
81	0xbdd7f1f6	-0.10544197
82	0x3d266863	0.040626895
83	0xbd061132	-0.032731242
84	0x3dc8f2a9	0.09811909
85	0x3cd8317d	0.026390785
86	0xbd02ccf8	-0.031933755
87	0x3cbceabd	0.02306115
88	0x3daa312f	0.08310162
89	0x3d1a043f	0.037601706
90	0xbdd0c78a	-0.10194309
91	0x3d01d390	0.031695902
92	0xbdd373ee	-0.10324846
93	0x3deffa9f	0.11717724
94	0x3ce1a3cd	0.027543927
95	0x3dc35c25	0.095390595
96	0x3df75ee9	0.120786496
97	0x3be38857	0.006943743
98	0xbbdc8852	-0.006730118
99	0xbcd59d49	-0.026075976
100	0x3be2c684	0.0069206376
101	0xbd393c60	-0.045223594
102	0x3cfde01b	0.03099065
103	0x3d0800df	0.033203956
104	0x3d80c793	0.06288066
105	0xbdc58fca	-0.09646566
106	0x3c482e18	0.012218021
107	0xbd0f7d92	-0.035031863
108	0x3d0a0717	0.033698168
109	0x3cb1ec21	0.02171904
110	0xbc6926a7	-0.014230407
111	0xbd12b40c	-0.035816237
112	0xbc38738a	-0.011258015
113	0xbd52d124	-0.051468983
114	0x3dbbd82f	0.09172093
115	0x3e133c33	0.14378433
116	0xbc73d6e4	-0.014882777
117	0xbcd34917	-0.025791688
118	0xbd9d9218	-0.07693881
119	0x3b67739a	0.0035316707
120	0x3e4b040f	0.19825767
121	0x3cea6ead	0.028617227
122	0x3d7908d2	0.060799427
123	0x3e18b8d6	0.1491426
124	0xbd16dcb6	-0.03683158
125	0xbce3041a	-0.027711917
126	0x3df947b9	0.12171883
127	0x3a57f678	0.0008238326
128	0x3d01572f	0.031577285
129	0x3ba646cb	0.005074357
130	0x3e159850	0.14608884
131	0x3dec4736	0.1153702
132	0x3dcbc7b4	0.099502
133	0x3c2132ae	0.009838743
134	0x3e78bb5b	0.2429022
135	0xbb7735a1	-0.0037721174
136	0xbd9617ca	-0.07328756
137	0xbd2b4631	-0.041814987
138	0x3d57eae7	0.052714255
139	0x3d91c97f	0.071185105
140	0x3d56e3a1	0.052463178
141	0x39afee16	0.0003355599
142	0x3dd97c34	0.10619393
143	0x3d98e897	0.07466238
144	0x3e1e9b74	0.15488988
145	0xbd749f38	-0.059722155
146	0x3d8895e7	0.066692166
147	0x3cd4587a	0.025921095
148	0x3e247096	0.16058573
149	0xbb01d33e	-0.0019809748
150	0x3e3a22cd	0.18177338
151	0x3c93ae98	0.018027589
152	0xbacf0235	-0.0015793504
153	0x3e36d967	0.1785637
154	0x3c6eea2d	0.014582199
155	0x3e3427ac	0.17593259
156	0x3d23d1c4	0.03999497
157	0x3c21f4f6	0.009885063
158	0x3ce2faa3	0.027707404
159	0x3a39ac48	0.0007082862
160	0x3df3fd6b	0.1191357
161	0x3d950e1c	0.07278082
162	0x3e0517b5	0.12997325
163	0x3db98ee6	0.09060459
164	0x3ca1773d	0.019710178
165	0x3dc0b921	0.094103105
166	0x3db531d4	0.088473946
167	0x3afafb34	0.0019148351
168	0xbd99d391	-0.07511056
169	0x3d806643	0.06269505
170	0x3e2f036b	0.17091148
171	0x3dd16b0f	0.10225498
172	0x3dc64769	0.09681589
173	0x3b7cffce	0.003860462
174	0x3e1a40c7	0.15063773
175	0x3d36a1c6	0.044587873
176	0x3da2883f	0.07936143
177	0x3da79df1	0.08184422
178	0xbce9998d	-0.028515602
179	0x3d5915f4	0.05299945
180	0x3d550577	0.052007165
181	0x3d2af16b	0.04173414
182	0x3de5af71	0.112151034
183	0x3df3e091	0.11908067
184	0x3d84aec8	0.064786494
185	0x3e3ccce5	0.18437536
186	0xbd471f21	-0.04861367
187	0x3e153684	0.14571577
188	0x3cceceef	0.025245158
189	0xbc905b0f	-0.017621545
190	0x3dbc5605	0.091960944
191	0x3d886629	0.066601105
192	0x3d5847a3	0.052802693
193	0x3e0008ed	0.12503405
194	0x3daded21	0.084924944
195	0x3e84c8d7	0.2593448
196	0x3e73c002	0.23803714
197	0x3d8be568	0.06830865
198	0x3df04e7b	0.11733719
199	0xbc206e16	-0.0097918715
200	0xbc14c578	-0.009080283
201	0x3e304739	0.1721467
202	0x3dd46530	0.103708625
203	0x3c80bdb6	0.015715461
204	0x3e1c39a7	0.15256368
205	0x3de8bfea	0.1136473
206	0x3d7f7aeb	0.062373083
207	0x3df5972a	0.11991723
208	0xbd7e18ca	-0.06203536
209	0x3e2a25e9	0.16616024
210	0x3cce1acc	0.025159262
211	0x3db05262	0.08609463
212	0xbc5dfd0c	-0.013549101
213	0x3d885cc8	0.066583216
214	0x3d97dbd0	0.07414973
215	0x3d9bae0e	0.07601558
216	0x3e087832	0.13327101
217	0x3df6398b	0.12022694
218	0x3d80c513	0.06287589
219	0xbd55d795	-0.05220755
220	0x3da62297	0.08112066
221	0x3ddc1e84	0.10748008
222	0xbd9b5880	-0.075852394
223	0x3e29ed2d	0.16594382
224	0x3ca87353	0.020562803
225	0x3e021ab9	0.12705506
226	0x3dc397fc	0.09550473
227	0xbd1fa795	-0.038978178
228	0x3ca200cb	0.019775769
229	0x3d72aec3	0.059248697
230	0x3deb65a0	0.11493993
231	0x3dd5cf7d	0.10439966
232	0x3e1a528f	0.15070556
233	0x3b008e08	0.0019615907
234	0x3ddaaf6c	0.1067799
235	0x3e032779	0.12808026
236	0x3d01c914	0.031685904
237	0x3d840c3b	0.06447645
238	0xbb617cad	-0.0034406588
239	0x39854933	0.00025422274
240	0x3e236a75	0.15958579
241	0x3e4b5fa6	0.19860706
242	0x3dc1eb78	0.0946874
243	0x3d916032	0.07098426
244	0x3d0b0c0e	0.033947043
245	0x3d126f4f	0.035750683
246	0xba8fccac	-0.0010971031
247	0x3d7a28ba	0.061073996
248	0x3e5b545a	0.21418896
249	0x3d0dfcf3	0.03466506
250	0x3d8055c1	0.06266356
251	0x3d6fb10d	0.05851846
252	0xbc9bb9eb	-0.019009551
253	0x3c8bdaf0	0.017072171
254	0x3c9adf89	0.018905418
255	0x3c82ed9f	0.015982447

encoder.bias_hh_l0 f4 [512]
0	0xbddec04d	-0.10876522
1	0xbdf9304a	-0.121674135
2	0x3dfc713b	0.123262845
3	0x3d667187	0.05626061
4	0xbd089d74	-0.033353284
5	0x3d95bb1d	0.0731108
6	0xbd945742	-0.072432056
7	0x3dac6e51	0.08419479
8	0x383b9320	4.4721295e-05
9	0xbd9ae375	-0.07562915
10	0x3d1700dd	0.036866058
11	0x3d1a482f	0.037666496
12	0xbc437c89	-0.011931547
13	0xbda062a8	-0.07831317
14	0xbdca4ed3	-0.09878316
15	0x3e1b6142	0.1517382
16	0xbc15e477	-0.009148709
17	0xbd8685c1	-0.0656848
18	0xbd193090	-0.03739983
19	0x3d91674c	0.070997804
20	0xbd73a681	-0.059484962
21	0xbd2e1c71	-0.042507593
22	0x3d163b59	0.036677692
23	0xbd03fc6c	-0.03222315
24	0xbcb28c9c	-0.021795563
25	0x3df6f021	0.1205752
26	0xbcb66f83	-0.02226997
27	0x3e106d80	0.14104271
28	0xbdace282	-0.084416404
29	0x3d64a455	0.05582078
30	0x3d8341fd	0.06409071
31	0xb7a8ed1c	-2.0137573e-05
32	0x3d806a2c	0.06270251
33	0xbe175ea4	-0.14782196
34	0x3d5141c8	0.051088125
35	0x3dc17732	0.09446563
36	0x3dad6b87	0.08467775
37	0x3d2f13d7	0.04274353
38	0x3e2f49e0	0.17118025
39	0xbcb7b621	-0.022425713
40	0xbc4e050e	-0.012574447
41	0xbca08c49	-0.019598143
42	0xbbc3d0fb	-0.00597584
43	0xbbbe1a76	-0.0058014942
44	0x3de3d504	0.11124614
45	0x3e12521a	0.14289132
46	0x3db956a3	0.09049728
47	0x3d7b7ac8	0.06139639
48	0xbd0f9807	-0.035057094
49	0xbbb57dcb	-0.0055386773
50	0x3dcf1f9e	0.101134524
51	0x3c96bbcf	0.018400101
52	0xbcc88e1b	-0.024481824
53	0x3d352226	0.04422202
54	0x3d9ca332	0.076483145
55	0x3cfb4e31	0.030676933
56	0xbd6c93a7	-0.057758
57	0x3dd43a75	0.10362712
58	0x3db38bfe	0.08766936
59	0xbd415d88	-0.04720834
60	0xbce7ee4d	-0.028311873
61	0xbd06dd08	-0.032925636
62	0x3db99f2d	0.090635635
63	0x3d983c86	0.07433419
64	0xbc1a225d	-0.009407607
65	0xbc0e0d88	-0.008670218
66	0xbc32c084	-0.010910157
67	0x3c5ce214	0.013481636
68	0x3e0dadba	0.13835803
69	0x3c96318d	0.018334175
70	0x3d1521da	0.036409236
71	0x3db77e00	0.089595795
72	0x3daceb6b	0.0844334
73	0xbd2e56da	-0.042563297
74	0xbd558e43	-0.052137624
75	0xbda033b6	-0.07822363
76	0xbbb4d133	-0.0055181026
77	0xbc00cbda	-0.007861102
78	0xbc972397	-0.018449588
79	0x3e02e270	0.12781692
80	0x3ca50772	0.020145152
81	0xbc64e498	-0.013970517
82	0x3cb13211	0.021630319
83	0x3baecd6c	0.005334547
84	0x3d7c669e	0.0616213
85	0xbd269d0b	-0.04067711
86	0xbd2db79c	-0.04241143
87	0x3dd66fa3	0.10470512
88	0xbc36374c	-0.011121582
89	0x3d8a3b4a	0.0674959
90	0x3c683d7c	0.014174815
91	0xbda874ba	-0.08225389
92	0xbdc5f72a	-0.096662834
93	0x3dec8e6e	0.11550604
94	0xbcc96ac4	-0.024587043
95	0xbc248c45	-0.0100432085
96	0x3d1f41f3	0.038881253
97	0x3db93c2f	0.09044682
98	0xbd0701ef	-0.03296083
99	0xbc98715a	-0.018608738
100	0x3d76722e	0.060167484
101	0xbbfb920a	-0.0076773213
102	0xbcc604cd	-0.024172211
103	0xbd9fb73e	-0.077986225
104	0x3d840433	0.064461134
105	0x3ca85419	0.020547913
106	0xbd8ae5fb	-0.067821465
107	0x3c24465f	0.010026543
108	0x3d4e7464	0.050403967
109	0xbd8107cd	-0.06300316
110	0x3bb1cc9d	0.005426003
111	0x3d06da4a	0.03292302
112	0xbcb08ccc	-0.021551512
113	0x3c78a0d4	0.015175063
114	0xbd43a6f0	-0.047766626
115	0x3ddb7f70	0.10717666
116	0x3de4424c	0.111454576
117	0xbb490895	-0.0030675281
118	0x3d4d9fd8	0.050201267
119	0x3c1f8434	0.0097361095
120	0x3de4f107	0.11178785
121	0x3d157bc6	0.036494993
122	0x3da89468	0.08231431
123	0x3db3cb29	0.08778984
124	0xbd0bebbd	-0.034160364
125	0x3cdb71f0	0.026787728
126	0x3d93da5e	0.072193846
127	0x3c8f817f	0.017517803
128	0x3c402307	0.011727101
129	0xbd9d32ab	-0.0767568
130	0x3d3e848b	0.04651312
131	0x3d992cd2	0.07479252
132	0x3ded1442	0.115761295
133	0x3c30532e	0.010762019
134	0x3e38a10a	0.18030182
135	0x3d2027be	0.0391004
136	0xbca6ba3d	-0.020352477
137	0xbc2dcaf6	-0.010607472
138	0x3cce3d06	0.025175583
139	0x3d0de641	0.034643415
140	0x3e175913	0.14780073
141	0x3dd11a09	0.10210044
142	0x3d1cd70c	0.038291022
143	0xbd152b4b	-0.03641824
144	0x3cb3d9f2	0.02195451
145	0x3d92034c	0.07129535
146	0x3e652b52	0.22379807
147	0x3d196e79	0.03745887
148	0x3dc08bde	0.094016775
149	0x3d585b70	0.052821577
150	0x3e26e6e8	0.16299021
151	0x3d2050fc	0.039139733
152	0x3d7183d7	0.058963623
153	0x3e565975	0.20932563
154	0xbc8fbcbe	-0.017546054
155	0x3d2ac6e0	0.04169357
156	0x3e2884f7	0.16456972
157	0x3e34a9bf	0.17642878
158	0x3dd0cba2	0.1019509
159	0x3b97cba6	0.004632431
160	0x3dff3e28	0.12463027
161	0x3dc874b1	0.09787882
162	0x3da208d7	0.07911842
163	0x3d1762e4	0.036959544
164	0x3d390f90	0.045180857
165	0x3e3d1adf	0.18467282
166	0x3dafb5c0	0.08579588
167	0xbc968d59	-0.018377947
168	0xbd844bc1	-0.064597614
169	0x3d49c564	0.049260512
170	0x3e5907a0	0.21194315
171	0x3c47f0fe	0.012203453
172	0xbbe5cd5d	-0.0070130066
173	0x3de66d75	0.11251346
174	0x3e243d04	0.160389
175	0xbcb1e48d	-0.021715427
176	0x3dc7c7ee	0.097549304
177	0x3dd7d460	0.10538554
178	0x3d4c6050	0.04989654
179	0x3de0d550	0.10978186
180	0x3d797392	0.060901232
181	0x3d3e4ec4	0.046461836
182	0x3d021773	0.031760644
183	0x3e4209f6	0.18949112
184	0x3dc08b50	0.09401572
185	0x3dc993cf	0.098426454
186	0xbd551c8e	-0.052029185
187	0x3e1b3846	0.15158185
188	0x3e17c7dc	0.14822334
189	0x3ca9737e	0.020684954
190	0x3e2bda68	0.16782534
191	0xbc04331f	-0.008068829
192	0x3dd22eb6	0.10262816
193	0x3e0aab0a	0.13541809
194	0x3d7e7994	0.062127665
195	0x3db20d0f	0.08693897
196	0x3e0946ae	0.13405868
197	0x3e355ba7	0.17710744
198	0x3c554849	0.013017722
199	0x3d6caeb9	0.057783816
200	0x3d77ba6c	0.06048052
201	0x3e05b861	0.13058616
202	0x3d2267ab	0.039649647
203	0x3da43dba	0.08019586
204	0x3d58e4d5	0.052952606
205	0x3c86bcaa	0.016447384
206	0x3dfe6e96	0.12423436
207	0x3d172cf9	0.036908124
208	0xbdaa60d5	-0.083192505
209	0x3e1db81f	0.15402268
210	0x3dd09f20	0.10186601
211	0x3cd958a6	0.026531529
212	0x3daf1f44	0.08550885
213	0x3d9b3363	0.075781606
214	0x3e0da46f	0.13832258
215	0x3d4dc092	0.050232477
216	0x3dee5e05	0.116390266
217	0x3e161692	0.14657047
218	0x3cf8d6c9	0.030375855
219	0x3b4fd9ea	0.003171558
220	0xbc9eca9f	-0.019383727
221	0x3dfed193	0.12442317
222	0xbb72372e	-0.003695916
223	0x3e09db9b	0.13462679
224	0x3d28a530	0.04117316
225	0x3e1823ff	0.14857481
226	0x3e50d0a6	0.20392093
227	0xbd550977	-0.05201098
228	0x3df41ad8	0.119191825
229	0x3e17aa48	0.14811051
230	0x3e166a7b	0.14689057
231	0x3e04b863	0.12960963
232	0x3d917350	0.07102072
233	0x3d9c5e1c	0.076351374
234	0x3c3466c6	0.011010831
235	0x3d2c8cd8	0.042126507
236	0x3dfc60f2	0.12323178
237	0x3e08c50e	0.1335642
238	0x3de44f38	0.11147922
239	0x3dbd3fd2	0.092406884
240	0x3e0cc2d2	0.13746193
241	0x3e1bc681	0.15212442
242	0xbd1c50a3	-0.03816284
243	0x3e1037be	0.14083764
244	0x3db2d559	0.08732099
245	0xbcaf8d34	-0.021429636
246	0x3d1cf58b	0.038320106
247	0xbb41f52b	-0.0029595594
248	0x3e7bf0c0	0.24603558
249	0x3e0476ba	0.12935916
250	0x3ddff0c6	0.10934596
251	0x3e1c9668	0.1529175
252	0x3d8f7f8d	0.0700675
253	0x3cdb0c60	0.0267393
254	0x3c35726a	0.011074642
255	0x3d3936c4	0.045218244

decoder.weight_ih_l0 f4 [512, 128]
0	0xbbc25aa7	-0.0059312168
1	0xbd3fcec2	-0.04682804
2	0x3dc155b6	0.09440176
3	0x3dedd1aa	0.11612256
4	0x3dd90802	0.105972305
5	0xbd16f847	-0.03685787
6	0x3dc65f3a	0.09686132
7	0x3d097aca	0.033564366
8	0xbd847bad	-0.06468902
9	0xbb85f91a	-0.004088533
10	0xbd13dd43	-0.036099683
11	0xbd6fdbdc	-0.058559284
12	0xbc1884ad	-0.009308976
13	0x3bd9daaf	0.0066483836
14	0xbd2690e3	-0.04066552
15	0x3da4604e	0.08026181
16	0x3ba04474	0.0048909727
17	0x3d512b54	0.05106671
18	0xbcaba5ec	-0.020953141
19	0x3daf853f	0.085703366
20	0xbe247248	-0.1605922
21	0x3d7ce774	0.06174417
22	0xbdc88ea2	-0.0979283
23	0x3e0bff83	0.13671689
24	0x3c40855a	0.0117505435
25	0x3ddf530d	0.109045126
26	0xbd082846	-0.033241533
27	0x3e10bcd8	0.14134538
28	0x3ddd526f	0.108067386
29	0xbb97fb52	-0.004638114
30	0x3dee6db4	0.11642018
31	0xbde519e9	-0.111865826
32	0x3deac962	0.11464192
33	0x3c9742bf	0.018464444
34	0x3ce03fff	0.027374266
35	0x3da86a3a	0.08223386
36	0x3d6e9b35	0.058253486
37	0x3dc9993c	0.0984368
38	0xbda0ddb1	-0.07854784
39	0xbb4e114f	-0.0031443422
40	0x3d9cf12e	0.07663189
41	0xbd12f16c	-0.03587477
42	0xbd400622	-0.04688085
43	0xbda1cc86	-0.07900338
44	0xbb05f800	-0.002044201
45	0xbac731a2	-0.0015197287
46	0xbdc4a39e	-0.0960152
47	0xbd81e26a	-0.06342013
48	0xbd5fc33c	-0.05462955
49	0x3e45982d	0.19296332
50	0xbc2e1ae4	-0.010626528
51	0xbd87c305	-0.06628994
52	0x3d8b9c04	0.06816867
53	0xbc8c1361	-0.017099084
54	0xbd150700	-0.03638363
55	0x3e1274c6	0.14302358
56	0x3d83284f	0.06404173
57	0x3da451b8	0.08023399
58	0xbe09820f	-0.1342852
59	0xbce152c7	-0.027505292
60	0xbd985bef	-0.0743941
61	0x3cd773ff	0.026300428
62	0xbc9e36a0	-0.019313157
63	0xbc572af6	-0.013132801
64	0x3da7e5f5	0.08198158
65	0x3c58f920	0.01324299
66	0x3bd41861	0.0064726328
67	0x3e009d0f	0.12559913
68	0x3df04f0a	0.117338255
69	0xbdfe8f9b	-0.12429734
70	0xbcfc369d	-0.03078776
71	0xbc4bf5ad	-0.01244871
72	0x3db3ee7c	0.08785722
73	0x3cab8326	0.02093656
74	0xbc672f4a	-0.014110396
75	0xbc1b7a21	-0.009489567
76	0xbd7bcfb1	-0.061477367
77	0x3e04c531	0.12965848
78	0xbd95b8f0	-0.07310665
79	0xbdd8c86b	-0.10585102
80	0xbda8f281	-0.08249379
81	0x3d187d58	0.037228912
82	0x3dd91ff0	0.10601795
83	0xbda3d3b4	-0.079993635
84	0xbd85787d	-0.06517122
85	0x3cc11993	0.023571765
86	0xbd267439	-0.040638182
87	0xbd8213aa	-0.06351407
88	0xbb800b1c	-0.0039075743
89	0xbb3f0910	-0.0029149689
90	0x3d254bff	0.04035568
91	0xbd0df6a9	-0.03465906
92	0x3a240f12	0.0006258349
93	0xbd3fe58c	-0.046849772
94	0x3deec9a0	0.11659551
95	0x3d9a5cb7	0.07537215
96	0xbd0be265	-0.034151454
97	0x3d351fa0	0.044219613
98	0xbde88d3a	-0.11355062
99	0x3cc62937	0.024189575
100	0xbcc6ba67	-0.024258805
101	0xbbb90361	-0.0056461548
102	0xbd305757	-0.043052044
103	0x39965fbd	0.0002868156
104	0xbd97c707	-0.07411008
105	0x3e0756dd	0.1321673
106	0xbd9de255	-0.07709185
107	0x3d9fb032	0.077972785
108	0xbe0f751f	-0.14009522
109	0x3ca38751	0.019961985
110	0x3d70ee0b	0.058820765
111	0x3c9cfb44	0.019162782
112	0xbd839a64	-0.06425932
113	0x3cc9ef30	0.024650186
114	0xbbb6c07b	-0.0055771447
115	0xbde041a6	-0.109500214
116	0x3abd55fd	0.0014445182
117	0xba0233d7	-0.0004966831
118	0x3d5acd6f	0.053418573
119	0x3d01173a	0.03151629
120	0xbdef6864	-0.11689833
121	0x3db54e9c	0.08852884
122	0x3b3fc86b	0.0029263746
123	0xbe320c37	-0.17387472
124	0xbdc80acc	-0.09767684
125	0xbd2a6f90	-0.0416103
126	0xbdffaa87	-0.124836974
127	0x3d64bdf8	0.05584523
128	0x3e12abe0	0.14323378
129	0xbd5013f8	-0.050800294
130	0xbdeb4576	-0.11487858
131	0xbdfa2b4d	-0.1221529
132	0x3c7e3306	0.015515095
133	0x3d2198cf	0.03945237
134	0x3d7a2d42	0.061078317
135	0x3cd917cf	0.02650061
136	0x3cc8b181	0.024498703
137	0xbd453be0	-0.048152804
138	0xbb987be2	-0.00465344
139	0xbdf32d0d	-0.11873827
140	0x3de3865f	0.111096136
141	0x3e411801	0.18856813
142	0x3d64c2a0	0.05584967
143	0x3c3249fe	0.010881899
144	0xbd39e117	-0.045380678
145	0x3d1a5172	0.03767533
146	0x3d537ba5	0.05163159
147	0xbe2dee27	-0.16985379
148	0x3cda861b	0.026675275
149	0x3c9adadd	0.01890319
150	0xbe6e4efb	-0.23272316
151	0x3d9c0189	0.0761748
152	0xbdad13b7	-0.08451026
153	0xbda5687e	-0.08076571
154	0x3e058bd9	0.13041629
155	0x3da9ac3f	0.082848065
156	0xbd819189	-0.06326587
157	0x3cdf0723	0.027225083
158	0xbe1a63f5	-0.15077193
159	0xbd79c948	-0.060982972
160	0x3e046fb1	0.12933232
161	0xbe3defcf	-0.18548511
162	0x3c217565	0.009854649
163	0xbd4fe23e	-0.05075287
164	0xbd4d6005	-0.0501404
165	0x3d868622	0.065685526
166	0xbd1b27f1	-0.037879888
167	0xbd0c911e	-0.034318082
168	0x3c81fe30	0.015868276
169	0x3d4752b0	0.04866284
170	0x3e8f33b3	0.2796913
171	0x3df22f46	0.11825423
172	0xbcb7d6ff	-0.022441385
173	0xbcf1a1af	-0.029496042
174	0xbd91621c	-0.07098791
175	0x3b0707da	0.0020604045
176	0x3d693e20	0.056944013
177	0x3cda7c09	0.026670473
178	0xbd503676	-0.050833188
179	0xbe3907e0	-0.1806941
180	0x3c20bf2d	0.009811205
181	0x3da6cf82	0.08145048
182	0x3dd701fd	0.10498426
183	0x3cb387c8	0.021915331
184	0xbd90e862	-0.070755735
185	0x3ca28c87	0.0198424
186	0x3c98634b	0.018602034
187	0x3d597340	0.053088427
188	0xbcbdeb30	-0.023183435
189	0xbe19f7ee	-0.15035984
190	0x3d3db72b	0.04631726
191	0xbd6e12f5	-0.058123548
192	0xbde6b359	-0.112646766
193	0xbe31e9c2	-0.17374328
194	0xbd5acf36	-0.053420268
195	0xbc7cfe54	-0.015441496
196	0x3c969d58	0.018385574
197	0xbe0de093	-0.138552
198	0xbdc207f3	-0.094741724
199	0x3d910baf	0.070823066
200	0xbe20bef6	-0.15697846
201	0x3e1912a2	0.14948514
202	0x3db37c18	0.087639034
203	0xbd98d968	-0.07463342
204	0xbdee6569	-0.11640436
205	0xbe1ec377	-0.15504251
206	0xbcb448e9	-0.022007423
207	0x3df6dcb5	0.12053815
208	0x3cc3a895	0.023884097
209	0xbe25fcce	-0.16209719
210	0xbc2f2e2b	-0.01069216
211	0xbd483953	-0.048882794
212	0xbd4d9081	-0.050186638
213	0x3d4b5f61	0.049651507
214	0x3de982f7	0.11401933
215	0xbc2f20fa	-0.010689015
216	0xbd619970	-0.05507797
217	0xbdc8fc7b	-0.09813782
218	0xbe1e1368	-0.1543709
219	0xbd54cbb2	-0.05195207
220	0xbe4246b6	-0.18972287
221	0xbc7612d3	-0.0150191365
222	0xbb585546	-0.0033009811
223	0x3dc7c287	0.097539
224	0x3e4d777f	0.20065115
225	0xbd3527d1	-0.044227425
226	0x3c832856	0.016010445
227	0x3dc4f7a8	0.09617549
228	0x3e099d30	0.13438869
229	0xbd5dfcf6	-0.05419632
230	0x3e09e6d5	0.13466962
231	0xbd1f0dbc	-0.038831457
232	0x3da800d4	0.08203283
233	0xbd6ba3c7	-0.057529237
234	0x3d8a5747	0.06754928
235	0xbb5fbda1	-0.0034140127
236	0xbcf11c88	-0.02943255
237	0xbbfb70c0	-0.007673353
238	0xbc80c4db	-0.015718868
239	0x3d2c62c6	0.042086385
240	0x3cee86f8	0.029117092
241	0xbda783e1	-0.08179451
242	0xbd7b65b6	-0.061376296
243	0xbcad6e10	-0.021170646
244	0xbd318571	-0.04334015
245	0x3cdc35be	0.026881095
246	0x3d626d0b	0.055279773
247	0xbd816f9f	-0.06320118
248	0x3dae3a95	0.085072674
249	0xbe83d047	-0.2574484
250	0xbda396d5	-0.07987753
251	0x3d697c1d	0.05700313
252	0x3c8c9c0b	0.01716425
253	0x3cc9a46f	0.02461454
254	0x3c94688d	0.01811626
255	0xbcc492ac	-0.02399572

decoder.weight_hh_l0 f4 [512, 128]
0	0xbcdbc56f	-0.026827542
1	0x3d1460a7	0.036224987
2	0xbdb2f942	-0.087389484
3	0xbdec6a8d	-0.115437604
4	0x3d1c0704	0.038092628
5	0xbce89ce3	-0.028395122
6	0x3d12d7d0	0.035850346
7	0x3dc36fdd	0.095428206
8	0x3c6d794f	0.014494254
9	0x3c8030db	0.015648296
10	0xbcaf2f26	-0.021384787
11	0xbd78f9ad	-0.060784984
12	0xbdef8d2f	-0.116968505
13	0xbccfbb61	-0.025357904
14	0xbcb4e9b2	-0.02208409
15	0x3d8f2f92	0.06991495
16	0x3d75787a	0.05992935
17	0xbb20b08a	-0.0024519288
18	0xbdf7ea3d	-0.12105224
19	0xbded6f7a	-0.11593528
20	0xbd45aa25	-0.048257966
21	0xbdafb8b3	-0.085801505
22	0xbd6743e0	-0.056461215
23	0xbdc5d5b6	-0.09659903
24	0x3c1fc627	0.009751833
25	0xbd36b073	-0.04460187
26	0xbd90f01b	-0.070770465
27	0x3d2175f6	0.039419137
28	0xbe05ac99	-0.13054122
29	0xbc46f4ea	-0.012143353
30	0x3c6e5974	0.0145476945
31	0xbdb7f4cb	-0.089822374
32	0x3db23975	0.08702365
33	0x3d713774	0.058890775
34	0xbdb5fe4c	-0.08886394
35	0x3dbef816	0.093246624
36	0xbd8ce0a0	-0.06878781
37	0x3d18d52a	0.037312664
38	0xbe0314a3	-0.12800841
39	0x3d9d1ee9	0.07671911
40	0x3da9d689	0.082928725
41	0x3dbe9270	0.093052745
42	0xbe1195e3	-0.14217333
43	0xbb58a0da	-0.003305486
44	0xbdcff70b	-0.101545416
45	0x3cb433ce	0.021997359
46	0x3db1616c	0.0866116
47	0x3d78cc22	0.06074155
48	0xbbfa9a22	-0.0076477686
49	0x3d30c1af	0.04315346
50	0xbd087818	-0.033317655
51	0x3c7f1bd1	0.015570597
52	0xbd27e142	-0.040986307
53	0x3dcfbd37	0.10143512
54	0xbcfa37e9	-0.030544238
55	0x3ccb0ba5	0.024785826
56	0x3d644516	0.055729948
57	0x3d04cc6b	0.03242151
58	0x3de4fbbe	0.111808285
59	0xbca1c098	-0.019745156
60	0x3c78cafe	0.015185116
61	0x3d3d013e	0.046143763
62	0x3d7feed0	0.06248361
63	0xbd477edd	-0.04870497
64	0x3c8615d6	0.016367834
65	0xbce7b345	-0.028283725
66	0xbdefc12c	-0.117067665
67	0xbb154550	-0.002277691
68	0xbd661a22	-0.056177266
69	0xbd2087d7	-0.039192047
70	0xbd1353b0	-0.035968482
71	0x3c94f99f	0.018185435
72	0xbcced43f	-0.025247691
73	0x3d6a0571	0.057134096
74	0xbcf2e1c3	-0.029648667
75	0x3d717638	0.058950633
76	0x3d931eed	0.07183633
77	0x3d1e9793	0.03871877
78	0x3d2011d6	0.03907951
79	0x3e28864d	0.16457482
80	0x3db07eca	0.08617933
81	0xbcf92044	-0.030410893
82	0x3d081c79	0.03323028
83	0x3df66884	0.120316535
84	0xbe1273d3	-0.14301996
85	0x3dd188ff	0.10231208
86	0xbd640d49	-0.055676732
87	0xbdf5a94a	-0.1199518
88	0xbd3f9744	-0.046775118
89	0xb99f52e5	-0.00030388605
90	0x3cf658a0	0.030071557
91	0x3db8f338	0.09030765
92	0x3da9a981	0.082842834
93	0x3d9d1e81	0.07671834
94	0xbd9eb9d1	-0.077502854
95	0xbdce7387	-0.10080629
96	0xbd3110ab	-0.043228786
97	0x3d3ae571	0.04562897
98	0xbe03435f	-0.12818669
99	0x3df6128c	0.12015256
100	0xbdb1662f	-0.08662068
101	0x3d8dbb9d	0.0692055
102	0x3d1bd23d	0.038042296
103	0xbdc4ed67	-0.096155934
104	0xbd8d09c8	-0.06886631
105	0x3b35be95	0.0027732004
106	0xbe0d2076	-0.13781914
107	0xbd5d5253	-0.05403359
108	0x3d947292	0.07248415
109	0x3d148720	0.036261678
110	0xbe0bc335	-0.13648684
111	0xbdd8eb02	-0.10591699
112	0x3db553c2	0.08853866
113	0x3d323dce	0.043515973
114	0xbddcda00	-0.10783768
115	0xbd51e111	-0.05124003
116	0xbda19616	-0.07889955
117	0x3db8b4a7	0.09018832
118	0x3dae7615	0.08518616
119	0xbc9e6cf2	-0.019339059
120	0xbd51b183	-0.05119468
121	0x3d8ba1ec	0.068179935
122	0x3d5c7183	0.05381919
123	0xbddbdf12	-0.10735907
124	0xbcad14dc	-0.02112811
125	0x3dc3bb5a	0.09557219
126	0x3d62ab71	0.05533928
127	0x3ce70e0b	0.028204938
128	0x3e406b9c	0.1879105
129	0xbd0119fd	-0.031518925
130	0xbdcf8683	-0.10133078
131	0x3ce8965c	0.02839201
132	0xbdcd698f	-0.10029899
133	0x3c18f39f	0.009335428
134	0x3d96b8c7	0.07359462
135	0xbd521cad	-0.05129688
136	0x3c2f74d6	0.010709008
137	0x3dac03f6	0.08399193
138	0x3dde51a0	0.108554125
139	0x3daa223f	0.08307313
140	0x3ca0a2b4	0.019608833
141	0xbd9706bf	-0.073743336
142	0x3de7053e	0.11280297
143	0x3cfe66a9	0.031054812
144	0xbd6c4e1b	-0.057691675
145	0x3d27e496	0.04098948
146	0x3d0e7fc3	0.03478981
147	0x3e3f7cf1	0.18700005
148	0x3c48b76e	0.012250764
149	0xbb2df767	-0.0026545168
150	0x3c815da2	0.015791718
151	0xbccf3973	-0.025295949
152	0xbe0b7916	-0.1362041
153	0x3d171354	0.036883667
154	0x3d8b1f31	0.06793059
155	0x3d282c42	0.041057833
156	0xbc660ce1	-0.0140411565
157	0x3e04e064	0.12976223
158	0xbd98f0e7	-0.074678235
159	0x3de90e52	0.113796845
160	0xbd55ad8d	-0.052167464
161	0x3d4a4241	0.04937959
162	0x3bad8041	0.00529483
163	0xbc5d8f5b	-0.013522948
164	0x3dc65a5e	0.09685205
165	0x3e3e53b2	0.18586615
166	0xbd99dba8	-0.07512599
167	0x3d7b9051	0.061416928
168	0x3ca67b83	0.020322567
169	0xbc0da41d	-0.008645085
170	0xbdd17542	-0.10227443
171	0x3e0e1350	0.13874555
172	0xbd0a3d7e	-0.03375005
173	0xbdc0cd77	-0.09414189
174	0xbcd8ee23	-0.02648074
175	0xba5d631c	-0.00084452494
176	0x3c258aa9	0.01010386
177	0x3d302366	0.04300251
178	0x3d103967	0.035210993
179	0x3d02d7f3	0.031944226
180	0x3d766e2a	0.060163654
181	0xbd95b5a1	-0.073100336
182	0xbcf50b3b	-0.029912582
183	0x3d84b672	0.06480111
184	0xbc981491	-0.018564494
185	0x3cc6628f	0.024216918
186	0x3d0e017e	0.03466939
187	0xbc10a4c1	-0.008828343
188	0xbde8b02f	-0.11361729
189	0x3e0754f4	0.13216001
190	0xbcfba254	-0.030717053
191	0xbdeb4f94	-0.11489788
192	0x3ca39dbf	0.01997268
193	0xbd742081	-0.05960131
194	0xbce6d833	-0.028179264
195	0x3d442aad	0.04789226
196	0xbce8c4cb	-0.02841415
197	0x3d89330e	0.06699191
198	0xbd83310d	-0.0640584
199	0xbe01ad35	-0.1266373
200	0x3d90b22e	0.07065235
201	0xbe191f55	-0.14953358
202	0x3dad9c62	0.08477093
203	0xbd946267	-0.07245331
204	0xbc8fe1bf	-0.017563699
205	0xbc73ecf3	-0.014888036
206	0x3e3dfd5d	0.18553682
207	0x3d0668a1	0.032814626
208	0xbdeb2f09	-0.114835806
209	0xbe4f81bc	-0.20264333
210	0xbd9b8c7a	-0.07595153
211	0xbc0978f1	-0.008390651
212	0x3e364059	0.17797984
213	0x3da0384d	0.078232385
214	0x3c9ac69b	0.01889353
215	0x3d916ad2	0.071004525
216	0x3c8fc120	0.017548144
217	0x3c588778	0.013215892
218	0x3cbd6706	0.023120414
219	0xbe02a24b	-0.12757222
220	0x3dc6ea21	0.09712625
221	0x3bfc80a5	0.0077057653
222	0xbd925aa6	-0.07146196
223	0x3cde1c25	0.02711303
224	0xbd7f6746	-0.06235435
225	0xbe33230b	-0.17493837
226	0xbd5c0f8c	-0.053725764
227	0x3dad75c0	0.08469725
228	0x3df85d0a	0.12127121
229	0x3e29f784	0.16598326
230	0xbdaca387	-0.08429628
231	0xbd7214fb	-0.05910204
232	0xbd1bb061	-0.038010005
233	0xbd80c718	-0.06287974
234	0x3e227cbb	0.15867893
235	0xbda562d5	-0.08075491
236	0xbc98215c	-0.018570594
237	0x3d16b915	0.0367976
238	0xbd3b9acc	-0.045801923
239	0x3c6b5122	0.014362605
240	0x3d954c59	0.07289953
241	0xbbf153d4	-0.0073647294
242	0x3b3ab607	0.0028489844
243	0xbdbc00cf	-0.09179842
244	0x3e2ec6c8	0.17068017
245	0x3bf71edc	0.0075415205
246	0x3c880f46	0.016608845
247	0xbdd1a765	-0.10237006
248	0x3e096030	0.13415599
249	0x3d988327	0.0744689
250	0xbe0b2264	-0.13587338
251	0xbcd05497	-0.02543096
252	0xbd8ab5d5	-0.06772963
253	0xbd7e9a6e	-0.062158994
254	0xbd705846	-0.058677934
255	0xbdd6f84e	-0.10496579

decoder.bias_ih_l0 f4 [512]
0	0x3d54e84f	0.05197936
1	0xbd54050b	-0.05176262
2	0x3d10b70f	0.03533083
3	0x3d93c7b3	0.07215824
4	0x3cb30b26	0.021855902
5	0xbd42bef8	-0.047545403
6	0xbcfbd608	-0.030741706
7	0x3dc33692	0.09531893
8	0x3dbecb51	0.09316123
9	0xbd1491f5	-0.036272008
10	0x3cf959e4	0.030438371
11	0x3af0b8d8	0.0018365635
12	0x3d0d56d2	0.034506626
13	0x3e1d6bb8	0.15373123
14	0x3c367fd5	0.011138876
15	0x3d59f7eb	0.05321495
16	0x3d4d95ef	0.050191816
17	0xbd1dd784	-0.03853561
18	0x3d34751c	0.044056997
19	0x3d469696	0.048483454
20	0xbd012615	-0.03153046
21	0x3d9ca413	0.07648482
22	0x3d0c183f	0.03420281
23	0x3d11e97d	0.035623062
24	0xbd635143	-0.05549742
25	0xbd8a9db6	-0.06768362
26	0x3d6aa182	0.057282932
27	0xbd5fdeda	-0.054655887
28	0x3dd593c1	0.104285724
29	0x3d12adfe	0.035810463
30	0xbb7efef1	-0.003890928
31	0x3e024bfd	0.127243
32	0x3c554fc9	0.013019511
33	0x3cc0aea7	0.02352078
34	0x3d80953f	0.062784664
35	0x3dfbdb71	0.122977145
36	0x3db71a7b	0.089405976
37	0x3d6bff34	0.057616428
38	0x3dbce3d8	0.09223145
39	0xbb32cbac	-0.0027282042
40	0x3c8c7408	0.017145172
41	0x3daccd36	0.084375784
42	0x3d11041a	0.035404302
43	0x3da50464	0.08057478
44	0x3da33a50	0.079701066
45	0x3de909f5	0.11378852
46	0x3debbdac	0.115107864
47	0x3d7916e3	0.060812842
48	0x3ade0a7a	0.0016940378
49	0x3b1e6b36	0.002417279
50	0x3c9b0197	0.018921657
51	0x38fcf672	0.000120622004
52	0xbbe34b02	-0.006936432
53	0x3df5df7d	0.12005518
54	0x3d87811e	0.06616424
55	0x3cd7571a	0.02628665
56	0x3d0f0bd9	0.03492341
57	0x3dcc953d	0.099894024
58	0xbc9dd8ad	-0.019268358
59	0x3c9da2d0	0.019242674
60	0x3e072de9	0.13201107
61	0xbdb7b765	-0.089705266
62	0x3c57cd77	0.013171545
63	0x3d4b138b	0.049579185
64	0x3c24a616	0.010049364
65	0x3de31fcc	0.11090049
66	0x3da6dfe2	0.08148171
67	0x3c0c0d1a	0.0085480455
68	0x3deb18f3	0.11479368
69	0xbd3ce23a	-0.046114184
70	0x3bb04d1c	0.005380286
71	0xbdb5f83f	-0.0888524
72	0x3dafee9b	0.08590432
73	0x3d05997f	0.03261709
74	0x3daafcee	0.08349024
75	0xbcab7fd9	-0.020934986
76	0x39840643	0.00025181667
77	0x3ce7a21d	0.028275544
78	0xbcb733da	-0.022363592
79	0x3debb7ec	0.1150969
80	0xbbbb89f2	-0.0057232315
81	0x3d2f2824	0.04276289
82	0x3d9f1f4e	0.07769643
83	0xbbaf087e	-0.0053415885
84	0x3d9adb2b	0.07561334
85	0xbcc47172	-0.023979876
86	0xbd35475e	-0.044257514
87	0xbd720b2a	-0.059092678
88	0x3dca5d10	0.098810315
89	0x3d89c870	0.067276835
90	0x3de99a9a	0.11406441
91	0xbdb6b0d9	-0.0892045
92	0x3dc4330c	0.09580049
93	0xbd36660f	-0.044530924
94	0xbd3ae4d4	-0.045628384
95	0x3d5d39be	0.054010145
96	0xbd9d23fb	-0.07672878
97	0x3d4d6a63	0.050150286
98	0x3cd74d08	0.026281849
99	0xbd81bc0f	-0.063346975
100	0xbd93b8e6	-0.07213001
101	0x3dba77e2	0.09104897
102	0xbc584733	-0.013200569
103	0x3e1c8bb5	0.15287669
104	0x3cf26bcf	0.029592423
105	0x3c2d1be2	0.01056573
106	0x3ca3e7db	0.020008018
107	0xbcc731d6	-0.024315756
108	0xbd275f12	-0.04086215
109	0x3d7fa339	0.06241152
110	0xbc0f571f	-0.008748799
111	0x3dcc0d70	0.099635005
112	0x3d92e681	0.071728714
113	0x3b589b7f	0.0033051667
114	0x3ddbb798	0.10728377
115	0x3b5354d1	0.00322466
116	0x3dc2e875	0.09516994
117	0x3b3d0da0	0.0028847232
118	0xbcddeef9	-0.02709149
119	0x3ce4efd2	0.027946386
120	0x3de02ff1	0.10946644
121	0x3cf007ba	0.02930056
122	0x3dc2d842	0.09513904
123	0x3c940730	0.018069834
124	0x3d9485c7	0.072520785
125	0xbd19216b	-0.037385385
126	0x3d4c3b02	0.04986096
127	0x3e13d9d6	0.14438567
128	0xbd33f612	-0.043935843
129	0x3d699fdc	0.05703722
130	0x3ca5aa7d	0.020222897
131	0xbbb387fb	-0.0054788566
132	0x3dac37f8	0.08409113
133	0x3da17eb7	0.07885497
134	0x3dae0d64	0.08498648
135	0x3d4a815d	0.049439777
136	0x3d4408b3	0.04785986
137	0x3c1ab336	0.009442141
138	0xbb3995c3	-0.0028318025
139	0x3ca6cafa	0.020360459
140	0xbd611192	-0.054948397
141	0x3e02508f	0.12726043
142	0x3d921841	0.07133532
143	0x3ced04ff	0.028933046
144	0xb8163f1e	-3.582157e-05
145	0x3d9b7031	0.07589758
146	0xbcc63a01	-0.02419758
147	0x3d0a20f1	0.03372282
148	0x3cc61b75	0.024183014
149	0xbc787ae0	-0.015166014
150	0xbd2e967d	-0.042623986
151	0xbce5947a	-0.0280249
152	0xbce42a83	-0.027852302
153	0xbc975b3a	-0.018476117
154	0x3d2f7b29	0.042842064
155	0x3caa6114	0.020798244
156	0x3dc4f684	0.096173316
157	0x3c853d59	0.016264604
158	0x3dab75b7	0.08372062
159	0x3cfbb4d5	0.030725876
160	0xbd055383	-0.032550346
161	0xbd4ba0aa	-0.049713768
162	0xbc1fd4fc	-0.009755369
163	0x3d625366	0.055255316
164	0x3db37da1	0.08764196
165	0x3c2c6c7e	0.010523913
166	0xbda09554	-0.07840982
167	0x3de51264	0.11185148
168	0x3db5e5e9	0.088817425
169	0xbd844c2a	-0.0645984
170	0x3d622eee	0.055220537
171	0xbdce7a28	-0.10081893
172	0xbc88f2ad	-0.01671728
173	0x3e0dafac	0.13836545
174	0xbd3f7b62	-0.046748526
175	0x3dd8aa19	0.105793186
176	0xbc038727	-0.008027828
177	0x3dbac86a	0.09120257
178	0x3d514e05	0.051099796
179	0x3c3d8ba7	0.01156894
180	0xbdad0764	-0.08448675
181	0x3d47fb6b	0.048823755
182	0x3c8cd292	0.017190251
183	0xbb9e8a65	-0.0048382753
184	0x3e011451	0.12605406
185	0x3e23e576	0.16005501
186	0xbd0a31c2	-0.03373886
187	0x3ca3e212	0.02000526
188	0xbda3f23f	-0.08005189
189	0xbda22a2c	-0.079182
190	0x3d25d1a5	0.040483136
191	0x3cd046db	0.025424412
192	0xbb8cff9c	-0.004302932
193	0xbce00f4b	-0.027351042
194	0xbcb97510	-0.022638828
195	0xbce0b02a	-0.027427752
196	0xbd28bde9	-0.041196737
197	0xbcba5bb4	-0.022748806
198	0xbd889455	-0.06668917
199	0xbc5c4f62	-0.013446661
200	0x3dced0a0	0.10098386
201	0x3db048fd	0.086076714
202	0xbba351b2	-0.004984104
203	0xbd9fc341	-0.078009136
204	0x3d168212	0.03674514
205	0x3dc26230	0.09491384
206	0xbc8c5ca5	-0.01713402
207	0x3d1ec62e	0.038763218
208	0x3da8ad57	0.08236187
209	0xbcb77d88	-0.022398725
210	0x3d7a52e1	0.061114196
211	0x3d21c42f	0.039493736
212	0x3cba973d	0.022777194
213	0x3da8a0e7	0.08233815
214	0xbdc9ebe8	-0.09859449
215	0x3d08203c	0.033233866
216	0x3ddf58b4	0.10905591
217	0x3c9fb666	0.019496154
218	0x3d0352e5	0.032061476
219	0xbd83c7ab	-0.06434568
220	0x3d620916	0.055184446
221	0x3bb7a398	0.0056042187
222	0x3e083608	0.13301861
223	0xbd203cd2	-0.039120503
224	0xbd18b361	-0.037280444
225	0x3dce8d0e	0.10085498
226	0x3d048efa	0.032362916
227	0x3b082cfd	0.0020778768
228	0x3c7a9ccf	0.015296175
229	0x3e019f45	0.12658413
230	0x3cdf760c	0.027277969
231	0x3d44c357	0.048037853
232	0xbde5a1ed	-0.112125255
233	0x3da8dbfd	0.082450844
234	0x3d80df5b	0.06292602
235	0xbc2a8181	-0.010406853
236	0x3c7e2f48	0.015514202
237	0xbd05f9b8	-0.032708853
238	0x3ced0824	0.028934546
239	0xbd436d85	-0.047711868
240	0xbd2a5ab1	-0.041590396
241	0x3dc056dd	0.09391568
242	0x3d7c3337	0.06157228
243	0xbd12a3f0	-0.035800874
244	0xbd26a8ff	-0.04068851
245	0x3d8d1c80	0.068902016
246	0x3b2c62e2	0.0026304056
247	0x3dd7a2af	0.10529076
248	0x3db5a395	0.088690914
249	0x3df23d12	0.118280545
250	0x3d43fc0e	0.0478478
251	0x3d232d2a	0.039837994
252	0xbd2eec82	-0.04270602
253	0xbd8b4061	-0.06799389
254	0x3db5163b	0.08842131
255	0x3d903549	0.07041413
