output/mnist/models/lstm_autoencoder_mnist_classification_pixel_by_pixel.pth (torch, 210050 bytes, 12 tensors)

encoder.weight_ih_l0 f4 [256, 1]
1.2405401 -0.1480323 0.81548196 1.0818001 -0.7840769 -0.44116515 -0.17471877 -0.798918
1.1059377 1.0137604 -0.89325464 1.044644 -0.1724348 -0.50744975 1.0293686 -0.5323475
0.9432182 0.8059328 -0.9182855 -0.12963472 0.51873213 1.1583407 0.017964132 1.3097928
1.1533939 -0.41121572 -0.6485896 -0.5860134 1.33389 -0.92172587 -0.22949791 1.3205767
0.9400405 -0.37352186 -0.20034814 1.2156038 0.27299458 0.45526218 -0.040175673 -0.14482392
1.3464112 -0.7180632 -0.41541407 0.814173 -0.7384601 0.9795768 -0.23333985 -0.8431737
0.8135302 0.5743415 0.9712001 -0.40723976 -0.36987177 -0.5032592 0.785002 1.1941462
-0.5194322 0.5747523 0.84903777 -0.18263757 0.45813957 0.85574794 -0.78293186 0.17679079
-0.059833914 0.07920718 -0.10495064 0.048955545 -0.10853316 0.015713379 -0.117620885 -0.04884106
0.0985719 -0.03923051 -0.01759535 0.051859632 -0.11783157 -0.09247254 -0.016019255 -0.0457163
0.12495108 0.013419539 -0.090910986 -0.02347228 -0.07675131 -0.055609018 0.079181716 -0.055857778
0.03194812 -0.007350847 -0.038785353 -0.12007879 -0.029811189 -0.021212414 -0.012995213 0.078149244
-0.12105203 -0.004980579 0.12290402 0.054775834 -0.035741 -0.090988636 0.0015874654 0.03618388
0.11884986 0.037121966 -0.049785495 0.12093498 -0.10436869 0.03656885 -0.0069428384 -0.020919904
0.09284513 0.095136836 0.056641176 0.0790426 -0.10128763 -0.043379143 -0.03684196 -0.099959105
-0.10235931 0.099749684 0.08903414 -0.03322327 0.004262477 -0.11365068 0.004946843 -0.012484387
1.1882554 1.1206845 1.2871948 1.1396621 0.7449865 -0.9582644 -0.47752282 1.1894791
1.2365797 0.91522527 -0.7979208 -1.246934 0.3537054 -1.210841 -1.0404872 -0.47907534
1.1104603 1.2000725 1.23632 0.10053154 -0.5290296 -1.2247875 1.2649837 -1.0050229
1.2645624 -0.47164908 -0.9485483 1.1753054 -1.3234601 0.9382765 -0.4179941 1.235004
1.2851928 0.8818655 1.1233373 -1.0937974 -0.58228 -1.2096282 0.1874043 -0.2852304
-1.4015324 -0.69487077 -0.22637385 0.9400264 0.8986718 -1.2147579 -0.10429239 -0.67565995
-0.94571257 -1.2613624 1.1604425 0.8740161 -1.1084439 -1.1274556 -1.1625358 1.2083801
-0.5395907 0.7193009 1.2467879 1.0701723 -0.6330569 -1.0589577 0.93294495 1.2189671
1.2850062 -0.10274081 0.7990021 1.0437037 -0.73789096 -0.38671026 -0.20702443 -0.8284883
0.9081543 1.1160988 -0.93748385 1.0374122 -0.12321885 -0.2971998 1.1340544 -0.43678913
1.12063 0.5855009 -0.70858717 -0.23499407 0.5830979 1.020864 0.06513698 1.2872546
1.1042794 -0.5421273 -0.75199616 -0.5893873 1.3297255 -0.80668765 -0.21758606 1.3283657
1.0615001 -0.34201634 -0.046720553 1.2658623 0.26756147 0.3585076 0.18410777 -0.21950063
1.1618034 -0.91530895 -0.23344335 0.9229626 -0.7122276 1.1687456 -0.21264671 -0.70314825
0.8867031 0.6244586 0.8442424 -0.27660292 -0.43091187 -0.43693736 0.8086026 1.1093808
-0.32644027 0.6292915 0.8917626 -0.32288083 0.60287875 0.7853521 -0.77243644 0.20850126
00000000: 05ca 9e3f c795 17be 6dc3 503f 6d78 8a3f
00000010: 44b9 48bf 66e0 e1be 7ae9 32be e485 4cbf
00000020: 5e8f 8d3f e7c2 813f 56ac 64bf e5b6 853f
00000030: c092 30be 3ae8 01bf 5ac2 833f ed47 08bf
00000040: bf76 713f 9d51 4e3f c214 6bbf f7be 04be
00000050: a1cb 043f 8244 943f 8429 933c 4aa7 a73f
00000060: 69a2 933f de8a d2be f809 26bf f904 16bf
00000070: e8bc aa3f 3af6 6bbf 8001 6bbe a808 a93f
00000080: 7fa6 703f 423e bfbe 1028 4dbe e898 9b3f
00000090: f2c5 8b3e 2018 e93e 3f8f 24bd b94c 14be
000000a0: 3457 ac3f fdd2 37bf 27b1 d4be a46d 503f
000000b0: b90b 3dbf 8cc5 7a3f a4f0 6ebe 3bda 57bf
000000c0: 8443 503f 0b08 133f 92a0 783f bb81 d0be
000000d0: d55f bdbe 98d5 00bf e4f5 483f c8d9 983f
000000e0: 82f9 04bf f722 133f 8a5a 593f 5805 3bbe
000000f0: 4591 ea3e 4c12 5b3f 396e 48bf a508 353e
00000100: 6814 75bd 6037 a23d 5cf0 d6bd 9c85 483d
00000110: a246 debd 58b9 803c 38e3 f0bd 900d 48bd
00000120: 10e0 c93d 2cb0 20bd 2024 90bc c46a 543d
00000130: ae51 f1bd 3e62 bdbd d03a 83bc 0441 3bbd
00000140: 5ae6 ff3d a0dd 5b3c 8a2f babd f048 c0bc
00000150: ca2f 9dbd 48c6 63bd 062a a23d 20cb 64bd
00000160: 08dc 023d 60df f0bb 64dd 1ebd deeb f5bd
00000170: 9836 f4bc a8c5 adbc e0e9 54bc b60c a03d
00000180: 20ea f7bd 2034 a3bb 1ab5 fb3d a05c 603d
00000190: 2865 12bd 4058 babd 8012 d03a 8c35 143d
000001a0: 8e67 f33d 340d 183d e0eb 4bbd c2ac f73d
000001b0: 40bf d5bd 38c9 153d c080 e3bb 3860 abbc
000001c0: 9625 be3d 1ad7 c23d 9400 683d 16e1 a13d
000001d0: e46f cfbd 54ae 31bd 98e7 16bd 5cb7 ccbd
000001e0: c2a1 d1bd 9049 cc3d 8857 b63d 2015 08bd
000001f0: 40ac 8b3b b0c1 e8bd 2019 a23b 508b 4cbc
00000200: c118 983f 9772 8f3f cdc2 a43f 73e0 913f
00000210: 6fb7 3e3f d150 75bf df7d f4be da40 983f
00000220: 3e48 9e3f 344c 6a3f 8a44 4cbf 899b 9fbf
00000230: e018 b53e d6fc 9abf af2e 85bf 5d49 f5be
00000240: 9023 8e3f fa9b 993f bc3f 9e3f 7be3 cd3d
00000250: 7c6e 07bf d6c5 9cbf fcea a13f 97a4 80bf
00000260: 2edd a13f fd7b f1be 10d4 72bf 6870 963f
00000270: 2467 a9bf e432 703f 5303 d6be 9c14 9e3f
00000280: 3381 a43f f0c1 613f 84c9 8f3f 8e01 8cbf
00000290: 4d10 15bf 19d5 9abf eae6 3f3e b809 92be
000002a0: 6a65 b3bf 0de3 31bf 8cce 67be 92a5 703f
000002b0: 5b0f 663f 307d 9bbf 4097 d5bd 0df8 2cbf
000002c0: 381a 72bf 5374 a1bf 6189 943f 85bf 5f3f
000002d0: 7de1 8dbf 7750 90bf f9cd 94bf 33ac 9a3f
000002e0: 9e22 0abf 1b24 383f bf96 9f3f 68fb 883f
000002f0: 0410 22bf ed8b 87bf 7bd5 6e3f 1d07 9c3f
00000300: 157b a43f c669 d2bd 678b 4c3f 1598 853f
00000310: 6ce6 3cbf e3fe c5be 36fe 53be cf17 54bf
00000320: cd7c 683f 53dc 8e3f f1fe 6fbf ecc9 843f
00000330: 2a5a fcbd 922a 98be b228 913f d3a2 dfbe
00000340: ce70 8f3f 63e3 153f f865 35bf 49a2 70be
00000350: e745 153f acab 823f 8966 853d c2c4 a43f
00000360: 0759 8d3f dbc8 0abf d282 40bf 16e2 16bf
00000370: 7234 aa3f 1583 4ebf e1ce 5ebe e307 aa3f
00000380: 3cdf 873f c41c afbe 0d5e 3fbd c707 a23f
00000390: d1fd 883e 4f8e b73e bf86 3c3e c6c4 60be
000003a0: f9b5 943f b051 6abf c60b 6fbe 4747 6c3f
000003b0: 8c54 36bf 7599 953f 0fc0 59be 8601 34bf
000003c0: f9fe 623f 85dc 1f3f 4520 583f e69e 8dbe
000003d0: 7ba0 dcbe 41b6 dfbe 9400 4f3f 3100 8e3f
000003e0: 2e23 a7be 3f19 213f 8e4a 643f a350 a5be
000003f0: 4356 1a3f d60c 493f 65be 45bf 5b81 553e

encoder.weight_hh_l0 f4 [256, 64]
-0.010222033 -0.06849903 0.12281448 -0.113236025 0.113570824 -0.030976832 0.1021048 0.027713522
0.026709601 -0.11265029 -0.09631814 0.049220607 -0.07553384 0.016414493 -0.0889269 -0.042808235
0.065301135 0.10729632 0.08625066 -0.07122055 0.11675985 -0.028607652 -0.057228953 -0.023189336
0.12083484 -0.10981971 0.07906921 -0.074511945 0.04189284 0.051572114 0.041523904 0.042455986
0.01878938 -0.014287174 0.09814265 -0.0041653216 -0.086194664 0.037023574 0.10116133 0.09927049
0.0802345 -0.051853165 -0.0015060008 0.06045717 -0.099254966 -0.034552842 0.004903421 -0.088128865
0.03286688 -0.09361032 0.013092965 -0.08332637 0.069371104 0.06859851 0.07381998 0.09654491
0.0812494 0.02374798 -0.028197616 0.02178672 -0.06349924 -0.09739767 0.08971496 -0.1158223
0.027504101 0.100611985 0.096223384 -0.1209677 -0.04136619 -0.06840135 -0.11483863 0.015192255
-0.07892981 0.054787815 -0.07375774 0.10600804 -0.11356476 0.10233863 -0.08945902 0.086361706
0.07900514 0.056038886 -0.07379949 0.092157304 -0.034306377 -0.07916279 0.030074954 -0.1048328
-0.10338436 0.04480329 -0.06003405 -0.077925935 0.09464227 -0.08067663 0.039111838 -0.10398613
-0.03774272 -0.07731046 0.046427906 -0.117268324 0.12397978 0.124129996 -0.109248966 -0.009819061
-0.091571465 0.009680897 -0.019994497 -0.090151936 0.041552693 0.030807003 -0.016698927 0.10427399
0.08803414 -0.04164602 -0.0038938224 -0.042381376 0.11127089 0.06230232 -0.01343818 0.112336844
0.1140634 0.043190703 -0.040645435 0.02636975 0.09750734 -0.03845322 0.021361604 -0.052929908
0.021925285 0.014134303 -0.0347701 0.093199134 -0.005194515 0.00072029233 0.0064347386 -0.061247215
-0.11445415 -0.056415603 -0.04529962 0.010259107 -0.024696663 -0.04651819 -0.042546228 -0.10737346
-0.03700161 -0.058248326 0.059232265 0.027447298 -0.12403199 0.108896896 0.08886647 0.06731264
-0.021910802 0.08903247 -0.08459282 0.112146094 -0.08342098 -0.019151986 0.056127295 -0.03542669
0.06503828 -0.10479456 -0.05665128 0.10305683 0.066833645 0.0732809 0.1225847 -0.079061225
-0.11649263 0.0399459 0.11885758 0.022579983 0.029344484 0.07553905 0.09087059 -0.0024211407
-0.048619494 0.1066857 0.07735288 -0.059267685 -0.0790873 0.059584036 -0.110627055 0.11595233
-0.02150011 0.059222028 0.044775814 0.048950016 -0.021338984 0.11507797 -0.08907755 0.11149517
-0.09778492 0.0606931 0.029334456 -0.07171911 -0.030090779 0.093773946 -0.11175306 0.09854467
0.07705873 0.07650955 -0.10812767 -0.02602677 0.056604415 0.02025932 0.112053126 -0.03548652
-0.11302434 -0.104803264 0.039837435 0.06222497 0.10244349 0.03300728 0.01269874 -0.10961442
0.005255848 -0.047454193 -0.08760798 -0.08088906 0.077673435 -0.01908645 0.09673937 0.05800669
0.034669533 0.11467457 0.10107994 0.10598782 0.03356269 -0.11812593 0.057548493 -0.10287613
0.045969516 -0.08587888 -0.12152071 0.06471735 0.0993014 0.098554954 -0.047932684 -0.03775169
-0.015916765 0.09967856 -0.09810048 -0.10410419 0.09443852 0.051007748 0.04187797 0.0369855
-0.107586965 -0.10876708 -0.1030328 0.004425496 -0.09368187 -0.081510425 0.08683908 -0.053902358
00000000: 507a 27bc 3849 8cbd 2886 fb3d 4ae8 e7bd
00000010: d297 e83d 20c3 fdbc 521c d13d 7807 e33c
00000020: 18ce da3c 32b5 e6bd 7242 c5bd 8c9b 493d
00000030: 7cb1 9abd b077 863c 4e1f b6bd b057 2fbd
00000040: 9abc 853d 2cbe db3d 30a4 b03d 14dc 91bd
00000050: ca1f ef3d 985a eabc e868 6abd 90f7 bdbc
00000060: 4278 f73d 28e9 e0bd 0aef a13d b899 98bd
00000070: d497 2b3d 483d 533d f814 2a3d 54e6 2d3d
00000080: 30ec 993c c014 6abc 04ff c83d 407d 88bb
00000090: d486 b0bd 08a6 173d ac2d cf3d 544e cb3d
000000a0: fc51 a43d fc63 54bd 0065 c5ba f0a1 773d
000000b0: 3046 cbbd 4887 0dbd e0ac a03b e87c b4bd
000000c0: 6c9f 063d c4b6 bfbd e083 563c 04a7 aabd
000000d0: 7012 8e3d 607d 8c3d ee2e 973d 56b9 c53d
000000e0: 1666 a63d 208b c23c b0fe e6bc 107a b23c
000000f0: e40b 82bd 6e78 c7bd 7abc b73d 3e34 edbd
00000100: 4850 e13c a80d ce3d c410 c53d eabd f7bd
00000110: 986f 29bd 0216 8cbd 8430 ebbd f0e8 783c
00000120: f4a5 a1bd 3069 603d 4c0e 97bd be1a d93d
00000130: a494 e8bd ea96 d13d 4a36 b7bd 68de b03d
00000140: 72cd a13d 0889 653d 3024 97bd f8bc bc3d
00000150: d884 0cbd 1a20 a2bd c05f f63c 94b2 d6bd
00000160: 2ebb d3bd a883 373d 44e6 75bd a297 9fbd
00000170: ced3 c13d ca39 a5bd bc33 203d aef6 d4bd
00000180: 1c98 1abd f254 9ebd 302b 3e3d 602a f0bd
00000190: 1ce9 fd3d de37 fe3d ecbd dfbd 20e0 20bc
000001a0: d289 bbbd a09c 1e3c 80cb a3bc 94a1 b8bd
000001b0: 2833 2a3d f85e fc3c 30cc 88bc 9a8d d53d
000001c0: 3e4b b43d 0495 2abd 802f 7fbb 1898 2dbd
000001d0: fee1 e33d b830 7f3d d02b 5cbc dc10 e63d
000001e0: 129a e93d bce8 303d d47b 26bd 6005 d83c
000001f0: eeb1 c73d 2081 1dbd 88fe ae3c 08cd 58bd
00000200: a89c b33c 9093 673c 186b 0ebd 30df be3d
00000210: c036 aabb 00d2 3c3a 80da d23b 5cde 7abd
00000220: f066 eabd 0c14 67bd 188c 39bd d015 283c
00000230: a850 cabc dc89 3ebd f444 2ebd 9ee6 dbbd
00000240: 008f 17bd cc95 6ebd 889d 723d 28d9 e03c
00000250: 7c04 febd 5605 df3d a0ff b53d 36db 893d
00000260: 487e b3bc a856 b63d 003f adbd daac e53d
00000270: 9ed8 aabd a0e4 9cbc bce5 653d 941b 11bd
00000280: ca32 853d 889e d6bd 2c0b 68bd 760f d33d
00000290: 14e0 883d 4c14 963d b00d fb3d daea a1bd
000002a0: b093 eebd 509e 233d 9a6b f33d a8f9 b83c
000002b0: d863 f03c 38b4 9a3d 5c1a ba3d 00ac 1ebb
000002c0: 3c25 47bd 087e da3d 306b 9e3d acc2 72bd
000002d0: 86f8 a1bd 640e 743d 7090 e2bd 6a78 ed3d
000002e0: 0021 b0bc cc92 723d d866 373d d07f 483d
000002f0: 18cf aebc 00ae eb3d 4a6e b6bd 9457 e43d
00000300: 7643 c8bd 5499 783d d04e f03c 78e1 92bd
00000310: f080 f6bc 8e0c c03d cade e4bd cad1 c93d
00000320: f8d0 9d3d 0ab1 9c3d 0a72 ddbd 1836 d5bc
00000330: 08da 673d e0f6 a53c 1c7c e53d 505a 11bd
00000340: 4e79 e7bd 18a3 d6bd 942c 233d 9cdf 7e3d
00000350: e4cd d13d a432 073d 600e 503c 867d e0bd
00000360: 4039 ac3b 545f 42bd d06b b3bd 2aa9 a5bd
00000370: 4013 9f3d 305b 9cbc 4a1f c63d 6c98 6d3d
00000380: a401 0e3d 80da ea3d 0003 cf3d 2410 d93d
00000390: 0879 093d 02ec f1bd f8b7 6b3d b8b0 d2bd
000003a0: 884a 3c3d 44e1 afbd dadf f8bd 888a 843d
000003b0: 885e cb3d 2ed7 c93d 1055 44bd 84a1 1abd
000003c0: e063 82bc 4624 cc3d e8e8 c8bd 9434 d5bd
000003d0: fc68 c13d 80ed 503d 3c88 2b3d 1c7e 173d
000003e0: 8e56 dcbd 46c1 debd dc02 d3bd c003 913b
000003f0: 48dc bfbd f0ee a6bd b0d8 b13d b8c8 5cbd

encoder.bias_ih_l0 f4 [256]
0.9792636 1.0790948 1.3916415 1.1441264 0.26588547 0.74394786 0.22285537 0.6535998
1.2022165 0.6925359 0.5097996 1.4027067 -0.0030782975 0.92691684 0.52965224 0.22063263
0.938443 1.3212812 0.9686682 -0.17812395 0.12733833 1.1368936 1.0441908 0.58687437
1.4179357 0.212653 0.33981398 1.0177581 1.085603 0.5140361 0.07550372 1.10852
1.3073506 0.9556135 1.1404423 0.7070308 0.26932317 1.294746 0.005928711 0.011309694
1.0639409 0.26055035 0.030937081 0.70410734 0.495354 1.0802139 -0.08781131 0.26849094
0.46747243 1.1881932 0.8663016 0.7951754 0.90563637 0.84512615 1.3298663 1.3828427
0.23024543 0.13377817 1.2601106 1.0939366 0.16300136 1.3811622 0.49825138 1.169905
0.07149759 -0.11760639 -0.110167384 0.09296465 0.09272012 -0.070718855 -0.11152589 0.050976485
0.030046076 0.05779682 -0.012399077 -0.10669862 0.06366348 -0.10601683 -0.08731362 -0.009402558
0.0074191093 -0.024605662 -0.093721405 -0.09142622 -0.021037593 -0.029434219 0.06546378 -0.08901994
0.09084427 0.123955876 0.07322849 0.03102228 0.07240343 0.03019777 -0.0582698 -0.11896376
0.12068404 0.023211077 -0.11710717 -0.034616664 0.1245307 -0.052618176 -0.019374713 -0.09464754
0.03502749 -0.03595805 -0.0075547993 -0.12090893 -0.11498846 0.059605584 0.028768614 0.034647495
0.0020174384 -0.111946225 0.038396597 0.075705215 -0.124351606 -0.023846358 0.085748464 0.09194139
-0.11702371 -0.021530733 -0.090367705 -0.04590425 0.06478126 0.040128276 0.11769733 0.033152327
-0.14484714 -0.0347268 -0.18947157 0.021042766 -0.06275157 0.09834022 0.058083516 -0.13360198
-0.019057645 0.056715243 0.038965065 0.13246422 -0.12437212 0.09297116 -0.021656295 0.05763769
-0.13889502 -0.123020746 -0.18487994 0.020674475 0.075788096 0.15882133 -0.12388488 0.045609158
-0.11004347 0.0605333 0.09626835 -0.2459909 0.033742793 -0.16878845 0.036199864 -0.036398076
-0.124136545 -0.060745534 -0.1918117 -0.025682831 -0.031607307 0.03346421 -0.031288773 0.024422731
0.029473403 0.07670939 0.07003867 -0.058040205 -0.17262848 0.008524275 0.10932163 0.051797636
0.004501117 0.16573589 -0.062124833 -0.14900637 0.11942297 0.10817737 0.07578511 -0.14435135
0.11624739 0.033063184 -0.11952899 -0.066366024 0.0064910464 0.15169905 -0.029531954 -0.075712
0.82480305 1.1371607 1.2552308 1.0780478 0.32791033 0.77121544 0.15218633 0.6780579
1.2653635 0.5888796 0.5448492 1.3857107 0.09080943 0.9401439 0.52596354 0.056763683
0.9349349 1.278687 0.8184786 -0.11062167 0.18500806 1.2384429 1.0916429 0.54099447
1.3429593 0.21523958 0.3147395 0.98133326 1.165195 0.52959204 0.10286205 1.1991225
1.35163 0.9195483 1.1539937 0.78673995 0.25705522 1.3621317 -0.17865482 0.022186467
0.99285644 0.22629625 0.03698702 0.8506208 0.40784523 0.91434133 -0.089023285 0.16075386
0.47626382 1.2888945 0.8511188 0.68417215 0.7049469 0.84251255 1.4604565 1.4585695
0.08609983 0.25715357 1.4022937 0.96795255 0.039565504 1.3901508 0.6084209 1.2638226
00000000: 05b1 7a3f c71f 8a3f 4f21 b23f bc72 923f
00000010: 2422 883e 5e73 3e3f 3334 643e 5152 273f
00000020: 3be2 993f 084a 313f 3a82 023f e58b b33f
00000030: 43bd 49bb 6c4a 6d3f 4a97 073f 85ed 613e
00000040: cd3d 703f be1f a93f a4fa 773f 2066 36be
00000050: fb64 023e bb85 913f 0ba8 853f 663d 163f
00000060: eb7e b53f b5c1 593e 19fc ad3e e645 823f
00000070: 0af5 8a3f df97 033f b2a1 9a3d fce3 8d3f
00000080: 4457 a73f 16a3 743f 03fa 913f f8ff 343f
00000090: bae4 893e 3dba a53f a245 c23b 4b4c 393c
000000a0: 372f 883f db66 853e c36f fd3c 6140 343f
000000b0: 0a9f fd3e 7344 8a3f 6bd6 b3bd a577 893e
000000c0: 8c58 ef3e b716 983f f1c5 5d3f 9d90 4b3f
000000d0: c9d7 673f 305a 583f 0f39 aa3f fd00 b13f
000000e0: 75c5 6b3e 25fd 083e 4e4b a13f 1d06 8c3f
000000f0: d4e9 263e ecc9 b03f ce1a ff3e 72bf 953f
00000100: 546d 923d 9edb f0bd 709f e1bd 4064 be3d
00000110: 0ce4 bd3d 0cd5 90bd b067 e4bd b8cc 503d
00000120: 3023 f63c 5cbc 6c3d 8025 4bbc ce84 dabd
00000130: 0062 823d 5a1f d9bd 7cd1 b2bd 300d 1abc
00000140: 001c f33b d091 c9bc 02f1 bfbd ac3d bbbd
00000150: 0857 acbc 0820 f1bc e011 863d 1650 b6bd
00000160: 900c ba3d 94dc fd3d d2f8 953d 7022 fe3c
00000170: 4048 943d 5061 f73c 50ac 6ebd 46a3 f3bd
00000180: 3229 f73d 2825 be3c e2d5 efbd 34ca 0dbd
00000190: f409 ff3d 2886 57bd b8b7 9ebc 92d6 c1bd
000001a0: fc78 0f3d c048 13bd 408e f7bb 1a9f f7bd
000001b0: 127f ebbd fc24 743d 28ac eb3c 88ea 0d3d
000001c0: 0037 043b 1044 e5bd c045 1d3d 560b 9b3d
000001d0: 0eac febd 7059 c3bc e49c af3d c44b bc3d
000001e0: 20aa efbd 3861 b0bc b412 b9bd 1806 3cbd
000001f0: 0aac 843d 8c5d 243d 4c0b f13d bcca 073d
00000200: cf52 14be b03d 0ebd d604 42be e161 ac3c
00000210: e583 80bd 9966 c93d fbe8 6d3d f5ce 08be
00000220: c71e 9cbc 3e4e 683d d599 1f3d b3a4 073e
00000230: cfb6 febd aa67 be3d 8b68 b1bc 8015 6c3d
00000240: 7f3a 0ebe 4df2 fbbd 2b51 3dbe 845d a93c
00000250: ca36 9b3d 0fa2 223e 5bb7 fdbd abd0 3a3d
00000260: 795e e1bd c4f1 773d 5728 c53d 0ae5 7bbe
00000270: e235 0a3d e1d6 2cbe 4f46 143d 2616 15bd
00000280: 4d3b febd 4fd0 78bd 496a 44be cd64 d2bc
00000290: aa76 01bd c411 093d a828 00bd 2e12 c83c
000002a0: 3572 f13c d019 9d3d 6f70 8f3d 91bb 6dbd
000002b0: 85c5 30be 67a9 0b3c 05e4 df3d c229 543d
000002c0: 1b7e 933b abb6 293e 9c76 7ebd 2095 18be
000002d0: 0894 f43d 198c dd3d 3935 9b3d d7d0 13be
000002e0: 1d13 ee3d 436d 073d 9dcb f4bd e9ea 87bd
000002f0: d8b2 d43b ff56 1b3e ffec f1bc e50e 9bbd
00000300: 4b26 533f 7b8e 913f 67ab a03f 78fd 893f
00000310: dde3 a73e 606e 453f bcd6 1b3e 3495 2d3f
00000320: 6ef7 a13f d0c0 163f 3d7b 0b3f f85e b13f
00000330: 4bfa b93d 45ad 703f 8ca5 063f 0981 683d
00000340: e557 6f3f 04ac a33f d087 513f 9d8d e2bd
00000350: c172 3d3e 4c85 9e3f f4ba 8b3f 9d7e 0a3f
00000360: 17e6 ab3f c467 5c3e 8925 a13e a838 7b3f
00000370: 1c25 953f 5893 073f 57a9 d23d d97c 993f
00000380: 3602 ad3f 8467 6b3f 11b6 933f ca67 493f
00000390: be9c 833e 555a ae3f 4af1 36be 65c0 b53c
000003a0: d72b 7e3f 34ba 673e b47f 173d 49c2 593f
000003b0: 17d1 d03e 4612 6a3f d751 b6bd a99c 243e
000003c0: dad8 f33e 7ffa a43f ece2 593f e825 2f3f
000003d0: 6677 343f e7ae 573f 3df0 ba3f 68b2 ba3f
000003e0: 1c55 b03d a2a9 833e 5c7e b33f bdcb 773f
000003f0: 700f 223d 76f0 b13f 79c1 1b3f f0c4 a13f

encoder.bias_hh_l0 f4 [256]
0.9067505 0.9724701 1.3381152 1.080997 0.24568959 0.6875082 0.15171404 0.6977838
1.1136974 0.57506627 0.53953946 1.2694942 -0.03830396 1.1027577 0.4210604 0.061772555
1.0858061 1.4316763 0.86980224 -0.015715891 0.11804966 1.2272397 1.1194679 0.6332581
1.4013218 0.14674707 0.44012913 1.083689 0.95444345 0.5501313 -0.019025033 1.119441
1.4270037 0.95270586 1.1567732 0.66047883 0.2890879 1.2947398 -0.053769086 0.06774015
1.0159016 0.19688065 -0.14379627 0.8439395 0.408162 1.1157897 -0.10759633 0.10414927
0.41958427 1.2400609 0.9524085 0.75082725 0.9058941 0.90520805 1.2560605 1.4384743
0.13513224 0.14640887 1.3128364 0.9983907 0.20141727 1.4221895 0.5537083 1.0911009
0.06481922 0.12249884 0.09198259 0.0063893497 0.004024327 0.09491639 -0.029080302 0.01195699
0.062101662 0.096381575 -0.12442848 0.010084912 -0.023527637 -0.105341315 0.09502578 0.049221113
-0.09408933 -0.010613352 -0.11061552 -0.0009611547 -0.03706485 0.08763002 0.015633926 -0.110890314
0.06648719 0.06327009 -0.07055093 -0.010049805 0.12394139 0.04390672 -0.09165946 -0.052517712
0.116718724 -0.115863904 0.11093064 0.080606535 0.030618101 -0.047360674 -0.10800399 0.07586266
-0.054271072 -0.06729691 0.057741076 0.03140959 -0.11132738 0.067411214 0.11522709 0.122613356
-0.008958727 -0.07677862 -0.12023634 -0.016996562 0.06915045 0.12004137 0.045793086 -0.01719682
-0.002401188 0.08624381 0.020973966 -0.07505107 -0.04418686 -0.05464779 -0.061524004 -0.10612555
0.10093762 -0.14921266 -0.03892584 -0.11254574 -0.13609841 0.19818713 -0.0030325938 -0.12847182
-0.107740715 -0.050677724 0.2298266 0.06144299 -0.13903217 0.15566738 -0.01054916 0.018297296
0.053015668 -0.09957904 -0.117067344 -0.083870344 -0.031014746 -0.07168513 -0.14384781 -0.08432494
-0.05206427 0.06597805 0.07801584 -0.050329532 -0.015449635 -0.06088798 0.07266299 -0.040492147
-0.042781338 -0.1548914 0.030672682 0.023203308 0.10012932 0.22194806 0.009294189 0.061436433
0.02965554 0.11978878 0.013212841 -0.018296944 -0.19417329 0.056109514 0.04791758 0.12524782
0.0035754307 0.063477635 -0.059895948 -0.08120382 0.055339996 0.188232 0.13528027 0.046381928
0.111198165 -0.02709783 -0.10798804 -0.18507163 0.054902554 0.017741617 -0.11652978 -0.121100314
0.9835896 0.974958 1.3918427 1.2030299 0.34400716 0.8355566 0.112967856 0.67547625
1.3343978 0.7297821 0.50877494 1.2915548 -0.0576194 0.9866275 0.43920282 0.075266786
1.0396013 1.267607 0.93358815 -0.11209426 0.26143485 1.2322512 1.0686533 0.57254046
1.3240932 0.07287453 0.43607077 1.0134422 0.9412302 0.47624078 0.06014004 1.317541
1.3857725 1.0159309 1.0903676 0.80306506 0.28569442 1.3142397 -0.09394936 -0.0433084
1.0940543 0.24346325 -0.12907219 0.80901843 0.34317675 0.97694826 -0.10793235 0.16619073
0.46228606 1.3604792 0.98010373 0.6157739 0.87120366 0.9753086 1.3537394 1.4209042
0.18874456 0.32308182 1.4104705 0.96084815 0.08092473 1.3731976 0.57738495 1.1565564
00000000: cd20 683f cdf3 783f 5c47 ab3f 1c5e 8a3f
00000010: 0d96 7b3e 8a00 303f ed5a 1b3e f6a1 323f
00000020: a38d 8e3f 8b37 133f 421f 0a3f c97e a23f
00000030: 9de4 1cbd 2a27 8d3f 3b95 d73e 3805 7d3d
00000040: b2fb 8a3f 2b41 b73f 5cab 5e3f 9dbe 80bc
00000050: 05c4 f13d 3116 9d3f b94a 8f3f 341d 223f
00000060: 835e b33f dd44 163e 9b58 e13e 52b6 8a3f
00000070: 6856 743f 68d5 0c3f 63da 9bbc d849 8f3f
00000080: 0fa8 b63f 88e4 733f 2511 943f 2415 293f
00000090: 5403 943e 09ba a53f f93c 5cbd 59bb 8a3d
000000a0: 1009 823f 159b 493e 543f 13be 6b0c 583f
000000b0: 9cfa d03e 32d2 8e3f 775b dcbd 364c d53d
000000c0: c0d3 d63e 51ba 9e3f 0bd1 733f 3736 403f
000000d0: ade8 673f b7bb 673f 97c6 a03f ed1f b83f
000000e0: 1b60 0a3e 35ec 153e 060b a83f 8896 7f3f
000000f0: 5440 4e3e 4e0a b63f d4bf 0d3f 32a9 8b3f
00000100: f0bf 843d ace0 fa3d 5e61 bc3d c05d d13b
00000110: 80de 833b 8663 c23d d039 eebc 40e7 433c
00000120: 505e 7e3d b463 c53d 5cd4 febd 303b 253c
00000130: 08bd c0bc 30bd d7bd e09c c23d 149c 493d
00000140: e8b1 c0bd a0e3 2dbc 648a e2bd 00f6 7bba
00000150: 50d1 17bd 5e77 b33d b812 803c 761a e3bd
00000160: 702a 883d c093 813d 027d 90bd f0a7 24bc
00000170: fcd4 fd3d 88d7 333d f4b7 bbbd d01c 57bd
00000180: 3a0a ef3d 0e4a edbd 9a2f e33d 0a15 a53d
00000190: d0d2 fa3c 44fd 41bd 3231 ddbd e25d 9b3d
000001a0: 584b 5ebd f6d2 89bd e881 6c3d 58a7 003d
000001b0: 9cff e3bd e40e 8a3d 2efc eb3d b61c fb3d
000001c0: a0c7 12bc 1c3e 9dbd 783e f6bd 603c 8bbc
000001d0: c09e 8d3d 40d8 f53d 8891 3b3d 58e0 8cbc
000001e0: 405d 1dbb 98a0 b03d 98d1 ab3c 60b4 99bd
000001f0: 48fd 34bd 5cd6 5fbd 9800 7cbd 5a58 d9bd
00000200: 62b8 ce3d 34cb 18be b470 1fbd 627e e6bd
00000210: 625d 0bbe 91f1 4a3e 7bbe 46bb 1e8e 03be
00000220: 2aa7 dcbd 7293 4fbd aa57 6b3e a5ab 7b3d
00000230: 735e 0ebe 4567 1f3e 62d6 2cbc 36e4 953c
00000240: f526 593d 19f0 cbbd 01c1 efbd 37c4 abbd
00000250: a312 febc a7cf 92bd d74c 13be 8eb2 acbd
00000260: 5841 55bd 801f 873d c5c6 9f3d 5726 4ebd
00000270: 7720 7dbc ad65 79bd 55d0 943d 18db 25bd
00000280: 7c3b 2fbd da9b 1ebe 4745 fb3c dd14 be3c
00000290: 9a10 cd3d 5a46 633e a746 183c c5a4 7b3d
000002a0: 2df0 f23c d253 f53d ac7a 583c 79e3 95bc
000002b0: 5dd5 46be 17d3 653d 3945 443d f740 003e
000002c0: c651 6a3b 9000 823d 7455 75bd 304e a6bd
000002d0: 31ac 623d e4bf 403e e986 0a3e fafa 3d3d
000002e0: ddbb e33d 45fc ddbc d528 ddbd 6b83 3dbe
000002f0: 80e1 603d de56 913c 2aa7 eebd 7103 f8bd
00000300: 87cc 7b3f d996 793f e727 b23f e2fc 993f
00000310: b521 b03e 0ae7 553f b15b e73d 03ec 2c3f
00000320: 8ccd aa3f 00d3 3a3f 133f 023f ab51 a53f
00000330: 5202 6cbd 9f93 7c3f 31df e03e 7925 9a3d
00000340: a811 853f f240 a23f a2ff 6e3f ad91 e5bd
00000350: cada 853e 68ba 9d3f a2c9 883f 0392 123f
00000360: e37b a93f 3e3f 953d ab44 df3e 79b8 813f
00000370: 76f4 703f d5d5 f33e 6755 763d 2fa5 a83f
00000380: fe60 b13f 060a 823f 2a91 8b3f ac95 4d3f
00000390: 8a46 923e 0239 a83f 8668 c0bd 2664 31bd
000003a0: f909 8c3f 6e4e 793e 802b 04be d51b 4f3f
000003b0: ddb4 af3e 4819 7a3f a30b ddbd e72d 2a3e
000003c0: c2b0 ec3e 2f24 ae3f 14e8 7a3f 5ca3 1d3f
000003d0: 3407 5f3f d3ad 793f 5547 ad3f 30e0 b53f
000003e0: 4146 413e fb6a a53e 4c8a b43f 25fa 753f
000003f0: ddbb a53d f0c4 af3f 80cf 133f 0a0a 943f

decoder.weight_ih_l0 f4 [256, 64]
0.032822594 0.09758568 0.09912619 0.123349026 -0.09292449 0.002097398 -0.07276879 0.09468402
-0.09560008 -0.08128294 0.072677776 0.104297936 -0.11242126 0.10014726 -0.0361854 0.06271896
0.102256194 0.010466486 -0.010193735 -0.017667174 -0.011488169 -0.040142506 0.029677123 -0.11135046
-0.07785408 -0.05293365 0.09097834 0.07919532 -0.10768272 0.10939424 0.05402644 0.060180873
-0.064034656 0.01099053 -0.042972893 0.021024987 0.11358546 0.007683009 0.041943446 0.1107716
0.02284284 -0.00810568 -0.01631017 0.11160147 0.11531225 0.10234101 0.04170759 0.06975873
-0.11283164 0.024506211 0.0329075 -0.06034732 -0.11384618 -0.08924897 0.043541938 -0.12027036
0.0044465363 0.06279397 -0.09120013 -0.021882266 -0.096003234 0.072887406 -0.03969662 0.103818566
-0.11326502 0.015858188 -0.079537034 -0.11903523 -0.07739198 0.096852735 -0.038554803 -0.112191364
0.06737532 0.007578686 -0.074766695 -0.032444 0.07534814 0.11237092 0.068096176 0.05843535
-0.09960538 -0.06253767 0.01991199 0.019325048 0.032451138 0.075418204 0.064473435 0.011541128
0.07610248 0.057016402 0.09906259 -0.047255546 0.05973436 0.05441171 0.10931924 0.093715146
-0.11808318 -0.12386423 0.036811143 -0.05360821 -0.021692812 0.067136735 0.10880111 0.09689027
-0.080296025 0.052753314 -0.044536114 0.08453672 -0.04799515 -0.018924594 0.061911374 -0.10795236
-0.053640515 0.09411384 0.11268467 -0.05305682 0.08529909 0.07402301 0.064385176 0.08582261
-0.10453804 -0.03506227 -0.0779219 -0.036094382 0.07994343 -0.07636404 -0.0535779 -0.0053216666
0.12447743 0.124051645 -0.023695022 -0.10678758 -0.0996038 0.008377373 0.0528336 -0.0024667233
0.08520429 0.04631664 -0.11514866 0.08787303 0.114665344 0.10935432 -0.010076106 0.1022505
0.08596052 -0.09750004 -0.056605667 -0.0960049 0.059014365 -0.054022655 -0.00019419193 -0.11350277
-0.03202711 -0.08544263 -0.061798915 0.10362549 -0.08892189 0.10020766 -0.09221612 -0.07992141
-0.037599877 0.06134665 0.059592605 0.058653057 0.023963585 0.04003644 -0.11603995 -0.090201065
0.034420237 -0.0358631 0.0094563365 -0.11547871 -0.117377535 0.062091455 -0.070301265 -0.022252277
0.06806618 -0.10835466 -0.027626604 0.012756199 0.12049228 -0.045278236 0.08319682 -0.06560357
0.027363867 0.03589347 -0.10418615 0.017811269 0.0027454644 -0.060097888 -0.07232636 0.06953481
-0.05092743 -0.023533061 -0.12331396 0.12347901 -0.1010178 -0.057885736 -0.06801845 -0.03205733
-0.05011916 -0.028427482 0.007811889 -0.11898485 0.022584945 -0.096576646 -0.055275038 -0.07901718
0.053906932 -0.082575634 -0.11999622 0.029711962 0.09886296 -0.039504275 0.031588122 -0.09735961
-0.0580844 0.11597012 -0.103189155 -0.061206296 0.05316405 0.12141845 0.049934566 0.04745221
-0.05664693 0.06741628 -0.08599886 -0.08827683 -0.117374584 0.11205663 -0.09979321 0.09426901
0.11054048 -0.030969352 0.01988259 0.11947584 -0.04897596 -0.07076953 -0.05009474 0.025382265
-0.064233035 0.110215425 -0.052280083 -0.05994086 -0.026861101 0.060001627 0.11478661 -0.047762707
-0.12399921 -0.11931203 0.08577679 -0.022680685 -0.09217434 0.0697179 0.08711986 0.003036216
00000000: fc70 063d 00db c73d ac02 cb3d 6a9e fc3d
00000010: 324f bebd 8074 093b ce07 95bd b2e9 c13d
00000020: fac9 c3bd ac77 a6bd 16d8 943d 289a d53d
00000030: 1e3d e6bd 021a cd3d 2437 14bd cc72 803d
00000040: b26b d13d a07b 2b3c a003 27bc c0ba 90bc
00000050: e038 3cbc 786c 24bd 701d f33c b60b e4bd
00000060: f671 9fbd f4d0 58bd da52 ba3d 2831 a23d
00000070: c288 dcbd 160a e03d d44a 5d3d 3880 763d
00000080: 9a24 83bd a011 343c 5804 30bd 983c ac3c
00000090: 7e9f e83d c0c1 fb3b e4cc 2b3d 38dc e23d
000000a0: e820 bb3c b0cd 04bc e89c 85bc 508f e43d
000000b0: d428 ec3d 2a98 d13d 94d5 2a3d aadd 8e3d
000000c0: 4614 e7bd 40c1 c83c 04ca 063d c02e 77bd
000000d0: 3028 e9bd 2ac8 b6bd 0859 323d 4e50 f6bd
000000e0: 40b4 913b 209a 803d 22c7 babd 7042 b3bc
000000f0: 589d c4bd fe45 953d ec98 22bd d49e d43d
00000100: 7ef7 e7bd 08e9 813c 50e4 a2bd bec8 f3bd
00000110: b07f 9ebd ba5a c63d a4eb 1dbd 96c4 e5bd
00000120: 12fc 893d a056 f83b 481f 99bd 00e4 04bd
00000130: 2050 9a3d ba22 e63d 0276 8b3d e859 6f3d
00000140: e8fd cbbd c013 80bd 781e a33c 904f 9e3c
00000150: 7ceb 043d dc74 9a3d a60a 843d 0017 3d3c
00000160: 9edb 9b3d 088a 693d 54e1 ca3d 088f 41bd
00000170: 04ac 743d d0de 5e3d c4e2 df3d baed bf3d
00000180: 98d5 f1bd 88ac fdbd 48c7 163d 4894 5bbd
00000190: 20b5 b1bc fc7e 893d 1ed3 de3d 686e c63d
000001a0: 3e72 a4bd dc13 583d 806b 36bd 9621 ad3d
000001b0: 9096 44bd c007 9bbc c896 7d3d 2016 ddbd
000001c0: 28b6 5bbd c2be c03d 38c7 e63d 1c52 59bd
000001d0: 4ab1 ae3d 6099 973d 60dc 833d c4c3 af3d
000001e0: 0a18 d6bd 749d 0fbd 8495 9fbd b4d7 13bd
000001f0: 62b9 a33d c064 9cbd 8074 5bbd 6061 aebb
00000200: 06ee fe3d ca0e fe3d 101c c2bc 72b3 dabd
00000210: 14fd cbbd 4041 093c 0c68 583d c0a8 21bb
00000220: 967f ae3d 84b6 3d3d 10d3 ebbd c6f6 b33d
00000230: aad5 ea3d 28f5 df3d 4016 25bc b668 d13d
00000240: 120c b03d 1aae c7bd 58db 67bd 389e c4bd
00000250: 0cb9 713d dc46 5dbd 00a0 4bb9 2474 e8bd
00000260: dc2e 03bd 8cfc aebd dc20 7dbd 9a39 d43d
00000270: ae1c b6bd ac39 cd3d cedb bcbd d6ad a3bd
00000280: 5402 1abd a046 7b3d 6017 743d 303e 703d
00000290: 484f c43c 40fd 233d 5aa6 edbd 56bb b8bd
000002a0: 3cfc 0c3d 30e5 12bd c0ee 1a3c 1a80 ecbd
000002b0: a263 f0bd 9c53 7e3d 1cfa 8fbd 684a b6bc
000002c0: 4866 8b3d 0ce9 ddbd 3051 e2bc 60ff 503c
000002d0: a8c4 f63d ac75 39bd 1863 aa3d 2a5b 86bd
000002e0: 302a e03c 0805 133d 8c5f d5bd f0e8 913c
000002f0: 40ed 333b 3429 76bd d81f 94bd 4468 8e3d
00000300: 4899 50bd 68c8 c0bc 088c fcbd 90e2 fc3d
00000310: 6ce2 cebd 9819 6dbd 424d 8bbd 8c4e 03bd
00000320: c049 4dbd c0e0 e8bc e0fa ff3b 54ae f3bd
00000330: 1004 b93c fac9 c5bd 1468 62bd c2d3 a1bd
00000340: 84cd 5c3d 6a1d a9bd 94c0 f5bd 8066 f33c
00000350: aa78 ca3d 3ccf 21bd 8c62 013d 7a64 c7bd
00000360: e8e9 6dbd be81 ed3d d654 d3bd 74b3 7abd
00000370: 8cc2 593d 3caa f83d 3088 4c3d 405d 423d
00000380: 9c06 68bd 8c11 8a3d 2c20 b0bd 7cca b4bd
00000390: 1662 f0bd f27d e53d 6260 ccbd 1c10 c13d
000003a0: 0c63 e23d 70b3 fdbc d0e0 a23c c0af f43d
000003b0: 049b 48bd 9eef 90bd 2430 4dbd 78ee cf3c
000003c0: 9c8c 83bd a0b8 e13d a423 56bd 8c84 75bd
000003d0: d00b dcbc 44c4 753d 3e15 eb3d d4a2 43bd
000003e0: 4cf3 fdbd de59 f4bd beab af3d d8cc b9bc
000003f0: e6c5 bcbd 42c8 8e3d e66b b23d 40fb 463b

decoder.weight_hh_l0 f4 [256, 64]
0.053977624 -0.03604439 0.034572378 -0.121093586 -0.0409185 0.10938801 -0.1007577 0.0729146
0.111238986 -0.009301364 -0.00447388 0.031424835 0.096860275 0.017709196 0.121274605 0.08609377
-0.094907984 -0.071931705 -0.08918849 0.11255351 -0.026737928 0.005399853 0.07663973 0.07421909
-0.032316595 -0.06691663 -0.036985725 -0.018008947 -0.020598605 -0.060494483 0.09758294 0.09330012
-0.030218303 -0.0653014 -0.025282308 -0.031180248 -0.008812159 0.079350844 -0.11598587 0.11804812
-0.102844685 -0.10689655 0.053813353 -0.110339254 -0.09039563 0.048732415 -0.081059605 0.11751668
0.10754557 0.08233884 -0.093529046 -0.050290525 0.043852016 0.014650017 -0.055274546 -0.0011441559
-0.09301317 0.087994024 -0.08672486 -0.030771807 0.07764661 -0.12167245 0.027455166 -0.018105164
-0.07016091 0.009236366 -0.016004339 0.04230544 0.005168885 0.01696682 0.04793179 -0.08837916
0.07441886 -0.061123535 -0.112696424 0.12289287 -0.045618027 0.103041604 0.07253133 -0.030386284
-0.0075331926 0.046004444 0.051141784 0.028897315 0.110171646 -0.08616236 -0.11378977 -0.07897586
-0.0010213405 0.09232244 -0.094477326 -0.09986891 0.078762904 0.083203465 0.05884999 0.002039358
0.045320094 -0.045296103 0.047478035 0.01167132 0.074523315 0.110574946 -0.12330784 0.0019654036
0.1176582 -0.011163205 -0.018859014 -0.056160793 -0.08236246 -0.11876631 -0.080543384 0.06899564
-0.11087419 -0.020927295 -0.069116116 0.07303095 0.12376559 0.10881607 0.11630604 0.11119057
0.04649429 0.09391697 -0.039069608 -0.091686055 0.013739258 -0.0996218 0.052781224 0.010015458
-0.07789351 -0.08753796 0.09422025 0.10380915 0.018077195 -0.095952645 0.022535115 0.1235574
0.094600305 -0.054665014 -0.007165894 0.0031031072 0.02670838 -0.10717763 -0.08375834 -0.09821418
-0.026218563 0.07076426 -0.02657412 -0.05248685 -0.08154485 -0.065825894 0.07179797 0.03020902
-0.07062349 0.015336111 -0.11891417 0.018616796 0.09541799 0.007387638 0.08250955 -0.0025992393
0.12350951 0.11846462 0.06766759 0.03608869 0.11850572 0.09074095 0.036046922 -0.04935454
0.09371781 -0.10646853 -0.034820095 -0.02817434 0.055065066 -0.10129437 -0.02179332 0.01796034
-0.112403065 -0.07130507 0.12283513 0.040865615 -0.068954244 -0.07162976 -0.011615589 -0.11381836
0.09026861 -0.09972097 0.06419632 0.04192984 -0.11896536 0.096023425 0.06511688 0.11787601
0.088710755 -0.12439008 -0.06447302 0.08246897 -0.08955151 -0.12284689 -0.012597695 0.107639655
-0.09683958 0.090933576 0.087649375 0.09743637 -0.042668402 0.11598201 -0.0036438107 -0.03670968
0.07373449 -0.029568821 -0.12459698 -0.117357165 0.056843266 0.030985072 0.05704786 0.030123904
-0.07788767 -0.012582853 -0.04652998 0.10115166 0.00044438243 0.05353643 -0.003438279 0.08870645
-0.083265826 -0.075521916 0.02885589 0.0694256 0.07815722 -0.087023556 -0.055932656 0.099217966
-0.06472403 0.07494922 0.10749288 0.06835282 0.078905925 -0.0005247444 -0.02154082 0.03633897
0.08774373 0.0748343 -0.060312346 0.00010305643 0.101437226 -0.11400309 -0.0039782375 0.06583676
0.04208295 0.017579049 -0.121304706 0.12366547 0.09710489 -0.055612624 -0.04620388 -0.09635995
00000000: a417 5d3d 48a3 13bd c49b 0d3d eaff f7bd
00000010: 289a 27bd d206 e03d 0e5a cebd 4054 953d
00000020: 44d1 e33d c064 18bc a099 92bb 54b7 003d
00000030: ae5e c63d e012 913c d25e f83d ee51 b03d
00000040: 1e5f c2bd ee50 93bd 74a8 b6bd 7482 e63d
00000050: 8009 dbbc 40f1 b03b 4af5 9c3d 2e00 983d
00000060: 685e 04bd 960b 89bd 587e 17bd 8087 93bc
00000070: 68be a8bc 10c9 77bd 90d9 c73d 2214 bf3d
00000080: 608c f7bc bebc 85bd d81c cfbc b86d ffbc
00000090: e060 10bc b282 a23d 008a edbd 36c3 f13d
000000a0: 3ca0 d2bd 94ec dabd 646b 5c3d 8cf9 e1bd
000000b0: 5821 b9bd a49b 473d 9402 a6bd 96ac f03d
000000c0: da40 dc3d 44a1 a83d 288c bfbd 70fd 4dbd
000000d0: 2c9e 333d a006 703c 9067 62bd 80f7 95ba
000000e0: b07d bebd 3636 b43d ce9c b1bd 2815 fcbc
000000f0: 3005 9f3d 682f f9bd a8e9 e03c 4851 94bc
00000100: 86b0 8fbd 2054 173c 881b 83bc 7848 2d3d
00000110: c05f a93b 00fe 8a3c 2054 443d 2200 b5bd
00000120: ea68 983d ac5c 7abd 62cd e6bd 42af fb3d
00000130: f8d9 3abd 7a07 d33d 4e8b 943d a8ec f8bc
00000140: 00d9 f6bb 286f 3c3d 0c7a 513d 10ba ec3c
00000150: aca1 e13d e475 b0bd 9c0a e9bd 18be a1bd
00000160: 80de 85ba 8c13 bd3d 547d c1bd 1288 ccbd
00000170: 724e a13d 9466 aa3d b00c 713d c0a6 053b
00000180: 90a1 393d 6888 39bd 5478 423d 1039 3f3c
00000190: ae9f 983d 1e75 e23d d288 fcbd 00ce 003b
000001a0: c8f6 f03d e0e5 36bc 387e 9abc dc08 66bd
000001b0: a6ad a8bd c03b f3bd eef3 a4bd 964d 8d3d
000001c0: 0212 e3bd b86f abbc c08c 8dbd 4091 953d
000001d0: d078 fd3d f6da de3d dc31 ee3d e2b7 e33d
000001e0: cc70 3e3d 8a57 c03d 7407 20bd e6c5 bbbd
000001f0: a01a 613c 8406 ccbd 2031 583d e017 243c
00000200: a286 9fbd 1a47 b3bd 8cf6 c03d e499 d43d
00000210: a016 943c d282 c4bd 909b b83c aa0b fd3d
00000220: cebd c13d 6ce8 5fbd e0cf eabb 805d 4b3b
00000230: 88cb da3c f27f dbbd 7e89 abbd 8424 c9bd
00000240: 50c8 d6bc daec 903d f8b1 d9bc 74fc 56bd
00000250: fc00 a7bd bacf 86bd d00a 933d e878 f73c
00000260: 0ca3 90bd 5044 7b3c 4689 f3bd 4082 983c
00000270: 826a c33d 0014 f23b c4fa a83d 0058 2abb
00000280: 8ef2 fc3d 949d f23d 4e95 8a3d bcd1 133d
00000290: 20b3 f23d 64d6 b93d f0a5 133d fc27 4abd
000002a0: 20ef bf3d 2c0c dabd 849f 0ebd e0cd e6bc
000002b0: e88b 613d 6c73 cfbd e887 b2bc 9021 933c
000002c0: 9433 e6bd 6408 92bd fc90 fb3d b462 273d
000002d0: e237 8dbd a0b2 92bd 504f 3ebc 9a19 e9bd
000002e0: c0de b83d 823a ccbd 5c79 833d a0be 2b3d
000002f0: 1ca4 f3bd eea7 c43d 005c 853d fa68 f13d
00000300: fcad b53d 3ac0 febd 6e0a 84bd 7ee5 a83d
00000310: c866 b7bd 2697 fbbd 9066 4ebc 2e72 dc3d
00000320: d453 c6bd 623b ba3d 8481 b33d b88c c73d
00000330: 10c5 2ebd fa87 ed3d 00cd 6ebb e45c 16bd
00000340: 1c02 973d 503a f2bc b42c ffbd f458 f0bd
00000350: 7cd4 683d 68d4 fd3c 04ab 693d 68c6 f63c
00000360: 9283 9fbd 5028 4ebc 3896 3ebd 9a28 cf3d
00000370: 00fc e839 0449 5b3d c054 61bb baab b53d
00000380: 4687 aabd 3cab 9abd 3063 ec3c 022f 8e3d
00000390: e410 a03d 6839 b2bd a419 65bd ca32 cb3d
000003a0: 088e 84bd fa7e 993d 3a25 dc3d 90fc 8b3d
000003b0: 6e99 a13d 008f 09ba 6076 b0bc 2cd8 143d
000003c0: fcb2 b33d ba42 993d 140a 77bd 0020 d838
000003d0: 52be cf3d 747a e9bd e05b 82bb 6cd5 863d
000003e0: 2c5f 2c3d f001 903c 9a6e f8bd 5244 fd3d
000003f0: eede c63d 10ca 63bd 4840 3dbd 5e58 c5bd

decoder.bias_ih_l0 f4 [256]
-0.003433004 0.08661342 0.02087085 -0.024146736 0.025052175 0.085137546 0.09103981 -0.014167458
0.008200571 0.023868352 0.12317975 -0.110026896 0.08753094 -0.010593563 0.109352544 0.04299672
-0.059500843 0.12303153 -0.035538062 -0.10715923 0.07864396 -0.11114432 -0.09952569 0.10678217
0.0738481 -0.0984506 0.09514432 0.12255138 0.06150697 0.050267622 0.105420396 0.028657705
-0.10734017 0.030373022 -0.09895502 -0.12049863 0.04240091 0.030575022 0.103284344 0.07653232
0.10285857 -0.08027856 -0.047511265 -0.10976854 0.025863677 0.121897265 -0.12086181 0.11070897
-0.10732162 0.035485774 -0.11064625 -0.034269646 -0.052093282 -0.06189525 0.095302954 0.101689786
-0.08320607 -0.08031729 0.04946044 -0.011584014 0.070056126 0.04943043 0.099136144 -0.044537127
-0.019395739 0.042686656 -0.022649541 0.10044289 -0.010363981 -0.108256444 -0.009067461 -0.080410525
-0.04037133 0.08241071 -0.0073329955 0.108453184 -0.020708352 0.005375281 0.049075276 0.036835447
0.09788184 -0.01719904 0.107106075 -0.10506575 0.061344758 -0.10452135 0.0297136 0.07012752
-0.034200177 -0.008186221 0.09398857 0.013485938 0.055836767 0.02175349 0.07671307 0.061549604
-0.057642132 -0.07474488 0.058676094 -0.02213122 0.09321973 0.0015272796 0.018606588 -0.020782724
-0.11828387 -0.042149976 -0.101675466 0.040645957 0.07645802 -0.08012994 -0.11824858 -0.1092273
0.04179482 0.0114284605 -0.11216469 -0.10221556 0.05517532 0.0684153 -0.056355387 0.07196981
-0.024951339 -0.057185233 0.07010348 -0.020452559 0.080962285 -0.093730405 0.10326919 -0.022863358
0.0014418662 -0.0030830353 0.045817897 -0.061713308 0.085691765 0.070295915 0.11365302 -0.07295358
0.12352076 -0.0010628998 0.09389815 0.11782296 -0.05903937 0.0850634 -0.06430997 0.09199697
-0.09478776 0.0637573 0.10771315 -0.05335547 -0.02139771 0.0028336495 0.09018855 -0.037421927
0.02188544 -0.04062207 -0.028275982 0.10049653 -0.113038406 -0.09213996 0.063042805 -0.103419244
-0.038586766 0.081083104 -0.006233752 -0.074730545 -0.09450962 0.08504604 -0.08424987 0.10243639
0.1096814 0.017145634 -0.06902142 -0.03421597 0.11615598 -0.09580505 0.07748109 -0.051350936
-0.07427253 -0.051286176 0.009535834 0.077212214 -0.0029212534 0.02741827 0.034265444 -0.062750325
0.08172256 0.052505463 0.07605608 0.05570309 0.111431286 -0.0014752448 0.03568968 0.09178032
0.110486984 -0.06319249 0.07833631 0.047886193 -0.044437706 0.09848049 -0.118557006 0.12072155
-0.006971523 -0.05047737 -0.04356034 0.070711315 0.050439626 -0.07310647 0.07948007 0.06596942
-0.0075499415 -0.00015844405 0.103839844 -0.0009227842 -0.026153415 0.0624592 0.1248672 -0.021470249
-0.08660057 -0.02894409 0.09216337 -0.104446694 0.06911589 0.11883989 0.059435695 0.08356187
0.02104187 0.034554243 -0.11215612 -0.11851451 0.11189476 0.0133306235 -0.05270146 -0.06620866
0.11801283 -0.11717072 -0.0737697 -0.071639135 -0.0070494413 -0.09042671 0.10788041 0.0980645
-0.031069353 -0.019802064 -0.081323415 -0.06632553 -0.04653749 -0.074061185 -0.053052336 0.060759723
0.03562139 0.053685173 0.047917157 0.024779394 0.022156596 -0.057861477 0.0794743 -0.10839586
00000000: 40fc 60bb 6062 b13d 58f9 aa3c 60cf c5bc
00000010: 383a cd3c 985c ae3d 1473 ba3d a01e 68bc
00000020: b05b 063c 9087 c33c aa45 fc3d c855 e1bd
00000030: 6c43 b33d a090 2dbc 3af4 df3d 541d 303d
00000040: 28b7 73bd f4f7 fb3d 5c90 11bd 4c76 dbbd
00000050: 1610 a13d a29f e3bd 20d4 cbbd 9cb0 da3d
00000060: ac3d 973d 78a0 c9bd 06db c23d 38fc fa3d
00000070: bcee 7b3d 6ce5 4d3d a6e6 d73d 90c3 ea3c
00000080: 2ad5 dbbd d8d0 f83c eea8 cabd fcc7 f6bd
00000090: 94ac 2d3d 7878 fa3c be86 d33d fabc 9c3d
000000a0: 84a7 d23d 1669 a4bd 2c9b 42bd 54ce e0bd
000000b0: 10e0 d33c 46a5 f93d 6686 f7bd 62bb e23d
000000c0: 70cb dbbd 8859 113d 809a e2bd 545e 0cbd
000000d0: c45f 55bd e085 7dbd 322e c33d bc42 d03d
000000e0: f267 aabd 647d a4bd 0897 4a3d e0ca 3dbc
000000f0: 9679 8f3d 9077 4a3d e407 cb3d 906c 36bd
00000100: d0e3 9ebc 34d8 2e3d 888b b9bc 00b5 cd3d
00000110: b0cd 29bc 8eb5 ddbd b08f 14bc 46ae a4bd
00000120: 685c 25bd f2c6 a83d a049 f0bb b41c de3d
00000130: 90a4 a9bc 2023 b03b 2803 493d c4e0 163d
00000140: 4676 c83d 00e5 8cbc 6e5a db3d b62c d7bd
00000150: a444 7b3d 4a0f d6bd f069 f33c 049f 8f3d
00000160: 7c15 0cbd 801f 06bc 147d c03d 20f4 5c3c
00000170: 18b5 643d 6034 b23c be1b 9d3d 701b 7c3d
00000180: 281a 6cbd d813 99bd 5856 703d 884c b5bc
00000190: fce9 be3d 002f c83a d86c 983c 8840 aabc
000001a0: d03e f2bd 74a5 2cbd 3a3b d0bd 607c 263d
000001b0: 0696 9c3d 2a1b a4bd 502c f2bd 90b2 dfbd
000001c0: 0c31 2b3d 703e 3b3c 9ab6 e5bd 6456 d1bd
000001d0: 84ff 613d 521d 8c3d e8d4 66bd e864 933d
000001e0: c066 ccbc 103b 6abd 6a92 8f3d 208c a7bc
000001f0: 8ecf a53d baf5 bfbd cc7e d33d f04b bbbc
00000200: 00fd bc3a c00c 4abb 8cab 3b3d 18c7 7cbd
00000210: 2a7f af3d 4ef7 8f3d eac2 e83d b068 95bd
00000220: 74f8 fc3d 0051 8bba ac4d c03d 2a4d f13d
00000230: 44d3 71bd b835 ae3d f2b4 83bd e868 bc3d
00000240: 1620 c2bd 3093 823d b698 dc3d 448b 5abd
00000250: 404a afbc c0b4 393b c6b4 b83d bc47 19bd
00000260: 1849 b33c 5463 26bd 08a3 e7bc 20d1 cd3d
00000270: ae80 e7bd e0b3 bcbd 961c 813d 78cd d3bd
00000280: 280d 1ebd e60e a63d 8044 ccbb 540c 99bd
00000290: 428e c1bd 9e2c ae3d 328b acbd 2cca d13d
000002a0: a4a0 e03d 0075 8c3c 1a5b 8dbd 0c26 0cbd
000002b0: 30e3 ed3d 7035 c4bd 68ae 9e3d 5c55 52bd
000002c0: 321c 98bd 7411 52bd 303c 1c3c 7021 9e3d
000002d0: 8072 3fbb 489c e03c ec59 0c3d 3e83 80bd
000002e0: 285e a73d f80f 573d 4ac3 9b3d ec28 643d
000002f0: 1636 e43d 005d c1ba 582f 123d 52f7 bb3d
00000300: 0047 e23d 106b 81bd ca6e a03d 5024 443d
00000310: 5004 36bd 24b0 c93d 04ce f2bd dc3c f73d
00000320: 6071 e4bb 5cc1 4ebd 546c 32bd 18d1 903d
00000330: c899 4e3d d8b8 95bd 72c6 a23d fa1a 873d
00000340: 8065 f7bb 0024 26b9 fca9 d43d 00e7 71ba
00000350: b03f d6bc 38d5 7f3d 60ba ff3d 60e2 afbc
00000360: a45b b1bd 281c edbc 26c0 bc3d 26e8 d5bd
00000370: a28c 8d3d 5462 f33d d872 733d 7c22 ab3d
00000380: 0060 ac3c c088 0d3d 1cb2 e5bd bcb7 f2bd
00000390: 1429 e53d b068 5a3c 7cdd 57bd 6898 87bd
000003a0: b6b0 f13d 34f7 efbd 9214 97bd 8ab7 92bd
000003b0: 00ff e6bb a431 b9bd 68f0 dc3d 0ad6 c83d
000003c0: 2885 febc f037 a2bc e48c a6bd aed5 87bd
000003d0: 189e 3ebd 64ad 97bd 684d 59bd 30df 783d
000003e0: bce7 113d fce4 5b3d c844 443d 28fe ca3c
000003f0: c081 b53c 2800 6dbd 6cc3 a23d a6fe ddbd

decoder.bias_hh_l0 f4 [256]
0.10669635 -0.0052893907 -0.06857884 0.043162614 -0.05051461 -0.0336532 0.024307072 0.025242507
0.009433836 0.120523304 -0.05906163 0.097431764 0.08398694 -0.07125959 -0.1209362 -0.0026779473
0.08704813 -0.020067185 -0.101705074 -0.06848505 0.010992378 0.02799885 -0.017177105 -0.12433927
0.031868502 -0.10417345 0.073822945 0.10061456 0.06457561 -0.05566971 -0.082649484 -0.08851935
0.09839642 -0.12144248 -0.11993718 -0.011309013 -0.06763205 -0.029379487 -0.11544904 -0.05886653
0.106747285 0.031191275 -0.01578097 0.07001354 0.005525589 0.11408119 -0.05304721 0.050038025
-0.07082243 0.1231073 0.046135962 -0.051663056 -0.012588039 -0.032812715 0.08520214 0.04319106
0.042629838 -0.03932403 0.124732986 0.09762421 0.12171361 -0.001527071 -0.08349617 -0.09816246
0.07100038 0.12300494 0.058944106 -0.023555651 0.020403564 0.117290705 0.029014513 -0.044611797
-0.028220162 0.065033585 -0.052123144 -0.0546733 -0.068908155 0.08965963 0.02721034 0.0012613982
-0.086368665 -0.07789345 0.021968722 0.10210186 -0.07672344 -0.06127152 0.014262244 -0.072135925
0.100968316 0.116867155 0.0038774014 0.027610958 0.046313167 0.023560658 0.08098328 0.0639426
0.07189299 0.09678346 -0.004440874 0.07282519 -0.095171615 0.051431254 0.103340864 0.039394528
0.060627595 -0.101848885 0.0069827884 -0.07723263 0.05494301 -0.011497468 -0.0556598 0.07604888
-0.025301963 -0.025797993 0.043072253 -0.049417287 -0.08358526 0.060682982 -0.12128048 0.09805533
0.0031737536 0.101960495 -0.09023152 0.072843164 0.11262941 0.006572336 0.095361575 0.07463612
-0.10490832 -0.036855787 0.111391515 0.10174149 -0.035075054 0.06837985 0.08202948 -0.016659617
0.1148483 -0.048906922 0.0032480508 0.032936856 0.042171657 0.0063369125 0.045984343 -0.046056584
-0.034187973 -0.04932806 -0.036559373 0.07789141 0.04026535 0.08749345 -0.12021837 0.0020341128
0.025789917 0.009093314 -0.12486367 -0.08648841 0.0484761 -0.058951512 0.11526017 -0.05509515
-0.034122124 0.11861929 0.053172708 0.056363896 0.066243306 0.08788496 0.10767944 0.024128214
0.074587554 -0.08368808 -0.12069039 0.059770316 -0.033833906 -0.105440155 -0.063028336 0.0054638386
-0.09376748 0.044402733 -0.024367094 -0.051569387 -0.024435729 0.090879545 -0.036339387 -0.0924093
-0.07297306 0.079970926 0.06490053 -0.047028467 -0.01246196 0.059376806 0.012465566 -0.122136384
0.054614693 -0.11712396 -0.10769498 0.006962627 -0.093550816 -0.057140738 -0.09022766 -0.041119397
0.11373098 0.022901744 -0.055927858 0.049019784 0.029455155 0.0048105866 0.051860243 0.014899418
0.056214407 -0.048751265 -0.06292474 0.05230756 0.0667458 0.07829094 0.042397827 -0.030554146
-0.060272634 -0.020572796 -0.06329599 -0.0042709857 -0.11058012 0.03314203 -0.08404179 0.00016972423
-0.032724455 -0.029660448 -0.05341345 -0.07679632 0.07235938 -0.00781557 0.09514177 -0.101101816
-0.060957 -0.05707431 0.12003708 0.11428353 0.031066164 -0.030845717 -0.051344976 0.026463687
0.0036568642 0.024925962 0.012531713 -0.06487672 -0.038240537 0.040704787 -0.081759825 0.06252052
-0.016574651 0.07631849 -0.056473926 0.08540499 0.10332897 0.0546508 -0.07961719 -0.0066362023
00000000: 9e83 da3d a052 adbb 1073 8cbd 48cb 303d
00000010: 68e8 4ebd f0d7 09bd a01f c73c 60c9 ce3c
00000020: 6090 1a3c ecd4 f63d 9cea 71bd 4e8a c73d
00000030: 5801 ac3d 8cf0 91bd 66ad f7bd 8080 2fbb
00000040: 4a46 b23d f063 a4bc c04a d0bd e441 8cbd
00000050: 6019 343c d85d e53c 00b7 8cbc 96a5 febd
00000060: 8c88 023d e458 d5bd 7c30 973d 020f ce3d
00000070: 3840 843d ec05 64bd 2244 a9bd a249 b5bd
00000080: 1084 c93d d6b6 f8bd a0a1 f5bd 7049 39bc
00000090: ac82 8abd 40ad f0bc 8c70 ecbd 081e 71bd
000000a0: 529e da3d d884 ff3c 1847 81bc 4263 8f3d
000000b0: 0010 b53b 66a3 e93d 0848 59bd acf4 4c3d
000000c0: 5a0b 91bd ae1f fc3d 10f9 3c3d a49c 53bd
000000d0: 103e 4ebc a066 06bd 767e ae3d 1ce9 303d
000000e0: a09c 2e3d 3c12 21bd 0274 ff3d 34ef c73d
000000f0: fc44 f93d 0028 c8ba 0a00 abbd 6609 c9bd
00000100: a668 913d 04ea fb3d 606f 713d c8f7 c0bc
00000110: 6025 a73c 1c36 f03d d8af ed3c dcba 36bd
00000120: f82d e7bc 5430 853d 147f 55bd 1cf1 5fbd
00000130: b81f 8dbd 789f b73d 38e8 de3c 8055 a53a
00000140: 0ee2 b0bd 9a86 9fbd c0f7 b33c c81a d13d
00000150: 2e21 9dbd d8f7 7abd 30ac 693c 00bc 93bd
00000160: 7ac8 ce3d 0c58 ef3d 001c 7e3b 6030 e23c
00000170: e0b2 3d3d 4802 c13c 90da a53d 56f4 823d
00000180: a23c 933d 6836 c63d c084 91bb 6025 953d
00000190: 56e9 c2bd 94a9 523d 60a4 d33d 285c 213d
000001a0: a454 783d 2696 d0bd e0cf e43b 242c 9ebd
000001b0: ec0b 613d e05f 3cbc 88fb 63bd 84bf 9b3d
000001c0: 1046 cfbc 5056 d3bc 886c 303d c869 4abd
000001d0: c02e abbd b88e 783d e661 f8bd 3cd1 c83d
000001e0: c0fe 4f3b aad0 d03d 4ecb b8bd cc2e 953d
000001f0: 40aa e63d c05c d73b ee4c c33d d2da 983d
00000200: 2cda d6bd 18f6 16bd 3c21 e43d d85d d03d
00000210: dcaa 0fbd bc0a 8c3d 12ff a73d c079 88bc
00000220: 9635 eb3d a052 48bd 40dd 543b cce8 063d
00000230: 30bc 2c3d e0a5 cf3b 145a 3c3d d4a5 3cbd
00000240: b008 0cbd 380c 4abd 48bf 15bd 8885 9f3d
00000250: 48ed 243d c42f b33d 0c35 f6bd c04e 053b
00000260: 6045 d33c 20fc 143c 86b8 ffbd d620 b1bd
00000270: e08e 463d 2477 71bd 860d ec3d 74ab 61bd
00000280: a4c3 0bbd acee f23d a0cb 593d d4dd 663d
00000290: 92aa 873d 08fd b33d 0a87 dc3d 88a8 c53c
000002a0: 5cc1 983d a864 abbd 862c f7bd b8d1 743d
000002b0: 6c95 0abd 02f1 d7bd 0015 81bd 000a b33b
000002c0: 2a09 c0bd a4df 353d 809d c7bc 6c3a 53bd
000002d0: 702d c8bc 0e1f ba3d 9cd8 14bd 1641 bdbd
000002e0: e672 95bd ccc7 a33d 92ea 843d eca0 40bd
000002f0: 402d 4cbc 1835 733d 603c 4c3c a422 fabd
00000300: a8b3 5f3d b0de efbd 308f dcbd c026 e43b
00000310: 9297 bfbd 680c 6abd 48c9 b8bd d06c 28bd
00000320: caeb e83d 709c bb3c 9c14 65bd f8c8 483d
00000330: f04b f13c 20a2 9d3b 686b 543d b01c 743c
00000340: 1441 663d 68af 47bd b0de 80bd 7440 563d
00000350: 06b2 883d 0057 a03d 58a9 2d3d b04c fabc
00000360: 70e0 76bd 4888 a8bc 54a1 81bd a0f3 8bbb
00000370: d477 e2bd f0bf 073d 1a1e acbd 00f8 3139
00000380: 140a 06bd 78fa f2bc 10c8 5abd 6447 9dbd
00000390: 2831 943d e00c 00bc b0d9 c23d 780e cfbd
000003a0: 0cae 79bd c0c6 69bd 00d6 f53d 7c0d ea3d
000003b0: 787e fe3c 28b0 fcbc 1c4f 52bd 60ca d83c
000003c0: 00a8 6f3b 8831 cc3c d051 4d3c 16de 84bd
000003d0: 1ca2 1cbd 10ba 263d b271 a7bd c20a 803d
000003e0: 90c7 87bc de4c 9c3d 3451 67bd d0e8 ae3d
000003f0: 249e d33d 84d9 5f3d 560e a3bd 8074 d9bb
