output/mnist/models/lstm_autoencoder_mnist_classification_pixel_by_pixel.pth (torch, 207384 bytes, 11 tensors)

encoder.weight_ih_l0 f4 [256, 1]
0	0xbd6ffe01	-0.058591846
1	0xbdd8c3a8	-0.105841935
2	0x3d207824	0.039177075
3	0xbdf74a91	-0.12074769
4	0x3d5ff0c5	0.054672975
5	0x3d934c22	0.071922556
6	0x3d8aba85	0.06773857
7	0x3c3db1e4	0.011578057
8	0x3dcf32b9	0.101170965
9	0xbd4bbf9d	-0.049743284
10	0xbd9b40a8	-0.075806916
11	0x3dc5c296	0.09656255
12	0x3dfba20a	0.12286766
13	0xbc804907	-0.015659822
14	0x3db1586f	0.086594455
15	0xbdb6e672	-0.08930673
16	0x3c2859e5	0.010275339
17	0x3d2ace16	0.041700445
18	0x3dd6bfb3	0.104857825
19	0xbda84ab3	-0.08217373
20	0x3c8c2a1b	0.017109921
21	0x3dd8f367	0.105933
22	0xbc7b510d	-0.015339148
23	0xbd7b3eea	-0.061339296
24	0xbc5d1e84	-0.013496045
25	0x3c07b5b5	0.008283068
26	0x3dc5a145	0.096499
27	0xbc849ca1	-0.016187968
28	0x3aa7d375	0.0012804108
29	0xbdafab14	-0.085775524
30	0x3d6ca2e8	0.057772547
31	0xbcbf55a5	-0.023356268
32	0xbd2b512a	-0.04182545
33	0x3cf12136	0.029434782
34	0xbdc50180	-0.09619427
35	0xbdc569f5	-0.0963935
36	0xbd723ac4	-0.059138075
37	0xbd04d061	-0.032425288
38	0xbd870f93	-0.065947674
39	0xbb822c5d	-0.0039725737
40	0xbdc31173	-0.095248125
41	0xbb5d4153	-0.003376086
42	0xbd8aa975	-0.067706026
43	0x3c3862f2	0.011254059
44	0x3dc1596a	0.094408825
45	0xbd231721	-0.03981698
46	0xbccbf3b0	-0.024896473
47	0x3d54439c	0.05182229
48	0xbbe229e3	-0.006901966
49	0xbcf3d9c4	-0.029766925
50	0xbde1f8db	-0.110337935
51	0xbdf2efaf	-0.11862122
52	0xbd9fed0b	-0.07808884
53	0x3d9cd512	0.076578274
54	0x3d8cf218	0.06882113
55	0x3d8fee09	0.070278235
56	0x3db69d1f	0.08916687
57	0xbba987e1	-0.0051736687
58	0x3dd14002	0.10217287
59	0xbd86ef1e	-0.06588577
60	0x3cdf14ae	0.02723154
61	0xbddd4a99	-0.10805244
62	0xbdc7ad6c	-0.097498745
63	0xbda471e4	-0.080295354
64	0x3dcd466e	0.10023199
65	0x3da5a538	0.080881536
66	0x3df98cc0	0.12185049
67	0xbda8f19e	-0.0824921
68	0xbc34a1f2	-0.011024939
69	0xbd7ab524	-0.061207905
70	0x3dad2676	0.084546015
71	0x3d20652d	0.03915899
72	0xbdc68989	-0.096942015
73	0x3d508ed1	0.05091745
74	0x3d46da1d	0.048547853
75	0xbd8bd469	-0.068276234
76	0xbd83c2b3	-0.0643362
77	0x3d9a3694	0.07529941
78	0x3dd0b16c	0.101900905
79	0x3d04a7ec	0.032386705
80	0x3d9ec32e	0.07752071
81	0xbd940a62	-0.07228543
82	0x3dd93acf	0.1060692
83	0xbd028183	-0.031861793
84	0xbccab2d5	-0.024743477
85	0xbd4ab8cf	-0.049492653
86	0xbd17a035	-0.03701802
87	0x3da943d6	0.08264892
88	0x3c987a2c	0.018612944
89	0xbd26f8c9	-0.040764604
90	0x3dcdf632	0.10056724
91	0x3b87b137	0.0041409987
92	0xbddf9812	-0.10917677
93	0x3c1567d0	0.009118989
94	0xbcdebdc7	-0.027190102
95	0xbcf8c2d1	-0.030366333
96	0xbd4d0d58	-0.050061554
97	0xbcc1fc98	-0.023680016
98	0x3ddf68cf	0.109086625
99	0x3d11962a	0.0355436
100	0x3da90aea	0.08254035
101	0x3d4f3879	0.050590966
102	0x3c142453	0.0090418635
103	0x3d91bd5e	0.07116197
104	0x3da1a992	0.07893671
105	0xbd3e4c6b	-0.046459597
106	0x3d1654e4	0.03670205
107	0x3c905766	0.0176198
108	0xbca8b7d7	-0.020595474
109	0x3bf54cff	0.0074859853
110	0x3c805e7e	0.015670057
111	0x3a9d36d9	0.0011994495
112	0x3cdb0905	0.0267377
113	0x3bb0875e	0.005387231
114	0xbd5ab028	-0.053390652
115	0xbcc522e3	-0.024064487
116	0x3da7873f	0.08180093
117	0x3d8cdb6c	0.06877789
118	0xbdabd497	-0.08390158
119	0x3cc409c8	0.023930445
120	0x3dd69e13	0.10479369
121	0xbdd41dc3	-0.10357239
122	0x3d810ddb	0.06301471
123	0x3cd6c86d	0.026218617
124	0xbbe0ca93	-0.006860086
125	0x3d2a288b	0.04154257
126	0xbd3cc28d	-0.046083976
127	0x3cdb7441	0.026788833
128	0xbc2c3652	-0.010510998
129	0x3dbfe831	0.09370459
130	0x3d2ff959	0.042962406
131	0xbbbb2dc1	-0.0057122414
132	0xbd470fea	-0.04859916
133	0x3d8ec604	0.06971362
134	0x3d2ee361	0.042697314
135	0xbdabd1d4	-0.08389631
136	0x3db709aa	0.0893739
137	0xbdf72f79	-0.120696016
138	0x3d974820	0.073868036
139	0x3da4eee0	0.08053374
140	0xbd21201a	-0.039337255
141	0xbdba74ef	-0.091043346
142	0x3db86af8	0.09004778
143	0xbca5c3c8	-0.020234957
144	0x3decee85	0.115689315
145	0xbcc12a5d	-0.02357977
146	0xbdd9e175	-0.10638706
147	0x3dc964a6	0.0983365
148	0xbbf9e08f	-0.0076256464
149	0xbda4e453	-0.08051362
150	0x3d63d6af	0.05562466
151	0x3d8a681b	0.06758138
152	0x3d2fdeda	0.042937137
153	0xbd506229	-0.050874863
154	0xbb24a0de	-0.0025120298
155	0xbaf52977	-0.0018704374
156	0xbd82bdcf	-0.06383859
157	0x3dd9bace	0.10631333
158	0x3c76cf96	0.015064141
159	0x3d88a1ee	0.06671511
160	0x3dff184f	0.12455808
161	0xbdf2beda	-0.11852808
162	0x3d3df95d	0.04638039
163	0xbb00be42	-0.0019644652
164	0x3d0f7d1c	0.035031423
165	0xbd960dee	-0.073268756
166	0x3b0bf464	0.0021355385
167	0x3ded49fb	0.11586376
168	0xbd8e1cbc	-0.069390744
169	0xbc95a913	-0.018269097
170	0xbdcba3a1	-0.09943319
171	0xbdda1122	-0.10647799
172	0xbd9fe800	-0.07807922
173	0xbdee1c86	-0.11626534
174	0xbd4c80a5	-0.049927372
175	0xbd94b8bd	-0.072617985
176	0xbd8055ad	-0.06266341
177	0xbdbc1948	-0.091845095
178	0x3d2f41ed	0.04278748
179	0x3ddf87fc	0.10914609
180	0x3d842b46	0.06453566
181	0xbd393073	-0.04521222
182	0x3cd12e6d	0.025534833
183	0xbc5b67c7	-0.013391442
184	0x3dc36323	0.09540393
185	0x3b96a73d	0.004597573
186	0xbdc9834e	-0.098394975
187	0xbdfdc972	-0.12391938
188	0x3dcae6a8	0.099072754
189	0xbda62175	-0.0811185
190	0xbdd1d769	-0.10246164
191	0xbdef2359	-0.11676664
192	0x3dcecd59	0.10097761
193	0xbdeea2ff	-0.11652183
194	0xbdca3da4	-0.09875038
195	0xbdb4e7b1	-0.08833254
196	0x3db20c8d	0.086938
197	0x3d1e9d57	0.03872427
198	0xbd0bd9ac	-0.034143135
199	0x3dcc8a65	0.09987334
200	0xbdc32332	-0.09528197
201	0x3dae3a4b	0.08507212
202	0xbd1bddff	-0.03805351
203	0xbd54711a	-0.051865675
204	0x3d985451	0.07437957
205	0xbd3342c2	-0.043764837
206	0xbdeaf154	-0.11471811
207	0x3d686e6a	0.056745924
208	0x3d3331cb	0.04374866
209	0xbda8aac3	-0.08235695
210	0xbd87a0bb	-0.06622454
211	0x3ddd1229	0.107944794
212	0xbdc88735	-0.09791414
213	0xbcf97a69	-0.030453878
214	0xbde3edba	-0.11129327
215	0x3d7c8b00	0.061656
216	0xbd87d2a4	-0.066319734
217	0x3db47ea7	0.088132195
218	0xbd402a50	-0.046915352
219	0xbdb699fb	-0.08916088
220	0x3d21f7db	0.039543014
221	0x3df91655	0.121624626
222	0x3de86028	0.11346465
223	0xbd9477e7	-0.07249432
224	0xbd10b5de	-0.035329692
225	0x3dd7abbb	0.10530802
226	0xbdc6dddc	-0.09710285
227	0xbdfb44b6	-0.12268965
228	0x3ca6c1ca	0.020356078
229	0x3d9357c9	0.07194478
230	0xbdce37fb	-0.10069271
231	0xbdbd190a	-0.092332914
232	0xbd588ced	-0.052868772
233	0xbdc81aaf	-0.097707145
234	0xbde6bda8	-0.11266643
235	0x3d4fbe04	0.050718322
236	0x3d5b9a04	0.053613678
237	0xbd877d4a	-0.06615694
238	0xbdf9f33f	-0.12204599
239	0x3d1392e9	0.036028776
240	0x3bc37e52	0.0059659863
241	0x3d9bb644	0.07603124
242	0x3c90910e	0.017647292
243	0xbdcf2189	-0.10113818
244	0xbdd07d8c	-0.10180196
245	0xbdff51d0	-0.12466776
246	0xbdf2e28c	-0.11859617
247	0x3d48b614	0.04900177
248	0xbddeddfc	-0.10882184
249	0xbd394113	-0.045228075
250	0xbd8782c6	-0.0661674
251	0x3dbf5270	0.093418956
252	0xbd4983cf	-0.049197968
253	0xbd9d2a02	-0.07674028
254	0xbda9821b	-0.08276769
255	0xbd890eac	-0.066922516

encoder.weight_hh_l0 f4 [256, 64]
0	0x3c6cda35	0.0144563215
1	0xbda35ef7	-0.079770975
2	0x3dc0edbb	0.094203435
3	0xbdcfacf0	-0.10140407
4	0xbdd9a433	-0.10627022
5	0xbd0e1486	-0.03468754
6	0xbd02787a	-0.031853177
7	0x3da6307d	0.08114717
8	0xbdca6179	-0.09881873
9	0x3ce4a8a3	0.027912444
10	0x3d01a462	0.03165091
11	0x3d2c35c3	0.04204346
12	0xbb061e36	-0.0020464784
13	0xbc784121	-0.015152247
14	0xbdf9408c	-0.121705145
15	0xbce0a1a0	-0.027420819
16	0x3cbe1605	0.02320386
17	0x3dbd95ab	0.092570625
18	0x3aa77725	0.0012776597
19	0x3d2abe0a	0.04168514
20	0xbcd766ad	-0.026294077
21	0xbca4904a	-0.020088334
22	0xbc2ee854	-0.0106755085
23	0xbcf0284e	-0.029316094
24	0xbdf832af	-0.12119042
25	0xbdedd781	-0.1161337
26	0xbd9b4a29	-0.07582504
27	0xbd71126f	-0.05885547
28	0xbd95b352	-0.07309593
29	0x3e01471e	0.12624785
30	0x3daa25e3	0.083080076
31	0xbba09df7	-0.0049016434
32	0xbe04394e	-0.12912485
33	0x3d9dd556	0.07706706
34	0xbd354a77	-0.04426047
35	0x3df34b54	0.11879602
36	0x3dd6161f	0.10453438
37	0xbcbd0bee	-0.023076978
38	0xbda36f1d	-0.079801776
39	0x3ceb7aef	0.028745143
40	0xbd279836	-0.040916644
41	0xbd8c8abe	-0.068624005
42	0xbdd8ad2e	-0.105799064
43	0xbdc9d4df	-0.09855055
44	0x3db2f865	0.08738784
45	0x3c7f72c7	0.01559133
46	0xbcb26bbe	-0.021779891
47	0xbdd1ef2e	-0.10250698
48	0xbda3c05e	-0.079956755
49	0x3d5c1706	0.053732894
50	0x3deb6ed1	0.11495746
51	0xbc2a55a6	-0.010396397
52	0xbdcf931c	-0.10135481
53	0xbd556694	-0.05209978
54	0x3de8289b	0.1133587
55	0xbd9a309f	-0.07528805
56	0xbdec8cb3	-0.11550274
57	0xbdebf6d3	-0.11521687
58	0x3cc4584e	0.023967888
59	0xbdbc1b74	-0.09184924
60	0x3d8e682f	0.06953465
61	0x3e0fe8e7	0.14053689
62	0xbc593988	-0.013258345
63	0x3ce6e432	0.028184984
64	0x3c39836d	0.011322838
65	0xbd6eca1c	-0.058298215
66	0x3dbcf2d7	0.092260055
67	0xbdc34026	-0.0953372
68	0xbd0dcbb1	-0.034618083
69	0xbb63d4a3	-0.0034764193
70	0xbd7ef988	-0.06224969
71	0xbdee7bb8	-0.11644691
72	0xbd9075b7	-0.07053702
73	0x3dd045f7	0.10169595
74	0xbda4e74b	-0.08051928
75	0x3d003598	0.03130111
76	0x3dab7711	0.083723195
77	0x3da7cb65	0.08193091
78	0x3c21ab03	0.0098674325
79	0x3ccd376e	0.025050845
80	0x3d27a62e	0.040929966
81	0x3da127aa	0.078688934
82	0xbd5b2181	-0.05349875
83	0xbd3294c4	-0.043598905
84	0x3de7daf5	0.113210596
85	0xbda15a61	-0.078785665
86	0x3c6e44d1	0.014542774
87	0x3dd41eda	0.10357447
88	0xbd995e3e	-0.074886784
89	0xbe0b795b	-0.13620512
90	0x3e035fe0	0.12829542
91	0x3c649a66	0.013952827
92	0xbd3896d0	-0.0450657
93	0xbdba2da6	-0.09090738
94	0xbcbe5026	-0.023231577
95	0x3ba8c328	0.0051502176
96	0xbc995fc5	-0.018722424
97	0x3d33c2e4	0.043887034
98	0x3d7c7a8e	0.061640315
99	0xbcd8b135	-0.026451686
100	0xbd9887ac	-0.07447752
101	0x3cb83cdd	0.02248996
102	0x3d8d2b14	0.06892982
103	0xbdcafd04	-0.0991154
104	0xbcf92c0a	-0.030416507
105	0x3da9b3f3	0.08286276
106	0xbde4374d	-0.1114336
107	0xbcb91814	-0.02259449
108	0x3cba18fa	0.022716988
109	0xbd6020a6	-0.054718636
110	0x3d71972f	0.05898207
111	0x3d24b360	0.040210128
112	0x3bb438c2	0.00549993
113	0x3deda4c6	0.11603694
114	0xbdd1cd42	-0.10244228
115	0xbbf3df07	-0.0074423584
116	0x3cd5d0e3	0.026100582
117	0xba2d93f1	-0.0006621471
118	0xbc699a31	-0.0142579535
119	0xbd944fea	-0.07241805
120	0x3b9cd2d7	0.0047858763
121	0x3d954064	0.07287672
122	0xbdd1fb17	-0.1025297
123	0x3dc062a4	0.09393814
124	0xbc3a7faf	-0.011382981
125	0x3d3cfdf2	0.04614062
126	0xbe090ef0	-0.13384604
127	0xbcfc9836	-0.030834299
128	0x3c2d6e73	0.010585415
129	0xbd83b685	-0.06431297
130	0xbd721326	-0.059100293
131	0xbde9d878	-0.11418241
132	0xbdd9f516	-0.106424496
133	0x3d5fb313	0.054614138
134	0x3df3b647	0.11900001
135	0xbde872bd	-0.113500096
136	0xbc3c371a	-0.011487747
137	0x3d157f96	0.03649863
138	0x3c8501b0	0.016236156
139	0x3dde2f40	0.10848856
140	0xbd4e50a6	-0.05036988
141	0xbc035d62	-0.00801787
142	0x3dccfecf	0.100095384
143	0x3cf93309	0.030419843
144	0xbdd99e88	-0.106259406
145	0x3d721250	0.059099495
146	0xbd575afb	-0.052577
147	0xbdb1f96c	-0.086901516
148	0xbcbad142	-0.02280486
149	0xbdd77bae	-0.10521637
150	0x3df9d985	0.12199692
151	0xbbb52ff6	-0.005529399
152	0x3c7cc089	0.015426763
153	0x3e01c7f7	0.12673937
154	0xbdc762d5	-0.097356476
155	0x3da3e033	0.08001747
156	0x3d55843b	0.052128058
157	0x3d08ecf7	0.033429112
158	0x3d0a0f04	0.033705726
159	0x3d9860f1	0.07440365
160	0x3b968d70	0.0045944974
161	0xbda2dae5	-0.07951907
162	0x3d600ec0	0.054701567
163	0xbd810928	-0.063005745
164	0x3df45456	0.11930148
165	0x3dd41d62	0.10357167
166	0x3dcb67c3	0.099319
167	0x3c9fa50e	0.019487884
168	0xbdeb504e	-0.11489926
169	0xbdbf8c5c	-0.09352943
170	0x3daefb66	0.08544044
171	0x3d5c1458	0.05373034
172	0xbdc344ee	-0.09534632
173	0xbd206842	-0.039161928
174	0xbdae9c32	-0.08525886
175	0x3d42bc27	0.047542717
176	0x3bf84a59	0.0075772223
177	0xbcea4c9a	-0.02860098
178	0x3d235c5d	0.039883006
179	0xbbc8b189	-0.0061246795
180	0x3d7dab03	0.061930668
181	0x3cc9ba07	0.024624838
182	0xbdb2ae6f	-0.08724677
183	0xbd881e44	-0.06646398
184	0x3bf8b881	0.007590354
185	0x3dc22a1c	0.09480688
186	0x3db25301	0.08707238
187	0xbd4ac693	-0.04950578
188	0x3d65c641	0.056097273
189	0x3e012ebf	0.12615488
190	0x3dfab204	0.12240985
191	0xbc94c412	-0.0181599
192	0xbd5b0947	-0.053475644
193	0x3cf2d74d	0.029643679
194	0xbe00e31e	-0.12586638
195	0xbe0032ee	-0.12519428
196	0xbbbb4f27	-0.005716223
197	0xbdd557a4	-0.10417107
198	0x3d2049f9	0.039133046
199	0xbdd9c21c	-0.106327266
200	0xbda1c809	-0.07899482
201	0x3dd73781	0.105086334
202	0x3d931de4	0.071834356
203	0x3de9fad2	0.11424793
204	0xbda345b6	-0.07972281
205	0xbd8a123e	-0.06741761
206	0xbd77604d	-0.060394574
207	0xbc3b91f4	-0.011448372
208	0xbd912fdb	-0.07089206
209	0x3df5581e	0.11979698
210	0x3dcd732a	0.100317314
211	0xba9c16cb	-0.0011908648
212	0x3ce8f78e	0.028438356
213	0xbdad8271	-0.08472145
214	0xbd358754	-0.044318512
215	0xbdb4decf	-0.0883156
216	0x3d9803be	0.07422589
217	0x3db242ac	0.08704123
218	0x3d7d682c	0.061866924
219	0xbd3bd3d6	-0.04585632
220	0x3aedfe2a	0.0018157412
221	0x3d66ae69	0.056318674
222	0xbcab7de3	-0.02093405
223	0x3de1f24f	0.11032545
224	0x3d45d958	0.04830298
225	0xbd0cbc63	-0.034359347
226	0x3dcb179e	0.09916614
227	0x3d7992e5	0.060931105
228	0x3e055c99	0.13023604
229	0xbda95e91	-0.0826999
230	0x3d0dec61	0.034649257
231	0xbdc19459	-0.09452123
232	0x3cb9f1ff	0.0226984
233	0x3ca97bc5	0.0206889
234	0x3dfd711e	0.12375091
235	0x3ca9656c	0.020678245
236	0xbb328efb	-0.0027245868
237	0x3bc9bfc8	0.0061568953
238	0x3dbc3b99	0.09191055
239	0xbd702ec5	-0.058638353
240	0xbde9d48a	-0.11417492
241	0x3bcc13b8	0.0062279366
242	0xbd50be0b	-0.05096249
243	0xbdc38d13	-0.09548392
244	0x3df27acc	0.11839828
245	0xbd2e2ffc	-0.04252623
246	0xbc48d565	-0.0122579085
247	0xbda67545	-0.08127836
248	0x3ddb0fa2	0.10696341
249	0xbd56421b	-0.052309137
250	0x3da6c54b	0.081430994
251	0x3df2f69a	0.11863442
252	0xbda02a0c	-0.0782052
253	0x3d8a64dd	0.067575194
254	0xbce4d275	-0.027932385
255	0x3dd187b9	0.10230965

encoder.bias_ih_l0 f4 [256]
0	0xbc5cf9e8	-0.013487317
1	0xbd6280f8	-0.055298775
2	0xbd844235	-0.064579405
3	0xbdfa09d3	-0.12208905
4	0xbdfa516f	-0.122225635
5	0xbdab692f	-0.083696716
6	0x3d04b536	0.03239938
7	0x3d7d883f	0.061897513
8	0x3d48afeb	0.048995893
9	0xbd0b965a	-0.034078933
10	0xbb4613b5	-0.0030224149
11	0xbd1059a2	-0.03524173
12	0xbd88bc2d	-0.06676517
13	0xbdd8e6fa	-0.1059093
14	0x3b892956	0.004185836
15	0xbd623509	-0.05522636
16	0x3dd4e1ef	0.10394656
17	0x3c99a53c	0.018755548
18	0xbd9f1bde	-0.07768987
19	0x3d93dc0e	0.072197065
20	0x3dc6defc	0.097105
21	0x3d8cc705	0.068738975
22	0x3dcb2ebb	0.099210225
23	0xbdbbbd31	-0.09166945
24	0xbe09e678	-0.13466823
25	0xbdf101e5	-0.117679395
26	0xbd15d89e	-0.036583535
27	0xbc6ebcee	-0.014571412
28	0x3c791e5e	0.015204994
29	0xbd57cd57	-0.05268606
30	0xbe0b0d04	-0.13579184
31	0x3d6d06a3	0.057867657
32	0x3d24fa26	0.040277623
33	0xbd329e51	-0.043608014
34	0xbd30e06a	-0.043182768
35	0x3ccda444	0.025102742
36	0xbda9921f	-0.082798235
37	0x3dca8ed0	0.098905206
38	0xbda22687	-0.07917505
39	0xbdde9e7b	-0.108700715
40	0xbd38b720	-0.045096517
41	0x3dbeb9d0	0.09312785
42	0x3d0e0f69	0.034682665
43	0x3c7f8592	0.0155958105
44	0xbd872dd8	-0.06600541
45	0x3c6c36e1	0.014417381
46	0x3c98c9a1	0.018650832
47	0xbdb3b809	-0.08775336
48	0x3dc7684d	0.09736691
49	0xbe00fe59	-0.12597026
50	0x3d7654af	0.060139354
51	0xbda98fda	-0.08279391
52	0xba099dab	-0.00052496296
53	0xbdacac6c	-0.08431324
54	0x3dde618c	0.10858449
55	0xbddf3e89	-0.109005995
56	0xbc074bba	-0.008257801
57	0x3d64e38e	0.055881076
58	0x3dacdef3	0.08440962
59	0xbcc14ba9	-0.023595648
60	0xbdc4c577	-0.09607976
61	0x3d5be4f9	0.053685162
62	0x3d826dbb	0.06368586
63	0x3da80287	0.08203607
64	0xbcb2e9c4	-0.021839984
65	0x3d81a6ce	0.063306436
66	0xbdb65f36	-0.08904879
67	0x3dd03b66	0.10167579
68	0xbd1995f1	-0.03749651
69	0x3d96dc5b	0.07366248
70	0x3c2e62ba	0.010643655
71	0xbd877890	-0.06614792
72	0xbde90b82	-0.11379148
73	0x3d3a0763	0.0454172
74	0xbd6a96e0	-0.05727279
75	0xbcc168fb	-0.023609629
76	0x3d2c157b	0.042012673
77	0x3db90841	0.090347774
78	0xbd821e0f	-0.063533895
79	0x3d458f99	0.04823265
80	0x3d74f98c	0.0598083
81	0xbdf0dec9	-0.11761243
82	0x3db75964	0.08952597
83	0xbcad5617	-0.021159215
84	0xbdecb291	-0.11557496
85	0xbdc67916	-0.09691064
86	0x3ddfa3da	0.10919924
87	0xbd18d693	-0.03731401
88	0x3c89c6a1	0.016818346
89	0xbde7b0fa	-0.113130525
90	0xbc35c809	-0.011095055
91	0x3e03cb2d	0.12870474
92	0xbd9ff05a	-0.07809515
93	0xbdf7d25d	-0.121006705
94	0x3daecabf	0.085347645
95	0xbd1003a6	-0.03515973
96	0x3d77ffa5	0.060546536
97	0x3b3ae08b	0.0028515186
98	0xbd7c9964	-0.061669722
99	0x3db6425d	0.088993765
100	0xbda39b34	-0.07988587
101	0x3dce1137	0.10061877
102	0x3d2c4891	0.042061392
103	0x3d7ce647	0.061743047
104	0xbdd85494	-0.10563007
105	0xbdcf3cb9	-0.10119004
106	0x3e02b70d	0.12765141
107	0x3dd0a600	0.10187912
108	0x3dbbe8a4	0.09175232
109	0xbdaf3d7e	-0.085566506
110	0xbdb4ebe1	-0.08834053
111	0x3d6e8eac	0.05824153
112	0xbdc38658	-0.095471084
113	0x3b22158b	0.002473208
114	0xbd7d211c	-0.061799154
115	0x3d9f739f	0.07785725
116	0xbdeec942	-0.11659481
117	0x3d5b9ba4	0.053615227
118	0xbd608633	-0.054815482
119	0x3c083963	0.008314463
120	0xbd40b089	-0.047043357
121	0x39b97a0e	0.00035376888
122	0xbceaf153	-0.028679525
123	0xbc22fa52	-0.009947376
124	0x3dd61341	0.10452891
125	0xbd4c6e53	-0.0499099
126	0x3d11880a	0.035530128
127	0x3d5f1ef2	0.05447287
128	0xbc8e11dd	-0.017342502
129	0x3cca49de	0.024693426
130	0x3ddce4b5	0.1078581
131	0x3d774fa9	0.060378704
132	0xbd6ff6a7	-0.058584835
133	0xbd2f1a56	-0.042749725
134	0x3d82950a	0.06376083
135	0x3d278506	0.040898345
136	0xbcb308c6	-0.02185477
137	0xbd7e73b8	-0.062122077
138	0xbb5bbbb7	-0.0033528635
139	0x3d4ba474	0.04971738
140	0x3d769809	0.060203586
141	0x3d7422e9	0.059603605
142	0xbda3dc5b	-0.08001014
143	0x3d274fed	0.040847708
144	0x3d86f857	0.06590336
145	0x3cf23c80	0.029569864
146	0xbe049b60	-0.12949896
147	0xbba6b7c7	-0.005087826
148	0xbd0deacd	-0.03464775
149	0xbdd706ce	-0.10499345
150	0x3cbb34f3	0.022852397
151	0xb7e1f94c	-2.6938178e-05
152	0x3b513bf4	0.0031926604
153	0x3db796ad	0.08964286
154	0x3cd66d5a	0.02617519
155	0x3d800617	0.062511615
156	0xbc29d151	-0.010364846
157	0x3cf71c89	0.030164974
158	0xbc83af02	-0.016074661
159	0x3d643a1e	0.055719487
160	0xbdf6709f	-0.120331995
161	0xbdbf94d0	-0.093545556
162	0xbcadd303	-0.021218782
163	0xbd9938c2	-0.07481529
164	0xbd653144	-0.055955186
165	0x3d891b37	0.06694644
166	0xbc2771db	-0.010220016
167	0x3c474bd1	0.012164072
168	0x3d56de67	0.052458193
169	0xbd251204	-0.040300384
170	0xbced686e	-0.02898046
171	0xbd2835cb	-0.041066926
172	0x3dcbfa17	0.0995981
173	0xbddd51f2	-0.108066455
174	0x3ded2e29	0.1158107
175	0x3df8c493	0.121468686
176	0x3dfc3d1c	0.12316343
177	0xbdd863c5	-0.105659045
178	0xba38dec7	-0.00070522394
179	0xbdc709de	-0.09718679
180	0x3dc5c3a3	0.09656455
181	0xbde0335d	-0.10947297
182	0x3b798d13	0.0038078472
183	0xbc8c2b21	-0.01711041
184	0x3c8279a1	0.015927138
185	0x3def31fd	0.116794564
186	0xbde2289e	-0.11042903
187	0x3de949cb	0.11391028
188	0xbd87ae11	-0.066249974
189	0x3c456b91	0.012049572
190	0x39abb251	0.00032748518
191	0xbd0dc7a2	-0.034614213
192	0x3c7ae985	0.015314464
193	0xbdef0f2d	-0.116728164
194	0xbde08675	-0.10963146
195	0x3def5233	0.116856
196	0xbcd651eb	-0.026162108
197	0x3d43140a	0.047626533
198	0x3cd88985	0.026432762
199	0xbdde2f4f	-0.10848867
200	0xbc8d145e	-0.017221626
201	0x3d27db17	0.040980425
202	0x3dcca36b	0.09992107
203	0x3d493b8a	0.049129046
204	0x3d3eaf5b	0.04655395
205	0x3c27fd84	0.010253314
206	0x3d675f70	0.0564875
207	0xbc6cacc8	-0.014445491
208	0xbd67e2c4	-0.056612745
209	0x3df47a95	0.11937443
210	0x3d2ccb7f	0.042186256
211	0x3de30a7b	0.11085983
212	0x3dd9168d	0.10600004
213	0xbcfc5984	-0.030804403
214	0xbc967808	-0.018367782
215	0xbd7c9dff	-0.061674114
216	0xbda89dca	-0.08233221
217	0xbdc38cd4	-0.09548345
218	0x3df68838	0.120377004
219	0x3d7bf7f7	0.061515775
220	0xbd5614ba	-0.05226586
221	0x3c824d71	0.015906068
222	0x3ddb8c5f	0.10720133
223	0xbd70d08c	-0.058792636
224	0x3d440db7	0.047864642
225	0x3ccf00ca	0.025268931
226	0xbc2f7dc3	-0.010711136
227	0x3d06ce14	0.032911375
228	0xbc35c8eb	-0.011095266
229	0xbd9ec348	-0.07752091
230	0x3d5e7ed9	0.05432019
231	0x3ca57839	0.020198928
232	0x3b65ecf1	0.0035083855
233	0xbda28435	-0.07935373
234	0xbda45e64	-0.08025816
235	0xbd3ab49c	-0.0455824
236	0xbd9ec2fa	-0.077520326
237	0xba800293	-0.0009766392
238	0x3d303632	0.043020435
239	0xbc1d88f1	-0.009615169
240	0x3ddcb458	0.10776585
241	0xbc954923	-0.01822335
242	0x3d8dbe9b	0.06921121
243	0x3d462636	0.048376285
244	0x3d5ca239	0.053865645
245	0x3c3c7569	0.011502602
246	0xbd99de05	-0.0751305
247	0xbe02a497	-0.12758099
248	0xbe05dee0	-0.13073301
249	0xbd6acc36	-0.057323657
250	0xbd28bd57	-0.041196194
251	0xbd6dd51f	-0.058064576
252	0xbcce37f0	-0.025173157
253	0xbdbd8ac4	-0.09254983
254	0x3c736009	0.0148544395
255	0xbc8c8849	-0.01715483

encoder.bias_hh_l0 f4 [256]
0	0x3dcbebb6	0.09957068
1	0xbdcfc863	-0.101456426
2	0x3d9374a4	0.07199982
3	0x3ddb25f1	0.10700596
4	0xbdca0f4d	-0.098662
5	0xba70d380	-0.00091867894
6	0x3d26b9c0	0.04070449
7	0xbcaf9953	-0.021435415
8	0xbd3d2445	-0.046177167
9	0xbce8c4cd	-0.028414154
10	0x3d8fcc9a	0.070214465
11	0x3d385dad	0.04501121
12	0x3d0d9a7e	0.034571163
13	0x3cbbc05b	0.02291887
14	0x3d67e7eb	0.05661766
15	0x3d245887	0.04012349
16	0xbdd9ba28	-0.106312096
17	0x3cb60856	0.022220772
18	0x3d3d492e	0.046212368
19	0x3d2ba0b9	0.041901324
20	0x3d45df9f	0.048308965
21	0xbd84ea5f	-0.06490015
22	0x3df7756d	0.12082944
23	0xbdaad0bf	-0.083405964
24	0x3d437781	0.04772139
25	0xbd6b668f	-0.057470854
26	0xbd347618	-0.044057935
27	0xbd0ce8d5	-0.034401733
28	0x3d1ce2cb	0.038302224
29	0xbdb57585	-0.08860306
30	0x3d8394b8	0.0642485
31	0x3db30cfc	0.08742711
32	0xbdb2bfd7	-0.08727997
33	0xbd5e0385	-0.054202575
34	0x3d24b8fa	0.04021547
35	0x3c5d7c8c	0.013518464
36	0x3c600564	0.01367316
37	0x3d99ebca	0.07515676
38	0xbc0f0e19	-0.0087313885
39	0xbddbcaf5	-0.1073207
40	0xba66c0be	-0.00088025245
41	0x3d97548a	0.073891714
42	0xbd3f9dc4	-0.046781316
43	0x3d716601	0.05893517
44	0xbb855d9e	-0.004069998
45	0xbc9b2564	-0.018938728
46	0x3de92939	0.11384816
47	0x3d1f63d6	0.03891357
48	0xbc2a369b	-0.0103889955
49	0x3daea88a	0.0852824
50	0xbcc817cf	-0.024425415
51	0x3bd2ecf7	0.00643694
52	0xbde69d8c	-0.112605184
53	0xbcfb542f	-0.03067979
54	0x3bffd4b8	0.0078073405
55	0xbc0eef32	-0.008724021
56	0x3db26cc6	0.08712153
57	0xbd430787	-0.0476146
58	0x3d233883	0.039848816
59	0x3d46a30a	0.04849533
60	0x3cddd65a	0.02707975
61	0xbd15bec1	-0.03655887
62	0xbdd2896d	-0.10280118
63	0x3d1a5242	0.037676103
64	0x3d2f748c	0.042835757
65	0x3d653f8b	0.055968802
66	0xbdacda58	-0.08440083
67	0xbd2db7a0	-0.042411447
68	0x3df1718c	0.117892355
69	0x3dab9f18	0.08379954
70	0xbdcfc7d3	-0.10145535
71	0x3d90e900	0.07075691
72	0xbd43f186	-0.047837757
73	0x3d3cb42f	0.046070274
74	0xbd290ad9	-0.04127011
75	0x3d7f2e89	0.06230024
76	0xbdaa8c19	-0.08327503
77	0xbc33a7f8	-0.01096534
78	0xbde0e2d9	-0.10980768
79	0xbcfe6abf	-0.03105676
80	0x3dd018d7	0.10160988
81	0x3d346091	0.044037405
82	0x3ddf4cb4	0.10903302
83	0xbd3e74c9	-0.046498094
84	0xbdd4236b	-0.10358318
85	0xbbe3bc48	-0.006949935
86	0xbdb4b294	-0.088231236
87	0x3c9f71de	0.019463476
88	0x3d5fb45e	0.05461537
89	0xbdbbc02f	-0.091675155
90	0x3da13526	0.078714654
91	0x3bcc7a97	0.0062402
92	0xbd44a459	-0.048008297
93	0x3de74233	0.112919234
94	0xbd438971	-0.047738496
95	0x3da8a5d2	0.08234753
96	0x3d435886	0.047691844
97	0xbcc39a81	-0.023877384
98	0x3d78f820	0.060783505
99	0x3dd1ea5d	0.102497794
100	0xbd92aaf0	-0.0716151
101	0xbdceacbc	-0.1009154
102	0x3cd68eae	0.026191082
103	0x3ab3835a	0.0013695762
104	0xbc510f2e	-0.012759967
105	0x3cbccfad	0.023048246
106	0xbde1e6ef	-0.11030375
107	0xbda043dc	-0.07825443
108	0xbce73aa2	-0.0282262
109	0xbd69b797	-0.05705985
110	0x3da6d355	0.08145777
111	0x3d8b108b	0.06790265
112	0xbddc14c9	-0.10746152
113	0x3d511445	0.05104472
114	0xbd6e2fd5	-0.058151085
115	0xbc02f60b	-0.0079932315
116	0xbd32a925	-0.04361834
117	0xbd6c551c	-0.057698354
118	0x3ce5ad00	0.028036594
119	0x3d17486f	0.036934312
120	0xbd80be4d	-0.06286297
121	0x3d14516f	0.036210474
122	0x3d2a6cfe	0.04160785
123	0x3c08a59e	0.008340267
124	0xbcc2a682	-0.023761038
125	0x3d59f77f	0.053214546
126	0xbd921847	-0.07133537
127	0x3dd886f8	0.10572618
128	0xbdec99df	-0.11552786
129	0xbb93e67f	-0.0045135613
130	0xbdb947b7	-0.09046882
131	0xbcf41f60	-0.029800117
132	0xbdf0980b	-0.1174775
133	0xbd95c25e	-0.07312463
134	0x3dbe9774	0.09306231
135	0x3d9534d1	0.072854646
136	0x3da6dd82	0.08147718
137	0x3c8eafee	0.017417874
138	0xbd02ccb6	-0.03193351
139	0xbc9eb6e7	-0.019374324
140	0x3dba44ce	0.09095155
141	0xbdd29a9f	-0.10283398
142	0x3d6eed7b	0.058331948
143	0xbd6966a9	-0.05698267
144	0x3d5e71d1	0.054307763
145	0xbcc5f8f3	-0.02416656
146	0x3d982d02	0.074304596
147	0xbd9a86c3	-0.07545235
148	0xbd980b51	-0.074240334
149	0xbd461a9f	-0.04836523
150	0x3d22d4e6	0.039753817
151	0xbd8449d2	-0.064593926
152	0xbd6d32b3	-0.05790968
153	0x3d152206	0.0364094
154	0xbd743677	-0.059622254
155	0x3c82ba66	0.015958022
156	0xbdda71e3	-0.106662534
157	0xbc9ebea9	-0.019378023
158	0xbd1daccf	-0.03849488
159	0xbde2115e	-0.11038469
160	0x3b883e87	0.0041578445
161	0xbc405071	-0.011737929
162	0xbcc4c7db	-0.02402108
163	0xbdbd9fba	-0.09258981
164	0x3d91e47b	0.07123657
165	0x3d537ed8	0.05163464
166	0xbc1f00fa	-0.009704823
167	0x3d51112d	0.05104177
168	0x3d8b4a2b	0.06801256
169	0xbd181311	-0.03712756
170	0xbe037773	-0.12838535
171	0x3d24e11e	0.04025375
172	0xbd1fd312	-0.03901965
173	0x3da2f9bf	0.079577915
174	0x3d0e96f8	0.034811944
175	0xbcfac92c	-0.030613504
176	0x3dd93ef9	0.10607714
177	0xbcc2fc57	-0.023801966
178	0x3c141ac1	0.009039582
179	0xbca2b7ec	-0.019863091
180	0xbce825e8	-0.028338388
181	0xbcaf52f6	-0.021401864
182	0xbd516916	-0.05112561
183	0xbd8eeb9a	-0.06978531
184	0x3cc51279	0.02405666
185	0x3cd6b8ce	0.026211169
186	0x3cb18816	0.021671336
187	0xbd2daca6	-0.04240098
188	0x3bb71640	0.005587369
189	0xbcec8d9e	-0.028876122
190	0x3d874f3d	0.066069104
191	0x3caf70ea	0.021416146
192	0xbdb9f98b	-0.090808
193	0xbd89b8ad	-0.06724677
194	0x3cda71e0	0.026665628
195	0xbddc9639	-0.1077084
196	0xbca2c803	-0.019870764
197	0xbd248dfd	-0.040174473
198	0xbd48461f	-0.048894998
199	0xbd96ecf9	-0.07369418
200	0xbdd72e9c	-0.10506937
201	0x3d50b284	0.050951496
202	0x3ded6b49	0.11592729
203	0x3e0203f1	0.12696816
204	0x3de32c8f	0.11092483
205	0x3d87cda3	0.06631019
206	0x3d04c9d6	0.03241905
207	0x3df1b744	0.11802533
208	0x3dec2084	0.11529639
209	0x3d56a697	0.052404966
210	0x3bb82d0c	0.0056206044
211	0x3df27c51	0.11840118
212	0x3d52ee6f	0.05149692
213	0x3d6b4efd	0.057448376
214	0xbdb1a745	-0.08674482
215	0xbdbe659a	-0.09296723
216	0xbe09d5e5	-0.134605
217	0x3d1fa4b1	0.03897542
218	0x3ddee1f4	0.10882941
219	0x3ce6baca	0.02816524
220	0x3dba2d85	0.090907134
221	0xbd30e1f6	-0.043184243
222	0xbdddf879	-0.10838408
223	0xbd90d8bc	-0.07072589
224	0xbdd4c664	-0.103894025
225	0xbdec2539	-0.11530537
226	0xbcca7016	-0.02471165
227	0xbdf14ce6	-0.11782245
228	0xbde41d4c	-0.111384004
229	0x3d87b432	0.066261664
230	0x3b54b4c0	0.0032456368
231	0xbdb210be	-0.086945996
232	0x3ce28e05	0.02765561
233	0x3c893184	0.016747244
234	0xbd19efd5	-0.037582237
235	0x3ce57c3e	0.028013345
236	0xbcb4e299	-0.022080706
237	0x3d4d4c47	0.050121572
238	0xbd70da44	-0.058801904
239	0x3cac87c5	0.021060834
240	0x3d58fd0d	0.052975703
241	0x3d437c58	0.047726005
242	0xbdbecbbd	-0.09316204
243	0x3ca5af74	0.020225264
244	0xbd73d443	-0.0595286
245	0xbd89feb5	-0.06738035
246	0x3c6717cf	0.0141047975
247	0x3c84c864	0.016208835
248	0xbde8f104	-0.11374095
249	0x3ddb3312	0.107031
250	0xbd656509	-0.056004558
251	0xbdf87166	-0.12131004
252	0x3d431171	0.047624055
253	0x3bcbb809	0.006217007
254	0xbd54cdee	-0.051954202
255	0x3db970ee	0.09054743

decoder.weight_ih_l0 f4 [256, 64]
0	0x3d4306d2	0.047613926
1	0xbddbb096	-0.107270405
2	0x3cb7ad83	0.022421604
3	0x3db96183	0.09051802
4	0xbc75254a	-0.014962504
5	0xbd645167	-0.055741694
6	0x3d15c2ee	0.036562853
7	0x3ccd57b2	0.02506623
8	0x3d19bb21	0.037531976
9	0xbd3b0ab9	-0.045664523
10	0xbd585de7	-0.052823927
11	0x3daf151b	0.085489474
12	0xbc8b3369	-0.016992288
13	0x3d14f416	0.03636559
14	0x3e073410	0.13203454
15	0x3cb09727	0.02155645
16	0xbd35a195	-0.04434355
17	0xbd98596d	-0.074389316
18	0xbd57cf87	-0.052688148
19	0xbc90e53d	-0.017687434
20	0x3da3c68b	0.079968534
21	0x3d778cff	0.0604372
22	0xbda30964	-0.079607755
23	0xbc380b30	-0.011233136
24	0x3e058258	0.13038003
25	0x3d4242cc	0.047426984
26	0x3ba04715	0.004891286
27	0xbd93c88d	-0.072159864
28	0x3e06c248	0.1316005
29	0xbcec39e3	-0.028836196
30	0x3d9d8678	0.076916635
31	0x3dff05ac	0.12452254
32	0xbd8b2391	-0.06793893
33	0x3db4c7b0	0.0882715
34	0xbb399580	-0.0028317869
35	0xbd08361d	-0.03325473
36	0xbde96aad	-0.113973
37	0xbde11ff6	-0.10992424
38	0x3de445aa	0.111461
39	0x3d09eb2b	0.03367154
40	0x3d147419	0.03624353
41	0xbc46398a	-0.012098679
42	0x3e0a2902	0.13492206
43	0xbd8a4f80	-0.06753445
44	0xbe00bf63	-0.12573008
45	0xbde0e0ff	-0.109804146
46	0xbdd10483	-0.10205939
47	0x3dc584ba	0.09644456
48	0x3dab69db	0.083698
49	0xbd6b7bd3	-0.057491135
50	0xbc90d669	-0.017680364
51	0x3cffe251	0.031235846
52	0x3db83a42	0.08995487
53	0xbdd3736c	-0.10324749
54	0xbdbc39ce	-0.09190713
55	0x3caac748	0.020846978
56	0xbd5c857b	-0.053838234
57	0x3d0c8e4d	0.034315396
58	0x3dd2abde	0.10286687
59	0x3dbe928a	0.09305294
60	0xbdc93312	-0.09824194
61	0xbd5430ea	-0.05180446
62	0x3cbf27dd	0.023334438
63	0x3d7263ce	0.059177212
64	0x3d1f838a	0.038943805
65	0x3dbb2214	0.09137359
66	0x3d8734b3	0.066018485
67	0xbda7cdc3	-0.08193543
68	0x3ddb21db	0.10699817
69	0xbd226665	-0.039648432
70	0x3cd95ae4	0.026532598
71	0xbcb67451	-0.02227226
72	0xbd79cf8a	-0.06098894
73	0x3dc21b47	0.09477859
74	0x3c2cc439	0.01054483
75	0xbd210c23	-0.039318215
76	0xbd12d9ff	-0.03585243
77	0x3d8621b9	0.06549401
78	0x3c849124	0.01618249
79	0xbd535275	-0.05159231
80	0xbc57e4d2	-0.013177114
81	0x3d49300a	0.04911808
82	0xbd9ad947	-0.075609736
83	0x3e12865f	0.14309071
84	0xbd2a5ec0	-0.041594267
85	0xbd378794	-0.04480703
86	0xbdfa7e8b	-0.122311674
87	0x3da3a51b	0.07990476
88	0x3e00f3fb	0.12593071
89	0xbdc73fb1	-0.09728945
90	0xba74e9ca	-0.00093426986
91	0xbd202d59	-0.039105747
92	0x3dcc9d3f	0.0999093
93	0xbdc63dab	-0.09679731
94	0x3d692c99	0.056927297
95	0x3de4b50b	0.11167344
96	0x3da7d585	0.081950225
97	0xbdcf5db9	-0.10125298
98	0xbaee33af	-0.0018173362
99	0x3ddbfdcc	0.10741767
100	0xbdca927a	-0.098912194
101	0xbdab719e	-0.0837128
102	0xbdc1c2a7	-0.09460955
103	0xbd3dabec	-0.046306536
104	0xbde27d28	-0.11059028
105	0x3d64feb3	0.055906963
106	0x3d5c9c01	0.053859714
107	0x3dbf764b	0.093487345
108	0x3de668c1	0.11250449
109	0x3dad3d82	0.08458997
110	0xbc97c2d7	-0.018525524
111	0x3cd93a04	0.026516922
112	0xbd5608c2	-0.052254446
113	0xbdcb6aa8	-0.099324524
114	0x3d9c7502	0.07639505
115	0x3da26a5c	0.07930443
116	0x3dad846f	0.08472525
117	0xbd8847a3	-0.066542886
118	0xbd36b680	-0.04460764
119	0xbde097a5	-0.10966424
120	0x3dcc3154	0.09970346
121	0xbb58f50a	-0.003310504
122	0xbdb1192d	-0.0864738
123	0xbdfec60b	-0.124401174
124	0xbd42f352	-0.04759533
125	0x3c8dd67e	0.017314192
126	0xbd814ce0	-0.06313491
127	0x3cc5a469	0.024126248
128	0x3de6ce0e	0.112697706
129	0xbdd6c3b6	-0.10486548
130	0x3dbaaecb	0.0911537
131	0x3dcb0080	0.09912205
132	0xbccfd72e	-0.02537116
133	0xbc8b42a5	-0.016999552
134	0xbe0d9eb0	-0.13830066
135	0x3dd1ea15	0.10249726
136	0x3c2bc1d7	0.010483227
137	0xbda9e2c1	-0.08295203
138	0x3c52b5b2	0.012860702
139	0x3da84cf8	0.082178056
140	0xbc978b7f	-0.018499134
141	0x3dbc63ac	0.091986984
142	0x3c1f81d9	0.009735548
143	0x3d263b11	0.040583674
144	0x3d0ffd75	0.035153825
145	0xbe0f94d6	-0.1402162
146	0x3b832239	0.0040018824
147	0x3db42118	0.08795375
148	0xbd6895de	-0.05678355
149	0xbc5cbd3d	-0.013472852
150	0xbdd28a23	-0.10280254
151	0x3d3f695f	0.04673135
152	0x3cf1ce0d	0.029517198
153	0xbda706bb	-0.081555806
154	0xbc815cc0	-0.015791297
155	0xbda0ac04	-0.078453094
156	0xbd689064	-0.056778327
157	0xbce185bf	-0.027529595
158	0x3de62467	0.11237412
159	0x3e018e07	0.12651835
160	0xbdc7f3b9	-0.09763283
161	0x3d3a20f2	0.045441575
162	0xbd3e2c2f	-0.046428856
163	0x3da5ab65	0.080893315
164	0x3cb5e2e5	0.022202918
165	0xbd962804	-0.07331851
166	0x3ddf69db	0.10908862
167	0x3b586638	0.0033019911
168	0xb91dbec6	-0.00015043755
169	0xbda0c47e	-0.07849978
170	0x3e016640	0.12636662
171	0xbdcd6cf9	-0.100305505
172	0x3a9a6362	0.0011778886
173	0xbdc8de0b	-0.09807976
174	0x3d91dcf2	0.0712222
175	0xbd3f6f72	-0.046737142
176	0x3dadfcd8	0.08495492
177	0x3dd92912	0.10603537
178	0xbd89f9dc	-0.0673711
179	0x3d4ef11c	0.05052291
180	0xbd377e2e	-0.04479807
181	0xbda22568	-0.07917291
182	0x3d490f9e	0.04908716
183	0xbd4085f1	-0.047002736
184	0xbd212b24	-0.039347783
185	0x3b8d30e7	0.004308808
186	0x3cfbd7ea	0.030742604
187	0x3ddee638	0.108837545
188	0xbc11e52d	-0.008904737
189	0x3defaa4b	0.11702403
190	0x3d8d05a3	0.06885841
191	0x3c9892f3	0.018624758
192	0x3cd4191c	0.02589088
193	0x3de92e8c	0.11385831
194	0x3d55eb1e	0.05222618
195	0x3d4e5a75	0.050379235
196	0x3c63f606	0.013913637
197	0x3d44fc04	0.048091903
198	0xbd2345a1	-0.039861325
199	0xbde37eaf	-0.11108147
200	0x3da88cec	0.08230004
201	0x3dc09c32	0.09404792
202	0x3aa0acf7	0.0012258579
203	0xbc7ce37c	-0.015435096
204	0xb9841e9b	-0.00025199805
205	0xbd8901ce	-0.06689797
206	0x3de4c0e3	0.11169603
207	0xbd8683d6	-0.065681145
208	0xbc725652	-0.014791088
209	0xbe0e8950	-0.13919568
210	0x3df0fb11	0.11766637
211	0xbcba6609	-0.022753732
212	0x3e15c4a7	0.14625798
213	0xbdb62c83	-0.08895209
214	0xbda2d59e	-0.079509005
215	0x3d9fe81a	0.07807942
216	0x3c713930	0.014723107
217	0xbc83a20a	-0.016068477
218	0x3d17ef2a	0.03709332
219	0xbd2f2ddb	-0.04276834
220	0xbbbfb76d	-0.0058507235
221	0xbca14897	-0.019687934
222	0x3e03b286	0.1286107
223	0xbc5ca81e	-0.013467817
224	0x3dae596e	0.08513151
225	0x3dddb0aa	0.108247116
226	0x3c164d19	0.009173655
227	0x3d811b14	0.06303993
228	0xba924af7	-0.0011161257
229	0x3cba3603	0.022730833
230	0xbd36e24e	-0.044649415
231	0xbdd6373c	-0.10459754
232	0xbd779d76	-0.0604529
233	0xbb7a6eac	-0.0038212938
234	0x3e0d5dee	0.13805363
235	0x3b87495f	0.0041286196
236	0x3b65d4fb	0.0035069573
237	0x3da183c0	0.078864574
238	0xbe061cce	-0.13096926
239	0x3c24be0b	0.010055075
240	0x3cadfdb2	0.021239135
241	0xbb1fbf55	-0.0024375517
242	0x3dbc4f0b	0.09194764
243	0xbd7b4ba1	-0.061351422
244	0xbd8dd100	-0.06924629
245	0xbbb4dae0	-0.005519256
246	0xbc865942	-0.016399983
247	0xbc82e316	-0.015977424
248	0x3d83d219	0.06436557
249	0xbcc36190	-0.023850232
250	0x3d970608	0.07374197
251	0x3d4533f3	0.048145246
252	0x3d8082fc	0.06274983
253	0x3d6c0242	0.05761934
254	0x3d6dce35	0.058057982
255	0x3de343b8	0.11096901

decoder.weight_hh_l0 f4 [256, 64]
0	0x37ad59af	2.066497e-05
1	0xbdfcbc17	-0.12340563
2	0x3c2c2cbe	0.010508714
3	0xbd3e7d7b	-0.046506386
4	0x3df13f14	0.11779609
5	0xbd83c380	-0.06433773
6	0xbd7ac79e	-0.061225526
7	0xbdfe0fa4	-0.12405327
8	0x3ddf93af	0.1091684
9	0xbd69c983	-0.057076942
10	0xbce8498f	-0.028355388
11	0xbdb86420	-0.09003472
12	0xbdc7ca99	-0.09755439
13	0xbd118fab	-0.035537403
14	0x3da4749a	0.080300525
15	0x3ab10113	0.0013504348
16	0xbde35d7b	-0.11101814
17	0x3c08e721	0.008355887
18	0x3c91ec9a	0.017813016
19	0x3d36bd83	0.044614326
20	0xbc90a8a0	-0.017658532
21	0xbcfa3fb5	-0.030547956
22	0x3c8d1aca	0.017224688
23	0x3b9a22c3	0.004703851
24	0x3dbe7ce2	0.09301163
25	0xbdafd4c7	-0.08585506
26	0x3df6cb6f	0.12050521
27	0xbbde9064	-0.006792115
28	0xbd7953ed	-0.060871053
29	0xbdaa2474	-0.08307734
30	0x3d0dcf53	0.034621548
31	0xbdccca6c	-0.099995464
32	0x3dccb2f2	0.099950686
33	0xbd800cc6	-0.06252436
34	0xbdecdade	-0.11565183
35	0x3bbac6a4	0.0056999493
36	0x3daf7793	0.08567729
37	0x3d55edf5	0.052228887
38	0xbd5f22ae	-0.054476433
39	0xbd80459e	-0.062632784
40	0x3cc33f83	0.023833996
41	0x3dd62e5e	0.104580626
42	0xbd08483e	-0.03327202
43	0xbd57a400	-0.052646637
44	0x3da55db8	0.08074516
45	0xbd8273b3	-0.06369724
46	0x3ac19c1e	0.0014771258
47	0xbca9380a	-0.020656604
48	0xbd4d73a3	-0.050159108
49	0x3d1c8b22	0.038218625
50	0x3d98d988	0.07463366
51	0xbda80fb0	-0.08206117
52	0xbca4ca23	-0.020115918
53	0xbdcfd541	-0.10148097
54	0xbb92d23d	-0.0044806288
55	0xbd14eeb8	-0.036360472
56	0xbdbf43f2	-0.093391314
57	0x3d367224	0.044542447
58	0xbd974f92	-0.07388224
59	0x3cb8f608	0.022578254
60	0xbc63abea	-0.013895968
61	0xbe01e9d6	-0.12686858
62	0x3d544eaf	0.05183285
63	0xbd9dfaf3	-0.077138804
64	0x3de33006	0.11093144
65	0xbde232f2	-0.11044873
66	0xbc7f0ff8	-0.015567772
67	0x3d8ec30b	0.06970795
68	0xbb692e64	-0.003558063
69	0xbdb1f4a9	-0.08689243
70	0xbe0e1538	-0.13875282
71	0x3da8a0e4	0.082338125
72	0xbd7eca0f	-0.062204417
73	0xbde12cc9	-0.1099487
74	0xbe0c2b75	-0.13688453
75	0xbbae8614	-0.005326042
76	0x3d57e024	0.05270399
77	0x3dd2b80e	0.10289012
78	0x3dcc37c9	0.09971578
79	0x3daeffac	0.08544859
80	0x3c93b314	0.018029727
81	0x3ce9731c	0.028497271
82	0xbd80cfc9	-0.06289632
83	0xbd9a8b9b	-0.07546159
84	0x3dfe77ae	0.12425171
85	0xbdb3d3d8	-0.0878064
86	0x3d963c7d	0.07335756
87	0xbcaf3a55	-0.02139012
88	0xbd62837a	-0.055301167
89	0xbd7d66f1	-0.06186575
90	0xbd5966e1	-0.05307663
91	0xbdbd98ec	-0.09257683
92	0xbdca9b2a	-0.098928764
93	0x3d24b370	0.040210187
94	0x3c02126f	0.007938965
95	0xbdcb825d	-0.09936974
96	0x3e0b9a26	0.13633022
97	0x3e09b778	0.13448894
98	0xbdae6c1d	-0.08516715
99	0x3dd3da52	0.10344376
100	0xbd943dc4	-0.07238343
101	0xbcb629d3	-0.02223674
102	0xbba917a6	-0.00516029
103	0x3d8ed7c5	0.069747485
104	0x3dce9717	0.10087412
105	0xbd7d18b8	-0.06179115
106	0xbde053f1	-0.109535106
107	0xbdd62a50	-0.10457289
108	0x3df506e0	0.11964202
109	0xbd450a8c	-0.04810576
110	0xbd8871fe	-0.06662367
111	0x3d9c6f85	0.07638458
112	0x3e031c5e	0.1280379
113	0xbd6c18fc	-0.057641014
114	0x3dc5cb5c	0.09657928
115	0xbca5f2c5	-0.020257363
116	0xbd0a4900	-0.033761024
117	0x3d30dd07	0.043179538
118	0xbd9bb8fb	-0.076036416
119	0xbcc53189	-0.024071472
120	0xbde75054	-0.11294618
121	0xbdce0daf	-0.10061204
122	0x3d4e8d8c	0.05042796
123	0xbda90aba	-0.08253999
124	0xbd965a55	-0.07341448
125	0xbe0e1160	-0.13873816
126	0xbd6f0db0	-0.058362663
127	0xbd9f4994	-0.07777706
128	0x3dadb55a	0.08481856
129	0xbdb197a1	-0.08671499
130	0xbdcb2029	-0.099182434
131	0x3daa366e	0.08311163
132	0x3dda60f5	0.10663024
133	0x3db76bd8	0.089561164
134	0x3db1728c	0.08664426
135	0x3d061959	0.032739017
136	0xbd844f02	-0.06460382
137	0x3d86d595	0.06583706
138	0x3dbe8c54	0.09304109
139	0x3dd6db99	0.10491104
140	0x3b2950ca	0.0025835508
141	0xbdddf072	-0.10836877
142	0xbdf7c858	-0.120987594
143	0x3c71deb8	0.014762573
144	0xbd2fffdf	-0.042968627
145	0x3d2c5110	0.042069495
146	0xbded9a48	-0.116016924
147	0xb9977d1f	-0.00028894187
148	0x3cc4bd51	0.024016054
149	0x3ca8fe49	0.020629065
150	0xbda0f823	-0.07859828
151	0xbd25e0bf	-0.040497538
152	0xbd8c6229	-0.0685466
153	0x3da1956a	0.078898266
154	0x3d6ffe0e	0.058591895
155	0xbcfc44a2	-0.030794445
156	0x3dce89bd	0.10084865
157	0xbd99b8c0	-0.075059414
158	0x3d6b3b47	0.05742958
159	0xbd42bd9e	-0.047544114
160	0x3d9db13b	0.0769982
161	0x3daaf372	0.08347215
162	0xbdfaf8dd	-0.12254498
163	0xbcd42831	-0.025898071
164	0x3d875b25	0.06609181
165	0xbd010b79	-0.03150508
166	0xbdca66d4	-0.09882894
167	0x3d397d60	0.045285583
168	0x3d7e333d	0.062060583
169	0xbd0af785	-0.03392746
170	0xbca94cee	-0.020666566
171	0x3de137d2	0.10996975
172	0x3da526a4	0.08064011
173	0x3de9d098	0.11416739
174	0xbe039c5a	-0.12852612
175	0xbd6f9364	-0.058490172
176	0xbbc8ec49	-0.006131683
177	0xbaacef91	-0.0013193955
178	0x3d0b118c	0.03395228
179	0xbd1eed9d	-0.038800824
180	0xbd8af293	-0.067845486
181	0x3d5b2237	0.053499427
182	0xbca3f233	-0.02001295
183	0xbe0f7c49	-0.14012255
184	0xbdd286db	-0.10279628
185	0xbdc5c51f	-0.096567385
186	0xbdbcb73b	-0.09214636
187	0x3d8775c2	0.066142574
188	0xbdd83c87	-0.1055842
189	0x3d94af08	0.07259947
190	0x3c876dba	0.016531814
191	0x3dfc4cc9	0.12319333
192	0xbc97af9b	-0.018516352
193	0x3d3b0f14	0.045668676
194	0x3da3236f	0.07965743
195	0x3e03b4d7	0.12861954
196	0x3db6dc3e	0.089287266
197	0x3d5a6dd6	0.053327404
198	0xbd316976	-0.043313466
199	0xbdd5a7a2	-0.10432364
200	0xbc705863	-0.014669511
201	0x3ce15d0f	0.027510194
202	0xbde41fc7	-0.111388735
203	0xbdb0bcc8	-0.08629757
204	0xbce093ac	-0.027414165
205	0xbdb5883d	-0.08863876
206	0x3d8c51b7	0.06851523
207	0xbc9361c1	-0.017990949
208	0xbd37f0bf	-0.044907328
209	0x3d40d096	0.047073923
210	0xbd31b4f9	-0.04338548
211	0xbdb007e6	-0.085952565
212	0xbdd75f35	-0.10516206
213	0x3deb522d	0.11490283
214	0x3d0a1134	0.033707812
215	0xbd21d0e0	-0.03950584
216	0xbd2f053c	-0.0427296
217	0xbe0295f8	-0.12752521
218	0xbce29866	-0.02766056
219	0x3d8334e6	0.06406574
220	0x3df4ddf5	0.119563974
221	0x3df60803	0.12013247
222	0x3d6a9184	0.05726768
223	0x3e06ad72	0.13152102
224	0x3de95417	0.11392992
225	0xbcbd69ec	-0.023121797
226	0x3d0e68f1	0.03476805
227	0x3c448849	0.011995384
228	0x3dd4c4c3	0.10389092
229	0xbd191c15	-0.037380297
230	0x3d9f970f	0.07792484
231	0x3c60f6ac	0.013730686
232	0x3d4506c2	0.048102148
233	0x3da8af15	0.08236519
234	0xbcc19adb	-0.023633411
235	0xbd794319	-0.060855005
236	0x3e080a6b	0.13285224
237	0x3d211441	0.039325956
238	0x3dbceedd	0.09225247
239	0xbdaa6a8f	-0.08321106
240	0xbcccbac1	-0.024991395
241	0x3d545b30	0.051844776
242	0xbdb844ba	-0.089974836
243	0xbdcb559c	-0.09928438
244	0x3d97e5a5	0.07416848
245	0xbd53c707	-0.05170348
246	0x3ca52b96	0.020162385
247	0xbc44757d	-0.011990902
248	0x3db8ea77	0.090290956
249	0x3c842dca	0.016135115
250	0xbd8188c2	-0.063249126
251	0x3cd52907	0.02602054
252	0xbd8fa58e	-0.07013999
253	0xbd4dd8cc	-0.05025558
254	0xbd89fe26	-0.06737928
255	0xbdb35199	-0.08755798

decoder.bias_ih_l0 f4 [256]
0	0x3c4e3c84	0.01258767
1	0x3d8ae874	0.06782618
2	0x3dad6502	0.08466531
3	0x3daa7efc	0.083250016
4	0x3d6d8d01	0.0579958
5	0x3db47da8	0.088130295
6	0x3c0f0b12	0.008730667
7	0xbdfa23f9	-0.122138925
8	0x3de0788a	0.10960491
9	0x3d0d52c1	0.03450275
10	0x3db982ba	0.09058137
11	0xbcfbd847	-0.030742778
12	0xbdbd4040	-0.0924077
13	0xbdd38394	-0.10327831
14	0x3d556a84	0.052103534
15	0xbd5a86b9	-0.053351138
16	0x3da1eb12	0.07906164
17	0xbcfb350e	-0.030664947
18	0x3e05cada	0.13065663
19	0x3d3a810f	0.045533236
20	0x3d784e52	0.060621567
21	0xbca168f4	-0.019703366
22	0x3d7b52b0	0.061358154
23	0x3dd66e42	0.10470249
24	0x3c83dde0	0.01609701
25	0xbc3f28dd	-0.011667457
26	0xbdbc7ede	-0.092038855
27	0xbdc44a2e	-0.09584461
28	0x3e010dd2	0.12602928
29	0x3ce2e566	0.027697276
30	0x3c8fb7bf	0.017543672
31	0x3d207f65	0.039183993
32	0xbdc12e38	-0.09432644
33	0x3df3a2a9	0.11896259
34	0xbd58c009	-0.052917514
35	0xbdde8dad	-0.10866866
36	0x3bc5d8d8	0.0060378127
37	0xbd6d98be	-0.058006994
38	0xbd110615	-0.03540619
39	0xbcc6c8b1	-0.024265619
40	0x3d199159	0.03749213
41	0x3da1da85	0.079030074
42	0xbd9bfa8d	-0.07616148
43	0xbc7b636d	-0.015343529
44	0x3de382b0	0.11108911
45	0x3e047ee5	0.12939031
46	0xbd383146	-0.044968866
47	0x3d2291c5	0.039689798
48	0x3dadfc94	0.08495441
49	0xbdd427ec	-0.10359177
50	0x3e03129b	0.12800066
51	0x3d2d16eb	0.042258184
52	0x3db0006b	0.0859383
53	0xbdfdca55	-0.123921074
54	0x3d96e934	0.07368699
55	0x3ca502d4	0.02014295
56	0xbcb7c5c7	-0.022433175
57	0xbda02261	-0.07819057
58	0x3d536e96	0.051619135
59	0x3d2442d3	0.04010279
60	0x3d976c0b	0.073936544
61	0x3dfdda8d	0.12395201
62	0x3dc9fee8	0.09863073
63	0xbd23596c	-0.0398802
64	0xbd0b7d70	-0.034055173
65	0xbd4d201a	-0.050079443
66	0x3dbc8ae7	0.09206181
67	0x3db4d912	0.088304654
68	0x3da31671	0.07963265
69	0xbdf87b94	-0.12132946
70	0xbda73688	-0.08164698
71	0xbdda05c3	-0.1064563
72	0x3af0c2da	0.0018368617
73	0x3d270121	0.04077256
74	0x3dec0546	0.11524443
75	0xbd9413ed	-0.07230363
76	0xbd74d68a	-0.059774913
77	0xbd0f644e	-0.035007767
78	0x3cbce973	0.023060536
79	0x3dd657d3	0.1046597
80	0xbd88c97d	-0.06679056
81	0x3dbc5257	0.091953926
82	0x3db4e73d	0.08833168
83	0x3cd270e2	0.025688592
84	0xbdd57cd4	-0.104242
85	0xbd8d6598	-0.06904143
86	0xbdc8c968	-0.0980404
87	0x3ccc4a57	0.024937792
88	0x3db140bc	0.08654925
89	0x3d6aa282	0.057283886
90	0x3d4fb45a	0.050709106
91	0x3d3b8ef7	0.04579064
92	0xbd1b4b0d	-0.03791337
93	0x3d3eac0a	0.046550788
94	0xbdfb8fbb	-0.12283274
95	0x3d0b01d6	0.033937298
96	0xbdd90467	-0.10596543
97	0xbce4931b	-0.027902177
98	0x3ccdd72e	0.02512702
99	0xbaf057cf	-0.0018336716
100	0x3b6d812e	0.0036240327
101	0x3db8e697	0.090283565
102	0x3dad2b7b	0.08455559
103	0x3da70687	0.08155542
104	0xbdbb3e56	-0.09142749
105	0xbdead1f3	-0.11465826
106	0xbd84d060	-0.06485057
107	0xbc9ecfa2	-0.019386116
108	0x3d6b2d6a	0.057416357
109	0x3dd4f078	0.10397428
110	0xbd9eef9b	-0.07760545
111	0xbb115884	-0.0022178004
112	0x3dd7be3b	0.105343305
113	0x3d9e3f3d	0.077269055
114	0x3b93fb93	0.004516074
115	0x3daf90a6	0.085725114
116	0x3dfea87f	0.12434482
117	0xbded3659	-0.115826316
118	0xbdbd1775	-0.0923299
119	0xbd72b0a3	-0.059250485
120	0xbd583639	-0.052786086
121	0x3dc34e77	0.0953645
122	0xbd4bc5b6	-0.0497491
123	0xbdb53ef1	-0.08849896
124	0x3d6b11a4	0.05738987
125	0xbdf98821	-0.12184168
126	0x3dac52e5	0.084142484
127	0xbde7f7d6	-0.11326568
128	0x3d37f560	0.044911742
129	0x3db8c9f6	0.09022896
130	0x3d124538	0.035710543
131	0xbd91d0cc	-0.07119903
132	0x3ca7a8d0	0.020466238
133	0xba0468de	-0.0005051027
134	0xbd42c488	-0.047550708
135	0x3db453b5	0.08805028
136	0xbdecbc91	-0.11559404
137	0x3c3715ad	0.0111746015
138	0x3d3cf454	0.046131447
139	0xbc2fac27	-0.010722197
140	0x3b667e6e	0.0035170573
141	0xbdc29953	-0.095019005
142	0xbda2b3bd	-0.079444386
143	0xbdbbb3ba	-0.091651395
144	0x3c9e4f34	0.019324876
145	0xbbae1208	-0.005312208
146	0x3dbd6182	0.09247114
147	0x3d9f9068	0.07791215
148	0xbda491f4	-0.08035651
149	0xbdbd9594	-0.092570454
150	0xbdad7fa1	-0.08471609
151	0x3d88fd28	0.06688911
152	0x3cbc3b49	0.022977488
153	0xbc3e4089	-0.011612066
154	0xbddbb7f7	-0.10728448
155	0xbcb873e4	-0.022516198
156	0xbd6b1912	-0.057396956
157	0xbc168d0b	-0.009188901
158	0xbd710217	-0.058839884
159	0x3d94fa53	0.07274308
160	0xbde1009f	-0.109864466
161	0xbd8522fa	-0.06500812
162	0x3de43f56	0.11144893
163	0x3df24c8d	0.11831007
164	0xbcc9d25f	-0.024636446
165	0xbd300e13	-0.042982172
166	0xbcc1e104	-0.023666866
167	0xbcf28200	-0.029603004
168	0x3cea8fc7	0.028633012
169	0xbd31aee0	-0.043379664
170	0x3d3cfe2d	0.04614084
171	0xbdb08be0	-0.08620429
172	0xbde92813	-0.11384597
173	0xbd29ef8e	-0.041488223
174	0x3bbc1ffb	0.005741117
175	0x3cce5a7b	0.025189629
176	0x3c24be59	0.010055148
177	0x3d006ae6	0.031351946
178	0x3de20d51	0.11037696
179	0x3d7eccc7	0.06220701
180	0xbdb25da8	-0.0870927
181	0xbdcdd325	-0.10050038
182	0xbdb66e2c	-0.08907732
183	0xbd295e27	-0.041349556
184	0x3d8276c7	0.06370311
185	0x3df7fed6	0.12109153
186	0x3dca40d8	0.09875649
187	0xbca1d24f	-0.019753603
188	0x3a5ee400	0.00085026026
189	0xbd646933	-0.05576439
190	0x3dc4e18a	0.09613331
191	0x3d72f433	0.059314918
192	0xbdfed3b6	-0.124427244
193	0xbe0fd840	-0.14047337
194	0x3d69795a	0.057000495
195	0xbc904629	-0.01761158
196	0x3d36148b	0.044453185
197	0x3d487cb6	0.04894706
198	0x3d97e188	0.074160635
199	0xbd8be927	-0.0683158
200	0x3c55b042	0.013042511
201	0xbdd42eff	-0.10360526
202	0x3dbaa06c	0.09112629
203	0x3ddb0e7d	0.10696123
204	0x3dd97edb	0.10619899
205	0x3d361356	0.044452034
206	0xbdfb1d20	-0.122614145
207	0xbe023b4e	-0.12717935
208	0x3d0d87fa	0.034553505
209	0x3cc14408	0.02359201
210	0xbd56812e	-0.05236929
211	0x3d9c75b9	0.07639641
212	0xbdc9e886	-0.098588035
213	0xbe070d6c	-0.13188714
214	0x3d7d65ed	0.061864782
215	0xbd7b1508	-0.061299354
216	0xbc95f38a	-0.018304605
217	0xbd42dc88	-0.047573596
218	0x3dd8fc13	0.10594954
219	0xbd872748	-0.06599289
220	0x3af49b9f	0.0018662101
221	0xbdf77701	-0.12083245
222	0xbde08cab	-0.1096433
223	0xbdd99b2c	-0.106253
224	0x3d099a08	0.03359416
225	0x3c532687	0.012887604
226	0xbdc1b5af	-0.094584815
227	0xbbd490cd	-0.006486988
228	0x3d1c984c	0.03823118
229	0xbda802e0	-0.08203673
230	0xbd42eb82	-0.04758788
231	0xbdff5465	-0.12467269
232	0xbd06ed97	-0.032941427
233	0x3da025bf	0.078196995
234	0x3e03cdba	0.12871447
235	0x3c6b9b53	0.014380294
236	0xbdc5a5d8	-0.09650773
237	0x3dc553b7	0.09635108
238	0xbdbd47d4	-0.09242216
239	0xbb2f613a	-0.0026760832
240	0xbcb0eb5a	-0.0215966
241	0x3d812d71	0.063074954
242	0x3de12715	0.109937824
243	0x3d03fb66	0.032222174
244	0x3dcff6e4	0.101545125
245	0xbdc79fcd	-0.097472765
246	0xbd0752a7	-0.033037808
247	0xbd9e2fc2	-0.07723953
248	0xbdb5cc7c	-0.08876893
249	0x3d7059f6	0.058679543
250	0x3da9cf6f	0.08291518
251	0xbd115856	-0.035484634
252	0x3dbacdaa	0.091212586
253	0x3d861da7	0.065486245
254	0x3d8c7a1f	0.0685923
255	0x3c814567	0.015780164
