output/mnist/models/lstm_autoencoder_mnist_classification.pth (torch, 875740 bytes, 10 tensors)

encoder.weight_ih_l0 f4 [512, 28]
0	0x3d733d19	0.05938444
1	0xbd3b51ce	-0.045732312
2	0x3e64dbcd	0.22349472
3	0xbd76b2ba	-0.06022904
4	0xbd5ea0d8	-0.05435261
5	0x3ded0827	0.115738206
6	0x3d9ce271	0.07660378
7	0x3d844b3b	0.064596616
8	0x3dda47ec	0.10658249
9	0x3e374e5a	0.17900982
10	0x3db28d88	0.08718401
11	0x3dcd2e50	0.10018599
12	0x3cf38105	0.029724607
13	0x3e289357	0.16462456
14	0x3db7ec21	0.08980585
15	0x3db91b30	0.09038389
16	0x3dce37f0	0.10069263
17	0x3c25c262	0.010117145
18	0xbd9474e1	-0.072488554
19	0x3d545f27	0.051848557
20	0xbd77d999	-0.06051025
21	0xbd0d3cff	-0.034482
22	0xbd5e83a0	-0.054324746
23	0x3d00301f	0.03129589
24	0x3d04a038	0.03237936
25	0x3e1a8a3d	0.15091796
26	0x3e504927	0.20340405
27	0xbd8a8cad	-0.06765113
28	0xbde1fc11	-0.11034406
29	0x3d813bb5	0.06310216
30	0x3de5a5bb	0.11213251
31	0xbd8ce312	-0.06879248
32	0xbe043b12	-0.12913159
33	0xbdbc80ae	-0.09204231
34	0xbe9dbdc9	-0.30808857
35	0xbe83f554	-0.25773108
36	0xbdf4bcbf	-0.11950063
37	0xbd5f10ba	-0.05445931
38	0xbd7a4c4e	-0.061107926
39	0x3d58db1f	0.052943345
40	0x3ddf23ab	0.10895475
41	0x3e489ea0	0.1959176
42	0x3e59cdf9	0.21269979
43	0x3e447d90	0.19188523
44	0x3e382ff5	0.17987044
45	0x3e1979ca	0.14987865
46	0x3e115ca4	0.14195496
47	0xbcb9f1ed	-0.022698367
48	0xbd06d729	-0.032920036
49	0xbe08b176	-0.13348946
50	0xbdc70af8	-0.09718889
51	0xbd0851eb	-0.033281248
52	0xbd76c242	-0.060243852
53	0x3d34ad88	0.044110805
54	0x3ccc1db3	0.024916505
55	0x3d869ee8	0.06573278
56	0xbcbd51f6	-0.023110371
57	0xbcdb855e	-0.026796993
58	0x3e723725	0.23653848
59	0xbde174e9	-0.11008627
60	0xbe03a3c9	-0.12855448
61	0xbd1e8fee	-0.03871148
62	0x3d046fad	0.032333065
63	0xbde2c812	-0.11073317
64	0xbeb5375d	-0.353938
65	0xbee59d2f	-0.44846484
66	0xbee6e6e7	-0.4509804
67	0xbeb30fdd	-0.3497304
68	0xbe29d889	-0.16586508
69	0xbd80bfba	-0.06286569
70	0x3cdc84f8	0.026918873
71	0x3d404dd6	0.04694923
72	0x3dbb3632	0.09141196
73	0xbe000da2	-0.125052
74	0xbd653aad	-0.05596416
75	0xbcd5c55d	-0.026095087
76	0xbd809dc9	-0.06280095
77	0xbde7dcd8	-0.113214195
78	0xbdacf235	-0.08444635
79	0x3e08e99a	0.13370362
80	0x3e596fcb	0.21234052
81	0x3ed455d5	0.41471735
82	0x3e6422bd	0.22278877
83	0x3ddd6b62	0.10811497
84	0x3d979854	0.07402101
85	0xbd0f23b8	-0.034946173
86	0x3dac2575	0.08405582
87	0x3e848a59	0.258868
88	0x3ee9f982	0.45698172
89	0x3ebb6a77	0.36604664
90	0x3e60b903	0.21945576
91	0x3da13841	0.07872058
92	0x3d1cb091	0.038254324
93	0x3b54b99a	0.003245926
94	0xbbd700ef	-0.0065613906
95	0x3ced41f3	0.028962111
96	0x3ea1e8a7	0.31622812
97	0x3ec8a806	0.39190692
98	0x3e5ed854	0.2176221
99	0x3dd5ef3c	0.10446021
100	0xbd6aa883	-0.05728961
101	0x3dbec213	0.093143605
102	0x3d82f05b	0.063935004
103	0x3dfc294d	0.12312565
104	0x3d844217	0.06457918
105	0x3e016e3f	0.12639712
106	0x3e96e5ee	0.29472297
107	0x3e872410	0.263947
108	0x3e4157a8	0.18881094
109	0x3c176e78	0.009242646
110	0x3df78387	0.12085634
111	0x3e894477	0.26810047
112	0x3d999523	0.07499149
113	0xbcac6a80	-0.021046877
114	0xbe149d56	-0.14513144
115	0xbc5a4ae7	-0.013323522
116	0x3eaafd87	0.3339655
117	0x3ea42509	0.32059506
118	0x3e586688	0.21132863
119	0x3ec08d69	0.37607887
120	0x3e56fee9	0.20995678
121	0x3e86bcd9	0.26315954
122	0x3e89f188	0.26942086
123	0x3e08e6de	0.13369319
124	0x3e12d192	0.14337757
125	0x3e284d63	0.1643577
126	0x3d7fe96f	0.06247848
127	0x3e0829b8	0.13297164
128	0x3de2d57b	0.110758744
129	0x3bfbd8ab	0.007685741
130	0xbc769827	-0.015050924
131	0xbd9e0f6c	-0.07717785
132	0xbc300bd9	-0.010745012
133	0x3d880007	0.0664063
134	0x3d9762fc	0.07391927
135	0x3bb481a3	0.005508618
136	0x3d8d5360	0.06900668
137	0x3b515e46	0.003194706
138	0x3e2696b9	0.16268434
139	0xbdac50da	-0.08413859
140	0x3d544300	0.05182171
141	0x3db9c3fa	0.09070583
142	0x3dd54b53	0.104147576
143	0x3ea470dc	0.32117355
144	0x3e1d443c	0.1535806
145	0x3ea5d25f	0.32387063
146	0x3e988ec0	0.2979641
147	0x3e222a7d	0.1583652
148	0x3e159a7a	0.1460971
149	0xbd0390fa	-0.032120682
150	0x3d67d7cd	0.056602288
151	0x3cfb8c13	0.030706441
152	0xbd15e572	-0.03659577
153	0xbc691d79	-0.014228218
154	0x3cb257d7	0.0217704
155	0x3df27572	0.11838807
156	0xbba76f5b	-0.00510971
157	0x3dddd311	0.10831273
158	0x3de42b70	0.111410975
159	0x3e0aeb0d	0.13566227
160	0x3e112f4b	0.14178197
161	0x3e7d5d2a	0.2474257
162	0x3de43a58	0.11143941
163	0xbc1f3fe7	-0.009719825
164	0x3e0ad2d0	0.13556981
165	0x3e02ef65	0.12786634
166	0xbc2d27a1	-0.01056853
167	0x3c951ec7	0.018203152
168	0x3d622936	0.055215083
169	0xbbb3f32a	-0.005491634
170	0xbd9aa904	-0.075517684
171	0xbe99a2f7	-0.30007145
172	0xbe60adaf	-0.21941255
173	0xbe01c870	-0.12674117
174	0xbd0b8e7a	-0.034071423
175	0x3dc67e4c	0.09692058
176	0x3e12eaf1	0.14347436
177	0x3dcece2b	0.10097917
178	0x3c0c75dd	0.008573023
179	0x3d61a83d	0.055092085
180	0x3ce7539f	0.028238116
181	0xbdb80bc9	-0.08986623
182	0x3dfe29c8	0.12410313
183	0x3e0da01a	0.13830605
184	0x3e261d09	0.16222014
185	0x3e33f266	0.17572936
186	0x3c8363b9	0.016038762
187	0xbdaed6d9	-0.08537073
188	0xbd6e569e	-0.058188073
189	0xbe308214	-0.17237121
190	0xbe493f24	-0.19652992
191	0x3d26267e	0.040564053
192	0xbc9ac0d0	-0.018890768
193	0xbd9f186c	-0.0776833
194	0xbe31f5b0	-0.17378879
195	0xbcdfb008	-0.027305618
196	0xbdc83222	-0.09775187
197	0xbd9589d7	-0.073016815
198	0xbe2c109e	-0.16803214
199	0xbe0beb71	-0.13664033
200	0xbbd052c5	-0.006357523
201	0xbdfa1e0b	-0.122127615
202	0xbc29cd3e	-0.010363875
203	0xbd897cdf	-0.067132704
204	0x3dc8e3b1	0.09809054
205	0x3c67ca19	0.014147305
206	0x3dce97ad	0.100875236
207	0x3dc77dd7	0.09740799
208	0x3cb4139b	0.021982005
209	0x3be68838	0.0070352815
210	0xbdd3f5cc	-0.103496164
211	0xbe27064e	-0.16310999
212	0xbdd10490	-0.10205948
213	0xbd6250e1	-0.055252913
214	0xbda14c3c	-0.07875869
215	0x3e17e9d0	0.14835286
216	0x3e5b78c1	0.21432783
217	0x3e8f5d08	0.28000665
218	0x3e69d563	0.22835307
219	0x3e2e3d1b	0.17015497
220	0xbe0ef0f9	-0.13959111
221	0xbe12b9ff	-0.14328764
222	0xbe586f60	-0.21136236
223	0x3c32106d	0.010868174
224	0x3d5143f3	0.051090192
225	0x3d98a093	0.07452502
226	0x3dd3b18e	0.103366
227	0xbdde81b9	-0.108645864
228	0xbe33ebb3	-0.17570381
229	0xbe4d5c28	-0.20054686
230	0xbd8a2307	-0.06744962
231	0x3e423567	0.18965684
232	0x3e17ccea	0.14824262
233	0x3e0aa218	0.13538396
234	0x3e68c32c	0.22730702
235	0x3e124098	0.14282453
236	0x3e712254	0.23548251
237	0x3dfed700	0.12443352
238	0x3d4c5c08	0.049892455
239	0xbd84fc09	-0.064933844
240	0x3d8b7b3c	0.068106145
241	0x3c7f66a7	0.015588439
242	0x3c3cd22f	0.011524721
243	0xbd243f1c	-0.04009925
244	0xbd1426d6	-0.03616985
245	0xbd51bf9b	-0.05120812
246	0xbd79bf96	-0.060973726
247	0xbcae8d90	-0.021307737
248	0xbdc8bfcd	-0.09802208
249	0xbcd58830	-0.026065916
250	0xbdb83780	-0.08994961
251	0xbdc7cc1b	-0.09755727
252	0x3e1b23b8	0.15150344
253	0x3de1b0d1	0.11020053
254	0x3d35447d	0.04425477
255	0xbd944452	-0.072395936

encoder.weight_hh_l0 f4 [512, 128]
0	0xbd9119c4	-0.070849925
1	0xbd98d778	-0.074629724
2	0x3e250090	0.16113496
3	0x3e2359ff	0.159523
4	0xbd388a97	-0.045054045
5	0xbc83da3c	-0.016095273
6	0x3e05c60d	0.13063832
7	0x3d3e3093	0.046433043
8	0x3dd4c421	0.10388971
9	0xbe810724	-0.2520076
10	0x3c96a4f7	0.018389208
11	0x3dae721f	0.085178606
12	0x3c8f97b2	0.017528389
13	0xbd552b0b	-0.052043002
14	0x3d1c7be0	0.038204074
15	0xbe11e116	-0.1424602
16	0xbdd94b3a	-0.106100515
17	0x3e1a6b84	0.15080076
18	0x3cc9fa28	0.024655417
19	0x3e20b496	0.15693888
20	0xbcf94261	-0.03042716
21	0x3d3791c8	0.044816762
22	0xbc974a37	-0.018468006
23	0x3dc8db43	0.09807446
24	0x3d4d4a83	0.050119888
25	0x3dd1becd	0.102414705
26	0x3d14c747	0.03632286
27	0x3e008746	0.12551603
28	0xbd447044	-0.047958627
29	0x3cf0ff35	0.029418567
30	0x3d21ce2f	0.039503273
31	0xbcf86a52	-0.030324135
32	0x3c6829e9	0.014170148
33	0x3da7a18f	0.08185112
34	0x3de4e44f	0.11176359
35	0xbd89bdd6	-0.067256615
36	0x3cab7725	0.020930836
37	0xbdc394f6	-0.095498964
38	0x3db5533f	0.088537686
39	0x3c74700d	0.014919293
40	0x3d441379	0.047870133
41	0x3bea3ece	0.0071486
42	0x3d19ebd4	0.03757842
43	0xbd6e639c	-0.058200464
44	0xbc045ce5	-0.008078788
45	0x3e01eeda	0.12688771
46	0x3dbdb041	0.092621334
47	0xbe1c71d8	-0.15277803
48	0xbd6485ad	-0.055791546
49	0x3d5f756d	0.054555345
50	0x3deea7fc	0.11653134
51	0x3d755674	0.0598969
52	0x3d712320	0.05887139
53	0xbda77792	-0.08177103
54	0x3defe3ac	0.11713347
55	0x3dbe515d	0.092928626
56	0x3c67085c	0.014101114
57	0x3dc68f2d	0.09695277
58	0x3cc45e50	0.023970753
59	0xbd9f59b0	-0.077807784
60	0x3deee150	0.11664069
61	0xbe10acae	-0.14128372
62	0xbd1d9185	-0.038468856
63	0xbdd05dc6	-0.10174136
64	0xbd7655e8	-0.06014052
65	0xbdd6fa94	-0.10497013
66	0x3dde9751	0.10868705
67	0x3cabb1b2	0.020958755
68	0xbd6100c8	-0.054932386
69	0x3ca76fb9	0.020439016
70	0x39ec5dcb	0.0004508331
71	0xbd6f842d	-0.058475662
72	0xbd657a43	-0.0560248
73	0x3d603db8	0.05474636
74	0xbe19816d	-0.14990778
75	0x3dad8797	0.08473127
76	0x3d9da9c5	0.076983966
77	0x3c06d93b	0.008230503
78	0xbd3b63b3	-0.045749377
79	0x3b94b948	0.004538689
80	0x3d3f26f0	0.046667993
81	0xbc9a2918	-0.018818423
82	0xbc97849f	-0.018495856
83	0xbd552414	-0.05203636
84	0x3c356137	0.011070541
85	0x3d7289e9	0.059213553
86	0xbd36162d	-0.044454742
87	0x3e1bedf2	0.15227488
88	0xba226e7b	-0.00061962724
89	0xbcb856f8	-0.022502407
90	0x3d8b71bb	0.06808802
91	0xbc5cabb7	-0.013468674
92	0x3d8d27eb	0.068923794
93	0xbd901aaf	-0.070363395
94	0x3d6e55ce	0.0581873
95	0x3d15abde	0.03654086
96	0x3d2321ef	0.039827283
97	0x3dddf4f2	0.10837735
98	0x3cf9e703	0.030505663
99	0x3e013e88	0.1262151
100	0xbc3a332e	-0.011364741
101	0x3dc115ca	0.09427984
102	0x3c677749	0.014127561
103	0xbd386174	-0.045014814
104	0xbca648f2	-0.020298455
105	0x3da9b624	0.08286694
106	0xbe238d1c	-0.15971798
107	0xbda9ff66	-0.083006665
108	0x3ba9ef3c	0.0051859897
109	0xbcc0187a	-0.023449171
110	0xbd3d2531	-0.046178047
111	0x3de5712a	0.11203225
112	0x3cd6293f	0.026142715
113	0xbd8d79fc	-0.06908032
114	0x3d18b90c	0.03728585
115	0xbd31d80c	-0.04341893
116	0x3d6c2296	0.05765017
117	0x3cc6aba9	0.024251776
118	0xbe1013d3	-0.14070062
119	0x3cb36f04	0.021903522
120	0x3e15eba2	0.14640668
121	0x3dc445b8	0.0958361
122	0xbd69929d	-0.057024587
123	0xbd097351	-0.03355724
124	0xbcc17eec	-0.023620091
125	0xbdc8d1d5	-0.09805647
126	0xbcc7ed23	-0.024405068
127	0xbd9af2c5	-0.07565836
128	0x3bb482e1	0.005508766
129	0x3c536378	0.012902133
130	0x3e00374b	0.12521093
131	0x3e96cc4e	0.29452747
132	0x3e543cb3	0.2072628
133	0xbdd94f7d	-0.10610864
134	0xbdbf18c3	-0.09330895
135	0xbb3363cd	-0.0027372718
136	0x3dbca734	0.09211579
137	0xbdc6562d	-0.096844055
138	0xbd4cf9f1	-0.05004305
139	0xbd89c1cd	-0.06726418
140	0xbc274fbe	-0.010211883
141	0x3d946108	0.0724507
142	0xbe340e8a	-0.17583671
143	0xbe008072	-0.12548998
144	0xbde0f182	-0.10983564
145	0xbdde5252	-0.10855545
146	0xbd436ef2	-0.047713228
147	0x3b87adec	0.004140606
148	0x39245f73	0.00015675816
149	0x3c2a49aa	0.010393539
150	0x3db2fd2a	0.087396935
151	0xbd2823fa	-0.041049935
152	0xbe4cdaea	-0.20005384
153	0xbe1b26fd	-0.15151592
154	0xbcb7953a	-0.022410024
155	0xbd13a360	-0.03604448
156	0xbd6be6ec	-0.05759327
157	0x3d643f7c	0.055724606
158	0xbd40c1e2	-0.0470599
159	0xbd97c6d8	-0.07410973
160	0xbd7afe34	-0.061277583
161	0xbca6f633	-0.020381069
162	0xbe387d34	-0.18016511
163	0x3cf6d55a	0.03013103
164	0xbd0004f5	-0.031254727
165	0x3e097bec	0.13426179
166	0xbe030734	-0.12795717
167	0x3c0d08b9	0.008608037
168	0x3cc4aea0	0.024009049
169	0xbd1ccb4e	-0.038279824
170	0x3d4e46c9	0.050360475
171	0x3e0694f7	0.13142763
172	0x3cce5aa5	0.025189707
173	0x3a7a96fa	0.00095592404
174	0xbcb8012b	-0.022461494
175	0x3d403390	0.046924174
176	0x3a49ba36	0.0007695289
177	0xbc88f451	-0.016718062
178	0xbdaf6b8d	-0.085654356
179	0x3d170c5a	0.036877014
180	0xbd9ed96a	-0.07756312
181	0x3c639949	0.0138915265
182	0xbddc1f24	-0.10748127
183	0xbda081f9	-0.0783729
184	0xbe17a478	-0.14808834
185	0xbd48f1b5	-0.049058635
186	0x3d87cd59	0.06630964
187	0xbe2eadd4	-0.17058498
188	0x3e1993a8	0.14997733
189	0x3d0ef1c6	0.034898542
190	0x3d48efad	0.049056698
191	0x3d1278fe	0.03575992
192	0xbb233195	-0.002490138
193	0xbd8fcf03	-0.07021906
194	0xbdf436f0	-0.11924541
195	0xbb96cc7f	-0.0046020146
196	0x3e03ad00	0.12858963
197	0xbd79cf57	-0.06098875
198	0xbe0017fa	-0.12509146
199	0x3dd78b98	0.10524672
200	0x3d6e2f85	0.058150787
201	0x3d667287	0.056261566
202	0x3d800463	0.06250837
203	0x3e3fb1df	0.18720196
204	0x3e009560	0.12556982
205	0xbd86c454	-0.06580415
206	0xbe350564	-0.17677838
207	0x3cd49bfe	0.02595329
208	0x3d803df8	0.062618196
209	0xbd88c869	-0.0667885
210	0x3d1a260e	0.037633948
211	0xbd91f577	-0.07126897
212	0xba4040c9	-0.00073338725
213	0x3cedcf79	0.029029595
214	0xbd80d5f7	-0.062908106
215	0x3d190a04	0.037363067
216	0x3df328c7	0.11873012
217	0x3d3a8152	0.045533486
218	0xbd4ac61a	-0.04950533
219	0xbc6c31ad	-0.0144161405
220	0xbe0108c1	-0.12600996
221	0xbdaf5e1d	-0.085628726
222	0xbdc1bfb7	-0.09460395
223	0x3c83213e	0.016007062
224	0xbe5c60eb	-0.21521346
225	0x3cf71833	0.030162906
226	0xbe123957	-0.14279686
227	0xbeb29f1a	-0.3488701
228	0xbdd4eaa7	-0.10396319
229	0x3e2a08a4	0.16604859
230	0xbd0ee5ea	-0.034887232
231	0xbdc542e2	-0.096318975
232	0x3cff6451	0.031175764
233	0xbd5c1dff	-0.053739544
234	0xbe0db091	-0.13836886
235	0xbd1a4c51	-0.037670437
236	0xbe1aa867	-0.15103303
237	0x3ca73f0f	0.02041581
238	0x3d3d95dd	0.0462855
239	0xbd90b44d	-0.0706564
240	0xbcf5e4b2	-0.030016277
241	0xbdc4e557	-0.096140556
242	0x3d11474b	0.03546838
243	0xbcbc6d55	-0.023001352
244	0x3e1a82f1	0.15089013
245	0xbd5cf165	-0.05394115
246	0xbe0103ab	-0.12599055
247	0x3b6e90bb	0.0036402184
248	0xbda38d40	-0.07985926
249	0xbdb9c46b	-0.09070667
250	0x3cd2536b	0.025674542
251	0x3d079d57	0.033109035
252	0xbd1695d4	-0.03676398
253	0xbcf41c2c	-0.02979859
254	0xbd1f87b1	-0.038947765
255	0xbc34dafd	-0.011038539

encoder.bias_ih_l0 f4 [512]
0	0x3d49819f	0.049195882
1	0xbd10ceb4	-0.035353377
2	0x3ca7ba8e	0.020474698
3	0x3c142343	0.00904161
4	0x3e170f1b	0.14751856
5	0x3c45cf6c	0.012073379
6	0xbd11ed28	-0.03562656
7	0x3d895247	0.06705146
8	0xbcda78da	-0.026668955
9	0x3e2f139d	0.17097326
10	0x3e2815f7	0.16414629
11	0x3d681120	0.056656957
12	0x3c9c011c	0.019043498
13	0x3d9879dd	0.074451186
14	0xbd5ab175	-0.053391892
15	0xbd8c7e13	-0.06859984
16	0xbd1b04a9	-0.03784624
17	0x3cd27aca	0.025693316
18	0xbd0b042d	-0.03393953
19	0xbd99a086	-0.075013205
20	0x3d9426fe	0.07234
21	0x3ab419d8	0.0013740612
22	0x3d9149ce	0.07094155
23	0xbcf491e6	-0.029854726
24	0x3e2b711f	0.16742371
25	0x3e3dfd9b	0.18553774
26	0x3d4b8be3	0.049693953
27	0xbd98944e	-0.07450162
28	0xbd28eb1f	-0.041239854
29	0x3c9b29af	0.018940775
30	0xbcc8398f	-0.024441509
31	0xbca5562b	-0.02018269
32	0x3d75c2fb	0.0600004
33	0x3dfd2c26	0.12361936
34	0xbcae209c	-0.021255784
35	0xbd1d6003	-0.038421642
36	0xbde36703	-0.11103632
37	0x3cd65d47	0.026167525
38	0x3ae0fc6e	0.0017165074
39	0x3db937c8	0.090438426
40	0xbdd1a04a	-0.10235651
41	0x3d7d50c3	0.0618446
42	0x3bdb74df	0.0066972817
43	0xbd9fac1b	-0.077964984
44	0x3d1683b4	0.036746696
45	0xbde09b44	-0.109671146
46	0xbd46a448	-0.048496515
47	0xbd27088f	-0.040779646
48	0xbda9f4ce	-0.08298646
49	0xbda27eca	-0.07934339
50	0xbd2585bc	-0.040410742
51	0x3d9c149d	0.07621119
52	0x3db96c82	0.09053899
53	0xbcf36021	-0.029708924
54	0x3cc02880	0.023456812
55	0x3c14f6b5	0.009092023
56	0xbd0bdb2b	-0.03414456
57	0xba101b31	-0.0005497216
58	0x3befa855	0.007313768
59	0x3d255769	0.040366564
60	0xbd0d0c94	-0.034435824
61	0xbb1223e7	-0.0022299231
62	0xbdb16daa	-0.08663495
63	0x3e07150f	0.13191627
64	0xbbd34679	-0.00644761
65	0x3d1ba4d9	0.037999008
66	0x3e1585bc	0.14601797
67	0x3d82c1c0	0.06384611
68	0xbcb9f5cb	-0.022700211
69	0x3cc52fdf	0.024070678
70	0x3d0c34a0	0.034229875
71	0xbd0092eb	-0.031390112
72	0xbb81a56d	-0.003956488
73	0xbc13dc85	-0.009024744
74	0xbda76c62	-0.08174969
75	0xbd4dc7ec	-0.05023949
76	0x3df829b4	0.12117329
77	0x3da39de6	0.07989101
78	0x3d52ce53	0.051466297
79	0x3cc6d385	0.024270782
80	0xbd48590f	-0.048913058
81	0xbe0f498d	-0.13992901
82	0xbdedbceb	-0.11608299
83	0x3d4a63b8	0.049411505
84	0xbd0b1d6c	-0.033963606
85	0xbd1b98a9	-0.037987385
86	0xbcbd5bb6	-0.02311502
87	0x3d1cd97e	0.038293354
88	0xbd9eebaa	-0.07759793
89	0x3d11d11d	0.035599817
90	0x3d7bf37e	0.06151151
91	0x3dbca0bd	0.09210346
92	0xbc58cef4	-0.013232935
93	0xbc199673	-0.009374249
94	0xbd5d0abe	-0.053965323
95	0x3da716ab	0.081586204
96	0x3cc557af	0.024089662
97	0x3d908dbe	0.07058285
98	0x3d027479	0.03184936
99	0x3d110f31	0.03541488
100	0xbc21dbf7	-0.009879104
101	0x3d83d39d	0.064368464
102	0x3d31b4f9	0.04338548
103	0xbda0fb39	-0.07860417
104	0x3d161fa9	0.036651287
105	0x3d8bbf75	0.06823627
106	0x3d476241	0.048677687
107	0x3c890736	0.016727071
108	0xbd87446e	-0.06604849
109	0xbd15ee89	-0.036604438
110	0xbc222af7	-0.009897939
111	0xbd747c6f	-0.05968898
112	0xbd3ea6c4	-0.04654576
113	0x3dcc479b	0.09974595
114	0x3db47e3c	0.0881314
115	0x3b8a2cac	0.004216751
116	0xbdb2ab2a	-0.08724053
117	0x3b7d3b72	0.0038640168
118	0x3e0aaca7	0.13542424
119	0x3d83329c	0.06406137
120	0x3d02aea2	0.031904824
121	0x3d11826c	0.03552477
122	0xbcf6ecc3	-0.030142194
123	0x3babc763	0.0052422746
124	0xbb8336e5	-0.0040043467
125	0x3d8a218f	0.06744682
126	0x3dc3d719	0.09562511
127	0xba6a3c9a	-0.0008935422
128	0x3ded29f3	0.11580267
129	0x3e0a4278	0.13501918
130	0x3d1e1010	0.038589537
131	0x3e304c2c	0.17216557
132	0x3e4dcea9	0.20098366
133	0x3d9b814a	0.07593019
134	0x3e21d61e	0.15804335
135	0x3c5756d1	0.013143257
136	0x3e17a706	0.14809808
137	0x3e2b1e1a	0.16710702
138	0x3e8b3148	0.27186036
139	0x39c890a5	0.0003825474
140	0xbd0c653a	-0.034276225
141	0x3d34537f	0.04402494
142	0xbd6191c1	-0.055070642
143	0x3d8e76e3	0.069562696
144	0x3dcb976a	0.09940989
145	0x3d8bc148	0.06823975
146	0xbcdd881b	-0.02704244
147	0x3d2eca2e	0.042673282
148	0x3e2b65b1	0.16738011
149	0x3e73b754	0.23800403
150	0x3e04fc8b	0.12986962
151	0xbd99eb62	-0.07515599
152	0xbca20c82	-0.019781355
153	0x3d95d33d	0.07315681
154	0x3e5002ff	0.20313643
155	0x3cdab86d	0.02669927
156	0x3e074d58	0.13213098
157	0x3d2694d4	0.040669277
158	0x3bfb365a	0.0076663913
159	0x3e101e2c	0.1407401
160	0x3c2d2588	0.01056803
161	0x3c98386a	0.018581588
162	0x3e55df74	0.20886022
163	0x3e2efd91	0.17088915
164	0x3ca5bdad	0.020232046
165	0x3ced6c49	0.028982298
166	0x3de639aa	0.11241467
167	0x3de42b84	0.111411124
168	0x3c226769	0.00991235
169	0x3d4ba4e4	0.0497178
170	0xbc4fa3ad	-0.012673301
171	0x3d950ed3	0.07278218
172	0x3dd75a25	0.105152406
173	0x3ccbc160	0.024872482
174	0x3e005c7e	0.12535283
175	0x3df5993f	0.1199212
176	0x3c587b03	0.013212922
177	0x3de4cf22	0.1117232
178	0xbc655cd0	-0.013999179
179	0x3e07af59	0.13250484
180	0x3e020939	0.1269883
181	0x3bfdbbab	0.007743319
182	0x3e05608d	0.13025112
183	0x3dfd766a	0.12376101
184	0x3d9fe24e	0.07806836
185	0x3d8da5e6	0.06916408
186	0x3e053611	0.13008906
187	0xbc0f002c	-0.008728068
188	0xbcf83a9d	-0.030301386
189	0x3daac1d7	0.08337753
190	0x3de73a39	0.11290402
191	0x3d7ca1e8	0.061677843
192	0x3e0f539e	0.13996741
193	0xbc8d8f3b	-0.017280212
194	0x3e7b9565	0.24568708
195	0x3de036ad	0.109479286
196	0x3d7c7e83	0.06164409
197	0xbd65eb43	-0.056132566
198	0x3e4a8c16	0.19780001
199	0x3da49230	0.080356956
200	0x3e41cfe7	0.18926965
201	0x3ca2bd1f	0.01986557
202	0xbc851293	-0.016244208
203	0x3d594260	0.053041816
204	0x3ddc331f	0.10751938
205	0x3e27b794	0.16378623
206	0x3d0326d6	0.03201946
207	0x3c4cff8a	0.012512097
208	0x3cd2ba9f	0.025723753
209	0x3e601040	0.21881199
210	0x3c9e207e	0.019302603
211	0x3e22d3e8	0.15901148
212	0x3d68f9d7	0.05687889
213	0x3c35aa6a	0.011087993
214	0x3ddd9c6c	0.10820851
215	0x3e0628de	0.13101527
216	0x3d9489f3	0.07252874
217	0x3dc05582	0.09391309
218	0x3cc8343c	0.02443897
219	0x3cea129a	0.028573323
220	0x3d8bb492	0.068215504
221	0x3da6e0e0	0.0814836
222	0x3c27dd40	0.010245621
223	0xbd96e75f	-0.07368349
224	0x3d79f11a	0.061020948
225	0x3e08dfeb	0.13366668
226	0x3e21b599	0.1579193
227	0x3d4986ec	0.049200937
228	0x3d989549	0.07450349
229	0x3cf2f159	0.0296561
230	0x3d67d09c	0.05659543
231	0x3c8a9a66	0.016919326
232	0xbd91164d	-0.07084332
233	0x3d2b412a	0.041810192
234	0x3cc52226	0.024064135
235	0x3e24dc43	0.16099648
236	0x3d34ef27	0.044173386
237	0x3da24b72	0.07924546
238	0x3d225442	0.039631136
239	0x3cb62420	0.022234023
240	0x3b8a3250	0.0042174235
241	0x3e25c988	0.1619016
242	0x3df196ab	0.11796316
243	0x3dbb2ba2	0.09139182
244	0x3d79f0ec	0.061020777
245	0x3dafd7db	0.08586093
246	0x3da589ff	0.08082961
247	0x3db42dff	0.087978356
248	0x3de3a4fc	0.11115453
249	0x3e09f2d6	0.13471541
250	0x3e117703	0.14205556
251	0x3d95a37d	0.073065735
252	0x3bc4077a	0.0059823366
253	0x3d21e566	0.039525412
254	0x3cc52a56	0.024068039
255	0xbdbf76b9	-0.093488164

encoder.bias_hh_l0 f4 [512]
0	0xbd09b9b7	-0.033624377
1	0xbc5edb39	-0.013602071
2	0x3de24945	0.11049131
3	0x3c89f545	0.016840586
4	0x3e2325c3	0.15932374
5	0xbc470589	-0.012147316
6	0xbe180265	-0.14844663
7	0xbbaa081c	-0.005188955
8	0x3c52154e	0.012822462
9	0x3c63aeae	0.013896627
10	0x3e2bc7d8	0.16775453
11	0xbbfe5459	-0.00776152
12	0xbcfeeb9a	-0.031118203
13	0x3d66d99e	0.05635988
14	0xbc8a7fd4	-0.016906656
15	0xbbe2bda0	-0.0069195777
16	0xbd953f83	-0.072875045
17	0x3d2987a1	0.04138911
18	0xbd40c430	-0.0470621
19	0xbd095497	-0.033527937
20	0x3da95949	0.08268983
21	0x3c900d3f	0.017584441
22	0x3dca426b	0.098759495
23	0xbdec5c48	-0.11541039
24	0x3e15f6a5	0.14644869
25	0x3e20f260	0.15717459
26	0x3b8bdbdb	0.004268152
27	0x3d2466df	0.040137168
28	0xbd3d48a8	-0.04621187
29	0xbd936fe8	-0.07199079
30	0xbd8821c2	-0.06647064
31	0xbd540301	-0.051760677
32	0x3d9615f8	0.07328409
33	0x3d869804	0.065719634
34	0x3d27a9ff	0.040933605
35	0x3dd7504a	0.10513361
36	0xbd0c96dd	-0.034323562
37	0xbcd5d1d3	-0.026101029
38	0x3d172b8b	0.03690676
39	0x3c179de5	0.009253954
40	0xbcf7a81e	-0.030231532
41	0xbcfd2f2e	-0.030906286
42	0xbbfa027d	-0.007629691
43	0xbd1a71d1	-0.0377062
44	0x3db927f3	0.09040823
45	0xbdbdcf0c	-0.09268007
46	0x3d215d75	0.03939577
47	0xbc070031	-0.008239792
48	0x3cdba8e1	0.026813926
49	0x3d7efaa8	0.062250763
50	0x3c9d6441	0.019212844
51	0xb9e470a0	-0.0004357146
52	0x3dd05bdc	0.10173771
53	0x3dab4e3f	0.08364534
54	0x3de23c6a	0.11046679
55	0xbd47f291	-0.048815314
56	0xbc8affb9	-0.016967641
57	0x3d649149	0.055802617
58	0x3c12471e	0.0089280885
59	0xbce53480	-0.027979136
60	0x3d137712	0.036002226
61	0x3e1d2fc8	0.15350258
62	0x3d9aeb58	0.075644195
63	0x3dc6b71a	0.097028926
64	0x3d020712	0.031745024
65	0xbd925298	-0.0714466
66	0x3db15ad5	0.08659903
67	0x3d9e3896	0.07725637
68	0xbd1870f8	-0.03721711
69	0x3d2206fd	0.039557446
70	0x3d8dc35d	0.06922028
71	0xbd9fc972	-0.078020945
72	0x3cfd7a3a	0.030942071
73	0xbcbf7fca	-0.023376364
74	0x3d7656a2	0.060141213
75	0x3c25222a	0.010078946
76	0x3da2f95e	0.07957719
77	0x3d51f122	0.051255353
78	0xbc05b269	-0.008160212
79	0xbd56c1f9	-0.05243108
80	0x3d5c8c4e	0.053844742
81	0xbdcfb756	-0.101423904
82	0xbdd48f0f	-0.10378849
83	0x3dbf907b	0.09353729
84	0xbd2219dc	-0.039575443
85	0xbbececa1	-0.007230357
86	0xbd2df274	-0.04246755
87	0x3d5673a7	0.05235639
88	0xbdef05e6	-0.11671047
89	0x3ced35e4	0.028956361
90	0xbc4ee00f	-0.012626662
91	0xbd094ff5	-0.03352352
92	0xbd484e58	-0.04890284
93	0x3c97a39f	0.018510638
94	0xbd69ed9c	-0.057111368
95	0x3cc7e8ae	0.024402943
96	0x3e01c906	0.1267434
97	0x3ac611a2	0.0015111456
98	0xbd3e3539	-0.046437476
99	0xbd35e602	-0.044408806
100	0xbd85c881	-0.06532384
101	0x3c5ab227	0.013348139
102	0xbc72db4a	-0.01482279
103	0x3c7d34a2	0.015454443
104	0xbd669a7d	-0.056299675
105	0x3c088f5b	0.00833496
106	0x3e075671	0.13216569
107	0x3d237022	0.03990186
108	0xbda2f71f	-0.07957291
109	0x3ca8b325	0.020593235
110	0xbcd03f08	-0.02542068
111	0x3d05dffd	0.032684315
112	0xbd295f01	-0.04135037
113	0xbb2e2f5e	-0.0026578526
114	0x3dbac381	0.09119321
115	0xbc8410a0	-0.016121209
116	0x3cb1a91f	0.021687089
117	0xbdc3246c	-0.09528431
118	0x3e2424af	0.16029619
119	0xbd979188	-0.07400805
120	0xbcaa4e2a	-0.020789225
121	0x3dd6ccee	0.10488306
122	0xbd828066	-0.06372146
123	0xbdae119f	-0.08499455
124	0x3b35bf83	0.0027732558
125	0xbd52d8f3	-0.05147643
126	0xbd852e6e	-0.065029964
127	0x3c027fc1	0.007965029
128	0x3daa32f7	0.08310502
129	0xbc9d7c63	-0.019224351
130	0x3de91aa3	0.11382034
131	0x3db55ea5	0.08855943
132	0x3d0092fd	0.03139018
133	0x3dd644a6	0.104623124
134	0x3e049c12	0.12950161
135	0x3d845df1	0.064632304
136	0x3e06282c	0.13101262
137	0x3e3b56e1	0.1829486
138	0x3e53fbb9	0.20701493
139	0x3ba0d0ae	0.004907689
140	0x3bd74697	0.0065696943
141	0x3dd9705b	0.10617133
142	0xbc4a68aa	-0.012354055
143	0x3cc7a29c	0.02436953
144	0x3e3aa8b3	0.18228416
145	0x3e14a51c	0.14516109
146	0x3d3d0e16	0.04615601
147	0x3e1ed75a	0.15511838
148	0x3e309072	0.17242602
149	0x3e5292b9	0.20563783
150	0x3e5a7445	0.21333416
151	0xbd4d7e0b	-0.050169032
152	0x3e0bb067	0.13641511
153	0x3d8c2cec	0.06844506
154	0x3deece93	0.11660495
155	0x3dd9e5b6	0.10639517
156	0x3de1eec0	0.11031866
157	0x3dadabd8	0.08480042
158	0xbca50be1	-0.020147266
159	0x3e02fb1b	0.12791102
160	0x3c8db870	0.01729986
161	0xbcdb034f	-0.026734976
162	0x3e41063f	0.18850039
163	0x3e0dbe95	0.13842233
164	0x3d752dc5	0.059858102
165	0x3e10d4d3	0.14143686
166	0x3e0a202b	0.13488834
167	0x3e29bd41	0.16576101
168	0x3d4bd5fd	0.049764622
169	0x3d7c639e	0.06161844
170	0x3c805321	0.015664639
171	0x3dc93f96	0.09826581
172	0xbc54f340	-0.012997448
173	0x3df512d4	0.11966482
174	0x3e098ddb	0.1343302
175	0x3dab8e96	0.083768055
176	0xbd5a9245	-0.05336215
177	0xbad6a6c2	-0.0016376602
178	0xba5cf6b8	-0.0008429098
179	0x3e39cda2	0.18144849
180	0x3c902f6b	0.017600736
181	0x3cc8a737	0.024493797
182	0xbd070d6b	-0.03297178
183	0x3e239621	0.15975238
184	0x3e2bf515	0.1679271
185	0x3db1bbbf	0.08678388
186	0x3e217e78	0.157709
187	0x3e0ebb6c	0.13938683
188	0xbc7f6f81	-0.015590549
189	0x3e34a18b	0.17639749
190	0x3e28d832	0.16488722
191	0xbb8294f0	-0.00398504
192	0x3e2499b6	0.16074261
193	0xbdc0fb7b	-0.09422966
194	0x3e03ffc7	0.1289054
195	0x3e059d1f	0.13048218
196	0xb8f928ec	-0.000118808675
197	0x3dc71feb	0.09722885
198	0x3dbbddb5	0.09173147
199	0x3e0c0fc8	0.13677895
200	0x3e2a649d	0.16639943
201	0x3cb2f7f3	0.021846747
202	0x3cb3c8d1	0.021946343
203	0x3e01c7aa	0.12673822
204	0x3d16cabd	0.03681444
205	0x3db9523f	0.0904889
206	0x3de22a7f	0.11043262
207	0x3da79238	0.08182186
208	0xbcd3c447	-0.025850428
209	0x3dab047d	0.083504654
210	0x3d86f6cb	0.06590041
211	0x3e01a2d1	0.12659766
212	0x3df2eeed	0.11861978
213	0x3dc3f618	0.09568423
214	0x3e198d83	0.14995389
215	0x3d3b6569	0.04575101
216	0x3c3f5099	0.011676931
217	0x3e06b2c1	0.13154127
218	0x3a083cf4	0.0005197071
219	0x3d8fba93	0.07018008
220	0x3cb7af30	0.022422403
221	0x3cd7a5d0	0.026324183
222	0x3dbb5ebe	0.0914893
223	0x3cb74639	0.022372352
224	0x3d90e2af	0.070744865
225	0x3dcb1951	0.09916938
226	0x3e1dd652	0.15413788
227	0x3d0a0309	0.0336943
228	0x3dee935d	0.11649201
229	0x3d891d4c	0.06695041
230	0xba91c558	-0.0011121435
231	0x3cc0a7ce	0.023517516
232	0x3c026945	0.0079596685
233	0x3da82938	0.08210987
234	0x3da5a2c7	0.08087688
235	0x3e1546be	0.14577767
236	0x3e0d975d	0.13827272
237	0x3df00420	0.11719537
238	0x3e212dab	0.15740077
239	0x3e388670	0.18020034
240	0x3cacd882	0.021099333
241	0x3d2e3bf7	0.042537656
242	0x3d91c246	0.07117133
243	0x3b89ba73	0.0042031347
244	0x3c25b6c8	0.010114379
245	0xbd0b5b28	-0.03402248
246	0x3e2d4a0f	0.16922782
247	0x3d82d5ff	0.06388473
248	0x3e06f136	0.13177952
249	0x3d446af6	0.04795357
250	0x3e5e240f	0.21693443
251	0x3dded7a1	0.10880972
252	0x3dfcf352	0.12351097
253	0x3d386b70	0.045024335
254	0x3bda6c78	0.0066657625
255	0xbdc2d97d	-0.09514139

decoder.weight_ih_l0 f4 [512, 128]
0	0x3d9b32f5	0.07578079
1	0xbea44eb7	-0.32091305
2	0x3e86d65d	0.2633542
3	0x3e315233	0.17316513
4	0x3d350fb9	0.044204447
5	0x3da62c2e	0.08113895
6	0x3d257ecd	0.04040413
7	0x3d161cb2	0.03664846
8	0xbe28ebdf	-0.16496228
9	0x3db35333	0.08756103
10	0x3d3fce1a	0.046827413
11	0x3d58db23	0.05294336
12	0x3cfd6c9e	0.030935582
13	0x3e15850b	0.14601533
14	0x3d6202a7	0.05517831
15	0xbe020e5b	-0.12700789
16	0x3d46ebd2	0.04856474
17	0xbe2b6ee1	-0.16741516
18	0x3d934f17	0.071928196
19	0x3c946f62	0.018119518
20	0xbe2cbb36	-0.1686829
21	0xbe6bdec6	-0.230342
22	0xbdb8b60f	-0.090191
23	0x3e39e38d	0.1815321
24	0xbc979c13	-0.01850704
25	0x3c99ba60	0.018765628
26	0x3d0771c9	0.0330675
27	0xbe1e4d42	-0.15459159
28	0x3d57b07a	0.052658536
29	0xbdad0980	-0.084490776
30	0x3de81103	0.1133137
31	0xbd4aa941	-0.04947782
32	0x3d8b1e96	0.06792943
33	0x3e3350e3	0.17511325
34	0xbd48eedc	-0.04905592
35	0xbde9e95a	-0.114214614
36	0x3dea9cc2	0.114556804
37	0xbd4abf81	-0.04949904
38	0x3e80600c	0.25073278
39	0x3bd7d935	0.0065871724
40	0x3e48c284	0.19605452
41	0x3d0f8b9f	0.035045262
42	0x3d97d2a7	0.074132256
43	0x3c457a4d	0.012053085
44	0x3dc91c45	0.09819845
45	0xbc26ec8c	-0.010188233
46	0x3cf9a079	0.030472027
47	0xbdebeaa6	-0.11519365
48	0x3bb36f21	0.005475894
49	0xbdfbee9f	-0.12301373
50	0xbd842c71	-0.06453789
51	0xbdd32a63	-0.10310819
52	0xbe068af5	-0.13138945
53	0xbc802481	-0.015642406
54	0xbd9f93cf	-0.07791864
55	0xbca9f0e8	-0.020744756
56	0x3e0b7984	0.13620573
57	0x3df3af7b	0.118987046
58	0x3e0e8e83	0.13921551
59	0x3ddee0cc	0.1088272
60	0x3da06780	0.07832241
61	0x3caea958	0.021320984
62	0x3dcbad83	0.09945204
63	0x3d932a5e	0.07185815
64	0x3da09433	0.07840767
65	0x3cb635fb	0.022242537
66	0xbcd6ae14	-0.026206054
67	0x3e0be5b0	0.13661838
68	0x3e13030f	0.14356636
69	0x3dd18310	0.10230076
70	0x3e010f8d	0.12603588
71	0xbccbd378	-0.02488111
72	0x3e138c31	0.14408948
73	0x3e4d931d	0.2007565
74	0xbe0c863e	-0.13723084
75	0xbe29e980	-0.1659298
76	0x3d456dff	0.048200604
77	0xbe6c0601	-0.23049165
78	0xbcb20ad8	-0.021733686
79	0x3d8d6c73	0.06905451
80	0xbd85b5ee	-0.06528841
81	0xbdabc77c	-0.08387658
82	0xbd8398b3	-0.064256094
83	0xbe04ad90	-0.12956834
84	0xbe0a6ca3	-0.13518004
85	0x3d4da28c	0.050203845
86	0xbbeba665	-0.0071914666
87	0x3da8e1aa	0.08246167
88	0x3d60aa3e	0.054849856
89	0xbdd3f42b	-0.10349306
90	0x3de2a084	0.11065772
91	0x3e1f904b	0.15582387
92	0x3d97cdca	0.07412298
93	0xbd8c1f04	-0.06841853
94	0xba6c5a70	-0.0009016162
95	0x3d0cbec0	0.0343616
96	0xbda0492a	-0.07826455
97	0xbc8ac950	-0.016941696
98	0xbcbbc363	-0.022920316
99	0x3db4f580	0.08835888
100	0xbcf1dd04	-0.029524334
101	0xbccabea9	-0.024749117
102	0xbd691c47	-0.056911733
103	0xb99266ed	-0.00027923976
104	0xbdf88f06	-0.121366546
105	0xbe7706e1	-0.24123718
106	0xbde14a3d	-0.11000488
107	0xbd9636e7	-0.073346905
108	0x3e0e0852	0.13870361
109	0x3cacefd5	0.021110455
110	0x3bf464e9	0.0074583185
111	0xbda7fb75	-0.082022585
112	0xbd3d5afc	-0.046229348
113	0xbd3908a7	-0.045174267
114	0xbe008260	-0.12549734
115	0xbe28e714	-0.164944
116	0x3c8d2ed8	0.01723425
117	0xbd7a45dc	-0.06110178
118	0x3d98d7de	0.074630484
119	0xbc125933	-0.0089324
120	0x3ddd08a4	0.10792664
121	0x3c4fa024	0.012672458
122	0xbd370811	-0.044685427
123	0xbd051e72	-0.032499738
124	0xbdba90ff	-0.09109687
125	0xbdbe3610	-0.09287655
126	0xbb3f1718	-0.0029158052
127	0xbd436d56	-0.047711693
128	0x3c83866f	0.016055314
129	0x3d94bf3f	0.0726304
130	0xbe4de376	-0.201063
131	0x3cd13892	0.02553967
132	0xbddbb66c	-0.107281536
133	0x3e2c08aa	0.1680018
134	0xbda9fc7b	-0.0830011
135	0xbd51fe61	-0.051267985
136	0xbd82b69b	-0.063824855
137	0xbd802bfc	-0.06258389
138	0xbcb93d86	-0.022612344
139	0x3e183cf1	0.14866997
140	0x3cd1c83c	0.025608175
141	0xbd648ae6	-0.055796526
142	0x3ce8221a	0.028336573
143	0xbdca8dbe	-0.098903164
144	0xbe412ad2	-0.18863991
145	0xbd00fa09	-0.031488452
146	0xbcf0c24a	-0.02938952
147	0xbe10d765	-0.14144666
148	0xbdbc1c71	-0.09185112
149	0x3d6c7761	0.057731036
150	0x3c134648	0.008988924
151	0x3db4d56f	0.08829772
152	0x3dfac1f3	0.12244024
153	0x3d418896	0.0472494
154	0x3de6c48f	0.11267959
155	0xbd533dd0	-0.05157262
156	0x3c09f876	0.008421054
157	0x3d5715b4	0.052510932
158	0xbd9b03c2	-0.07569076
159	0xbdb4584d	-0.088059045
160	0xbe1dcb09	-0.15409483
161	0x3b8ed67f	0.004359066
162	0xbc81c301	-0.015840055
163	0xbd97ae33	-0.07406273
164	0x3e365af3	0.17808132
165	0x3df3aa1d	0.11897681
166	0xbc2814d3	-0.010258871
167	0xbe5ab909	-0.21359648
168	0x3cb8c819	0.022556351
169	0x3dccacf1	0.099939235
170	0xbd100eb3	-0.03517027
171	0xbd27eebf	-0.04099917
172	0x3d819773	0.06327715
173	0xbd6e9132	-0.058243938
174	0x3cdd783a	0.027034868
175	0x3dc78559	0.09742231
176	0x3c144d34	0.00905161
177	0xbda68c2b	-0.08132204
178	0xbe1f653c	-0.15565962
179	0x3e22c79d	0.15896459
180	0xbd655757	-0.055991497
181	0xbc8bd00b	-0.017066976
182	0xbde9d11f	-0.1141684
183	0xbc809967	-0.015698148
184	0xbdde7851	-0.10862792
185	0xbc2ca457	-0.010537229
186	0xbd87fbc1	-0.06639815
187	0xbc62ec03	-0.013850215
188	0xbde1b2f0	-0.11020458
189	0x3dd1a460	0.1023643
190	0x3c6fcf68	0.014636852
191	0x3d5f1f7b	0.05447338
192	0xbdd1cc24	-0.10244015
193	0xbd6db307	-0.058032062
194	0xbd94fec7	-0.072751574
195	0x3e06ffdd	0.13183542
196	0xbdb3663a	-0.087597325
197	0x3d320dd7	0.04347023
198	0x3dc898cc	0.09794769
199	0xbe32c8dd	-0.17459436
200	0xbd470e8a	-0.04859785
201	0x3d72f0c2	0.059311636
202	0xbd0130b1	-0.031540576
203	0x3df0777e	0.11741541
204	0xbd325b70	-0.043544233
205	0x3d1e59d0	0.03865987
206	0xbb4806c5	-0.0030521613
207	0xbcc73864	-0.024318881
208	0x3deea2f9	0.11652178
209	0x3dddc1c4	0.108279735
210	0x3d586aab	0.0528361
211	0xbc897e20	-0.016783774
212	0xbdee865f	-0.11646723
213	0xbcac9f5e	-0.021072086
214	0x3d879a5a	0.06621237
215	0xbd45d494	-0.048298433
216	0xbca8d7e5	-0.020610759
217	0xbe9bb59f	-0.30412003
218	0x3c607755	0.013700326
219	0x3d7986f2	0.06091971
220	0x3e1bcc36	0.15214619
221	0xbde291ce	-0.11062966
222	0xbe89f5ef	-0.26945445
223	0xbde718c1	-0.11284018
224	0xbe832569	-0.2561448
225	0xbdab127a	-0.083531335
226	0xbdbce3dd	-0.09223149
227	0x3d0a75ad	0.03380363
228	0xbdc6495e	-0.096819624
229	0x3e2dd602	0.16976169
230	0x3c9976c5	0.018733392
231	0xbcb2fdfd	-0.021849627
232	0x3d990410	0.07471478
233	0x3d08e95f	0.033425685
234	0x3b2540dd	0.0025215663
235	0xbdad9290	-0.0847522
236	0x3db616cc	0.08891067
237	0xbd95b067	-0.07309037
238	0x3d337ea8	0.04382196
239	0x3e162697	0.14663158
240	0xbda91b28	-0.08257133
241	0x3c8e1a61	0.017346563
242	0xbc619c90	-0.013770238
243	0xbd0799c7	-0.033105638
244	0x3d04a74d	0.032386113
245	0xbd43ef68	-0.047835737
246	0x3d55a9c2	0.052163847
247	0xbe1f5e30	-0.15563273
248	0x3ce2e8ea	0.027698953
249	0x3df11ef5	0.11773483
250	0xbca6a30b	-0.020341417
251	0xbdca9006	-0.098907515
252	0xbc2f2e3e	-0.010692177
253	0xbd3e9af6	-0.0465345
254	0xbd8513e3	-0.06497934
255	0x3d33302b	0.04374711

decoder.weight_hh_l0 f4 [512, 128]
0	0xbd557376	-0.052112065
1	0x3ce2f8c1	0.027706506
2	0xbdf75624	-0.12076977
3	0x3ca67aca	0.020322222
4	0x3dbe8bf9	0.093040414
5	0xbc25e640	-0.010125697
6	0x3cb4c65f	0.022067247
7	0xbcf6c8d1	-0.030125054
8	0xbd803612	-0.06260313
9	0x3d1d2462	0.038364775
10	0xbcc84638	-0.024447545
11	0xbcda7a88	-0.026669756
12	0x3dc9de14	0.09856811
13	0xbd0c934a	-0.034320153
14	0x3e45a525	0.19301279
15	0xbe2ae786	-0.16689882
16	0xbd7ed0ab	-0.06221072
17	0xbd0129c2	-0.031533964
18	0xbd42ff0c	-0.047606513
19	0x3d7b8b50	0.061412156
20	0xbd4a3649	-0.049368177
21	0xbde30c37	-0.11086314
22	0x3c154b12	0.009112136
23	0xbc3b3fb5	-0.011428763
24	0xbd8235ec	-0.06357941
25	0xbd62e54f	-0.055394467
26	0x3cb216fd	0.021739477
27	0x3db7bc76	0.08971493
28	0x3d42b0ae	0.047531776
29	0xba5e5050	-0.00084805954
30	0x3cb77de0	0.022398889
31	0x3da35f2f	0.07977139
32	0x3dec8b17	0.11549967
33	0x3d779319	0.060443018
34	0xbd4a3f9f	-0.04937708
35	0x3da87585	0.0822554
36	0x3d883fd6	0.06652801
37	0x3dbb8474	0.09156123
38	0xbda5873d	-0.08082435
39	0xbd1ec08a	-0.03875784
40	0xbbbcc8ee	-0.0057612574
41	0x3cc5a87f	0.024128197
42	0x3cdf016e	0.027222361
43	0x3d2beb97	0.041972723
44	0xbd6f739d	-0.058459867
45	0xbd7789c6	-0.060434125
46	0xbdd6a6dc	-0.10481045
47	0xbdca3616	-0.09873597
48	0xbcbdb25d	-0.02315634
49	0xbc335dd9	-0.010947668
50	0x3ccf3041	0.025291564
51	0xbdc816d3	-0.097699784
52	0x3d5d00cb	0.053955834
53	0xbd34d244	-0.044145837
54	0xbcb2663e	-0.021777268
55	0xbd1c34aa	-0.038136162
56	0xbd858c51	-0.06520904
57	0xbd548452	-0.051884003
58	0xbcdc048f	-0.026857642
59	0xbd9a84c4	-0.07544854
60	0xbd552a45	-0.052042264
61	0x3d090825	0.033455033
62	0xbe14b45a	-0.14521924
63	0x3d9ff99e	0.078112826
64	0x3d9959a4	0.07487801
65	0xbdb0b3cb	-0.08628043
66	0xbd61dd0d	-0.05514245
67	0x3d061489	0.032734428
68	0xbd0b2d0b	-0.033978503
69	0xbe004b57	-0.1252874
70	0xbdc1b400	-0.094581604
71	0x3d0c2e6c	0.03422396
72	0xbd865c08	-0.06560522
73	0xbe171803	-0.14755253
74	0x3d85565f	0.065106146
75	0x3d01380f	0.031547602
76	0x3d1eeae3	0.038798224
77	0xbddb4732	-0.10706939
78	0xbcf5b483	-0.029993301
79	0x3bc53697	0.0060184705
80	0xbdb7e668	-0.089794934
81	0xbd11643b	-0.035495978
82	0xbce31891	-0.027721675
83	0xbdccc335	-0.0999817
84	0x3d4821e1	0.048860434
85	0xbca0bad3	-0.019620335
86	0xb9fb0709	-0.00047879692
87	0xbbef639e	-0.0073055765
88	0xbd6e61d5	-0.05819877
89	0xbb4a9cce	-0.0030916217
90	0xbb7fb662	-0.003901862
91	0x3d68f6a2	0.056875832
92	0xbdcd4810	-0.100235105
93	0xbc92d278	-0.017922625
94	0x3dce7c15	0.100822605
95	0xbc837cf6	-0.016050797
96	0x3c0e5ebb	0.008689578
97	0x3d4c1140	0.04982114
98	0xbd423bdb	-0.047420364
99	0x3e16907a	0.14703551
100	0x3c5ed421	0.01360038
101	0x3e17e2ac	0.14832562
102	0xbd8bc9a3	-0.068255685
103	0xbc911fd2	-0.017715368
104	0xbc63e04e	-0.013908459
105	0xbde48a84	-0.11159232
106	0x3c82b0d3	0.015953457
107	0x3dc58bca	0.09645803
108	0x3d0b008f	0.03393608
109	0xbcee4b83	-0.029088741
110	0xba33ee2c	-0.00068637985
111	0xbca86cbf	-0.020559667
112	0xbd587e8a	-0.052855052
113	0x3d81fc13	0.063469075
114	0x3c8a1802	0.016857151
115	0x3db36a70	0.08760536
116	0xbc03bbac	-0.00804035
117	0xbc7ac138	-0.015304856
118	0xbb1c9640	-0.0023893267
119	0xbd5e73aa	-0.054309525
120	0x3d34d1d3	0.044145416
121	0xbd9e5249	-0.077305384
122	0xbdda083e	-0.10646103
123	0x3b260521	0.0025332647
124	0xbded2cc2	-0.115808025
125	0x3d012360	0.031527877
126	0xbb57a037	-0.0032901892
127	0x3ad6e118	0.0016393987
128	0x3ccfd965	0.025372216
129	0x3e296ec6	0.16546163
130	0x3e3d5943	0.18491082
131	0xbcb445fd	-0.02200603
132	0xbc951685	-0.018199215
133	0x3a8a4ddb	0.0010551767
134	0xbd4f2738	-0.05057451
135	0xbca427cc	-0.020038508
136	0xbc596ae8	-0.013270117
137	0xbdc1ec7c	-0.09468934
138	0x3dcb33d8	0.09921998
139	0xbd0ab23f	-0.033861395
140	0xbd0c268f	-0.03421646
141	0xbdd4ea0d	-0.10396204
142	0xbd5923e9	-0.053012762
143	0x3c70f383	0.014706495
144	0xbc83f133	-0.016106224
145	0x3e3bcc00	0.18339539
146	0x3c09908f	0.008396282
147	0x3dd6c5d2	0.1048695
148	0xbc2863d0	-0.010277703
149	0xbb39ef41	-0.0028371366
150	0xbd8ad9a5	-0.06779794
151	0xbcd77419	-0.026300477
152	0xbdd76d1e	-0.10518859
153	0x3e11289a	0.14175645
154	0xbd87c4e4	-0.06629351
155	0xbd7e194e	-0.06203585
156	0xbc8ffb70	-0.01757595
157	0xbdf47df6	-0.11938088
158	0xbe0fb4e1	-0.14033844
159	0xbc2e9f2b	-0.010658066
160	0xbdb32c47	-0.087486796
161	0x3d934679	0.07191176
162	0x3d3bf9a3	0.04589237
163	0xbc84ed7b	-0.01622652
164	0xbdba4cda	-0.090966895
165	0xbbfb833e	-0.0076755574
166	0xbd06e369	-0.03293172
167	0x3dc8cdda	0.09804888
168	0x3e240bf5	0.16020186
169	0xbe144f1d	-0.14483304
170	0xbcccebf3	-0.025014853
171	0xbda6186a	-0.08110125
172	0xbcd84adb	-0.026402881
173	0x3d252707	0.040320423
174	0x3d388379	0.045047257
175	0xbb945860	-0.0045271367
176	0x3dd3a2c3	0.10333779
177	0xbdb21571	-0.08695496
178	0xbe0db533	-0.13838653
179	0xbcce22c3	-0.02516306
180	0x3c20ef22	0.009822639
181	0x3da6eb1c	0.08150312
182	0xbce4a560	-0.027910888
183	0xbd7a2cc9	-0.061077867
184	0xbc1dfabb	-0.009642298
185	0x3dc604f5	0.09668914
186	0xbd94089f	-0.07228207
187	0xbd81491a	-0.06312771
188	0xbd54dcce	-0.05196839
189	0x3ddc469b	0.107556544
190	0x3a44649f	0.00074918004
191	0x3ca945e3	0.020663207
192	0x3da53ab6	0.08067839
193	0x3c81ed40	0.0158602
194	0xbbfb23c0	-0.007664174
195	0x3dd3635e	0.10321687
196	0xbd0dfdf8	-0.03466603
197	0xbc9928a2	-0.018696133
198	0x3d18aa5e	0.03727185
199	0x3dd697b8	0.10478157
200	0xbd97fcab	-0.074212395
201	0xbdc57db0	-0.096431136
202	0xbd119f8c	-0.035552546
203	0x3c8eab3e	0.017415639
204	0xbcb0ae86	-0.021567594
205	0x3d6b9cd1	0.0575226
206	0x3e13165b	0.14363997
207	0xbcc8c284	-0.024506815
208	0x3cf67343	0.030084258
209	0xbdcee293	-0.10101809
210	0xbc2fa25a	-0.01071986
211	0x3ce57eae	0.028014507
212	0x3b5f0520	0.0034030154
213	0x3ba9e033	0.0051841973
214	0xbc1aca3c	-0.0094476305
215	0x3d788002	0.060668953
216	0x3c66668e	0.014062537
217	0x3cce59ce	0.025189307
218	0xbd29c548	-0.041447908
219	0xbdc0de79	-0.09417433
220	0x3d5eaa25	0.05436148
221	0xbc8b0c9a	-0.016973782
222	0xbc4c0dae	-0.012454433
223	0x3de56218	0.112003505
224	0x38d0630c	9.936662e-05
225	0x3daa907b	0.08328339
226	0x3cfaa97c	0.030598395
227	0xbdc54049	-0.09631402
228	0x3bba1770	0.0056790635
229	0xbe0a076b	-0.13479392
230	0xbd1cc6dc	-0.038275585
231	0x3dbbcfab	0.09170469
232	0x3d224c55	0.039623577
233	0x3dbd6e3c	0.09249541
234	0xbdd958f8	-0.106126726
235	0x3d9d4768	0.07679635
236	0xbdaeca92	-0.08534731
237	0x3dacfd3b	0.084467374
238	0x3d7c18b1	0.061546985
239	0xbcb587d1	-0.022159489
240	0x3c99670f	0.0187259
241	0x3daeb202	0.08530046
242	0xbd2e2ecb	-0.042525094
243	0xbc240ce6	-0.010012841
244	0xbd641365	-0.05568256
245	0x3d876415	0.06610886
246	0x3c553988	0.013014205
247	0xbbff02ba	-0.0077823075
248	0x3e2bd211	0.16779353
249	0xbaf8befd	-0.0018977817
250	0xbcded275	-0.027199963
251	0x3e0fdfd9	0.14050235
252	0x3e1d07f0	0.15335059
253	0xbdc35c4b	-0.09539088
254	0xbd599ceb	-0.053128164
255	0xbe25105c	-0.16119522

decoder.bias_ih_l0 f4 [512]
0	0x3cd57303	0.026055818
1	0x3ca11631	0.019663902
2	0x3d417085	0.047226448
3	0x3e2a33b6	0.16621289
4	0x3ddcb6f2	0.107770815
5	0x3caa15d2	0.020762358
6	0x3dcf733a	0.101293996
7	0x3dade5a3	0.08491065
8	0xbc9e20b3	-0.019302702
9	0x3cf50757	0.029910726
10	0x3d133740	0.035941362
11	0xbca4859c	-0.020083241
12	0x3dcf0df8	0.10110086
13	0x3c40ed30	0.0117753
14	0xbc97e7e0	-0.018543184
15	0xbd72e653	-0.059301686
16	0xbcb367cd	-0.021900082
17	0xbc8e57e0	-0.017375886
18	0x3c20194c	0.009771656
19	0x3d713749	0.058890615
20	0x3e1af787	0.15133487
21	0x3c23ba7b	0.009993191
22	0xbc6c0536	-0.014405539
23	0xbd99f8f4	-0.07518187
24	0x3d699ce3	0.057034384
25	0x3ce0f120	0.027458727
26	0x3d8a9970	0.06767547
27	0x3da603b8	0.08106178
28	0xbca7af2d	-0.020469273
29	0x3e0484b1	0.12941243
30	0x3dabf713	0.08396735
31	0x3d7d8001	0.061889652
32	0x3e06141b	0.13093607
33	0x3d92883a	0.071548894
34	0x3abfec4e	0.0014642568
35	0xbd752154	-0.059846237
36	0xbc9b066f	-0.018923966
37	0x3d4f198b	0.05056147
38	0xbd263c93	-0.04058511
39	0x3e0a2dd1	0.1349404
40	0x3d20be66	0.039244078
41	0x3d3d7b5e	0.04626023
42	0x3d9099b3	0.07060566
43	0x3d37e451	0.044895474
44	0x3c37b9a4	0.011213694
45	0x3d73bdb4	0.059507087
46	0x3d6230e2	0.0552224
47	0x3d122c35	0.03568669
48	0x3d494555	0.049138386
49	0xbdccb0bd	-0.09994648
50	0xbcbe5e18	-0.023238227
51	0x3d97e0ec	0.07415947
52	0x3cc15978	0.023602232
53	0x3d358414	0.044315413
54	0xbcfad5ec	-0.030619584
55	0x3e2bf7eb	0.16793792
56	0x3cf2061c	0.029543929
57	0x3cf1e1d7	0.029526634
58	0x3bbda180	0.0057870746
59	0xbcdf757f	-0.027277706
60	0x3d1baad3	0.038004708
61	0x3d8c12d3	0.06839528
62	0x3d779816	0.060447775
63	0x3dc1fbe5	0.09471873
64	0xbb9191e4	-0.0044424403
65	0x3d8ec57e	0.069712624
66	0x3c43af0d	0.011943591
67	0x3e167947	0.14694701
68	0xbbecdfcf	-0.0072288285
69	0xbdb4732c	-0.0881103
70	0x3de76f96	0.1130058
71	0x3db0830a	0.08618744
72	0x3dc7b3e8	0.09751111
73	0x3e2c8540	0.16847706
74	0x3d2b01d0	0.041749775
75	0x3dc223bb	0.09479471
76	0x3d4971ff	0.04918098
77	0x3c505698	0.012715958
78	0x3d8fec61	0.070275076
79	0x3e071454	0.13191348
80	0x3d4918af	0.049095806
81	0xbd71a661	-0.058996562
82	0x3afc22b6	0.0019236419
83	0x3d9d44d9	0.07679147
84	0xbd844af8	-0.06459612
85	0xbcc554c6	-0.024088275
86	0x3d32fc01	0.04369736
87	0x3b7710d0	0.003769923
88	0xbd388727	-0.045050766
89	0xb99de2bb	-0.000301143
90	0x3d8f6f0c	0.070036024
91	0x3d9c33a8	0.0762704
92	0x3d540541	0.051762823
93	0xbd2c79a7	-0.042108204
94	0xbd8dd050	-0.06924498
95	0x3e132fbe	0.14373681
96	0x3af1c322	0.0018444995
97	0xbc3250cb	-0.01088352
98	0x3ce25cd7	0.02763216
99	0xbd74e1ff	-0.05978584
100	0x3dd00760	0.10157657
101	0xbd2598a6	-0.04042878
102	0x3c497d39	0.012297922
103	0x3d9e8bea	0.0774153
104	0x3cb082bc	0.021546714
105	0x3ce2898c	0.027653478
106	0x3dcfe17f	0.10150432
107	0xbd587af3	-0.05285163
108	0x3e141f8f	0.14465164
109	0x3cddd799	0.027080344
110	0x3c49f1ff	0.012325763
111	0x3cd9f2d8	0.026605055
112	0x3d5c4a72	0.053781934
113	0x3e1095cc	0.14119643
114	0xbb4c2cbc	-0.0031154593
115	0xbb4a362a	-0.0030855038
116	0x3de39828	0.11113006
117	0x3dc30cd1	0.09523929
118	0x3d8810b9	0.066438146
119	0xbde5a944	-0.112139255
120	0xbcedaa69	-0.029011922
121	0xbb114652	-0.0022167158
122	0x3db2d0f9	0.087312646
123	0x3d27cc90	0.04096657
124	0x3c7e084b	0.015504907
125	0xbc9e2d29	-0.019308643
126	0xbcf0c49d	-0.029390628
127	0xbd0050cf	-0.031327065
128	0x3cd457dd	0.025920803
129	0x3da942b0	0.08264673
130	0x3d3655e6	0.044515513
131	0xbcf03756	-0.029323261
132	0x3d495450	0.049152672
133	0xbc178776	-0.009248605
134	0x3cf86353	0.030320799
135	0xbd3e0e51	-0.046400372
136	0xbd5d8f58	-0.05409178
137	0xbcafd4a6	-0.021463703
138	0x3d31622d	0.04330652
139	0x3d580c2d	0.052745987
140	0xbd4d3e8b	-0.050108474
141	0xbd99a532	-0.07502212
142	0x3dc15b40	0.09441233
143	0x3d9a9aa2	0.07549025
144	0xbc7c5946	-0.015402144
145	0xbce8c795	-0.02841548
146	0x3d905107	0.07046705
147	0x3cd6354a	0.026148457
148	0x3cc12b8a	0.023580331
149	0xbd0c9127	-0.034318116
150	0xbbc0c66f	-0.00588303
151	0x3d1c3dce	0.03814488
152	0xbd458d9d	-0.048230756
153	0xbc8542ae	-0.016267147
154	0xbccdd905	-0.025127897
155	0xbd1ef5aa	-0.038808502
156	0xbd54e451	-0.051975552
157	0x3dd15c98	0.10222739
158	0xbdbe5162	-0.09292866
159	0x3b830067	0.0039978507
160	0xbd96b4cb	-0.07358702
161	0x3bd0ac3e	0.006368189
162	0x3d8635b1	0.065532096
163	0xbc0e6e22	-0.00869325
164	0xbd1fe4fd	-0.03903674
165	0x3d1902cf	0.037356194
166	0x3d6d12b9	0.057879183
167	0x3e0986ef	0.1343038
168	0xbcabef88	-0.02098824
169	0x3dc47a3b	0.09593626
170	0xbcb2cadb	-0.021825245
171	0x3da19f6a	0.07891734
172	0x3d4503b5	0.04809924
173	0x3c092ffc	0.008373257
174	0x3df2ed23	0.118616365
175	0x3cc7e9f0	0.024403542
176	0x3de6b335	0.1126465
177	0x3d0f6247	0.035005834
178	0xbd6efab8	-0.058344573
179	0xbb9f53d5	-0.0048622885
180	0x3bbff0ed	0.005857578
181	0x3d4ae71a	0.049536802
182	0xbca826d4	-0.020526327
183	0x3db37c89	0.087639876
184	0x3d91d25a	0.071201995
185	0x3cb8ee75	0.022574643
186	0x3d0ed7bc	0.03487371
187	0x3d0b2db5	0.033979136
188	0x3daaed09	0.08345992
189	0xbd08a1f1	-0.033357564
190	0x3d6dd94a	0.05806855
191	0x3dc4ea9b	0.0961506
192	0x3da3fd2a	0.080072716
193	0x3c98ae39	0.018637763
194	0xbd6581f3	-0.056032132
195	0x3d9bf785	0.0761557
196	0x3daeac0c	0.08528909
197	0xbd1f6d9b	-0.038922887
198	0x3df93ed9	0.1217019
199	0x3c9afc54	0.018919148
200	0xbc9e8ffd	-0.019355768
201	0x3e089ea6	0.1334177
202	0x3c5bd3ae	0.013417168
203	0xbc53378e	-0.012891663
204	0xbd4a580c	-0.049400374
205	0x3d9459b1	0.0724367
206	0xbcaf97c0	-0.021434665
207	0x3d88b4fd	0.06675146
208	0xba978dff	-0.0011562704
209	0xbc333de6	-0.010940051
210	0x3deb32fa	0.114843324
211	0x3d286854	0.04111512
212	0x3dc1b304	0.09457973
213	0xbce12d98	-0.027487561
214	0xbd900bea	-0.070335224
215	0xbce26211	-0.027634652
216	0xbd776829	-0.06040207
217	0x38aa2199	8.11249e-05
218	0x3d9424a1	0.07233549
219	0xbcdba611	-0.026812585
220	0x3cc445f7	0.023959143
221	0xbd2ea806	-0.04264071
222	0xbd328c5a	-0.04359088
223	0x3d7070ee	0.05870145
224	0x3da5b520	0.080911875
225	0xbd1be576	-0.038060628
226	0x3d3a154e	0.045430474
227	0xbca845c1	-0.020541074
228	0x3e07fc91	0.1327994
229	0x3c647f34	0.013946343
230	0x3df37526	0.11887579
231	0x3db91251	0.09036697
232	0x3d0e1205	0.034685154
233	0x3d917ac3	0.07103493
234	0x3dd3cef0	0.103422046
235	0x3d8e49f3	0.069476984
236	0x3c08029b	0.008301402
237	0xbdf48b28	-0.119406044
238	0x3ced516e	0.028969493
239	0x3d8234bc	0.063577145
240	0xbce3d059	-0.027809309
241	0x3d8c2604	0.068431884
242	0x3cde9d10	0.027174503
243	0x3bb7b600	0.005606413
244	0xbd04dacd	-0.032435227
245	0x3e0047d8	0.12527406
246	0xbcacb417	-0.021081967
247	0xbbf8a4f8	-0.007588025
248	0xbca3e003	-0.020004278
249	0x3ce450a3	0.027870482
250	0x3da3621d	0.07977698
251	0x3cf8c6b7	0.030368192
252	0xbdc1e28b	-0.09467038
253	0xbcc00bfe	-0.023443218
254	0x3defce05	0.11709217
255	0xbc4794a1	-0.012181432
